Project/Project_files/ckpt/mobilenetv2_19_2_stem/mobilenetv2_19_2_stem_8.pt (torch, 36779 bytes, 52 tensors)

conv1.weight f4 [24, 3, 3, 3]
-0.12866405 -0.17597091 -0.021897124 0.11110382 -0.082522094 0.14011776 -0.13127846 -0.20678695
-0.07755428 0.114975445 0.13393237 -0.06338212 -0.052672368 0.068759605 -0.17735043 0.12254855
0.08026481 -0.13972701 0.13146919 0.2438364 0.25239024 0.13047585 0.17302229 0.08124112
-0.12909923 -0.08483661 0.08333683 0.16280465 -0.010566794 -0.1505628 0.054397322 -0.16136478
0.09363902 0.049374707 0.10921128 -0.15024763 0.08810881 0.17413045 -0.13858889 -0.15021294
-0.1371434 0.0874654 -0.12039408 0.18472953 -0.23919873 -0.036452916 -0.037468083 -0.035666283
-0.026710534 0.14507069 0.033437103 -0.23097533 0.14270012 -0.071699895 -0.05009635 -0.20043896
-0.10754868 -0.029034441 0.09474821 -0.15516119 0.20176503 -0.041478094 0.2198201 0.005932645
0.024557373 -0.13985342 -0.0117728375 -0.23983847 -0.22037604 0.1138259 -0.06257425 -0.21938866
0.12877417 -0.032476988 -0.085529245 0.0879698 -0.13478398 0.07655116 0.1570614 -0.036491137
0.19636491 0.28116247 -0.06725274 0.008376045 0.1359186 -0.08753009 -0.002819338 0.02069551
-0.15755427 -0.108927995 -0.110077485 -0.031887583 0.099910036 -0.06263675 -0.023719862 0.18862757
0.15406807 0.11912183 -0.14538456 0.0065470925 -0.021519473 0.08979686 -0.06527911 -0.21352428
0.120455764 -0.013789283 0.089889415 -0.0018760337 0.09034299 0.03916877 0.00023228227 -0.15164189
-0.12387422 0.08606006 -0.18904631 -0.1794585 0.035895247 0.06745225 -0.14212862 -0.07627959
-0.025086215 -0.14010517 0.07035623 -0.10945866 -0.1333826 0.11796582 -0.04973664 0.113835394
0.12321781 0.0029984307 0.021973377 0.23504758 0.0933679 0.11995793 -0.123609655 -0.21704659
0.11226738 -0.15540028 -0.18405151 0.0054116743 -0.086048536 0.14204443 0.12852262 -0.14878505
-0.043698166 0.14554384 0.13768993 0.023772905 0.13234405 0.09472557 -0.11020564 0.0686799
-0.11713674 0.016774274 -0.06472258 0.0006576794 -0.049135607 -0.0055618547 -0.06798271 0.074114814
0.10945474 -0.049859054 -0.17995209 -0.06637486 -0.0014487859 0.10147711 0.09144953 0.072007194
0.13754427 0.004458249 -0.053803623 -0.13565192 -0.10076059 0.08122936 0.019010337 0.025088493
0.066772886 0.06306585 0.23412257 0.14983654 0.14280581 0.0052563176 -0.085506216 -0.15436189
-0.1632478 -0.20649445 -0.15101434 -0.08422041 -0.18316433 -0.12257349 -0.058269784 0.13073336
-0.15396085 -0.039892226 -0.13700695 0.14000714 0.07313937 0.11329915 0.015788602 -0.2513979
-0.0053993543 -0.2079908 -0.12199244 -0.06699133 0.13738757 0.15154035 0.17630959 0.025222154
0.033037636 -0.04474426 -0.056668766 0.081754096 -0.030321533 0.12546857 0.1996751 0.21400549
-0.12672907 -0.09662129 -0.18454184 -0.1443561 0.09625299 -0.001032524 0.20160644 -0.059078958
0.02290682 0.061281692 -0.08494667 0.0846781 0.016775785 0.12051053 0.1688691 -0.0630153
0.028146058 0.28394583 0.13172105 -0.19733043 -0.08133305 0.19377829 0.030904368 -0.025713053
-0.097923934 -0.1714276 0.11700127 -0.031322237 -0.27600908 -0.077797815 0.20528069 -0.14961034
0.20837884 0.15406659 0.15637627 -0.06999047 -0.008160899 0.08847904 0.06502514 0.044728238
00000000: 82c0 03be b831 34be 9961 b3bc 668a e33d
00000010: 5801 a9bd 087b 0f3e dc6d 06be f5bf 53be
00000020: c7d4 9ebd 3f78 eb3d 9125 093e 7cce 81bd
00000030: fbbe 57bd d6d1 8c3d 5a9b 35be bcfa fa3d
00000040: e061 a43d 9914 0fbe dc9f 063e 40b0 793e
00000050: 4b39 813e 769b 053e c12c 313e bf61 a63d
00000060: 9732 04be d1be adbd 80ac aa3d 43b6 263e
00000070: 5920 2dbc 222d 1abe bacf 5e3d cf3c 25be
00000080: d1c5 bf3d 223d 4a3d 2aaa df3d 84da 19be
00000090: 6472 b43d 414f 323e 3fea 0dbe 6cd1 19be
000000a0: 526f 0cbe 0f21 b33d 2c91 f6bd bd29 3d3e
000000b0: 83f0 74be a74f 15bd 2278 19bd cf16 12bd
000000c0: 0dd0 dabc 698d 143e 58f5 083d cc84 6cbe
000000d0: fb1f 123e 65d7 92bd d531 4dbd df3f 4dbe
000000e0: 7b42 dcbd a3d9 edbc 590b c23d 93e2 1ebe
000000f0: 7e9b 4e3e efe4 29bd 8518 613e a266 c23b
00000100: 8b2c c93c bc35 0fbe dce2 40bc 3798 75be
00000110: 42aa 61be 8e1d e93d ee26 80bd 6ca7 60be
00000120: 60dd 033e 9706 05bd f529 afbd 8329 b43d
00000130: d004 0abe dbc6 9c3d b4d4 203e bb77 15bd
00000140: e213 493e 87f4 8f3e cebb 89bd ae3b 093c
00000150: 3f2e 0b3e fa42 b3bd a5c4 38bb a189 a93c
00000160: e855 21be a415 dfbd 4e70 e1bd 8e9c 02bd
00000170: a29d cc3d b247 80bd 2850 c2bc 9627 413e
00000180: 05c4 1d3e 25f6 f33d b1df 14be fe88 d63b
00000190: 9b49 b0bc 6be7 b73d 0eb1 85bd 1ca6 5abe
000001a0: 83b1 f63d 72ec 61bc f117 b83d 3fe5 f5ba
000001b0: bf05 b93d 6f6f 203d cc90 7339 0348 1bbe
000001c0: c4b1 fdbd 4240 b03d 5b95 41be f8c3 37be
000001d0: e506 133d 6824 8a3d 2a8a 11be 7938 9cbd
000001e0: 9b81 cdbc bb77 0fbe ed16 903d dd2b e0bd
000001f0: 7395 08be 1098 f13d a6b8 4bbd 8822 e93d
00000200: 9f59 fc3d 5281 443b 8301 b43c 50b0 703e
00000210: ab37 bf3d 81ac f53d 0f27 fdbd 7641 5ebe
00000220: 71ec e53d 4021 1fbe 0078 3cbe 6a54 b13b
00000230: 373a b0bd 1874 113e 6f9b 033e 1c5b 18be
00000240: d9fc 32bd 7209 153e 97fe 0c3e 65bf c23c
00000250: 3385 073e 7bff c13d 7fb3 e1bd 0ca8 8c3d
00000260: 63e5 efbd 346a 893c 468d 84bd 1e68 2c3a
00000270: 6b42 49bd 3840 b6bb 853a 8bbd 82c9 973d
00000280: cf29 e03d 0239 4cbd 5c45 38be 8bef 87bd
00000290: 30e5 bdba 3bd3 cf3d e449 bb3d 8278 933d
000002a0: 68d8 0c3e 8116 923b 3061 5cbd 56e8 0abe
000002b0: 915b cebd 945b a63d 91bb 9b3c 6286 cd3c
000002c0: 39c0 883d ab28 813d d4bd 6f3e c06e 193e
000002d0: b03b 123e 303d ac3b e21d afbd 0b11 1ebe
000002e0: 6e2a 27be 4873 53be 81a3 1abe c07b acbd
000002f0: 6e8f 3bbe cf07 fbbd 4cac 6ebd f7de 053e
00000300: eaa7 1dbe 0866 23bd 8d4b 0cbe 085e 0f3e
00000310: 18ca 953d 6209 e83d 1957 813c 3ab7 80be
00000320: 11ed b0bb 8afb 54be 2cd7 f9bd c032 89bd
00000330: 54af 0c3e 652d 1b3e 808a 343e b19e ce3c
00000340: 7952 073d c245 37bd 821d 68bd b16e a73d
00000350: dd64 f8bc d57a 003e a177 4c3e 4124 5b3e
00000360: 44c5 01be 62e1 c5bd 89f8 3cbe 16d2 13be
00000370: 4a20 c53d c255 87ba eb71 4e3e c7fc 71bd
00000380: 15a7 bb3c 8302 7b3d 85f8 adbd b66b ad3d
00000390: 5f6d 893c 3ace f63d 05ec 2c3e 2a0e 81bd
000003a0: 9092 e63c 5961 913e e2e1 063e fd10 4abe
000003b0: f191 a6bd d16d 463e 282b fd3c 2ea4 d2bc
000003c0: 588c c8bd b78a 2fbe 5d9e ef3d bf4b 00bd
000003d0: 1051 8dbe 7654 9fbd 1a35 523e 7433 19be
000003e0: 4361 553e a2c3 1d3e 1a21 203e 2a57 8fbd
000003f0: 4bb5 05bc 8034 b53d e72b 853d f534 373d

bn1.weight f4 [24]
0.96631855 0.95123833 0.95786214 1.0407583 0.9535795 1.0843074 1.0082929 1.0845089
1.000087 0.98611623 0.95655894 0.96814233 0.8980879 1.0293978 1.130021 0.99048024
0.8916825 1.0003933 0.9835645 0.91910774 1.0082628 1.0661669 1.0093426 1.138031
00000000: a760 773f 5b84 733f 7436 753f 9137 853f
00000010: c91d 743f 96ca 8a3f be0f 813f 30d1 8a3f
00000020: da02 803f 1d72 7c3f 0ce1 743f 2dd8 773f
00000030: 17e9 653f 4fc3 833f 87a4 903f 1d90 7d3f
00000040: 4e45 643f e30c 803f e2ca 7b3f a54a 6b3f
00000050: c10e 813f 2878 883f 2332 813f 00ab 913f

bn1.bias f4 [24]
0.012882745 -0.037848055 -0.012111348 -0.03187164 -0.0013138993 -0.018790321 0.018969694 -0.06940844
-0.011259411 -0.0038596815 0.01235543 -0.03049969 0.00538164 0.033648483 0.030523151 0.019021804
-0.08344651 -0.0056482987 -0.03132005 -0.043329585 0.04173478 0.10769973 -0.042445555 -0.0058577848
00000000: 2612 533c 9006 1bbd ad6e 46bc d68b 02bd
00000010: 2537 acba 29ee 99bc 5566 9b3c 0326 8ebd
00000020: 6579 38bc b6f2 7cbb 6e6e 4a3c 7cda f9bc
00000030: 7858 b03b fed2 093d b00b fa3c 9dd3 9b3c
00000040: 01e6 aabd 5d15 b9bb 7449 00bd 5d7a 31bd
00000050: 17f2 2a3d ad91 dc3d 64db 2dbd a9f2 bfbb

bn1.running_mean f4 [24]
0.009534333 0.0011382749 -0.011934339 0.00065160485 -0.0022658668 0.0025181822 0.00036881762 -0.011074278
0.0035387937 0.0055501065 -0.0076898597 0.005451171 0.008000528 0.003166928 0.0026861771 0.0029809133
0.0006566642 -0.00015874479 -0.00029047954 0.001252323 0.0052771512 0.0012096815 -0.002851023 -0.0053420635
00000000: e435 1c3c 2b32 953a 3f88 43bc 76d0 2a3a
00000010: f07e 14bb 1608 253b dd5d c139 e370 35bc
00000020: 1beb 673b abdd b53b 38fb fbbb bd9f b23b
00000030: a614 033c 3c8c 4f3b 930a 303b 6d5b 433b
00000040: fd23 2c3a bb74 26b9 814b 98b9 fd24 a43a
00000050: f4eb ac3b 2d8e 9e3a 3bd8 3abb 7a0c afbb

bn1.running_var f4 [24]
0.7146134 0.21591347 0.6167808 0.0820485 0.3247661 0.09606658 0.4092839 0.56038296
0.23419616 0.2295094 0.23763426 0.487373 0.59396756 0.2946799 0.2540572 0.1997063
0.25973806 0.12440055 0.124628134 0.47067508 0.4285057 0.13665335 0.30915368 0.15251532
00000000: e7f0 363f 6c18 5d3e 59e5 1d3f 0b09 a83d
00000010: be47 a63e 8ebe c43d a98d d13e 4275 0f3f
00000020: 1ed1 6f3e 8304 6b3e 6556 733e f488 f93e
00000030: 420e 183f 49e0 963e c913 823e cf7f 4c3e
00000040: 63fc 843e b7c5 fe3d 093d ff3d 53fc f03e
00000050: 1965 db3e dbee 0b3e 6449 9e3e fa2c 1c3e

layers.0.conv1.weight f4 [24, 24, 1, 1]
-0.074553125 -0.07079697 -0.07781299 0.23974608 0.10094803 -0.035692576 -0.20102273 -0.1567035
-0.1736886 -0.13017513 -0.06879601 -0.2070849 -0.1370476 0.073821284 0.06488683 0.10885704
0.052583903 0.019573944 0.1225398 -0.058099966 0.04895071 0.13614252 -0.13872789 0.084729545
-0.15320455 0.019132676 -0.24808815 -0.09658112 -0.16468397 0.027998034 0.3117492 -0.11003416
-0.0061909887 0.0324516 -0.07615643 -0.015666997 -0.029330758 0.027312372 0.27828592 -0.010325229
-0.10228134 0.05729779 0.02661809 0.05035122 -0.089182004 -0.008210132 0.03345248 -0.09644017
-0.068499275 0.18960802 -0.21761787 0.16669562 0.1177233 0.021610154 -0.11962776 -0.07291599
-0.13283125 0.0629001 -0.31558454 -0.044492655 -0.08058114 -0.040736526 -0.11714683 0.036794137
-0.11211184 0.19967134 0.1053923 0.025341079 -0.13323255 -0.18034963 -0.16503604 -0.034078896
-0.09827719 0.23700938 0.056415293 0.16479419 0.16302069 0.03555479 0.028757546 0.11328658
-0.18338268 0.16267028 -0.054100044 0.1950869 -0.16177143 -0.13324593 0.03738822 0.04212353
0.08849744 0.17383906 0.12323227 0.20596379 -0.033716608 -0.2237791 0.14234063 -0.09415768
-0.00598166 0.0050702477 -0.1537941 0.005060667 0.022978809 -0.15550414 0.054635286 -0.0015975131
-0.028931689 -0.22211348 0.09256633 -0.117359914 -0.05726968 -0.28536403 -0.21855314 -0.017608171
0.1104053 -0.10725107 0.24928437 0.11111201 -0.049336657 -0.001784618 -0.16647093 0.23792028
0.01383683 -0.08767091 0.004764614 -0.28244615 -0.16479552 0.13414498 -0.13131233 0.094687365
-0.10179164 -0.06174875 -0.05390866 0.18465638 0.10742489 -0.067356795 -0.073995695 0.23627861
0.081474945 0.21860354 -0.03347509 -0.07141006 0.020212846 0.29769954 -0.10857133 -0.16460447
0.100664034 -0.070170395 -0.13142046 -0.22163522 -0.11268971 -0.24527864 -0.14418247 -0.25203586
0.11378068 -0.15301928 -0.14033626 0.11890949 -0.09716552 -0.063765414 -0.0005767244 -0.079443105
0.16391513 -0.03135005 0.14577477 -0.1442212 0.19032717 0.004076048 -0.132113 0.12412286
-0.12842306 0.12978151 -0.2197619 0.15396062 -0.08605247 -0.015884655 0.1474652 0.06307552
-0.0010465219 0.036493525 -0.016363127 -0.0029041816 -0.0064348336 0.14471012 0.15393527 -0.13983226
0.25303853 -0.05958045 -0.14118804 -0.09229142 0.13365087 0.1552194 0.12624176 0.029275512
0.1768106 0.052496783 -0.08542227 -0.14241615 -0.029284412 0.13229677 -0.20853479 -0.017908338
0.15777217 0.048755437 -0.1880565 -0.19157436 0.0020429622 0.16811067 0.07422318 0.07350486
-0.1645283 -0.13319989 -0.13340992 -0.2319635 0.0725933 -0.02197764 -0.17041768 -0.016137779
-0.04873811 0.16004182 0.17075682 0.15904902 -0.09113818 0.03799702 -0.06319717 0.2432949
-0.09876512 -0.11149302 0.1244136 -0.077287614 -0.05638485 0.18490803 -0.032257825 0.1753996
0.07713666 0.09175155 0.119670905 0.026869502 -0.06393227 -0.0039568213 0.04145622 -0.25469124
0.055215273 -0.11715207 0.031778924 0.13865295 0.03325318 -0.09966026 -0.062064625 0.00960955
0.0951142 -0.052178994 -0.065693885 -0.10891075 -0.1736568 0.012433838 -0.029998515 -0.2693626
00000000: 4faf 98bd 00fe 90bd 6b5c 9fbd ff7f 753e
00000010: d7bd ce3d 6132 12bd e7d8 4dbe e276 20be
00000020: 6ddb 31be a14c 05be ece4 8cbd 100e 54be
00000030: 3556 0cbe 9d2f 973d 63e3 843d 71f0 de3d
00000040: 3862 573d 8959 a03c 26f6 fa3d 3bfa 6dbd
00000050: 8a80 483d f268 0b3e af0e 0ebe af86 ad3d
00000060: a7e1 1cbe 21bc 9c3c d20a 7ebe 52cc c5bd
00000070: eaa2 28be 225c e53c 979d 9f3e 9759 e1bd
00000080: c7dd cabb f8eb 043d e7f7 9bbd 1358 80bc
00000090: 0f47 f0bc 32be df3c 7e7b 8e3e 262b 29bc
000000a0: e178 d1bd 16b1 6a3d 2e0e da3c 153d 4e3d
000000b0: 0ea5 b6bd ca83 06bc 7805 093d 6d82 c5bd
000000c0: 5949 8cbd 9b28 423e 38d7 5ebe 42b2 2a3e
000000d0: ea18 f13d c707 b13c 66ff f4bd fb54 95bd
000000e0: ea04 08be c5d1 803d 4c94 a1be ee3d 36bd
000000f0: ba07 a5bd 58db 26bd adea efbd 73b5 163d
00000100: e49a e5bd a576 4c3e ebd7 d73d 1898 cf3c
00000110: 1d6e 08be 93ad 38be 35ff 28be 5096 0bbd
00000120: 8d45 c9bd 96b2 723e b913 673d cfbf 283e
00000130: e5ee 263e e6a1 113d f294 eb3c cb02 e83d
00000140: abc8 3bbe 0a93 263e 0298 5dbd dcc4 473e
00000150: 69a7 25be 9f71 08be 6424 193d b989 2c3d
00000160: 253e b53d de02 323e 3361 fc3d 2ce8 523e
00000170: 6d1a 0abd 5926 65be bec1 113e bed5 c0bd
00000180: cd01 c4bb 5224 a63b 337c 1dbe f4d3 a53b
00000190: 0e3e bc3c 7a3c 1fbe 40c9 5f3d a563 d1ba
000001a0: 2602 edbc b771 63be 6b93 bd3d 655a f0bd
000001b0: 9d93 6abd 3c1b 92be 65cc 5fbe 033f 90bc
000001c0: 2d1c e23d 73a6 dbbd 6744 7f3e b28e e33d
000001d0: 3c15 4abd d8e9 e9ba 5b77 2abe 60a1 733e
000001e0: dfb3 623c ce8c b3bd 7b20 9c3b c89c 90be
000001f0: 28c0 28be 4d5d 093e bd76 06be 73eb c13d
00000200: 2378 d0bd 42ec 7cbd 54cf 5cbd 9016 3d3e
00000210: 9501 dc3d 5cf2 89bd 0e8b 97bd 05f3 713e
00000220: 56dc a63d 9bd9 5f3e 2d1d 09bd 703f 92bd
00000230: 6995 a53c 136c 983e a55a debd 138e 28be
00000240: f228 ce3d 7fb5 8fbd 1693 06be 58f4 62be
00000250: ddc9 e6bd 532a 7bbe 92a4 13be d80a 81be
00000260: d805 e93d 16b1 1cbe 4fb4 0fbe d286 f33d
00000270: b7fe c6bd 7197 82bd 522f 17ba 11b3 a2bd
00000280: 5ed9 273e e968 00bd fb45 153e b9ae 13be
00000290: 20e5 423e 5e90 853b a148 07be 2034 fe3d
000002a0: 5681 03be 72e5 043e 4309 61be daa7 1d3e
000002b0: 473c b0bd 8920 82bc 1e01 173e bd2d 813d
000002c0: 732b 89ba 3c7a 153d f70b 86bc 1554 3ebb
000002d0: 4cdb d2bb e42e 143e 35a1 1d3e 3030 0fbe
000002e0: 448e 813e a10a 74bd 9993 10be 4903 bdbd
000002f0: c6db 083e d6f1 1e3e 8545 013e 33d3 ef3c
00000300: d70d 353e de06 573d dff1 aebd 8ad5 11be
00000310: dde5 efbc ce78 073e 258a 55be 82b4 92bc
00000320: 078f 213e c8b3 473d e291 40be 122c 44be
00000330: 38e3 053b 3425 2c3e 5302 983d b789 963d
00000340: 1b7a 28be 8d65 08be 9c9c 08be d787 6dbe
00000350: ccab 943d 740a b4bc f981 2ebe 6033 84bc
00000360: 9da1 47bd 01e2 233e e0da 2e3e bfdd 223e
00000370: a7a6 babd c3a2 1b3d 856d 81bd 4c22 793e
00000380: 5e45 cabd 7456 e4bd 8fcc fe3d f848 9ebd
00000390: cdf3 66bd 8858 3d3e c820 04bd f49b 333e
000003a0: d3f9 9d3d 3de8 bb3d 0516 f53d 6e1d dc3c
000003b0: ecee 82bd 39a8 81bb ffcd 293d e466 82be
000003c0: 6929 623d 6ded efbd 9e2a 023d 0afb 0d3e
000003d0: 7d34 083d ae1a ccbd 7a37 7ebd 6071 1d3c
000003e0: 3ccb c23d a4b9 55bd 848a 86bd 990c dfbd
000003f0: 17d3 31be 4cb7 4b3c 72bf f5bc e5e9 89be

layers.0.bn1.weight f4 [24]
1.0102502 0.97844136 0.43769154 0.6010642 0.9630937 0.88605607 0.5674035 0.9152133
1.0479534 0.93691385 0.48034203 1.0232296 0.56271 0.9515521 1.0329908 0.83164096
0.6902822 0.80977225 0.8822325 0.71711487 1.2264122 0.93558896 0.8156783 0.7409542
00000000: e14f 813f 227b 7a3f 1b19 e03e 58df 193f
00000010: 4f8d 763f 92d4 623f 5b41 113f 6b4b 6a3f
00000020: 5623 863f 96d9 6f3f 64ef f53e 30f9 823f
00000030: c30d 103f eb98 733f 0b39 843f 6ce6 543f
00000040: 56b6 303f 3c4d 4f3f fdd9 613f d794 373f
00000050: 13fb 9c3f c282 6f3f 4bd0 503f 2daf 3d3f

layers.0.bn1.bias f4 [24]
-0.015287907 -0.009474306 0.366951 0.4123992 0.064416125 -0.11652724 0.30271867 0.088178106
0.031366125 0.23959342 0.43588445 -0.0065995357 0.43345484 0.051774725 0.00085707736 -0.1475222
-0.24348497 0.17251691 -0.12219723 0.20261966 -0.078615256 -0.07209031 -0.16334662 -0.19196329
00000000: 217a 7abc 1f3a 1bbc 00e1 bb3e fd25 d33e
00000010: 9aec 833d d5a5 eebd f1fd 9a3e b996 b43d
00000020: c479 003d fa57 753e 3f2c df3e eb40 d8bb
00000030: cbed dd3e bc11 543d 7dad 603a 0f10 17be
00000040: 2054 79be 46a8 303e 8b42 fabd 877b 4f3e
00000050: 0901 a1bd 16a4 93bd 5644 27be 0692 44be

layers.0.bn1.running_mean f4 [24]
0.03229395 0.024800299 -0.028148293 -0.08517273 -0.022931773 0.03242486 0.023298493 -0.000959334
0.048366368 -0.034591578 -0.036202762 0.0019161648 -0.05144767 0.015077604 0.0006892507 -0.010093175
-0.0033393886 0.00041167272 -0.0037832195 -0.013800683 0.00048892986 -0.024713168 0.009805101 -0.0057123927
00000000: a946 043d ff29 cb3c 4097 e6bc 0a6f aebd
00000010: 6adb bbbc eecf 043d 7bdc be3c d17b 7bba
00000020: d01b 463d e6af 0dbd 5949 14bd d227 fb3a
00000030: cbba 52bd 0e08 773c d5ae 343a d85d 25bc
00000040: a5d9 5abb c7d5 d739 e4ef 77bb 431c 62bc
00000050: 872b 003a 4573 cabc 93a5 203c 062f bbbb

layers.0.bn1.running_var f4 [24]
0.52589387 0.49378234 0.78418636 0.23655315 0.62207407 0.9060888 0.37451407 0.28217334
0.4262821 0.28816473 0.45889416 0.49094307 0.545484 0.8016863 1.2606502 1.0264263
0.5757977 0.4273638 1.1951736 1.0404855 0.44593135 0.47913653 0.32543486 1.37103
00000000: fba0 063f 0ad1 fc3e 70c0 483f fd3a 723e
00000010: 3f40 1f3f 70f5 673f 4fc0 bf3e 0679 903e
00000020: a641 da3e 548a 933e 2df4 ea3e e45c fb3e
00000030: d7a4 0b3f 503b 4d3f fc5c a13f f061 833f
00000040: 7a67 133f 6ecf da3e 73fb 983f a12e 853f
00000050: 1d51 e43e 6251 f53e 669f a63e e97d af3f

layers.0.conv2.weight f4 [24, 1, 3, 3]
0.25679445 0.11493399 0.026070854 -0.029780969 -0.082908824 0.24254794 0.19070639 0.068397336
-0.058396164 -0.33995613 -0.02827233 0.0023869004 -0.117408596 -0.1966417 -0.19015473 0.19403496
0.16900773 0.054324348 0.18826714 0.04181039 -0.29185802 0.02517239 0.06489077 -0.1149496
-0.06005683 -0.112339266 0.16117807 0.033365317 0.13655418 -0.14758363 0.18182597 -0.41838428
0.17718673 -0.19305377 0.28100494 -0.058919583 0.0822693 0.30188516 0.27838802 0.04028015
-0.032247312 0.2220447 0.045309115 0.035669703 0.295375 0.011031081 -0.17659937 -0.01271366
-0.42803484 0.20403565 -0.3074123 0.033080287 -0.36973357 -0.43513432 -0.08788903 0.0076166815
0.12797557 0.16848119 0.266039 0.13999492 -0.1619239 -0.32126445 -0.16916946 -0.23553126
-0.16643578 0.2690938 -0.055394493 -0.07612096 0.15787049 -0.30731848 -0.012475901 0.21880694
-0.006165587 -0.07841106 -0.13771318 -0.19036464 -0.22570959 -0.24936543 -0.33159277 -0.090593606
-0.30275717 -0.27945724 -0.20378944 -0.37332237 0.037618797 0.25061515 0.41242555 0.19775262
0.09865156 -0.1512673 0.19347177 -0.23624209 0.17500484 0.26197 -0.42631105 0.24247979
-0.016795604 -0.09303732 0.06401003 0.12673743 -0.1638584 -0.24892075 -0.115407035 -0.34623486
0.1697086 0.33475256 -0.042878017 0.047527324 -0.096228324 0.26512817 -0.05327533 -0.19750458
0.06638643 -0.05168555 -0.14586236 0.17144161 0.011498485 -0.2914752 -0.00011438007 -3.4592435e-05
-0.32420066 0.041472957 0.19641796 -0.030707318 -0.13221902 0.31007218 0.330369 -0.11195803
-0.075525016 0.3126018 0.16957566 0.23776545 0.33877718 0.2325721 0.08808068 0.013404319
0.17471328 0.28140223 0.277776 0.0793198 0.13505194 -0.15350437 0.23232569 0.052992057
-0.16495036 0.016374197 0.14210251 0.024066934 -0.16193283 0.23617385 -0.22694539 -0.45212698
-0.3539692 0.16974789 -0.044076957 0.035571076 0.2029896 0.3085821 -0.3645005 0.08488301
-0.21334147 0.040650565 0.067044996 -0.24362527 -0.037045036 -0.18882415 0.052124303 -0.054090846
-0.060174685 -0.22688094 -0.14918642 -0.36261645 -0.19043066 -0.49612892 -0.029200153 0.043968823
-0.034187853 0.08669072 -0.15404713 0.3035467 0.12307294 -0.1971613 -0.26628143 0.16653642
0.21013835 0.012713558 0.19083638 0.19619845 -0.01799235 0.0066000395 0.10799223 -0.14562564
0.26275778 0.2115147 -0.06850098 0.34424588 0.20875002 0.19813745 -0.09722594 0.23077223
-0.20222916 -0.24019293 0.08321644 0.3186282 -0.17403324 -0.2314988 0.29998407 -0.22934654
-0.22310515 0.122893535 -0.21585076 0.19044237 -0.010290847 0.11944693 0.26832962 0.067681305
00000000: 907a 833e 8362 eb3d 8b92 d53c 38f7 f3bc
00000010: 1acc a9bd 7d5e 783e 8948 433e e713 8c3d
00000020: d130 6fbd bb0e aebe 609b e7bc 8b6d 1c3b
00000030: eb73 f0bd 715c 49be ecb7 42be 1ab1 463e
00000040: 5d10 2d3e 3583 5e3d 1ac9 403e 5f41 2b3d
00000050: 6a6e 95be 5436 ce3c 74e5 843d b26a ebbd
00000060: 27fe 75bd 2112 e6bd dd0b 253e 12aa 083d
00000070: dcd4 0b3e 2a20 17be 9630 3a3e 7736 d6be
00000080: 7070 353e e3af 45be e1df 8f3e a955 71bd
00000090: cf7c a83d b190 9a3e e088 8e3e ccfc 243d
000000a0: c215 04bd b05f 633e 0d96 393d 651a 123d
000000b0: 643b 973e b5bb 343c 77d6 34be f44c 50bc
000000c0: 6227 dbbe b9ee 503e 2565 9dbe 327f 073d
000000d0: b84d bdbe edc9 debe 2aff b3bd 5b95 f93b
000000e0: 070c 033e 5586 2c3e 4436 883e d45a 0f3e
000000f0: 61cf 25be c67c a4be c23a 2dbe 1b2f 71be
00000100: 246e 2abe aac6 893e 56e5 62bd 4ee5 9bbd
00000110: cda8 213e d958 9dbe b967 4cbc ed0e 603e
00000120: b108 cabb fa95 a0bd af04 0dbe f3ee 42be
00000130: 6a20 67be a759 7fbe 87c6 a9be 2489 b9bd
00000140: fd02 9bbe 0515 8fbe 2eae 50be 1c24 bfbe
00000150: 2b16 1a3d a150 803e 7129 d33e aa7f 4a3e
00000160: d409 ca3d d1e5 1abe 771d 463e 72e9 71be
00000170: 7834 333e ef20 863e 7145 dabe 9f4c 783e
00000180: ef96 89bc 5a8a bebd b117 833d 75c7 013e
00000190: 7fca 27be 15e5 7ebe 865a ecbd b245 b1be
000001a0: 17c8 2d3e b064 ab3e dca0 2fbd 03ac 423d
000001b0: 5b13 c5bd e1be 873e 3c37 5abd a43e 4abe
000001c0: 9cf5 873d 3ab4 53bd f15c 15be 648e 2f3e
000001d0: 2464 3c3c 3d3c 95be 55df efb8 5817 11b8
000001e0: a1fd a5be 8cdf 293d ca21 493e ea8d fbbc
000001f0: 6c64 07be c8c1 9e3e 2026 a93e 404a e5bd
00000200: dcac 9abd 580d a03e 3ea5 2d3e c978 733e
00000210: 3474 ad3e 6127 6e3e a563 b43d ca9d 5b3c
00000220: 0ae8 323e f413 903e a838 8e3e 6b72 a23d
00000230: 0e4b 0a3e 4030 1dbe c9e6 6d3e 330e 593d
00000240: bfe8 28be 2e23 863c 5283 113e 0528 c53c
00000250: b8d1 25be 8fd7 713e 5f64 68be 307d e7be
00000260: 733b b5be 64d2 2d3e 0a8a 34bd fab2 113d
00000270: 81dc 4f3e 79fe 9d3e cf9f babe 25d7 ad3d
00000280: 3076 5abe 3581 263d e34e 893d e778 79be
00000290: 89bc 17bd 1e5b 41be 4b80 553d 5d8e 5dbd
000002a0: bb79 76bd 7a53 68be 53c4 18be dda8 b9be
000002b0: 4100 43be 9c04 febe 2935 efbc a718 343d
000002c0: 9008 0cbd e78a b13d 88be 1dbe 796a 9b3e
000002d0: aa0d fc3d a7e4 49be 0a56 88be 8688 2a3e
000002e0: 822e 573e 874c 503c 9d6a 433e 3fe8 483e
000002f0: b164 93bc 2545 d83b 082b dd3d e31e 15be
00000300: 3088 863e 4f97 583e 3e4a 8cbd ff40 b03e
00000310: 91c2 553e 8be4 4a3e 651e c7bd 8e4f 6c3e
00000320: 2915 4fbe 23f5 75be 626d aa3d 3c23 a33e
00000330: c535 32be 050e 6dbe 8397 993e d2d9 6abe
00000340: ad75 64be 9baf fb3d fb07 5dbe 5303 433e
00000350: f19a 28bc 98a0 f43d 8062 893e 7f9c 8a3d

layers.0.bn2.weight f4 [24]
0.96892303 1.0299569 1.1057625 1.025476 1.0126404 1.063506 1.007113 1.0631759
0.94800305 1.0170798 1.1511393 0.8673737 1.1654137 1.0841253 1.018868 1.0227093
1.0221685 0.9305784 1.0625056 0.993407 1.0489777 0.9269897 1.1101187 0.85933876
00000000: 570b 783f a1d5 833f a089 8d3f cc42 833f
00000010: 339e 813f f720 883f 14e9 803f 2616 883f
00000020: 54b0 723f ac2f 823f 8858 933f 340c 5e3f
00000030: 472c 953f 9ec4 8a3f 446a 823f 23e8 823f
00000040: 6bd6 823f 633a 6e3f 2f00 883f ec4f 7e3f
00000050: e744 863f 324f 6d3f 5f18 8e3f a0fd 5b3f

layers.0.bn2.bias f4 [24]
0.056871586 0.14307624 -0.1667151 -0.1554791 0.17949742 0.18523727 -0.05072568 -0.0016533374
0.009954009 0.035086382 -0.08281651 -0.08514967 0.060258973 -0.036368933 0.23463915 -0.010635514
0.14623709 0.08445769 0.15587386 0.1265456 -0.06130858 0.07398291 -0.012310922 -0.073842496
00000000: 2ef2 683d 9482 123e 5db7 2abe ea35 1fbe
00000010: 2cce 373e d7ae 3d3e bbc5 4fbd ccb4 d8ba
00000020: 2416 233c bdb6 0f3d b49b a9bd f362 aebd
00000030: 1dd2 763d 97f7 14bd 3f45 703e 9440 2ebc
00000040: 2dbf 153e 27f8 ac3d 669d 1f3e 2b95 013e
00000050: b51e 7bbd 5a84 973d c0b3 49bc bc3a 97bd

layers.0.bn2.running_mean f4 [24]
0.22082968 -0.15277782 -0.036956307 -0.0038676818 0.49809873 -0.30208245 -0.017174214 -0.06064893
-0.62500376 0.01895926 0.060848195 -0.072452374 -0.0025043064 -0.06715734 0.45983097 0.21632166
-0.15755853 0.07143495 -0.17423005 -0.29204857 0.1660938 0.3189849 0.0034394928 0.024550518
00000000: 2d21 623e ca71 1cbe 7f5f 17bd ef78 7dbb
00000010: cc06 ff3e 8daa 9abe f0b0 8cbc 036b 78bd
00000020: 3f00 20bf 7350 9b3c f53b 793d e961 94bd
00000030: 4a1f 24bb ca89 89bd f76e eb3e 6d83 5d3e
00000040: 0657 21be 7d4c 923d 5d69 32be 6487 95be
00000050: 7e14 2a3e fd51 a33e 1d69 613b 2b1e c93c

layers.0.bn2.running_var f4 [24]
0.09555601 0.0779166 0.008404052 0.028017774 0.36280954 0.25753006 0.08190992 0.057951037
0.7761264 0.25027904 0.11394511 0.08402499 0.05193754 0.04566024 0.5001015 0.13504057
0.06892602 0.04704893 0.08257673 0.13133751 0.23041143 0.26675028 0.035029806 0.033938974
00000000: dfb2 c33d bd92 9f3d 26b1 093c 8885 e53c
00000010: 2cc2 b93e fbda 833e 63c0 a73d 115e 6d3d
00000020: 38b0 463f 9324 803e 0e5c e93d 4b15 ac3d
00000030: 75bc 543d 3b06 3b3d a706 003f 1348 0a3e
00000040: 1629 8d3d 61b6 403d fd1d a93d 577d 063e
00000050: f9f0 6b3e 7e93 883e 6a7b 0f3d 9803 0b3d

layers.0.conv3.weight f4 [12, 24, 1, 1]
-0.06340967 0.21319279 -0.05579238 0.021996094 -0.029744899 0.056877807 0.19561376 -0.1353037
-0.1740771 0.10757249 -0.042344104 0.11863624 -0.01686033 -0.062492494 -0.11941064 -0.26447043
-0.17331 -0.054609783 0.22470856 0.20042516 0.014239248 -0.20812444 0.03843316 0.121506184
0.089122936 -0.053270575 -0.15247278 -0.066421404 -0.0011273873 -0.055363823 0.1492907 0.09017099
0.10686299 0.0873039 0.12481567 0.13094313 0.14762776 0.07035442 -0.19538812 -0.28445053
-0.021262912 0.18793222 0.00799581 0.1021598 -0.10121433 0.06249253 0.12521394 0.10680656
0.26356015 0.1554671 0.06687574 -0.12860297 -0.27668142 -0.15414894 0.008293647 -0.122067705
0.035757206 0.21088383 0.19111882 0.011372276 0.18426667 -0.09283556 0.15441443 0.093741916
-0.17276518 -0.06714083 -0.07879842 -0.01352751 -0.016146801 -0.0035456265 0.030372953 0.036125742
-0.108721524 -0.087314196 0.026876833 -0.07995813 0.055270057 0.02867681 0.13301109 0.08125398
0.094876505 0.018486932 0.23815233 -0.12894253 0.17642576 -0.21511851 -0.2511976 -0.14069358
0.22634389 -0.040984884 0.10414526 0.18638414 0.16192825 0.13538262 0.08357826 0.14475131
-0.03108087 0.011298968 -0.10609985 -0.09320684 0.18561456 0.033466402 -0.06585749 0.25463492
0.111938566 -0.027453186 0.16590662 -0.09111005 0.19751978 0.16759 0.208179 0.16627012
-0.0532464 -0.006325489 -0.21342118 -0.10140212 -0.18986547 -0.027978579 0.152797 0.10805811
-0.23980749 -0.27015102 0.06381331 0.060974136 -0.14558311 -0.11742735 -0.20252804 -0.027710663
0.1409176 -0.0030387647 0.10843595 -0.0707459 0.051493578 0.155633 0.1072467 0.074395396
0.00030763642 -0.10358176 0.13506745 0.15541877 -0.086753555 -0.20899528 0.17174275 -0.10626877
-0.022149462 -0.00028818223 0.07506463 0.1978323 0.14498301 -0.03215698 -0.045138836 -0.08853844
0.029038869 0.103075646 0.2763435 -0.12601149 0.2812356 0.01892537 -0.17291848 -0.10152941
-0.13309364 -0.11928534 -0.12617068 -0.20336534 -0.0713141 -0.08169875 0.13111058 0.045889594
0.16155118 -0.10065871 -0.30317524 -0.31633025 0.14087452 0.19603044 -0.08315909 -0.056886464
0.229222 -0.012483943 -0.17708558 0.027432049 0.026370917 0.12821428 -0.016828107 0.11302565
0.12870789 -0.1148838 0.06830064 -0.027226008 0.032811683 -0.007995571 -0.31196705 -0.12893865
0.15695249 -0.12506981 0.28131902 0.1909285 -0.17433348 0.11598038 0.065792166 -0.120030805
0.10906463 -0.084715866 -0.07604272 -0.13150407 -0.025284449 0.20680408 -0.09090081 -0.21479501
0.23904227 0.0033286007 0.03154857 0.23653308 -0.27206075 0.11520807 0.024932677 0.054379713
0.02770276 0.08660087 0.14846162 0.18111922 -0.09193925 0.38726547 -0.0039207074 -0.030920647
0.007357112 0.1531366 -0.37022167 0.10123556 -0.30030027 0.044147253 -0.073711045 0.13444908
0.053418744 0.05583258 0.25818384 0.11337182 0.1976496 0.1514771 0.04182489 0.08771105
-0.07142949 -0.060567748 -0.07223108 -0.11261856 -0.14284064 -0.014029482 0.054092724 -0.16536884
0.050490532 -0.07387504 0.07674635 -0.04642002 0.039370798 -0.1883438 0.044624686 0.07128321
00000000: eedc 81bd 364f 5a3e 8d86 64bd 2731 b43c
00000010: 93ab f3bc b4f8 683d f94e 483e 0e8d 0abe
00000020: 4441 32be f74e dc3d 0371 2dbd 8ff7 f23d
00000030: ad1e 8abc 21f8 7fbd 918d f4bd ab68 87be
00000040: 2d78 31be 82ae 5fbd 001a 663e 413c 4d3e
00000050: bc4b 693c 931e 55be 176c 1d3d 3cd8 f83d
00000060: 1686 b63d 3f32 5abd d321 1cbe f207 88bd
00000070: d7c4 93ba 2dc5 62bd a9df 183e 91ab b83d
00000080: fcda da3d 63cc b23d 5c9f ff3d f515 063e
00000090: bb2b 173e fa15 903d d313 48be 80a3 91be
000000a0: 8f2f aebc 4e71 403e dc00 033c 2839 d13d
000000b0: 7549 cfbd 2bf8 7f3d 1538 003e 66bd da3d
000000c0: 5bf1 863e c432 1f3e 26f6 883d 7fb0 03be
000000d0: 30a9 8dbe 38d9 1dbe 14e2 073c a2fe f9bd
000000e0: 2676 123d eef1 573e a7b4 433e c852 3a3c
000000f0: 67b0 3c3e 9220 bebd d11e 1e3e c3fb bf3d
00000100: 5be9 30be 2281 89bd 1161 a1bd 7da2 5dbc
00000110: 4c46 84bc be5d 68bb b3d0 f83c 96f8 133d
00000120: 64a9 debd c9d1 b2bd ce2c dc3c 17c1 a3bd
00000130: db62 623d a1eb ea3c 0f34 083e 7d68 a63d
00000140: 9d4e c23d e871 973c 34de 733e 8309 04be
00000150: f4a8 343e 0748 5cbe f99c 80be fa11 10be
00000160: b1c6 673e c4df 27bd 1c4a d53d 7cdb 3e3e
00000170: 85d0 253e bea1 0a3e 142b ab3d b039 143e
00000180: 4f9d febc 4f1f 393c e14a d9bd 3ae3 bebd
00000190: be11 3e3e 1114 093d 4be0 86bd 825f 823e
000001a0: 0c40 e53d 81e5 e0bc 6de3 293e e897 babd
000001b0: a042 4a3e b79c 2b3e e02c 553e b742 2a3e
000001c0: e618 5abd 0c46 cfbb 158b 5abe eaab cfbd
000001d0: 186c 42be 5533 e5bc d176 1c3e 924d dd3d
000001e0: 1890 75be 3c51 8abe 8db0 823d 04c0 793d
000001f0: bd13 15be c07d f0bd 8363 4fbe 7901 e3bc
00000200: b44c 103e 0326 47bb ab13 de3d 3ae3 90bd
00000210: eeea 523d 425e 1f3e 28a4 db3d 9d5c 983d
00000220: 434a a139 ac22 d4bd 1f4f 0a3e 1926 1f3e
00000230: d9ab b1bd dc02 56be 55dd 2f3e 71a3 d9bd
00000240: ca72 b5bc 2a17 97b9 7cbb 993d 8d94 4a3e
00000250: 6d76 143e 0ab7 03bd 80e3 38bd a453 b5bd
00000260: ece2 ed3c 5319 d33d e57c 8d3e 2809 01be
00000270: 1dfe 8f3e 6109 9b3c 8b11 31be a7ee cfbd
00000280: b349 08be df4b f4bd e332 01be 013f 50be
00000290: 200d 92bd ad51 a7bd da41 063e baf6 3b3d
000002a0: ac6d 253e 2726 cebd c939 9bbe 0af6 a1be
000002b0: 6941 103e 34bc 483e 504f aabd c801 69bd
000002c0: 2cb9 6a3e 7489 4cbc ec55 35be 2db9 e03c
000002d0: d207 d83c 9b4a 033e 19db 89bc fe79 e73d
000002e0: 00cc 033e 3348 ebbd 35e1 8b3d 1409 dfbc
000002f0: 8b65 063d dbff 02bc 25ba 9fbe 7e08 04be
00000300: 27b8 203e 4d12 00be 0c09 903e c382 433e
00000310: 7a84 32be 1f87 ed3d 0bbe 863d b6d2 f5bd
00000320: 475d df3d 837f adbd 49bc 9bbd 01a9 06be
00000330: 5521 cfbc 73c4 533e 342a babd 39f3 5bbe
00000340: 7fc7 743e a724 5a3b 1339 013d ba35 723e
00000350: 8c4b 8bbe 35f2 eb3d 9d3f cc3c 43bd 5e3d
00000360: e6f0 e23c cc5b b13d 5306 183e 5177 393e
00000370: a54a bcbd a947 c63e 4779 80bb 4c4d fdbc
00000380: ee13 f13b d7cf 1c3e b28d bdbe 9754 cf3d
00000390: f5c0 99be c0d3 343d d1f5 96bd 05ad 093e
000003a0: 9dcd 5a3d b4b0 643d ac30 843e 7c2f e83d
000003b0: a864 4a3e d01c 1b3e 9350 2b3d daa1 b33d
000003c0: a049 92bd e315 78bd e3ed 93bd 8fa4 e6bd
000003d0: d144 12be eadb 65bc 5590 5d3d 7356 29be
000003e0: 29cf 4e3d cc4b 97bd 312d 9d3d eb22 3ebd
000003f0: 4643 213d 32dd 40be 60c8 363d eefc 913d

layers.0.bn3.weight f4 [12]
0.97519225 0.88547057 1.0159774 1.0006884 1.0505526 1.053116 1.0657985 0.9593351
0.95373636 1.1713371 0.9527922 0.9843787
00000000: 33a6 793f 33ae 623f 8c0b 823f 8f16 803f
00000010: 8278 863f 81cc 863f 166c 883f fc96 753f
00000020: 1128 743f 60ee 953f 31ea 733f 3e00 7c3f

layers.0.bn3.bias f4 [12]
-0.026629452 0.028692966 0.001815011 0.008561776 0.032540962 0.060229708 0.016064106 -0.0034672532
-0.039277334 -0.03790939 0.05041167 -0.035797093
00000000: 0226 dabc 830d eb3c aae5 ed3a b146 0c3c
00000010: ac49 053d 6db3 763d df98 833c db3a 63bb
00000020: 45e1 20bd e046 1bbd 787c 4e3d f99f 12bd

layers.0.bn3.running_mean f4 [12]
-0.025118995 0.17992258 0.052232888 0.33232808 0.2707521 -0.13505715 -0.080042414 -0.0047033783
0.21357764 0.5089747 -0.067030735 0.23961826
00000000: 5ac6 cdbc a03d 383e 27f2 553d e826 aa3e
00000010: 05a0 8a3e 6c4c 0abe 47ed a3bd cc1e 9abb
00000020: 19b4 5a3e 2a4c 023f 6947 89bd 7d5e 753e

layers.0.bn3.running_var f4 [12]
0.19230886 0.1515178 0.16565727 0.12893929 0.32517815 0.2709003 0.14617294 0.20948689
0.25450167 0.2256909 0.13070737 0.19447619
00000000: 9dec 443e 7b27 1b3e 0fa2 293e a908 043e
00000010: c07d a63e 72b3 8a3e 5cae 153e bb83 563e
00000020: 0b4e 823e 841b 673e 27d8 053e c424 473e

layers.1.conv1.weight f4 [24, 12, 1, 1]
-0.020172983 0.058560945 0.14432584 0.053483482 0.07273441 -0.16948259 -0.25781947 -0.28123468
0.030292733 0.0004224284 0.18589227 0.061622415 -0.2371201 0.07131322 -0.051339284 0.10468404
-0.07776718 -0.2326179 0.1670866 0.12437679 -0.01591653 0.20596823 -0.09655578 0.2941867
0.21397609 -0.11054709 -0.1697707 0.11238545 -0.13775948 -0.07300476 -0.1854816 -0.24855863
0.0032512574 0.13733321 -0.33518398 -0.29107657 0.12369812 0.11942367 0.00533928 -0.117694326
0.17706724 0.1647239 -0.116225034 -0.16743672 0.16593333 -0.24188747 -0.011808306 -0.20048094
0.122599706 0.24168658 0.042217296 0.34601304 0.015667152 0.20458171 0.33437756 -0.17258109
-0.19651335 -0.036277827 0.06753041 -0.061799344 -0.11870577 0.102688864 -0.30788586 -0.04490809
0.06603706 -0.103416845 0.13694857 0.12572928 -0.27446568 0.025842821 0.04119207 0.19254501
0.18698415 -0.23241195 -0.27107406 -0.31539807 0.22988321 -0.17266607 -0.06641076 -0.23743474
0.29726145 0.12863259 -0.14223997 0.122513935 0.09833967 -0.0025845051 -0.23343562 0.17860214
0.066390164 0.063516915 -0.27946827 0.3592509 0.11568784 0.32922673 0.15216896 -0.19506623
0.18027408 -0.21694668 0.16504182 -0.29484794 -0.12150277 -0.1961104 -0.011368425 -0.23421791
-0.11385713 0.07738957 0.33883435 -0.11042106 0.24566245 0.006495435 -0.18229108 0.19999263
-0.2999796 0.27060694 0.3399858 -0.18041861 0.18845887 -0.29363924 0.20422496 0.21744344
0.072120585 -0.05282313 0.12127345 -0.15342349 -0.1344587 -0.13355109 -0.05805609 -0.20840424
-0.35281694 0.08736424 -0.14039074 0.33055303 -0.0108378 0.029333945 0.05556555 -0.02280952
0.50877357 -0.13262263 -0.0038150596 -0.13113958 0.005319964 -0.2476671 -0.16164751 0.25605965
0.13657036 -0.17402065 -0.03454224 0.037698194 -0.23311785 0.05604549 -0.1861573 0.23221956
-0.04161412 -0.07268295 -0.307646 -0.19913921 0.065659404 0.02848196 -0.0034840573 -0.09635889
0.05182276 0.14689276 0.37243876 0.18107149 0.24887073 0.06330242 -0.17486763 -0.2803536
0.27935812 0.24542543 0.23358339 0.32313168 -0.13913798 -0.22756441 0.12191083 0.038482826
-0.028847702 -0.20578963 0.08371315 -0.1584879 0.056870677 -0.38265163 0.05633116 -0.13314348
-0.036529966 0.351624 0.09867159 -0.18359685 -0.0549007 -0.11880139 0.098810285 0.22754757
-0.17341308 0.18199615 -0.2554014 -0.14372818 0.19276871 0.2515033 -0.07697697 -0.12534742
-0.16978593 -0.21442597 0.26763916 -0.20513582 0.15452293 0.20574193 -0.14610763 -0.085340716
-0.37706554 -0.14373527 0.004835462 0.11988938 -0.10655892 0.34000167 -0.03868209 -0.10236842
-0.15448187 0.11936249 -0.021640923 -0.27031955 -0.042343404 -0.10883508 0.14479078 -0.1559211
0.20995158 0.18600208 -0.1459639 0.19500098 0.059556823 0.19989726 0.11910969 -0.3288742
0.066235416 0.18168859 0.06398176 0.2635786 -0.17040247 -0.13029417 -0.13970044 0.17247024
-0.22312932 -0.2414729 0.19085738 -0.23989308 -0.14231013 0.11817533 -0.03781206 -0.03184774
-0.08628378 -0.1658236 -0.19511348 0.15513542 0.17237632 -0.028131243 0.05917817 0.24440543
00000000: d041 a5bc 9add 6f3d 27ca 133e 7f11 5b3d
00000010: c7f5 943d d88c 2dbe ea00 84be fefd 8fbe
00000020: 7728 f83c 6179 dd39 8b5a 3e3e c967 7c3d
00000030: 9dcf 72be aa0c 923d 2449 52bd 9664 d63d
00000040: 6644 9fbd 6333 6ebe c018 2b3e 42b9 fe3d
00000050: 6263 82bc 56e9 523e 09bf c5bd a49f 963e
00000060: 8c1c 5b3e 8366 e2bd 5fd8 2dbe 582a e63d
00000070: d210 0dbe 8583 95bd e3ee 3dbe 2786 7ebe
00000080: 0c13 553b 14a1 0c3e 3c9d abbe fd07 95be
00000090: 7155 fd3d 6694 f43d 20f5 ae3b b909 f1bd
000000a0: 1d51 353e 62ad 283e 6407 eebd 8874 2bbe
000000b0: 6dea 293e 59b1 77be a077 41bc e04a 4dbe
000000c0: 8e15 fb3d b07c 773e 0bec 2c3d 9f28 b13e
000000d0: 6658 803c de7d 513e 8933 ab3e 19b9 30be
000000e0: cc3a 49be 0f98 14bd 624d 8a3d 4f21 7dbd
000000f0: 031c f3bd 8a4e d23d 37a3 9dbe 8cf1 37bd
00000100: 703e 873d 36cc d3bd 3f3c 0c3e 2dbf 003e
00000110: c486 8cbe 53b4 d33c 04b9 283d 852a 453e
00000120: c678 3f3e 66fd 6dbe 38ca 8abe db7b a1be
00000130: 8166 6b3e 60cf 30be 5d02 88bd 1822 73be
00000140: a732 983e 43b8 033e 5ba7 11be 96e8 fa3d
00000150: 4f66 c93d cd60 29bb bf09 6fbe 7be3 363e
00000160: 91f7 873d 2815 823d 7716 8fbe bcef b73e
00000170: bfed ec3d 6890 a83e 2ed2 1b3e 71bf 47be
00000180: c599 383e 4527 5ebe b900 293e 4ff6 96be
00000190: 72d6 f8bd 2ad1 48be a142 3abc d2d6 6fbe
000001a0: ed2d e9bd 6c7e 9e3d b27b ad3e 7024 e2bd
000001b0: f08e 7b3e a8d7 d43b 83aa 3abe deca 4c3e
000001c0: ed96 99be fe8c 8a3e 9e12 ae3e a8bf 38be
000001d0: 5dfb 403e e257 96be 5920 513e 7ea9 5e3e
000001e0: f5b3 933d 115d 58bd 375e f83d 0c1b 1dbe
000001f0: 8baf 09be 9ec1 08be 39cc 6dbd ec67 55be
00000200: 6ca4 b4be 06ec b23d 97c2 0fbe 3f3e a93e
00000210: 0791 31bc be4d f03c b498 633d 08db babc
00000220: fc3e 023f 3ace 07be 1406 7abb 7449 06be
00000230: 1853 ae3b 729c 7dbe ed86 25be 401a 833e
00000240: 1ad9 0b3e 7832 32be 2a7c 0dbd 6c69 1a3d
00000250: 72b6 6ebe f58f 653d 05a0 3ebe f7ca 6d3e
00000260: 9173 2abd ccda 94bd c783 9dbe 26eb 4bbe
00000270: 7078 863d 0053 e93c c854 64bb cf57 c5bd
00000280: 1a44 543d 0e6b 163e 4bb0 be3e ce6a 393e
00000290: f8d7 7e3e b3a4 813d 8010 33be 828a 8fbe
000002a0: 0708 8f3e ce50 7b3e 7c30 6f3e 8471 a53e
000002b0: 307a 0ebe a506 69be 63ac f93d 2ba0 1d3d
000002c0: 0452 ecbc 84ba 52be cd71 ab3d a74a 22be
000002d0: 3af1 683d eaea c3be 81bb 663d c456 08be
000002e0: 72a0 15bd 1008 b43e 5514 ca3d d000 3cbe
000002f0: 8edf 60bd 254e f3bd 0c5d ca3d 3b02 693e
00000300: 3393 31be 335d 3a3e f9c3 82be 7b2d 13be
00000310: 2965 453e 0ac5 803e 1aa6 9dbd 135b 00be
00000320: 5ddc 2dbe 7b92 5bbe 0008 893e 200f 52be
00000330: 423b 1e3e 03ae 523e 3d9d 15be 1dc7 aebd
00000340: bc0e c1be 572f 13be cc72 9e3b 9088 f53d
00000350: 903b dabd b314 ae3e 1c71 1ebd 89a6 d1bd
00000360: 7f30 1ebe 5274 f43d 4e48 b1bc 5367 8abe
00000370: 4770 2dbd ede4 debd 0944 143e c8a9 1fbe
00000380: 8cfd 563e 5477 3e3e 9077 15be 56ae 473e
00000390: dbf1 733d deb1 4c3e c8ef f33d 3362 a8be
000003a0: 6fa6 873d 930c 3a3e de08 833d c6f3 863e
000003b0: fc7d 2ebe d66b 05be a20d 0fbe 0a9c 303e
000003c0: 037c 64be ac44 77be 1e70 433e 88a6 75be
000003d0: bfb9 11be e805 f23d d2e0 1abd c772 02bd
000003e0: 8db5 b0bd a9cd 29be d4cb 47be d2db 1e3e
000003f0: 6b83 303e 7e73 e6bc cf64 723d 6b45 7a3e

layers.1.bn1.weight f4 [24]
1.0748323 0.8964544 1.0064954 0.6637238 0.7870189 1.0295595 1.1766044 0.5910944
0.8673696 0.5411653 1.0887874 0.5527693 0.9080545 1.1896966 0.92836004 0.97440755
0.8616091 1.0048423 1.2287983 0.8277764 1.0038222 0.79618263 0.9681544 1.0367577
00000000: 1b94 893f 097e 653f d7d4 803f cee9 293f
00000010: 127a 493f 9bc8 833f f99a 963f f651 173f
00000020: ef0b 5e3f cf89 0a3f 635d 8b3f 4a82 0d3f
00000030: 4276 683f fa47 983f 01a9 6d3f c672 793f
00000040: 6a92 5c3f ac9e 803f 4349 9d3f 27e9 533f
00000050: 3f7d 803f a0d2 4b3f f7d8 773f 7ab4 843f

layers.1.bn1.bias f4 [24]
-0.044907227 0.02750339 0.0638937 0.3561236 0.24609484 -0.08567438 0.09493027 0.33304712
0.13589936 0.3603012 0.3129687 0.51092714 0.09492012 0.07881537 0.19319324 0.11334902
0.10760019 0.025128623 0.4362172 0.18737276 0.02144973 0.1821141 0.10417349 -0.014601024
00000000: a4f0 37bd ca4e e13c b3da 823d d555 b63e
00000010: 4900 7c3e 0d76 afbd cd6a c23d 2785 aa3e
00000020: 3429 0b3e 6679 b83e 6f3d a03e 1fcc 023f
00000030: 7b65 c23d f469 a13d 73d4 453e 8823 e83d
00000040: 7d5d dc3d 8bda cd3c dc57 df3e a5de 3f3e
00000050: 58b7 af3c 1e7c 3a3e e958 d53d 2239 6fbc

layers.1.bn1.running_mean f4 [24]
-0.0018311443 -0.028474016 -0.030721854 0.023334138 0.041301347 0.0070386706 -0.046633426 -0.0045903446
-0.0052883998 0.014474205 -0.025878433 0.002059727 -0.0201454 0.0038747145 0.006989546 0.0121051585
0.06432334 -0.02808049 -0.030065333 0.012933618 -0.006772785 -0.013101845 0.017568873 -0.021189144
00000000: 0203 f0ba 5742 e9bc 66ac fbbc 3c27 bf3c
00000010: 9a2b 293d a6a4 e63b b102 3fbd 9a6a 96bb
00000020: 504a adbb 3725 6d3c 02ff d3bc 7cfc 063b
00000030: f707 a5bc ecee 7d3b 9008 e53b b754 463c
00000040: f5bb 833d 0e09 e6bc 934b f6bc 87e7 533c
00000050: 3dee ddbb 1fa9 56bc 99ec 8f3c db94 adbc

layers.1.bn1.running_var f4 [24]
0.26191223 0.30998564 0.5224656 0.27761644 0.49211267 0.18711253 0.32689995 0.8725828
0.38902318 0.68607783 0.44510403 0.7909292 0.40604877 0.45041406 0.5275249 0.57239264
0.54896843 0.87062925 0.27763927 0.3630517 0.44768205 0.35319197 0.90915793 0.3417515
00000000: 5c19 863e 70b6 9e3e 4ec0 053f be23 8e3e
00000010: 31f6 fb3e 6d9a 3f3e 6e5f a73e 9661 5f3f
00000020: 0c2e c73e cca2 2f3f ade4 e33e 567a 4a3f
00000030: a0e5 cf3e ac9c e63e df0b 073f 5388 123f
00000040: 3289 0c3f 8fe1 5e3f bc26 8e3e eae1 b93e
00000050: 9536 e53e 94d5 b43e 93be 683f 0dfa ae3e

layers.1.conv2.weight f4 [24, 1, 3, 3]
-0.15187337 -0.22264992 -0.04058108 -0.20469458 -0.2905553 -0.1109235 -0.32888877 -0.26850036
-0.07782886 -0.23688452 -0.004432403 -0.14231429 -0.19180234 0.32147563 0.005037347 0.028598081
0.2612626 -0.09339374 -0.21079764 -0.06332665 -0.09735123 0.13655396 0.17009547 0.24738935
-0.030994464 -0.13474044 -0.09218015 0.33750474 0.14024407 -0.09024009 0.29453835 0.049946528
-0.15610626 -0.20765145 -0.08965357 0.04108771 -0.052733842 -0.14366102 -0.045410987 -0.13770148
-0.22441508 -0.085839465 -0.19486941 -0.23012395 -0.15513265 -0.24156396 -0.13297817 -0.24264053
0.16527101 0.24167375 0.005793978 0.24139595 0.12461107 0.18914624 0.11810048 0.11421828
0.07858222 -0.016550489 0.24902764 0.23172522 0.0018849511 0.16332851 0.056017246 -0.25224987
-0.072615854 -0.04806883 -0.110613644 -0.15602116 0.04567192 0.18920745 0.25852272 0.21730295
0.09530694 0.22339635 0.14915422 0.27264872 0.24581341 0.15158984 0.15769772 0.21714994
0.1479869 0.25705242 0.26435387 0.1096807 0.20346688 0.3851957 0.18534574 0.15892333
0.29384243 0.1263832 0.065318525 0.14987463 0.23375742 0.1449582 0.20815209 -0.0028554352
-0.27901506 -0.20799993 -0.21834064 0.15470652 0.26559654 0.21442372 -0.16282272 0.06458732
0.18975902 -0.20062391 -0.27173972 -0.2583404 0.10609782 -0.021457022 0.14724696 -0.27076897
-0.3161746 -0.23631339 0.20156433 0.19143316 -0.005871945 0.12482529 0.28563583 0.13766666
-0.25577122 0.32676768 0.012442439 -0.04884943 0.19722262 -0.14502674 0.30962425 0.18206418
0.08584356 0.13811581 0.39590213 0.2734607 0.0035063697 0.14089896 0.206997 -0.13791487
0.20172122 0.22996835 -0.23924968 -0.12338898 -0.4113721 -0.07941961 -0.040518038 -0.120933905
0.22477606 0.2752702 0.15703425 0.26574522 0.28622404 0.16691396 0.04994295 0.17927803
0.19069956 0.039478466 -0.111069955 -0.20146438 -0.17261775 -0.30270976 -0.34284607 -0.21576676
-0.12695815 -0.12735055 0.028311852 0.1606519 -0.03601704 0.30935958 -0.11219223 0.06179332
0.39069664 0.18177412 0.17809637 0.098151915 0.22066341 0.2227826 0.21895614 0.30099836
0.060107008 0.01588219 0.22175735 0.09867636 -0.1066437 0.08040913 -0.010526501 0.5049909
0.14798136 -0.21580796 0.04217628 0.243466 0.29878336 -0.3787676 0.075483404 -0.010239798
-0.21606942 0.12731826 0.085713506 -0.22907636 0.078276046 0.27061182 -0.10402942 -0.1798259
-0.0991564 0.18033168 0.20245162 0.01915146 0.18621752 0.31496498 0.1766404 -0.003895254
-0.1869099 -0.09394044 0.26493883 0.1867834 -0.076191254 0.23455001 0.20899545 0.07367873
00000000: b184 1bbe 57fe 63be 5938 26bd 759b 51be
00000010: aac3 94be dc2b e3bd 1c64 a8be e178 89be
00000020: bd64 9fbd db91 72be b13d 91bb d6ba 11be
00000030: d567 44be 7498 a43e 5410 a53b 8646 ea3c
00000040: 36c4 853e 3845 bfbd 56db 57be 67b1 81bd
00000050: 1560 c7bd cdd4 0b3e 822d 2e3e a253 7d3e
00000060: 1ae8 fdbc 66f9 09be f2c8 bcbd 6ccd ac3e
00000070: 249c 0f3e cccf b8bd bbcd 963e bb94 4c3d
00000080: 52da 1fbe 95a2 54be 4a9c b7bd 964b 283d
00000090: 71ff 57bd e01b 13be df00 3abd 9e01 0dbe
000000a0: 11cd 65be 9acc afbd d98b 47be 9da5 6bbe
000000b0: 18db 1ebe 8b5c 77be 6e2b 08be c276 78be
000000c0: ce3c 293e 5379 773e 69db bd3b 8030 773e
000000d0: 1734 ff3d 8daf 413e aade f13d 46eb e93d
000000e0: b7ef a03d e494 87bc 1a01 7f3e 6049 6d3e
000000f0: 7710 f73a 973f 273e 5772 653d e526 81be
00000100: 9fb7 94bd d2e3 44bd 6889 e2bd 03c4 1fbe
00000110: 7b12 3b3d 99bf 413e 175d 843e aa84 5e3e
00000120: 4930 c33d 03c2 643e e2bb 183e 9d98 8b3e
00000130: 83b6 7b3e 5e3a 1b3e 837b 213e 8e5c 5e3e
00000140: e189 173e 609c 833e 6459 873e 46a0 e03d
00000150: 9f59 503e 5f38 c53e 46cb 3d3e ccbc 223e
00000160: 8472 963e 996a 013e b8c5 853d bc78 193e
00000170: 1b5e 6f3e ec6f 143e d225 553e 4122 3bbb
00000180: 10db 8ebe effd 54be b094 5fbe 636b 1e3e
00000190: 45fc 873e e491 5b3e 00bb 26be 5b46 843d
000001a0: 3050 423e 5b70 4dbe 7821 8bbe 3145 84be
000001b0: d049 d93d a3c6 afbc e8c7 163e 3ba2 8abe
000001c0: a3e1 a1be 23fc 71be e166 4e3e 0e07 443e
000001d0: 7269 c0bb 67a4 ff3d dc3e 923e 7df8 0c3e
000001e0: 72f4 82be 184e a73e 5fdb 4b3c 5716 48bd
000001f0: baf4 493e e481 14be 1287 9e3e 086f 3a3e
00000200: c0ce af3d 3b6e 0d3e afb3 ca3e 0a03 8c3e
00000210: 1fcb 653b d147 103e 06f7 533e 8e39 0dbe
00000220: 0290 4e3e d37c 6b3e defd 74be 5db3 fcbd
00000230: 5d9f d2be c0a6 a2bd 3ef6 25bd 32ac f7bd
00000240: b22b 663e 37f0 8c3e 96cd 203e c20f 883e
00000250: f58b 923e 7eeb 2a3e fb90 4c3d a994 373e
00000260: bf46 433e 2cb4 213d a578 e3bd ae4c 4ebe
00000270: b5c2 30be c6fc 9abe 8589 afbe f6f1 5cbe
00000280: 5101 02be 2f68 02be 42ee e73c ef81 243e
00000290: 9b86 13bd 6164 9e3e 0ac5 e5bd fe1a 7d3d
000002a0: 6409 c83e ff22 3a3e e55e 363e df03 c93d
000002b0: 97f5 613e 1f21 643e 0a36 603e 751c 9a3e
000002c0: c432 763d 5e1b 823c 5c14 633e d516 ca3d
000002d0: 0368 dabd 8bad a43d 5877 2cbc 1547 013f
000002e0: 6d88 173e c3fc 5cbe 09c1 2c3d 274f 793e
000002f0: 22fa 983e d4ed c1be 0b97 9a3d d3c4 27bc
00000300: 4d41 5dbe b85f 023e 908a af3d fe92 6abe
00000310: 314f a03d a28d 8a3e 600d d5bd 4824 38be
00000320: 8312 cbbd dea8 383e 7a4f 4f3e 86e3 9c3c
00000330: ceaf 3e3e 1743 a13e 39e1 343e 8547 7fbb
00000340: 4f65 3fbe d863 c0bd 10a6 873e 2644 3f3e
00000350: 290a 9cbd e12d 703e e702 563e e0e4 963d

layers.1.bn2.weight f4 [24]
1.090678 0.85177064 1.0175779 0.91036254 1.2189001 0.86310035 0.98252165 0.98186624
0.936136 0.95850426 0.9816413 1.0672084 0.961133 1.0126995 0.9558441 0.9227573
1.0401762 1.1800605 0.85977834 0.92430025 0.9233365 1.0528668 0.94571376 0.9523981
00000000: 569b 8b3f a40d 5a3f fe3f 823f 850d 693f
00000010: eb04 9c3f 25f4 5c3f 8a86 7b3f 965b 7b3f
00000020: 9ca6 6f3f 8960 753f d84c 7b3f 499a 883f
00000030: d00c 763f 23a0 813f 33b2 743f d339 6c3f
00000040: 7e24 853f 390c 973f 6f1a 5c3f f19e 6c3f
00000050: c85f 6c3f 57c4 863f 4c1a 723f 5dd0 733f

layers.1.bn2.bias f4 [24]
0.15535635 -0.21524085 -0.18424636 0.03395602 0.24036917 -0.07920851 0.36351627 -0.028087568
-0.008310379 0.30027506 0.030727187 -0.06542712 -0.07927049 0.12959762 0.3455003 -0.006664111
0.51165813 0.29819995 0.47843462 0.09789232 0.057558395 -0.16013648 0.5266822 0.044403236
00000000: bc15 1f3e 1968 5cbe 14ab 3cbe 7815 0b3d
00000010: 5623 763e 1238 a2bd ce1e ba3e e617 e6bc
00000020: 4228 08bc a7bd 993e 95b7 fb3c a7fe 85bd
00000030: 9158 a2bd 3db5 043e 6ae5 b03e 9d5e dabb
00000040: 07fc 023f aaad 983e 62f5 f43e c57b c83d
00000050: 5ac2 6b3d d1fa 23be a5d4 063f 2be0 353d

layers.1.bn2.running_mean f4 [24]
-0.55974585 0.011210904 0.043772776 0.11057451 -0.46791866 0.11573647 0.44621572 0.06072938
0.6221854 0.8204985 0.040221054 -0.004730199 -0.13866429 0.36834466 0.68579423 -0.2786537
0.61895525 -0.5881923 0.6908773 0.560354 0.33520862 -0.011963224 0.2812344 0.21753015
00000000: 814b 0fbf f1ad 373c 154b 333d e474 e23d
00000010: 0993 efbe 3e07 ed3d 6376 e43e 5fbf 783d
00000020: 8b47 1f3f 310c 523f d5be 243d c9ff 9abb
00000030: 03fe 0dbe ac97 bc3e 3690 2f3f b3ab 8ebe
00000040: da73 1e3f c593 16bf 56dd 303f 5c73 0f3f
00000050: 77a0 ab3e 6601 44bc f5fd 8f3e 39c0 5e3e

layers.1.bn2.running_var f4 [24]
0.5744457 0.07144051 0.065092385 0.04192704 0.20389868 0.14172363 0.1759106 0.031696197
0.3280108 0.18522795 0.26887342 0.08770169 0.07808037 0.35396546 0.29599315 0.1590702
0.25978166 0.24104069 0.60052687 0.26902202 0.2775665 0.056399498 0.17671381 0.13380457
00000000: e00e 133f 674f 923d 284f 853d b0bb 2b3d
00000010: d1ca 503e 0020 113e e921 343e dfd3 013d
00000020: 08f1 a73e 65ac 3d3e c7a9 893e f29c b33d
00000030: 9ae8 9f3d f63a b53e 6a8c 973e 4ce3 223e
00000040: 1a02 853e 5fd3 763e 21bc 193f 41bd 893e
00000050: 321d 8e3e 2903 673d 77f4 343e 1104 093e
