Project/Project_files/ckpt/mobilenetv2_19_2_stem/mobilenetv2_19_2_stem_17.pt (torch, 36779 bytes, 52 tensors)

conv1.weight f4 [24, 3, 3, 3]
00000000: 1fcd 18be 299c 33be 6be5 a1bb ea84 bb3d
00000010: 6fc6 abbd b34e fe3d 1e5f 12be 3b2a 84be
00000020: f1b8 cbbd 64bc f53d 7e1e 1d3e 094b 6abd
00000030: d75a 15bd 75b1 c33d 082e 3ebe b4c9 3d3e
00000040: c1b6 be3d d91e eabd e12b 0d3e 7c75 903e
00000050: b3bf 883e 3a08 db3d cb27 3d3e 2196 893d
00000060: 64e0 01be 0cba d5bd 33f8 c53d 7cf8 453e
00000070: e3a1 f9bc ddad 35be b683 913d 2583 3abe
00000080: 31ea b93d bb6a 8f3d 8567 173e ee51 21be
00000090: 819d ba3d 7222 2a3e c94c f5bd 3e08 18be
000000a0: b755 18be d665 fa3d 7875 11be beb1 433e
000000b0: dc9b 8ebe 1256 85bd 0fbf 98bd 5cf6 43bd
000000c0: 0c60 88bd 4d79 ce3d b54e 9d3d d948 6fbe
000000d0: 578a 3c3e 2f8d 9fbb 9b5b 11bd 241d 52be
000000e0: f3ab e6bd 3dfc 35bd 6633 433d b5f0 25be
000000f0: 1e7a 573e faeb 43bc 58a2 853e 51a8 e93d
00000100: 76a1 b03d af8d f9bd 2ddb d53c cc45 89be
00000110: 6e32 76be befc f73d 3b86 9cbd 358a 7abe
00000120: 9f71 173e ef89 2fbd e3df c5bd a022 b83d
00000130: fbf7 31be 6dc3 8b3d 0e57 283e 6857 07bd
00000140: d9c2 463e ae4e 9b3e 49d9 5abd 8444 7cbc
00000150: 23a4 403e 0f46 c8bd d6fc 9e3c 016e 4e3c
00000160: 3745 23be 7739 06be 5aaf 06be 326d 3cbd
00000170: a7be d63d f19b 84bd ae44 afbd 945c 5b3e
00000180: 7c31 083e 3404 e13d 5eda 0bbe 7061 38bc
00000190: a4f1 5dbc 21fa d83d c07c 46bd 3936 74be
000001a0: 0be1 293e 5fda 8bbc 6b24 d23d aca7 943c
000001b0: 6164 bf3d 2752 1c3c 3760 11bd d5a5 00be
000001c0: 10fc 16be 30e4 bb3d b746 5ebe 5fda 4dbe
000001d0: aae3 ecbb 0b22 6f3d b69e 3dbe ad47 b9bd
000001e0: 2319 06bc ab30 2fbe 2b01 d63d 4167 c9bd
000001f0: 10ca 08be 2ed3 083e affa 5bbd 4176 bf3d
00000200: 38ae 013e be1d 2e3c 15f0 a03a 77ed 8e3e
00000210: 2d7a a73d 6fdc f43d e8f7 d5bd fc7f 6bbe
00000220: e038 c93d 008b 0cbe 90f4 66be 0925 1f3c
00000230: c74e 83bd f30f 113e cc14 293e c2c3 dbbd
00000240: bef8 e5bc 77a0 2e3e 762d 123e d34d a6bc
00000250: 8caa 113e fcf8 a63d c4a2 1fbe d584 513d
00000260: 7b3d 25be 89b6 f23c c66c e4bd 9598 34bd
00000270: 7430 07bd 6b67 9abc c679 dabd 1524 fd3d
00000280: b8d1 fa3d 3132 9ebd 9192 30be 48a8 a2bd
00000290: 1c85 c1bb 2b8d de3d 247f b33d 0fe3 a73d
000002a0: 21a8 213e 715b 323c fd9b 55bd 6365 12be
000002b0: d1c6 e1bd 0ad6 883d 09cb dbbb 0a0b 9d3c
000002c0: 5722 673d b57e a33d 6519 873e d69b 253e
000002d0: 9696 0d3e 799c cc3b b031 6cbd 5419 40be
000002e0: d2d0 38be 6f6c 61be 18fd 23be d491 c3bd
000002f0: c116 60be 1294 dfbd 1697 43bd 3da5 083e
00000300: 1511 43be b69d 10bd f635 f9bd f0ad eb3d
00000310: 9566 b93d 1e06 d13d ce35 f6bb 6d8e 9abe
00000320: 1878 47bd f137 85be 657b 15be e7e4 a1bd
00000330: 48f3 eb3d 1d67 243e 99bc 1c3e d1ea 673d
00000340: 2d11 6b3c 75ea 8ebd 86e5 33bd 6678 ab3d
00000350: 5edb f1bc eea7 2b3e 7e78 783e 80fe 563e
00000360: c5f6 fabd d6dc ccbd e646 5dbe 5836 27be
00000370: b44b c23d 807d c43b e4ad 553e 8a0b 63bd
00000380: d17f 633d 0e6c bc3d 3d38 99bd 1330 bf3d
00000390: d5b9 423b 8d42 fb3d 18dc 5a3e 062c a8bd
000003a0: 8c8f 2abc 08bd a23e 85b8 1e3e 818c 67be
000003b0: e560 99bd 59f2 5d3e 6612 ab3c 6ea5 74bc
000003c0: 636b acbd 09c6 6cbe b631 8d3d 86a1 0dbd
000003d0: 04ed a0be 5c65 b4bd 734d 6a3e 7f4d 1dbe
000003e0: 43a8 4f3e cdbe 153e 586a 583e da95 ddbc
000003f0: 19c0 6f3c 540b b93d fcb8 b63d a3e2 873d
-0.14921997 -0.17540039 -0.004940679 0.09156211 -0.083874576 0.124173544 -0.14294097 -0.2581347
-0.09947384 0.11998823 0.15343663 -0.057200465 -0.036463585 0.095553316 -0.18572247 0.18533975
0.09312201 -0.11431665 0.1378627 0.28214633 0.26708755 0.106949285 0.18472211 0.06718088
-0.12683254 -0.10435876 0.09666481 0.1933307 -0.030472701 -0.17742105 0.071052 -0.1821409
0.090778716 0.07002779 0.14785583 -0.1575391 0.09112073 0.16614702 -0.11977536 -0.14846894
-0.14876448 0.12226455 -0.14204967 0.19110772 -0.27853286 -0.06510557 -0.074583165 -0.04784237
-0.066589445 0.1008173 0.07681028 -0.23367633 0.18412147 -0.0048691253 -0.035487752 -0.20518929
-0.112632655 -0.044430006 0.04765644 -0.16205104 0.21042678 -0.011958117 0.2610042 0.11409057
0.08624546 -0.12185227 0.026105488 -0.26811063 -0.24042675 0.121087536 -0.0764279 -0.24466784
0.14789437 -0.042856153 -0.09661844 0.08990979 -0.17379753 0.06824384 0.16439459 -0.03304234
0.19410266 0.30333465 -0.053429876 -0.015397195 0.18812613 -0.097789876 0.019407671 0.012599469
-0.15944372 -0.13107859 -0.13152829 -0.046002574 0.10485583 -0.06475056 -0.085580215 0.21422035
0.13300127 0.1098713 -0.13657519 -0.0112537 -0.013546381 0.10594583 -0.048458815 -0.2384881
0.16589753 -0.0170719 0.102608524 0.018146358 0.09345318 0.009541071 -0.03549215 -0.1256326
-0.14744592 0.09174383 -0.21706663 -0.20102833 -0.007229288 0.058382075 -0.18517575 -0.09046874
-0.008184704 -0.17108409 0.104494415 -0.09834147 -0.1335833 0.13361809 -0.053705867 0.09348727
0.12664115 0.010627208 0.0012278581 0.27915546 0.081776 0.11956107 -0.10447675 -0.22998041
0.09825301 -0.137249 -0.2255423 0.00971342 -0.0641151 0.1416624 0.1651184 -0.10730697
-0.028072711 0.170534 0.14275154 -0.020300781 0.14225215 0.08152959 -0.15589434 0.05115207
-0.16136734 0.029628055 -0.111535594 -0.044090826 -0.033005193 -0.018848142 -0.10667758 0.12360398
0.12247032 -0.07724417 -0.1724341 -0.07942253 -0.0059057605 0.108667694 0.087644845 0.08197605
0.15786792 0.010886059 -0.052150715 -0.14296488 -0.11024249 0.0668145 -0.0067075533 0.019170303
0.056429233 0.07983152 0.26386562 0.16172728 0.13826975 0.006244239 -0.057664573 -0.18759662
-0.18048409 -0.2201402 -0.16014516 -0.09549299 -0.2188368 -0.10916914 -0.04775151 0.13344283
-0.19049485 -0.035306655 -0.12168495 0.11507785 0.09052769 0.10206245 -0.0075137382 -0.30186787
-0.048698515 -0.26019242 -0.14597853 -0.07904988 0.115210116 0.1605496 0.1530632 0.056620423
0.014347357 -0.06978313 -0.043920062 0.083725736 -0.029523548 0.16763279 0.24264714 0.20995522
-0.12254099 -0.100030586 -0.21609077 -0.16329324 0.094870955 0.005996406 0.20867115 -0.055430926
0.055541817 0.09200297 -0.0748143 0.09335341 0.0029712815 0.12268553 0.21373022 -0.08211522
-0.010410201 0.31784844 0.15500076 -0.22612192 -0.07489184 0.2167448 0.020882796 -0.01493202
-0.0841892 -0.2312242 0.06894247 -0.03457787 -0.3143083 -0.08808395 0.22881107 -0.15361594
0.2027903 0.14623566 0.21134317 -0.027048994 0.014633202 0.09035364 0.08922002 0.066350244

bn1.weight f4 [24]
00000000: 4939 6f3f 820c 6e3f 0ade 723f e500 873f
00000010: afa4 743f bd53 8e3f 0333 7e3f 5108 8d3f
00000020: 1529 883f 3293 7e3f e551 783f 56aa 733f
00000030: 7a2a 6d3f 1180 7d3f 9653 8f3f 08b8 753f
00000040: fe1b 603f 9123 853f b8e1 793f a5b8 5f3f
00000050: b8ce 7c3f 0eff 8f3f 0603 843f 6c4a 943f
0.93446785 0.92987835 0.94870055 1.0547148 0.9556379 1.1119305 0.9929659 1.1018163
1.0637537 0.9944335 0.9699996 0.95181787 0.9264294 0.9902354 1.1197383 0.95983934
0.8754271 1.0401479 0.97610044 0.8739112 0.9875293 1.1249712 1.0313423 1.1585212

bn1.bias f4 [24]
00000000: 0439 233d 6f07 e9bd 996d 063c 88c6 b1bd
00000010: bb80 503c 4dee 04bb 74d0 363d d9cf d7bc
00000020: 90d5 663d ba9b c3bc 79f2 9e3a f63d 51bd
00000030: 0a1c 8c3c 3f74 f13c 2601 373d 0858 3d3d
00000040: d52b 18be 90e7 04bd f88f 0dbc a475 adbd
00000050: 6f18 92bc df8d 023e 0c76 a1bd 440d a93c
0.039849296 -0.11378371 0.008204841 -0.08680445 0.012726004 -0.002028364 0.04463239 -0.026344227
0.056356013 -0.023877967 0.0012126706 -0.05108448 0.017103214 0.029474376 0.04467883 0.04622653
-0.1486047 -0.032447398 -0.008640282 -0.08469704 -0.017833916 0.12749432 -0.07883844 0.020636208

bn1.running_mean f4 [24]
00000000: 64c7 193c b1e0 d93b 4abd 253b 25f3 8dbb
00000010: fb53 653c cfde 3e3b c3f9 31bb 316f 06bc
00000020: e1ab 91bb a59c d8ba 896b b7bb 0e5f 7dbb
00000030: 44a6 a23b 9258 2fbc 0c82 b2bb 5ac4 72bb
00000040: b8e3 a13b be11 2abb e047 7ebb 9d09 61bc
00000050: ca81 523b 68c9 17bb 1985 48bb e000 d4ba
0.009385917 0.0066490998 0.0025289827 -0.0043319636 0.013997073 0.0029124503 -0.0027156926 -0.008205221
-0.0044455384 -0.0016526176 -0.005597536 -0.0038661393 0.004963668 -0.010702269 -0.0054476317 -0.0037043304
0.0049404763 -0.0025950517 -0.0038800165 -0.013735202 0.0032120817 -0.002316082 -0.003059691 -0.0016174577

bn1.running_var f4 [24]
00000000: 29c2 5c3f 9964 3f3e b815 003f a299 ee3d
00000010: 477e ed3e 0521 f33d 7ff1 183f 46e7 1c3f
00000020: 109f 633e 0f0a ad3e 04cf 6f3e a30b 003f
00000030: 047f 873e 4fc0 b83e 596d d43e 6e6a c63e
00000040: 282d 903e ff8a 2e3e ad02 ff3d f35b c63e
00000050: 934c e83e cb44 123e c67a 743e 802d 363e
0.86233765 0.18690719 0.5003314 0.11650397 0.46385404 0.11871532 0.59743494 0.61290395
0.22228646 0.33796737 0.23418814 0.50017756 0.26464093 0.3608422 0.41489676 0.38753074
0.2815945 0.1704521 0.12451682 0.38742027 0.45370921 0.14284055 0.2387496 0.17790794

layers.0.conv1.weight f4 [24, 24, 1, 1]
00000000: 1f80 95bd 4242 88bd 1f32 21be bdb3 4f3e
00000010: 4d4e 053e 1898 83bd 98e1 4cbe fdfc 28be
00000020: a991 3cbe cf03 29be 9578 fbbd 6d6c 5bbe
00000030: da5e 03be 07a4 883d dd5b aa3d 93d5 db3d
00000040: 0e53 c13c 7a5b 153b da7b d63d b1fe 9ebd
00000050: 8af9 143d 8b5a 333e c51b 41be f9fc e33d
00000060: c113 10be 09e5 bfbb b98d 8dbe 9495 ecbd
00000070: ed84 3dbe f678 ac3d eba8 a43e 4f95 dcbd
00000080: ccf6 7cbc 3e27 ac3c 6b81 b6bd 09ae 873c
00000090: 1988 4e3b f619 773d 89fd 993e 48c7 d93c
000000a0: bc1e c7bd e05b cb3d e9a6 c7bc de79 503d
000000b0: 492d 5bbd cf91 ab3d 956e 973c 35b6 0cbe
000000c0: 0772 d3bc d2df 4a3e e2c5 70be d1d6 573e
000000d0: c653 1d3e fe6f 8b3d 3b28 dbbd 8047 15be
000000e0: d166 2bbe a046 d53d d80e ccbe a939 523b
000000f0: 69ad c7bc 9a55 dbbd 82b1 d0bd fff8 263d
00000100: 0c64 9bbd 41e9 523e f6c3 c73d 7f78 93bc
00000110: c2bd 9ebd eea3 62be 023b dabd 7ac2 45bc
00000120: d8f5 febd 6f80 983e f7ea c53d 5e51 3d3e
00000130: 9713 3e3e 14e2 d93c 3b96 3a3b d812 073e
00000140: 4051 42be 4849 3c3e c82e b5bc ad0d 523e
00000150: 2b16 1fbe c35b 10be 3ff8 e73c ecdc ea3c
00000160: 319d d13d 995a 1e3e 0b79 263e d197 213e
00000170: 1552 8bbd 2e7c 8bbe 701a f03d 1f3d c3bc
00000180: 99d2 193c 4dfd c33a f2df 2ebe 3506 5a3d
00000190: 078e 313d 7410 71be 3956 963d a23a 083d
000001a0: efff 9bbc 509e 86be f59a 493e 52a2 b6bd
000001b0: eac8 0abd 51bf 96be 2357 31be 0c68 4ebd
000001c0: 5fa2 9d3d 1e2a e0bd 9bfb 983e a95f 043e
000001d0: fff5 a5bd 5e06 f93c 0006 05be c865 203e
000001e0: ef77 243d 418a b7bd 3c49 f5bc 911a a1be
000001f0: 5c20 10be 26e3 1b3e e46e 09be 1eec b13d
00000200: c5aa f1bd 5af7 65bd 26c0 70bd a619 423e
00000210: 8be2 0c3e 472c a5bd 362c d1bd ae73 863e
00000220: e3d0 823d d650 823e 4ec4 8ebc 014f 4cbd
00000230: 552d 5d3d 51b6 8b3e 0f99 bdbd fb9c 68be
00000240: 03e3 073e 7ef0 9cbd 13dc 20be 058d 50be
00000250: 0db0 7bbd 44a2 5fbe ea79 15be 6b48 9abe
00000260: 6aa3 4a3e 6bad 37be f8a5 f9bd 1aa2 f03d
00000270: 3c4d adbd 573e 87bd 037f 343d f0e4 ddbd
00000280: 33b4 393e 4a83 17be c88f b13d 512b 49be
00000290: fa40 543e f164 84bc ee6e 87bd 1268 0b3e
000002a0: 5a54 6fbe 0c3d 123e 3108 4bbe eae7 3d3e
000002b0: d791 b4bd 225e c3bc a5c2 d63d 12f7 d63d
000002c0: 713b c1bd 9dd8 403c 9252 07bc ee6f fcbb
000002d0: 3385 333c 8805 d03d 1b76 f93d 4f16 1dbe
000002e0: cc79 ac3e 60fe 82bc 0efe bfbd 2ef3 95bd
000002f0: 4ed6 413e b294 2f3e c31a 093e 94a1 bc3d
00000300: ab2f f13d a0d1 953c a53b ebbd ab84 18be
00000310: 494d 49bd 2b87 023e ecd1 4bbe 7729 abbc
00000320: 2251 253e b9b1 a4bc aa20 30be 6b3e 71be
00000330: c3c4 3dbd e08c 653e aa4f c13d ae4f d83d
00000340: dc82 5abe 1014 eabd 5d19 1abe 2768 71be
00000350: f2ca f43b 586b b83d cd4d 72be 08f5 a53c
00000360: ea6a 48bd cac7 4f3e 15a6 3e3e c1ba 373e
00000370: fd39 7abd a206 9a3d d94e 9bbd 521d 6f3e
00000380: 7778 f0bd ce8b 1bbe d9ce e73d 575b dcbd
00000390: 7e78 e1bd b37c 2d3e 08af a23b ae94 353e
000003a0: 6761 483d bec0 f73d 67b0 f83d 59dd 873d
000003b0: 36e2 e8bd 29ba 143d cbd4 393d d597 8bbe
000003c0: d9e3 363d 3b10 2dbe 10d4 913d 1f1f 963d
000003d0: 900f 503d 7177 8fbd 01fc 92bd 2e13 343b
000003e0: 7a56 073e 66ea 5fbd 1f95 c8bd 701d 10be
000003f0: 9c5c 3dbe 9f79 1fbd 9530 91bd 008b 8dbe
-0.07299828 -0.06653263 -0.15741776 0.20283408 0.1301815 -0.06425494 -0.20007932 -0.16502757
-0.1841494 -0.16505359 -0.122788586 -0.2142808 -0.12829152 0.06671911 0.08318303 0.107340954
0.023599174 0.002279012 0.104728416 -0.07763422 0.03637079 0.17515008 -0.1885825 0.11132235
-0.14070036 -0.0058561605 -0.27647188 -0.11551967 -0.18507738 0.08421509 0.32160124 -0.10770666
-0.0154397 0.021014806 -0.08911403 0.016562479 0.0031514226 0.060327493 0.30076244 0.026584283
-0.09722659 0.09929633 -0.024371581 0.05089747 -0.053509984 0.0837742 0.018485347 -0.13741381
-0.025811208 0.19811943 -0.23512986 0.2107804 0.15363988 0.0680847 -0.10701033 -0.14578056
-0.1673844 0.10413861 -0.39855075 0.0032077825 -0.02437468 -0.107096866 -0.10190107 0.040764805
-0.07587442 0.20596792 0.097541735 -0.018001793 -0.07751037 -0.22132847 -0.10655786 -0.012070293
-0.12449235 0.29785487 0.096639566 0.1848807 0.1856216 0.02659706 0.0028470892 0.13190782
-0.18976307 0.1838733 -0.022117034 0.2051303 -0.155358 -0.14097504 0.028316615 0.028669797
0.1023506 0.15464248 0.16257112 0.1578057 -0.06802765 -0.2724318 0.117237926 -0.023832856
0.009388589 0.0014952809 -0.17077616 0.053228576 0.04334834 -0.23541433 0.073406644 0.03325904
-0.019042937 -0.26292658 0.19688018 -0.08917679 -0.033883013 -0.29442838 -0.17318396 -0.050392196
0.076969855 -0.10945533 0.2987946 0.12927116 -0.08103561 0.030398544 -0.1299057 0.15663826
0.04015344 -0.08961917 -0.029942147 -0.3146558 -0.14074844 0.15223369 -0.13421208 0.08687614
-0.1180015 -0.056144096 -0.058776997 0.18955097 0.13758294 -0.08065086 -0.10213511 0.26260132
0.06387498 0.25452298 -0.01742759 -0.04988003 0.05399831 0.27287534 -0.09257709 -0.22716133
0.13270192 -0.07663058 -0.15708952 -0.20366295 -0.061447192 -0.21839243 -0.14597288 -0.30133376
0.197889 -0.17937247 -0.12189859 0.117496684 -0.08461997 -0.06603687 0.04406644 -0.10834682
0.18135147 -0.14796177 0.08670002 -0.1964543 0.20727912 -0.016161414 -0.06612955 0.13613918
-0.23372021 0.142811 -0.19827344 0.185455 -0.08816879 -0.023848597 0.10486344 0.10496344
-0.09435166 0.011770395 -0.008259432 -0.0077037727 0.01095705 0.10157305 0.1218073 -0.15340541
0.33686674 -0.015990436 -0.09374629 -0.073217735 0.18929407 0.17146567 0.13389115 0.09210506
0.1177667 0.018288434 -0.11485986 -0.14894359 -0.04914597 0.12746875 -0.19904298 -0.020893795
0.16144231 -0.020104276 -0.1719996 -0.23558967 -0.046330225 0.22417021 0.09439023 0.10562073
-0.21338981 -0.11429608 -0.15048738 -0.23574887 0.007470482 0.09004849 -0.23662491 0.020258442
-0.048930086 0.20291057 0.18618043 0.17942335 -0.06109046 0.07520796 -0.07583398 0.23351029
-0.11741727 -0.1519005 0.1131875 -0.10759609 -0.1100931 0.169421 0.004964713 0.17732498
0.048921015 0.120973095 0.12143021 0.066340156 -0.11371271 0.03631035 0.04536895 -0.27264276
0.044650886 -0.16900723 0.07120526 0.07330155 0.05079609 -0.070052035 -0.07176972 0.0027477252
0.13216582 -0.0546669 -0.097940676 -0.1407373 -0.18492359 -0.038934346 -0.070893444 -0.2764511

layers.0.bn1.weight f4 [24]
00000000: ee48 503f 9807 723f 6f0f d03e 2060 073f
00000010: 7810 823f efac 703f 1cce 033f 8589 583f
00000020: 8b9d 523f 9bce 363f c61e 043f 2eab 813f
00000030: 64e9 e93e d9fb 723f c4fd 883f dfd0 4b3f
00000040: 907d 243f 00ff f03e 715f 663f 2c8f 083f
00000050: 3b4b a33f a03f 783f 5ebd 593f b8b1 4b3f
0.8136128 0.9454284 0.40636775 0.5288105 1.0161276 0.94013876 0.5148637 0.8458484
0.8227164 0.71409005 0.51609457 1.0130365 0.45685875 0.9491554 1.0702443 0.79615587
0.64254093 0.4706955 0.8998938 0.5334346 1.2757334 0.96972084 0.85054576 0.7956805

layers.0.bn1.bias f4 [24]
00000000: f720 58be e702 60bd 8b74 cf3e 98e2 f33e
00000010: c1c7 b13d a392 adbd 64df b53e 8ad0 333e
00000020: a83a 4c3e 06a0 db3e 7b4e d03e 850b 873b
00000030: f3b8 083f fe53 903d 4348 39bc ab4f 41be
00000040: e123 98be 76a8 e13e d3a9 fcbd 63b9 b33e
00000050: cc3d 34bd bd28 89bd 1499 1dbe b717 11be
-0.21106325 -0.054690268 0.40518603 0.47633815 0.08680678 -0.08475234 0.35521996 0.1756002
0.1994425 0.42895526 0.40684876 0.0041212463 0.5340721 0.0704727 -0.011308732 -0.18878047
-0.29714873 0.44073838 -0.12337079 0.35102376 -0.044004247 -0.06697223 -0.15390426 -0.14169203

layers.0.bn1.running_mean f4 [24]
00000000: fe11 113d bc09 3b3d 0368 9abd aac1 25be
00000010: face 69bc efc8 343d 5860 f83c 24db a1bd
00000020: 5c1f 033e a895 67bd bfde 2cbd 61cf 1c3d
00000030: e845 4ebd 8cae b43d d754 4d3c ff90 f93c
00000040: 8761 54bd 761b bfbb 574a f9bc 61d0 64bc
00000050: d9a0 953c 81b7 17bd cd59 1c3d 70fc b13c
0.03541755 0.04566358 -0.0753937 -0.16187158 -0.014270538 0.044136938 0.030319378 -0.07903126
0.12804931 -0.056539208 -0.042204615 0.03828371 -0.050359637 0.08822355 0.012532434 0.030464647
-0.05185082 -0.005832131 -0.030430956 -0.013965697 0.018265175 -0.037040237 0.03817158 0.021726817

layers.0.bn1.running_var f4 [24]
00000000: bcc3 323f 15ac 2e3f d037 883f 8db5 ac3e
00000010: 78aa ec3e d54b af3f 51ee 013f 5a2a ac3e
00000020: 4299 e83e 64eb ae3e d643 263f 0ba9 483f
00000030: 2e3d 7b3f 9aea 6c3f 073d e43f 20db b23f
00000040: 6a04 643f 60ec 273f b764 c83f 846c 843f
00000050: 37a1 223f 8af1 433f 6d5f bc3e 1cf8 a03f
0.69829917 0.68231326 1.0642033 0.33732262 0.46223807 1.3695017 0.50754267 0.33626062
0.45429426 0.34163964 0.6494726 0.7838294 0.9814023 0.92545474 1.7831124 1.3973122
0.89069235 0.65595055 1.5655736 1.0345616 0.63527244 0.76540434 0.36791554 1.2575717

layers.0.conv2.weight f4 [24, 1, 3, 3]
00000000: de2b 4e3e 0e7f 053e 7c24 0ebd f8a9 80bc
00000010: e1bc e5bd 00de 993e c80e 573e 383a 393d
00000020: 88e2 80bd bbc9 a7be 1d7c ecbd 207a 033d
00000030: 603f afbd 3f05 6bbe 0879 48be b67d 553e
00000040: ec96 303e 4373 493d 1b83 433e 3892 ca3c
00000050: dfe3 8cbe 63ef 983c c91f dd3d 22e3 1cbe
00000060: baa7 edbb 4916 3fbe 8c96 2f3e 353b f53b
00000070: f1c6 1e3e 43c3 f5bd f12e 483e 19d0 f8be
00000080: 28b5 553e 186a 47be 0b09 4d3e 4fb0 293d
00000090: 0c1f f73d 08a1 aa3e 4c0a 583e b59b 1d3d
000000a0: 0757 c93b c955 803e cc9b d53d 4026 883d
000000b0: ceaf 983e 7c0f 0b3d c709 1cbe 4297 dabd
000000c0: 3717 adbe 46cf e03d 3484 babe b321 3bbd
000000d0: 8164 e7be 3982 fdbe dcf4 a23c a92c ccbb
000000e0: e5f8 4a3d 2088 713d 1f5d a03e 4831 0d3e
000000f0: cdb3 fbbd 0ced b7be 2571 89be c6fd 8ebe
00000100: fed9 03be 1122 8c3e aa8b dfbd cfd0 1dbd
00000110: 6345 283e ac17 b1be 2db6 783c 1ed6 513e
00000120: b31b ce3d 8fc1 8e3c 7e52 2abe 08b6 d3bc
00000130: eca2 83bd d34b 52be 02cd 83be 26ae 88be
00000140: 97b9 e3be 69ba 49be c52e 90be c924 abbe
00000150: f2d2 693d 5409 8c3e 5a55 003f 3a08 fb3d
00000160: 2388 993c ef92 1bbe 2fbe 0c3e 07da 75be
00000170: 3c0a 173e 4e4c 843e d526 d6be 6967 993e
00000180: 9e3d 3ebd 2466 32be db03 0b3e ac49 633d
00000190: 8ea5 49be 7bed 7dbe 7bbd 10be bebb abbe
000001a0: f49c 833e f250 a83e 097a 0cbc 7cfa a43d
000001b0: 8711 12be eff1 913e b912 78bd dac8 3dbe
000001c0: cbc8 e33d ea27 abbd e39a f2bd 43fc 463e
000001d0: e2f3 4d3a 5101 93be 8227 853c 5ae0 523c
000001e0: 6d90 a2be f7c0 613d df01 6f3e 3e4c acbd
000001f0: e4fc 13be 3422 a33e be26 9d3e 09fb e6bd
00000200: 7b31 a9bd 13b3 893e 4d88 6f3e 9360 3c3e
00000210: f6f1 a43e bbe0 bb3e 85c7 413d ccb8 b93c
00000220: 1f3f 643e f756 943e 5c82 753e b97d 3c3e
00000230: 5f68 e13d 06e6 ffbd e84b 923e 4a46 833d
00000240: f98a 87be f87a 393d 2061 263e b34b 00bc
00000250: 1ed7 14be e4b2 603e 381d 98be 45fc e2be
00000260: b5c5 9fbe 85b0 303e ceec 90bb e715 883c
00000270: 47af 673e e617 a83e 899b bfbe e832 953d
00000280: 91e1 70be a085 863c b6f9 5e3d 6aef b3bd
00000290: a919 babd 0ed9 69be c5f8 49bd b4a8 efbb
000002a0: 996f d7bd b8f3 93be 6d9a 67be 8955 95be
000002b0: 750d 50be 0a2f 06bf 8492 24bd b7c5 6f3d
000002c0: 222e 4f3d f10c eb3d 5d34 5bbd c3b1 bc3e
000002d0: b228 eb3d 6758 12be d4b7 9abe d303 383e
000002e0: 0606 873e 30f2 043d 81c1 fb3d f216 713e
000002f0: 9e2f 4d3d 3325 aabc 285d 0b3e 6793 e9bd
00000300: c3d8 8b3e a229 7b3e ed6c 54bd 6949 ad3e
00000310: f9a8 893e b4de 373e b0f2 93bd 96c7 643e
00000320: 3661 72be 95c6 7cbe 10a7 df3d 2901 a23e
00000330: 6764 56be dbc5 56be 273d 9d3e c5d9 57be
00000340: b970 98be 9e9c 983d 7a8b 5ebe 88d8 173e
00000350: 5118 8b3d 33ab dd3d caca 963e b9ef d13d
0.20133922 0.13036749 -0.034702763 -0.015706047 -0.112176664 0.30052185 0.21001732 0.045221537
-0.062932074 -0.32771096 -0.1154711 0.03209889 -0.0855701 -0.2295122 -0.1957742 0.20848736
0.17245072 0.049182188 0.19092982 0.024727926 -0.27517602 0.018668836 0.10797078 -0.1532102
-0.0072526606 -0.18660845 0.17147273 0.0074838647 0.15505578 -0.12000134 0.19549157 -0.48596266
0.20869887 -0.19474065 0.20022981 0.041427907 0.120664686 0.33325982 0.21097678 0.038478572
0.0061444077 0.2506545 0.104301065 0.066479206 0.29821628 0.033950314 -0.15238105 -0.106733814
-0.33806774 0.10977034 -0.36428988 -0.045686435 -0.45193866 -0.49513415 0.019892149 -0.00623091
0.04955377 0.05896771 0.31321046 0.1378833 -0.12290154 -0.3592304 -0.26844135 -0.2792799
-0.12876126 0.2736974 -0.10915311 -0.038529214 0.16432719 -0.34588373 0.015180153 0.20491835
0.10063877 0.01742628 -0.16633031 -0.025843635 -0.06427559 -0.20536737 -0.25742346 -0.26695365
-0.4447753 -0.19700016 -0.28160682 -0.33426502 0.05708594 0.27350867 0.50130236 0.122574285
0.018741673 -0.1519277 0.13744424 -0.24008952 0.14749998 0.25839466 -0.418265 0.29961708
-0.04644548 -0.17421776 0.1357569 0.05549018 -0.1969206 -0.24797623 -0.14134781 -0.33541673
0.25705683 0.32874256 -0.008574017 0.080555886 -0.14264499 0.28504893 -0.06056473 -0.1853365
0.111222826 -0.083572224 -0.118459485 0.19432168 0.0007856471 -0.28711942 0.01625419 0.012870872
-0.31750813 0.055115666 0.23340558 -0.084129795 -0.14451939 0.31862032 0.3069362 -0.1127835
-0.08261391 0.26894435 0.23391838 0.18396215 0.32215852 0.36694893 0.047309417 0.022671126
0.22289704 0.289726 0.2397551 0.18407334 0.11006235 -0.12495045 0.28573537 0.06409891
-0.26473215 0.045283288 0.16247988 -0.007830548 -0.14535186 0.21943241 -0.29709792 -0.4433309
-0.31205526 0.17254837 -0.0044227606 0.016612006 0.22625457 0.32830733 -0.3742335 0.072851
-0.23523547 0.01642114 0.05443736 -0.08785899 -0.090869255 -0.22836706 -0.04930951 -0.007313812
-0.105193324 -0.2889688 -0.22617503 -0.2916682 -0.20317633 -0.52415526 -0.04017879 0.058538165
0.050581105 0.11477078 -0.053516734 0.3685437 0.114823714 -0.14291535 -0.30218375 0.17970209
0.26371783 0.03245753 0.12292767 0.23543909 0.05009424 -0.020769691 0.13609755 -0.11405068
0.27313814 0.245276 -0.051861692 0.3384507 0.26886728 0.17956048 -0.07224023 0.22341761
-0.23669896 -0.24685128 0.109205365 0.3164151 -0.20936738 -0.20973913 0.30710718 -0.21079166
-0.297735 0.07451747 -0.21732894 0.14828694 0.06791747 0.10823669 0.2945159 0.102508016

layers.0.bn2.weight f4 [24]
00000000: fc72 693f 2030 7c3f cc91 8d3f 1e54 873f
00000010: 4815 813f 537b 8a3f 0534 933f fec3 8f3f
00000020: 9abb 673f a571 863f 4b90 9a3f ca6f 6d3f
00000030: cc85 9b3f d4cf 8d3f 8905 823f d610 7b3f
00000040: 6893 7f3f 33a2 6c3f e7c4 8d3f 5cec 6e3f
00000050: 43e9 863f 0f84 5d3f 6457 913f d5d0 533f
0.9119108 0.9851093 1.1060119 1.0572546 1.008462 1.0818886 1.150025 1.1231687
0.9052063 1.0503432 1.2075285 0.927487 1.2150207 1.1079049 1.0157939 0.98072565
0.998343 0.92434996 1.1075715 0.93329406 1.0539936 0.8652963 1.1354795 0.8274053

layers.0.bn2.bias f4 [24]
00000000: b337 a83d 36c0 2f3e d740 d8bd a9e5 38be
00000010: 967d 853e e3c2 923e ca31 b7bd 5a5b 29bd
00000020: 316a 1bbd 4903 383d 2064 9ebd 3766 df3c
00000030: 83a6 873d 16fc 18be 616a a23e 8f9c d8bb
00000040: ee39 253e 67b0 1c3e 9871 8f3e 6d52 c93d
00000050: b360 aa3d a84b 243e a3dc 8abc 34d8 70bd
0.08213749 0.17163166 -0.10559242 -0.18056358 0.26072377 0.28664312 -0.089450434 -0.041346885
-0.03794307 0.044925008 -0.07733941 0.02727042 0.066235565 -0.14939913 0.31721786 -0.00661046
0.1613538 0.15301667 0.28016353 0.098301746 0.08319225 0.16044486 -0.01695091 -0.058799937

layers.0.bn2.running_mean f4 [24]
00000000: 6697 eb3d 3040 18be 8e4b 4cbd 0778 52ba
00000010: 0492 153f 4552 d8be 73d9 a4bd 702c 89bd
00000020: 6b6c 0cbf ca5a 133d 68d2 0a3d b1c4 6ebd
00000030: b641 f43b ec0c 60bd ee82 f93e cfbe 5f3e
00000040: 1bce f5bd d105 ac3d 78ca 5bbe 4ef5 4fbe
00000050: 9d8e 773e 273c bd3e 19cf 1a3c ad95 f43c
0.11503486 -0.14868236 -0.049876742 -0.000802875 0.5842593 -0.42250267 -0.08049288 -0.06697929
-0.5485293 0.035975255 0.033892065 -0.05829305 0.0074541224 -0.054699823 0.48732704 0.21850131
-0.12002202 0.08399547 -0.21463954 -0.2030842 0.24175496 0.36959955 0.00944879 0.029856527

layers.0.bn2.running_var f4 [24]
00000000: aab2 213d 4d76 913d 1da5 183c f411 043d
00000010: 7856 eb3e 8325 f23e 8831 c13d d17e 983d
00000020: 798c bf3e 369c 803e 18d3 193e 8e8e eb3d
00000030: dd6b 5b3d fae6 403d c98e 0c3f ff83 183e
00000040: 3ba7 603d 6159 003d 2b6a f83d 69aa 963d
00000050: 7f5c ad3e 36f5 b23e 4151 3c3d 0880 8e3d
0.039477028 0.07102642 0.00931671 0.032243684 0.45964408 0.47294244 0.094332755 0.07446063
0.3741186 0.2511918 0.15021932 0.115017995 0.053569663 0.047095276 0.5490537 0.14894103
0.054846983 0.03133524 0.12129625 0.07356722 0.3385963 0.34952706 0.045975927 0.06958014

layers.0.conv3.weight f4 [12, 24, 1, 1]
00000000: cb6a c7bd e5fd 6f3e 494d aa3c 46da be3d
00000010: b024 55bd 843a cd3d 5ad9 4b3e aeff 10be
00000020: 19e9 00be 0d29 253e 86b3 79bd f6ff b53d
00000030: b36c c3bc e37a 58be 7980 fbbd dddb 8dbe
00000040: eb0e 70be 555f fdbd 5966 6e3e 65d5 2b3e
00000050: adc7 b5bc c946 48be 6191 34bb 8eb2 c93d
00000060: d229 213d 28f5 8cbd 49ee 69be 0a11 e6bd
00000070: 881a 25bc 9ee5 1ebc a5ca b93d 3089 333e
00000080: 4ee2 823d 4bb2 d63d 37b0 193e a35b 843e
00000090: 5cd8 433e 7237 a63d 1ec8 5ebe 685b 94be
000000a0: d1cb fbbc 808b 273e b10e f53b 912d 073e
000000b0: ae1c f0bd d1de be3d 1df6 eb3d d229 9f3d
000000c0: 19b4 713e 513f 293e 933d 8a3d 6ac6 30be
000000d0: cae3 8ebe d003 4bbd 0d89 5a3e ccb4 c7bd
000000e0: cad9 5f3c a33d 6b3e 9699 6d3e 3597 b9bc
000000f0: e193 6f3e e68e 50bd d585 4e3e 4826 dc3d
00000100: c38a 0fbe 40d2 05be 4051 97bd a89c 40bd
00000110: 6ff6 46ba 2476 4fbd df8f 033d 380c 0c3d
00000120: 5d92 95bd 10b8 9ebd 6c0e 65bb af87 cbbd
00000130: 66ff c33d 0134 aa3d cd1e 693e 6d6a f63c
00000140: 1a50 8d3d 06ee b53c e8d9 8a3e 5352 3dbe
00000150: f1d8 8f3e 73cf 14be 34ac 6dbe 3584 04be
00000160: 5922 5b3e 59d8 513c d974 873e b0fc 1f3e
00000170: 0d66 4e3e d7f3 d13d 1d01 893d 2a12 1b3e
00000180: 45c3 7a3b 186c 3d3c fddd cbbd d5b5 b6bd
00000190: 406d 4b3e 1c6b 87bc 2b2c 17be 8902 613e
000001a0: 8a59 053e 8854 5bbd 1068 1a3e 7cb5 80bd
000001b0: b850 1b3e d086 5e3e 16b3 523e e19e 293e
000001c0: 9df0 d2bd 1bb0 903d f13b 5abe 1e7c f2bd
000001d0: c86f 87be d734 e0bc 1b52 323e 1559 233e
000001e0: f88d 62be ac57 65be 83ca f93c c608 523d
000001f0: c228 febd 729a b2bd 8af4 76be eea2 8dbd
00000200: 612f e53d c495 76bd 2914 db3d d832 443d
00000210: 33e1 b53d 51c9 db3d 865f 073e 37bf a73d
00000220: 041c e33c 267b b4bd 519f f93d c661 783e
00000230: efb9 f4bd 9693 91be 4a7d 6b3e ba60 15be
00000240: 261f 2cbc 8edf bc3c 9570 18bc c416 813e
00000250: d55f 0f3e e198 c0bd 17b1 28bd 1d16 04be
00000260: 6bcc 773c 929f d43d 3f84 a23e 3915 2ebe
00000270: 4767 9b3e 3445 7f3d 26c9 31be 76f9 21be
00000280: 57c3 e4bd b966 abbd 930c 44be c5d6 54be
00000290: 4727 93bd 5074 98bd 7e87 173e a477 3e3d
000002a0: 6361 183e 3dae 3fbd e327 a7be 6aa3 9abe
000002b0: e547 2a3e d6c8 703e 12a2 eabc 8fa8 95bd
000002c0: a7ea 973e e38f 6f3d b5e6 29be 6651 a7bc
000002d0: 440c d4bc 3a91 9c3d c445 023c 9b75 b63d
000002e0: 40b9 3b3e 5472 2ebe 904e a53d 210b a2bd
000002f0: ab71 9bbb 2748 ad3c c995 babe 86ba 93bd
00000300: 01ad 273e 7237 1abe c506 9b3e 7a58 803e
00000310: 0a6f 31be 3456 d43d 5a65 ce3d c4b6 18be
00000320: eb2b f13d f3a0 b8bd e772 00be 48fc 4dbe
00000330: 5db1 b2bd 2c03 1c3e c730 91bd 5cbc 5dbe
00000340: 4458 633e d752 21bd bbe5 963c f2ec 663e
00000350: 26a8 97be 1423 0a3e 9058 8bbc 2e2e 973d
00000360: 7d0c 263c 55ea b53d 4e06 3e3e 24b7 1e3e
00000370: 0ee4 3dbd 3c26 f03e 9c3a 3e3d 6028 a3bd
00000380: 7516 003d 3925 153e c953 dbbe f6a4 c33d
00000390: de28 90be 634e 723d 71f5 7dbd dad7 fe3d
000003a0: c0f4 e83d 1659 b43d 24c6 963e 5d9c da3d
000003b0: 22db 673e d725 033e aca8 ae3d 534a 833d
000003c0: 6087 b2bd 266f b1bd 8a1d 86bd 29c1 17be
000003d0: 43bb 06be f90b d73d 9da7 913d 6fbf 6cbe
000003e0: 14bc a0bc 764f c9bd 6fad 1e3e 23a4 aabc
000003f0: 4f7d b63d 2e59 1abe a634 f63d d6a1 a23d
-0.09737166 0.23436697 0.020788806 0.09318976 -0.05203694 0.100209266 0.19907132 -0.14160034
-0.1258892 0.16128941 -0.060962223 0.08886711 -0.023855543 -0.21140628 -0.122803636 -0.27706805
-0.23443191 -0.12371699 0.2328123 0.16780622 -0.02218994 -0.19558252 -0.0027552473 0.0984851
0.039346524 -0.06882697 -0.22844805 -0.11233719 -0.010077126 -0.0096983 0.090718545 0.17532802
0.063908204 0.104832254 0.15008627 0.25851163 0.19125503 0.08116044 -0.21756026 -0.28975987
-0.030736836 0.16361809 0.007478558 0.13200976 -0.1172422 0.093198426 0.11521552 0.077716485
0.23603858 0.1652806 0.067500256 -0.17263189 -0.27908164 -0.049564183 0.21341343 -0.09751281
0.013662765 0.22972731 0.2320312 -0.022655109 0.23396255 -0.05091753 0.2016824 0.10749489
-0.14017777 -0.13068485 -0.07388544 -0.0470244 -0.0007589822 -0.050649777 0.032119628 0.03419134
-0.07303307 -0.07749951 -0.0034951223 -0.09937989 0.09570198 0.083107 0.22765656 0.030080045
0.06900044 0.022208225 0.27119374 -0.18488435 0.280952 -0.1453226 -0.23210222 -0.12941058
0.21399821 0.012807929 0.26456335 0.15623736 0.20156117 0.10251587 0.066896655 0.15143648
0.0038263362 0.011561416 -0.0995445 -0.089214005 0.19865894 -0.016530566 -0.14762942 0.21973623
0.13022438 -0.053547412 0.15078759 -0.062846154 0.1516751 0.21731114 0.20576128 0.16564514
-0.102997996 0.070648395 -0.21311928 -0.1184008 -0.2645247 -0.027368946 0.17414133 0.15951951
-0.2212447 -0.22396725 0.030492073 0.0512779 -0.12410118 -0.08720864 -0.24116722 -0.06915842
0.111906774 -0.06020142 0.106972046 0.04790005 0.08880844 0.107317574 0.13220033 0.08190768
0.02772332 -0.08812551 0.1218859 0.24256048 -0.119495265 -0.28432912 0.22997013 -0.1458768
-0.010505473 0.023055818 -0.009304185 0.2521268 0.14001401 -0.09404159 -0.04118451 -0.1289906
0.015124421 0.10381998 0.3174152 -0.17000283 0.30352232 0.062321857 -0.17361888 -0.15817818
-0.111700706 -0.08369202 -0.19145422 -0.20785053 -0.07185226 -0.0744406 0.1479778 0.046500817
0.148809 -0.046797026 -0.3264762 -0.302028 0.16628988 0.23514113 -0.028641734 -0.073075406
0.29671213 0.05848683 -0.16591914 -0.020424556 -0.025884755 0.07644887 0.007951204 0.0890915
0.18332386 -0.170358 0.08071625 -0.07912279 -0.004743775 0.021152569 -0.36442402 -0.07213311
0.1637459 -0.15060213 0.30278602 0.25067502 -0.17327514 0.103680044 0.10077925 -0.1491347
0.11775955 -0.090150736 -0.12543832 -0.20115769 -0.087252356 0.15235585 -0.07089382 -0.21653885
0.2220164 -0.039385643 0.01842009 0.22551325 -0.29620475 0.13489944 -0.017010003 0.07381855
0.010134813 0.08882586 0.18557093 0.1549955 -0.046360068 0.4690417 0.046442613 -0.07966685
0.031271417 0.1456498 -0.4283736 0.09552948 -0.2815618 0.059156787 -0.06200165 0.12443514
0.11374807 0.08806054 0.29448044 0.10674355 0.22642186 0.12807404 0.08528265 0.064106606
-0.08717227 -0.08663778 -0.06548603 -0.14819779 -0.13157372 0.105003305 0.07112048 -0.23119901
-0.019620933 -0.09829609 0.15495847 -0.02083022 0.089106195 -0.15073082 0.12021761 0.07941024

layers.0.bn3.weight f4 [12]
00000000: a6ce 6c3f b3e9 733f 74ea 843f 65a8 873f
00000010: 8908 873f 5f1f 833f 3302 883f b1ad 7c3f
00000020: 21a3 683f adb0 993f 5910 6c3f 025f 763f
0.9250282 0.9527847 1.038405 1.0598265 1.054948 1.0243949 1.0625671 0.9870253
0.90873915 1.2007042 0.92212445 0.9623872

layers.0.bn3.bias f4 [12]
00000000: f1bb d0bc ff92 c33c b0bd 57bc d3b1 003d
00000010: ddfd 913c c0be 4e3d adbe 1e3c 8a34 793d
00000020: 17c2 4fbd 7d4f c3bc 9146 863d f05c 2abd
-0.025480242 0.023873804 -0.013167784 0.031419586 0.017821247 0.050474882 0.009689015 0.06084112
-0.050722208 -0.023841614 0.06556428 -0.04159254

layers.0.bn3.running_mean f4 [12]
00000000: 0bef 0fbd 6960 523e 0406 423e da60 133f
00000010: 81e0 293e de3b e2bd 530d 10be 5955 093d
00000020: d25f 4a3d 4f94 353f 5dea a43d d483 4e3e
-0.03514008 0.2054459 0.18947607 0.5756966 0.16589548 -0.11046575 -0.14067583 0.03352866
0.049407788 0.70929426 0.08052514 0.20167476

layers.0.bn3.running_var f4 [12]
00000000: 4b27 6c3e b02d 353e bb23 5f3e 947c 183e
00000010: 75a0 c13e fd2e 983e 0ce2 403e 3b71 833e
00000020: 8720 983e 49dc 973e d6ed 1e3e e644 563e
0.23061864 0.1769321 0.21790974 0.14891273 0.37817731 0.2972335 0.1883623 0.25672325
0.29712316 0.29660252 0.15520415 0.2092472

layers.1.conv1.weight f4 [24, 12, 1, 1]
00000000: 339c bcbd 2e7e 43bc 6a19 f83d 834a 0b3d
00000010: 6bec de3d 3075 27be c210 9cbe 3d07 78be
00000020: 8a2d 363d 2eb7 4ebc 1a47 7e3e 287d 863d
00000030: 6454 83be dc8d 393e 0f8d 183d 3dc2 663e
00000040: 099d 35be da37 77be d0af db3d 8a38 ad3d
00000050: 62a5 493d acdd 423e 1273 e3bd 917e 5c3e
00000060: 696e 463e dd4a 69bd 6005 d6bd 5a7d 483e
00000070: 659a 5ebd 8dbc 3e3c 6792 86be 5038 6bbe
00000080: 61d3 bf3d 7006 c13d 2fad e0be ab96 87be
00000090: 7798 103e df98 e53d 5503 cf3d 6e3c 22be
000000a0: dd51 e33d 93ad 7d3e 9863 28be c9ed 3fbe
000000b0: 20d6 563e 9e73 2ebe 682b c0bd a925 3bbe
000000c0: 35b6 da3d 6c49 933e 7ea4 de3c a4c0 a33e
000000d0: c8a1 393d c628 5a3e 11ee b43e 4b07 80be
000000e0: d2f6 37be f129 39bd 3a94 853d 7070 8abd
000000f0: 5d61 16be 5d2f 693d 9d72 81be c107 b63d
00000100: 661f d63d 79cf cabd 7043 3a3e 87ad 713e
00000110: 1cf9 73be e700 dd3c c067 aebd e0ea 7d3e
00000120: 5954 e13d 3f16 83be a07a 9abe 7fad ccbe
00000130: f8ae 433e ee8b 12be 5b33 13bd 75b6 81be
00000140: 5f76 9d3e ebc4 e73d 03db 20be f278 ff3d
00000150: b8c9 523e c4c5 82bd 5ee8 22be ce0c c93d
00000160: a31c 1b3e f832 b5bc 9d42 71be c2e9 e13e
00000170: 3138 1b3e 2809 c33e 2dd2 373e 1fe9 d7bd
00000180: 7306 323e 73e2 82be 765a 923e 48a3 6dbe
00000190: fd2a 26be 407e 1cbe 0489 1e3d 0f7d 84be
000001a0: 2c2a a5bd 7d7e 963c 566c a53e 11f4 efbd
000001b0: 0f4f 9c3e a82a 2ebd 950e 16be d94a 213e
000001c0: d389 a6be da04 843e af3a ac3e dcf7 40be
000001d0: 37b8 2d3e 76c4 a2be dfb6 583e 5bd3 6e3e
000001e0: 3a9b 6f3d 1511 dd3d 7d1f ba3d 2d28 7bbe
000001f0: 3249 86bd e9fd 8abd a791 d1bc 8477 0fbe
00000200: a3cc bebe b003 213e cbdc 67bd d067 d23e
00000210: 8676 203d 7af2 c93d f393 d93d 7133 a53c
00000220: bfaf 043f 5900 03be c6e5 da3d facc 41be
00000230: 83b4 42bd de59 99be a9bb 1bbe 93ba 373e
00000240: 0d94 f43d 77f3 6cbe cc54 513d b44a 1ebc
00000250: bcb4 98be 2c28 cf3c 28f2 33be 2ece 3b3e
00000260: 3b95 44bd dc9c e7bd 6495 91be 6746 7bbe
00000270: a77a aabd cb40 0cbb ac16 80bc 3ca9 0dbe
00000280: 6d1b 9e3d 468d f23d a467 c23e 8ad6 643e
00000290: e31c 913e 7b20 07bd 1cf3 b0bd e525 a2be
000002a0: 0221 7d3e 9e90 7f3e c057 a43e fec3 b03e
000002b0: be31 86bd af82 56be eb5e 223e 8a04 f43d
000002c0: 2356 9a3b 94cf 76be 5abb 103d 9415 02be
000002d0: e4fc a83c 4387 d0be 2b25 ea3d e75e 0abe
000002e0: 70ba 223e 1417 c43e d373 dd3c 1f3d 48bd
000002f0: 5af2 95bd 8878 9bbd 5eb9 183e 5be7 833e
00000300: 41aa 30be 6eb5 853e 463a 77be c00c 2abe
00000310: 1148 4d3e 9e33 863e f3cd d2bd 70e8 e4bd
00000320: e177 2abe 6129 84be e519 6d3e fbee 6cbe
00000330: 8a38 153e 8c87 5c3e 6a3f 3cbe e6e6 20bd
00000340: fbbd d2be 365c 12be 6d88 13bd f472 003e
00000350: 487f cebd 7f2e be3e 20a9 1dbd 130f 99bd
00000360: e072 e0bc 6f8f 473e 57ca 023d ec41 91be
00000370: f3fb 8c3d 5854 3bbe fbe2 c53d ab25 cdbd
00000380: 90af 0f3e 1266 453e d8ad 56be 24c3 863e
00000390: 48f9 8a3d 4cd9 1f3e 8706 eb3d 6a19 ddbe
000003a0: d43b c03d 9eaa 3b3e f9ec d73c 712c 773e
000003b0: 3543 58bd 3744 32be c924 1abe a60f 363e
000003c0: 89b1 2fbe 1d82 70be 0d07 933e 5bfc 3ebe
000003d0: 45eb cebd ac8b d93d cc9a cdbc a3b6 47bc
000003e0: 939f 9dbc 8522 32be a821 7bbe 740e 863e
000003f0: a010 4e3e 923c 1ebb c0ec 8e3d 7080 a63e
-0.0920948 -0.011931939 0.12114222 0.034006607 0.10884937 -0.16353297 -0.30481535 -0.24221511
0.044477023 -0.012616916 0.2483181 0.065668404 -0.25650322 0.18120521 0.0372439 0.22535034
-0.17735685 -0.241424 0.10726893 0.084580496 0.049229987 0.19029874 -0.11105932 0.21532656
0.19378056 -0.05695616 -0.10450244 0.19579068 -0.05434646 0.011641634 -0.2628357 -0.229707
0.09366489 0.09425056 -0.4388213 -0.26482138 0.1412066 0.112107985 0.101080574 -0.15843365
0.110995986 0.24773245 -0.16444242 -0.18743052 0.2098012 -0.17036292 -0.09383279 -0.18276085
0.106792845 0.28766954 0.027178045 0.3198291 0.045320302 0.21304616 0.3533788 -0.25005564
-0.17965248 -0.045206014 0.065224126 -0.06759727 -0.14685579 0.056929935 -0.25282755 0.08888198
0.104552075 -0.099028535 0.18189788 0.23601352 -0.23825496 0.02697797 -0.085158825 0.24796629
0.11002416 -0.2560291 -0.3017168 -0.39976117 0.19109714 -0.14311191 -0.03593765 -0.25334516
0.30754372 0.11316856 -0.15708546 0.1247424 0.20584762 -0.06385377 -0.15908954 0.098168954
0.15147643 -0.02211903 -0.23560567 0.44123656 0.15158154 0.38092923 0.1795127 -0.10542511
0.17385273 -0.25563392 0.2858464 -0.23206818 -0.16227336 -0.15282536 0.038704887 -0.25876662
-0.08064684 0.018370861 0.32309216 -0.11716474 0.30529067 -0.04252115 -0.14654 0.15751208
-0.32527027 0.2578495 0.33638522 -0.18844551 0.16964804 -0.31790513 0.2116351 0.23322813
0.058497645 0.10794274 0.09088037 -0.24527045 -0.0655693 -0.06786711 -0.025582148 -0.14010435
-0.372655 0.15724063 -0.05660705 0.41094828 0.039175533 0.09860702 0.10623922 0.02016613
0.5183067 -0.12793101 0.10688357 -0.18925849 -0.04753543 -0.29951376 -0.15208305 0.17942266
0.11942301 -0.2313975 0.05110626 -0.009661365 -0.2982539 0.02528771 -0.17572844 0.1834037
-0.04799388 -0.113092154 -0.28434289 -0.24538575 -0.08324175 -0.0021400924 -0.01563581 -0.13834089
0.07720075 0.11843352 0.37969697 0.22347465 0.2834235 -0.03298996 -0.086401194 -0.31669536
0.24719623 0.24957511 0.32098198 0.3452453 -0.06552456 -0.2094829 0.15856521 0.11914928
0.0047099753 -0.24102622 0.035334922 -0.12703544 0.0206284 -0.40728197 0.114328705 -0.13512765
0.15891433 0.38298857 0.027032768 -0.048886415 -0.073216155 -0.07591349 0.14914462 0.25762448
-0.17252447 0.26114982 -0.24143323 -0.16606426 0.20047022 0.26211256 -0.10293188 -0.111771464
-0.16647293 -0.2581282 0.23154409 -0.23138039 0.14572349 0.21536082 -0.18383566 -0.039282702
-0.4116057 -0.14292988 -0.036018778 0.12543851 -0.10082871 0.3714485 -0.03849137 -0.07473578
-0.027398527 0.1948831 0.031931248 -0.28370607 0.06883993 -0.18293893 0.09662434 -0.1001695
0.14031816 0.19277218 -0.20964754 0.26320755 0.06785828 0.15610236 0.11475854 -0.43183452
0.09386411 0.18326804 0.026358115 0.24138047 -0.05279847 -0.17408834 -0.15053095 0.17779407
-0.17157568 -0.23487134 0.28716317 -0.18650953 -0.10103468 0.106223434 -0.025098227 -0.01218954
-0.01924113 -0.1739598 -0.24524558 0.26182902 0.2012353 -0.002414499 0.0697875 0.32519865

layers.1.bn1.weight f4 [24]
00000000: a1b0 873f 3731 633f 6a7a 873f 90e4 283f
00000010: 4d8a 233f 0211 a83f 1add 893f fd6f de3e
00000020: f2f5 673f 6d92 003f d9bd 8d3f 51fd 083f
00000030: fea2 473f de0f 943f 25ac 2b3f 602f 743f
00000040: 727c 273f 428e 883f 0f6f 943f 9ca7 4d3f
00000050: 1214 563f abd7 1a3f adc7 793f e4b7 873f
1.0600778 0.8874697 1.0584233 0.6597376 0.63882905 1.313019 1.07706 0.43444815
0.9060966 0.5022343 1.1073562 0.5351153 0.7798308 1.1567342 0.67059547 0.9538479
0.65424263 1.0668414 1.1596392 0.80333877 0.83624375 0.60485333 0.97570306 1.0602994

layers.1.bn1.bias f4 [24]
00000000: bcbc 7a3d 06ac 6e3e 7c42 123d 1c13 bd3e
00000010: b3b6 c03e 4637 0abe 3103 6b3e 55e4 f03e
00000020: e451 e53d 0b44 cf3e f248 473e 7179 083f
00000030: 3f2c 593e 8d41 e53d 3af8 d03e 807e 163e
00000040: eba4 8f3e 0b6f 083d 888e 263f 7e20 5f3e
00000050: 25fb a23c e9bf b13e 9c69 d93d 97d9 dc3c
0.061215147 0.23307809 0.035707936 0.36928642 0.37639388 -0.13497648 0.22950436 0.47049204
0.1119726 0.404816 0.1946142 0.53310305 0.21208285 0.111941434 0.40814382 0.14696693
0.2805551 0.033309024 0.65061235 0.21789739 0.019895146 0.34716728 0.106158465 0.026959224

layers.1.bn1.running_mean f4 [24]
00000000: 3c63 23bc b150 70bc 19f9 28bd 8d3a 34bc
00000010: f6d3 f93c 008c a53c eeba 8fbd f405 bb3c
00000020: da1a 93bc c1f3 14ba fd33 d0bc eb2f 65bc
00000030: 554e 03bc bb7f 803c 4fa3 823c 6733 ec3b
00000040: a4a5 6c3d 8c03 03bc 7804 57bd 1b8d 3c3b
00000050: 0d2a f4bc 4ad0 9ebb fe3a acbc 22ca d3bc
-0.00997239 -0.014667676 -0.041253183 -0.011000288 0.030496579 0.020208359 -0.07018076 0.022829987
-0.01795714 -0.0005682074 -0.025415415 -0.013988475 -0.008014281 0.015685907 0.015947012 0.007208276
0.057775155 -0.007996451 -0.052494496 0.002877063 -0.029805208 -0.0048466073 -0.021024223 -0.02585322

layers.1.bn1.running_var f4 [24]
00000000: 9f74 6e3e 4983 c83e ee6e 033f af7f 8a3e
00000010: c482 303f d293 8e3e 93bc 083f d7fe 6d3f
00000020: 80fe bb3e e2b2 283f d67a d13e fa48 823f
00000030: 719d af3e 7603 ff3e ac65 1c3f 799e 373f
00000040: 55c9 453f 85c5 8e3f 0ed6 9b3e 77d4 cf3e
00000050: f730 e83e 6252 193f 5676 673f 14df e63e
0.23286675 0.39162663 0.5134114 0.2705054 0.6894953 0.27847153 0.5341274 0.9296698
0.36717606 0.65897954 0.4091403 1.0178521 0.34299806 0.49807328 0.6109264 0.71726185
0.77260333 1.1154028 0.30436748 0.40591785 0.45349857 0.5989133 0.9041494 0.4509207

layers.1.conv2.weight f4 [24, 1, 3, 3]
00000000: ddc4 efbd ff30 ccbd 6e3a c63d bf58 96be
00000010: 519c 86be 1643 18be 54bc b5be ebc6 aabe
00000020: 0e98 7dbd f167 abbe b3b0 c93d 1604 20be
00000030: 7378 23be 02b7 973e f84e 4c3c 26fd e93d
00000040: 72dc 983e 35b4 73bd 1f43 55be 5bea c4bd
00000050: d24e ebbd b0db 4d3e 6306 533e 914a 423e
00000060: 1aa0 6ebc ed5e 21be 0b3c 63bd d400 c83e
00000070: 206f 5f3e bb0e 5bbd 745c ae3e 9862 c63d
00000080: beeb b7bc 9266 afbd 069d aabd 6b81 563d
00000090: 55bd 56bd d300 f2bd 891e b5bd 1bab ebbd
000000a0: b3a3 5bbe fe76 e4bd ac0e 69be c09c 9abe
000000b0: c7e5 e6bd 4315 62be 229d 2ebe 18cf 86be
000000c0: 5699 413e 1057 633e 2529 03be 1421 8f3e
000000d0: 3ebe 3a3e bf1c 1d3d 97e4 0a3e b5dc 443e
000000e0: d8bd ee3d 2305 133e a02b 803e 21b7 383e
000000f0: 41bc 4c3d 901b 0c3e 1446 043d 103b 70be
00000100: f57a 07be d962 74bc 9709 0cbe 92b0 b1bd
00000110: d546 433d 37fe 563e c2a3 9e3e 2d1c 7f3e
00000120: af15 ba3d 3ad5 023e e91c 173e 1788 a83e
00000130: 3666 903e fca1 0d3d 0548 0a3e d3ba 9b3e
00000140: a920 0c3e 006c 433e 73c3 923e a5f4 eb3d
00000150: 5a54 7e3e b894 d53e 228c 5f3e 98e5 533e
00000160: 524e 813e 06af c03d 3c9c d53d e43a 653e
00000170: 43a5 4a3e 474a 1c3e 3699 813e 5beb e43c
00000180: e4b5 34be d485 68be 7d84 84be 731b 213e
00000190: d3dc 803e ed58 6b3e 44fc c9bd 9215 b73d
000001a0: 1689 4a3e ca0b 63be 5219 a4be e415 89be
000001b0: 0d69 4a3d 1597 923d 6df2 d63d 0c3f 7cbe
000001c0: 0982 d2be dc7c 81be c2f6 4d3e 0b0d 293e
000001d0: 4637 3f3d 4550 2a3e 838a a93d b298 a63c
000001e0: 2eb0 a0be dd05 af3e bca9 4f3e 9184 72be
000001f0: 864a 0c3e 57e6 adbc be10 883e 86a9 803e
00000200: c9ed d73d ebc1 833e 18aa ba3e 6faf 783e
00000210: bac9 da3d 7274 4e3e 39d7 203e 1deb 643d
00000220: ce1e 243e e444 0c3e 1d20 53be 821a 8dbe
00000230: 1924 e2be 3f1b a3be 131d ffbd 390d 9bbd
00000240: a27d ce3d 15d2 1e3e 1c01 2f3e 7e17 573e
00000250: 5042 b23e a0cc 843e 5436 0c3e 241f 913e
00000260: 67cb 493e 71c2 1a3d b91b 33be 44e2 4abe
00000270: 6cd3 07be 7320 a5be 8e1b bbbe a61d 69be
00000280: cfe0 2cbe a695 0abd 2746 b0bd dca0 a33d
00000290: c5ba 713d 9a77 563e 095e d23d 6282 103e
000002a0: 53d9 be3e a0f3 b53e ad2b 333e e264 073e
000002b0: 4a4f 333e 2e3b 403e b268 543e 50f5 7e3e
000002c0: e3c3 393e ddd4 893d 5f75 953e 3670 293e
000002d0: 4619 3b3e 58b2 923e b750 b63c 58e4 db3e
000002e0: dc19 bf3e 0b78 c939 bebe 173e a425 3f3e
000002f0: 7ec8 3c3e ef77 aebe 18d3 533d 3b4b dd3d
00000300: f031 83be 07e0 bb3d 986a 453e 0222 61be
00000310: a110 3c3d 0d9a 8b3e 5663 12be ae69 2fbe
00000320: 7508 99bd fbb9 413e b1e0 8b3e f096 4d3d
00000330: cf06 3e3e e32b a83e af49 103e a917 013d
00000340: f1b1 febd 313b 13bd 7397 873e 5b3f 423e
00000350: 8746 30be 8ab3 623e 26db 7e3e 756b a43d
-0.117074706 -0.09970283 0.09679113 -0.29364583 -0.26291135 -0.14869341 -0.35495245 -0.33354887
-0.06191259 -0.33477738 0.09848156 -0.15626559 -0.15963916 0.2963181 0.0124699995 0.11425237
0.29855686 -0.05949803 -0.20826386 -0.09615012 -0.11489643 0.20103335 0.20607905 0.18973757
-0.014564538 -0.15758868 -0.055477183 0.39063132 0.21819735 -0.053480845 0.3405491 0.09686774
-0.022451278 -0.085644856 -0.08330731 0.052369516 -0.052426655 -0.118165635 -0.08843715 -0.11507245
-0.21449165 -0.111555085 -0.22759503 -0.30197716 -0.11274295 -0.22078423 -0.17052129 -0.26329875
0.1890615 0.2220118 -0.12808664 0.27954924 0.18236634 0.038357493 0.13563763 0.19224818
0.116573036 0.14357428 0.25033283 0.18038608 0.04998422 0.1368239 0.032293394 -0.2346003
-0.13230498 -0.014916145 -0.13675533 -0.08676256 0.047674973 0.20995413 0.30984312 0.24913092
0.09086167 0.12776652 0.14757122 0.32916328 0.2820298 0.03457831 0.13504036 0.30415973
0.13684334 0.19084167 0.2866474 0.115212716 0.24836865 0.41715026 0.218308 0.20693052
0.25255066 0.09408383 0.1043019 0.22385746 0.19789605 0.1526271 0.25312203 0.027944257
-0.17647511 -0.22707301 -0.2588233 0.15733127 0.25168476 0.22983141 -0.09862569 0.08939661
0.19778857 -0.22172466 -0.32050568 -0.26774514 0.04941659 0.07157723 0.10495458 -0.24633425
-0.41114834 -0.25290573 0.20113662 0.16508882 0.046683572 0.16632183 0.08278372 0.020336483
-0.31384414 0.3418416 0.20279592 -0.23683383 0.13700303 -0.021227999 0.26575273 0.25129336
0.10543401 0.25733885 0.36457896 0.24285673 0.106830075 0.20161608 0.15707101 0.055888284
0.16027376 0.13698155 -0.20617719 -0.27559286 -0.44168165 -0.31856725 -0.12456717 -0.075708814
0.10082556 0.15509827 0.17090267 0.21005055 0.34816217 0.25937366 0.136926 0.2834407
0.19706498 0.03778309 -0.17491044 -0.19812876 -0.13264245 -0.3225132 -0.3654446 -0.22765216
-0.16882633 -0.033834122 -0.086071305 0.07989666 0.059016008 0.20944062 0.10271842 0.14112237
0.3727518 0.35537434 0.1749713 0.13222077 0.17510715 0.18772575 0.20743063 0.24898267
0.18141131 0.067300536 0.2919111 0.16546711 0.1827136 0.2865169 0.022255285 0.4294765
0.37324417 0.00038427147 0.14818856 0.18666703 0.18435857 -0.34075877 0.051714987 0.10805365
-0.25624037 0.09173589 0.19278944 -0.21985629 0.045914296 0.2726597 -0.14295706 -0.17130157
-0.07472316 0.18918602 0.27319863 0.050192773 0.18557285 0.32845983 0.14090608 0.031516705
-0.124362834 -0.03594512 0.26482734 0.1896948 -0.17214404 0.22138801 0.24888286 0.08028308

layers.1.bn2.weight f4 [24]
00000000: 01e4 843f 4a9b 5b3f b1a5 743f a612 5f3f
00000010: 0e5f 9b3f cfc2 573f fc60 7c3f 4e40 8c3f
00000020: 8c26 633f d1d6 6b3f 6d09 723f b687 893f
00000030: f22e 6f3f 8b18 813f 46ce 613f 14b2 7b3f
00000040: b34d 873f 5183 943f e34b 5b3f 41ed 5c3f
00000050: 802c 7a3f c7d7 8a3f 0d3a 653f 2e3b 633f
1.0382081 0.8578383 0.95565325 0.8713783 1.2138383 0.8428163 0.98585486 1.0957124
0.8873069 0.9212466 0.9454563 1.0744541 0.9343101 1.0085615 0.88205373 0.983186
1.0570587 1.1602575 0.8566267 0.8629952 0.9772415 1.08471 0.89541703 0.88762176

layers.1.bn2.bias f4 [24]
00000000: 0b85 4a3e 060e 36be c29d c7be 50df e9bd
00000010: 2fd3 4b3e 5d35 a0bc 01d4 b53e 7e2b b0bd
00000020: 6de3 fe3c 9aad 9e3e c6d7 113e c068 833d
00000030: 91b6 1abe 13f1 343e 5c3b 013f 999a e8bb
00000040: 8fe3 263f 5e63 fc3e 5071 1d3f fff9 0e3e
00000050: 9385 aa3d e84b 85be 77ab 3c3f c3bf ec3d
0.19777314 -0.17778787 -0.38987547 -0.114195466 0.19904779 -0.019556696 0.3551331 -0.086020455
0.031114304 0.30991822 0.14242467 0.06416464 -0.15108706 0.17670088 0.504812 -0.0070985076
0.65190977 0.4929456 0.61501026 0.13962553 0.083262585 -0.26034474 0.73699135 0.11560013

layers.1.bn2.running_mean f4 [24]
00000000: 1f1b 18bf efd4 be3d ce75 d53d 5735 af3e
00000010: 365a 08bf 0a2c 3c3d 2135 1a3f bcd8 123e
00000020: b582 133f 0964 613f aa29 fc3d 445c 923b
00000030: 78db 32be 51d7 763e 3db2 5d3f 9422 d0be
00000040: da69 3b3f a13a 22bf ab23 873f 8361 263f
00000050: e2c7 0b3f 8a37 553c bd0a a13e 8b3d 863e
-0.59416384 0.093179576 0.1042286 0.34220383 -0.5326265 0.045940436 0.6023732 0.1434049
0.5762132 0.88043267 0.12312634 0.0044665653 -0.17466533 0.24105574 0.86600095 -0.4065138
0.7320839 -0.6337071 1.055776 0.6499254 0.5460187 0.01301373 0.31453505 0.2621883

layers.1.bn2.running_var f4 [24]
00000000: aa46 193f 987f fe3d 1ea6 2a3e 243c 9e3d
00000010: 2519 3d3e 95f2 623e 3c93 423e 9523 103d
00000020: 6d59 823e ffe4 3e3e 2a3a 9d3e 6526 c13d
00000030: a41c b63d e4cb 743e 4afe 9f3e 904c 953e
00000040: 1202 543e 027d 9d3e e13b 523f 031b 7c3e
00000050: f756 e63e cf1a 743d ae18 4b3e d870 0a3e
0.5987345 0.1242668 0.16664931 0.07726315 0.18466623 0.2216285 0.19001478 0.035190184
0.2545885 0.18642043 0.30708438 0.09431151 0.088921815 0.23905903 0.31248695 0.29159975
0.20703915 0.30759436 0.8212262 0.24619679 0.44988224 0.05959588 0.19833633 0.13519609
