Project/Project_files/ckpt/mobilenetv2_19_2_stem/mobilenetv2_19_2_stem_63.pt (torch, 36779 bytes, 52 tensors)

conv1.weight f4 [24, 3, 3, 3]
00000000: d92d 8cbe f656 59be e608 bb3c e463 d3bc
00000010: be63 f4bd ac85 bd3d f64a 08be 50ad 9dbe
00000020: fc70 11be 5ef7 1b3e 4d3e 323e 36e5 d6bd
00000030: d34a 4bbd 8faf a33d 9ee6 78be d6c3 603e
00000040: f17a 5b3d 674f 39be 7111 0b3e ff74 d73e
00000050: 508a df3e c7e6 a43d 257a 8b3e 63c2 683e
00000060: 06bd 3ebe 31c4 ebbd a97c ff3d 66a3 843e
00000070: 34b8 debb cf77 50be 8d07 ed3d b82a a5be
00000080: d472 343d 01f2 283d 8f6c 943e 039e 01be
00000090: 95fa a03d 32b3 6d3e 9512 3ebd 85e2 3bbe
000000a0: 7582 8fbe bf2e 2f3e c974 cabe d9d9 853e
000000b0: 9d39 7fbe f8ff 92bc aba2 d6bd 1607 53bd
000000c0: 706f 4abd 0cd4 f6bc 8b83 313e 61d9 97be
000000d0: db13 893e f272 c73d fd8a debd d172 62be
000000e0: 7e08 1bbe fe4d a7bd ed86 4abd ecbc 63be
000000f0: eade 683e 35fc c53d 7f35 b33e c433 933e
00000100: 66af 7f3e fe35 c2bd 4979 453e 96b3 8ebe
00000110: 0b72 9ebe a89c 433e 5622 cfbd 1a01 babe
00000120: 3ae0 853d 3589 6abd 239b 24bd 2b14 c63d
00000130: 5c40 5abe 5c19 1f3e 7c28 313e ef1f 0bbd
00000140: 9e00 473e 04bc a63e ce68 c13c 93bd e8bd
00000150: 78ef c13e 8847 3bbe 051a 53bd d9c6 bd3c
00000160: 864d fabd 32d5 60be a47c 6ebe f90e db3c
00000170: 24a4 fb3d c754 5abd b172 64be b48c 9c3e
00000180: 33f5 953d 0478 653e 87e6 96bc 38dc fcbc
00000190: 3331 243d 2949 513d 698d 2fbd 1805 a7be
000001a0: dadc 913e 52d1 c4bd 5bae 123e 50b7 463d
000001b0: d410 2d3e 0254 013d 3327 7f3c 26f5 88bd
000001c0: 8d8d 6ebe 2b43 633e 1893 c2be 7813 edbd
000001d0: b8d0 0dbd 5a53 743d ebbb 91be f85a 33be
000001e0: 29dd daba 9170 a9be ec97 593e 57a2 52be
000001f0: ff86 e2bd 6973 083e e675 cabb 644a 843d
00000200: caff 163d bb8b 1a3d c906 a6bd 4558 c53e
00000210: 754b 1c3d 043a 4f3e 2286 8bbd 092a a3be
00000220: e987 c03d 8335 4ebe ad46 a1be 5efd f4bc
00000230: ef58 cabd 2016 273e 3da6 4f3e 7d68 99bd
00000240: 44d4 6d3c f3f6 c93e d530 423e a9e8 63bd
00000250: fdea 4e3e 71fb a73d 9b4e 63be 64b5 173c
00000260: ec41 6cbe a673 a7bc 524c 1bbe f7af 06be
00000270: 656b f1bb 4c84 59bd c813 15be 7af6 4b3e
00000280: ac1b 043e 25ea 4fbd 3acb f4bd aa95 0fbe
00000290: 741d 05be 3268 463e 5ff7 813d 8bf9 d23d
000002a0: 9ca1 4a3e 858c 71bd 7db2 0bbe 7a6a 80be
000002b0: 77a2 1dbe 9bb3 bf3d cb2c a9bd fb25 873c
000002c0: a393 233e 7e54 8c3d 9d9e b83e 82af 8d3e
000002d0: 9a2d 8a3e a4d1 c83d f661 2f3d 17ba 34be
000002e0: cdee 7abe 3658 86be 7e2c 3cbe 4fa5 f2bd
000002f0: d515 adbe ac5a c2bd ee77 cb3c af84 0c3e
00000300: 5de2 83be f306 53bd a556 1cbe d622 d03d
00000310: 5a56 e83d 11fd 5f3c bae4 a1bd aa11 a6be
00000320: 9f0f b4bd 4dc6 c5be e25b 55be bad0 cdbd
00000330: 4044 283e 014a 833e 65d9 3d3e 94ef 7f3d
00000340: 8452 dfbc 1a32 38be ef21 39bd cf4b 7e3d
00000350: f5d7 adbd 99f6 ae3e fc4f cc3e 1f5b 5a3e
00000360: ab29 b2bd d488 3ebe 116f 83be a5e7 1fbe
00000370: 6be1 ae3d 48b6 33bd 0ccf 473e 9e81 7ebc
00000380: ead4 8d3d a871 ee3d 9d6e 00be b17d 0a3e
00000390: 7a60 953c 6306 3c3e c6b9 b53e a689 47be
000003a0: 11ed 14bd 8cb7 d53e 9d76 863e 11b5 a5be
000003b0: edee efbd 7298 b23e a659 8f3c 378e 0bbd
000003c0: 6fa1 d7bc 2a84 77be 5202 443d 147e a9bd
000003d0: e7e6 d9be 79d5 27be 1330 583e 6aee 2dbe
000003e0: 264e 8e3e 697f 3dbd 11f4 b93e 9286 0e3e
000003f0: e2ce 173e 969f 1d3e a228 0a3e 94ae 4b3e
-0.2737873 -0.21224579 0.022831392 -0.025804467 -0.11933087 0.092540115 -0.13309845 -0.3079629
-0.14203256 0.15231082 0.17406578 -0.10492937 -0.049631905 0.079924695 -0.24306723 0.21949705
0.053584043 -0.18096696 0.13580872 0.42081448 0.43660212 0.0805183 0.27241626 0.22730403
-0.18626794 -0.1151203 0.12474949 0.25905913 -0.006796861 -0.20358203 0.11573706 -0.32259154
0.04405482 0.041246418 0.28989074 -0.12657933 0.07860295 0.23212889 -0.04640444 -0.18348129
-0.28029218 0.17107676 -0.39542225 0.26142767 -0.24924321 -0.017944321 -0.10480245 -0.05152043
-0.04942268 -0.030130409 0.17335336 -0.29658034 0.2677296 0.09738721 -0.10866354 -0.22114111
-0.15139958 -0.08169173 -0.04944508 -0.22240037 0.22741285 0.09667245 0.35001752 0.28750432
0.24969253 -0.094829544 0.19284548 -0.27871388 -0.30946383 0.19102728 -0.10113971 -0.36328965
0.065369084 -0.057259757 -0.040187012 0.096718155 -0.21313614 0.15537018 0.173006 -0.033966
0.19433829 0.3256532 0.023609545 -0.113642834 0.37878013 -0.18289006 -0.051538486 0.023166107
-0.12221818 -0.21956328 -0.23289734 0.026740538 0.12287167 -0.053303506 -0.22309376 0.30576098
0.07322159 0.22409064 -0.01842047 -0.030866727 0.040085983 0.05109516 -0.04285947 -0.32621074
0.2848881 -0.09610237 0.14324324 0.048514664 0.1690095 0.031574257 0.015573311 -0.06687383
-0.23296185 0.22193591 -0.3800285 -0.11575979 -0.034622878 0.059649803 -0.28463683 -0.1751517
-0.0016697991 -0.33093694 0.2124936 -0.2056974 -0.11060905 0.13325275 -0.0061786054 0.064595014
0.036865033 0.037730914 -0.08106763 0.38543907 0.0381579 0.20236975 -0.06812693 -0.31868008
0.09400923 -0.201376 -0.31499234 -0.029905971 -0.09880244 0.16317034 0.20278259 -0.07490633
0.01451594 0.3944622 0.1896394 -0.055641804 0.20206828 0.082022555 -0.22197954 0.0092595555
-0.23072022 -0.020440888 -0.15165833 -0.13153063 -0.0073675388 -0.053104684 -0.14558327 0.19918242
0.12901181 -0.050760407 -0.11952825 -0.14021936 -0.12999517 0.19375685 0.063460104 0.10301503
0.19788212 -0.0589719 -0.13642307 -0.25081235 -0.15394007 0.09360429 -0.08260497 0.016497603
0.15974288 0.06852053 0.36058512 0.27672964 0.26987916 0.09805611 0.042818032 -0.17649113
-0.24505158 -0.26239175 -0.18376347 -0.11847936 -0.3380572 -0.094899505 0.02483746 0.1372249
-0.2575864 -0.0515203 -0.15267427 0.101628944 0.11344595 0.013671176 -0.07904954 -0.32435352
-0.08792042 -0.38627854 -0.20835832 -0.10049577 0.16432285 0.25642398 0.1853996 0.06248434
-0.027261026 -0.17987862 -0.045198377 0.062084015 -0.08488456 0.34172514 0.39904773 0.21323822
-0.08699354 -0.18606883 -0.25670674 -0.15615709 0.08539089 -0.04387501 0.19512576 -0.015533833
0.06925376 0.11642772 -0.12542196 0.1352451 0.01823448 0.18361811 0.35493296 -0.19486102
-0.036358897 0.41741598 0.2626237 -0.32364705 -0.11715493 0.34881932 0.017498802 -0.034071174
-0.026322095 -0.2417151 0.047853775 -0.082760006 -0.42558977 -0.16390027 0.21112089 -0.16985479
0.27793998 -0.046264086 0.3631902 0.13918522 0.14825013 0.15392908 0.13492063 0.19890815

bn1.weight f4 [24]
00000000: aa62 663f ad35 763f 2a62 803f 603e 953f
00000010: 4944 7a3f cafc 8d3f fcbf 813f 06be 843f
00000020: 9d6a 903f f644 803f 0790 713f a611 5e3f
00000030: db13 9c3f 3283 5c3f a1cb 8f3f 8bfd 593f
00000040: 5603 383f 3e25 923f 4086 6d3f c6d8 2c3f
00000050: 2fe7 613f 6518 a53f 3b51 903f 908c 9b3f
0.899943 0.9617565 1.0029957 1.165966 0.97760445 1.109277 1.0136714 1.037049
1.1282536 1.0021045 0.94360393 0.8674568 1.219356 0.8613769 1.1234018 0.851525
0.7188009 1.1417615 0.92782974 0.6751827 0.88243383 1.289807 1.127479 1.2152271

bn1.bias f4 [24]
00000000: e281 403e 0ccd 03be 8f0c aebd fc91 d2bd
00000010: 06db 5abd 6da3 bbbd e321 163e f848 5abd
00000020: 7906 e73d 8e47 2a3c fc42 93bd 45a4 9abc
00000030: f128 133e dbcf c53c c5dc 043e ccfd 043e
00000040: 2155 7abe b111 4a3b d7c2 24be 85ac 7fbd
00000050: 454c 703c 56b6 fa3d 1c53 80bd 004f 94bd
0.18799546 -0.12871188 -0.08498489 -0.102817506 -0.053431533 -0.0916203 0.14661364 -0.053292245
0.112805314 0.0103930365 -0.07190511 -0.018877158 0.14371087 0.024146965 0.12974842 0.12987441
-0.24446537 0.0030833299 -0.1608995 -0.062420387 0.014666622 0.12241809 -0.06265852 -0.072416306

bn1.running_mean f4 [24]
00000000: 4377 1d3c d8b9 833b 922f 91bb 4016 aabb
00000010: 0c7d cd3b 32c8 8f3b 89af 793b c860 84bc
00000020: 9c97 30bb 2d97 013a ce5b 98bb 7bfc 82bb
00000030: 9b21 1d3b 71ef f8bb c8a7 a9bb 4e3b 0d3b
00000040: b8d7 9c3b bab7 b6ba bfd8 b6bb 62dc 52bc
00000050: f7f6 233b e8c0 87bb ae99 77bb 745c b5bb
0.009610954 0.004019957 -0.0044307197 -0.0051906407 0.0062710103 0.004387879 0.0038099012 -0.01615943
-0.0026945835 0.00049434864 -0.004649616 -0.003997383 0.002397633 -0.007596903 -0.005177472 0.002155024
0.004786458 -0.0013940253 -0.0055800374 -0.012869926 0.0025019029 -0.0041428693 -0.003778081 -0.005534703

bn1.running_var f4 [24]
00000000: a96e cd3f 5595 893e 7e24 f93e df09 3f3e
00000010: 225c 3c3f 08f0 933e 26d8 063f 726d 873f
00000020: 93f7 ed3e 2e4e d63e dfd6 1c3f 0e4e 733f
00000030: eb8a 9f3e a7bb 873e a30f 9c3f f575 623f
00000040: 9a77 393f a341 a63e 3556 773e 3c11 1c3f
00000050: 11fe af3e 021b 9c3e 1377 013f 72ca 8d3e
1.6049396 0.26871744 0.48660654 0.1865611 0.73578084 0.28894067 0.52673566 1.0580275
0.46477947 0.4185652 0.6126537 0.95040977 0.31160673 0.26510355 1.2192272 0.8846124
0.7244812 0.32471952 0.24153979 0.609638 0.34373525 0.30489355 0.5057232 0.27693516

layers.0.conv1.weight f4 [24, 24, 1, 1]
00000000: b9cf 68bd 8c8b f83c 190b c6be 2792 1d3e
00000010: 491c 843e b832 1ebe 7e96 5dbe 6e68 55be
00000020: a4b6 4dbe 2d03 32be 8f4c 18be a810 90be
00000030: ec36 51be bb21 f03c 9f57 dd3d 72c4 1c3e
00000040: e085 3abc 6498 c63c 2bd4 c03d 9c82 aebd
00000050: f7c0 bc3d 6b53 803e 8575 adbe 6fb6 503e
00000060: 326d f7bd f0f3 0cbe 58da aabe ebc7 81bd
00000070: f079 1fbe eca4 513e 1617 d13e d397 fbbd
00000080: 21fa 443e cbc3 31bc f8b4 ccbd 3863 823c
00000090: 5384 f93c 5cc1 e93c 2a19 a33e 33a9 1cbd
000000a0: f6f9 b1bd 3836 883e c231 a1bd bc8d 4a3e
000000b0: b13d 0ebb 17d2 8c3e b08d ecbd 1b0f 6ebe
000000c0: 63be cf3d 51fb 1a3e ae7c 39be 54bb 4c3e
000000d0: c193 463e 360d acbc d114 d0bd 1456 8fbe
000000e0: d6d9 f8be 748e d33c 370e febe 310f 4ebd
000000f0: 3b23 2e3d 1a0b bebe e676 2dbe e141 63bc
00000100: 4fa9 bfbd 5982 3c3e f0d4 543e 9042 e1bd
00000110: af39 11be ba03 4fbe c18a 4bbd f5b4 6d3d
00000120: a0ea 82be 0582 c23e 0940 b5bb bb7b 8a3e
00000130: f346 683e b8a9 6e3d 6b4d e1bc efad cd3d
00000140: d54a 9fbe 9c26 7a3e ab54 97bd f096 723e
00000150: ce01 9cbe d2f2 f7bd 30b7 8f3d 7e54 3a3c
00000160: a339 813d 63b2 673e 2eac 9e3e d460 5f3e
00000170: 553a babd 6a66 51be 3603 963a f958 9a3d
00000180: 1685 67bd 93b1 c6bd f3e7 24be 67dd 163e
00000190: 9ec7 af3d ad40 c3be bbde c33d b9ec cb3d
000001a0: 88eb 8abc 1579 a1be c682 5f3e d60d 35be
000001b0: d982 9dbd 6160 92be 2b13 40be 22fe 06be
000001c0: cf0a 003e 8e13 e4bd 1f23 dd3e 9c5d bb3d
000001d0: 8d9e ccbd 16b4 bb3b c959 3bbe dfb2 813d
000001e0: 4913 873d c6be 1cbe 87d9 2fbe a862 c8be
000001f0: 7924 37be d7b6 273e 1570 56bd 733e 083e
00000200: 7907 30be 6a60 19be c581 273d 6c48 913e
00000210: 98c5 a03e 3805 f9ba b08e 05be 8421 893e
00000220: d94f 073d faad 6f3e 03e9 193d 7bec 49bd
00000230: ecdb db3d c2a1 ce3e 2454 1dbe 18bd a3be
00000240: dba0 b83d bedb 1bbe 4fd4 a9be b217 79be
00000250: df7d 83bc 5f81 a1be 7dbd 4cbe 7c5e bdbe
00000260: 73d1 823e 2924 10be fc6f 26be 9d78 af3d
00000270: 5aaf dc3c 55d4 b7bd 37b4 8a3c 02b6 58bd
00000280: 13a6 c03e ded9 70be cbc9 973d 7917 9bbe
00000290: cd63 9d3e afb4 163d f020 58bc 54fb 2f3d
000002a0: 67ab cbbe d557 2a3e 48f1 a9be e3ea ae3e
000002b0: 3bf8 27be 6090 50bd 405a 913e 68c5 a63d
000002c0: cdeb e1bd bb68 36be 50b5 cd3d 6e2b 89bd
000002d0: eb8b d83c 7313 203e f1e2 ec3d d80f 17be
000002e0: 201a c23e 75ae d1bd 57f2 c9bc 206c bcbc
000002f0: bfd1 d53d d9e0 6d3e 72ec 073e 0572 b03c
00000300: bc4b f83d fa4d a3bb 50a4 76bd 9145 a4be
00000310: 3f44 df3c afda 1f3e 5d12 9fbe c30f 5fbd
00000320: 927c af3d d29a 29be ef7c e7bd e9b3 c1be
00000330: 7f3a 88be 355e 8b3e 8909 5f3d 2c02 5a3e
00000340: 4533 5abe a73d 713c 1ea5 34be 4307 27be
00000350: 48a0 e2bd 5fb0 563e b94c 8abe 04a7 c93c
00000360: 268b 833c 3a8a 1d3e 4489 a23e bd77 073d
00000370: 1ec3 08be e653 ce3d 48e9 0abe 1e34 8e3e
00000380: 160a 20be b14e 88be 23e7 213e fa6d 1ebe
00000390: 8d39 7dbe 1f2a 2c3e 07a4 293d 650a 973e
000003a0: d96c 783c daf1 8c3d b4d7 c03d 5fe5 8c3d
000003b0: bd4c 8bbe 775d ab3d ad2b ac3d 65b8 d3be
000003c0: 839a ab3d f7fa b0be 046c 613d 9c40 09be
000003d0: f6e6 af3d 3a26 94bd 7420 73bd b9a4 9f3d
000003e0: 47c9 bd3c 6590 abbd f272 e9bd 800c c1bd
000003f0: 6460 c0be 39db 2fbd 9acd 02be 0448 c7be
-0.056838725 0.030339979 -0.38680342 0.15387784 0.2580283 -0.15449035 -0.2163944 -0.20840618
-0.20089203 -0.17384024 -0.14872955 -0.28137708 -0.20431107 0.029312959 0.10807728 0.15309313
-0.011384457 0.024242587 0.09415468 -0.085210055 0.092164926 0.25063643 -0.33878723 0.20382093
-0.12081374 -0.1376493 -0.33369708 -0.063369595 -0.15573859 0.20473069 0.40837926 -0.122848175
0.19236042 -0.010849903 -0.099954545 0.015916452 0.030458605 0.028534584 0.31855136 -0.0382473
-0.086902544 0.26603866 -0.07870819 0.1978063 -0.0021704251 0.27504036 -0.11550462 -0.2324795
0.10143735 0.15134932 -0.18113968 0.19993335 0.19392301 -0.021002393 -0.101602204 -0.2799536
-0.48603696 0.025824763 -0.4962022 -0.050307456 0.042514067 -0.37117845 -0.16939887 -0.013870687
-0.09358465 0.18409099 0.20784354 -0.10999024 -0.14182161 -0.20216265 -0.049692873 0.058033902
-0.2556963 0.37989822 -0.005531315 0.27047524 0.22683315 0.058267325 -0.027502736 0.10042941
-0.3111178 0.24428791 -0.07389196 0.2369039 -0.30470127 -0.12106861 0.07017362 0.011372684
0.063098215 0.22626643 0.30990738 0.21814281 -0.09093157 -0.20449224 0.0011445049 0.075365014
-0.056523405 -0.09701838 -0.16104107 0.14732896 0.08582996 -0.3813528 0.09563967 0.09957261
-0.016958013 -0.3153769 0.2182723 -0.17681059 -0.07690973 -0.28589156 -0.18757312 -0.13182881
0.12504123 -0.11136542 0.43190858 0.09148714 -0.09991179 0.005728255 -0.18295969 0.06332945
0.06595475 -0.1530715 -0.17172824 -0.3913777 -0.17885007 0.16378342 -0.052352984 0.13305072
-0.1719035 -0.14978185 0.040895242 0.28375566 0.31400752 -0.0018998748 -0.13042712 0.26783383
0.033035133 0.2340621 0.037575733 -0.04929779 0.10735306 0.40357786 -0.15364128 -0.31980205
0.09015056 -0.15220544 -0.3316979 -0.24325445 -0.016051231 -0.31544015 -0.19994159 -0.36986148
0.25550422 -0.14076294 -0.16253656 0.08567927 0.026939083 -0.08976046 0.016931636 -0.05290795
0.37626705 -0.2352061 0.07411536 -0.30291346 0.30740204 0.036793407 -0.013191447 0.042964295
-0.39779207 0.16635068 -0.33191895 0.3416358 -0.16403286 -0.050918937 0.28389168 0.08143121
-0.110313036 -0.17813389 0.10044348 -0.06697737 0.026433906 0.1563242 0.11566723 -0.14752138
0.37910557 -0.10238353 -0.02465169 -0.023000777 0.104403965 0.23230304 0.1327379 0.021538744
0.1212382 -0.0049836608 -0.060215294 -0.32084325 0.027254222 0.15610765 -0.31068698 -0.05445839
0.08568682 -0.16562966 -0.11303126 -0.37832573 -0.2660713 0.27220312 0.054452453 0.21289891
-0.2130862 0.014724172 -0.17641112 -0.16311364 -0.110657275 0.20965718 -0.2701166 0.024615772
0.016057562 0.1538476 0.3174535 0.033073176 -0.13355681 0.10074596 -0.13565552 0.27774137
-0.15628847 -0.26622537 0.15810828 -0.1547164 -0.24728985 0.16812943 0.041416194 0.29500118
0.01516267 0.06882067 0.09416142 0.068796866 -0.27206984 0.083674364 0.08406768 -0.4135162
0.0837908 -0.3456647 0.055034652 -0.13403553 0.08588974 -0.07233854 -0.05935712 0.0779509
0.023167266 -0.083771504 -0.11398877 -0.09426212 -0.3757354 -0.042933676 -0.12773743 -0.3892213

layers.0.bn1.weight f4 [24]
00000000: e8c8 3b3f efb9 213f 8a75 ab3e b5b8 0c3f
00000010: 2d05 763f 32f2 803f 3676 fa3e 8eda 323f
00000020: 0831 663f 07d3 103f 8d25 ae3e de95 563f
00000030: 8583 783e be9c b73f 6b49 773f 7a38 3f3f
00000040: b6b5 5a3f 6fc3 f73e aac2 863f 8784 eb3e
00000050: 3089 ce3f f538 873f e25d 7e3f 94fc f63e
0.73353434 0.6317434 0.33488113 0.5496934 0.9610165 1.0073912 0.48918313 0.6986474
0.89918566 0.56572 0.34013024 0.8382243 0.2426892 1.4344709 0.965964 0.7469555
0.8543352 0.48391291 1.0528157 0.45999548 1.6135616 1.0564257 0.99362004 0.48239577

layers.0.bn1.bias f4 [24]
00000000: d859 a4be f94b ca3e dbe5 023f 9607 f33e
00000010: 0fb6 b9be 21a7 f8bd b52c d53e a21b a53e
00000020: df8e 303e 1220 193f dfa1 1b3f aa82 9cbe
00000030: 27e6 453f a24c 863d 617c 8b3c 8a1a 8cbe
00000040: 3b55 f3bd cefa e83e de41 8abd c99b e73e
00000050: eed3 d9be 35fa cfbc 2d46 7cbc f30d eb3e
-0.32099795 0.39511088 0.5113198 0.47466725 -0.36271712 -0.12141252 0.4163567 0.32247645
0.17242001 0.5981456 0.6079387 -0.3056844 0.7730431 0.06557585 0.017027082 -0.27363998
-0.11881491 0.4550385 -0.067508444 0.45236042 -0.42544502 -0.025387863 -0.015397591 0.4590908

layers.0.bn1.running_mean f4 [24]
00000000: 172d fc3b 3b42 6f3e 11c6 bbbd d5ff a7be
00000010: 52b6 0abe 74a5 313e 271a 853d c4c4 0bbe
00000020: d65e 223e 6485 bcbd 0a3b e3bd ad9b 31bd
00000030: 956c 16be 0889 6b3c 4721 afbd 91c3 fbbd
00000040: 06f6 acbd 8cb0 e4bb d652 79bd ff61 d7bd
00000050: 5e4a 0d3e 7768 4a3b 830f 913d 0d39 483e
0.007695805 0.23365109 -0.091686375 -0.32812372 -0.13546112 0.17348272 0.06499129 -0.13649279
0.1585649 -0.0920513 -0.11095245 -0.043361355 -0.14689858 0.0143759325 -0.08551269 -0.12293161
-0.08445363 -0.006979054 -0.060870014 -0.10516738 0.137979 0.003088502 0.07083037 0.19553013

layers.0.bn1.running_var f4 [24]
00000000: 57d9 c63f c2db af3f 97ab e83f 93ab 3b3f
00000010: 5692 7b3f 4a27 4240 c292 923f 297b 7c3f
00000020: 85d6 833f 2ad4 4f3f 5074 963f f140 c83f
00000030: 517d 0240 bf4f cb3f 7494 6e40 4234 3040
00000040: 275e be3f c227 c73f b188 5b40 a99d 9e3f
00000050: f017 0140 f401 873f 6c29 2c3f ed2e 663f
1.5535077 1.373894 1.8177365 0.73308676 0.98270166 3.033648 1.1451037 0.9862543
1.0299841 0.8118311 1.1754246 1.5644819 2.0388987 1.5883712 3.7278109 2.7531896
1.4872483 1.5559008 3.430218 1.2391864 2.017086 1.0547471 0.67250705 0.89915353

layers.0.conv2.weight f4 [24, 1, 3, 3]
00000000: 7674 303e 0bc4 8a3e cd33 c33d 99dc 483e
00000010: d48a 22be 13c6 d63e 3a9a 3a3e aa96 853c
00000020: 2636 0abc 258c 9abe 7c6e 8bbe 9b41 da3d
00000030: c2aa 8dbc 5ec5 14be bd6a 2fbe c5e8 9a3e
00000040: 1159 aa3e 5520 87bc 1e59 8b3e 85c3 93bc
00000050: 7473 9bbe 7489 dcbb 425f 413e 603e 57be
00000060: 90b2 9a3d 6962 88be 89fd 373e c053 0c3d
00000070: de8f 453e a7c8 59be ac85 343e b734 1cbf
00000080: a2a1 723e 477f f4bd d230 023e 1238 113e
00000090: f3f5 8d3e 5f6c c03e 5b89 ecbd 5f29 04be
000000a0: b078 663d 89f0 e73e 0d98 083d af0a d13d
000000b0: 5935 4f3e 7ec7 343d 3e70 96bd 9f28 a4bc
000000c0: 87b4 d4be 776a f2be 4a63 97be 9c1b 1bbd
000000d0: 6500 f2be 21f0 e4be 9ab8 803d d244 49be
000000e0: 8ab5 9ebc 0235 31bd 9817 c83e 660f 973e
000000f0: 6662 a6bc 3c85 bfbe efbe 84be c52b a2be
00000100: d9be 04be d4e3 713e 3e84 88be fa76 b33d
00000110: 714c 483e df5a cebe 1777 073e 569f 823e
00000120: 90eb 7e3e 3a9e 8b3c 3fa5 8bbe 0762 6d3d
00000130: 3586 92bc b62d bbbd 2e62 6bbe bcc2 dabe
00000140: 5c45 f6be 7de3 b4bd aecb c0be 18b9 e9be
00000150: e0e0 0f3d 1695 b33e 8596 063f dc47 fd3c
00000160: 6943 0d3d a193 08bd 705c d83d 6805 6bbe
00000170: a60f 233e 43b2 693e 41cb 05bf 33a0 ba3e
00000180: 23da 04be b62f 08be 9a02 883e b2d9 693e
00000190: 0219 d4be 6c84 7ebe 9e24 90be 29af 13bc
000001a0: d602 d43e aac3 653e 11ac e23b 9fe9 0f3e
000001b0: 84e9 56be 00c4 4c3e 9be3 1a3d 7eec 7dbe
000001c0: 62fb 643e 8fb1 e9bd d94d 3fbe ac6b ad3e
000001d0: e19f 8ebd debc 93be 96bd b53c afe5 fc3c
000001e0: 659e bbbe 9845 b33c 3bb0 893e 406c 1fbe
000001f0: dfd0 43be 6d0e ca3e 8495 df3e 5463 38bd
00000200: abb4 293b a4f7 0f3e bdf7 083f 5c3b 103d
00000210: 4072 153e 1029 f93e 15dc c23c 03c0 3f3e
00000220: 4aca 883e d8d9 983d 17ac ac3e 4c9d 773e
00000230: 56fa cb3d f153 a4bd cf68 ee3e b559 0e3e
00000240: c6a6 90be 49ef 143e 7557 8b3e 8ceb 3dbe
00000250: 8043 24be f8f6 a93d d1d1 adbe c6eb 14bf
00000260: 525b 9dbe 3380 1f3d 36f1 013e 164e 543d
00000270: 6f31 883e 87e2 ad3e bde0 c3be d466 613e
00000280: 1884 a7be 5cdd 15be 34fe 9fbd 3f77 90be
00000290: 6177 71bd 1af0 18be 5669 3fbd 2067 97bd
000002a0: 6fb8 e2bd bb84 aabe f005 cdbe 86d8 45be
000002b0: 8604 bfbe 692a d5be 7303 49bc e4ef debc
000002c0: 1997 8b3e 3122 903d fbf3 b5bd f152 f53e
000002d0: 4561 8a3c e6a7 5ebd 4faf 8abe 961b 303e
000002e0: b457 bf3e 5006 f53d 7b1f 803e 9e99 853e
000002f0: 0b74 613e 0166 56be d9a8 b03e a326 2cbe
00000300: b3b5 0c3d 965d 763e acdb b63d fc82 2e3e
00000310: 8622 c03e 888c 613e 48da 0dbe 6c4f b83e
00000320: 70e0 56be de39 9abe d76c 6d3e 308e 923e
00000330: e8a2 98be fb23 50be 3f6b 8f3e 5122 dfbd
00000340: 2b90 9abe 6886 d8bd 4c41 99be e70e 463d
00000350: 4690 9d3e 8b38 4e3e 6d01 903e d84d 3f3e
0.17231926 0.27102694 0.095313646 0.19615401 -0.15873271 0.41947994 0.18222895 0.016307194
-0.008435762 -0.30185047 -0.2723273 0.106570445 -0.017293338 -0.14528415 -0.17130561 0.30255714
0.33271077 -0.01649491 0.2721643 -0.018037567 -0.3036152 -0.006730253 0.18883994 -0.21019888
0.07553589 -0.2663758 0.1796781 0.034259558 0.19293162 -0.21267949 0.17629117 -0.61017936
0.2369447 -0.11938339 0.12713936 0.14181545 0.27726707 0.3758268 -0.11549636 -0.12906407
0.05626744 0.453007 0.033348132 0.10207116 0.20235194 0.044135563 -0.07345627 -0.0200389
-0.4154398 -0.4734685 -0.2956794 -0.037868127 -0.47265926 -0.44714454 0.0628521 -0.19655159
-0.019373674 -0.043263443 0.390805 0.29503936 -0.020310592 -0.37406337 -0.2592692 -0.31674019
-0.12963428 0.23622066 -0.26663393 0.08762927 0.1956041 -0.40303704 0.13229023 0.2551219
0.24894547 0.017043222 -0.2727451 0.057954814 -0.01788626 -0.09139578 -0.22986671 -0.42726696
-0.48099792 -0.088324524 -0.37655395 -0.45649028 0.035126567 0.3507468 0.52573425 0.030918054
0.034488115 -0.033343915 0.10564506 -0.22951281 0.15923938 0.22821908 -0.52263266 0.36450347
-0.12973838 -0.1329945 0.26564485 0.2283695 -0.4142533 -0.24855202 -0.28152937 -0.009013929
0.41408414 0.22437921 0.0069174846 0.14053963 -0.20987517 0.19996643 0.037814718 -0.24797246
0.2236152 -0.1141082 -0.1868204 0.3387121 -0.06964088 -0.28855032 0.022185128 0.03087124
-0.36644283 0.02188377 0.26892266 -0.15568638 -0.19122647 0.3946413 0.4366876 -0.0450166
0.002589504 0.14059311 0.5350302 0.03521286 0.14594364 0.4866414 0.023786584 0.1872559
0.26716834 0.074634254 0.33725044 0.24181098 0.09959857 -0.08023823 0.46564338 0.13901408
-0.28252238 0.14544405 0.27215162 -0.18546885 -0.16041374 0.08299059 -0.3394914 -0.5817226
-0.30733734 0.03894062 0.12689671 0.05183228 0.26600215 0.3396189 -0.382574 0.22011882
-0.32717967 -0.14635223 -0.07812157 -0.28215978 -0.05895174 -0.14935341 -0.046731316 -0.073927164
-0.11070334 -0.3330439 -0.40043592 -0.19320878 -0.3730814 -0.4163392 -0.012268889 -0.027213998
0.27263716 0.070377715 -0.08884426 0.47914842 0.016892085 -0.05435934 -0.27086875 0.17198023
0.373716 0.11964095 0.25024018 0.26093763 0.22016923 -0.20937349 0.3450382 -0.16811614
0.03435297 0.24059138 0.08928618 0.17042154 0.3752634 0.22026265 -0.13852799 0.35998094
-0.20984054 -0.30122274 0.2318605 0.28624105 -0.29811788 -0.20326225 0.2801151 -0.10895217
-0.30188116 -0.10572511 -0.2993263 0.048354056 0.30774134 0.20138757 0.28126088 0.18682039

layers.0.bn2.weight f4 [24]
00000000: 376d 533f e842 763f aa0c 863f 72d9 8c3f
00000010: 9c1b 8c3f 2fe3 a23f ea5f 9f3f 119b 9e3f
00000020: 272e 6a3f ccc5 983f a09d b03f 2310 863f
00000030: 9e15 af3f 28a3 a83f 5403 713f 9e95 513f
00000040: c581 893f 68a9 843f 1060 8f3f fb0f 503f
00000050: e790 723f 89ec 363f 1e10 993f 971a 873f
0.82588524 0.9619584 1.0472615 1.1003859 1.0945926 1.2725581 1.2451146 1.2391073
0.9147667 1.1935363 1.3798103 1.0473675 1.3678472 1.3174791 0.94145703 0.8186892
1.0742728 1.0364199 1.1201191 0.81274384 0.94752353 0.71454674 1.1958044 1.055499

layers.0.bn2.bias f4 [24]
00000000: 9c18 b53e e6c9 683d ace5 e8bd 07b9 82be
00000010: 4e88 903e 5ceb 043e 6e10 d2bd c191 cfbd
00000020: a5a5 13be 4cfc a43d b4b8 94bd 6481 073c
00000030: 0f86 2a3e 03fa 4fbe 1ab8 fb3e 3737 e23e
00000040: a150 483e 4b69 4bbd c1dc ab3e fb1e 763e
00000050: c431 d23e 8f45 e23e c504 fcbd 37c6 b43d
0.35370338 0.05683317 -0.113719314 -0.2553179 0.28228992 0.12980407 -0.1025704 -0.10135222
-0.14418657 0.08055934 -0.07261792 0.008270595 0.16652702 -0.20310216 0.49163896 0.4418275
0.19562007 -0.049660962 0.3356686 0.24035256 0.41053593 0.44193694 -0.12305597 0.08826869

layers.0.bn2.running_mean f4 [24]
00000000: edeb 183e eceb a3bd bfc7 74bd 3988 c6bc
00000010: 193a 7e3e 7f5a 04bf b272 93bd d1f9 6fbd
00000020: 2505 04bf b57c 903d 7f95 833d 4c86 ae3c
00000030: b669 e1ba 2443 01be 5025 023f 18bf 6c3e
00000040: 01a7 a7be 3ba7 8e3d f43d d2be de3e e1bd
00000050: 05d1 ca3e 28ff c83e e5aa 8b3c ba85 0c3e
0.14933749 -0.08003983 -0.059760805 -0.024234878 0.2482685 -0.51700586 -0.07199611 -0.058587853
-0.5157035 0.07055036 0.064249985 0.021304272 -0.0017197642 -0.12623268 0.50838184 0.23119771
-0.327446 0.069654904 -0.4106289 -0.10998319 0.39612594 0.3925717 0.017049262 0.13722888

layers.0.bn2.running_var f4 [24]
00000000: 1d1d ac3d aa1e 253d 3134 4a3c f9f8 783d
00000010: 2313 573e 7588 273f be59 b83d cced d73d
00000020: 1d24 b23e c4a1 8f3e c741 c03d 89ee 8f3d
00000030: 4a16 4a3d ab41 183e 254c 233f 9c9e 2a3e
00000040: ea40 8d3e f789 7b3d 7b86 bd3e 6068 613d
00000050: 9684 4c3f 17f8 c53e 2ec1 b23d d2e7 013e
0.084039904 0.040312447 0.012341545 0.060784314 0.21003394 0.6544259 0.09001492 0.10543403
0.34793177 0.28053105 0.09387546 0.07027919 0.049337663 0.148688 0.6378806 0.16662067
0.27588588 0.06141087 0.37016663 0.05503118 0.7988981 0.3866584 0.08728252 0.12686089

layers.0.conv3.weight f4 [12, 24, 1, 1]
00000000: fed4 abbd d059 213e 1c55 39bc cd6d 2e3e
00000010: 6604 4bbd 6211 213e b366 753e c0e3 9fbe
00000020: 6e33 42be a94e 5f3e 3807 4abd 6d02 b03d
00000030: 886c 22bd ee07 b7be b908 01be b48c babe
00000040: 6797 c0be eb7a 96be 3846 053e f338 cd3d
00000050: 0b3d 54bd 0d2c dcbd 8489 213e cf6b a13e
00000060: 7b42 5eba fe76 ffbd 03d7 acbe ca5c 51be
00000070: 1706 053d b07f 2e3c 85dc b73d f259 583e
00000080: c9a3 b33c e3fc 103e 4925 a03e 5f03 c63e
00000090: 4a66 af3e 8517 263d 5eb9 29be 721e bcbe
000000a0: 6178 9b3d b632 0a3e daeb 773d 9dcf fe3d
000000b0: c518 79be 1ab8 0a3e ca5e f73c aa22 493e
000000c0: 6705 5a3e 3f6b 393e 0173 2dbe 8275 50be
000000d0: c929 9dbe a138 c23d b770 c43e b888 2bbd
000000e0: 7e74 debd 1115 ab3e 68f8 743e 598c bdbd
000000f0: c317 803e 6df9 9a3d 1e82 803e 3bca 563e
00000100: a701 e3bd a220 83be 9550 88be 7bab 0abd
00000110: 3ed7 e93d ab39 0bbe d7cd 35bd 192e 0e3d
00000120: ccad 1fbd 7129 17be c37b 99bd 2b1f 26be
00000130: cde8 fc3d c177 f73d 02d6 893e e04b f63c
00000140: c1fe 743d c697 f23d 3b69 be3e 1c3d 61be
00000150: 3ae5 ad3e f9f8 35be 550e b3be 1695 59bd
00000160: 6a0c 493e e321 4bbd d048 c23e bda8 313e
00000170: 8245 a43e 0432 fe3d 0592 283e 806f f73d
00000180: 239b a53c aaa5 02be 81db 8ebd d3b7 41be
00000190: 17aa 5e3e 1300 c53d eff3 ddbd acbd 903e
000001a0: ddcd 0a3d 3461 5abe 8095 253e 2382 4b3e
000001b0: ce80 023e deab 193e 65f3 d03e af24 323e
000001c0: 14cf 8dbd c585 163b 8418 3fbe 7abe 39be
000001d0: 134f afbe 641a 3abd 6c77 513e 4430 ac3e
000001e0: fac9 85be 2810 f53c c704 98bd bce3 1b3d
000001f0: b13a c8bd 01a6 863c e16a 94be 4ee3 4dbd
00000200: ee99 9c3e c6d2 34be 4338 1d3e 0fc0 063a
00000210: b49d 373e 6ca9 753e 154a b73d dfa9 223e
00000220: 3982 9f3d 1082 f63c 1115 a73d b9a3 9e3e
00000230: fe26 88bd 63ab febe f3b7 8e3e e2bd 92be
00000240: a89b 40bd 3a1f 613e 6ddb 8a3d 5317 963e
00000250: a404 f53d 4cfb 96be beef 8dbd 4cdb 0dbe
00000260: 351d 84b9 f94a 5f3c 4973 bf3e 8197 6ebe
00000270: 0fa1 d33e f919 853e 8417 98be afb4 7dbe
00000280: c231 a2bd 79b4 44be ef5f 4fbe 524a 5bbe
00000290: 367f 0a3c 890d 263d 92e7 353e f2db 973b
000002a0: 6c2c 7c3e fc9e d3bd 2302 02bf 69ff bcbe
000002b0: ac8a 4e3e bfc8 8d3e ca3f 3b3d 4e84 f1bd
000002c0: 0fa4 c43e b27a 7a3d 6045 15be 9444 d4bd
000002d0: 24d5 1bbe cfd0 01bd 4ac3 323d 53b4 60bd
000002e0: ccdd 3e3e 11ea 9dbe 8a49 02bd 9c21 99bd
000002f0: bdf0 423d ea3b 26bc da64 cebe 44c9 b8bd
00000300: 1ec0 173e 42bb 20be 45e0 a33e 9752 c13e
00000310: a894 31be 7ee7 ba3d 532f b83d 00ab 3cbd
00000320: ba2f e93d 1296 bebd 3430 33be 671c 92be
00000330: d847 f9bd 62b5 563e 1a63 b3bc 73b9 8bbe
00000340: b706 2e3e 796c 0d3c 4697 63bd 57da 8d3e
00000350: 2690 d3be 5b53 8d3b 0b3c 72be 3611 b63e
00000360: 831b d53c eb00 a03e 6721 733e dbb4 643e
00000370: ae50 91bc 9b2a 203f 9ff4 2a3d 7f8b f5bd
00000380: e8a1 013e 0ee8 683d 19e0 d5be d3e7 7c3e
00000390: a0d7 abbe 2931 c43d f1df 5a3c d97e 2cbd
000003a0: ca31 b53e ac0c 123d b8c1 b43e ba79 fa3d
000003b0: c2a6 273e d22f 563e 3136 403e 1690 123e
000003c0: 2fae 2fbe 8b87 3fbe 0c99 3fbe d03d 11be
000003d0: 12f6 22be 29fc 803e 9bc9 283d f906 55be
000003e0: 242c a3b9 108d bf3b 1ee1 2a3e 7e78 6cbe
000003f0: d271 0a3e 356c 58be 9276 743e 2857 b23d
-0.083902344 0.15756917 -0.011311796 0.17034073 -0.04956474 0.15729287 0.23964958 -0.31228447
-0.18964931 0.2180735 -0.04932329 0.08594213 -0.039654285 -0.35748237 -0.12600984 -0.36435473
-0.3761551 -0.29390654 0.13015068 0.10020628 -0.051816028 -0.107505895 0.15775114 0.31527564
-0.00084785343 -0.12473868 -0.3375779 -0.20445552 0.03247651 0.01065056 0.08977608 0.21128061
0.021928685 0.14158969 0.31278446 0.38674447 0.34257728 0.040549774 -0.16574618 -0.36741978
0.0759132 0.13495907 0.06052766 0.12441943 -0.24325855 0.13546792 0.030196566 0.1964213
0.21291123 0.18107317 -0.16938402 -0.20357326 -0.30695942 0.09483457 0.38367245 -0.041878432
-0.10862063 0.3341451 0.23922884 -0.09255285 0.2501813 0.075671054 0.25099272 0.20975582
-0.110842995 -0.25610834 -0.2662398 -0.033854943 0.11418007 -0.13596217 -0.044385757 0.03471193
-0.038984105 -0.14761902 -0.07494309 -0.16222827 0.12349091 0.12083388 0.26921088 0.030065477
0.059813265 0.11845355 0.3718966 -0.21995968 0.33963948 -0.17770757 -0.34971872 -0.053120695
0.19633642 -0.049592864 0.37946177 0.17349525 0.3208428 0.124118835 0.16461952 0.12081814
0.020215577 -0.12758508 -0.06975461 -0.1891778 0.21744572 0.09619155 -0.10837542 0.28269708
0.033887733 -0.21326143 0.16170311 0.19873862 0.12744448 0.15006968 0.40810695 0.17396806
-0.06924263 0.0022967916 -0.18661696 -0.18139067 -0.34240016 -0.045435324 0.20455712 0.33630574
-0.26130658 0.02991493 -0.07422786 0.03805898 -0.097768195 0.016436579 -0.28987792 -0.050265603
0.3058619 -0.17658529 0.15353493 0.00051403133 0.17931253 0.2399041 0.08949677 0.15885113
0.0778851 0.030091316 0.08158315 0.30984285 -0.06648062 -0.49740133 0.27874717 -0.28660494
-0.047023445 0.21984568 0.067801334 0.2931467 0.11963776 -0.294886 -0.06930493 -0.13853186
-0.00025198763 0.013628715 0.37392643 -0.23299982 0.41333815 0.25996378 -0.2970544 -0.24775957
-0.07919647 -0.1920947 -0.2025144 -0.2141507 0.008453181 0.040540252 0.17764118 0.004634374
0.2462632 -0.10333058 -0.5078451 -0.36913612 0.20170087 0.2769222 0.04571513 -0.11792813
0.38406417 0.061152168 -0.14577246 -0.10364643 -0.15218025 -0.031693276 0.043643273 -0.05485947
0.18639296 -0.3084264 -0.031808414 -0.074771136 0.047592867 -0.010146121 -0.4031132 -0.09022763
0.1481938 -0.15696433 0.32007042 0.37758324 -0.17341864 0.09126185 0.089934014 -0.046061516
0.11386056 -0.093059674 -0.17498857 -0.28537294 -0.12171906 0.2096763 -0.021897841 -0.27289924
0.16994749 0.008631819 -0.055564187 0.27705643 -0.41320914 0.0043129153 -0.23655717 0.35560006
0.026014095 0.312507 0.2374321 0.22334616 -0.017738666 0.6256501 0.041737195 -0.119894974
0.12659419 0.05686193 -0.41772535 0.24697809 -0.33562946 0.09579689 0.013359056 -0.04211316
0.3538955 0.035656616 0.35304046 0.12230249 0.16372207 0.2091668 0.18770672 0.14312777
-0.1715629 -0.1870405 -0.18710726 -0.14183736 -0.15914181 0.25192383 0.04120789 -0.20803441
-0.0003112267 0.0058456734 0.16687438 -0.23092839 0.13519982 -0.21135028 0.23873356 0.0870803

layers.0.bn3.weight f4 [12]
00000000: a8fe 6e3f f12c 763f 2f60 883f 0b69 913f
00000010: 15db 8c3f 7202 753f 1ebf 873f f1e0 723f
00000020: 2f25 7a3f cd0f a13f ad6d 5d3f e1b9 6c3f
0.93357325 0.96162325 1.0654353 1.1360182 1.1004359 0.95706856 1.0605199 0.94874483
0.9771299 1.2582947 0.86495477 0.9247113

layers.0.bn3.bias f4 [12]
00000000: a5e2 a8bd f05f 5cbd 2523 24bd 3008 aebc
00000010: 0fcc 643d 02a7 9c3d 3714 e53d 3b64 293d
00000020: 2256 2dbe a9fb 03bd 15fa 813c cc3c c1bc
-0.08246354 -0.05380243 -0.04007258 -0.021244138 0.055858668 0.07649042 0.11185496 0.041355353
-0.16927388 -0.032222424 0.015866319 -0.02358856

layers.0.bn3.running_mean f4 [12]
00000000: 16de 8dbe a0fb b43e 962e 963e 7f48 573f
00000010: 349e 9d3e 933a 803c 422a 34be cc99 3dbe
00000020: acc2 27bd 0ace 8e3f 74c7 903e 68d0 b4bd
-0.277085 0.35348225 0.29332417 0.84094995 0.30784762 0.01565293 -0.17594245 -0.185157
-0.040957138 1.1156628 0.2827717 -0.08828813

layers.0.bn3.running_var f4 [12]
00000000: ee84 ea3e aabb b63e 60dd f53e ea04 ab3e
00000010: 1575 2b3f 08ac 043f 4da3 ca3e b4fa ea3e
00000020: 9a5d 113f 52b8 0f3f 6d91 b13e d74c de3e
0.45804542 0.3569005 0.48020458 0.33402187 0.6697553 0.51825 0.39577714 0.45894396
0.5678345 0.56140625 0.34681264 0.43418

layers.1.conv1.weight f4 [24, 12, 1, 1]
00000000: e5e1 f5bd ff7b e9bd cedb ce3d 54e6 ec3d
00000010: c892 623e 366a 6fbe bea7 fcbe c287 11be
00000020: 2853 90bd 0d66 673c 7c55 7d3e 3b9a 0a3d
00000030: 80e2 b4be 42fc 203e bdce ccb9 6da5 0e3e
00000040: d57f c7be 38f0 5fbe dda5 603e 9277 2e3d
00000050: 360d 613e fca5 bb3d 5e1d 87be 7b4c 493e
00000060: 6a75 a6bc 6e2a b5bc d98c 34be 19bf 9d3e
00000070: df60 17bd 2676 183d cca3 86be e84f a0be
00000080: 8bb7 253e 6025 113e d796 19bf 1d2e cabd
00000090: aae2 513e ddaf 423d 01ff 883e 5ae7 3bbe
000000a0: d044 813d cb88 b43e a235 3fbe 6cfb 61be
000000b0: d220 ac3e 6ef4 23be 3c03 55bd 81e7 25be
000000c0: 26f1 ec3d 6bbf ba3e fad3 f73b be32 b63e
000000d0: 330e f43d c0c0 663e f62e d43e d387 b8be
000000e0: bcf4 2dbe 73fa 193d 13ac 04bd 2765 31be
000000f0: 735b 64be c52a febd 7ce2 b8be 2b1d 7f3d
00000100: b757 a73c 83cc 183c 3fc6 923e e83d 8a3e
00000110: 207b 80be 2c3d d1bc 4d2c 40be 581c a13e
00000120: 8ccf 403e a873 dabb e9c3 a8be b2a1 1fbf
00000130: 886b 673e 4b3e febd a481 aabc f18e 3ebe
00000140: 98b7 d23e bcb7 0b3e 7463 49be edc9 ff3c
00000150: 1786 b43e 04c1 b6bd 5cd6 08be 419d 013c
00000160: 8729 023e f6bc febd 7b9f 08be 3e14 263f
00000170: 193a 8a3e a8ae b63e 1fec 8b3d 6881 053a
00000180: 7ba0 303d 6b11 b0be e281 ab3e 69c2 a7be
00000190: 69e2 9cbe ed57 b6bd 0b7d 1f3e 8743 a7be
000001a0: bdd4 023e 785d 6cbc 1916 a33e bd64 12bd
000001b0: b106 b93e ad3c b6bd 5fea 4abe ce66 8d3e
000001c0: df20 9dbe 9814 073e 1915 ae3e 365f 5cbe
000001d0: 6fd7 3f3e 7e6b bbbe 3e0c 443e da6c be3e
000001e0: 2afb dfbd 4a8b b33d 9a04 233e dd0f 12be
000001f0: b459 b83d 8223 ec3b b217 c33c 1c5f 31be
00000200: 2a7e e1be 40c5 c73e 4b81 7d3d a9a6 e23e
00000210: 8809 10be 1cae d53d a3b0 063e b81b e2bd
00000220: 2b06 a03e 09a2 77be 0196 413e 2406 92be
00000230: a5cb 71be add1 d4be 81e5 68be 25ed 263e
00000240: 77ea 433d a130 99be 0a06 c53d 8fc7 0c3c
00000250: ecf1 a7be eebd 623d 985b f2bc 70a9 253e
00000260: 94c2 ef3c d447 803e 88ae cdbe c65c b3be
00000270: 9730 a0be f641 44be a951 41be 1541 d73c
00000280: 1856 393e bca9 143d 34d8 b63e 8d5e 653e
00000290: fb15 703e a10a c5bc fc91 f9bd badf f1be
000002a0: 8071 813e c07a c03e be2c 013f 7b8e 853e
000002b0: 10db b438 6670 59be 468e 443e 857a 6b3e
000002c0: 034a 3d3d 583a 8dbe 6e94 553c f4b8 14be
000002d0: 8040 223b 22c1 a4be 7d82 023e 82f0 75be
000002e0: 9912 c23e 098b ff3e b45b f6bc a9c2 37bd
000002f0: a00c 5ebe 1f9d 5dbc 3289 0b3e 3a70 613e
00000300: 9284 94be 80ea 9f3e 9b37 91be bc2e 11be
00000310: dffb 633e a1a0 b23e 0469 6abb 0d09 2cbd
00000320: b0d4 62bd fab1 b9be be11 ad3e 1d53 20be
00000330: 5c9c c73e a01c 6d3e 13f0 60be db5e 993b
00000340: 7ffa ecbe b8fd 4dbe c2ee 9dbc db7e 1d3e
00000350: 10e2 323d ab00 c13e 1964 2bbd fe75 9fbd
00000360: 0dac 5e3c 477a af3e 4c29 5ebc a9b0 8bbe
00000370: e252 9e3e 7276 5cbe 7908 683c 9ff3 14be
00000380: 37c6 5e3e 4635 073e dcce 72bd a8f7 cc3e
00000390: 555d 4f3c a219 8d3c c4fb 8c3d b3da 14bf
000003a0: 40a5 ae3d 6097 8b3d 94bf eabc d139 743e
000003b0: 87eb bcbc dc2e c5be a57e a4be ce36 083d
000003c0: e2d7 bbbd 52c5 81be c60f b83e 721a 93be
000003d0: 8de2 79bd 5628 3d3e 3232 76bd 4a05 d63c
000003e0: 3d29 a43d 3b96 62be bcfa 83be 8679 d03e
000003f0: 5744 d03d bc98 073e 1358 69bd 1528 dc3e
-0.120059766 -0.114006035 0.10100518 0.11567369 0.22126305 -0.2338036 -0.49346727 -0.14211944
-0.07047111 0.014123452 0.24739641 0.033838492 -0.35329056 0.15721229 -0.00039063944 0.13930292
-0.38964716 -0.2186898 0.21938272 0.0425945 0.21977696 0.091625184 -0.26389593 0.19658081
-0.02031966 -0.022114959 -0.17631854 0.30809858 -0.036957618 0.03722205 -0.26296842 -0.31310964
0.16183297 0.14174414 -0.5999579 -0.09872077 0.20496622 0.047530998 0.26757053 -0.18349972
0.06311953 0.35260615 -0.18672803 -0.22068566 0.3361879 -0.16011211 -0.052005038 -0.16201593
0.11569433 0.36474165 0.0075631114 0.35585588 0.11916771 0.22534466 0.41442078 -0.36041126
-0.1698789 0.037592363 -0.032390665 -0.17323743 -0.2230051 -0.124105014 -0.36110294 0.062283676
0.020427568 0.009326103 0.28666875 0.27000356 -0.25093937 -0.025541864 -0.187669 0.31466937
0.18829173 -0.0066666193 -0.32961968 -0.623561 0.22599614 -0.12414225 -0.02081377 -0.18609215
0.41155696 0.13644308 -0.19666845 0.031224215 0.35258552 -0.089235336 -0.13363022 0.007911027
0.12711154 -0.12438385 -0.13342087 0.6487464 0.2699745 0.35680127 0.06832146 0.00050928304
0.043121796 -0.3438829 0.3349753 -0.3276551 -0.30641487 -0.08903489 0.15575044 -0.32668707
0.12776466 -0.014426582 0.31852797 -0.035740603 0.36137918 -0.08898292 -0.19815968 0.27617496
-0.3068914 0.1319145 0.3400047 -0.21520695 0.18734525 -0.36605448 0.19145295 0.37192422
-0.109365776 0.08766802 0.15919724 -0.14263864 0.090014845 0.0072063813 0.02381501 -0.17321438
-0.44041568 0.39017677 0.06189088 0.44267777 -0.14066136 0.10433599 0.13153319 -0.11040443
0.31254706 -0.24182905 0.18904878 -0.2852031 -0.2361284 -0.4156622 -0.22743799 0.16301401
0.047831025 -0.29919913 0.096202925 0.0085925 -0.3280176 0.055356912 -0.02958469 0.16177917
0.029267587 0.250548 -0.4017222 -0.35031718 -0.3128707 -0.19165787 -0.18878807 0.02627615
0.18099248 0.036294684 0.35711825 0.2239935 0.23445885 -0.02405292 -0.121860474 -0.47241002
0.25281906 0.3759365 0.50458896 0.26085266 8.6238724e-05 -0.21234283 0.19194898 0.22995956
0.04621316 -0.27583575 0.013035877 -0.14523679 0.0024757683 -0.321786 0.1274509 -0.24017528
0.37904814 0.49910763 -0.030073024 -0.044863377 -0.21684504 -0.01352623 0.13626555 0.22015467
-0.29007393 0.31233597 -0.28362736 -0.14177984 0.2226405 0.34888175 -0.003576816 -0.04200082
-0.055378616 -0.36268598 0.338026 -0.15656705 0.3898648 0.23155451 -0.21966581 0.004680497
-0.46284863 -0.20116317 -0.019278888 0.15380423 0.04367262 0.37695822 -0.041843507 -0.07786177
0.013590825 0.34272978 -0.013559651 -0.27283219 0.3092261 -0.21529558 0.014162176 -0.14546059
0.217553 0.13203916 -0.059279308 0.40032697 0.012656529 0.017224137 0.06883958 -0.5814621
0.08527613 0.06815982 -0.028655805 0.2385018 -0.023061527 -0.38512313 -0.32127872 0.03325539
-0.09172036 -0.25345856 0.35949534 -0.28731114 -0.06100707 0.18472418 -0.060106464 0.026125569
0.08015678 -0.22127621 -0.25777233 0.40717715 0.10169285 0.13241857 -0.05696876 0.4299933

layers.1.bn1.weight f4 [24]
00000000: ae80 7e3f 2a82 983f 1b90 5c3f 804a 2b3f
00000010: 976e 053f 6ca3 a83f f82c fc3f 0af9 d93e
00000020: 11b3 713f f60b d63e efe5 573f 1068 043f
00000030: 205c 423f 7112 943f d787 bf3e d185 7e3f
00000040: 8968 2d3f 9980 943f d70d ca3f 57f1 723f
00000050: ebf0 563f c814 143f c4ae 693f 15d7 623f
0.994151 1.1914723 0.8615739 0.6691055 0.5212187 1.3174872 1.9701223 0.42572814
0.9441386 0.41806 0.84335226 0.51721287 0.7592182 1.1568128 0.37408325 0.9942294
0.67737633 1.1601745 1.5785474 0.94899505 0.8396136 0.5784421 0.91282296 0.8860944

layers.1.bn1.bias f4 [24]
00000000: 8e37 2c3e f752 c4bc e4e7 cbbd ce61 c23e
00000010: 460b 053f 297c 87be d806 063f 4517 033f
00000020: 9e6e 40bd 19d8 053f aff5 eb3d 6934 153f
00000030: 7efa 853e b99b 143e b55c 343f 23d5 2b3e
00000040: b12e 953e 5012 943d b98b a73f ecbc 02be
00000050: f485 aa3d 4a21 ce3e 3a45 543e b64d b93e
0.16818067 -0.023965342 -0.09956339 0.37965244 0.51970327 -0.26461914 0.5235419 0.5120738
-0.046980493 0.52282864 0.1152147 0.58283097 0.26167673 0.14512528 0.7045396 0.16780524
0.29137185 0.07230055 1.3089515 -0.1276738 0.08326331 0.40259773 0.20729533 0.361921

layers.1.bn1.running_mean f4 [24]
00000000: 1357 30bd 2516 32bd 6f13 9dbd 461d 98bd
00000010: 056e 4f3d 0e67 ee3d 7729 99bd db52 8abd
00000020: 0d29 e0bc 4d31 d5bc 292c 5b3d 85ac 6e3d
00000030: 8491 6cbc 4f94 9a3d 9604 40bd c1ba d73d
00000040: 8902 b63d 64c3 bbbd dc99 8bbd 643c 0b3d
00000050: 8f3c 0abb 36a2 9dbd 1a24 853d b4da 6d3d
-0.04305179 -0.04347815 -0.07669722 -0.074274585 0.050642032 0.1164075 -0.07478612 -0.06754085
-0.027363325 -0.026024485 0.05350891 0.058269996 -0.0144389905 0.07547819 -0.046879373 0.10533667
0.08887202 -0.09168127 -0.06816456 0.03399314 -0.0021093225 -0.07696955 0.065010265 0.0580699

layers.1.bn1.running_var f4 [24]
00000000: 9af5 b93e 0acc b23e af78 063f db5b 9f3e
00000010: ffed c03f 7a77 993e cb13 9c3f 54ec be3f
00000020: 14ac 013f afb5 4c3f d3f6 163f f43d c33f
00000030: 2fbf 5e3f 784f 323f 8bea 8b3f 6b2e 543f
00000040: fe97 ce3f c767 e33f 4660 e23e 7528 573f
00000050: 208a 233f ed36 773f 14fa 953f 0225 143f
0.36320192 0.34921294 0.525279 0.31124768 1.5072631 0.29973966 1.219354 1.4915872
0.50653195 0.7996473 0.58970374 1.5253282 0.87010473 0.6965251 1.0930952 0.8288333
1.6140134 1.7766045 0.44214076 0.8404611 0.6388264 0.96568185 1.1716943 0.5786897

layers.1.conv2.weight f4 [24, 1, 3, 3]
00000000: b3d7 cdbc 4e6d d3bc e162 683d e17a adbe
00000010: 6f07 51be a063 4cbe 6926 95be 6622 12bf
00000020: 5590 83be ea2b a4be 488f c93d 21d0 16bd
00000030: f6b7 123e 87eb 593e 48fc a33c 126f 073f
00000040: b27d 983e 3a32 31be 7c9e 91be aa51 2cbe
00000050: 30e9 893d 83de 303e 3dc0 9b3e 96b0 303e
00000060: 2a8e 2ebd 3a16 10be d9bf abbe 8201 713e
00000070: 051c 573e 06fa 16bc c5f4 f43e 3872 583e
00000080: ba0d 9fbe 2d9d 1c3e 36c8 76bd 1e10 8cbd
00000090: ac62 53bd 8c37 8dbd 1576 83bd 5261 4abe
000000a0: c904 98be 7b52 a0bd b8e0 93be 6f8c d9be
000000b0: c514 33be bd18 afbe 787d 1abe b023 93be
000000c0: 0211 4b3e 2719 513e 8409 03be f41b ab3e
000000d0: 7f85 8c3e d4db 083e 3308 3c3e bf34 823e
000000e0: d115 933d b760 783e 8676 a53e 1532 473e
000000f0: 3619 133e ab4a 1f3e 0caa e43d f55f 85be
00000100: f4fc 68be dec0 c23c de49 29be 1b73 993c
00000110: edf1 8f3e ea22 0d3e 7d0e b93e 140c 973e
00000120: 27a3 2c3e 4232 9c3e 4f11 6b3e 26ee 9a3e
00000130: 3e0e d33e a2b9 6c3e 75a3 123e fd6d ef3d
00000140: 162b 193d e8b6 cb3d 0746 9a3e 3bf0 dd3d
00000150: f452 883e 9653 0c3f 0994 b03e 11c0 513e
00000160: 3c2e 3e3e f943 1a3e 675e 123e 961a bd3e
00000170: 39d7 643e 58c5 e43d d56e 6c3e 75c1 343e
00000180: 8ce4 1cbe e677 99be 4251 93be c2af 903e
00000190: bff3 903e 5c4f 223e 1e3c f13c 08d2 4d3e
000001a0: 136f 6b3e 7987 8fbe f5ab c5be 7f05 89be
000001b0: d34a e63c dfc3 9dbd cb74 3dbd 2e34 95be
000001c0: 68a9 9bbe 922b 9abe 5638 483e 3fd1 af3e
000001d0: 98bf 8c3e 0a7f ea3d 8e4b 9e3d 9a1c c43c
000001e0: 8dc8 8dbe 74b8 aa3e 3c09 b43e 16de 91be
000001f0: bde3 373e c89c 7e3e a9ad 073e 2608 7d3e
00000200: 666d 023e 9958 783e b490 f63e 1f60 a23e
00000210: 156f ef3d ac8d b43e 91c5 463e ae15 3d3e
00000220: 7f8c 2fbc 5009 d9bd 849d 88be cc3c c5be
00000230: e43c 42be 4fbc 29bf 5130 60be ab25 2dbc
00000240: a4f5 903d 8858 603e 2f45 8a3e b066 5a3e
00000250: 41aa ab3e 55dd 823e aac7 843e 1376 bc3e
00000260: 0e6e 433e 3e5a e73c a2fe 69be 8b38 4dbe
00000270: 5739 38be 7b74 bcbe dfb0 acbe 5596 a9be
00000280: 3f59 93be 4b2e e7bc ab56 4abd 0fe2 903e
00000290: cd00 963e 8f65 183e 8707 bb3e a438 a23e
000002a0: 0e37 3c3e be30 633e db79 9f3d 6dd2 223e
000002b0: 6e27 683e bf3d d53d d2f7 4e3e 8e77 9e3e
000002c0: 0f56 843e 9ac1 5d3e 0383 c03e fda1 ea3d
000002d0: b26f 7a3e a894 b23e dc1a 023e 4dcb 963e
000002e0: a6f6 093f ce32 8b3e 7948 e83d e7e4 143e
000002f0: be36 bf3d 3cd3 50be eb66 343d 32f6 883e
00000300: aa83 aabe 09aa 1e3d 8b25 a03e 0b98 90be
00000310: be1e 063d a929 9e3e 10a5 6dbe 8ac8 5cbe
00000320: 075b bb38 7ea6 a53d 8eb2 943e 604b 233e
00000330: 95c6 9f3e 79fa e03e ce5d d03d ebb7 4e3e
00000340: 6ca9 ccbc 9146 1fbe 9fa9 933e ae8c 8e3e
00000350: 9aec afbd 304f c93d bfe4 943e a837 a03e
-0.025127267 -0.025808956 0.056734923 -0.33882812 -0.20412992 -0.19959879 -0.29130867 -0.5708374
-0.25696054 -0.32064754 0.09841782 -0.03681958 0.14327988 0.21281253 0.020017758 0.52903855
0.29783398 -0.17304316 -0.28441226 -0.16828027 0.0673393 0.17272381 0.30420104 0.17254862
-0.042616047 -0.14070979 -0.33544806 0.23535731 0.21006782 -0.009214884 0.47842994 0.21137321
-0.3106516 0.15294333 -0.06024953 -0.068390116 -0.051607773 -0.0689536 -0.06419007 -0.19763687
-0.2969115 -0.07828232 -0.28882384 -0.42489955 -0.17488392 -0.3419856 -0.15086925 -0.28738165
0.19830707 0.20419751 -0.12796599 0.33419764 0.274456 0.13365108 0.18362503 0.25430867
0.071818955 0.24255644 0.3231699 0.19452699 0.14365086 0.15555827 0.11165246 -0.26049772
-0.22752744 0.023773607 -0.16532084 0.018731644 0.28114262 0.1378285 0.36143866 0.29501402
0.16859113 0.30507094 0.22955821 0.30259818 0.41221803 0.23117688 0.14320166 0.116909005
0.037394606 0.09946996 0.30131552 0.10836836 0.26625788 0.5481504 0.34487942 0.20483424
0.18572325 0.15064992 0.14293824 0.36934346 0.22347726 0.11170453 0.23089154 0.17651923
-0.15321559 -0.29974288 -0.28772932 0.28259093 0.28310964 0.15850586 0.029447611 0.20099652
0.2299159 -0.28033045 -0.38607755 -0.26762006 0.02811185 -0.07703375 -0.04625396 -0.29141372
-0.30402684 -0.30111367 0.1955274 0.3433933 0.27489924 0.11450012 0.07729255 0.02393942
-0.2769207 0.33343852 0.35163295 -0.2848975 0.17957969 0.24864495 0.1324984 0.2471014
0.12737045 0.24252547 0.48157275 0.3171396 0.11691109 0.35264337 0.19411303 0.18465301
-0.010714649 -0.10597479 -0.26682675 -0.38522947 -0.1896854 -0.6630296 -0.21893431 -0.010568063
0.07078102 0.21908772 0.27005908 0.21328235 0.3352833 0.25559488 0.25933582 0.36808833
0.19084951 0.028241273 -0.22851041 -0.200411 -0.17990623 -0.36807618 -0.33728692 -0.33122507
-0.28779027 -0.028220316 -0.04939906 0.2829747 0.29297486 0.14882492 0.3652918 0.31683838
0.18380377 0.22186562 0.07786914 0.15900584 0.22671291 0.10412168 0.20211723 0.30950588
0.25846907 0.21655884 0.37599954 0.11456678 0.24456671 0.3487904 0.12705559 0.2945198
0.5389198 0.27187198 0.11341948 0.14540444 0.09336613 -0.2039308 0.044043463 0.26750332
-0.33303577 0.038736377 0.31278643 -0.28241 0.03274416 0.3089116 -0.23207498 -0.21560875
8.93381e-05 0.080883965 0.29042476 0.15946722 0.31206194 0.43941095 0.10174142 0.20187347
-0.02498313 -0.15554263 0.28840348 0.27841705 -0.0859005 0.09829557 0.2908077 0.31292462

layers.1.bn2.weight f4 [24]
00000000: fb4c 6b3f 224e 403f 88cb 733f 2dc0 5e3f
00000010: fc15 a03f 1654 3a3f ba00 813f 735e 8a3f
00000020: 820f 593f cb9b 613f 0ae8 473f bd18 923f
00000030: c818 3f3f d31d 853f 3518 493f 2dd8 953f
00000040: 687f 8c3f d81a 743f 6149 6e3f bc68 5c3f
00000050: e125 843f c593 943f 7174 6a3f e967 493f
0.9191434 0.7511922 0.9523244 0.87011987 1.2506709 0.72784555 1.0078347 1.0810074
0.8478929 0.88128346 0.7808844 1.14138 0.7464719 1.0399727 0.7855256 1.1706597
1.0976381 0.9535346 0.9308072 0.8609731 1.032406 1.1607596 0.91583925 0.7867418

layers.1.bn2.bias f4 [24]
00000000: f7c3 f03e 689a 903d c0eb 2abf 041a b7be
00000010: b03b 41bd 74dd 083e 0452 9e3d f993 bdbd
00000020: a426 d53e eec0 8a3e a4d7 633e 90be 743e
00000030: a6f4 acbe 421a b43e 57b2 5e3f 80a3 93bd
00000040: b4b7 683f dca0 6b3f 00fa 263f 965a 883e
00000050: 8749 ba3d 34ee 14be 2ded 9f3f 90ab 963e
0.4702451 0.07060701 -0.66765976 -0.35762036 -0.047176063 0.13365728 0.07730487 -0.09256739
0.41631043 0.2710032 0.22250229 0.23900819 -0.33780402 0.35176283 0.86990875 -0.072089195
0.9090531 0.92042327 0.6522522 0.26631612 0.090960555 -0.14543992 1.2494255 0.29427767

layers.1.bn2.running_mean f4 [24]
00000000: d3e6 45bf 0119 a63e 5824 6b3d 7ab6 b13e
00000010: d83f 4ebf 428e b43d b557 d53f 66ff 9d3e
00000020: 9956 0d3f 9c83 923f 5130 273e a04c d73d
00000030: d17d 1dbe c063 da3e 45ad bc3f 6cfd 2ebf
00000040: e2b7 5d3f c43f 60bf 1164 1740 ccdc 0a3f
00000050: 4b2f 423f b87d d53d 86f3 dd3e 5823 203f
-0.77305335 0.3244095 0.057407707 0.3470953 -0.8056617 0.08816196 1.6667391 0.30858916
0.5521026 1.1446414 0.16327025 0.10512662 -0.15380026 0.42654228 1.4740378 -0.6835544
0.8660871 -0.875973 2.3654826 0.5424316 0.75853413 0.104243696 0.43349856 0.6255393

layers.1.bn2.running_var f4 [24]
00000000: d7c1 383f 205b 893e 0efb 483e d5a4 e63d
00000010: 84d2 513e 8dd8 a73e ef00 893f 9eba 8a3d
00000020: 4e5f a13e e3a1 1e3e dc01 983e b341 ec3d
00000030: e7bb fd3d 1fd7 b93e 5843 073e 504e 243f
00000040: 5f95 a23e 4da0 0b3f ef49 2b40 6018 9d3e
00000050: d004 163f bf2c b63d e974 953e 3c4b 983e
0.72170776 0.26827335 0.1962702 0.11261908 0.20490462 0.32782403 1.070341 0.06773876
0.31518024 0.15491442 0.2968892 0.11535969 0.12389355 0.36296937 0.13209283 0.64181995
0.31754586 0.54541475 2.6763875 0.3068266 0.58601093 0.088952534 0.29190758 0.297449
