Project/Project_files/ckpt/mobilenetv2_19_2_stem/mobilenetv2_19_2_stem_36.pt (torch, 36779 bytes, 52 tensors)

conv1.weight f4 [24, 3, 3, 3]
000000 c4 28 4b be dd a3 43 be 84 63 ac 3c f3 74 24 3d
       -0.1983977 -0.19105478 0.021043546 0.040150594
000010 4e a3 a6 bd 0e 6e f4 3d 41 51 22 be 32 43 91 be
       -0.08136617 0.11935054 -0.15851308 -0.28371578
000020 24 32 e3 bd c3 21 04 3e eb f0 28 3e 5b fa 69 bd
       -0.11093548 0.12903504 0.16498153 -0.057123523
000030 a2 7f 52 bd 68 2d cc 3d c0 d6 60 be 91 30 46 3e
       -0.05139125 0.09969598 -0.2195692 0.19354464
000040 30 78 8f 3d 7e 60 18 be 69 d1 fc 3d 0e 91 a4 3e
       0.07005346 -0.14880559 0.12344629 0.32141918
000050 e8 d5 af 3e cf c8 ae 3d fb 4d 6f 3e 59 2a 0d 3e
       0.34342885 0.08534395 0.23369591 0.13785686
000060 fc c6 20 be b9 e9 cb bd 8f cf 11 3e 84 40 73 3e
       -0.15700907 -0.099566884 0.14239334 0.2375508
000070 e3 64 03 bd 17 17 43 be 42 54 7f 3d 9f 8f 74 be
       -0.032078635 -0.19051777 0.062336214 -0.23882912
000080 d0 b4 ab 3d ef 66 4c 3d 74 32 60 3e f0 13 ea bd
       0.083840966 0.049902853 0.21894246 -0.11429584
000090 39 1f e6 3d 73 2f 3e 3e b8 01 99 bd 2b bc 27 be
       0.11236424 0.18572788 -0.07471031 -0.16380374
0000a0 61 cd 55 be 42 e0 27 3e 2e 15 80 be 66 49 6a 3e
       -0.20879127 0.16394141 -0.2501616 0.22879562
0000b0 e0 00 80 be 9f f9 62 bd 98 47 c5 bd a8 69 51 bc
       -0.25000668 -0.05541384 -0.09632796 -0.012781538
0000c0 cc 51 a5 bd d4 90 18 3d f0 b7 22 3e 9c eb 8f be
       -0.08072242 0.037247494 0.15890479 -0.28109443
0000d0 20 93 6f 3e cf a2 8f 3d 3c e8 8f bd 34 67 56 be
       0.23395967 0.07013475 -0.07026717 -0.20937806
0000e0 9c a2 04 be df c0 78 bd 6b 67 16 3c 96 65 47 be
       -0.12952656 -0.06073081 0.00917993 -0.19472346
0000f0 50 37 56 3e 85 fc 61 3d 31 dc a2 3e 17 ab 52 3e
       0.20919538 0.055172462 0.31808618 0.20573078
000100 91 21 37 3e 27 34 be bd eb fe dc 3d a4 e3 89 be
       0.17883898 -0.09287291 0.10790809 -0.2693149
000110 6b 5b 8e be e0 2e 0d 3e 74 eb a4 bd 7a 41 95 be
       -0.2780412 0.13787413 -0.080527216 -0.29151517
000120 52 b2 fe 3d 16 18 1e bd 5e f0 77 bd f0 13 b9 3d
       0.12436356 -0.03859719 -0.060531966 0.09037006
000130 b5 c8 52 be 08 87 d0 3d ec 89 1f 3e 15 26 01 bd
       -0.20584376 0.10182005 0.15579957 -0.03153046
000140 35 50 58 3e 58 07 ab 3e ae 51 0f bd a7 f7 85 bd
       0.21124347 0.3340404 -0.034990005 -0.065413766
000150 1e f1 80 3e ca 03 0c be ab d2 fb 3b 0f 16 3f 3c
       0.25183958 -0.1367332 0.0076850257 0.011662974
000160 a5 63 0a be 4a 40 37 be 1e ad 27 be c1 9e 2d bd
       -0.13514574 -0.17895618 -0.16374633 -0.042387728
000170 63 64 e7 3d e5 48 a9 bd 9f aa 22 be 1d 72 85 3e
       0.11298444 -0.08265857 -0.158854 0.26063624
000180 37 50 cf 3d 57 40 2e 3e 2f 01 c1 bd 74 d2 dd bc
       0.10122722 0.17016731 -0.09424054 -0.027077891
000190 48 42 91 bc 5b e5 a4 3d 9e b6 6f bd 56 34 91 be
       -0.0177318 0.080515586 -0.058523767 -0.28360242
0001a0 57 4e 5d 3e 29 2e 4e bd 18 e5 12 3e 29 53 f8 3c
       0.21611916 -0.05033699 0.14345205 0.030313091
0001b0 6a 60 0a 3e 2f a9 8b 3c 22 b8 34 bd 66 b9 c0 bd
       0.13513342 0.017048446 -0.044120915 -0.09410362
0001c0 c2 51 38 be 5e 7c 16 3e 96 14 87 be ae 48 14 be
       -0.17999938 0.1469588 -0.26382893 -0.1448085
0001d0 19 c9 01 bd aa 03 57 3d 92 fd 73 be dd 7e 13 be
       -0.031685922 0.05249373 -0.23827198 -0.14403863
0001e0 63 e5 71 bc 02 f2 81 be 11 ec 24 3e 7e f5 1a be
       -0.014764163 -0.2537995 0.16105677 -0.1513271
0001f0 e2 14 f9 bd 21 0d 06 3e 6d 51 26 bd 89 20 8d 3d
       -0.12162186 0.13090946 -0.040604997 0.06890971
000200 05 3c a4 3d fc f7 c7 3c 73 ae f4 bc e7 7a b5 3e
       0.0801926 0.02441024 -0.02986834 0.3544533
000210 c6 de 59 3d 09 75 25 3e 88 31 a7 bd 02 e0 94 be
       0.05319097 0.16157927 -0.08163744 -0.29077154
000220 c0 40 c3 3d c2 df 1c be e6 46 8d be 3b ff be 3a
       0.095338345 -0.15319732 -0.27593154 0.0014571914
000230 d5 26 69 bd 1d 3e 0e 3e a6 15 40 3e d0 d2 d2 bd
       -0.0569218 0.13890882 0.18758258 -0.102941155
000240 75 ae b4 3a de 03 8a 3e 5b bf 26 3e 25 98 e2 bc
       0.0013784902 0.26956075 0.16283934 -0.027660439
000250 1f a1 2a 3e e7 2b c4 3d 38 7c 3d be 32 e5 82 3c
       0.16663025 0.09578686 -0.18504417 0.01597843
000260 68 e4 5c be 66 20 a5 3c 23 e3 fc bd 58 21 be bd
       -0.21571505 0.02015705 -0.123480104 -0.092837036
000270 ea 59 6e bc 8e c6 04 bd 82 7d ed bd 90 d8 1c 3e
       -0.014547804 -0.03241592 -0.11596204 0.15316987
000280 b6 a2 05 3e 68 ff 52 bd 3e f3 20 be f6 8a d6 bd
       0.1305035 -0.051513106 -0.1571779 -0.104757234
000290 75 9b 5f bd d4 de 17 3e 6f a9 59 3d d2 01 d0 3d
       -0.054591615 0.14831096 0.0531401 0.10156597
0002a0 48 d0 3c 3e cc 2c 92 bc 99 52 a7 bd f8 26 48 be
       0.18438828 -0.017843626 -0.08170051 -0.19546115
0002b0 74 0b e2 bd 81 9c 97 3d 25 a3 00 bd 3e d3 c6 3c
       -0.11037341 0.074028976 -0.031405587 0.02427065
0002c0 0c 35 06 3e 29 8d ac 3d 8d 28 a9 3e 13 2b 74 3e
       0.13106173 0.08425362 0.3303875 0.23844557
0002d0 11 32 3c 3e 94 28 86 3d 68 6a bb b9 8a 4c 24 be
       0.18378474 0.065507084 -0.00035746698 -0.16044822
0002e0 4a 93 41 be 21 42 4c be 6a 08 3d be 0a a7 df bd
       -0.18903843 -0.19947101 -0.18460241 -0.10920532
0002f0 2e a7 98 be 0b 89 d0 bd 12 c8 6c 3c a3 08 e5 3d
       -0.29815048 -0.10182389 0.014451997 0.11183288
000300 1d f5 6f be 5c a1 48 bd 2b c8 0b be 0b af 03 3e
       -0.23433347 -0.04898201 -0.13650577 0.12859742
000310 31 fd c6 3d 6e 92 6c 3d bc e8 dc bc 55 78 94 be
       0.09716261 0.057756834 -0.026966445 -0.28998056
000320 bc 35 b5 bd 74 df a0 be 72 6d 2f be cd 31 92 bd
       -0.0884814 -0.3142048 -0.17131594 -0.07138405
000330 7e 44 17 3e 94 d7 50 3e 1a ba 3b 3e 04 3e ad 3d
       0.14772221 0.20394737 0.18332711 0.08459094
000340 af 48 24 3d 21 35 fe bd 95 b2 58 bd 91 75 af 3d
       0.04010838 -0.12412477 -0.052904684 0.08567346
000350 c0 df 1f bd f4 2c 7c 3e 3b 38 a7 3e e1 81 54 3e
       -0.039031744 0.24626523 0.32660088 0.2075267
000360 5d e2 fa bd df 43 07 be ce e3 82 be 95 ec 16 be
       -0.122502066 -0.13209485 -0.25564426 -0.14738686
000370 f8 57 b4 3d 2f 35 53 bc 52 52 52 3e 64 38 b8 bc
       0.08805841 -0.012891098 0.20539215 -0.022487827
000380 5a a0 b8 3d 43 da bf 3d 49 57 98 bd 35 0e d9 3d
       0.0901496 0.09367802 -0.07438523 0.10598413
000390 35 79 57 3c 97 da 0d 3e ff 86 91 3e 59 b8 0f be
       0.013151457 0.13852917 0.28423306 -0.14035167
0003a0 74 2b 1b bd 34 4f c1 3e 1b 7a 54 3e d9 f7 71 be
       -0.037883237 0.3775574 0.20749705 -0.23629703
0003b0 2d 9d ad bd 81 32 8f 3e a9 82 57 3c 19 ba ab bc
       -0.084772445 0.2796822 0.01315371 -0.020962762
0003c0 37 08 6f bd f7 cc 86 be 68 d7 69 3d f6 c4 96 bd
       -0.058357444 -0.2632825 0.057090193 -0.07361786
0003d0 4e b6 bf be ca 3d fd bd 27 36 5c 3e 2c eb 1b be
       -0.37443775 -0.12365301 0.21505032 -0.1522643
0003e0 ed 5c 64 3e c1 f8 15 3d 9a b3 95 3e 38 54 3e 3d
       0.22301073 0.036614183 0.29238588 0.046467036
0003f0 1d 26 b3 3d 0a 3f f1 3d fa 47 f1 3d 04 da 15 3e
       0.08747504 0.11779602 0.117813066 0.14633948

bn1.weight f4 [24]
000000 7d df 64 3f 40 40 6f 3f 8b 0c 72 3f 16 31 8d 3f
       0.89403516 0.9345741 0.9455039 1.1030605
000010 97 f3 7a 3f 05 7b 92 3f 74 24 80 3f 87 34 89 3f
       0.9802794 1.1443793 1.0011125 1.0719155
000020 75 f1 8b 3f 2d f3 7c 3f be 97 69 3f d8 3b 69 3f
       1.0933062 0.98808557 0.91247165 0.9110694
000030 41 a1 8c 3f db 7d 6f 3f ad e2 91 3f 16 4e 64 3f
       1.0986711 0.93551415 1.1397301 0.8918165
000040 8c 8a 51 3f e5 21 87 3f f8 df 76 3f 45 ad 48 3f
       0.8185203 1.0557219 0.964355 0.7838939
000050 b4 3b 79 3f bb a8 9c 3f 02 f9 8d 3f 61 9e 95 3f
       0.97356725 1.2238992 1.1091616 1.1688958

bn1.bias f4 [24]
000000 c2 f0 9e 3d ad fe 18 be 9e 44 f8 bd fd 98 aa bd
       0.07760765 -0.14940901 -0.12122463 -0.083299614
000010 b6 cc 69 3a 0b c5 15 bd 37 19 d0 3d 45 0a 73 bd
       0.0008918749 -0.036564868 0.10161059 -0.059335966
000020 49 a2 96 3d 64 31 96 3c 35 f9 89 bc a6 72 f6 ba
       0.07355172 0.018334098 -0.016842464 -0.0018802478
000030 2d 0b c7 3d d8 92 7b 3d 5e 4f 0b 3e ac 47 cd 3d
       0.097189285 0.061419338 0.13604495 0.10023436
000040 86 49 7c be 08 13 d1 3b ec 3b 69 bd 1e b0 11 be
       -0.24637422 0.0063804425 -0.05694191 -0.1422734
000050 d0 37 e7 3b e8 66 1d 3e d1 a5 fa bd 4c b4 6f ba
       0.007056214 0.15371287 -0.12238658 -0.0009143993

bn1.running_mean f4 [24]
000000 52 6f 99 3c 26 6f 70 ba 18 94 c1 bb c3 3a 15 bb
       0.01872984 -0.0009171836 -0.0059075467 -0.002277062
000010 25 2c 4b 3a 56 7f 11 3b 88 20 53 bb bc da 1a bc
       0.00077504135 0.0022201142 -0.0032215435 -0.009451564
000020 dd 8b af 3b 76 9e 0b 3c 9f 5f 23 bc aa 13 ff 3b
       0.005357249 0.008521667 -0.009971528 0.0077843266
000030 10 fb d0 3b 6d f5 12 3a 43 7a 05 3b cc f8 eb 3b
       0.006377585 0.00056060293 0.0020367063 0.0072012898
000040 83 11 f3 b9 0a b0 f7 3a 3b f8 9c b9 05 4e 42 bb
       -0.0004636162 0.0018897068 -0.00029939585 -0.0029648554
000050 bf 44 de 3b 6d 6c cd b9 5d 43 50 ba ea 1c d2 bb
       0.0067830975 -0.0003918143 -0.0007944608 -0.006412138

bn1.running_var f4 [24]
000000 ba 2a 95 3f 0a 2c e6 3d ba 36 d5 3e f3 ca d0 3d
       1.1653664 0.112388685 0.41643316 0.101949595
000010 f1 0f 0f 3f 0d 46 2f 3e 95 e8 c7 3e a8 d6 56 3f
       0.558837 0.17116566 0.39044634 0.8392129
000020 07 0f b3 3e 1d bd af 3e 63 0f d4 3e 5b 34 3f 3f
       0.34972402 0.3432397 0.4141799 0.74689263
000030 44 f7 67 3e a5 11 17 3f b8 01 19 3f c2 b8 27 3f
       0.22652918 0.590113 0.5976825 0.65516293
000040 f2 5c d8 3e a2 fb 66 3e fd de 4e 3e fc e5 45 3f
       0.42258412 0.22556928 0.20202251 0.77304053
000050 2a b0 b2 3e a1 7c 4a 3e 17 55 78 3e 12 33 50 3e
       0.34900028 0.19774105 0.24251209 0.20331982

layers.0.conv1.weight f4 [24, 24, 1, 1]
000000 2c a9 53 bd 0f 4b df bc ac 4f 8a be e2 ec 43 3e
       -0.051675007 -0.02725747 -0.2701391 0.19133332
000010 87 8e 54 3e 2c 0a e5 bd 1b 6c 4b be 1a ff 11 be
       0.20757495 -0.11183581 -0.19865458 -0.1425747
000020 52 52 41 be f6 2a 45 be 03 bb ef bd ae c6 61 be
       -0.18879059 -0.1925467 -0.117055915 -0.22048447
000030 1c 69 33 be 81 88 28 3d c3 0b a7 3d 48 23 b5 3d
       -0.17520565 0.041145805 0.0815654 0.0884462
000040 e1 38 df bc be 52 21 3d a9 8f 07 3e 67 eb 24 bd
       -0.027248802 0.03938555 0.13238396 -0.04026356
000050 86 70 4c 3d 80 0f 66 3e d7 6c 92 be 40 a4 0d 3e
       0.049912 0.2246685 -0.28598663 0.13832188
000060 a2 8d 02 be d0 7e e0 bc a6 d4 9f be f3 98 92 bd
       -0.12749341 -0.027404219 -0.31216925 -0.07158079
000070 2b 4a 36 be d0 a3 5c 3e 2b f5 a6 3e af 4b de bd
       -0.1780173 0.21546865 0.32608923 -0.10854279
000080 dc 7c 75 3d 5a 8c 2a bc c8 fd 14 be 96 70 85 3d
       0.05993353 -0.010409439 -0.14549935 0.06515615
000090 a1 02 65 bb 7e ef b3 3d 57 3b ae 3e 7e 18 03 3c
       -0.0034944194 0.08785914 0.34029648 0.008001445
0000a0 51 bb 8b bd b7 35 10 3e 1a 9c b9 bd db 8b d7 3d
       -0.06822837 0.1408299 -0.09062977 0.10524722
0000b0 47 65 9f 3b 69 f6 35 3e 77 32 58 bd 39 22 4a be
       0.004864368 0.1776978 -0.052782502 -0.19739617
0000c0 2a 99 19 3c 9f 99 44 3e 39 7c 48 be 93 db 30 3e
       0.009374896 0.19199227 -0.19578637 0.17271261
0000d0 73 d7 52 3e ac de f4 3c 3c 3f f8 bd ed d8 4c be
       0.2059 0.029891334 -0.12121436 -0.20004626
0000e0 17 30 b6 be 62 22 91 3d 64 5e dc be d1 30 3f bd
       -0.35583565 0.07086636 -0.43040764 -0.046677414
0000f0 a4 6f db 3c f7 55 73 be 87 c6 1f be dd fe 92 3c
       0.026786633 -0.23763262 -0.15603076 0.017943794
000100 13 ec 75 bd 8e b0 2f 3e 7f 29 1c 3e ad e9 fd bd
       -0.06003959 0.17157194 0.15250205 -0.12398086
000110 dc 3b b8 bd 4d 2b 6b be db c7 f1 bd 2c 9f 17 3d
       -0.08995792 -0.22965737 -0.118056975 0.037017033
000120 5d 64 43 be 80 cf c6 3e 8e 26 9b 3d fc 6c 70 3e
       -0.19081254 0.38830185 0.07575713 0.23479074
000130 03 08 64 3e 88 d4 55 3d 2a f0 df bc 90 09 02 3e
       0.22268681 0.05220464 -0.027336199 0.1269896
000140 50 5f 7b be 1c 53 30 3e c5 52 cf bc 42 c4 4b 3e
       -0.24548078 0.17219204 -0.025308022 0.19899085
000150 fd a9 5d be 23 dd 05 be 9c 32 36 3d b5 38 d4 3c
       -0.21646877 -0.13072638 0.04448186 0.025905946
000160 7c 71 bc 3d bc 0b 47 3e 8c f1 52 3e 12 e4 47 3e
       0.09201333 0.1943807 0.20599955 0.19520596
000170 2b a5 ca bd 22 25 63 be 6e e2 4f 3d 64 79 60 3c
       -0.098947845 -0.22182134 0.05075305 0.013700817
000180 54 32 84 bc 16 8b 84 bd d3 b7 27 be 49 30 cb 3d
       -0.01613728 -0.06471841 -0.16378717 0.09921319
000190 32 26 a0 3d e0 59 a8 be c3 e6 aa 3d 2d 7f a7 3d
       0.07819785 -0.3288107 0.083447956 0.08178554
0001a0 75 ef 97 3b ad fe 87 be a7 12 44 3e fb 72 18 be
       0.0046367 -0.2656149 0.1914774 -0.14887612
0001b0 f3 e6 80 bd 8f 2f 93 be 06 ea 2f be d4 4f c0 bd
       -0.0629405 -0.28747222 -0.17179117 -0.09390226
0001c0 1b 91 b8 3d ca c7 a4 bd 6d 49 bd 3e 77 a3 ec 3d
       0.09012052 -0.08045919 0.36970082 0.11554616
0001d0 95 9e e6 bd 7d 27 79 bc e4 53 16 be 75 20 62 3d
       -0.11260716 -0.015207169 -0.14680439 0.055206735
0001e0 f4 57 4f 3d 63 7d 18 be ca 0f b3 bd 46 f3 b6 be
       0.050620988 -0.14891581 -0.08743246 -0.35732478
0001f0 92 e3 0f be 21 f5 09 3e 88 99 cc bd 23 30 e4 3d
       -0.14051655 0.13472416 -0.09990221 0.11141994
000200 13 41 1f be cf a4 ce bd 34 9d b2 3a d3 a7 4b 3e
       -0.15552168 -0.100900285 0.0013627172 0.19888239
000210 de 1d 7d 3e 4f 1a 9a bd f1 80 2a be 50 ba 77 3e
       0.24718425 -0.07524549 -0.1665075 0.24192166
000220 6f fd 6d 3d 91 77 7f 3e 8b 02 1b 3d 97 87 24 bd
       0.05810302 0.24947955 0.037844222 -0.04016837
000230 2a 3c b2 3d 5e 3e ad 3e bc e5 0f be b7 bb 7b be
       0.08702882 0.33836645 -0.1405248 -0.24583326
000240 be f1 db 3d 97 f4 d7 bd 7c 74 6b be 0e 74 57 be
       0.10739468 -0.10544699 -0.22993654 -0.21040365
000250 26 64 5a bd aa 60 72 be fa fa 2c be 19 3d ab be
       -0.053318165 -0.23669687 -0.16892615 -0.3344505
000260 2a 81 71 3e be 8e 39 be 5a 7a 1c be 7c b2 b7 3d
       0.23584428 -0.18120858 -0.15281048 0.0896959
000270 11 9c bb 3c 8c a8 54 bd 24 63 86 3d da ef 6b bd
       0.022901567 -0.05191855 0.06561878 -0.057601787
000280 ef 93 80 3e 36 d5 5e be 5d 4b 65 3c 3c 09 91 be
       0.25112864 -0.21761021 0.013995019 -0.28327358
000290 ff 0f 8a 3e cd f7 02 3d 56 08 09 bd c0 48 00 3e
       0.2696533 0.031974602 -0.033455215 0.12527752
0002a0 c4 81 a8 be e2 a3 20 3e be 49 83 be 86 0d 8a 3e
       -0.32911503 0.15687516 -0.25642198 0.26963443
0002b0 b5 29 f7 bd 05 83 90 bc 8e 65 48 3e a8 28 03 3e
       -0.12068502 -0.0176406 0.1956999 0.12808478
0002c0 e8 9f be bd 1b 73 75 bd 2b f7 91 3d 39 04 df bc
       -0.093078434 -0.059924226 0.07127222 -0.027223693
0002d0 6b 1c a8 3a 4b 6d 06 3e 2e b8 e3 3d db e3 1d be
       0.0012825852 0.1312763 0.11119114 -0.15418951
0002e0 95 e2 c6 3e ef f6 8a bc 74 67 1a bd 24 3b 9a bc
       0.38844743 -0.01696345 -0.037696317 -0.018827029
0002f0 93 7f 06 3e 9b 28 3d 3e 28 de 19 3e e7 db 4a 3d
       0.13134603 0.18472521 0.15026152 0.04952612
000300 c3 0b d1 3d 28 5d e3 3c 9a 86 97 bd 32 6c 6e be
       0.102073215 0.027754381 -0.0739872 -0.2328346
000310 43 55 89 bc f9 92 0c 3e 8f ae 7a be f5 7e d8 bc
       -0.016764289 0.1372794 -0.24480651 -0.026427725
000320 d4 3d 98 3d eb dc a6 bd 94 12 01 be ad fd a7 be
       0.07433668 -0.081476055 -0.12604743 -0.32810727
000330 06 6b 38 be 19 dd 84 3e c4 11 97 3d d5 cc 3b 3e
       -0.18009576 0.25949934 0.073764354 0.18339856
000340 b9 1d 76 be 82 ad c7 3c cc ef 1a be 3d b7 66 be
       -0.24034776 0.024374727 -0.15130538 -0.22530837
000350 d9 d4 bd bd 74 bb 07 3e 1c 09 7a be dc 55 6e 3d
       -0.09269113 0.13255101 -0.24417537 0.05818735
000360 fb c7 d4 bc 37 64 26 3e 21 41 83 3e 3a fc a4 3d
       -0.025974264 0.16249166 0.25635627 0.08055921
000370 db b4 b2 bd d4 e6 28 3d b5 7c a6 bd c8 e6 77 3e
       -0.08725902 0.04123576 -0.08129255 0.2420913
000380 84 18 2e be 7b a6 45 be 13 8c 28 3e 5e e8 15 be
       -0.1700154 -0.19301789 0.16459684 -0.14639422
000390 66 a5 21 be aa b8 24 3e 59 08 dc 3c 9d a5 6c 3e
       -0.15785751 0.16086069 0.02685945 0.23110051
0003a0 92 42 57 bb 7a 7f f1 3d 55 24 1d 3e 02 07 68 3d
       -0.0032846075 0.11791892 0.15345891 0.05664731
0003b0 42 0f 68 be 34 b5 4f 3d a2 34 ea 3d a9 2a a7 be
       -0.2266207 0.05070992 0.1143582 -0.32649735
0003c0 67 87 2c 3d bf 37 81 be d8 2c 94 3d e9 39 41 bc
       0.042121317 -0.25237843 0.07235116 -0.011793592
0003d0 3f 41 87 3d 40 38 7b bc 7d 2a 42 bd 42 fc 3e 3d
       0.066042416 -0.015333235 -0.0474038 0.04662729
0003e0 91 b7 cd 3d 3c 06 6b bd b6 e3 11 be 72 38 da bd
       0.10044778 -0.057378992 -0.14247021 -0.10655297
0003f0 fb d1 7d be 4e a6 66 bd d6 3d e2 bd 38 e4 ab be
       -0.24787132 -0.056310944 -0.110469505 -0.33572555

layers.0.bn1.weight f4 [24]
000000 42 6b 41 3f 66 e2 6b 3f 12 08 cc 3e b1 05 0e 3f
       0.7555429 0.9214233 0.39849907 0.55477434
000010 ef 33 82 3f f7 00 78 3f f9 5b fd 3e 67 7c 2c 3f
       1.0172099 0.9687647 0.49484232 0.6737732
000020 7c 09 54 3f c9 aa 1d 3f ba 66 d2 3e 4c e8 7c 3f
       0.8282697 0.6158872 0.41094 0.98791957
000030 9b d2 99 3e 2b 7a 8a 3f 5e 9d 86 3f 3b 9a 34 3f
       0.30043492 1.0818533 1.0516775 0.70547837
000040 9c a2 38 3f e2 60 dc 3e 1f c4 7b 3f 6e 34 dd 3e
       0.7212312 0.43042666 0.9834613 0.43204063
000050 24 4d be 3f 64 9f 71 3f 51 48 57 3f d2 d5 4d 3f
       1.4867291 0.94383836 0.8409472 0.8040439

layers.0.bn1.bias f4 [24]
000000 b1 b5 8f be d6 52 01 3e 88 5b db 3e 61 c6 eb 3e
       -0.28068307 0.12629256 0.4284327 0.4604979
000010 72 86 80 be 40 44 d0 bd ed 4b c8 3e 67 95 b2 3e
       -0.25102574 -0.10169268 0.39120427 0.3487961
000020 f9 b7 5a 3e b3 9f 08 3f 78 82 05 3f 44 4a 07 be
       0.21359242 0.5336868 0.52152205 -0.13211924
000030 aa c8 30 3f b2 4d 15 3d ae db 15 bd 9e ed 94 be
       0.6905619 0.03645105 -0.036586456 -0.29087538
000040 fc 3d 6d be 73 6a fb 3e 04 b1 99 bd f8 72 eb 3e
       -0.23168176 0.49104652 -0.07504466 0.45986152
000050 37 67 18 be 40 d3 62 bd 9c 74 ac bd 8d 82 0f 3e
       -0.14883123 -0.055377245 -0.08420679 0.14014645

layers.0.bn1.running_mean f4 [24]
000000 a5 74 98 3d 3c d2 2d 3e 9e d3 84 bd fc e4 7d be
       0.07444123 0.1697473 -0.06485675 -0.24794382
000010 5c 18 98 bd 04 bb e6 3d c9 2d ab 3d 7f 1b de bd
       -0.07426521 0.11266139 0.08358342 -0.10845088
000020 e4 13 40 3e ba ad d9 bd b8 dd 18 be 98 20 a4 3c
       0.18757588 -0.10628839 -0.14928329 0.020035073
000030 ef ee e3 bd 41 e7 78 3d 0b 66 26 bd 02 f5 13 bd
       -0.11129557 0.060767416 -0.04062466 -0.03612233
000040 33 24 a7 bd e4 f2 83 3d b9 f7 9b bd 32 db 9d bd
       -0.08161201 0.06442812 -0.07615609 -0.07707824
000050 7c 96 8c 3d e2 20 3e bd 65 c0 95 3d b5 57 07 3e
       0.0686464 -0.04641808 0.07312087 0.13217051

layers.0.bn1.running_var f4 [24]
000000 3e 34 6c 3f 12 c8 95 3f dc 48 c6 3f 60 dc 1c 3f
       0.92267215 1.1701682 1.5490985 0.61273766
000010 4a 82 23 3f db c6 17 40 b4 f5 41 3f 48 d8 3b 3f
       0.6387068 2.3715122 0.7576554 0.73376894
000020 79 1c 36 3f c0 f5 16 3f 22 21 5e 3f 22 b1 77 3f
       0.71137196 0.58968735 0.86769307 0.9675466
000030 4e dd ba 3f fc 6f b2 3f 90 33 3d 40 95 2c f7 3f
       1.4598787 1.3940425 2.9562721 1.931048
000040 f2 ea 9b 3f 15 79 99 3f b5 22 3a 40 95 36 8e 3f
       1.2181075 1.1990076 2.9083683 1.1110407
000050 46 8c a2 3f 99 90 5b 3f b1 22 01 3f 80 f4 5b 3f
       1.2699058 0.85767514 0.5044356 0.8591995

layers.0.conv2.weight f4 [24, 1, 3, 3]
000000 d9 d2 51 3e 8d 86 52 3e f3 e9 0b bc c7 07 3e 3c
       0.20490588 0.2055914 -0.008539665 0.011598534
000010 0a 6f 02 be a5 bb c5 3e 69 79 36 3e 98 01 da 3c
       -0.1273767 0.38619724 0.17819752 0.026612088
000020 69 6a 7c bd cf 38 77 be 30 78 61 be c0 6a 9f 3d
       -0.061624918 -0.24142765 -0.22018504 0.07784033
000030 f0 36 74 bd cf 87 57 be fb 1e 39 be c4 f6 85 3e
       -0.059622705 -0.210479 -0.18078224 0.2616483
000040 ed 01 88 3e 19 d6 e6 3c 18 9c 6f 3e ab fd ea 3c
       0.2656397 0.028178262 0.23399389 0.028685411
000050 36 66 92 be 65 b5 c3 3b 98 e1 06 3e 52 b1 46 be
       -0.28593606 0.0059725516 0.13171995 -0.1940358
000060 69 ca 86 3c 09 1d 58 be 08 73 39 3e 06 dd 73 bc
       0.016453939 -0.21104826 0.18110287 -0.014884239
000070 63 c8 4c 3e 69 43 2d be 00 0f 4e 3e df cb 0b bf
       0.19998316 -0.16920246 0.2012291 -0.5460796
000080 dd 85 5c 3e 3e 7b eb bd 62 4d 07 3e e3 1b ec 3d
       0.2153544 -0.11498116 0.13213113 0.115287565
000090 d8 8d 43 3e 15 d6 b8 3e 1d 1f 7d 3c 1f 7d 9c bd
       0.19097078 0.36100832 0.0154493125 -0.076410525
0000a0 05 e7 05 3d f3 0f cb 3e 92 87 c3 3d 3c 0f 98 3d
       0.03269102 0.39660606 0.09547342 0.07424781
0000b0 36 cb 8b 3e d7 d0 87 3d ef 90 ad bd 13 28 47 bd
       0.27303475 0.0663163 -0.084749095 -0.048622202
0000c0 fd fc b9 be bc 74 6a be cb 20 76 be 17 9b d1 bd
       -0.36325827 -0.22896093 -0.24035947 -0.10234659
0000d0 f0 d8 1f bf 8b 2e cf be e9 6f 8a 3d ad be a5 bd
       -0.62440395 -0.40465197 0.067596264 -0.08093009
0000e0 43 ce d7 bc 35 ca ee 3b c4 82 c1 3e cc 0e 62 3e
       -0.02634347 0.0072872886 0.3779508 0.22075957
0000f0 d0 08 bb bd 4b c5 bd be 21 f2 6d be cd 3b 8f be
       -0.0913254 -0.37064585 -0.23236896 -0.27975312
000100 16 96 20 be ff d5 78 3e 43 94 59 be 81 e8 86 bb
       -0.15682253 0.24300383 -0.21247964 -0.004117072
000110 65 fa 41 3e 98 9b ad be 43 46 ba 3d 81 03 8b 3e
       0.18943174 -0.3390777 0.090954326 0.2715111
000120 52 03 7c 3e a2 3a 8c 3c 33 af 86 be b5 18 8f 3d
       0.24610642 0.017117802 -0.2630554 0.06987134
000130 82 f6 c1 3c e8 97 11 be ac 22 06 be 35 1a 9f be
       0.023677114 -0.14218104 -0.13099164 -0.31074682
000140 b0 f6 cd be b3 ff 0d be f4 ae 85 be 2a 07 e0 be
       -0.4022727 -0.13867073 -0.2611004 -0.43755466
000150 aa 9a 10 3d 72 0b b0 3e bd 50 02 3f c2 1e 9d 3d
       0.03530375 0.34383732 0.50904447 0.07671882
000160 21 3f 77 3c 2f dc 8e bd 17 72 88 3d 38 08 85 be
       0.015090735 -0.069755904 0.06662386 -0.25982833
000170 4c 14 4c 3e 57 c1 72 3e a9 62 f1 be 1f db a3 3e
       0.19929618 0.23706566 -0.47145584 0.32003114
000180 aa c5 ef bd 30 19 04 be 69 29 30 3e a5 83 fe 3d
       -0.11707623 -0.12900233 0.17203297 0.12427453
000190 ac 0a 78 be 50 bf 55 be b5 09 52 be 01 8a 8b be
       -0.24222821 -0.20873761 -0.20511515 -0.27253726
0001a0 44 dd d0 3e fb 0e 7d 3e 09 f0 ea 3c 2a 5b 03 3e
       0.40793812 0.24712746 0.02867891 0.12827745
0001b0 66 2a 4f be b7 b2 91 3e 28 14 06 bd 62 e8 55 be
       -0.20231017 0.2845666 -0.032734066 -0.20889428
0001c0 d3 06 11 3e a2 b8 c1 bd cf 2a ca bd 9a 31 7e 3e
       0.1416276 -0.09459044 -0.09871446 0.24823609
0001d0 b3 e8 29 3b 2c 54 86 be 3e 52 73 3c d9 5f ff 3c
       0.0025926053 -0.26236093 0.014851151 0.031173633
0001e0 d2 e9 b4 be b3 4c ed 3c 56 ba 89 3e d1 3c ee bd
       -0.3533464 0.028967237 0.26899976 -0.116326936
0001f0 9e f9 1c be 81 9b af 3e 6a d4 a9 3e 92 45 06 be
       -0.15329596 0.34298328 0.33169872 -0.13112476
000200 f7 b1 a3 bd da 9d 8b 3e 03 50 a9 3e 0c 19 25 3e
       -0.079929285 0.2726887 0.33068857 0.16122836
000210 f7 2e 49 3e 4c ea eb 3e c7 99 72 3d 60 c8 34 3e
       0.19646822 0.46077192 0.059228685 0.17654562
000220 2a e2 6a 3e 6e bc 1f 3e a1 52 91 3e 74 63 83 3e
       0.22937837 0.15599224 0.28383353 0.25661814
000230 5c 51 de 3d b2 24 18 be 3f 65 bc 3e 96 d2 14 3d
       0.10855362 -0.14857748 0.36795995 0.036333643
000240 22 e1 98 be 9d 29 58 3d ce fa 5e 3e 27 40 86 bd
       -0.29859263 0.05277406 0.21775362 -0.06555205
000250 32 e4 0b be e6 17 25 3e 16 1b da be 7d 7d ee be
       -0.13661268 0.16122398 -0.4259879 -0.46580115
000260 29 7d 9b be d8 63 11 3e 7f 39 85 3d 8d 67 46 3d
       -0.30368927 0.14198244 0.06505107 0.048438597
000270 98 81 75 3e 4e bc a4 3e ae 80 c9 be d4 db 1e 3e
       0.23975217 0.32174915 -0.39355987 0.15513545
000280 49 6d 8d be 1d 99 90 bd cf a1 76 bd c9 3e 18 be
       -0.2762244 -0.07060454 -0.060212906 -0.148677
000290 4e 08 09 bd e5 34 19 be 42 ec 35 be c7 20 c0 bd
       -0.033455186 -0.14961584 -0.17765906 -0.09381252
0002a0 28 36 24 be 2b 90 8e be d1 72 a7 be f0 37 56 be
       -0.16036284 -0.27844366 -0.32704785 -0.20919776
0002b0 34 b9 9f be d3 34 ea be a6 46 17 bd 36 79 b2 bc
       -0.31195986 -0.45743427 -0.03693261 -0.021786314
0002c0 4d 84 37 3e ec e7 aa 3d e2 ba 8f bd d0 cd e1 3e
       0.17921562 0.08345017 -0.07018067 0.44102335
0002d0 51 86 8e 3d 9a c4 bf bd 0c 73 9d be f4 7b 0d 3e
       0.069592126 -0.09363671 -0.30751836 0.13816816
0002e0 16 6f b3 3e db 63 06 bc c4 a9 af 3d 42 f8 8b 3e
       0.3504569 -0.008202518 0.08577302 0.27337843
0002f0 d9 eb 34 3e 61 9e 89 bd 53 ea 8d 3e 4f 1a 2b be
       0.17668094 -0.067196615 0.27717838 -0.16709255
000300 d6 ab 29 3e 46 de 8b 3e 34 d7 01 bc 42 bb 72 3e
       0.16569456 0.2731802 -0.007924844 0.23704246
000310 1c 11 8e 3e 51 03 85 3e 5c 49 e1 bd 82 7a 8f 3e
       0.27747428 0.25979093 -0.1100032 0.28023154
000320 d8 25 5e be e3 02 9f be 93 86 1d 3e e6 76 8e 3e
       -0.21694124 -0.3105689 0.15383367 0.27825087
000330 30 79 68 be 0b f2 39 be 4e 95 aa 3e b6 b7 cd bd
       -0.2270248 -0.18158738 0.33317035 -0.10044806
000340 b1 af af be fb d6 1d 3b 9d 2d 3b be fc f4 15 3e
       -0.3431373 0.0024084437 -0.18279119 0.14644235
000350 63 29 8a 3e ca 6f 39 3e 64 15 87 3e 92 ba bc 3d
       0.269847 0.1810905 0.26383507 0.09215273

layers.0.bn2.weight f4 [24]
000000 4c 2f 61 3f 45 28 77 3f 79 cc 8a 3f ec 82 8d 3f
       0.87962794 0.9654582 1.084365 1.1055579
000010 80 0a 90 3f 34 37 98 3f 9c d1 9b 3f ab ed 9a 3f
       1.1253204 1.1891847 1.2173343 1.210378
000020 eb cf 6a 3f fc d2 91 3f 81 44 a2 3f 8a 1c 72 3f
       0.9172351 1.1392512 1.2677156 0.945748
000030 64 12 a7 3f e0 d6 a2 3f 9c d3 77 3f 2a e8 66 3f
       1.3052487 1.2721825 0.96807265 0.90198004
000040 21 a0 82 3f b8 46 80 3f c3 49 8e 3f d0 87 58 3f
       1.0205117 1.0021582 1.111626 0.84582233
000050 fe 22 7e 3f 8b fc 43 3f b5 95 90 3f 01 8f 72 3f
       0.99272144 0.76557225 1.1295687 0.94749457

layers.0.bn2.bias f4 [24]
000000 47 c7 19 3e e0 7b 92 3d 5b e6 21 be ce b4 81 be
       0.15017425 0.071525335 -0.1581053 -0.25333256
000010 4a 66 7f 3e d0 34 5c 3e aa ef ca bd 75 8b de bd
       0.24941364 0.21504521 -0.099089935 -0.10866443
000020 50 03 d9 bd 33 f4 a0 3d aa be 73 bd 11 a9 d8 bd
       -0.10596335 0.07859077 -0.059508003 -0.10579122
000030 b2 68 d3 3d 05 dd 6c be 7d 8f f3 3e 7b d1 a0 3e
       0.103227034 -0.23131187 0.4757041 0.3140982
000040 e9 19 3a 3e 2a c6 1d 3e 85 47 a6 3e c1 e9 7f 3e
       0.18173946 0.15407625 0.3247644 0.24991514
000050 1c 15 88 3e 00 6b 9f 3e 00 af a1 bd 00 a9 31 3d
       0.26578605 0.31136322 -0.07894707 0.04337406

layers.0.bn2.running_mean f4 [24]
000000 dd 2c e4 3d f8 76 d0 bd 78 74 45 bd 04 90 1c 3c
       0.111413695 -0.101789415 -0.048206776 0.00955582
000010 fc 7d a9 3e 3a cc f0 be 59 49 64 bd 5f 9e 84 bd
       0.3310393 -0.47030813 -0.055734012 -0.064755194
000020 85 11 c4 be 67 ee a0 3d 81 3e 0e 3c e3 89 55 3c
       -0.38294616 0.07857972 0.008681894 0.013033363
000030 05 97 38 3d 5a 04 7c bd ef f2 e9 3e 17 99 32 3e
       0.0450659 -0.061527587 0.45693156 0.17441212
000040 44 0d 4a be 1a f0 c2 3d c6 ea b5 be 4b 73 2a be
       -0.19731623 0.09518452 -0.3553068 -0.16645543
000050 37 93 95 3e 75 cf b6 3e a0 b8 89 3c 02 2a 08 3e
       0.2921388 0.35705152 0.016811669 0.13297275

layers.0.bn2.running_var f4 [24]
000000 0a a8 4a 3d bc 05 54 3d 9b 51 25 3c 3a e6 5f 3d
       0.04947666 0.05176328 0.010090257 0.05466292
000010 4d 94 87 3e 6b bd 06 3f 9b b4 ca 3d f4 52 ab 3d
       0.26480332 0.5263278 0.09897729 0.083654314
000020 e3 a5 47 3e ea 5c 8d 3e 38 ba e9 3d 45 a8 c1 3d
       0.19496875 0.2760995 0.114124715 0.09455923
000030 35 06 38 3d bd 29 8b 3d c6 2d 12 3f 86 ba d9 3d
       0.044927794 0.0679507 0.57101095 0.1063128
000040 52 14 05 3e df a2 3b 3d 1e 3f 8e 3e a8 0d 78 3d
       0.12996033 0.045809623 0.2778253 0.0605599
000050 c4 d8 08 3f 90 8d a6 3e ec b5 68 3d 40 ec 31 3e
       0.5345576 0.3252988 0.05681412 0.17375278

layers.0.conv3.weight f4 [12, 24, 1, 1]
000000 bb 7b ee bd a1 f2 8c 3e 01 92 51 3d 60 b7 23 3e
       -0.116446935 0.2752886 0.05116463 0.15987921
000010 7d d8 69 bd c3 18 da 3d e7 1a 86 3e c9 14 48 be
       -0.057091225 0.10649254 0.261924 -0.19539179
000020 91 ef 01 be 5f d6 4f 3e f2 50 9a bd e8 e6 68 3d
       -0.12689044 0.2029662 -0.0753497 0.056860834
000030 3d 83 94 bc 3e 9f 80 be 31 92 1d be 4c 4e 8d be
       -0.018128986 -0.25121492 -0.15387799 -0.27598798
000040 d8 1d 9c be 92 45 4b be eb b8 69 3e bd 85 1a 3e
       -0.3049152 -0.19850758 0.22824447 0.1509008
000050 ce 5f 4e bd 57 52 ee bd 01 05 97 3d b3 9e 45 3e
       -0.050384335 -0.11636799 0.07374001 0.1929882
000060 c3 83 e2 3c c0 40 eb bd 36 ab a2 be 33 f6 1c be
       0.02765072 -0.114869595 -0.3177125 -0.15328293
000070 11 0f 2a 3b 1d c0 37 3d 56 8b 80 3d 9c eb 53 3e
       0.0025948922 0.044860948 0.06276576 0.20695347
000080 10 11 48 3d 6b 3b 04 3e d1 28 68 3e 12 7a 98 3e
       0.048844397 0.12913291 0.2267182 0.29780632
000090 3e cb 94 3e fb 82 1b 3d 61 b2 61 be 8a 21 93 be
       0.2906131 0.03796671 -0.22040702 -0.28736526
0000a0 58 3e 61 bc 98 b2 2b 3e d9 fa 5a 3d 14 36 00 3e
       -0.013747774 0.16767347 0.053461883 0.12520629
0000b0 ba a9 32 be d6 48 b8 3d 65 e5 8d 3d 31 06 2c 3e
       -0.17447558 0.08998267 0.06928519 0.16799237
0000c0 4b 1e 26 3e 3c ab 0e 3e 1f ba 74 bd 85 77 45 be
       0.16222493 0.13932508 -0.05974781 -0.19283874
0000d0 2c 33 9a be 9a c9 a7 3c ca 32 aa 3e 63 eb 81 bd
       -0.30117166 0.020481873 0.33241874 -0.063437246
0000e0 a0 ca 05 bc 06 6a a4 3e 00 fd 81 3e d1 0d e2 bd
       -0.008165985 0.3211214 0.25388336 -0.110377915
0000f0 80 1a 70 3e 8e a8 3e bc 03 63 52 3e bb 5a 43 3e
       0.23447609 -0.011636866 0.20545582 0.1907758
000100 fd 70 da bd 4d fb 4e be 23 11 38 be 37 bc 53 bd
       -0.10666082 -0.20213051 -0.17975287 -0.051693168
000110 32 ac 1e 3d cd a1 8f bd 84 fe af 3b d7 b6 9a 3d
       0.038738437 -0.07013283 0.005370917 0.07554405
000120 42 73 b6 bc 55 d2 a0 bd 62 03 14 bd 64 21 2d be
       -0.022271756 -0.07852618 -0.03613604 -0.16907269
000130 d5 a5 db 3d 23 cd 16 3e c5 f3 8a 3e ee c6 63 3c
       0.10724989 0.14726691 0.27139106 0.013902409
000140 41 1a 81 3d a3 3e ad 3d 1c 93 aa 3e ca ad 36 be
       0.06303836 0.08459213 0.3331536 -0.17839733
000150 70 4a a8 3e 6c 55 1e be ef b8 87 be 0f 36 f2 bd
       0.3286929 -0.15462273 -0.2650828 -0.11826717
000160 fa 7b 40 3e f5 53 22 3d 6b 85 a6 3e 9d bf 21 3e
       0.18797293 0.03963085 0.32523665 0.15795751
000170 e2 c9 81 3e 2e 11 8e 3d 06 45 e5 3d f9 65 19 3e
       0.25349337 0.069368705 0.11194806 0.14980306
000180 00 90 ff 3c 8d 4d 76 bd 2e 0c 87 bd cf fc 33 be
       0.031196594 -0.060132552 -0.0659412 -0.17576908
000190 16 9f 4e 3e 0b f3 4a 3d 2d 5f 0c be 4c 18 81 3e
       0.20177874 0.04954819 -0.13708182 0.2521385
0001a0 3b e9 05 3e 27 44 32 be 68 c8 08 3e e4 89 38 3d
       0.13077252 -0.1740881 0.13357699 0.045053378
0001b0 09 6c b7 3d 6f ec 46 3e a5 90 87 3e 20 3b 09 3e
       0.08956153 0.1942613 0.26477543 0.1340146
0001c0 a2 ab 19 be fa c8 87 3d 1b 2a 6a be 83 83 32 be
       -0.15006879 0.0663013 -0.22867624 -0.1743298
0001d0 ba 20 9e be e6 cc 5b bd cd 40 58 3e 17 fe 7a 3e
       -0.30884343 -0.053662203 0.2111847 0.2451099
0001e0 dd 3a 66 be 9d 10 92 bd 6a 5c 1b bc 36 a8 4d 3c
       -0.22483392 -0.07132075 -0.009482482 0.012552312
0001f0 2e bc c6 bd 24 9d 92 3b f0 9a 7d be c9 75 8d bd
       -0.09703861 0.004474299 -0.24766135 -0.06907231
000200 52 f2 73 3e 42 78 fc bd 7b 87 08 3e ca 5a 99 3c
       0.23822907 -0.12327625 0.13332932 0.01872005
000210 69 ca 29 3e a4 18 1e 3e 37 3f 07 3e f2 f4 a3 3d
       0.1658112 0.15439087 0.13207708 0.08005704
000220 29 eb 33 3d de 4c 87 bd 7d 83 bd 3d 88 86 86 3e
       0.043925438 -0.06606458 0.09253595 0.26274514
000230 dc 3a 01 be 64 fc c7 be e0 21 91 3e b4 73 7b be
       -0.1262011 -0.39059746 0.28346157 -0.24555856
000240 19 b5 87 3b d3 24 b1 3d a6 0f 03 3d 7d 9c a6 3e
       0.0041414616 0.08649602 0.031997345 0.32541266
000250 29 bf 0f 3e cd ca 57 be d7 3c 91 bd 9c 6c 13 be
       0.14037766 -0.21073456 -0.070916824 -0.143969
000260 6c b5 96 ba 8e 1e 8e 3d 1a b0 a0 3e 49 d3 46 be
       -0.001149816 0.069394216 0.31384355 -0.19416536
000270 6c 51 b2 3e 75 bb 07 3e 23 09 71 be 18 0f 69 be
       0.34827745 0.13255103 -0.23538642 -0.22759664
000280 e4 bb 8a bd f9 a2 14 be 14 12 3a be 19 7d 4f be
       -0.067741185 -0.14515294 -0.18170959 -0.20262565
000290 00 71 9b bc f3 92 5c 3b 57 50 48 3e 63 35 76 3c
       -0.018974781 0.0033656924 0.19561897 0.015027377
0002a0 fc ee 1d 3e 66 b2 63 bd 1e 99 d7 be 90 3c 9e be
       0.15423197 -0.055590056 -0.42109007 -0.3090558
0002b0 28 cf 32 3e 90 eb 83 3e 58 aa 05 3d 03 49 99 bd
       0.17461836 0.25765657 0.032633156 -0.07484629
0002c0 31 65 bc 3e bf a6 49 3d 34 f3 09 be 99 7b 75 bd
       0.36795953 0.049231287 -0.13471681 -0.059932325
0002d0 81 02 cd bd e2 b3 ff 3c d5 3c 33 3c c2 93 97 3d
       -0.10010243 0.031213704 0.010939796 0.074012294
0002e0 e8 9f 1c 3e 2c 6c 82 be 88 94 d0 3d b3 5b ec bd
       0.15295374 -0.25473154 0.1018458 -0.11540928
0002f0 ae 25 b4 bc 5f 6e df 3c a3 5a cc be 37 d3 86 bd
       -0.021990623 0.027274309 -0.399129 -0.06583255
000300 af f2 22 3e 11 35 37 be 87 60 99 3e 08 15 af 3e
       0.15912889 -0.17891337 0.29956457 0.34195733
000310 cc 21 4e be 4c 4a a6 3d 14 dc ad 3c b8 f8 ad bd
       -0.2013008 0.0811964 0.021223105 -0.08494705
000320 d0 64 cb 3d c0 18 b5 bd a9 e7 1a be e8 84 86 be
       0.09931338 -0.08842611 -0.15127434 -0.26273274
000330 5d 41 04 be a7 06 16 3e 50 87 93 bd 1c b0 57 be
       -0.12915559 0.14650975 -0.07203543 -0.21063274
000340 b4 6c 50 3e 7c 49 a2 bc be 22 f2 bc 86 48 77 3e
       0.20353967 -0.01981043 -0.029557582 0.24148759
000350 d4 91 a2 be 09 58 b6 3d 41 4f 0e be 1b 90 8a 3e
       -0.31751883 0.0890351 -0.1389742 0.2706307
000360 6f fb a3 3c 22 b1 5b 3e 8f 4d 58 3e 93 da 15 3e
       0.020017354 0.2145429 0.21123336 0.1463416
000370 83 12 aa bc 4d 3b 0b 3f 6d 8a 11 3d f0 e1 20 be
       -0.02076078 0.5438736 0.035532404 -0.15711188
000380 03 56 71 3d e9 20 ad 3d 48 a6 da be ee 6c 33 3e
       0.058919918 0.08453543 -0.42704988 0.17522022
000390 40 26 a8 be 1d 9b 59 3d 88 2b 5e bc f9 d9 f2 3c
       -0.32841682 0.053126443 -0.013560183 0.029644953
0003a0 23 0a 60 3e fc 8e d0 3d 8b 25 90 3e 6c ab 03 3e
       0.21878867 0.10183522 0.28153643 0.12858361
0003b0 40 f1 69 3e 45 4f 1e 3e f6 59 24 3e 9c 07 dd 3d
       0.22845936 0.15459926 0.16049942 0.10792467
0003c0 eb a8 e4 bd 86 7f dd bd ef fc f5 bd c6 50 dd bd
       -0.11165031 -0.10815339 -0.12011134 -0.10806422
0003d0 6e c2 1c be a5 c0 57 3e d0 6a 6b 3d 27 1a 49 be
       -0.15308544 0.21069582 0.05747491 -0.19638883
0003e0 e8 73 36 bd 3a 66 13 bd 88 e4 16 3e b3 ea dc bd
       -0.04454413 -0.035986163 0.14735615 -0.10786953
0003f0 e9 6d dd 3d a4 6a 41 be 26 49 3a 3e 37 c8 90 3d
       0.10811979 -0.18888336 0.18191966 0.07069438

layers.0.bn3.weight f4 [12]
000000 d1 b6 69 3f 82 6f 7c 3f fb 36 86 3f 3a b1 8b 3f
       0.9129458 0.9860765 1.0485529 1.091346
000010 cd 60 8d 3f 73 65 78 3f 6d 95 86 3f 65 2d 7c 3f
       1.1045166 0.970298 1.0514351 0.98506767
000020 65 67 70 3f bf 52 9b 3f c6 28 62 3f b5 40 75 3f
       0.9390777 1.2134627 0.88343465 0.9580186

layers.0.bn3.bias f4 [12]
000000 ef be b1 bd 09 a6 d2 bc 41 16 5c bd 17 2c e4 3c
       -0.08678996 -0.025713937 -0.05373216 0.027853055
000010 bc e1 99 3c e0 6d 02 3e 3f e3 76 3d 5e 93 59 3d
       0.018784396 0.12737226 0.060275313 0.053119056
000020 4d 09 c1 bd b7 d1 1e bd 2c dc de 3d f0 4d a3 bd
       -0.09425602 -0.03877422 0.10881838 -0.0797385

layers.0.bn3.running_mean f4 [12]
000000 30 e5 76 bd fd 2d 85 3e a7 ba 57 3e 0e 20 49 3f
       -0.060277164 0.2601165 0.21067296 0.78564537
000010 c8 e0 e3 3d 71 67 68 3a 4c 72 3c be 26 4c 54 bd
       0.11126858 0.00088655116 -0.18402976 -0.051830433
000020 e6 a8 32 bd ed f1 5d 3f a4 34 8b 3e e0 e6 5f 3d
       -0.043618105 0.86697274 0.271886 0.05466354

layers.0.bn3.running_var f4 [12]
000000 80 4a 9c 3e f5 6c 81 3e 95 57 8e 3e 72 47 6d 3e
       0.3052559 0.2527844 0.27801195 0.23171785
000010 e3 ee 01 3f 3d 72 cc 3e 21 c4 86 3e b3 2a ab 3e
       0.5075514 0.39930907 0.2632151 0.33431014
000020 b1 fe de 3e f8 fa d5 3e 16 ec 5c 3e 4c ec a1 3e
       0.4355369 0.41793036 0.21574435 0.31625593

layers.1.conv1.weight f4 [24, 12, 1, 1]
000000 d0 bf 16 be 6b fc 9d bd 46 4c 01 3e 15 c8 19 3d
       -0.14721608 -0.077141605 0.12626752 0.03754433
000010 0d 19 09 3e 2e ca 21 be a5 79 ca be cf 6f 47 be
       0.13388462 -0.15799782 -0.39545932 -0.19476245
000020 d6 a4 5f bc e1 4b 7d 3c 9b fa 8c 3e 6e 4e 70 3d
       -0.01365014 0.0154599855 0.27534947 0.058668546
000030 d0 23 ab be 09 57 17 3e 40 44 cc 3d 86 39 63 3e
       -0.3342576 0.14779295 0.09973955 0.22189912
000040 22 a3 a5 be 97 36 6b be 33 13 e3 3d ee 1c 94 3d
       -0.32351023 -0.22970043 0.11087646 0.072320804
000050 ef 5e 05 3e d3 9f cb 3d 6b b3 69 be 0f 96 f9 3d
       0.13024496 0.099425934 -0.22822349 0.121868245
000060 b9 7b db 3d 2e 51 fb bc cf ca 7b bc 3f c8 8d 3e
       0.107169576 -0.030678358 -0.015368178 0.27691838
000070 9e a6 13 bb 46 24 76 3d 5d 42 9e be 46 51 9b be
       -0.0022529732 0.060093187 -0.30910006 -0.30335444
000080 d2 08 b9 3d aa e5 8f 3d 7c 79 03 bf 38 84 42 be
       0.090348855 0.07026227 -0.51357245 -0.1899575
000090 f8 d7 43 3e 5d e4 1a 3d 96 16 74 3e 1d 13 f3 bd
       0.19125354 0.03781544 0.23836741 -0.1186888
0000a0 c8 2a e4 3d c6 31 8b 3e 50 b2 21 be 6d e5 4d be
       0.111409724 0.27186412 -0.15790677 -0.2010705
0000b0 34 6c 90 3e a6 cf 1e be 66 46 12 bd 01 7f 39 be
       0.28207552 -0.15508899 -0.03571167 -0.18114854
0000c0 1b b8 de 3d 52 46 9c 3e 31 ad 89 bb 4d b7 b1 3e
       0.10874959 0.305224 -0.004201554 0.3471016
0000d0 51 dd 8c 3d 01 82 5a 3e 3d 56 d5 3e ec c3 94 be
       0.0687815 0.21338655 0.41667357 -0.29055727
0000e0 03 e4 13 be 82 6d c5 ba 35 81 71 3b 90 b5 06 be
       -0.14442448 -0.0015062543 0.0036850695 -0.13155198
0000f0 7d e1 45 be 22 67 0a be a2 f1 90 be 4d 92 a3 3d
       -0.19324298 -0.13515905 -0.2830935 0.07986889
000100 ab 85 2c 3d da d6 d1 bc 5d f2 72 3e 80 30 79 3e
       0.042119663 -0.025615145 0.23725267 0.24334908
000110 b3 17 84 be eb 79 76 bc 37 d9 4c be 5a 5c 73 3e
       -0.2579933 -0.015043716 -0.20004736 0.23765698
000120 26 ec 8f 3d e7 bc 35 be 5c ba ad be ce a4 02 bf
       0.070274636 -0.17747842 -0.33931243 -0.5103272
000130 3f f4 1e 3e 70 d1 e9 bd a7 a0 c1 3a a2 19 83 be
       0.1552286 -0.114169 0.001477261 -0.25605494
000140 ad 69 b7 3e d3 57 95 3d d4 bd 53 be 9a d9 86 3d
       0.35822812 0.07292142 -0.20677882 0.06584473
000150 3d 31 8e 3e 0e 7d 15 be fe d7 c6 bd 68 77 b4 3d
       0.2777194 -0.14598486 -0.09709166 0.088118374
000160 68 d5 3f 3e 6a 87 00 bd 73 e5 1b be 0e 87 09 3f
       0.18733752 -0.03137914 -0.15224247 0.537217
000170 61 cc 86 3e 1b 7b b9 3e c9 3a 9c 3d 36 9a 77 bd
       0.26327804 0.36226735 0.076284 -0.0604498
000180 b1 ec d1 3d a2 25 ac be d5 4f 9e 3e 94 87 82 be
       0.102502234 -0.33622462 0.30920282 -0.25494063
000190 26 1c 8c be c9 07 fa bd 35 44 01 3e 25 52 96 be
       -0.27365226 -0.12208516 0.12623675 -0.29359546
0001a0 e8 3c 82 3d 54 5e 0f 3c 83 2c 8d 3e d8 1b bc bd
       0.06359273 0.008750517 0.27573022 -0.09184998
0001b0 2e 47 bc 3e 22 b2 5e bd 01 2a 04 be 11 c9 3b 3e
       0.36773056 -0.0543691 -0.12906648 0.1833842
0001c0 46 a2 b4 be de 24 4f 3e 56 91 aa 3e 4b d1 4e be
       -0.35280055 0.20228907 0.33314008 -0.20197026
0001d0 53 32 52 3e e1 28 9b be 16 45 48 3e 92 4b 9f 3e
       0.2052701 -0.30304626 0.19557604 0.31112343
0001e0 13 04 8c bc 93 2e ca 3d 08 30 d7 3d 2b a2 49 be
       -0.017091786 0.098721646 0.10507208 -0.19690768
0001f0 3d 72 57 3b 3c 37 ad bc c1 3a 44 3d bc f6 f4 bd
       0.0032874488 -0.021144502 0.047907595 -0.11961123
000200 e7 ac e4 be 5f 82 94 3e dc 19 bc 3c bd b6 df 3e
       -0.44663164 0.29005715 0.02296155 0.43694106
000210 09 6b 55 bd c8 7e dd 3d 16 ee f0 3d fb ab db bd
       -0.05210403 0.10815197 0.11764161 -0.10726162
000220 16 e6 de 3e 58 b5 31 be ef 52 5c 3e 4c 95 82 be
       0.43534917 -0.17354333 0.21516012 -0.2550453
000230 ef ad 0b be 8f 22 a5 be 77 fe 3a be 6b 44 2b 3e
       -0.13640569 -0.3225293 -0.18261133 0.16725318
000240 30 87 f6 3d 6f 3b 94 be 9c 9c 09 3d 38 c4 59 bd
       0.12037504 -0.28951594 0.03359662 -0.053165644
000250 79 f6 a3 be da 14 f7 3c 12 0b d1 bd 78 8a 21 3e
       -0.3202398 0.03016131 -0.102071896 0.15775478
000260 a3 3f 84 bd 0f 13 2e 3c 6c d8 a1 be 1c 7c b0 be
       -0.0645745 0.010624661 -0.3161043 -0.34469688
000270 a9 75 81 be 4a c9 8f bd 10 9f 17 be 01 e4 56 bd
       -0.2528508 -0.07020815 -0.14806771 -0.052463535
000280 a5 b8 ab 3d 9e e5 81 3d dd 25 c1 3e 2a 90 80 3e
       0.083848275 0.06342624 0.377242 0.25109988
000290 5d da 98 3e 79 e1 06 38 1c ac 81 bd 0a 0f ba be
       0.29854098 3.2158077e-05 -0.063316554 -0.363396
0002a0 c7 a6 46 3e 96 10 bb 3e 5b d1 d5 3e cc 26 ae 3e
       0.19399558 0.36536092 0.41761288 0.34013975
0002b0 27 f0 32 bd 03 42 33 be ce a1 2a 3e 59 6a 11 3e
       -0.04368606 -0.1750565 0.16663286 0.14200725
0002c0 30 89 00 3d 2d af 8f be 62 0e ed 3b 34 47 fa bd
       0.031380832 -0.28063336 0.0072343806 -0.12220612
0002d0 d5 0e ee bc e4 a7 9e be aa ec 21 3e b8 d9 51 be
       -0.029059807 -0.30987465 0.15812936 -0.2049321
0002e0 98 a8 92 3e 72 d2 d5 3e 92 aa b5 bd 86 85 e4 bc
       0.28644252 0.4176212 -0.08870424 -0.0278957
0002f0 e9 f3 63 be 2a fb 85 bd 35 46 f5 3d 78 f1 77 3e
       -0.22261013 -0.06542046 0.119762816 0.24213207
000300 22 af 5d be 62 79 98 3e 20 85 76 be 0a 61 13 be
       -0.21648839 0.29780108 -0.2407422 -0.14392486
000310 c5 b4 65 3e 56 18 a6 3e 8f 77 2f bd 11 8b 79 bd
       0.2243224 0.32440442 -0.04283863 -0.06092364
000320 b1 16 bc bd 0c c4 ab be 25 70 7c 3e e8 be 60 be
       -0.091840155 -0.3354801 0.24652155 -0.21947825
000330 84 fe 72 3e 94 65 70 3e 44 66 34 be ea 85 5e bc
       0.23729903 0.23476249 -0.17617136 -0.013581732
000340 70 ff e5 be 4e 68 30 be 1a b1 51 bd f9 c5 0c 3e
       -0.44921446 -0.17227289 -0.051194288 0.13747396
000350 5c d2 17 bd 0b 80 cf 3e 2c 50 4e bc 69 b0 85 bd
       -0.03706585 0.40527377 -0.012592357 -0.06527788
000360 cb 30 4a 3d 8c 3b 9a 3e 72 9d bb 3c 16 c0 87 be
       0.04936294 0.30123556 0.022902224 -0.26513737
000370 9d 9c 3d 3e ec c0 21 be 16 ee 9e 3c c2 dd 9e bd
       0.18516774 -0.1579625 0.019400638 -0.07757141
000380 42 65 37 3e 09 2b 01 3e 1a 57 39 be ea 0a c4 3e
       0.1790972 0.12614073 -0.18099633 0.38289577
000390 8d 2f 10 3d 17 99 97 3d 27 cd cc 3d e2 b8 05 bf
       0.035201598 0.074022464 0.10000067 -0.52235234
0003a0 13 6b 63 3d 66 5d ea 3d cf 98 da 3c a5 f5 85 3e
       0.055522036 0.114435956 0.026684193 0.26163974
0003b0 2e d2 2f bd 26 75 88 be 99 6e 7e be 3c 2c bd 3d
       -0.042925052 -0.26651877 -0.24846877 0.09236953
0003c0 26 8e dd bd bf e3 75 be 63 f7 a8 3e 4c 96 6f be
       -0.10818128 -0.2401266 0.3300124 -0.23397177
0003d0 dc 92 61 bd fe 78 11 3e da 76 6d bb 0b 6c f5 3c
       -0.055071697 0.14206311 -0.003623417 0.029958745
0003e0 e2 38 ae 3d bf 53 46 be 19 f0 5a be 38 1a be 3e
       0.08506943 -0.19367884 -0.21380652 0.37129378
0003f0 e4 ce 13 3e f6 d6 ff 3d 78 1a 3d bd 0e ae b3 3e
       0.14434391 0.124921724 -0.04616782 0.3509373

layers.1.bn1.weight f4 [24]
000000 b5 01 78 3f 70 a7 71 3f 45 43 74 3f d9 5f 12 3f
       0.96877605 0.94396114 0.95415145 0.571775
000010 c2 eb 0d 3f bb 7b b5 3f a1 6b 9b 3f d6 d7 dc 3e
       0.5543786 1.4178385 1.2142221 0.4313342
000020 dc 7c 87 3f 28 55 f3 3e 39 93 83 3f d3 b2 05 3f
       1.0584979 0.47525907 1.0279304 0.5222599
000030 83 27 49 3f 19 21 97 3f 19 29 e2 3e cf 1c 71 3f
       0.78575915 1.1806976 0.4417198 0.94184583
000040 b8 02 1e 3f 9c b2 8c 3f 54 02 a1 3f 28 bd 79 3f
       0.617229 1.0992007 1.2578835 0.97554255
000050 74 c7 41 3f 37 20 14 3f 9f 28 64 3f c9 fe 8e 3f
       0.75694966 0.57861656 0.8912448 1.1171504

layers.1.bn1.bias f4 [24]
000000 fa a8 24 3e ad 44 a3 3e dc b3 77 bd 80 42 ed 3e
       0.16080084 0.31888333 -0.06047426 0.46339798
000010 93 4f f0 3e f5 4e 2a be cd 95 d0 3e 20 a1 f9 3e
       0.4693571 -0.16631682 0.4073929 0.4875574
000020 5a 5c ce bc 8a 82 e4 3e 99 c3 32 3d b9 21 0f 3f
       -0.025190521 0.44630843 0.043643568 0.5591083
000030 cb 59 5d 3e 0d c3 8f 3c eb d0 1e 3f bb 79 2d 3e
       0.21616285 0.017549062 0.62037534 0.16940968
000040 52 d8 a8 3e 94 40 97 3d 90 5c 36 3f f5 af 00 3d
       0.3297754 0.07385364 0.7123499 0.031417806
000050 91 12 ed 3d b3 a7 c3 3e 00 89 4c 3e a9 9f cd 3d
       0.11575807 0.38213882 0.19974136 0.100402184

layers.1.bn1.running_mean f4 [24]
000000 2c 85 94 bc c3 0d 49 bd 5f bd a1 bd ad d8 db bc
       -0.018129908 -0.04908539 -0.07897448 -0.026836718
000010 b4 14 67 3d 47 22 3f 3d b6 5f b1 bd cc 1f 9a bc
       0.05641623 0.04666355 -0.086608335 -0.01881399
000020 6c a9 b5 bc f8 9f 9c ba 2e 87 af bc 2a c4 fa bc
       -0.022175513 -0.001194953 -0.021426763 -0.030611116
000030 52 26 09 bc 55 ae 92 3d 7e d0 ce bc 37 ee 82 3d
       -0.008370953 0.071621574 -0.025245901 0.06393092
000040 d3 5a 02 3e 6e b2 51 bd fe 02 e7 bd bb 73 61 bc
       0.12729959 -0.051195554 -0.112798676 -0.013760502
000050 6a b8 3a bd e1 fa 16 bd b4 67 0b bd 9b 85 26 b9
       -0.045586027 -0.03686035 -0.034034446 -0.00015880766

layers.1.bn1.running_var f4 [24]
000000 f4 59 9c 3e 3c 37 9e 3e 98 58 b9 3e 6b 64 86 3e
       0.3053738 0.30901515 0.36200404 0.26248488
000010 c9 1d 88 3f bb 62 a9 3e cf e0 6e 3f 98 66 7f 3f
       1.063409 0.33083138 0.9331178 0.9976592
000020 ae 8d fb 3e 91 16 3b 3f 9d 69 f2 3e df ea b4 3f
       0.4913153 0.7308131 0.47346202 1.4134177
000030 68 dd 0a 3f b3 fe 16 3f 10 a3 7b 3f d9 f4 3e 3f
       0.5424409 0.5898239 0.9829569 0.7459236
000040 08 f8 99 3f a5 d1 b6 3f ec 16 b3 3e b8 e4 0f 3f
       1.2028818 1.4282728 0.34978426 0.5620837
000050 9f 96 08 3f e0 93 47 3f 48 e3 86 3f 39 12 f6 3e
       0.5335483 0.77960014 1.0538111 0.48060778
