Project/Project_files/ckpt/mobilenetv2_19_2_stem/mobilenetv2_19_2_stem_5.pt (torch, 36779 bytes, 52 tensors)

conv1.weight f4 [24, 3, 3, 3]
0	0xbddf7ae3	-0.10912111
1	0xbe290e9d	-0.16509481
2	0xbcb23d4c	-0.021757744
3	0x3df1dceb	0.11809715
4	0xbda41c30	-0.08013189
5	0x3e168e55	0.14702733
6	0xbe00dde2	-0.12584642
7	0xbe3aa7f2	-0.18228129
8	0xbd930894	-0.071793705
9	0x3e149f75	0.14513953
10	0x3e1ee07d	0.15515323
11	0xbd27f691	-0.04100663
12	0xbd4e8874	-0.0504231
13	0x3d8dadf5	0.06917945
14	0xbe22ccf3	-0.15898494
15	0x3dd7297d	0.1050596
16	0x3dbbace4	0.09163836
17	0xbe110630	-0.14162517
18	0x3e27c869	0.16385044
19	0x3e6a2670	0.22866225
20	0x3e6c9553	0.23103838
21	0x3e1424f6	0.14467224
22	0x3e18c8c9	0.14920343
23	0x3d9007a8	0.0703271
24	0xbdfed680	-0.124432564
25	0xbda84f20	-0.08218217
26	0x3d7c573a	0.061606623
27	0x3e1aa82a	0.15103212
28	0xbb1292b6	-0.0022365279
29	0xbe174542	-0.14772514
30	0x3d633f26	0.055480145
31	0xbe27298c	-0.16324443
32	0x3dadcb81	0.08486081
33	0x3d8ed40a	0.06974037
34	0x3df35533	0.11881485
35	0xbe03051b	-0.12794916
36	0x3d97623c	0.073917836
37	0x3e328a0a	0.1743547
38	0xbe1aad4d	-0.15105172
39	0xbe1be943	-0.15225701
40	0xbe1339ee	-0.14377567
41	0x3d8cb702	0.068708435
42	0xbdb7e539	-0.089792676
43	0x3e5112c6	0.20417318
44	0xbe5d68de	-0.21622035
45	0xbd334c8d	-0.043774176
46	0xbd20b8af	-0.039238628
47	0xbd03845d	-0.032108653
48	0xbc5930f2	-0.013256298
49	0x3e1af8c1	0.15133955
50	0x3cf0a88f	0.02937725
51	0xbe515c1a	-0.2044529
52	0x3e17a59f	0.14809273
53	0xbd98f5ba	-0.074687436
54	0xbd7d65b3	-0.061864566
55	0xbe46752d	-0.19380637
56	0xbdfa508f	-0.122223966
57	0xbd11a07c	-0.03555344
58	0x3df32ab8	0.11873382
59	0xbe178143	-0.14795403
60	0x3e39f547	0.18159972
61	0xbd460262	-0.048342116
62	0x3e58e6a0	0.21181726
63	0xbd3f871e	-0.046759717
64	0xbbecaf98	-0.007223081
65	0xbe321be0	-0.17393446
66	0xbd04e4f3	-0.032444905
67	0xbe637f01	-0.22216417
68	0xbe55bf7f	-0.20873831
69	0x3dcce540	0.100046635
70	0xbd48e4db	-0.04904638
71	0xbe4e265b	-0.20131819
72	0x3ddd3286	0.10800652
73	0xbd102839	-0.03519461
74	0xbdc376d7	-0.09544151
75	0x3da09f19	0.078428455
76	0xbdf660d9	-0.12030191
77	0x3d9f5045	0.07778982
78	0x3e16f5d6	0.14742216
79	0xbd12fcfa	-0.03588579
80	0x3e44521e	0.1917195
81	0x3e847a5e	0.2587461
82	0xbdad7cfc	-0.084711045
83	0x3cce099e	0.02515107
84	0x3df6b4a5	0.12046174
85	0xbd998e0d	-0.07497797
86	0xbb294ba8	-0.0025832448
87	0x3c77133e	0.015080271
88	0xbe1b3aa8	-0.15159094
89	0xbdd179e4	-0.10228327
90	0xbdd3775a	-0.10325499
91	0xbd204c7b	-0.039135437
92	0x3dc45cb1	0.09587992
93	0xbd760f58	-0.060073227
94	0x3bbdfb7f	0.005797803
95	0x3e2ea6b2	0.17055777
96	0x3e13ad8d	0.14421673
97	0x3df713f4	0.12064353
98	0xbe2ee50f	-0.17079566
99	0x3c4fdc96	0.012686869
100	0xbcf3335e	-0.02968758
101	0x3dcb69e7	0.09932309
102	0xbd88e99f	-0.06685185
103	0xbe41d169	-0.1892754
104	0x3df448e7	0.119279675
105	0xbce049fc	-0.027379028
106	0x3db41b61	0.087942846
107	0xbc50fa84	-0.01275504
108	0x3dacd9d8	0.08439988
109	0x3d3a4c8c	0.045483157
110	0x3c0fc415	0.008774777
111	0xbe23d42e	-0.15998909
112	0xbdd849c6	-0.10560946
113	0x3dab5ef1	0.08367718
114	0xbe350473	-0.17677478
115	0xbe252438	-0.16127098
116	0x3d4f5eea	0.050627626
117	0x3d92eebe	0.07174443
118	0xbe01db42	-0.12681296
119	0xbd94f6e6	-0.07273655
120	0xbd042c6d	-0.03226893
121	0xbdf23fcf	-0.11828577
122	0x3d655db6	0.055997573
123	0xbde541b3	-0.11194172
124	0xbe00ecf9	-0.12590398
125	0x3dd50837	0.104019575
126	0xbd666947	-0.056252744
127	0x3df0d518	0.117593944
128	0x3df1f67a	0.1181459
129	0xbb0513fe	-0.0020306106
130	0x3d25f6e8	0.04051867
131	0x3e6022a7	0.21888219
132	0x3dc3ef21	0.095670946
133	0x3dfd4e46	0.12368445
134	0xbe0f6eac	-0.14007062
135	0xbe54f942	-0.2079821
136	0x3ddb2bd8	0.10701722
137	0xbe29c028	-0.16577208
138	0xbe3118df	-0.17294644
139	0x3bb74ee6	0.005594122
140	0xbdb494d2	-0.08817448
141	0x3e1980e1	0.1499057
142	0x3ddc8307	0.10767179
143	0xbe283b07	-0.16428767
144	0xbd5673e7	-0.052356627
145	0x3df6ced6	0.120511696
146	0x3e017cf8	0.12645328
147	0x3d075c30	0.0330469
148	0x3e02b7e5	0.12765463
149	0x3dd36cee	0.10323511
150	0xbdbb8d89	-0.09157855
151	0x3d87ba62	0.066273466
152	0xbdd2f37e	-0.10300349
153	0x3c2dce25	0.010608231
154	0xbd84634d	-0.064642526
155	0xbb84184f	-0.004031218
156	0xbd6bb619	-0.05754671
157	0xbaeaf8f2	-0.0017926975
158	0xbd7a321e	-0.06108295
159	0x3d81e5d0	0.063426614
160	0x3dbea788	0.09309298
161	0xbd57ada9	-0.05265585
162	0xbe39131e	-0.18073699
163	0xbd699686	-0.057028316
164	0x3c1138b7	0.0088636195
165	0x3ddb6073	0.107117556
166	0x3db24db8	0.0870623
167	0x3d9324ac	0.07184729
168	0x3e0c184c	0.13681144
169	0xba1082f4	-0.00055126776
170	0xbd635e01	-0.05550957
171	0xbe10baf0	-0.14133811
172	0xbdd3e31b	-0.10346051
173	0x3da36008	0.07977301
174	0x3d01a961	0.031655673
175	0x3c727940	0.014799416
176	0x3d83b770	0.06431472
177	0x3d760fd5	0.060073692
178	0x3e60da63	0.21958308
179	0x3e13b098	0.14422834
180	0x3e1233c1	0.14277555
181	0xb895e384	-7.147252e-05
182	0xbdcdfa07	-0.100574546
183	0xbe02dcd0	-0.12779546
184	0xbe213591	-0.1574309
185	0xbe496edb	-0.19671194
186	0xbe1428a1	-0.14468624
187	0xbda2d000	-0.07949829
188	0xbe2a3c91	-0.16624667
189	0xbe064c3a	-0.13115016
190	0xbd712262	-0.05887068
191	0x3e00614f	0.1253712
192	0xbe0c910e	-0.13727209
193	0xbd18ce83	-0.03730632
194	0xbe1308ac	-0.14358777
195	0x3e20a407	0.15687571
196	0x3d6ff135	0.058579642
197	0x3dc12929	0.09431679
198	0x3b35efbc	0.00277613
199	0xbe7c35b2	-0.24629858
200	0xbbcac95f	-0.006188556
201	0xbe4e436c	-0.20142907
202	0xbdfa2dde	-0.1221578
203	0xbd9438e8	-0.072374165
204	0x3e168666	0.14699706
205	0x3e0ccb5d	0.13749452
206	0x3e243971	0.16037537
207	0x3bf8ad6c	0.007589033
208	0x3d29bef6	0.04144188
209	0xbd0de690	-0.03464371
210	0xbd90da8a	-0.07072933
211	0x3d97fe12	0.07421507
212	0xbd0c0fa6	-0.03419461
213	0x3df83956	0.12120311
214	0x3e3c2273	0.18372516
215	0x3e536738	0.20644844
216	0xbe03b4bc	-0.12861913
217	0xbdc48aec	-0.0959681
218	0xbe2ec07d	-0.17065616
219	0xbe1a9ccb	-0.15098874
220	0x3de8f1ed	0.11374269
221	0x3c25aa0f	0.010111346
222	0x3e3b5f6e	0.18298122
223	0xbd848247	-0.06470161
224	0x3c30c2ce	0.010788633
225	0x3d2eba0b	0.042657893
226	0xbdc7cd49	-0.09755952
227	0x3d91d270	0.07120216
228	0x3bf4a89c	0.007466389
229	0x3e081de2	0.1329265
230	0x3e1c73ad	0.15278502
231	0xbd9b7c49	-0.07592065
232	0x3cc81ff3	0.024429297
233	0x3e847b97	0.25875542
234	0x3e0d5f93	0.1380599
235	0xbe29ed2c	-0.1659438
236	0xbd97954f	-0.07401525
237	0x3e3390bd	0.17535682
238	0x3d5ce6c4	0.053931013
239	0xbcda1d60	-0.026625335
240	0xbdfb8e37	-0.12282985
241	0xbe1f23b0	-0.15540957
242	0x3e0ce2de	0.13758418
243	0xbd074f2e	-0.033034496
244	0xbe83caa0	-0.25740528
245	0xbd9ddab0	-0.07707727
246	0x3e478760	0.19485235
247	0xbe1a8421	-0.15089466
248	0x3e508beb	0.20365874
249	0x3e11d896	0.14242777
250	0x3e01c1aa	0.12671533
251	0xbdcbbe8e	-0.09948455
252	0xbcf1aa4b	-0.029500147
253	0x3da8b321	0.08237291
254	0x3d34b754	0.044120148
255	0x3d41b2a1	0.047289494

bn1.weight f4 [24]
0	0x3f7912eb	0.9729449
1	0x3f77e4cf	0.9683351
2	0x3f761364	0.9612334
3	0x3f83628f	1.0264453
4	0x3f75ec9e	0.96064174
5	0x3f8990a4	1.0747266
6	0x3f8188b6	1.0119846
7	0x3f8cd6ce	1.1003053
8	0x3f7cd0f8	0.9875636
9	0x3f786c49	0.9704023
10	0x3f76e59a	0.96444094
11	0x3f7ab91b	0.979387
12	0x3f683386	0.9070362
13	0x3f853fe8	1.0410128
14	0x3f8eacc4	1.1146474
15	0x3f80e69a	1.0070374
16	0x3f6767d8	0.9039283
17	0x3f7b2187	0.98098034
18	0x3f7ca7e7	0.986937
19	0x3f6e72b1	0.93143755
20	0x3f8286b5	1.0197359
21	0x3f840ac5	1.0315787
22	0x3f806f8f	1.0034045
23	0x3f8e519c	1.1118655

bn1.bias f4 [24]
0	0x3bb3863a	0.0054786475
1	0xbd6bd8c8	-0.057579786
2	0x3cce6905	0.025196562
3	0xbbb61b40	-0.0055574477
4	0x3c427a24	0.011869941
5	0xbd5ca3c9	-0.053867135
6	0x3c336a54	0.010950644
7	0xbd343792	-0.04399831
8	0xbaa0f818	-0.0012280969
9	0xbba3491c	-0.0049830806
10	0x3d4d9159	0.050187442
11	0xbc3eb9e7	-0.011641002
12	0xba356b29	-0.000692057
13	0x3b0daaa9	0.0021616614
14	0x3caa7939	0.020809757
15	0x3a9c413d	0.0011921298
16	0xbd0a8241	-0.033815626
17	0xbbc75a19	-0.0060837385
18	0xbc823ead	-0.015899027
19	0xbc26da4b	-0.010183881
20	0x3c135792	0.008993046
21	0x3d876e60	0.06612849
22	0x3bb0dd6a	0.0053974884
23	0x3cca216a	0.024674136

bn1.running_mean f4 [24]
0	0x3c030514	0.007996816
1	0x3bbf56de	0.005839213
2	0x3bdb50d5	0.0066929855
3	0xbb3cd8bf	-0.0028815714
4	0x3c0a231b	0.008431221
5	0xba2cff36	-0.00065993087
6	0xbbc374b1	-0.0059648384
7	0xbc068009	-0.008209237
8	0xbbbb9f88	-0.0057258047
9	0x3a6acf33	0.00089572667
10	0xbbb6af2c	-0.0055750813
11	0xbb3dc919	-0.0028958975
12	0xbacb3325	-0.0015502913
13	0xbc2a7a6a	-0.010405162
14	0xbba9c73e	-0.005181222
15	0xbaab140b	-0.0013052238
16	0x3bd59765	0.006518292
17	0xbb06e0f0	-0.002058085
18	0xba7f12c4	-0.00097302743
19	0xbc09d808	-0.008413322
20	0x3b946d9a	0.004529667
21	0xbb205e36	-0.0024470217
22	0xbadc3b2a	-0.00168023
23	0x3a6045b4	0.00085553085

bn1.running_var f4 [24]
0	0x3f5b308e	0.85620964
1	0x3e04463d	0.12917419
2	0x3f4e8bd5	0.80682117
3	0x3d9dade6	0.07699184
4	0x3e868016	0.26269597
5	0x3dcf3a2d	0.10118518
6	0x3eb40ba7	0.3516514
7	0x3efb6a5b	0.4910458
8	0x3e59a5c7	0.21254645
9	0x3e843c9c	0.2582749
10	0x3e877107	0.2645342
11	0x3ecb4a22	0.39704996
12	0x4008e5a7	2.1390169
13	0x3e884099	0.26611784
14	0x3e5085cb	0.20363538
15	0x3e3a2277	0.1817721
16	0x3e4cc8dd	0.19998498
17	0x3e3079bd	0.1723394
18	0x3d9d4e90	0.07681
19	0x3ee0fb33	0.4394165
20	0x3ef4f417	0.47842476
21	0x3e0e31b0	0.13886142
22	0x3ede0b9f	0.4336824
23	0x3e1dde1f	0.15416764

layers.0.conv1.weight f4 [24, 24, 1, 1]
0	0xbd88101d	-0.06643698
1	0xbd766168	-0.060151488
2	0xbd77ccfd	-0.060498226
3	0x3e6ce69c	0.23134845
4	0x3dbfaf35	0.0935959
5	0xbcca543a	-0.024698365
6	0xbe4f97bc	-0.20272726
7	0xbe2f2eef	-0.17107747
8	0xbe1c2470	-0.15248275
9	0xbdd18cf6	-0.10231964
10	0xbd77323c	-0.06035064
11	0xbe4cdf17	-0.20006977
12	0xbe07a7eb	-0.1324765
13	0x3d897d5e	0.06713365
14	0x3d832d7d	0.064051606
15	0x3df48d0c	0.11940965
16	0x3d8ba2b8	0.068181455
17	0x3c77ea46	0.015131539
18	0x3e0290e2	0.12750581
19	0xbd68123d	-0.05665802
20	0x3d608479	0.054813836
21	0x3e053de3	0.13011889
22	0xbe0c5f14	-0.13708144
23	0x3d4214c2	0.047383077
24	0xbe237e4d	-0.15966149
25	0x3ceb0155	0.028687159
26	0xbe675226	-0.22589931
27	0xbdad30dc	-0.08456585
28	0xbe31337b	-0.17304794
29	0x3c4e80c2	0.01260394
30	0x3e9df767	0.30852816
31	0xbdd671b0	-0.10470903
32	0xbcc0a481	-0.023515942
33	0x3d72ecca	0.05930785
34	0xbd976eea	-0.07394202
35	0xbc5b91ac	-0.01340143
36	0xbd060ae4	-0.03272523
37	0x3c9a70a5	0.018852541
38	0x3e748b5b	0.23881285
39	0xbd270bc5	-0.04078271
40	0xbdbb760d	-0.09153376
41	0x3ce20124	0.027588435
42	0x3d333457	0.043751087
43	0x3d23de27	0.040006783
44	0xbda5eb3b	-0.08101507
45	0xbd51557c	-0.051106915
46	0x3d1f4973	0.038888406
47	0xbd9dddff	-0.07708358
48	0xbdc70a21	-0.09718729
49	0x3e1a4051	0.15063597
50	0xbe5bfa0d	-0.21482106
51	0x3e20ce1a	0.15703622
52	0x3dbc70c7	0.09201198
53	0xbca334e7	-0.019922687
54	0xbe00703d	-0.12542816
55	0xbcdc3e6b	-0.026885232
56	0xbe02de4e	-0.12780115
57	0x3d4a698d	0.049417067
58	0xbe8c95f8	-0.27458167
59	0xbd7e1ba5	-0.062038083
60	0xbdb3eb3b	-0.08785101
61	0x3c91a4e2	0.017778818
62	0xbddcaf1d	-0.10775588
63	0x3d4fcc06	0.05073168
64	0xbde8ec84	-0.11373237
65	0x3e579eb5	0.21056636
66	0x3df68aa6	0.12038164
67	0x3d1f2d07	0.0388613
68	0xbe15ed5a	-0.14641324
69	0xbe33ce69	-0.17559208
70	0xbe25af4d	-0.16180153
71	0xbca3d1e3	-0.019997543
72	0xbdc47af9	-0.09593768
73	0x3e733584	0.23750883
74	0x3d8d49c5	0.06898836
75	0x3e1fbd66	0.15599594
76	0x3e2842ae	0.16431686
77	0x3d8a988f	0.067673795
78	0x3d2c5cdf	0.042080756
79	0x3df77b29	0.12084038
80	0xbe3d9a47	-0.18515883
81	0x3e21a2ba	0.15784732
82	0xbd7b9de9	-0.06142989
83	0x3e58b70b	0.21163575
84	0xbe33d4bd	-0.17561622
85	0xbe004d71	-0.12529542
86	0x3d159bc6	0.03652551
87	0x3c1e3342	0.0096557755
88	0x3dbe35e3	0.09287622
89	0x3e167a5e	0.14695117
90	0x3d898d02	0.06716348
91	0x3e499ed6	0.19689497
92	0x3bdf6091	0.0068169315
93	0xbe47a42a	-0.19496217
94	0x3e08f787	0.13375674
95	0xbdd57ffe	-0.10424803
96	0xbc22eead	-0.0099446
97	0x3cc1cfc3	0.023658639
98	0xbe169bc5	-0.14707859
99	0x3c24174d	0.010015321
100	0x3c55997a	0.01303708
101	0xbe094971	-0.13406922
102	0x3d4b1b12	0.049586363
103	0xbc055dc0	-0.0081400275
104	0xbb22d5c3	-0.002484665
105	0xbe503301	-0.20331956
106	0x3dad3400	0.08457184
107	0xbe0c280e	-0.13687155
108	0xbd83b84b	-0.064316355
109	0xbe8c265f	-0.27373025
110	0xbe5aeb78	-0.21378887
111	0xbc34201b	-0.010993983
112	0x3e17562e	0.14778969
113	0xbe01bd8b	-0.12669961
114	0x3e6675a9	0.22505821
115	0x3ddc8ec9	0.107694216
116	0xbd4d8bf2	-0.05018229
117	0xbd1f17be	-0.038841
118	0xbe1e09a4	-0.15433365
119	0x3e77feb8	0.24218261
120	0x3bdc5ca5	0.0067249113
121	0xbdd8f0fb	-0.105928384
122	0x3c804499	0.01565771
123	0xbe8578bf	-0.26068684
124	0xbe3cf865	-0.1845413
125	0x3dffc875	0.12489406
126	0xbe033b4e	-0.12815592
127	0x3dd87a40	0.10570192
128	0xbdb301b7	-0.087405615
129	0xbd70f9f9	-0.058832143
130	0xbd220b16	-0.039561354
131	0x3e3687e5	0.17825277
132	0x3dcce0ee	0.100038394
133	0xbd5e29ea	-0.05423919
134	0xbdac41ee	-0.084110126
135	0x3e5f9c22	0.21836904
136	0x3dc176c3	0.0944648
137	0x3e5340e9	0.2063023
138	0xbc842d78	-0.016134962
139	0xbda56dc2	-0.08077575
140	0x3c0dae78	0.008647554
141	0x3e8b6988	0.2722895
142	0xbdfced44	-0.12349942
143	0xbe200b54	-0.15629321
144	0x3dc6a07e	0.0969858
145	0xbdbae1f2	-0.09125127
146	0xbe09ed15	-0.13469346
147	0xbe646e2d	-0.22307654
148	0xbe10d394	-0.1414321
149	0xbe6d01d0	-0.23145223
150	0xbdfa68bd	-0.122270085
151	0xbe6a3df1	-0.22875191
152	0x3dce0008	0.100586
153	0xbe1836f2	-0.1486471
154	0xbe19d2b7	-0.15021788
155	0x3dfdd2b0	0.12393701
156	0xbdbc3b66	-0.09191017
157	0xbd34678e	-0.04404407
158	0xbc450a87	-0.012026436
159	0xbd7684f3	-0.060185384
160	0x3e0ef0ce	0.13959047
161	0x3cb3cf29	0.021949368
162	0x3e1ecc02	0.1550751
163	0xbe1893d3	-0.1490014
164	0x3e3ca0ae	0.1842067
165	0xbcf0bd9b	-0.029387286
166	0xbe07ef35	-0.13274844
167	0x3e012eb5	0.12615474
168	0xbdb5c337	-0.08875125
169	0x3dffb1ac	0.1248506
170	0xbe4f2693	-0.20229559
171	0x3e29fd9d	0.16600652
172	0xbdb449ec	-0.08803162
173	0x3be4fe8d	0.0069883526
174	0x3e100edc	0.14068168
175	0x3dae812a	0.0852073
176	0xbcd855e5	-0.026408145
177	0x3d47adce	0.048749737
178	0xbbb02395	-0.0053753355
179	0x3b8a6067	0.004222918
180	0xbc3de028	-0.011589088
181	0x3e24f300	0.16108322
182	0x3e11e81c	0.14248699
183	0xbe1532bc	-0.14570135
184	0x3e5ae529	0.2137648
185	0xbd2e6d6e	-0.04258483
186	0xbe02c4de	-0.12770411
187	0xbdd1edc0	-0.10250425
188	0x3dfd28c3	0.1236129
189	0x3e1930d6	0.14960036
190	0x3e0372f3	0.12836818
191	0x3d1ed4db	0.038777214
192	0x3e3f006b	0.18652503
193	0x3da8708c	0.082245916
194	0xbd80dfa2	-0.062926546
195	0xbe12a90c	-0.14322299
196	0xb848557a	-4.7763322e-05
197	0x3e11cd6e	0.14238521
198	0xbe4c6343	-0.1995974
199	0xbc66b0c9	-0.014080235
200	0x3e0f51dc	0.1399607
201	0x3d6f915f	0.058488246
202	0xbe39bd15	-0.18138535
203	0xbe3cd039	-0.18438806
204	0xba1971fa	-0.00058534706
205	0x3e09d964	0.13461834
206	0x3d88c805	0.06678776
207	0x3d8d0d62	0.06887318
208	0xbe102176	-0.14075264
209	0xbdf0eb71	-0.11763657
210	0xbe0f0e58	-0.13970315
211	0xbe7163da	-0.23573247
212	0x3d89b44e	0.067238435
213	0xbd8fa219	-0.070133395
214	0xbe16f558	-0.14742029
215	0xbd244693	-0.040106367
216	0xbd3c94ba	-0.046040274
217	0x3e092b71	0.13395478
218	0x3e2bb49a	0.16768113
219	0x3e24239f	0.16029213
220	0xbde7715a	-0.11300917
221	0x3c8c9252	0.017159615
222	0xbd7c01d4	-0.06152518
223	0x3e833ed5	0.25633875
224	0xbdae57a5	-0.085128106
225	0xbdca86ce	-0.09888993
226	0x3e1292f9	0.14313878
227	0xbd68e02c	-0.056854412
228	0xbd146314	-0.0362273
229	0x3e397a0b	0.18112962
230	0xbd063930	-0.032769382
231	0x3e331f5c	0.17492431
232	0x3db4315c	0.08798477
233	0x3dd2edcd	0.10299263
234	0x3dd339b3	0.1031374
235	0x3cdbae2b	0.026816448
236	0xbd223ee8	-0.039610773
237	0xbcf499ae	-0.029858436
238	0x3dad6656	0.08466785
239	0xbe5a608d	-0.21325894
240	0x3d80e09e	0.06292842
241	0xbdc6a57c	-0.096995324
242	0x3c04f6f9	0.0081155235
243	0x3e264058	0.16235483
244	0x3c8d172e	0.017222967
245	0xbdebe407	-0.11518102
246	0xbd597fb8	-0.053100318
247	0x3c3d1503	0.011540654
248	0x3db50f10	0.088407636
249	0xbd1e833c	-0.038699374
250	0xbd7b65bc	-0.06137632
251	0xbdaa10f0	-0.08304012
252	0xbe21f49a	-0.15815964
253	0x3c9d3d5b	0.019194296
254	0xbd03ad7a	-0.032147862
255	0xbe83472f	-0.25640246

layers.0.bn1.weight f4 [24]
0	0x3f74523f	0.95438
1	0x3f78e4ec	0.9722431
2	0x3ee6fec3	0.45116243
3	0x3f3a1386	0.7268604
4	0x3f810202	1.0078738
5	0x3f602d02	0.87568676
6	0x3f5b643d	0.85699826
7	0x3f661148	0.8987012
8	0x3f842318	1.032321
9	0x3f795980	0.9740219
10	0x3eff9c4b	0.4992393
11	0x3f82b8a2	1.0212595
12	0x3f3b32f0	0.731246
13	0x3f6d5fbc	0.92724204
14	0x3f81ea39	1.0149604
15	0x3f62dc5c	0.8861749
16	0x3f33a032	0.70166314
17	0x3f60dc8a	0.87836516
18	0x3f5e1fc4	0.8676722
19	0x3f7267c7	0.946896
20	0x3f8c3aca	1.0955441
21	0x3f750df3	0.9572441
22	0x3f5b1333	0.8557617
23	0x3f45f0c2	0.7732049

layers.0.bn1.bias f4 [24]
0	0x3d5ffe66	0.054685973
1	0x3be8e6d3	0.0071075945
2	0x3eb55191	0.35413793
3	0x3ea4f8c2	0.32221037
4	0xbcb929a2	-0.02260286
5	0xbdf1b9b8	-0.11803001
6	0x3df206b0	0.11817682
7	0x3dc55c4e	0.09636746
8	0xbcd6f2c3	-0.026238805
9	0x3e4efee7	0.20214425
10	0x3ed473e7	0.41494676
11	0xbd436f64	-0.047713652
12	0x3ea11b4a	0.31466132
13	0x3d8d4387	0.068976454
14	0xbcad7df7	-0.021178229
15	0xbdc807ec	-0.09767136
16	0xbe699435	-0.22810443
17	0x3de8743e	0.113502964
18	0xbe0704e4	-0.1318546
19	0x3d91c04a	0.07116754
20	0xbd486e54	-0.048933342
21	0xbd42c286	-0.047548793
22	0xbdeca49f	-0.115548365
23	0xbe26b726	-0.16280803

layers.0.bn1.running_mean f4 [24]
0	0x3c7623c5	0.015023177
1	0xbbab110c	-0.005220538
2	0xbd3285ea	-0.04358474
3	0xbd4852b4	-0.048906997
4	0xbb48f186	-0.0030661537
5	0xbb014ccc	-0.0019729612
6	0x3c33b369	0.010968068
7	0xbb95e38c	-0.004574245
8	0xbc52fcbd	-0.01287764
9	0xbcc0e9cf	-0.023548989
10	0xbb1abfc7	-0.0023612843
11	0x3b3a8b37	0.0028464326
12	0x3afb57b6	0.001917592
13	0xbc84e4e1	-0.01622242
14	0xbb9c1479	-0.0047631827
15	0x3c5254e1	0.0128376195
16	0xbcaf1253	-0.021371042
17	0x3af6e590	0.0018836726
18	0x3ca5c0ee	0.020233598
19	0x3cab7b34	0.020932771
20	0xba99966d	-0.0011717804
21	0xbc19c9ea	-0.009386519
22	0xbc55c864	-0.013048265
23	0xbcc59e09	-0.024123209

layers.0.bn1.running_var f4 [24]
0	0x3f071dd9	0.5277992
1	0x3ec76a12	0.38948113
2	0x3f122deb	0.57101315
3	0x3e185f4a	0.148801
4	0x3f26d59e	0.65169704
5	0x3f2a99a3	0.6664068
6	0x3ea89eda	0.32933694
7	0x3e618da7	0.22026692
8	0x3edd4fa4	0.43224823
9	0x3ea4a1e4	0.32154763
10	0x3e9b8f3b	0.30382714
11	0x3ee134f5	0.43985716
12	0x3ef2bcc2	0.47409636
13	0x3f2617cb	0.64880055
14	0x3f6dab22	0.9283925
15	0x3f593e18	0.8486037
16	0x3eccbbe7	0.39987108
17	0x3edc2aeb	0.43001494
18	0x3f6e2915	0.93031436
19	0x3f852eda	1.0404923
20	0x3ea5c322	0.32375437
21	0x3ebcd6d1	0.36882642
22	0x3eac74fa	0.33682996
23	0x3f896fdf	1.0737265

layers.0.conv2.weight f4 [24, 1, 3, 3]
0	0x3e78d2c5	0.24299152
1	0x3db2f01e	0.08737205
2	0x3d1c4a7b	0.038156968
3	0xbd45079a	-0.048102953
4	0xbda4b9ed	-0.08043275
5	0x3e778dc6	0.24175176
6	0x3e37a72c	0.17934865
7	0x3d894e1b	0.067043506
8	0xbdaa272c	-0.08308253
9	0xbe9a3302	-0.3011704
10	0xbccf3655	-0.025294462
11	0xbc0eb113	-0.00870921
12	0xbdedf2c6	-0.11618571
13	0xbe4a5817	-0.19760166
14	0xbe5094fb	-0.20369332
15	0x3e456564	0.19276959
16	0x3e27fdc8	0.16405404
17	0x3d333f3f	0.043761488
18	0x3e38c223	0.18042807
19	0x3d88cd08	0.066797316
20	0xbe9a4cff	-0.30136868
21	0x3c6fb26d	0.014629942
22	0x3d56f4b2	0.052479453
23	0xbdb2c030	-0.08728063
24	0xbdb814af	-0.0898832
25	0xbda450ed	-0.08023248
26	0x3e0d429d	0.13794942
27	0x3d7c5f30	0.061614215
28	0x3df4ebcd	0.11959038
29	0xbe4389f5	-0.19095595
30	0x3e1c2ab1	0.1525066
31	0xbebce33a	-0.3689211
32	0x3e27221d	0.16321607
33	0xbe562a22	-0.2091451
34	0x3e9b832e	0.3037352
35	0xbdd14ed2	-0.10220112
36	0x3d697c27	0.057003167
37	0x3eaf76c6	0.34270304
38	0x3e7636af	0.24044298
39	0x3d3db8c9	0.046318803
40	0xbca21348	-0.019784585
41	0x3e65d439	0.22444238
42	0x3ca344a7	0.019930197
43	0x3cdd5c98	0.027021691
44	0x3e8b94d0	0.27261972
45	0xbd922ddf	-0.071376555
46	0xbe562fa2	-0.20916608
47	0xbb8c9830	-0.004290603
48	0xbee590bb	-0.44836983
49	0x3e67c9a2	0.2263551
50	0xbe4712dc	-0.19440788
51	0x3c61296a	0.013742784
52	0xbec3b2db	-0.38222393
53	0xbed257da	-0.4108265
54	0xbe1668d7	-0.1468843
55	0xbc0d04c7	-0.008607096
56	0x3e00f523	0.12593512
57	0x3e4d9ab4	0.20078546
58	0x3e8aa1f5	0.27076688
59	0x3e1fbbc6	0.15598974
60	0xbe15a58d	-0.14613934
61	0xbe91b2fe	-0.28456873
62	0xbe08eab8	-0.13370788
63	0xbe59eeea	-0.21282545
64	0xbe47256f	-0.19447874
65	0x3e86370c	0.26213872
66	0xbd4ac5c4	-0.04950501
67	0xbdc3425c	-0.095341414
68	0x3e1368e0	0.14395475
69	0xbe97fd5f	-0.29685494
70	0xbccadc22	-0.02476317
71	0x3e5d6f89	0.21624579
72	0x3d736f5d	0.059432376
73	0xbce3f1c9	-0.027825253
74	0xbdfce1bb	-0.12347742
75	0xbe56906e	-0.20953533
76	0xbe73134a	-0.23737827
77	0xbe838ae1	-0.25691894
78	0xbeb3da9c	-0.35127723
79	0xbd429e84	-0.047514454
80	0xbe88b4e3	-0.26700506
81	0xbe8eb9c2	-0.27876097
82	0xbe2300b2	-0.15918234
83	0xbecd004c	-0.4003929
84	0x3ce5fcb6	0.028074604
85	0x3e7b4d12	0.24541119
86	0x3ec27cff	0.3798599
87	0x3e5bae76	0.2145327
88	0x3e0088ed	0.12552233
89	0xbe210024	-0.1572271
90	0x3e4b0b64	0.19828564
91	0xbe828e2c	-0.25499094
92	0x3e412649	0.18862261
93	0x3e8e1d69	0.27756813
94	0xbed2a596	-0.41141957
95	0x3e5a79fe	0.21335599
96	0xbd13b238	-0.036058635
97	0xbd4be86b	-0.049782198
98	0x3bb923b3	0.0056500076
99	0x3e17f1fd	0.14838405
100	0xbe18d4e1	-0.14924957
101	0xbe754441	-0.23951818
102	0xbdf2e7ef	-0.11860644
103	0xbead1b97	-0.33810112
104	0x3e39eb8d	0.18156262
105	0x3ea70b18	0.3262565
106	0xbd5c6ffc	-0.053817734
107	0x3d294830	0.04132861
108	0xbdacf760	-0.084456205
109	0x3e842354	0.25808203
110	0xbc7e6144	-0.01552612
111	0xbe4c7621	-0.19966938
112	0x3cd0b1d4	0.02547542
113	0xbc5ac5f5	-0.013352861
114	0xbe361aa5	-0.17783602
115	0x3e17ab49	0.14811434
116	0x3cc0e3b9	0.023546087
117	0xbe951468	-0.2911713
118	0x3ba7dafa	0.0051225396
119	0x3bc8bf29	0.0061263037
120	0xbeb43108	-0.35193658
121	0x3d02d843	0.031944524
122	0x3e2c5b87	0.1683179
123	0xbd1af6b2	-0.037832923
124	0xbe0e8f36	-0.13921818
125	0x3e9277b3	0.28606948
126	0x3ea12597	0.3147399
127	0xbe0d9d9a	-0.13829651
128	0xbd5289a7	-0.051400807
129	0x3eb167c9	0.34649494
130	0x3e11b2d6	0.14228377
131	0x3e800790	0.2500577
132	0x3ea5baa6	0.32368964
133	0x3e59cf95	0.21270593
134	0x3d9a81a8	0.07544261
135	0x3d08f95a	0.033440925
136	0x3e41b3a6	0.18916187
137	0x3e91a187	0.28443548
138	0x3e86cac4	0.26326573
139	0x3d3264aa	0.043553032
140	0x3e3a992c	0.18222493
141	0xbe26f2b7	-0.16303526
142	0x3e3b3945	0.18283565
143	0x3d7ad1e2	0.061235316
144	0xbe3823f7	-0.1798247
145	0xbb580ed3	-0.003296782
146	0x3da4452a	0.080210045
147	0x3d03c856	0.032173477
148	0xbe4e3ff0	-0.20141578
149	0x3e6af6ec	0.22945756
150	0xbe472af1	-0.19449975
151	0xbed6d711	-0.41960958
152	0xbeb4dbf0	-0.3532405
153	0x3e295555	0.16536458
154	0xbd27478c	-0.040839717
155	0x3d92f51e	0.07175659
156	0x3e4b146f	0.19832014
157	0x3ea066ed	0.31328526
158	0xbeb0a8cc	-0.34503782
159	0x3db11daa	0.08648236
160	0xbe5b6c72	-0.21428087
161	0x3d364e1f	0.044508096
162	0xbc396732	-0.011316108
163	0xbe8583f1	-0.26077226
164	0xbd6929d8	-0.05692467
165	0xbe32a53b	-0.17445843
166	0x3de5df29	0.11224205
167	0xbd8d89e5	-0.06911067
168	0xbcb309fb	-0.021855345
169	0xbe4ae7c6	-0.19814977
170	0xbdf217c6	-0.11820941
171	0xbeaf9a66	-0.34297484
172	0xbe6bf85c	-0.2304396
173	0xbef32395	-0.47488084
174	0xbd2ea0e1	-0.042633895
175	0x3c668940	0.014070809
176	0xbd7b1f03	-0.061308872
177	0x3d86def1	0.065854914
178	0xbe3756e1	-0.17904235
179	0x3e96ca2e	0.29451126
180	0x3d916b37	0.07100528
181	0xbe81da80	-0.25362015
182	0xbe9d1708	-0.30681634
183	0x3e24d04d	0.16095085
184	0x3e465fed	0.1937253
185	0x3cfabc88	0.030607477
186	0x3e1865e6	0.14882621
187	0x3e204309	0.15650572
188	0xbd30df38	-0.043181628
189	0x3c7fa1a7	0.015602506
190	0x3e02f508	0.12788785
191	0xbdfdd5ab	-0.123942696
192	0x3e82f372	0.2557636
193	0x3e5102f5	0.20411284
194	0xbd52e549	-0.051488195
195	0x3eae3193	0.34022197
196	0x3e488b9b	0.19584505
197	0x3e5d2f51	0.21600081
198	0xbdc704f1	-0.097177394
199	0x3e5bf235	0.21479113
200	0xbe6088b8	-0.21927154
201	0xbe7002a4	-0.23438507
202	0x3d894de8	0.067043126
203	0x3e9ab79f	0.30218217
204	0xbe13a246	-0.14417371
205	0xbe66ed74	-0.22551519
206	0x3ea6647d	0.3249854
207	0xbe73d404	-0.23811346
208	0xbe731798	-0.23739469
209	0x3dbbb97e	0.09166239
210	0xbe53723e	-0.20649049
211	0x3e55e1b3	0.20886879
212	0xbcbe0495	-0.023195544
213	0x3dede8dd	0.11616681
214	0x3e7159a4	0.23569351
215	0x3d1435ac	0.036183998

layers.0.bn2.weight f4 [24]
0	0x3f79ddb2	0.97603905
1	0x3f851ce3	1.039944
2	0x3f8dd218	1.107974
3	0x3f8123bb	1.0089029
4	0x3f84d07c	1.0376124
5	0x3f85e506	1.0460517
6	0x3f7827e4	0.9693587
7	0x3f86a59a	1.0519288
8	0x3f793a26	0.9735435
9	0x3f838827	1.0275925
10	0x3f8f4e48	1.1195765
11	0x3f61bcbf	0.8817863
12	0x3f8df926	1.1091659
13	0x3f8cad34	1.0990357
14	0x3f86a871	1.0520154
15	0x3f82c7f2	1.0217268
16	0x3f828101	1.0195619
17	0x3f726d31	0.9469786
18	0x3f87c38c	1.0606551
19	0x3f836f0b	1.0268263
20	0x3f82f51c	1.0231051
21	0x3f7196c2	0.94370663
22	0x3f8b1873	1.0866836
23	0x3f6032e8	0.87577677

layers.0.bn2.bias f4 [24]
0	0x3d228016	0.039672934
1	0x3de19d7a	0.110163644
2	0xbe18e09b	-0.1492943
3	0xbe312d9e	-0.17302558
4	0x3def0eed	0.11672769
5	0x3e03ac38	0.12858665
6	0xbb802dae	-0.0039116954
7	0x3b238f4a	0.0024957233
8	0x3d13956d	0.036031175
9	0x3d18ea20	0.037332654
10	0xbdbdb670	-0.09263313
11	0xbd816c1a	-0.06319447
12	0x3d7b3b1b	0.061335664
13	0x3b7a5d4f	0.003820259
14	0x3e3411c6	0.17584905
15	0xbcd2dd1c	-0.025740199
16	0x3e009440	0.12556553
17	0x3d84002f	0.064453475
18	0x3deb201d	0.114807345
19	0x3e1ab599	0.15108337
20	0xbda71f45	-0.08160261
21	0x3d16791e	0.0367366
22	0x3c77b528	0.015118875
23	0xbd116398	-0.03549537

layers.0.bn2.running_mean f4 [24]
0	0x3e4f9e9f	0.20275353
1	0xbe1fe887	-0.15616046
2	0xbd1d24a2	-0.038365014
3	0xbcf7b9c1	-0.030239942
4	0x3ee429ba	0.44563085
5	0xbe9ca06a	-0.30591136
6	0xba369dbc	-0.0006966253
7	0xbd9db086	-0.07699685
8	0xbf0c9fd4	-0.5493138
9	0x3cd26155	0.025681177
10	0x3d49efae	0.049300842
11	0xbd7ca144	-0.061677232
12	0x3b9d3523	0.004797594
13	0xbdb9976a	-0.09062083
14	0x3ee25e2f	0.4421248
15	0x3e821763	0.25408468
16	0xbe2f3c78	-0.17112911
17	0x3dc993ec	0.09842667
18	0xbe238b7e	-0.15971181
19	0xbeb7ea94	-0.35921156
20	0x3da5449e	0.08069728
21	0x3eb8f0c8	0.36121202
22	0x3bc36296	0.00596268
23	0x3bc2a431	0.0059399833

layers.0.bn2.running_var f4 [24]
0	0x3d977cc2	0.073968425
1	0x3d9bb00a	0.07601936
2	0x3c0d1d31	0.008612917
3	0x3d468105	0.048462886
4	0x3ea7040b	0.32620272
5	0x3e661839	0.22470178
6	0x3df1cf39	0.11807103
7	0x3d84bd16	0.06481378
8	0x3f1473d1	0.5798922
9	0x3e62b98e	0.22141096
10	0x3dd4c42d	0.1038898
11	0x3d8d4dc6	0.068996
12	0x3d674918	0.056466192
13	0x3d5a76d0	0.053335965
14	0x3ed616ad	0.41814175
15	0x3e305942	0.17221549
16	0x3d8c8316	0.0686094
17	0x3d631f7e	0.055449955
18	0x3d919b8b	0.071097456
19	0x3e717a59	0.23581828
20	0x3e2af51d	0.16695066
21	0x3e97c1af	0.29639956
22	0x3d1dbd63	0.03851069
23	0x3d174d84	0.03693916

layers.0.conv3.weight f4 [12, 24, 1, 1]
0	0xbd6daea6	-0.058027886
1	0x3e3f3fa3	0.18676619
2	0xbd87d7b4	-0.06632939
3	0x3c885e10	0.016646415
4	0xbccc0afe	-0.024907585
5	0x3d268504	0.040654197
6	0x3e37c618	0.1794666
7	0xbe212670	-0.15737319
8	0xbe43ed0f	-0.191334
9	0x3e044394	0.12916404
10	0xbc47bc82	-0.01219094
11	0x3dc7dc38	0.097588
12	0xbd1a0207	-0.03759959
13	0xbad9ec0b	-0.0016626132
14	0xbe0de3b3	-0.13856392
15	0xbe79e431	-0.24403454
16	0xbe1ee1b0	-0.1551578
17	0xbd1e6c88	-0.038677722
18	0x3e65c225	0.22437342
19	0x3e459597	0.19295345
20	0x3cac2e69	0.021018224
21	0xbe45c137	-0.19311987
22	0x3d9989be	0.07496975
23	0x3df5fef6	0.120115206
24	0x3dcd1975	0.10014621
25	0xbcd0407b	-0.025421372
26	0xbe11c377	-0.1423472
27	0xbd1bc4b8	-0.038029402
28	0xbc89e17b	-0.01683115
29	0xbd904604	-0.070446044
30	0x3e249e47	0.16076003
31	0x3dbf0761	0.09327579
32	0x3e0fde2e	0.14049599
33	0x3dc55853	0.09635987
34	0x3ddac8cf	0.106828324
35	0x3dd55bb1	0.104178794
36	0x3df96adf	0.12178587
37	0x3dbc2df9	0.09188456
38	0xbe4cb2b6	-0.19990048
39	0xbe72fc8d	-0.23729153
40	0x3c607e16	0.013701936
41	0x3e2855f0	0.16439033
42	0xbd21123b	-0.039324027
43	0x3de70f4e	0.11282216
44	0xbdc4d598	-0.09611052
45	0x3d9a2a36	0.07527582
46	0x3df3116d	0.11868558
47	0x3def4553	0.116831444
48	0x3e8478fb	0.2587355
49	0x3e1166a3	0.14199309
50	0x3d92bb2d	0.07164607
51	0xbe087019	-0.13324012
52	0xbe8ef7b1	-0.2792335
53	0xbe307bf6	-0.17234787
54	0xbc9dcc6c	-0.019262515
55	0xbe1b54d3	-0.15169077
56	0x3d887209	0.066623755
57	0x3e2e94aa	0.17048898
58	0x3e2101ac	0.15723294
59	0x3cd7cf5e	0.026343998
60	0x3e139185	0.1441098
61	0xbdc06d3e	-0.09395836
62	0x3e0e2e1a	0.13884774
63	0x3da4982f	0.08036839
64	0xbe373f7e	-0.17895314
65	0xbd1c43b1	-0.038150493
66	0xbdda6207	-0.106632285
67	0xbca03237	-0.019555194
68	0xbd698840	-0.057014704
69	0x3cffde86	0.031234037
70	0x3c87f4d0	0.016596228
71	0x3d200040	0.03906274
72	0xbe03b61b	-0.12862436
73	0xbdf173c6	-0.1178966
74	0x3d1b3003	0.037887584
75	0xbdbf4757	-0.09339779
76	0x3d680a64	0.056650534
77	0xbd01685e	-0.031593673
78	0x3e037fa9	0.12841667
79	0x3da52f82	0.08065702
80	0x3d9a6e63	0.07540586
81	0xbbc869f8	-0.006116148
82	0x3e6a9e6e	0.22911999
83	0xbde80884	-0.11329749
84	0x3d8a4084	0.06750587
85	0xbe697b70	-0.22800994
86	0xbe8aeee4	-0.27135384
87	0xbe00b3f9	-0.12568654
88	0x3e3f40ca	0.18677059
89	0xbd0d4ab1	-0.03449506
90	0xbc1303e8	-0.008973099
91	0x3e61dad0	0.22056127
92	0x3df542eb	0.11975654
93	0x3e0a94c9	0.1353332
94	0x3da1acbe	0.07894276
95	0x3e01ec7b	0.12687866
96	0xbd217a47	-0.039423253
97	0xbaf73cc4	-0.0018862714
98	0xbde5c7da	-0.11219759
99	0xbd4b8066	-0.049682997
100	0x3e2f748a	0.171343
101	0x3d5200e8	0.051270396
102	0xbd05a7a9	-0.032630596
103	0x3e861b12	0.26192528
104	0x3d961813	0.073288105
105	0xbc6a4f59	-0.0143011445
106	0x3e3a0414	0.18165618
107	0xbdd648ca	-0.10463102
108	0x3e45d638	0.19319999
109	0x3e11e860	0.142488
110	0x3e4d782a	0.2006537
111	0x3e289ccc	0.16466063
112	0xbd9acebf	-0.07558965
113	0xbc0aeadf	-0.008478849
114	0xbe4ee126	-0.20203075
115	0xbe02c5c3	-0.12770753
116	0xbe229482	-0.15876964
117	0xbd258827	-0.040413048
118	0x3e15d77d	0.14632984
119	0x3dbd6614	0.092479855
120	0xbe6c65cd	-0.23085709
121	0xbe7fce87	-0.24981128
122	0x3d8b94af	0.068154685
123	0x3d75fac2	0.060053594
124	0xbe1e2181	-0.15442468
125	0xbdfc7c1b	-0.12328359
126	0xbe2c4f86	-0.16827211
127	0x3a094c6f	0.0005237525
128	0x3e0d063c	0.1377191
129	0x3d06062e	0.032720737
130	0x3de56dbd	0.112025715
131	0xbdd1348b	-0.102151
132	0x3bee52ae	0.00727304
133	0x3e2a75d4	0.1664651
134	0x3e056d22	0.13029912
135	0x3d7f3cdc	0.0623139
136	0xbd44fe82	-0.04809428
137	0xbddc6249	-0.10760934
138	0x3e17abe7	0.1481167
139	0x3e1f21c2	0.15540221
140	0xbdd5c1a8	-0.104373276
141	0xbe3e78ba	-0.18600741
142	0x3e021919	0.12704886
143	0xbdbbb0b5	-0.091645636
144	0xbcd2c055	-0.025726477
145	0xbcc9dfeb	-0.024642905
146	0x3da7a8a2	0.08186461
147	0x3e326d4d	0.17424507
148	0x3e13736e	0.14399502
149	0xbb02c5ac	-0.0019954247
150	0xbd3574e4	-0.04430093
151	0xbd94d78d	-0.072676755
152	0x3cdcc4d6	0.026949327
153	0x3e0b0698	0.13576734
154	0x3e869372	0.26284367
155	0xbdfbfbf3	-0.12303915
156	0x3e841b57	0.2580211
157	0xbc565957	-0.013082824
158	0xbe05d8f6	-0.13071045
159	0xbddc1aec	-0.107473224
160	0xbe0652fe	-0.13117597
161	0xbe11a40d	-0.14222737
162	0xbdc91133	-0.098177336
163	0xbe2f93b1	-0.17146184
164	0xbdec8e6f	-0.115506046
165	0xbdafefd1	-0.08590663
166	0x3e0152f8	0.12629306
167	0x3d6a39a3	0.057183873
168	0x3e2b7fd1	0.16747977
169	0xbe1cf6e9	-0.15328564
170	0xbe918c86	-0.28427523
171	0xbe9f9658	-0.3116939
172	0x3e0373ea	0.12837186
173	0x3e0cc5ec	0.13747376
174	0xbda6fd8b	-0.08153828
175	0xbd6337c7	-0.055473115
176	0x3e65517f	0.2239437
177	0xbd356c26	-0.04429259
178	0xbe1edb62	-0.15513375
179	0x3d8862b3	0.066594504
180	0x3cdebca0	0.027189553
181	0x3df76991	0.12080682
182	0xbb6f4c69	-0.003651405
183	0x3dc018a3	0.09379699
184	0x3dfa7bd8	0.122306526
185	0xbdaaa033	-0.08331337
186	0x3d8d14ad	0.06888709
187	0xbd092d2d	-0.03349035
188	0x3d8691e3	0.065707944
189	0xbc4050c1	-0.011738003
190	0xbe95b5d0	-0.29240274
191	0xbe140487	-0.14454852
192	0x3e1468ca	0.14493099
193	0xbe084358	-0.1330694
194	0x3e87158a	0.2638362
195	0x3e4252e9	0.1897694
196	0xbe2d47cc	-0.1692192
197	0x3d683ef5	0.056700666
198	0x3d29f9f5	0.041498143
199	0xbdfe16d4	-0.12406698
200	0x3dde96a3	0.108685754
201	0xbd98ca9e	-0.07460521
202	0xbd811a0a	-0.06303795
203	0xbdd2e420	-0.10297418
204	0xbb9cc6be	-0.004784434
205	0x3e4ebdaf	0.20189546
206	0xbdea0aa0	-0.11427808
207	0xbe60c2a4	-0.2194925
208	0x3e77c154	0.24194843
209	0x3d03f8a4	0.032219544
210	0x3c339b38	0.0109623
211	0x3e567fa4	0.20947129
212	0xbe866d8d	-0.26255456
213	0x3e0488fd	0.12942882
214	0x3d07d8ee	0.033165865
215	0x3c8d1a3a	0.01722442
216	0x3cbd77f1	0.023128482
217	0x3db1a846	0.08674674
218	0x3df4cb56	0.11952846
219	0x3e23d18f	0.15997909
220	0xbdbb6a73	-0.09151163
221	0x3eb0c1ad	0.34522763
222	0xbca32621	-0.019915642
223	0xbd8f35fd	-0.06992719
224	0xbce56b14	-0.02800516
225	0x3e32d32c	0.17463368
226	0xbeaa0d21	-0.33213142
227	0x3dc16086	0.094422385
228	0xbe945a08	-0.28974938
229	0x3d63a650	0.05557853
230	0xbd988e7e	-0.07449053
231	0x3e144f16	0.14483294
232	0x3d4923e8	0.04910651
233	0x3d498525	0.049199242
234	0x3e855929	0.26044586
235	0x3e060aa1	0.13089992
236	0x3e3520c6	0.17688283
237	0x3e329c49	0.1744243
238	0x3ccc8834	0.02496729
239	0x3dcaaa0a	0.098957136
240	0xbcb13820	-0.021633208
241	0xbcf037a8	-0.029323414
242	0xbd533cf6	-0.05157181
243	0xbdbab9f2	-0.091174975
244	0xbe17b8bd	-0.14816566
245	0xbc076ab7	-0.008265189
246	0x3d48486a	0.048897184
247	0xbd88b22e	-0.0667461
248	0x3d588aee	0.05286687
249	0xbd0c60f5	-0.034272153
250	0x3d6ef545	0.058339376
251	0xbd4555f5	-0.04817768
252	0x39b42ea7	0.00034367034
253	0xbe598283	-0.21241193
254	0x3b38a0d4	0.0028172033
255	0x3dda63fe	0.10663603

layers.0.bn3.weight f4 [12]
0	0x3f76de48	0.96432924
1	0x3f6108b7	0.8790392
2	0x3f82afbb	1.0209879
3	0x3f818241	1.0117875
4	0x3f83d540	1.0299454
5	0x3f8703f9	1.0548087
6	0x3f899232	1.074774
7	0x3f7398ff	0.9515533
8	0x3f7bffbb	0.9843709
9	0x3f92731f	1.1441382
10	0x3f75d728	0.9603143
11	0x3f79f64b	0.9764144

layers.0.bn3.bias f4 [12]
0	0xbd08fe83	-0.033445846
1	0x3d117e14	0.035520628
2	0xbae43c8e	-0.0017413066
3	0x3d01ee25	0.031721253
4	0x3bb037cf	0.0053777467
5	0x3d70f593	0.058827948
6	0x3c293b84	0.010329131
7	0x3c23c908	0.00999666
8	0xbd19832e	-0.03747862
9	0xbd08639e	-0.033298127
10	0x3d60f0ea	0.054917254
11	0xbd2bc843	-0.04193903

layers.0.bn3.running_mean f4 [12]
0	0xbc980cfb	-0.018560877
1	0x3e726fca	0.23675457
2	0xbcaca0f3	-0.02107284
3	0x3e0cf908	0.13766873
4	0x3e7a0679	0.24416532
5	0xbddcc784	-0.10780242
6	0xbdaae909	-0.08345229
7	0xbcf8b22e	-0.0303584
8	0x3e3f15c9	0.18660654
9	0x3ef267a6	0.47344702
10	0xbd6a993c	-0.057275042
11	0x3e6b46b1	0.22976185

layers.0.bn3.running_var f4 [12]
0	0x3e32ff1c	0.17480129
1	0x3e0afae0	0.13572264
2	0x3e10390c	0.14084262
3	0x3e0129ff	0.12613676
4	0x3e9bb2a4	0.3040973
5	0x3e79a3cd	0.24378891
6	0x3dfecd26	0.12441473
7	0x3e3412c9	0.17585291
8	0x3e6b631a	0.22987023
9	0x3e420441	0.18946935
10	0x3e05ac4b	0.13054006
11	0x3e2c52a9	0.16828407

layers.1.conv1.weight f4 [24, 12, 1, 1]
0	0xbc77bdc4	-0.015120927
1	0x3db62ef1	0.08895672
2	0x3e210e03	0.15728001
3	0x3dc23b1d	0.09483931
4	0x3d659e33	0.056059074
5	0xbe4239f2	-0.18967417
6	0xbe59978d	-0.21249218
7	0xbe89d53d	-0.269205
8	0x3d33e99f	0.04392397
9	0x3d00ff06	0.03149321
10	0x3e307b67	0.17234574
11	0x3d83b7f9	0.064315744
12	0xbe833330	-0.2562499
13	0x3d7086b7	0.058722224
14	0xbd03ea0d	-0.03220563
15	0x3e10a8e2	0.14126924
16	0xbd58c920	-0.052926183
17	0xbe6173f1	-0.22016884
18	0x3e1570ba	0.14593783
19	0x3df0c738	0.11756748
20	0xbd3796b9	-0.044821475
21	0x3e4f07b5	0.20217784
22	0xbda3e033	-0.08001747
23	0x3e8a12ad	0.26967373
24	0x3e3d3d90	0.18480515
25	0xbe0eef1d	-0.13958402
26	0xbe4b4534	-0.19850618
27	0x3e180141	0.14844228
28	0xbe1fe13a	-0.15613261
29	0xbddcfde9	-0.10790617
30	0xbe524a8c	-0.2053625
31	0xbe6b4d09	-0.22978605
32	0xbd8f6d29	-0.070032425
33	0x3de9c1cc	0.11413917
34	0xbe89a102	-0.26880652
35	0xbe895c54	-0.26828253
36	0x3dcecb94	0.10097423
37	0x3db4b7b0	0.08824098
38	0x393e29e5	0.00018135419
39	0xbdbb97b9	-0.09159798
40	0x3e58a35e	0.2115607
41	0x3dfb5768	0.12272531
42	0xbe0d095b	-0.137731
43	0xbe1a4130	-0.1506393
44	0x3e4de370	0.20106292
45	0xbe6937e6	-0.2277523
46	0x3ca15ac1	0.019696595
47	0xbe400919	-0.1875347
48	0x3e0ddf2a	0.13854662
49	0x3e68ea08	0.22745526
50	0x3d77b399	0.060474012
51	0x3ea7db41	0.32784465
52	0x3cb752b8	0.02237831
53	0x3e57753c	0.21040815
54	0x3ea5daae	0.32393402
55	0xbe1afc21	-0.15135242
56	0xbe4c5952	-0.19955948
57	0xbd0ac984	-0.033883587
58	0x3d97e796	0.074172184
59	0xbd8ebb36	-0.069693014
60	0xbda4a542	-0.08039333
61	0x3e06a726	0.131497
62	0xbe98fefc	-0.29882038
63	0xbd55768a	-0.052115
64	0x3d2e2701	0.042517666
65	0xbd846b8c	-0.064658254
66	0x3e55f597	0.20894466
67	0x3d4e23dc	0.050327167
68	0xbe85bca3	-0.2612048
69	0xbca9833f	-0.020692466
70	0x3d51584c	0.051109597
71	0x3e327543	0.17427544
72	0x3e59ff0a	0.21288696
73	0xbe65e0ea	-0.22449079
74	0xbe808d07	-0.25107595
75	0xbe96174e	-0.29314655
76	0x3e7d51a9	0.24738182
77	0xbe252cdb	-0.16130392
78	0x3ac562a2	0.0015059302
79	0xbe87455b	-0.26420102
80	0x3e9467cf	0.2898545
81	0x3dfaf7f9	0.12254328
82	0xbe027daa	-0.1274325
83	0x3dd0a432	0.10187568
84	0x3d96d0a9	0.073640175
85	0x3d23a76f	0.0399546
86	0xbe49ad4b	-0.19695012
87	0x3e716c55	0.23576482
88	0x3c972756	0.018451374
89	0x3df1c69f	0.11805462
90	0xbe8de7d7	-0.27715942
91	0x3e88ecae	0.26743072
92	0x3e04fddc	0.12987465
93	0x3ea12298	0.31471705
94	0x3e1ee6e8	0.15517771
95	0xbe6464e2	-0.22304109
96	0x3e1d0890	0.15335298
97	0xbe524b1b	-0.20536463
98	0x3e0d0d1f	0.13774537
99	0xbe9d2458	-0.3069179
100	0xbdc06f33	-0.093962096
101	0xbe474056	-0.19458136
102	0xbbd3cd84	-0.0064637084
103	0xbe5fc1c9	-0.21851267
104	0xbdc17366	-0.09445839
105	0x3ddef4ec	0.10886559
106	0x3eb1136c	0.3458513
107	0xbe1a6c6c	-0.15080422
108	0x3e544424	0.20729119
109	0x3cd27e07	0.02569486
110	0xbe43d2f5	-0.19123442
111	0x3e51491a	0.20438042
112	0xbe8cc807	-0.2749636
113	0x3e95d062	0.29260546
114	0x3eb5e11a	0.355233
115	0xbe265569	-0.16243519
116	0x3e62c3c3	0.2214499
117	0xbe97a107	-0.29615042
118	0x3e3b1a11	0.18271662
119	0x3e57917b	0.2105159
120	0x3d8864c2	0.06659843
121	0xbde840a0	-0.11340451
122	0x3e30c012	0.17260769
123	0xbe177f08	-0.14794552
124	0xbde47b95	-0.11156384
125	0xbdeed2c9	-0.11661298
126	0xbded5942	-0.1158929
127	0xbe5caf3f	-0.21551226
128	0xbea21099	-0.31653288
129	0x3daae1c5	0.08343843
130	0xbe23e1ae	-0.16004059
131	0x3e8d1c31	0.2756057
132	0xbd7cfab9	-0.061762545
133	0xbce1f596	-0.027582925
134	0xbd039b3d	-0.03213047
135	0xbd928115	-0.07153527
136	0x3f0073d5	0.50176746
137	0xbe03afe6	-0.12860069
138	0xbd1fb259	-0.038988445
139	0xbded72ba	-0.11594148
140	0x3d07a69c	0.033117875
141	0xbe6b7442	-0.22993568
142	0xbe30f2f6	-0.17280182
143	0x3e6b8ebc	0.23003668
144	0x3e0f1669	0.13973393
145	0xbe3921a0	-0.18079233
146	0xbda9c4f7	-0.08289521
147	0x3d868de9	0.06570036
148	0xbe523626	-0.20528468
149	0x3d8e5808	0.069503844
150	0xbe3d69ff	-0.18497466
151	0x3e5bfbe1	0.21482803
152	0xbd979f03	-0.07403376
153	0xbc8ca061	-0.017166318
154	0xbe8e4aa8	-0.27791333
155	0xbe4c82fa	-0.19971839
156	0x3dca95ee	0.09891878
157	0x3d47aa36	0.04874631
158	0x3ce36562	0.027758304
159	0xbda75b98	-0.08171767
160	0x3bf84184	0.0075761694
161	0x3e109d3a	0.14122477
162	0x3ebfe433	0.3747879
163	0x3e13c09a	0.1442894
164	0x3e857650	0.26066828
165	0x3dd91652	0.105999604
166	0xbe190228	-0.14942229
167	0xbe85f868	-0.2616608
168	0x3e71dfbc	0.23620504
169	0x3e767aa5	0.24070223
170	0x3e5663ab	0.20936458
171	0x3ea66e62	0.3250609
172	0xbe242829	-0.16030945
173	0xbe6d89f0	-0.2319715
174	0x3dd47c6b	0.10375293
175	0xbc388c03	-0.01126385
176	0xbd679060	-0.05653417
177	0xbe4fe263	-0.20301203
178	0x3df02cad	0.11727271
179	0xbe2c5a91	-0.16831423
180	0x3df61ef8	0.120176256
181	0xbebf399a	-0.37348634
182	0x3c229326	0.009922778
183	0xbe126224	-0.1429525
184	0xbd977ca2	-0.07396819
185	0x3e81a435	0.25320593
186	0x3d93e0c1	0.07220603
187	0xbe7e144f	-0.24812435
188	0xbe05c649	-0.13063921
189	0xbdf0b21f	-0.11752724
190	0x3db8828c	0.09009275
191	0x3e52ce44	0.20586497
192	0xbe2bae9c	-0.16765827
193	0x3e1f780e	0.15573141
194	0xbe7e1c53	-0.24815492
195	0xbe27351e	-0.16328856
196	0x3e44ad01	0.19206621
197	0x3e749439	0.23884667
198	0xbdc4c5e2	-0.09608056
199	0xbe080ed1	-0.13286902
200	0xbe5028f7	-0.20328127
201	0xbe2cce3a	-0.16875544
202	0x3e87333d	0.2640628
203	0xbe537672	-0.20650652
204	0x3e0c6abf	0.13712595
205	0x3e2ef80a	0.17086807
206	0xbe182c4f	-0.14860652
207	0xbda82c83	-0.08211615
208	0xbea7241a	-0.3264473
209	0xbe09496a	-0.13406911
210	0x3ccd22e8	0.025041059
211	0x3e23a103	0.1597939
212	0xbdc67d8b	-0.09691914
213	0x3eb8ad65	0.3606979
214	0xbd6824bc	-0.056675658
215	0xbde28760	-0.11060977
216	0xbe41d53d	-0.18929
217	0x3dc3ea0e	0.09566127
218	0xbd22a160	-0.03970468
219	0xbe875aef	-0.26436564
220	0xbd8f9861	-0.07011486
221	0xbdd0c0f3	-0.10193052
222	0x3de7fe2f	0.113277785
223	0xbe1158b1	-0.1419399
224	0x3e595596	0.21224055
225	0x3e49193f	0.19638537
226	0xbdd2e8a5	-0.1029828
227	0x3e3f7af6	0.1869925
228	0x3c3e26bd	0.011605916
229	0x3e5c6240	0.21521854
230	0x3e09ab7e	0.13444325
231	0xbe94da45	-0.29072776
232	0x3d6e590b	0.058190387
233	0x3e431c41	0.19053747
234	0x3d994b1e	0.074850306
235	0x3e8e4903	0.2779008
236	0xbe474c53	-0.19462709
237	0xbdd86e52	-0.10567917
238	0xbde5f9e3	-0.11229303
239	0x3e0f374f	0.13985942
240	0xbe6691cc	-0.22516555
241	0xbe66c5f2	-0.22536448
242	0x3e2ff351	0.17182662
243	0xbe813c8d	-0.2524151
244	0xbe0f2381	-0.13978387
245	0x3ddc3646	0.10752539
246	0xbd6a06fd	-0.05713557
247	0xbc735ec6	-0.014854139
248	0xbd5e1a2f	-0.05422419
249	0xbe4ccc30	-0.19999766
250	0xbe435c7e	-0.19078252
251	0x3de0b7c6	0.10972552
252	0x3e19294e	0.14957163
253	0xbc44e476	-0.01201736
254	0x3cf276a4	0.029597588
255	0x3e4b30b0	0.19842792

layers.1.bn1.weight f4 [24]
0	0x3f873d82	1.0565646
1	0x3f621455	0.88312274
2	0x3f8186cc	1.0119262
3	0x3f43496c	0.7628391
4	0x3f6e8e73	0.9318611
5	0x3f77d081	0.96802527
6	0x3f920238	1.1406927
7	0x3f48780d	0.7830818
8	0x3f5b7b8f	0.8573541
9	0x3f1e50b8	0.6184192
10	0x3f92851c	1.1446872
11	0x3f344037	0.70410484
12	0x3f68a954	0.90883374
13	0x3f8ad2de	1.0845602
14	0x3f844b88	1.033555
15	0x3f8297f0	1.0202618
16	0x3f78895b	0.9708459
17	0x3f77d651	0.96811396
18	0x3f9d1206	1.2271125
19	0x3f6dc4d0	0.9287844
20	0x3f856817	1.0422391
21	0x3f61e8cc	0.88245845
22	0x3f6e74f5	0.9314721
23	0x3f82787b	1.0193018

layers.1.bn1.bias f4 [24]
0	0xbd2fae83	-0.042891037
1	0x3d3a7465	0.04552116
2	0x3d4da7ca	0.050208844
3	0x3e8cec1b	0.27523884
4	0x3e11a221	0.14222004
5	0xbd17a4fd	-0.03702258
6	0x3d4f1f35	0.05056687
7	0x3e39cf56	0.18145499
8	0x3e0ffbeb	0.14060943
9	0x3e988fc6	0.2979719
10	0x3e5b3e2f	0.2141044
11	0x3ec70ceb	0.38877043
12	0x3dc08fc9	0.09402425
13	0x3d2d5183	0.042314064
14	0x3de5830f	0.11206638
15	0x3da61799	0.0810997
16	0x3c9fe48a	0.019518156
17	0x3d792a08	0.0608311
18	0x3e6da72b	0.23208301
19	0x3dd683c5	0.10474352
20	0x3d3f2fd1	0.04667646
21	0x3de76f9d	0.113005854
22	0x3e0f4dd5	0.13994534
23	0xbd35d409	-0.044391666

layers.1.bn1.running_mean f4 [24]
0	0xbbb9a072	-0.0056648785
1	0xbc86ded6	-0.016463678
2	0xbcac925e	-0.021065887
3	0x3c3aa383	0.011391523
4	0x3d34c084	0.04412891
5	0x3c3d996b	0.011572222
6	0xbd7878f8	-0.06066224
7	0x3c8c6588	0.017138258
8	0xbc41761f	-0.011807947
9	0x3cb3d1d5	0.021950642
10	0xbd08bd54	-0.033383682
11	0xbca84cdc	-0.020544462
12	0xbc095cab	-0.00838391
13	0xba5699b8	-0.0008186358
14	0x3ca575a1	0.020197691
15	0xbb884b85	-0.0041593933
16	0x3d62a587	0.05533364
17	0xbc6e010f	-0.01452662
18	0xbd090e45	-0.033460874
19	0x3c3c2744	0.011483971
20	0xbc3406c7	-0.010987944
21	0xbbcfd890	-0.006342955
22	0x3ba84d37	0.005136158
23	0xbc97619c	-0.018479161

layers.1.bn1.running_var f4 [24]
0	0x3e9e5a24	0.30928147
1	0x3e99332f	0.29921862
2	0x3f03c25f	0.5146846
3	0x3e654492	0.22389439
4	0x3eccd257	0.40004227
5	0x3e59a31d	0.21253629
6	0x3e8baef4	0.27281916
7	0x3f5a20b8	0.85206175
8	0x3ed0b216	0.4076087
9	0x3f313d9a	0.6923462
10	0x3ed0f336	0.40810555
11	0x3f329596	0.697595
12	0x3ef6449d	0.48099223
13	0x3ebe0a7d	0.37117377
14	0x3ef96925	0.4871303
15	0x3ef3ba47	0.47603056
16	0x3ef033bd	0.46914473
17	0x3f3faae0	0.7487011
18	0x3e6871b0	0.22699618
19	0x3ec4a1b9	0.38404635
20	0x3ed63105	0.41834274
21	0x3ebb7c23	0.36618146
22	0x3f5f96bb	0.8733937
23	0x3e71f6d3	0.23629312

layers.1.conv2.weight f4 [24, 1, 3, 3]
0	0xbde3ea44	-0.11128667
1	0xbe7afa9b	-0.24509661
2	0xbd8f7d26	-0.07006292
3	0xbe411efd	-0.18859477
4	0xbe8f9edb	-0.28050885
5	0xbdf08e15	-0.1174585
6	0xbe9cd9c5	-0.30634895
7	0xbe8c86b5	-0.27446523
8	0xbdcba1a6	-0.09942941
9	0xbe729210	-0.23688531
10	0xbc8f1fdf	-0.017471252
11	0xbe01493a	-0.1262559
12	0xbe507a09	-0.20359053
13	0x3ea65f0b	0.32494387
14	0x3c0daf2a	0.008647719
15	0x3cee51e0	0.029091775
16	0x3e5d4b39	0.21610726
17	0xbddb5be9	-0.1071089
18	0xbe6676ec	-0.22506303
19	0xbcd8ffc4	-0.026489146
20	0xbd55c663	-0.05219115
21	0x3dbc52bd	0.091954686
22	0x3e59c36c	0.21265954
23	0x3e735aac	0.23765057
24	0xbd3a4e87	-0.045485046
25	0xbdcfbe72	-0.101437464
26	0xbdd0c306	-0.10193448
27	0x3e8501ed	0.25978032
28	0x3dd3d5eb	0.10343536
29	0xbe25b64f	-0.16182826
30	0x3e8bd664	0.27312005
31	0x3d300fb7	0.042983737
32	0xbe5e733b	-0.21723644
33	0xbe8a62df	-0.27028558
34	0xbd246333	-0.040133666
35	0x3d50ee20	0.051008344
36	0xbd4a27b7	-0.04935428
37	0xbdcea165	-0.10089377
38	0xbd084fa8	-0.03327909
39	0xbe1b598c	-0.15170878
40	0xbe65b147	-0.22430907
41	0xbe015979	-0.12631787
42	0xbe3b395f	-0.18283604
43	0xbe5dadc3	-0.21648316
44	0xbe1a62fd	-0.15076824
45	0xbe7c191c	-0.24618953
46	0xbde41e97	-0.11138647
47	0xbe5c4bce	-0.21513292
48	0x3e0d6968	0.1380974
49	0x3e733767	0.23751603
50	0x3a01a027	0.0004944824
51	0x3e7d8b4c	0.24760169
52	0x3db41b00	0.08794212
53	0x3e82b4ac	0.25528467
54	0x3dc1a11b	0.094545566
55	0x3d5e7d19	0.05431852
56	0x3d05572b	0.032553833
57	0xbe2e8ce3	-0.17045932
58	0x3e66d354	0.22541553
59	0x3e6ec458	0.23317087
60	0x3b61fc20	0.0034482554
61	0x3e10be5c	0.14135116
62	0x3dbe9986	0.09306626
63	0xbe65faa7	-0.22458898
64	0xba93e4fb	-0.0011283451
65	0xbd0da332	-0.034579463
66	0xbe02583b	-0.1272897
67	0xbe5dc6f4	-0.21657926
68	0x3d4fa685	0.050695915
69	0x3e35ee11	0.17766596
70	0x3e6c0dd8	0.23052156
71	0x3e3d40a3	0.18481688
72	0x3dff305d	0.124603964
73	0x3e5fbe8c	0.21850032
74	0x3e41c242	0.1892176
75	0x3e88bb44	0.26705372
76	0x3e8bf585	0.27335754
77	0x3e046d1b	0.12932245
78	0x3e1e07b1	0.15432622
79	0x3e069ac0	0.1314497
80	0x3e1c2a3e	0.15250489
81	0x3e886f6e	0.26647514
82	0x3e4f87e3	0.2026668
83	0x3e1361b9	0.14392747
84	0x3e12dcbe	0.14342019
85	0x3ec947aa	0.39312488
86	0x3e2b857e	0.16750142
87	0x3e16834c	0.14698523
88	0x3eababc5	0.33529487
89	0x3e185058	0.14874399
90	0x3d8af1a0	0.067843676
91	0x3df3d350	0.11905539
92	0x3e88c8c4	0.26715672
93	0x3ddd4890	0.10804856
94	0x3e3bcea2	0.18340543
95	0xbd520869	-0.05127755
96	0xbe9a8551	-0.30179837
97	0xbe36a067	-0.17834626
98	0xbe5caef2	-0.21551111
99	0x3e347452	0.17622498
100	0x3e8dd4d6	0.27701443
101	0x3e360b22	0.17777684
102	0xbe3ece43	-0.1863337
103	0x3d735a87	0.059412505
104	0x3e334821	0.17507984
105	0xbe32458a	-0.1740934
106	0xbe8196e9	-0.25310448
107	0xbe8ad1be	-0.27113146
108	0x3e07146a	0.13191381
109	0xbd96f249	-0.07370431
110	0x3e208e2c	0.15679234
111	0xbe8fc80a	-0.28082305
112	0xbe6fc429	-0.23414673
113	0xbe752acd	-0.23942108
114	0x3e3d0606	0.18459329
115	0x3e6982f2	0.22803858
116	0xbc3daa0d	-0.011576188
117	0x3e1d32ea	0.15351453
118	0x3ea0a986	0.31379336
119	0x3de2dcb2	0.110772505
120	0xbe915c70	-0.28390837
121	0x3e676c4d	0.22599907
122	0xbdab8b56	-0.083761856
123	0x3ad7cc78	0.0016464135
124	0x3e4a5873	0.19760303
125	0xbe4119e7	-0.18857537
126	0x3e9f42c7	0.31105635
127	0x3e20e848	0.15713608
128	0x3d891541	0.06693507
129	0x3d37c919	0.044869516
130	0x3ecca6b8	0.39970946
131	0x3e645b7f	0.22300528
132	0xbcb7c960	-0.02243489
133	0x3e12aeae	0.14324448
134	0x3e9005b1	0.28129342
135	0xbe2b134c	-0.1670658
136	0x3e41eb4a	0.18937412
137	0x3e7187ec	0.23587006
138	0xbe53a49e	-0.20668265
139	0xbca033f4	-0.019556023
140	0xbed7abc7	-0.42123243
141	0xbd6557d9	-0.05599198
142	0x3cc4e1c3	0.024033433
143	0xbe16ca4c	-0.14725608
144	0x3e7cc9eb	0.246864
145	0x3e9547c2	0.2915631
146	0x3e3051a5	0.17218645
147	0x3e7ec5e3	0.24880175
148	0x3e855fe8	0.26049733
149	0x3def791e	0.11693023
150	0xbd4619ce	-0.048364453
151	0x3e3a5ad2	0.18198708
152	0x3e43b1f3	0.19110851
153	0x3d90e95f	0.07075762
154	0xbd852700	-0.06501579
155	0xbe58606e	-0.21130535
156	0xbe4f7227	-0.2025839
157	0xbe6b1af9	-0.22959508
158	0xbea45c8c	-0.32101858
159	0xbe8806e8	-0.2656777
160	0xbe0274e3	-0.12739901
161	0xbe1c8c07	-0.15287791
162	0x3bc39e77	0.005969818
163	0x3e312284	0.17298323
164	0xbd961d7e	-0.07329844
165	0x3eb2eac5	0.3494474
166	0xbe4f5a57	-0.20249306
167	0x3dd4a5b9	0.103831716
168	0x3ea46fb8	0.32116485
169	0x3d0a0fa9	0.03370634
170	0x3e3a4504	0.1819039
171	0x3dd0cace	0.10194932
172	0x3e34864f	0.1762936
173	0x3e436b9e	0.19084021
174	0x3e992492	0.29910713
175	0x3e9c10fc	0.30481708
176	0x3cc39cdd	0.02387851
177	0x3d1f7194	0.038926676
178	0x3e3a3863	0.18185572
179	0x3dbe94aa	0.09305699
180	0xbe69a46f	-0.22816633
181	0x3d8547af	0.06507813
182	0xbccfed4e	-0.02538171
183	0x3ee4a133	0.44654235
184	0x3d96eaa3	0.07368972
185	0xbe87e4e9	-0.26541832
186	0xbc281fa7	-0.010261453
187	0x3e43709b	0.19085924
188	0x3eaabd76	0.33347672
189	0xbea99820	-0.33123875
190	0x3d8a9932	0.06767501
191	0xbd131255	-0.035906155
192	0xbe65d831	-0.22445752
193	0x3dfeda78	0.12444013
194	0x3d2722b2	0.040804572
195	0xbe7135e8	-0.2355572
196	0x3d928a67	0.071553044
197	0x3e9501ec	0.2910303
198	0xbdd49e58	-0.10381764
199	0xbe057ed6	-0.13036665
200	0xbd8bd3bb	-0.06827494
201	0x3e3ce13a	0.18445292
202	0x3e3eaab2	0.18619803
203	0x3c3d6ded	0.011561853
204	0x3e7727a1	0.24136211
205	0x3ea6653e	0.32499117
206	0x3e21e38c	0.15809458
207	0xbce90678	-0.028445467
208	0xbe6659b8	-0.22495162
209	0xbdd8c305	-0.10584072
210	0x3e8f7480	0.2801857
211	0x3e6cbc52	0.23118713
212	0xbd08e7fb	-0.03342436
213	0x3e51ce8e	0.2048895
214	0x3e008392	0.1255019
215	0x3dcb3c06	0.09923558

layers.1.bn2.weight f4 [24]
0	0x3f8d5e13	1.1044334
1	0x3f594e40	0.84885025
2	0x3f848ef8	1.0356131
3	0x3f6b056a	0.91805136
4	0x3f9ba3b0	1.2159328
5	0x3f609f10	0.8774271
6	0x3f807847	1.0036706
7	0x3f6d08f3	0.9259178
8	0x3f805e7e	1.0028837
9	0x3f76b707	0.9637303
10	0x3f7eff5d	0.99608403
11	0x3f869f81	1.0517427
12	0x3f7772d0	0.96659565
13	0x3f7d4a1a	0.98941195
14	0x3f789985	0.9710925
15	0x3f66a677	0.90097755
16	0x3f8ad400	1.0845947
17	0x3f923c85	1.1424719
18	0x3f6e59bb	0.9310567
19	0x3f71923d	0.94363767
20	0x3f6710bb	0.90259904
21	0x3f8265d7	1.0187329
22	0x3f835e4c	1.0263152
23	0x3f720720	0.9454212
