Project/Project_files/ckpt/mobilenetv2_19_2_stem_2_5/mobilenetv2_19_2_stem_2_5_345.pt (torch, 35563 bytes, 52 tensors)

conv1.weight f4 [24, 3, 3, 3]
0	0xbe996eba	-0.2996729
1	0xbeb47d8b	-0.35252032
2	0x3e57a005	0.21057136
3	0xbe3a62bf	-0.18201731
4	0x3e3ab139	0.18231668
5	0x3ed4633c	0.4148196
6	0xbe59e3c9	-0.212783
7	0xbd664088	-0.056213886
8	0x3c2a93da	0.010411227
9	0x3d9713d0	0.07376826
10	0x3edcc25b	0.4311703
11	0xbd746f8c	-0.059676692
12	0x3e8dbc0d	0.27682534
13	0x3ef5f964	0.48041832
14	0xbf44f467	-0.7693543
15	0x3eddf4ee	0.4335093
16	0x3eef93a5	0.4679233
17	0xbe965d66	-0.29368132
18	0x3ecf5885	0.40497223
19	0xbefa0c28	-0.488374
20	0x3efb1e39	0.49046496
21	0xbd8fc5dc	-0.070201606
22	0xbefe8b15	-0.49715486
23	0x3df3469c	0.11878702
24	0x3de3ed58	0.11129254
25	0xbf300fb6	-0.68773973
26	0x3effe53d	0.49979582
27	0xbe74d999	-0.23911132
28	0x3ed938ef	0.4242625
29	0xbd31b389	-0.04338411
30	0x3f13a189	0.5766836
31	0xbe5f2a5e	-0.21793506
32	0x3e96d544	0.29459584
33	0xbf0c25d9	-0.5474525
34	0x3e4c2f16	0.19939837
35	0xbc50133a	-0.0126998965
36	0xbd2361ac	-0.03988807
37	0x3e705d1e	0.23473021
38	0xbe9014cb	-0.28140864
39	0x3ea7d4ab	0.3277944
40	0xbf225ee3	-0.63426036
41	0xbec477d9	-0.38372687
42	0xbdc55b9d	-0.096366145
43	0x3eb40e4f	0.35167167
44	0x3e29285f	0.16519307
45	0xbda4f934	-0.08055344
46	0x3beea41e	0.007282748
47	0xbf3a520a	-0.7278143
48	0x3f284814	0.6573498
49	0xbdff401c	-0.124634
50	0xbef0a48d	-0.47000542
51	0x3e10b5bb	0.14131825
52	0x3f3c90f5	0.73658687
53	0xbe44883f	-0.19192599
54	0xbe9c1813	-0.30487117
55	0xbec24054	-0.37939703
56	0xbf3b18d2	-0.7308475
57	0x3d61e2e8	0.055148035
58	0x3f0aaaed	0.5416706
59	0xbef1fbfa	-0.47262555
60	0x3f0ccbc6	0.54998434
61	0x3ec6210a	0.38697082
62	0x3cafd57a	0.021464098
63	0x3e98da58	0.29854083
64	0x3ef84f35	0.4849793
65	0x3f13026a	0.5742556
66	0x3e01f1ba	0.12689868
67	0xbe59f7aa	-0.21285883
68	0xbe69beac	-0.22826642
69	0xbf126a6e	-0.5719365
70	0xbeedb12b	-0.4642423
71	0xbef148d1	-0.47125867
72	0xbeacbe44	-0.3373891
73	0xbe6cc033	-0.23120193
74	0x3e190679	0.14943875
75	0xbdf6528b	-0.120274626
76	0xbea20c0d	-0.3164982
77	0x3e10059f	0.14064644
78	0x3e6aa33b	0.2291383
79	0x3d0c6fae	0.034286194
80	0x3efb9124	0.4913417
81	0x3ebc9675	0.3683354
82	0xbea714f5	-0.32633176
83	0xbda3395f	-0.07969927
84	0x3e36d622	0.17855123
85	0xbf08a5ed	-0.5337818
86	0x3d190843	0.037361395
87	0xbf3cbe81	-0.73728186
88	0xbee67e55	-0.4501826
89	0xbe0919df	-0.13388775
90	0xbed2364c	-0.4105705
91	0x3d22577b	0.03963421
92	0xbe62554c	-0.2210285
93	0x3f216b9d	0.6305483
94	0x3f00aa65	0.5026
95	0x3d11fb44	0.035640016
96	0x3ecab72e	0.3959288
97	0x3f504930	0.81361675
98	0x3daea47b	0.08527466
99	0x3e25b1df	0.16181134
100	0x3da254a6	0.07926302
101	0xb95e1cf6	-0.00021182359
102	0x3eb90b59	0.3614147
103	0xbe8d2625	-0.27568164
104	0xbeb4bb54	-0.3529917
105	0xbca40b9f	-0.020025073
106	0x3d2b7474	0.041859105
107	0xbf2b7788	-0.66979265
108	0x3e19732c	0.14985341
109	0x3e4752f9	0.19465245
110	0x3d0a79bf	0.033807512
111	0xbececd9d	-0.40391245
112	0xbf000837	-0.50012535
113	0x3eccaccd	0.39975587
114	0xbf2f1b85	-0.68401366
115	0xbeb4e363	-0.35329732
116	0x3e969aa7	0.29414865
117	0xbe143565	-0.14473493
118	0xbd0fe508	-0.03513053
119	0xbeff2427	-0.4983227
120	0x3e14a9c3	0.14517884
121	0x3c2591d5	0.01010557
122	0x3e881422	0.2657786
123	0x3c745c66	0.014914608
124	0x3cff79e1	0.031186046
125	0x3e60f368	0.21967852
126	0x3d02e6d0	0.0319584
127	0x3f582bf1	0.8444205
128	0xbe45e58f	-0.19325851
129	0x3f0bf8d4	0.54676557
130	0xbe77071f	-0.2412381
131	0xbd21f83b	-0.03954337
132	0x3f6f262a	0.9341761
133	0x3cca6086	0.02470423
134	0xbe35c47b	-0.17750733
135	0xbef032be	-0.46913713
136	0x3efbc2a0	0.49171925
137	0x3ea4ac0d	0.32162514
138	0xbeb3cad4	-0.35115683
139	0x3e89c2f7	0.2690656
140	0x3e934740	0.28765297
141	0x3e487868	0.19577181
142	0xbdae9443	-0.085243724
143	0xbed14a1a	-0.40876848
144	0x3e9986fd	0.299858
145	0x3e992789	0.29912975
146	0x3ea7d395	0.32778612
147	0xbe5cf3c8	-0.2157737
148	0xbe3773fe	-0.17915341
149	0x3e9831fd	0.29725638
150	0x3dccbbdc	0.09996769
151	0xbe4c9cd7	-0.19981705
152	0xbf0b9e46	-0.5453838
153	0x3eab37f4	0.33441126
154	0xbef7f0c8	-0.4842589
155	0xbf5a9b78	-0.85393476
156	0xbe7de844	-0.24795634
157	0xbc9e5236	-0.01932631
158	0x3e3fe3e1	0.18739273
159	0x3ed0ca87	0.40779516
160	0x3f0ce802	0.55041516
161	0x3e894e7d	0.26817694
162	0xbef5804a	-0.4794944
163	0x3daf2964	0.085528165
164	0x3e3957b5	0.18099864
165	0x3e47c8bb	0.19510166
166	0xbdb40260	-0.087895155
167	0x3edddafa	0.43331128
168	0xbe681072	-0.22662523
169	0xbdd982af	-0.10620629
170	0x3ddd525c	0.108067244
171	0xbe32bd9d	-0.17455144
172	0xbf0538b1	-0.5203963
173	0x3e0dfb77	0.13865457
174	0x3eee4c98	0.4654281
175	0xbecd486c	-0.40094316
176	0x3e1cb399	0.15302886
177	0x3f0ffcb6	0.5624498
178	0x3ef5c48c	0.48001516
179	0x3f002b74	0.50066304
180	0x3ea5825f	0.32326028
181	0xbe05a37f	-0.1305065
182	0xbf14a3da	-0.5806252
183	0xbdbbb3a9	-0.09165127
184	0xbf552659	-0.8326164
185	0xbe902b49	-0.28158024
186	0x3e0bd347	0.13654815
187	0xbcd8a948	-0.026447907
188	0xbf2cd29a	-0.6750885
189	0xbe794967	-0.24344407
190	0xbcd7547d	-0.026285404
191	0x3e6e91a5	0.23297746
192	0xbf4d0fc2	-0.8010217
193	0xbeb534bb	-0.35391793
194	0xbefe9d1a	-0.49729234
195	0x3f800b7c	1.0003505
196	0x3f04d789	0.5189138
197	0x3e4de026	0.20105037
198	0x3e420b35	0.18949588
199	0xbe9c9b6b	-0.30587325
200	0x3ce68777	0.028140767
201	0xbebb4841	-0.36578563
202	0xbe56f689	-0.20992483
203	0xbde4c22a	-0.11169846
204	0x3e89e733	0.26934204
205	0x3e60a976	0.21939644
206	0x3e278a07	0.16361247
207	0xbe3dc1e3	-0.18530993
208	0xbb4d09ed	-0.0031286434
209	0xbe232cc2	-0.15935043
210	0xbefc2413	-0.49246272
211	0x3dd26265	0.102726735
212	0xbad7c028	-0.0016460465
213	0x3e8452ed	0.25844517
214	0x3ec7918d	0.38978234
215	0x3ee1f31d	0.44130793
216	0xbd5bdf3d	-0.053679693
217	0xbec8a60f	-0.39189193
218	0xbee00512	-0.43753868
219	0xbe76ef2b	-0.24114673
220	0x3e543158	0.20721948
221	0xbd8c6086	-0.06854348
222	0x3f44a354	0.7681172
223	0x3e4f1037	0.20221029
224	0xbe169916	-0.14706835
225	0x3e8fee9d	0.28111735
226	0xbe16523e	-0.1467981
227	0xbc48a3c6	-0.012246078
228	0xbc524624	-0.012834106
229	0x3f452b95	0.77019626
230	0x3f35e69e	0.7105502
231	0xbe5149d0	-0.20438313
232	0x3deb89fe	0.11500929
233	0x3e96cba6	0.29452246
234	0xbcff4e6d	-0.031165326
235	0xbf13d2f3	-0.5774376
236	0xbdf703de	-0.120612845
237	0xbea056a2	-0.31316096
238	0x3df83a29	0.12120468
239	0x3edac07b	0.42724976
240	0xbef18b0d	-0.471764
241	0xbee57f17	-0.44823524
242	0x3ead46c9	0.33843067
243	0xbe2cb87f	-0.16867255
244	0xbec25edd	-0.37963
245	0x3c9f0458	0.019411251
246	0x3dd7ed92	0.1054336
247	0xbf3de728	-0.7418084
248	0x3e4b682e	0.1986396
249	0x3f07f3fa	0.53106654
250	0x3e8d11a5	0.27552524
251	0x3ee393a6	0.44448584
252	0xbe0a5d89	-0.13512243
253	0x3e854aff	0.2603378
254	0x3cb3cf31	0.021949382
255	0xbe3b5f4a	-0.18298069

bn1.weight f4 [24]
0	0x3f77c5a2	0.9678594
1	0x3f600d3d	0.875202
2	0x3f83d32a	1.0298817
3	0x3f3b08aa	0.73060095
4	0x3f8005fa	1.0001824
5	0x3f92f6fa	1.1481621
6	0x3f646dfb	0.89230317
7	0x3f9e08e9	1.2346469
8	0x3f89744c	1.0738616
9	0x3f9b0d06	1.211335
10	0x3f57669d	0.8414095
11	0x3f9b120b	1.2114881
12	0x3f79f2bf	0.97636026
13	0x3f5fc470	0.87409115
14	0x3f80d569	1.0065128
15	0x3f80844f	1.0040377
16	0x3fa294fe	1.2701719
17	0x3fa29712	1.2702353
18	0x3f8d2943	1.1028217
19	0x3f3e171c	0.7425401
20	0x3f6cd28a	0.9250876
21	0x3faf5ce0	1.3700218
22	0x3f887385	1.0660254
23	0x3fa8d7d3	1.3190864

bn1.bias f4 [24]
0	0x3e72e05a	0.23718396
1	0xbec0dee2	-0.37670046
2	0x3d537a5d	0.051630367
3	0x3d726825	0.05918135
4	0xbd92dd9b	-0.07171174
5	0x3db1ff43	0.086912654
6	0xbc5a69ce	-0.01333089
7	0x3e6c541c	0.2307896
8	0x39c41125	0.00037396807
9	0x3d055dc9	0.032560144
10	0xbe59bb44	-0.21262842
11	0x3c9422a8	0.018082932
12	0x3e4ff268	0.20307314
13	0x3d952ae6	0.07283573
14	0xbf13d2b1	-0.57743365
15	0xbe0678d5	-0.13132031
16	0x3ebfe40e	0.3747868
17	0xbdff02df	-0.124517195
18	0x3e206255	0.1566251
19	0x3ddfa928	0.10920936
20	0x3e846eca	0.25865775
21	0xbde652aa	-0.11246236
22	0x3d14b9bb	0.03630994
23	0xbe09675c	-0.13418335

bn1.running_mean f4 [24]
0	0xbbe8efd6	-0.007108669
1	0xbb9703b0	-0.004608594
2	0x398e58ad	0.0002715042
3	0x3b5e5668	0.0033926014
4	0xbcd0fc09	-0.025510805
5	0xbc394b38	-0.011309437
6	0x3c2c376b	0.01051126
7	0xbcd8da08	-0.026471153
8	0x3beb520c	0.0071814116
9	0x3bd780df	0.006576642
10	0xbc472125	-0.012153898
11	0x3bbe4f37	0.005807783
12	0x3c5605b0	0.013062879
13	0xbcb6776c	-0.022273742
14	0xbbeee977	-0.007291015
15	0xbc5f36b8	-0.013623886
16	0x3c6b3438	0.014355712
17	0x3c7831b5	0.01514857
18	0xbae64e38	-0.0017570918
19	0xbc89a141	-0.016800525
20	0x3b75afa9	0.0037488735
21	0xbb945f47	-0.0045279595
22	0x3b56af64	0.003275835
23	0xbb7ed78e	-0.0038885805

bn1.running_var f4 [24]
0	0x3f0a20bb	0.5395619
1	0x3fa7e162	1.3115656
2	0x3f663e4b	0.899388
3	0x3fb5cbbd	1.4202801
4	0x4012d446	2.2942061
5	0x3f2adcda	0.6674324
6	0x4048e2d3	3.1388443
7	0x40308195	2.757909
8	0x3fff6cc2	1.9955065
9	0x3f648900	0.89271545
10	0x3fe8351e	1.814121
11	0x401f6b00	2.4909058
12	0x4018a311	2.3849528
13	0x400df51d	2.2180855
14	0x3f1c8166	0.61134946
15	0x3fb67755	1.4255167
16	0x404e6841	3.2251132
17	0x401361f7	2.3028543
18	0x3f336c9f	0.7008762
19	0x406917af	3.6420705
20	0x4094210c	4.629034
21	0x3f439db9	0.7641254
22	0x3f63ab2b	0.88933057
23	0x40075190	2.1143532

layers.0.conv1.weight f4 [24, 24, 1, 1]
0	0x3e188033	0.14892654
1	0xbea42ad7	-0.32063934
2	0x3e561584	0.20906645
3	0x3d1590ef	0.036515173
4	0x3eac4933	0.33649597
5	0xbec0529b	-0.37563023
6	0xbec9514a	-0.3931983
7	0xbb1c203f	-0.002382293
8	0xbef86465	-0.48514095
9	0x3f1598ac	0.58436084
10	0x3d075832	0.033043094
11	0xbf5bf19d	-0.8591555
12	0x3e378164	0.17920452
13	0x3e86464a	0.262255
14	0xbd14a7a5	-0.03629269
15	0x3f1c795a	0.6112267
16	0x3dff8fa4	0.12478569
17	0x3f021115	0.50807315
18	0x3eaa118a	0.33216506
19	0xbec10fe3	-0.37707433
20	0xbf20b48b	-0.62775487
21	0xbe191754	-0.14950305
22	0x3e1a470a	0.15066162
23	0xbeaa241a	-0.33230668
24	0x3e4fceb2	0.20293692
25	0x3f08c018	0.5341811
26	0xbea5eeaf	-0.32408664
27	0xbbe85b36	-0.0070909513
28	0xbe0c0102	-0.1367226
29	0x3ef31c5d	0.47482577
30	0x3e8d6424	0.27615464
31	0xbd9cf742	-0.07664348
32	0xbf0d834e	-0.5527848
33	0x3e47590d	0.19467564
34	0x3d834ebc	0.06411502
35	0x3b0d0ac5	0.0021521312
36	0x3dc2fe82	0.095212
37	0xbe0ef71c	-0.13961452
38	0x3f0f8e80	0.5607681
39	0xbe912a44	-0.2835256
40	0xbef1ef76	-0.47253007
41	0xbe5a84f3	-0.21339779
42	0x3f835a65	1.0261961
43	0xbd768d62	-0.060193427
44	0xbd4a1d27	-0.049344208
45	0xbec0272c	-0.37529886
46	0x3e6b635a	0.22987118
47	0x3f07a9f0	0.5299368
48	0xbe114755	-0.14187367
49	0xbd7a7a86	-0.061152004
50	0x3d5b4592	0.053533144
51	0xbece2c38	-0.4026811
52	0x3d49f2a9	0.049303684
53	0xbeccb8b8	-0.3998468
54	0xbe56d158	-0.20978296
55	0x3f5644eb	0.8369891
56	0xbe2999f5	-0.16562636
57	0x3f215046	0.6301311
58	0xbe883e92	-0.26610237
59	0xbf0c818c	-0.5488517
60	0xbefe00c2	-0.49609953
61	0x3e1179dc	0.14206642
62	0xbea79fef	-0.32739207
63	0x3e920d95	0.28525987
64	0xbe432a1c	-0.19059032
65	0x3eb5052b	0.35355505
66	0x3f173023	0.59057826
67	0x3ebee676	0.37285203
68	0xbed02015	-0.40649477
69	0x3c573037	0.013134054
70	0x3eac2a84	0.33626187
71	0xbf00ceab	-0.5031535
72	0xbd8d50bd	-0.06900165
73	0x3e8ac386	0.27102298
74	0xbf1b95a6	-0.6077522
75	0x3e1fb5ef	0.15596746
76	0x3fad4199	1.3535644
77	0x3ed89d2a	0.42307407
78	0xbeadcfca	-0.33947593
79	0xbe3153c3	-0.17317109
80	0xbeee6cec	-0.46567476
81	0xbf406b62	-0.75163853
82	0xbd684b9a	-0.056712724
83	0x3eb8d00c	0.36096227
84	0xbf1a7351	-0.6033221
85	0xbe65f5b1	-0.22457005
86	0xbd87b832	-0.06626929
87	0xbd56f3e2	-0.05247868
88	0xbe18a2fe	-0.14905927
89	0xbd3ca287	-0.046053436
90	0x3d3ef933	0.046624374
91	0x3e84a20d	0.25904885
92	0x3dfee8a6	0.12446718
93	0x3d3a7a9e	0.045527093
94	0xbd383426	-0.044971608
95	0xbe32aa37	-0.17447744
96	0x3ef54baa	0.4790929
97	0xbd6e49e7	-0.058175948
98	0x3d833dcb	0.064082704
99	0x3da31e62	0.079647794
100	0x3d296fc1	0.041366342
101	0xbed47f36	-0.41503304
102	0x3e3c96b4	0.18416864
103	0xbcf8e693	-0.030383384
104	0x3dfbd759	0.12296934
105	0xbdde6e48	-0.10860878
106	0x3eec05f3	0.4609829
107	0xbf013cab	-0.50483197
108	0x3da5c9d0	0.08095133
109	0xbd526c0d	-0.051372577
110	0xbdb4a0cb	-0.08819731
111	0xbd3e8281	-0.046511177
112	0x3dd24e75	0.10268871
113	0xbf837c91	-1.027239
114	0x3df2031f	0.118170016
115	0xbea5d870	-0.3239169
116	0xbde016c3	-0.109418415
117	0xbe2dddde	-0.16979167
118	0xbec8eddf	-0.3924398
119	0x3f3a5bf5	0.72796565
120	0x3e3aa257	0.1822599
121	0xbec15491	-0.37759832
122	0xbe161b53	-0.14658861
123	0xbe42f18b	-0.19037454
124	0xbeb0379f	-0.34417436
125	0xbeb17965	-0.3466293
126	0xbe94347a	-0.28946286
127	0xbf71dd05	-0.94477874
128	0x3c606a33	0.013697195
129	0xbcb5eea4	-0.02220852
130	0x3e628a29	0.22123016
131	0xbee7364c	-0.45158613
132	0x3f5c585c	0.86072326
133	0xbed90a72	-0.42390782
134	0x3c2e6c9c	0.010646012
135	0x3f20e633	0.62851256
136	0x3ed8ef2d	0.42369977
137	0x3ed8347c	0.42227542
138	0xbacb26af	-0.00154992
139	0xbf3668d0	-0.7125368
140	0xbf63830e	-0.8887185
141	0x3ecd092a	0.40046054
142	0xbe85becf	-0.26122138
143	0xbe3fe880	-0.18741035
144	0xbe030bb8	-0.12797439
145	0xbf056c38	-0.52118254
146	0xbeb9c76d	-0.36284962
147	0xbdd8815d	-0.10571549
148	0xbf489afb	-0.7836148
149	0xbdc11382	-0.09427549
150	0xbebf1d87	-0.37327215
151	0xbed1a5b0	-0.40946722
152	0x3e73b720	0.23800325
153	0xbd79364a	-0.06084279
154	0x3f0730a2	0.5280858
155	0x3f0f93ba	0.5608479
156	0x3dd156a0	0.102216005
157	0xbdbd8265	-0.092533864
158	0xbf5fa7e7	-0.87365574
159	0xbe916f65	-0.284053
160	0x3f15b6f8	0.58482313
161	0xbe66fea2	-0.22558072
162	0xbdc865a6	-0.09785013
163	0xbf03d201	-0.51492316
164	0x3e3f70d3	0.18695383
165	0xbdab31db	-0.083591186
166	0x3ebf474d	0.37359086
167	0x3e237af3	0.1596487
168	0xbe2d8ed1	-0.16949011
169	0x3e40f9a6	0.18845233
170	0xbf22588e	-0.63416374
171	0xbdc88a68	-0.09792024
172	0xbf91ec63	-1.1400265
173	0x3d593776	0.053031407
174	0x3f74f509	0.95686394
175	0xbe9fb51d	-0.31192866
176	0x3e5bb34f	0.2145512
177	0x3f0a04b3	0.5391342
178	0xbee1726d	-0.44032612
179	0xbe2c031b	-0.1679806
180	0x3e657a56	0.22409949
181	0xbeeb562a	-0.45964175
182	0x3e4fd4d8	0.20296037
183	0xbdb9fc60	-0.0908134
184	0x3ed22fe1	0.41052154
185	0x3dacdb22	0.08440234
186	0xbbe29fd2	-0.0069160247
187	0x3e07653d	0.13222213
188	0x3e50f85f	0.20407246
189	0xbb6ff9b4	-0.003661734
190	0x3f022b44	0.5084727
191	0xbd056bf0	-0.03257364
192	0x3f56d95b	0.8392541
193	0xbde9021d	-0.11377356
194	0x3f0aabb4	0.5416825
195	0xbe650a73	-0.22367267
196	0xbed0687e	-0.4070472
197	0x3ead95e4	0.3390342
198	0x3c0e97a4	0.008703146
199	0xbe4c3e86	-0.19945726
200	0x3ec2e4e4	0.38065255
201	0xbf103cdf	-0.5634288
202	0xbe4b679a	-0.1986374
203	0xbe2369e2	-0.1595836
204	0x3ed68270	0.4189639
205	0x3d23675b	0.03989349
206	0xbe2ea80b	-0.17056291
207	0x3e89020c	0.26759374
208	0xbe9f53f5	-0.31118742
209	0x3eb26e2f	0.34849688
210	0xbcb2c448	-0.02182211
211	0xbe25e4b5	-0.16200526
212	0xbe82ab0c	-0.25521123
213	0x3f3e6c83	0.74384326
214	0x3e9c48d8	0.30524325
215	0x3d946dbe	0.07247494
216	0x3d921d8a	0.071345404
217	0x3ef9ea75	0.4881169
218	0x3f2c8774	0.67394185
219	0x3e973b03	0.2953721
220	0xbe1acec3	-0.15117936
221	0xbf055e03	-0.52096575
222	0xbe309bca	-0.17246929
223	0x3d8d4ef8	0.06899828
224	0xbe8c4eb7	-0.27403805
225	0xbe800c7b	-0.25009522
226	0x3f04670e	0.5171975
227	0x3c41e351	0.011833982
228	0x3e9b8964	0.30378258
229	0x3e11fc6d	0.14256449
230	0xbe979d1b	-0.2961205
231	0x3e52536c	0.20539635
232	0x3f427e42	0.75973904
233	0xbe0edb80	-0.1395092
234	0x3eea5555	0.45768228
235	0x3dfac50b	0.12244614
236	0x3f39af3f	0.7253303
237	0x3f126ab0	0.5719404
238	0xbde3825b	-0.11108848
239	0xbe8e206e	-0.27759117
240	0xbd813e54	-0.06310716
241	0xbec3936f	-0.3819842
242	0x3ea227a6	0.31670874
243	0xbe4a8dba	-0.19780627
244	0xbea1e90b	-0.3162311
245	0x3ef9b008	0.48767114
246	0x3dfc9f22	0.1233504
247	0x3f78e154	0.97218823
248	0x3f0e103c	0.5549352
249	0x3e313679	0.17305936
250	0xbe0ac902	-0.13553241
251	0xbd1c93a6	-0.038226746
252	0xbed2b454	-0.41153204
253	0x3f2e8a0b	0.68179387
254	0x3c9b7c34	0.018980123
255	0xbe988c8d	-0.29794732

layers.0.bn1.weight f4 [24]
0	0x3f025c82	0.50922406
1	0x3eec6300	0.4616928
2	0x3fce7ad5	1.6131235
3	0x3f6644e8	0.8994889
4	0x3f804834	1.0022035
5	0x3f845493	1.033831
6	0x3f000e57	0.5002188
7	0x3ea68f6e	0.32531303
8	0x40001d71	2.001797
9	0x3f90282f	1.1262263
10	0x3f63668f	0.88828367
11	0x3ee49ede	0.44652456
12	0x3f0cde65	0.5502685
13	0x3eb6d811	0.3571172
14	0x3f1975a4	0.5994513
15	0x3fe86b29	1.8157703
16	0x3faf45b5	1.3693148
17	0x3ed9fca2	0.42575556
18	0x3f1629bc	0.5865743
19	0x3f80bc01	1.0057374
20	0x3efb1729	0.49041107
21	0x3ffa1cd2	1.9540045
22	0x3ff2aeab	1.8959554
23	0x3f87bbfa	1.0604241

layers.0.bn1.bias f4 [24]
0	0x3f3820a3	0.719248
1	0x3f237cd4	0.6386235
2	0xbd4848c3	-0.048897516
3	0x3e8f21f1	0.27955583
4	0xbd01a67b	-0.03165291
5	0x3ea60cc6	0.3243162
6	0x3f1c9573	0.6116554
7	0x3f5247e1	0.8214093
8	0xbeb132dc	-0.34609115
9	0xbc5fa2b4	-0.013649631
10	0xbecf631e	-0.40505308
11	0x3f2dac6a	0.6784121
12	0x3f1e689f	0.6187839
13	0x3f4a3c00	0.789978
14	0xbf0ca29b	-0.54935616
15	0x3d848e1c	0.06472418
16	0x3f817032	1.0112364
17	0x3f220ec9	0.6330381
18	0x3f21e597	0.6324095
19	0x3e9127f3	0.2835079
20	0x3f1fcb8d	0.6241997
21	0xbed08aed	-0.40730992
22	0x3f0b6dcf	0.5446443
23	0xbe2835a3	-0.16426711

layers.0.bn1.running_mean f4 [24]
0	0x3c53136a	0.012883047
1	0xbeea22af	-0.45729586
2	0x3e7f40b4	0.24927026
3	0xbe9a130e	-0.30092663
4	0x3da587e2	0.08082558
5	0xbe9184b2	-0.2842155
6	0x3f464986	0.7745594
7	0x3dbd701b	0.09249898
8	0x3dee0628	0.11622268
9	0x3f031a2b	0.51211804
10	0x3ec28194	0.37989485
11	0xbe80c836	-0.2515275
12	0xbbf97ea7	-0.007613975
13	0x3ce1ac37	0.027547939
14	0x3ee97d80	0.4560356
15	0xbed4a026	-0.41528434
16	0xbe982650	-0.2971673
17	0x3ed092af	0.4073691
18	0xbfba1066	-1.4536254
19	0x3e48452b	0.19557635
20	0x3e02a728	0.12759078
21	0x3ea7d257	0.32777664
22	0xbe5d5b2f	-0.21616815
23	0xbe9127a8	-0.28350568

layers.0.bn1.running_var f4 [24]
0	0x410c3a55	8.764241
1	0x40344d30	2.8172112
2	0x40e3b3de	7.1157064
3	0x409add18	4.839489
4	0x40ac8d92	5.3922815
5	0x4187e198	16.985153
6	0x405c5120	3.4424515
7	0x40a81972	5.253106
8	0x401b7181	2.4288027
9	0x4113e130	9.242477
10	0x41288682	10.532839
11	0x409483f3	4.641107
12	0x40b93fa6	5.7890196
13	0x40f85b78	7.7611656
14	0x405840ac	3.3789473
15	0x412ede20	10.92923
16	0x4083f16b	4.12322
17	0x40e1d265	7.056933
18	0x402630a7	2.5967195
19	0x412d4b7c	10.830929
20	0x403f363a	2.9876847
21	0x41038ac0	8.2213745
22	0x40b6606c	5.6992702
23	0x40f146d7	7.5398974

layers.0.conv2.weight f4 [24, 1, 3, 3]
0	0xbe0c89d7	-0.13724457
1	0xbeaa7d2e	-0.3329863
2	0x3ef83b62	0.48482805
3	0xbf3bfbdf	-0.734312
4	0x3e18cd75	0.14922126
5	0x3f01f515	0.5076459
6	0x3e42cc3c	0.19023222
7	0x3e1eac84	0.15495497
8	0xbe87d778	-0.26531577
9	0xbf112752	-0.56700623
10	0x3ed6cd5e	0.41953558
11	0x3d09cb85	0.033641357
12	0xbda9ca78	-0.08290571
13	0xbf160479	-0.58600575
14	0x3e3ff9f7	0.18747698
15	0x3f377b60	0.7167263
16	0xbe271654	-0.16317111
17	0xbdbc7b84	-0.09203246
18	0x3e6eb2b1	0.23310353
19	0x3e5cb0e9	0.21551861
20	0xbf32d4d4	-0.69856
21	0x3e136b98	0.14396513
22	0xbe8dd046	-0.27697963
23	0xbf1464f3	-0.57966536
24	0x3e9deb24	0.3084346
25	0xbf1665e6	-0.58749235
26	0x3dc925ad	0.09821639
27	0x3f1df4ac	0.61701465
28	0xbe3ace2e	-0.18242714
29	0xbf69e9d1	-0.913724
30	0x3e9edd7c	0.31028354
31	0xbf082a09	-0.5318914
32	0xbdfe4c96	-0.12416951
33	0x3a87e043	0.0010366518
34	0xbe5851ab	-0.21124904
35	0xbe2e637a	-0.17030135
36	0xbe7a6365	-0.24451979
37	0xbcb97934	-0.022640802
38	0x3eb5a7ab	0.35479483
39	0xbe90559d	-0.28190318
40	0x3f43d8e4	0.76502824
41	0x3f32a24d	0.697789
42	0x3e6d1162	0.23151162
43	0x3e147c07	0.14500438
44	0x3d874538	0.06604999
45	0xbe0d7d64	-0.13817364
46	0x3d1f8ffb	0.03895567
47	0xbe8d4caf	-0.27597567
48	0xbf19cb57	-0.60075897
49	0x3f1707ea	0.5899645
50	0xbf669553	-0.900716
51	0xbf181a87	-0.5941548
52	0x3c9bc922	0.019016806
53	0xbea10afc	-0.31453693
54	0xbe9830b6	-0.29724663
55	0xbf04bb23	-0.5184805
56	0x3cbb4b0e	0.022862937
57	0x3ea97748	0.33098817
58	0x3f004ca3	0.5011694
59	0x3f2de7a1	0.6793156
60	0xbea1f2d8	-0.31630588
61	0xbee3fb80	-0.44527817
62	0x3cd24c9e	0.0256713
63	0xbec5e4ee	-0.38651222
64	0xbea8e2b8	-0.32985473
65	0x3e59e142	0.21277335
66	0xbd8a2846	-0.06745963
67	0x3cde2db9	0.027121412
68	0x3f22e32f	0.63627905
69	0xbf11c492	-0.5694057
70	0xbe450979	-0.19241895
71	0x3f0eb200	0.55740356
72	0x3ecd7a28	0.4013226
73	0xbec30a76	-0.3809392
74	0x3e537510	0.20650125
75	0xbe0bd2a0	-0.13654566
76	0xbf17901c	-0.5920427
77	0xbeda7e11	-0.42674306
78	0xbf14dbce	-0.58147895
79	0xbef549f6	-0.4790799
80	0xbe4f56b1	-0.20247914
81	0x3f16cb0a	0.58903563
82	0x3e51597f	0.20444296
83	0xbe8eb763	-0.27874288
84	0x3f54350e	0.82893455
85	0x3d57bebb	0.05267213
86	0x3e675c09	0.22593702
87	0x3f4aeac9	0.79264504
88	0x3eb8bf40	0.36083412
89	0x3f063348	0.52422
90	0x3f008743	0.50206393
91	0x3eb3030a	0.34963256
92	0x3edaca33	0.4273239
93	0x3f1945f6	0.59872377
94	0x3f370561	0.7149258
95	0x3ed408c7	0.41412947
96	0x3d455c62	0.048183806
97	0x3eac085a	0.33600122
98	0x3e75475e	0.23953006
99	0x3e4cf336	0.20014653
100	0xbc6c1f9c	-0.014411833
101	0xbe2e0ce2	-0.16997102
102	0x3f35db70	0.7103796
103	0xbf38ef53	-0.7224018
104	0xbd00d1d4	-0.031450108
105	0x3eaf9049	0.34289768
106	0xbf0f74a1	-0.56037337
107	0x3eabb8bd	0.33539382
108	0xbe846508	-0.2585833
109	0x3ee08c6e	0.4385714
110	0xbe65645d	-0.22401567
111	0xbcc8faec	-0.024533711
112	0xbf11dc41	-0.56976706
113	0x3e897962	0.2685042
114	0xbc571dff	-0.01312971
115	0x3f50ad2e	0.8151425
116	0xbec72d7f	-0.38901898
117	0x3ebc8a00	0.36824036
118	0x3e88df8f	0.26733062
119	0xbc7bb824	-0.015363727
120	0xbf1bfbf8	-0.6093135
121	0x3e9fb18b	0.31190142
122	0x3ef9e4e9	0.48807457
123	0xbd45369f	-0.048147794
124	0xbf3a7c37	-0.72845787
125	0xbe1125cd	-0.14174576
126	0x3df9e0ba	0.12201066
127	0xbf492635	-0.78573924
128	0xbec9c0ef	-0.3940501
129	0x3e8178ac	0.25287378
130	0x3ef5665b	0.47929654
131	0xbd95767c	-0.0729799
132	0x3e7b7871	0.24557664
133	0x3f1e6e29	0.6188684
134	0xbe652f40	-0.22381306
135	0xbe9921d9	-0.29908636
136	0x3ea73d37	0.3266389
137	0x3e7d2eb3	0.24724846
138	0x3f5f16b6	0.8714403
139	0x3f2fcc0e	0.6867074
140	0x3e7c1842	0.24618629
141	0x3eb89358	0.36049914
142	0x3d8e48f6	0.0694751
143	0x3b2a2a2c	0.0025965078
144	0xbef1033d	-0.47072783
145	0xbed8dc9f	-0.4235582
146	0xbf3ba169	-0.7329317
147	0x3e3391df	0.17536114
148	0xbecac3eb	-0.396026
149	0x3eb9ebd1	0.36312726
150	0x3eb6afb2	0.3568092
151	0x3ed881e6	0.42286605
152	0x3e72f5c5	0.23726566
153	0xbe00f3df	-0.1259303
154	0x3de6f52e	0.11277233
155	0x3de05dd2	0.10955395
156	0xbef1937b	-0.4718283
157	0x3f55e66a	0.8355471
158	0xbf08e0d4	-0.5346806
159	0xbe29de79	-0.16588773
160	0x3ee14705	0.43999496
161	0xbe7efc5e	-0.24900958
162	0x3e91e2e8	0.28493428
163	0xbf202e35	-0.62570506
164	0x3ea8735f	0.3290052
165	0xbeea3218	-0.45741343
166	0x3e4ca238	0.19983757
167	0x3e7cd5ea	0.24690977
168	0xbde5f08b	-0.112275206
169	0x3efcbf7d	0.49364844
170	0xbeda4ec9	-0.42638233
171	0x3d562595	0.052281935
172	0xbe5d7f21	-0.21630527
173	0xbf320260	-0.69534874
174	0xbf02a621	-0.5103474
175	0x3e689eca	0.22716823
176	0xbc7afea3	-0.015319499
177	0xbf9a677b	-1.206283
178	0xbe0984ff	-0.1342964
179	0x3d4ec552	0.050481148
180	0x3eb5f9d3	0.35542163
181	0xbd6fd37c	-0.058551297
182	0xbe8a2f80	-0.26989365
183	0x3f512579	0.81697804
184	0xbea7af2f	-0.32750842
185	0xbea8c960	-0.32966137
186	0x3e9a272c	0.3010801
187	0xbef0ba54	-0.47017157
188	0xbe23e92d	-0.16006918
189	0x3e93e84c	0.28888166
190	0xbe1afe31	-0.15136029
191	0xbe73be80	-0.23803139
192	0x3e0962ea	0.13416639
193	0x3f36fb9d	0.7147768
194	0xbeeb008e	-0.4589886
195	0x3eef04ec	0.46683443
196	0x3eb656a9	0.3561299
197	0xbeeed8f1	-0.46649888
198	0xbede5fa9	-0.43432358
199	0x3e187042	0.14886573
200	0x3e14bc45	0.14524944
201	0xbf0a91c8	-0.54128695
202	0xbdbf47ab	-0.093398415
203	0x3f45c61d	0.7725542
204	0xbf07dc8e	-0.53070915
205	0x3dea9d86	0.114558265
206	0x3ebfed73	0.37485847
207	0xba81853f	-0.0009881629
208	0x3ee81905	0.45331588
209	0x3ee61b44	0.44942677
210	0xbc3255df	-0.010884731
211	0x3f2a53f9	0.6653438
212	0x3f1d8c92	0.6154262
213	0x3eb051f5	0.34437528
214	0x3ee7e3f9	0.45291117
215	0xbca78043	-0.020446902

layers.0.bn2.weight f4 [24]
0	0x3fbbfcc4	1.4686513
1	0x3fad0a71	1.3518811
2	0x3f5c577d	0.86070997
3	0x3f327ecb	0.6972472
4	0x3f3b73ce	0.7322358
5	0x3f5f3ee4	0.8720534
6	0x3fdb2d4b	1.7123197
7	0x3fc715ea	1.5553563
8	0x3f0f6e80	0.56027985
9	0x3fb3ebc5	1.4056326
10	0x3fab34bb	1.3375467
11	0x401356dc	2.3021765
12	0x3f9545e1	1.166195
13	0x3fa31cae	1.2743127
14	0x3f4956d7	0.7864813
15	0x3f85a8df	1.044216
16	0x3f604ff6	0.8762201
17	0x3fcd5d50	1.6044102
18	0x3f8f876c	1.1213202
19	0x3f0ad734	0.54234624
20	0x3fcccaa0	1.5999336
21	0x3f38d411	0.7219859
22	0x3f82af2a	1.0209706
23	0x3f82cfba	1.0219643

layers.0.bn2.bias f4 [24]
0	0x3cb24713	0.021762406
1	0xbd70fe73	-0.05883641
2	0x3f016efe	0.50559986
3	0x3ef71044	0.48254597
4	0x3e0c5788	0.13705266
5	0x3f2cad53	0.6745197
6	0xbce2458e	-0.027621057
7	0x3ee24bce	0.4419846
8	0x3f968952	1.1760657
9	0x401ca898	2.4477901
10	0x4007d7e7	2.1225526
11	0xbea0e7a0	-0.31426716
12	0xbd83d626	-0.0643733
13	0xbe452255	-0.19251378
14	0x3bd2a070	0.006427817
15	0x3f3d8905	0.740372
16	0x3ef75730	0.48308706
17	0x3d289b24	0.04116358
18	0xbd446fbc	-0.04795812
19	0x3f933e59	1.1503402
20	0xbe3c5344	-0.18391138
21	0x3e94c270	0.29054594
22	0x3cb948c3	0.022617703
23	0x3f9dda77	1.2332295

layers.0.bn2.running_mean f4 [24]
0	0x3d4a69e9	0.04941741
1	0xbdbf2de9	-0.093349285
2	0xbf0c73a1	-0.54863936
3	0xbf1c439a	-0.6104065
4	0x3f08e4f9	0.53474385
5	0xbf90ff58	-1.1327925
6	0x3ccbc566	0.0248744
7	0xbca72a47	-0.020405902
8	0xbf9bd7d3	-1.2175239
9	0x3f897f93	1.0742058
10	0x3f03af39	0.51439244
11	0x3a6d67bd	0.0009056291
12	0x3d7e94ca	0.062153615
13	0xbdbe0430	-0.092781425
14	0x3c31e32f	0.010857387
15	0x3fb7544f	1.4322604
16	0xbedf84a0	-0.43655872
17	0xbc2cadae	-0.010539455
18	0xbd19855c	-0.037480697
19	0xbf9c6b4c	-1.2220244
20	0xbe2d9ec7	-0.169551
21	0x3eb0882d	0.34478894
22	0x3d86a872	0.06575097
23	0x3f4a13c4	0.7893641

layers.0.bn2.running_var f4 [24]
0	0x3ddca8ed	0.107744075
1	0x3e65239a	0.22376862
2	0x3f42bf04	0.76072717
3	0x3f2fca4c	0.68668056
4	0x3f402de5	0.7507003
5	0x3f9cb7e4	1.2243619
6	0x3e9dc0e4	0.30811226
7	0x3d9e43eb	0.07727798
8	0x407bc6e7	3.934015
9	0x401d5784	2.4584665
10	0x3f8055af	1.0026149
11	0x3ec96ae9	0.39339378
12	0x3d8af856	0.067856476
13	0x3e0a07b5	0.13479502
14	0x3d4e33c4	0.050342336
15	0x40777bc1	3.8669283
16	0x3f7d4f19	0.9894882
17	0x3e64a9d7	0.22330414
18	0x3e00c4c1	0.12575056
19	0x3fe29623	1.7702068
20	0x3ee106f3	0.43950614
21	0x3f5bf8e7	0.8592667
22	0x3f825298	1.0181456
23	0x3fc8f6b3	1.5700287

layers.0.conv3.weight f4 [11, 24, 1, 1]
0	0xbdaef387	-0.08542543
1	0x3ec586d3	0.38579425
2	0xbe413512	-0.18867901
3	0x3d884510	0.066537976
4	0x3eec6072	0.46167332
5	0x3eeacf50	0.45861292
6	0x3dbbf864	0.09178236
7	0xbf0891bd	-0.5334738
8	0xbe8224c8	-0.25418687
9	0xbe4d0aa5	-0.20023592
10	0xbdb8cad6	-0.09023063
11	0x3f5a7c6f	0.8534612
12	0x3e3e37dc	0.18575996
13	0x3e6f882d	0.2339179
14	0xbe884ddd	-0.26621905
15	0xbe5e7792	-0.217253
16	0xbe2ba923	-0.1676374
17	0x3f683b35	0.9071534
18	0x3f8c7c3b	1.0975412
19	0xbde7804e	-0.11303769
20	0x3f21c804	0.63195825
21	0x3a8b9db1	0.0010651854
22	0xbe55e719	-0.20888938
23	0x3ec5300a	0.38513213
24	0x3f08c652	0.5342761
25	0x3dd925ca	0.10602911
26	0x3cf4cc1d	0.029882485
27	0x3e94e372	0.29079777
28	0xbf80bb03	-1.0057071
29	0xbec7c3c4	-0.39016545
30	0x3e003c27	0.12522946
31	0x3e89dd33	0.26926574
32	0x3e9195c7	0.28434584
33	0x3e841571	0.25797608
34	0xbec2475a	-0.37945062
35	0x3e68364b	0.22676961
36	0x3ebc3958	0.367625
37	0xbe96bba9	-0.29440048
38	0xbda9a1f9	-0.08282847
39	0xbdf90476	-0.12159054
40	0x3e41e917	0.18936573
41	0x3e3f857a	0.18703261
42	0x3f36b179	0.7136455
43	0x3f4eae7f	0.8073501
44	0x3da8cdcb	0.08242377
45	0xbedd824a	-0.43263465
46	0x3f10d4d0	0.56574726
47	0x3d0ec6d0	0.03485757
48	0x3e6ae254	0.229379
49	0x3e48134c	0.19538611
50	0x3d474754	0.04865201
51	0xbf0c25cc	-0.54745173
52	0xbf19cb94	-0.6007626
53	0xbcabe92f	-0.020985214
54	0x3e215bd4	0.15757686
55	0xbe5910dc	-0.21197838
56	0x3f1b0ac5	0.6056331
57	0x3ed67ac1	0.4189053
58	0xbcd02cef	-0.025412051
59	0xbebf22f1	-0.37331346
60	0x3df83d4d	0.12121067
61	0x3f027d13	0.509721
62	0x3ed9693a	0.42463094
63	0x3ef33b36	0.47506112
64	0xbc379312	-0.011204498
65	0xbecff02c	-0.40612924
66	0xbe67870c	-0.2261011
67	0x3e7610c5	0.24029835
68	0xbe6671bc	-0.22504324
69	0x3f2926b9	0.6607471
70	0x3ec34250	0.3813653
71	0x3f134a88	0.575356
72	0x3f04dbc5	0.5189784
73	0xbe87c88e	-0.265202
74	0xbec84edc	-0.39122665
75	0xbda35220	-0.079746485
76	0x3ed89e83	0.42308435
77	0xbe9e3cae	-0.3090567
78	0x3a64656a	0.00087126216
79	0x3e59f09e	0.21283194
80	0xbf143699	-0.5789581
81	0xbeb9ac8b	-0.36264452
82	0x3f376b2b	0.716479
83	0xbe4ab580	-0.197958
84	0xbebbf4be	-0.3671016
85	0xbf09f68d	-0.5389183
86	0xbe9271b2	-0.28602368
87	0xbe6ad9c3	-0.22934632
88	0x3e4d0481	0.2002125
89	0xbe47f864	-0.19528347
90	0x3e0c80ef	0.1372106
91	0x3ee1132e	0.43959945
92	0xbf05a2d4	-0.5220158
93	0x3ee3538f	0.44399688
94	0x3d5574d8	0.052113384
95	0x3f132145	0.5747264
96	0x3c8facb6	0.01753841
97	0xbf05c060	-0.52246666
98	0xbeb38867	-0.35065004
99	0x3dfeaf07	0.124357276
100	0xbe64477d	-0.22292896
101	0x3f08e28b	0.5347068
102	0x3e867cd5	0.26267114
103	0xbebfe619	-0.37480238
104	0xbef8541e	-0.48501676
105	0xbd5e48d9	-0.05426869
106	0xbd28a300	-0.041171074
107	0xbe6cdf02	-0.23131946
108	0x3f11cf09	0.56956536
109	0xbf6f1e04	-0.93405175
110	0xbf23d639	-0.6399875
111	0xbda27066	-0.079315946
112	0x3f314b9a	0.69255984
113	0xbe94eb46	-0.2908575
114	0x3e158296	0.14600596
115	0xbb86ef0e	-0.004117853
116	0xbdedcdf2	-0.116115466
117	0x3eb39806	0.35076922
118	0xbf44f909	-0.769425
119	0x3e7230f3	0.23651485
120	0x3e7b4340	0.24537373
121	0x3f421f38	0.75828886
122	0x3da5e449	0.081001826
123	0xbb3dd86a	-0.0028968104
124	0xbef6e68e	-0.48222774
125	0x3ec76d55	0.389506
126	0xbec031d8	-0.37538028
127	0x3e6c9f2b	0.23107593
128	0xbeda1975	-0.42597547
129	0x3cac06cb	0.020999333
130	0x3d167124	0.036728993
131	0xbf38dcd1	-0.7221194
132	0xbed532ee	-0.4164042
133	0x3f4d1c92	0.8012172
134	0x3ebe01d5	0.37110773
135	0x3ccf34e5	0.025293777
136	0xbda21ba4	-0.07915428
137	0xbf306c10	-0.6891489
138	0x3f32df0d	0.698716
139	0x3e1bb8db	0.15207236
140	0xbe2ae6a6	-0.16689548
141	0xbe726683	-0.23671918
142	0xbee2ce9e	-0.4429826
143	0x3e22cb46	0.15897855
144	0x3f296d16	0.66182077
145	0xbea05c60	-0.31320477
146	0x3d574bb1	0.05256242
147	0xbd1663cb	-0.036716264
148	0xbe1ac6ed	-0.15114947
149	0xbe373a5c	-0.17893356
150	0x3e08d2ca	0.1336166
151	0xbe85db29	-0.26143768
152	0xbd5ef6c6	-0.05443456
153	0xbd3600ad	-0.04443424
154	0x3e4805ff	0.19533537
155	0xbee169fb	-0.4402617
156	0x3eb30190	0.3496213
157	0xbf0cbd68	-0.5497651
158	0xbf1c3ff6	-0.61035097
159	0x3e139912	0.1441386
160	0xbf5fd912	-0.874406
161	0xbf0a0291	-0.53910166
162	0x3f3db2f8	0.7410121
163	0xbf02a478	-0.5103221
164	0xbf016f0e	-0.5056008
165	0xbe93635b	-0.2878674
166	0x3e8fef38	0.28112197
167	0x3d6a8cee	0.057263307
168	0xbe2fd85f	-0.17172383
169	0xbd7076e8	-0.058707148
170	0xbdc5186f	-0.09623801
171	0xbf6c8f41	-0.9240609
172	0x3ef642bd	0.48097792
173	0xbf3104ac	-0.69147754
174	0xbe7dde71	-0.24791886
175	0x3e2f056a	0.17091909
176	0x3ea6837f	0.325222
177	0x3ba24be8	0.0049528964
178	0xbf417b0e	-0.7557839
179	0xbdd83443	-0.10556843
180	0xbce04eb6	-0.027381282
181	0x3db07bd8	0.08617371
182	0x3ea495d7	0.3214557
183	0x3e39edc1	0.18157102
184	0x3eb6d31c	0.3570794
185	0xbd5b38e7	-0.053521063
186	0x3ef8ebbd	0.48617354
187	0x3f101be5	0.56292564
188	0xbee6918e	-0.45032924
189	0x3eb90c4c	0.36142194
190	0xbe93df90	-0.28881502
191	0xbe8ca34d	-0.2746834
192	0x3eae2d0e	0.3401875
193	0x3f06cf5b	0.5266015
194	0xbd4f401b	-0.050598245
195	0xbdea2492	-0.114327565
196	0xbf01a766	-0.50646055
197	0x3db02a47	0.08601814
198	0x3ec8a919	0.3919151
199	0xbe8a86ed	-0.27056065
200	0x3dcc4133	0.09973373
201	0xbec085ca	-0.37602073
202	0x3e72dfdb	0.23718207
203	0xbdaee1ad	-0.08539138
204	0x3f1fd1fb	0.6242978
205	0x3f615f81	0.8803635
206	0xbf3fad9e	-0.74874294
207	0xbecfe2a3	-0.40602598
208	0x3f03e83e	0.5152625
209	0x3e566ca0	0.20939875
210	0x3d2061e8	0.03915587
211	0x3e2676ec	0.16256303
212	0xbf3c1fe6	-0.73486173
213	0x3e97053d	0.29496184
214	0xba0f1622	-0.0005458315
215	0xbe1287f7	-0.14309679
216	0x3e593521	0.21211673
217	0x3eefc68a	0.4683116
218	0x3f2041c2	0.6260034
219	0x3ef5f4fa	0.48038465
220	0xbee35833	-0.44403228
221	0x3ea8710c	0.32898748
222	0xbe11b6bf	-0.14229868
223	0x3c83ff84	0.01611305
224	0xbf1326cf	-0.5748109
225	0x3e62dacf	0.22153781
226	0xbf0c825d	-0.5488642
227	0x3a4d8f4a	0.0007841481
228	0xbe00d2b6	-0.1258038
229	0x3efd9a68	0.49531865
230	0xbe0d48eb	-0.13797347
231	0x3f27774a	0.65416396
232	0xbf6191bc	-0.88113
233	0x3d8588f8	0.06520265
234	0xbe5b5a23	-0.21421103
235	0xbcececb9	-0.028921472
236	0xbda2c5c5	-0.07947878
237	0x3c8a910c	0.016914867
238	0xbc43e6e5	-0.011956905
239	0xbec524b4	-0.38504565
240	0x3f232960	0.6373501
241	0xbeb6e10f	-0.3571858
242	0x3f40c402	0.75299084
243	0xbcda7e16	-0.02667145
244	0xbdd1668b	-0.10224637
245	0x3eac80bb	0.33691964
246	0xbec0824d	-0.37599412
247	0x3e6a2aea	0.22867933
248	0x3e96fd1f	0.2948999
249	0x3e859432	0.26089627
250	0x3dcbb879	0.09947295
251	0x3d9fd055	0.07803408
252	0xbe5123f5	-0.20423873
253	0xbf18eeb0	-0.5973921
254	0xbdfaddbc	-0.12249324
255	0x3f1061d7	0.5639929

layers.0.bn3.weight f4 [11]
0	0x3fabe010	1.3427753
1	0x3f8b80b4	1.0898652
2	0x3f9a27b0	1.2043362
3	0x3f65939c	0.8967836
4	0x3f84e70a	1.0383008
5	0x3f7f53d9	0.99737316
6	0x3f990a6c	1.1956306
7	0x3f2e3140	0.680439
8	0x3f84a394	1.036242
9	0x3f6f21a4	0.93410707
10	0x3f8d60ac	1.1045127

layers.0.bn3.bias f4 [11]
0	0x3e18de55	0.14928563
1	0x3dfdcf24	0.123930246
2	0x3d97f331	0.07419432
3	0xbe5109fd	-0.20413966
4	0xbe13b587	-0.14424716
5	0x3e1110de	0.1416659
6	0x3e33c2a2	0.17554715
7	0xbdb41c0c	-0.08794412
8	0x3e42ceda	0.1902422
9	0x3e91b50a	0.28458434
10	0x3e944375	0.28957716

layers.0.bn3.running_mean f4 [11]
0	0x3f73305a	0.94995654
1	0x3fee1ecf	1.8603152
2	0x402e963a	2.727919
3	0x3ebfc2d1	0.3745332
4	0xbf62aac1	-0.885418
5	0xbd3523b3	-0.0442235
6	0xbfbd31e5	-1.4780852
7	0xbfd21ce9	-1.6415073
8	0x3e738079	0.23779477
9	0xbf3f9a73	-0.74845046
10	0x3ff9b0a6	1.9507034

layers.0.bn3.running_var f4 [11]
0	0x40389f27	2.884714
1	0x3fc87d29	1.5663196
2	0x3fc36515	1.5265223
3	0x3fdab5b1	1.7086698
4	0x4019837d	2.3986504
5	0x3ffb97e0	1.9655724
6	0x3fd587b3	1.6682037
7	0x3fa9ef17	1.327609
8	0x3fe29c67	1.770398
9	0x3fc451f2	1.5337508
10	0x3fb71ce9	1.4305698

layers.1.conv1.weight f4 [22, 11, 1, 1]
0	0xbedfe7d6	-0.43731564
1	0xbda192d8	-0.07889336
2	0xbef4db70	-0.47823668
3	0xbf3cff4d	-0.7382706
4	0xbdccee6e	-0.10006414
5	0xbec077ad	-0.37591305
6	0xbe51e028	-0.20495665
7	0x3ed37b3c	0.41304958
8	0xbebf7dcc	-0.37400663
9	0x3ec25a8b	0.37959704
10	0x3f0dbea7	0.5536904
11	0x3e80245c	0.2502774
12	0x3e42fa46	0.19040784
13	0xbe63f7ff	-0.22262572
14	0xbecd166e	-0.40056175
15	0x3ef9c329	0.48781708
16	0xbecf8208	-0.40528893
17	0x3efeee58	0.49791217
18	0xbe86765f	-0.26262185
19	0x3f529e92	0.8227321
20	0x3f0f6c2f	0.5602445
21	0xbbb6adc2	-0.0055749128
22	0xbf83b841	-1.0290605
23	0x3d9be8dd	0.076127745
24	0xbe28d16e	-0.16486141
25	0xbd9c5191	-0.07632745
26	0x3e9f0be6	0.31063765
27	0x3e9acbc4	0.30233586
28	0x3f11ae83	0.5690691
29	0xbea10d62	-0.31455523
30	0x3ea46431	0.3210769
31	0xbe82be51	-0.25535825
32	0xbebc5932	-0.367868
33	0xbe687eaa	-0.22704569
34	0x3dfc0307	0.12305265
35	0x3e9c0197	0.30469963
36	0xbf64faef	-0.89445394
37	0xbe8ebc18	-0.2787788
38	0xbea4ebd0	-0.3221116
39	0xbe69543d	-0.2278604
40	0xb9e7e3ab	-0.0004422938
41	0xbf0f1a08	-0.55899096
42	0x3e97519c	0.2955445
43	0x3ef3c027	0.47607538
44	0xbecf19b3	-0.40449294
45	0x3eee610c	0.46558416
46	0x3ee3cc3e	0.44491762
47	0x3f0df2b5	0.55448467
48	0x3f008e0f	0.50216764
49	0xbe064493	-0.13112096
50	0xbc8cbc7a	-0.017179716
51	0xbe84552d	-0.25846234
52	0x3dfed8a4	0.12443665
53	0xbf007b63	-0.50188273
54	0xbef98885	-0.4873697
55	0xbf2bf511	-0.67170817
56	0xbe00b5f0	-0.12569404
57	0x3f0f5ebb	0.5600392
58	0xbd85f51b	-0.06540891
59	0xbecfb557	-0.4056804
60	0x3f671b57	0.9027609
61	0xbe071846	-0.13192853
62	0xbe522ceb	-0.20524947
63	0x3e3f7881	0.18698312
64	0x3e706cf1	0.23479058
65	0xbca5c317	-0.020234628
66	0xbe7547f6	-0.23953232
67	0xbed73a3c	-0.42036617
68	0x3d35d194	0.044389322
69	0x3da4dc35	0.08049814
70	0x3e93b7a6	0.2885105
71	0xbf151752	-0.5823871
72	0x3eef9173	0.46790656
73	0x3f83541d	1.0260044
74	0x3e69f7d2	0.22848442
75	0xbe9040cd	-0.2817444
76	0xbe51aaea	-0.20475355
77	0xbdf1a33e	-0.11798714
78	0x3f8933e4	1.0718961
79	0x3ea4c7d8	0.3218372
80	0xbecc69db	-0.3992451
81	0xbe718b01	-0.23588182
82	0xbe98eca8	-0.29868054
83	0xbeeafa97	-0.4589431
84	0x3f0493ce	0.5178803
85	0xbd85106c	-0.06497273
86	0xbe059cad	-0.13048048
87	0xbe939d44	-0.28830922
88	0xbe39adae	-0.1813266
89	0x3d0cfdf1	0.034421865
90	0x3eb79ff8	0.35864234
91	0x3f34041c	0.7031877
92	0xbca51016	-0.020149272
93	0xbf26bb5e	-0.6512965
94	0x3e86743d	0.26260558
95	0xbf18664c	-0.5953109
96	0x3e6d757c	0.23189348
97	0xbf40ce5b	-0.75314873
98	0xbd9cbd59	-0.07653303
99	0xbf26df70	-0.6518469
100	0x3da089db	0.07838794
101	0xbf791070	-0.97290707
102	0xbd86cf4d	-0.06582508
103	0xbf0977b6	-0.5369829
104	0xbe2adb4a	-0.16685215
105	0x3b6eafe4	0.0036420757
106	0x3d340cf8	0.04395768
107	0x3e809371	0.2511249
108	0x3d8edbb4	0.06975499
109	0x3ee32431	0.4436355
110	0xbd5d3084	-0.054001346
111	0x3edf685d	0.4363431
112	0x3f8c1919	1.0945159
113	0x3d07949d	0.033100713
114	0x3baf1951	0.005343594
115	0x3e57635a	0.21033993
116	0x3f1cc347	0.6123547
117	0x3ec7b2fa	0.39003736
118	0x3cec220e	0.028824832
119	0x3edccfd4	0.4312731
120	0x3dfa9eaa	0.12237294
121	0xbed48f58	-0.41515613
122	0x3e6bd8ff	0.23031996
123	0xbf3694fc	-0.7132108
124	0x3f68a650	0.9087877
125	0xbe635f67	-0.22204362
126	0x3eb2987e	0.34881967
127	0xbed66866	-0.41876525
128	0x3edbac68	0.42904973
129	0x3e6f24f6	0.23353943
130	0x3e55efa9	0.20892204
131	0xbe0df304	-0.13862234
132	0x3f2723a1	0.6528874
133	0x3f17801c	0.59179854
134	0xbf1dcc9c	-0.61640334
135	0xbe3e11e5	-0.18561514
136	0xbea37d4c	-0.3193153
137	0x3eb2d840	0.3493061
138	0xbe624125	-0.22095163
139	0x3dd923fb	0.10602566
140	0x3f0c4a52	0.54800904
141	0xbe37eae3	-0.17960696
142	0xbe9688fd	-0.2940139
143	0x3f7024ea	0.93806326
144	0xbc9fbe47	-0.019499911
145	0xbd48febd	-0.049071062
146	0xbe23b856	-0.15988287
147	0xbef302c3	-0.47463045
148	0xbf0b26c4	-0.54356027
149	0xbebfa4fa	-0.37430555
150	0xbe8e472a	-0.2778867
151	0x3da88de6	0.0823019
152	0xbe979938	-0.29609084
153	0x3f0bb655	0.5457509
154	0xbf1a3e31	-0.60251147
155	0xbf6d48a1	-0.9268895
156	0x3ea5ed91	0.3240781
157	0xbdabbb66	-0.08385353
158	0x3f1b9797	0.6077818
159	0x3edcc7af	0.43121096
160	0x3ee9d24c	0.45668256
161	0x3e4055fb	0.18782799
162	0x3e37e485	0.17958267
163	0xbd76eb1d	-0.060282815
164	0x3c9e7900	0.019344807
165	0x3e944dea	0.28965694
166	0xbeae5d60	-0.34055614
167	0x3ef05dde	0.46946615
168	0xbd138065	-0.03601112
169	0xbe650de3	-0.22368579
170	0xbea5195d	-0.32245913
171	0x3ead05c0	0.3379345
172	0xbe33e34b	-0.17567174
173	0x3ec37185	0.38172546
174	0xbf1ef24b	-0.6208846
175	0x3f17159e	0.5901736
176	0xbdb7aefc	-0.089689225
177	0x3ece145e	0.40249914
178	0xbe826652	-0.2546869
179	0x3e5adb1e	0.21372649
180	0x3e9f96c4	0.31169713
181	0xbd8279d2	-0.06370892
182	0x3f1fa868	0.6236634
183	0xbe2ab7c1	-0.16671659
184	0xbf03918e	-0.51393974
185	0xbe5e7b5d	-0.21726747
186	0x3f405392	0.7512752
187	0x3d915000	0.07095337
188	0x3ea2e8bc	0.31818187
189	0x3c6e86c6	0.0145585
190	0x3eb0534a	0.34438545
191	0x3dfc732c	0.12326655
192	0x3d2e2ee0	0.042525172
193	0x3ea9b3b6	0.3314492
194	0xbe7cfd9d	-0.24706121
195	0x3eea4c44	0.4576131
196	0xbf8c224b	-1.0947965
197	0xbf3b3bc1	-0.7313805
198	0x3e1a0d6b	0.15044181
199	0xbf33d93e	-0.7025336
200	0xbf112c58	-0.5670829
201	0xbe3cef37	-0.18450628
202	0x3f025ee3	0.50926036
203	0xbe3cca48	-0.18436539
204	0xbef17ccd	-0.47165528
205	0xbe40eb77	-0.18839823
206	0xbe859b63	-0.26095113
207	0xbec4c86a	-0.38434154
208	0xbebd0abc	-0.36922252
209	0x3f60d834	0.878299
210	0x3d79bfe5	0.06097402
211	0xbd1f7e52	-0.038938828
212	0xbf153dda	-0.58297503
213	0xbf0aa3d4	-0.5415623
214	0x3eb63a1c	0.3559121
215	0x3e44dd08	0.19224942
216	0x3edb838c	0.428738
217	0x3b221eed	0.0024737671
218	0x3da2931c	0.07938215
219	0x3eb76e21	0.3582621
220	0x3dc9ed17	0.098596744
221	0x3e92690d	0.28595772
222	0xbd319d68	-0.043363005
223	0xbe219131	-0.15778042
224	0xbf3a0bc8	-0.72674227
225	0x3cbca149	0.023026126
226	0x3f207ee4	0.6269362
227	0xbe180acc	-0.14847869
228	0xbeefd2d7	-0.46840546
229	0x3f28bb4c	0.6591079
230	0xbef3ba32	-0.47602993
231	0xbf7541a5	-0.9580329
232	0xbed906a6	-0.42387885
233	0xbec9351c	-0.39298332
234	0x3d88b88f	0.06675827
235	0x3ec9a085	0.3938028
236	0x3c73733f	0.01485902
237	0x3de1d865	0.11027602
238	0xbe241e18	-0.16027105
239	0x3e1b03a0	0.15138102
240	0x3e0b6723	0.13613562
241	0x3f20fc26	0.6288475

layers.1.bn1.weight f4 [22]
0	0x3f9ea55e	1.2394216
1	0x3f1e3d60	0.618124
2	0x3f749a0a	0.95547545
3	0x3fa616d7	1.297572
4	0x3fbaf1de	1.4605062
5	0x3ebe00ec	0.37110078
6	0x3f343d8e	0.70406425
7	0x3fad63b8	1.3546057
8	0x3ea74fb6	0.32678002
9	0x3ecd174e	0.40056843
10	0x3fa06709	1.2531444
11	0x3fa2d1ef	1.2720317
12	0x3f6c2e19	0.9225784
13	0x3ebbf27a	0.36708432
14	0x3e9f8c09	0.31161526
15	0x3fbdf544	1.4840474
16	0x3e8d7e8f	0.2763562
17	0x3f65ef3d	0.89818174
18	0x3ee6f134	0.45105898
19	0x3f2dcd37	0.6789126
20	0x3f5ec4d2	0.87019074
21	0x3f691e12	0.9106151

layers.1.bn1.bias f4 [22]
0	0xbe97d49e	-0.29654402
1	0x3f3cc4cd	0.73737794
2	0xbea553d3	-0.32290515
3	0x3e2f9c78	0.17149532
4	0x3efb4981	0.49079517
5	0x3f4e3045	0.80542403
6	0x3f093ff2	0.536132
7	0x3d85c599	0.065318294
8	0x3f61e370	0.8823767
9	0x3f39dbeb	0.72601193
10	0x3eb431b9	0.35194185
11	0xbe1fbd79	-0.15599622
12	0x3e97b400	0.29629517
13	0x3f48db45	0.7845958
14	0x3f636dff	0.88839716
15	0x3ead4fd7	0.33849975
16	0x3f7761b0	0.96633434
17	0x3eac3872	0.33636814
18	0x3f52ed28	0.8239312
19	0x3f229a08	0.63516283
20	0xbebe87fb	-0.3721312
21	0x3ec7b0e1	0.39002135

layers.1.bn1.running_mean f4 [22]
0	0x3e02edd6	0.1278604
1	0x3ed87111	0.42273763
2	0xbe0b4079	-0.13598813
3	0x3e84a5ba	0.2590769
4	0xbed5212c	-0.4162687
5	0x3e5b7deb	0.21434753
6	0xbea94b98	-0.33065486
7	0xbd427a5c	-0.047479972
8	0xbea4bf87	-0.32177374
9	0x3dcb2aa7	0.09920245
10	0x3ec6baae	0.388143
11	0xbe76e217	-0.24109684
12	0x3e384097	0.17993389
13	0x3e54fa12	0.20798519
14	0xbdda0efe	-0.10647391
15	0x3e31ec1f	0.1737523
16	0x3dd3102f	0.10305821
17	0xbec8efe1	-0.39245513
18	0xbf0059e4	-0.5013716
19	0x3f028599	0.50985104
20	0x3e8b6f7b	0.2723349
21	0xbc3d687f	-0.011560558

layers.1.bn1.running_var f4 [22]
0	0x403569ea	2.8345895
1	0x3fd4e5f5	1.6632677
2	0x40839c1f	4.1128078
3	0x40101d0b	2.2517726
4	0x403e715e	2.9756694
5	0x403bf7b6	2.936994
6	0x400920db	2.1426303
7	0x3ffa3dcb	1.9550108
8	0x40320c6b	2.782008
9	0x402bfe1e	2.687385
10	0x4044bcf5	3.074033
11	0x400e9e89	2.2284262
12	0x400a1367	2.1574342
13	0x406f3f4d	3.7382386
14	0x407a8b7a	3.914763
15	0x3fc0da8e	1.5066698
16	0x4029c7b6	2.6528144
17	0x40511c8d	3.2673676
18	0x402fd649	2.747454
19	0x4043133f	3.0480497
20	0x4020b52f	2.5110586
21	0x403b22cf	2.9239995

layers.1.conv2.weight f4 [22, 1, 3, 3]
0	0x3de95bdf	0.11394476
1	0x3d4eae62	0.050459273
2	0xbef0958a	-0.4698909
3	0x3f21baa0	0.6317539
4	0x3f101632	0.5628387
5	0xbe1d6df5	-0.15373977
6	0x3ec59c5a	0.3859585
7	0x3eec8f64	0.46203148
8	0x3e957f7c	0.29198825
9	0x3d169e4b	0.036772054
10	0x3eec8560	0.46195507
11	0x3eff94fa	0.49918348
12	0x3f07e0ca	0.53077376
13	0x3f33f4b8	0.70295286
14	0x3ecd03af	0.40041873
15	0x3ec059de	0.37568563
16	0x3e86f9b4	0.26362383
17	0x3e06dffb	0.1317138
18	0x3ddc9840	0.10771227
19	0xbe8ef41b	-0.27920613
20	0x3d54d7d0	0.051963627
21	0xbeb2ee52	-0.3494745
22	0xbf2705b3	-0.6524307
23	0xbea7fa4b	-0.32808146
24	0xbee88f69	-0.45421913
25	0xbf086f4e	-0.5329484
26	0xbf14b438	-0.5808749
27	0xbe832912	-0.25617272
28	0xbe107185	-0.14105804
29	0x3d809df1	0.06280125
30	0xbf2efa17	-0.68350357
31	0xbf30da80	-0.69083405
32	0xbe461fe4	-0.19348103
33	0xbedbea3e	-0.4295215
34	0xbf1c7b69	-0.6112581
35	0xbe858d97	-0.26084587
36	0x3e791d51	0.2432759
37	0x3e8d9178	0.27650046
38	0xbde07c45	-0.109612025
39	0x3f351511	0.7073527
40	0x3e475209	0.19464888
41	0xbf055075	-0.5207589
42	0x3ecd6199	0.40113524
43	0xbc89e899	-0.016834544
44	0xbf116b5e	-0.56804454
45	0x3ef73ca9	0.48288468
46	0x3f18ffbc	0.5976522
47	0x3eb29dc6	0.34885997
48	0x3ed8b7e8	0.4232781
49	0x3f28f796	0.66002786
50	0x3eb85c18	0.36007762
51	0x3c4c2387	0.012459642
52	0x3e0368da	0.12832966
53	0x3dc39357	0.09549587
54	0xbec7a99b	-0.38996586
55	0xbef69132	-0.4815765
56	0xbd3d8ac6	-0.046274923
57	0xbf1df0b0	-0.61695385
58	0xbf6f162f	-0.93393224
59	0xbec42f49	-0.38317326
60	0xbe6fe676	-0.23427758
61	0xbea9d69e	-0.33171552
62	0x3c3030c2	0.010753812
63	0x3dd924a8	0.10602695
64	0xbe3a7f7a	-0.18212691
65	0x3d3e1967	0.046410944
66	0x3ee417cf	0.44549415
67	0x3f0ad3b7	0.542293
68	0x3e39725d	0.18110032
69	0x3f0c7e7c	0.548805
70	0x3f466120	0.7749195
71	0x3e1faf2e	0.1559417
72	0xbead3aa8	-0.33833814
73	0xbe7fe401	-0.2498932
74	0xbdc35a1d	-0.09538672
75	0xbf016a6e	-0.50553024
76	0xbf4d50e2	-0.8020154
77	0xbea054de	-0.3131475
78	0xbe57afb9	-0.21063127
79	0xbeda0d24	-0.4258815
80	0xbed751b1	-0.42054513
81	0xbef92f8d	-0.4866909
82	0xbe982afc	-0.29720294
83	0x3ec87fe1	0.39160064
84	0xbec96ddc	-0.3934163
85	0xbe03d9e1	-0.12876083
86	0x3f053b59	0.5204368
87	0x3cc6cce6	0.024267625
88	0x3efc9683	0.4933358
89	0x3f117f35	0.5683473
90	0x3e021aa8	0.12705481
91	0x3db15b90	0.08660042
92	0x3b6a9a68	0.00357976
93	0x3efc1118	0.49231791
94	0x3f395015	0.7238782
95	0x3e677f34	0.22607118
96	0x3ea379a1	0.31928733
97	0x3f27f28b	0.65604466
98	0x3e95f9b5	0.29292074
99	0x3f01337e	0.50469196
100	0x3e476444	0.19471842
101	0xbef4bd4b	-0.4780067
102	0xbdd90822	-0.10597254
103	0x3f0e253b	0.5552556
104	0xbda3de07	-0.08001333
105	0xbf6ab7e5	-0.9168685
106	0x3ea09331	0.31362298
107	0xbf03a467	-0.51422733
108	0xbe67cff7	-0.22637926
109	0xbe7c779d	-0.24655004
110	0xbd56acbb	-0.052410822
111	0xbf183645	-0.5945781
112	0xbf146bee	-0.5797719
113	0xbdf21f8a	-0.11822422
114	0xbf0f86d7	-0.56065124
115	0xbf2b96a9	-0.67026764
116	0xbe56f98c	-0.20993632
117	0xbeef4a25	-0.46736255
118	0xbf08ec65	-0.5348571
119	0xbef8caf4	-0.4859234
120	0x3cc635d6	0.024195593
121	0x3dd8cbb9	0.10585732
122	0x3e278843	0.16360573
123	0x3ee22acd	0.4417328
124	0x3f1508b4	0.58216405
125	0x3eb19347	0.34682676
126	0xbe626312	-0.22108105
127	0xbed9496b	-0.42438826
128	0xbe75bd11	-0.23997904
129	0x3e1eb6a8	0.15499365
130	0xbcca7b04	-0.024716862
131	0xbe834105	-0.25635543
132	0x3f20099f	0.6251468
133	0x3f2f195a	0.6839806
134	0x3edca057	0.4309108
135	0x3edbe720	0.42949772
136	0x3ef8b971	0.4857898
137	0x3e191720	0.14950228
138	0x3f39a3db	0.7251565
139	0x3ed80a62	0.4219542
140	0xbeb9a754	-0.36260474
141	0x3e80490f	0.2505574
142	0xbbd80e7d	-0.006593524
143	0xbea58bf2	-0.32333332
144	0x3e8e25d4	0.27763236
145	0x3eafabf8	0.3431089
146	0x3eaa75c8	0.33292985
147	0x3ec2f540	0.38077736
148	0x3f3ba7a2	0.7330266
149	0x3f08d3e4	0.5344832
150	0x3e9b8052	0.30371338
151	0x3ee2ec17	0.44320747
152	0x3e77b8c6	0.24191579
153	0xbf0e8583	-0.5567247
154	0x3d0f862e	0.035040073
155	0x3e40cacf	0.18827365
156	0xbf0ff686	-0.5623554
157	0x3e03c7c6	0.12869176
158	0x3f1327c0	0.5748253
159	0xbf1ff762	-0.6248685
160	0x3df6fad2	0.12059559
161	0x3ef44530	0.47709036
162	0x3e970e52	0.29503113
163	0x3ee5e5cb	0.4490188
164	0x3e540af7	0.20707308
165	0x3efc0b5a	0.4922741
166	0x3f2a1d9c	0.6645143
167	0x3e759fdb	0.23986761
168	0x3ee9eab2	0.4568687
169	0x3f0c347a	0.5476757
170	0x3e746269	0.23865665
171	0x3e703d84	0.23460966
172	0x3e8223e8	0.2541802
173	0xbef782d0	-0.4834199
174	0x3f00bd49	0.50288826
175	0x3e64081b	0.22268717
176	0xbf300716	-0.6876081
177	0x3e942918	0.28937602
178	0xbe043f06	-0.12914667
179	0xbf0a5ba7	-0.540461
180	0x3e0f37fe	0.13986203
181	0x3ea9ffff	0.33203122
182	0x3e09849b	0.13429491
183	0x3eeb701f	0.4598398
184	0x3f4cccec	0.80000186
185	0x3eb100ec	0.34571016
186	0x3e70248b	0.2345144
187	0x3ee90d1c	0.45517814
188	0x3ed78140	0.42090797
189	0xbf93f656	-1.1559551
190	0xbe1b7530	-0.15181422
191	0x3e0faacf	0.14030002
192	0x3e084ad9	0.13309802
193	0x3f0ca347	0.5493664
194	0x3f1604ce	0.5860108
195	0x3e9aa708	0.3020556
196	0x3df3a37c	0.118964165
197	0xbcd0bf32	-0.025481794

layers.1.bn2.weight f4 [22]
0	0x3f8355bc	1.0260539
1	0x3f7f5307	0.99736065
2	0x3f822fad	1.01708
3	0x3fa9f2fa	1.3277276
4	0x3f8d5385	1.1041113
5	0x3f84f442	1.0387042
6	0x3f7c4c54	0.9855397
7	0x3f3f8aa5	0.7482093
8	0x3f9d2ce5	1.2279326
9	0x3f8868dc	1.0657
10	0x3f368678	0.71298933
11	0x3fe7dbbe	1.8113935
12	0x3f9b04d9	1.2110854
13	0x3f80a109	1.0049144
14	0x3fa8f202	1.3198855
15	0x3f380d91	0.718957
16	0x3fab4165	1.3379332
17	0x3fa5d350	1.2955112
18	0x3fa51020	1.2895546
19	0x3f8006fb	1.000213
20	0x3f5f000f	0.87109464
21	0x3f650520	0.89460945

layers.1.bn2.bias f4 [22]
0	0x3f1fbc04	0.62396264
1	0x3d2af111	0.041733805
2	0x3f2c64d8	0.67341375
3	0x3e1535b3	0.14571266
4	0x3f2653fb	0.64971894
5	0x3f3c7b82	0.7362596
6	0x3f0b9689	0.54526573
7	0x403b6296	2.9278922
8	0x3e3c3e1a	0.18383065
9	0x3ee88467	0.45413515
10	0x3f3c8df4	0.73654103
11	0xbf96fe85	-1.1796423
12	0x3de4aa57	0.11165302
13	0x3f881a37	1.0633
14	0x3e8dfa4b	0.2773002
15	0x3f8dd42b	1.1080374
16	0xbde94655	-0.11390368
17	0xbd400731	-0.04688186
18	0xbbcda223	-0.0062754317
19	0xbf0c1dd6	-0.54733026
20	0x400473ee	2.0695758
21	0xbe8fa4e2	-0.28055483

layers.1.bn2.running_mean f4 [22]
0	0x3efb17dd	0.49041644
1	0x401f4897	2.4888055
2	0xbf0db334	-0.5535157
3	0xbfd672eb	-1.675382
4	0x3ebee79b	0.37286076
5	0x401360e8	2.3027897
6	0xbff91a52	-1.9461157
7	0x3faa8075	1.3320452
8	0xc0318ab7	-2.7740915
9	0x3f145a5e	0.5795039
10	0x3feadee6	1.8349273
11	0x3e642014	0.22277862
12	0xbfbcafc4	-1.474114
13	0x3e86eecd	0.26354066
14	0x3f3741c8	0.7158475
15	0x3f84cd58	1.0375166
16	0x404ffb36	3.2497077
17	0xbb2941ef	-0.0025826653
18	0x4032db1c	2.7946234
19	0xbea3fb9e	-0.32027906
20	0x3efe6b8b	0.49691424
21	0x3ef87462	0.48526293

layers.1.bn2.running_var f4 [22]
0	0x3efd4b9f	0.49471757
1	0x3f6fc3fd	0.9365843
2	0x3e934319	0.2876213
3	0x40632087	3.5488603
4	0x3f9c5415	1.221316
5	0x3ee74df1	0.45176652
6	0x3fc2f958	1.5232344
7	0x3fd7e11c	1.6865573
8	0x3f0a6421	0.54059035
9	0x3e5d0aeb	0.21586196
10	0x4037fc80	2.8747864
11	0x3f591d14	0.84809995
12	0x3fdd0cd5	1.7269541
13	0x3e8ee9be	0.27912706
14	0x3e80d12e	0.2515959
15	0x4024d368	2.5754032
16	0x3e8385c4	0.25687993
17	0x3f06352e	0.52424896
18	0x3f7788fe	0.9669341
19	0x3f206a85	0.62662536
20	0x3ead887a	0.33893186
21	0x3f309b19	0.6898666
