Project/Project_files/ckpt/mobilenetv2_19_2_stem_2_5/mobilenetv2_19_2_stem_2_5_111.pt (torch, 35563 bytes, 52 tensors)

conv1.weight f4 [24, 3, 3, 3]
000000 82 0a 5f be 3b 01 4a be aa 40 2b 3e ef 8c 03 be
       -0.21781352 -0.19727032 0.16723886 -0.1284673
000010 78 e1 7e 3d 1f d7 61 3e 28 3b 0a be df a9 4b be
       0.062226743 0.22054718 -0.13499129 -0.1988902
000020 dd 9e 4c 3c 79 4b 89 3e 37 d1 85 3e 03 ab 12 bd
       0.012489048 0.26815394 0.2613618 -0.03580762
000030 a8 3b 37 3e 25 65 ae 3e f2 fd ce be 62 a2 db 3e
       0.17893851 0.34061542 -0.4042812 0.42897326
000040 25 fa 13 3e 2c 01 8d bd e5 ef a0 3e a4 77 14 be
       0.14450891 -0.06884989 0.31433025 -0.14498764
000050 2d 1c 4c 3e 12 a0 f6 bc 68 d0 81 be 2c 15 de bb
       0.19932623 -0.030105624 -0.25354314 -0.006777426
000060 d0 23 a5 3a 9e 70 04 bf fa ef 78 3e 93 4e 51 3d
       0.0012599174 -0.5173434 0.24310294 0.051100325
000070 4f 74 82 3e a5 fd 21 be a2 de 65 3e d7 9f 38 be
       0.2547936 -0.15819414 0.22448209 -0.18029724
000080 0b 0b 52 3e e8 b6 6f be b9 f1 e0 3d e5 2f 80 bd
       0.20512025 -0.23409617 0.10983605 -0.06259135
000090 2c 17 2b 3d 70 bf 1f 3e 3c 51 82 be 48 fd de 3d
       0.041770145 0.15600371 -0.25452602 0.10888153
0000a0 47 d8 d0 be 92 dd bc bc 13 e9 90 bd ff 35 98 3e
       -0.40790007 -0.023054872 -0.070757054 0.29728696
0000b0 fd 7f 54 bd ed fe 82 bd 85 c1 f4 bc 20 c0 0b bf
       -0.05187987 -0.063962795 -0.029877434 -0.54590034
0000c0 0f 85 05 3f eb 11 fc bd 7c 8f c6 be 5f 0d ae 3d
       0.52156156 -0.12308105 -0.38781345 0.08498644
0000d0 c7 af af 3e 2a 54 c6 bd 28 fd ea bd 82 d1 fe bd
       0.34313795 -0.09684022 -0.11474067 -0.12442304
0000e0 ca c7 00 bf ed 1e bd 3d d6 12 76 3e 03 1b 0a bf
       -0.50304854 0.09234414 0.24030623 -0.53947467
0000f0 3e 2a a9 3e 0c 3d 76 3e b6 fd d2 3d 1b 8f 8f 3d
       0.3304004 0.24046725 0.10302298 0.07009717
000100 e1 0e 9c 3e 3b 86 93 3e 60 7b f8 3c 66 97 aa be
       0.30480102 0.28813347 0.030332267 -0.33318633
000110 fa 7f 33 be a8 02 19 be f3 2d 66 be 62 cc 8f be
       -0.17529288 -0.1494242 -0.22478466 -0.2808562
000120 34 9b 1b be c8 ac 80 bd a3 3c e8 3c 00 41 18 bc
       -0.15195924 -0.062829554 0.028349226 -0.009292841
000130 12 3a 75 be bc 20 55 3e 41 4d 17 3e 03 9d 9f 3c
       -0.23947933 0.20813268 0.14775564 0.019484049
000140 a0 8e ba 3e f4 e6 79 3e c5 c8 a8 bd d4 73 37 3d
       0.3643694 0.24404508 -0.08241419 0.044788197
000150 9b f3 5f 3d e0 53 73 be 50 b8 35 3d f0 a4 c7 be
       0.05467568 -0.23762465 0.044365227 -0.38993025
000160 5b 1e 7a be 7f 33 01 3d 16 ce 89 be 91 6b 3a bd
       -0.24425642 0.03154325 -0.26915044 -0.04551274
000170 82 fb b2 be 60 52 e1 3e 22 68 b3 3e ce a7 ad 3d
       -0.3495751 0.4400816 0.35040385 0.08479272
000180 14 cf 6a 3e 76 b3 eb 3e be 28 4b 3c 9d 69 63 3e
       0.22930557 0.46035355 0.01239985 0.22208257
000190 d3 f0 49 3e 96 ff d1 bd 78 81 9e 3e ef 30 d7 bd
       0.19720773 -0.10253827 0.30958152 -0.1050738
0001a0 12 ec 38 be 2e e4 f1 bd 15 cd 6f 3d c5 2a 99 be
       -0.18058804 -0.118111 0.05854519 -0.29915443
0001b0 3c 36 c3 3b a5 d2 16 3e c6 bd c9 3d 2f ca af be
       0.005957393 0.14728792 0.098506495 -0.3433394
0001c0 23 7a a0 be 6f a7 2d 3e ff 1d da be 81 19 83 be
       -0.31343183 0.16958402 -0.4260101 -0.25605395
0001d0 dd c9 6d 3e 52 f5 a8 3d cf aa a5 bb 0a 9c 5e be
       0.23221536 0.08249916 -0.0050557624 -0.21739212
0001e0 db da 01 3e 2b 6c 20 bd 85 93 ed 3d bd 59 02 bd
       0.12681143 -0.039165657 0.11600403 -0.031823862
0001f0 ab 72 5f 3d 4c 02 55 3e 4c 95 1d 3e bc 42 b0 3e
       0.054552715 0.20801657 0.15388983 0.34425914
000200 98 2a 39 be dc 3b ac 3e 25 7d a9 3c 1d 68 af 3c
       -0.18082654 0.3363942 0.020689556 0.02141195
000210 9d f9 cd 3e 7f 2d 41 3e 67 c3 81 be d6 0c 5e be
       0.40229502 0.18865012 -0.25344393 -0.21684584
000220 e8 22 d7 3e 61 d0 15 3e 50 45 94 be dc d6 88 3e
       0.4201882 0.14630271 -0.2895913 0.26726425
000230 c7 3b 7d 3e 00 b5 aa 3d 8d 44 b7 3d 03 15 bf be
       0.24729834 0.08335304 0.08948622 -0.37320718
000240 f2 67 77 bc f6 20 54 3d b7 5f 98 3e 2a 4e 17 be
       -0.015100466 0.051789246 0.29760525 -0.14775911
000250 d4 64 91 bd 45 dc 04 3e 10 77 a0 3b 1d f0 06 3b
       -0.070993096 0.12974651 0.004897006 0.0020589896
000260 3f 88 bc be b9 14 98 3d 7c 16 94 be 4f 7c 62 be
       -0.36822698 0.074258275 -0.28923404 -0.22117732
000270 64 87 c9 bd 60 70 c3 bd 2b c7 09 bd e3 b3 d3 3e
       -0.09840277 -0.09542918 -0.033637207 0.4134818
000280 39 4d ba 3e 5d ea 8a 3d ca e3 9d be 50 e3 35 bc
       0.3638704 0.067829825 -0.30837852 -0.011101559
000290 64 f4 e8 3d ec 83 59 3d 68 59 02 bd f5 25 a1 3e
       0.11374739 0.053104326 -0.031823546 0.3147427
0002a0 77 ab cb bd 37 6f d8 bd fd a4 28 3c ae 1a a5 bd
       -0.09944814 -0.105680875 0.0102932425 -0.08061729
0002b0 fd 5e a2 be 10 4c 7f 3d 4c e3 af 3e 4e 71 3a be
       -0.31713095 0.0623284 0.343531 -0.18207285
0002c0 0a a0 53 3e a1 0c a7 3e 0d e1 95 3e b9 a6 85 3e
       0.20666519 0.32626823 0.29273263 0.26103762
0002d0 f9 f1 0d 3e 6e ff 4c 3b ff d8 8e be 6b f7 25 bd
       0.13861836 0.0031280178 -0.2789993 -0.04051916
0002e0 87 f7 09 bf db a8 b1 be 87 93 1f 3c ed 57 bb bd
       -0.5389332 -0.3469914 0.009739763 -0.0914763
0002f0 9d 19 b7 be c9 37 3a be 0c 83 07 be de c8 63 3d
       -0.3576173 -0.18185343 -0.13233584 0.055611484
000300 9a e2 b4 be c3 93 77 be 52 ab aa be 3c 82 11 3f
       -0.35329133 -0.2417746 -0.33333832 0.56839347
000310 87 2c ad 3e 02 64 66 3e aa 22 10 3e e7 c9 3b be
       0.33823034 0.22499087 0.14075723 -0.18338738
000320 9f 9b fc 3c 75 56 85 be 73 4a b1 bd a6 ba 82 bd
       0.030835925 -0.26042524 -0.08656778 -0.063832566
000330 c4 e8 3a 3e c0 3e 13 3e 0a 48 a0 3d 55 d4 e7 bd
       0.18252856 0.14379406 0.0782624 -0.11319796
000340 74 7b 5f bd 94 8f f6 bd c0 12 9f be 7c 3a 8c 3d
       -0.054561093 -0.12039104 -0.31068993 0.068470925
000350 88 fa de 3c 96 b7 61 3e f7 d6 86 3e 5c c9 9b 3e
       0.027219072 0.22042689 0.2633588 0.30427063
000360 3f dd 62 bd 72 49 93 be 85 7a a8 be 6f 29 d8 bd
       -0.055386778 -0.28766972 -0.32905975 -0.10554778
000370 29 01 14 3e 97 4e 19 bd af 09 00 3f 2a a6 34 3c
       0.14453568 -0.037428465 0.50014776 0.011025945
000380 68 5a 8f bb c1 1f 40 3e a4 7d d0 bd de df 10 3d
       -0.004374791 0.18762113 -0.10180214 0.035369746
000390 89 ce 20 3d d0 cf d8 3e de 7c d5 3e 36 e5 f7 bc
       0.039259467 0.42346048 0.4169683 -0.030260663
0003a0 ba b0 af 3d ee 6b 79 3e bf 51 e3 bd 01 f5 9e be
       0.0857863 0.24357578 -0.11099576 -0.31046298
0003b0 56 a0 8e 3c ad 98 81 be d4 91 7c 3d 1e 49 53 3e
       0.017410439 -0.25311795 0.06166251 0.2063336
0003c0 5f a0 ad be 9b f8 3c be c5 11 83 3e ae 8d a1 bc
       -0.33911416 -0.1845421 0.25599495 -0.019720878
0003d0 94 57 ae be 17 40 97 bd 62 6c 09 3e da 1c b3 be
       -0.34051192 -0.07385271 0.13420251 -0.3498295
0003e0 73 2c 33 3e 6d f1 92 3e d3 88 88 3e c5 b8 99 3e
       0.17497425 0.28699818 0.2666689 0.3002378
0003f0 4a 19 06 be f6 46 06 3e 44 c1 d9 3c 9b e0 34 be
       -0.13095585 0.13113007 0.026581414 -0.17663805

bn1.weight f4 [24]
000000 95 6a 71 3f f9 d7 65 3f a5 cc 80 3f 5e 0d 36 3f
       0.94303256 0.89782673 1.0062453 0.71114147
000010 37 41 74 3f 50 74 6e 3f 1a 08 76 3f d1 04 73 3f
       0.9541201 0.9314623 0.9610611 0.94929224
000020 e0 28 83 3f 27 c4 90 3f 4e c0 57 3f a6 b2 98 3f
       1.0246849 1.1309861 0.8427781 1.1929519
000030 65 5a 75 3f b0 5a 76 3f d3 93 83 3f 45 05 8d 3f
       0.95841056 0.9623213 1.0279487 1.1017233
000040 72 71 92 3f a4 f6 a0 3f 96 ab 87 3f 72 d0 5b 3f
       1.1440871 1.2575269 1.0599239 0.8586494
000050 f5 db 52 3f 7e 08 9d 3f e7 ec 72 3f 8f 7b a8 3f
       0.8236688 1.2268217 0.94892734 1.3162707

bn1.bias f4 [24]
000000 3c ae 8b be dc 83 8c 3d 8a 5a 85 bd 7b ee cc 3c
       -0.27281368 0.06861088 -0.065114096 0.02501606
000010 f2 40 73 bd 6b c1 6c bd 17 ac 47 bc 01 b9 d9 bd
       -0.05938811 -0.057801645 -0.0121870255 -0.1063099
000020 5e e7 f7 3b e2 12 d2 bd 15 ce 10 3e e4 17 7f 3c
       0.007565423 -0.10257508 0.14141114 0.015569661
000030 03 cc b3 3d 64 42 5f be e2 15 15 bd 51 74 df 39
       0.087791465 -0.2180267 -0.036397822 0.00042620537
000040 2c cf 51 3d a2 18 32 be 70 8b 95 bd 62 d4 eb bd
       0.051222965 -0.17392209 -0.07301986 -0.11515118
000050 13 82 d3 3d 25 f3 21 bd e4 f1 61 3e d0 fb d9 3d
       0.10327544 -0.03953852 0.2206493 0.106437325

bn1.running_mean f4 [24]
000000 b9 44 5a bc 66 3c 15 3c 29 4f 85 3a b8 2c 2d bc
       -0.013322049 0.009108638 0.0010170686 -0.010569744
000010 b7 ab 20 bd e8 f1 88 bc f3 d6 0b 3d ec 0a d8 bc
       -0.03922626 -0.016716912 0.03414054 -0.026372395
000020 91 6d 09 bc 05 38 a7 bb 69 8e cc bc 24 dc 89 bc
       -0.008387939 -0.0051031136 -0.02497025 -0.016828604
000030 8d e7 dd 3a 62 b0 a3 bb a8 48 5b bc e9 17 82 bc
       0.001692997 -0.0049953917 -0.013384022 -0.015880542
000040 82 af 13 3c c0 fe a8 3c 6b 0e 01 bc 40 4a b3 bc
       0.009014012 0.020629287 -0.007876973 -0.021885991
000050 63 58 80 3b ff c4 f5 3b 22 e8 83 bb 87 e5 61 3c
       0.0039167865 0.0075002904 -0.004025475 0.013787634

bn1.running_var f4 [24]
000000 70 2e f9 3e 9b b3 48 3f 67 ed 0e 3f 73 c3 27 3f
       0.48668242 0.78399056 0.55831 0.65532607
000010 00 5e 8f 3f 06 d5 d2 3e bd 57 ab 3f 22 aa a8 3f
       1.1200562 0.4117815 1.3386151 1.317692
000020 eb e8 83 3f 9a a8 af 3e 87 8d 8b 3f f1 68 8d 3f
       1.0305456 0.3430832 1.0902566 1.104765
000030 62 e9 90 3f 47 6c 42 3f dd 45 bc 3e 8c bc 0e 3f
       1.1321223 0.7594647 0.3677205 0.5575645
000040 35 bb 83 3f 05 1a 3d 3f 57 bf 90 3e 5c 4b ad 3f
       1.0291506 0.7386783 0.2827098 1.3538623
000050 98 96 c0 3f 98 e3 a8 3e b8 24 cb 3e 80 f5 6e 3f
       1.5045958 0.3298614 0.39676452 0.93343353

layers.0.conv1.weight f4 [24, 24, 1, 1]
000000 34 0d d4 3c 85 f0 a5 bd 7c fb 8c 3d 19 54 21 ba
       0.025885202 -0.08102516 0.06883904 -0.0006154194
000010 63 62 08 3e ff 50 30 be bf 12 04 be b3 e9 96 bd
       0.13318782 -0.17218398 -0.12897776 -0.07368793
000020 8f 25 31 be a4 1c 6f 3e 00 e9 cc bc d7 43 1b bf
       -0.17299484 0.2335077 -0.025013447 -0.6065039
000030 da fc 15 3d 39 b2 34 3d 53 e3 5e bd 6d ff e3 3e
       0.03661809 0.04411528 -0.054416012 0.44530812
000040 b2 67 08 3e 6f e6 b1 3e 39 26 81 3e 9c f8 94 be
       0.13320807 0.3474612 0.25224474 -0.29095924
000050 71 c7 db be 8e 52 09 be cc 54 9b bd 23 70 7f be
       -0.429256 -0.13410398 -0.07584533 -0.2494512
000060 60 19 bd bc 06 37 bd 3e 5a 70 2e be f1 ad d1 3d
       -0.023083389 0.36956042 -0.17035046 0.10238255
000070 3b 2d 29 3e 34 c8 b2 3e 4d 11 d0 3e cd 69 ba bd
       0.1652116 0.34918368 0.406382 -0.09102211
000080 25 42 f6 be da 3e b1 3a ea c3 b6 bd 2b ce ae bc
       -0.4809734 0.001352276 -0.089240864 -0.021338543
000090 56 b3 56 bd 5b c1 7e 3d 8c 30 85 3e 68 e9 84 bd
       -0.05241712 0.062196117 0.260136 -0.06489831
0000a0 0b 2b 67 be 38 6e 35 be 12 8a cd 3e 62 9c 2f bd
       -0.22575013 -0.17717826 0.40144402 -0.042873748
0000b0 cb 36 8a 3c be d7 b7 be 86 e1 59 3d 6c 94 24 3e
       0.01687183 -0.35906786 0.05319359 0.16072243
0000c0 96 0d 72 bd 4d 60 59 bd f5 70 ac 3d 19 0d 1a be
       -0.059094988 -0.053070355 0.08419982 -0.15044059
0000d0 4b 32 f0 3d bc 02 43 be 27 9f 5d be de 74 df 3e
       0.117283426 -0.19044012 -0.21642743 0.4364385
0000e0 14 33 14 be 58 96 ef 3e 9b 5b 3e be 63 35 a3 be
       -0.1447261 0.4679439 -0.18589632 -0.31876668
0000f0 2e 20 a1 be 56 07 0d 3e 7b e4 54 be 3a ef b7 3d
       -0.31469864 0.1377233 -0.20790283 0.08981176
000100 db c6 43 be fc ed 93 3e ed e2 85 3e 53 bb 72 3e
       -0.19118826 0.28892505 0.26149693 0.23704271
000110 9f 9c 75 be d8 bd 8f bd a9 86 56 3e 24 eb a6 be
       -0.23985527 -0.07018632 0.20949806 -0.32601273
000120 9b 45 0a bd 44 51 2f 3e 53 6b 1f be ac ac fb 3c
       -0.033757787 0.17120844 -0.15568285 0.030721985
000130 ad e1 61 3f 6b ca bf 3e 38 ed 75 be 6e 1b 36 3d
       0.8823498 0.3745912 -0.24016273 0.044459753
000140 76 ef b8 be fd d0 c2 be 69 4e bb bc 09 01 af 3d
       -0.36120194 -0.3805007 -0.022864537 0.08545119
000150 91 31 a5 be b7 f5 bd bd 79 e8 93 be 83 ea b5 3d
       -0.3226438 -0.09275382 -0.288883 0.0888262
000160 ae 92 1b be 57 6b 12 be 4a 51 06 be cd a2 29 3e
       -0.15192673 -0.1429876 -0.13116947 0.1656601
000170 2c e1 85 3d bb cd 0a bd 38 39 75 3d c6 e9 37 be
       0.06537089 -0.033887606 0.05986902 -0.17960271
000180 20 5d 02 3e cd 04 09 bd aa 8a 81 bd 84 90 56 3d
       0.12730837 -0.033451844 -0.06325276 0.052383915
000190 c2 87 1a 3d bb 5f 61 be 0f 23 16 3e 18 b6 19 bd
       0.037727125 -0.22009175 0.14661811 -0.037527174
0001a0 b4 58 16 3e b9 2e 08 be b1 20 70 3e d1 8e c8 be
       0.14682275 -0.13299073 0.23449971 -0.3917146
0001b0 6f 99 7f bd 31 e8 06 bd 16 a2 59 3c 12 8b 37 be
       -0.062402185 -0.03293628 0.013283273 -0.17924145
0001c0 b4 80 12 3e 35 b6 30 bf 42 c8 ef 3d ae 82 3b be
       0.14306909 -0.69028026 0.11708118 -0.18311569
0001d0 a5 2c 10 be 51 0a 25 be 38 cf f0 bd 6b 62 f3 3e
       -0.1407953 -0.16117217 -0.11758274 0.47536024
0001e0 03 f2 3d 3e d9 81 6c be 97 2a 77 bd d1 b2 7c be
       0.18549351 -0.23096408 -0.06034335 -0.24677588
0001f0 5e 49 68 be e5 3b a7 bc 3a 10 1b be 42 6f c4 be
       -0.22684237 -0.020414302 -0.15142909 -0.38366133
000200 cb a9 03 be 4f 55 8f bd be 6a 03 3c d2 e7 92 be
       -0.1285774 -0.06998693 0.008021055 -0.2869249
000210 5b cd 03 3f 61 a6 34 be 86 3f f5 bc de aa ea 3e
       0.5148522 -0.17641594 -0.029937517 0.45833486
000220 6c b1 5c 3e cc ef b6 3e a5 00 03 bc a4 3f dc be
       0.21552056 0.35729825 -0.007995759 -0.43017304
000230 5d 7f f0 be 5f b3 56 3e c6 2d 49 be e0 c8 ba bd
       -0.4697217 0.20966862 -0.19646367 -0.09120345
000240 e6 13 36 bc 8c 70 86 be d6 ac 49 be bf 15 9b bd
       -0.011113143 -0.2625774 -0.19694838 -0.07572507
000250 2f 0e ec be 49 8b 0e bc 82 f5 8c be a6 01 92 be
       -0.4610457 -0.0087002 -0.27531058 -0.28516883
000260 43 ec 1e 3e 2d 33 b4 3d 70 14 97 3d f7 47 d0 3e
       0.15519814 0.087988235 0.07376945 0.40679905
000270 f0 30 08 3c 6c 47 76 bc fa 76 e2 be dd fe 8e be
       0.008312449 -0.015031677 -0.44231397 -0.2792882
000280 af 90 fd 3e 26 cd 96 bd c6 84 c2 3c 48 4e a2 be
       0.49524447 -0.07363348 0.023744952 -0.3170035
000290 90 9d 75 3e 4c ef fb bd af 52 bd 3d 14 6b 02 3e
       0.23985887 -0.12301502 0.09244286 0.1273616
0002a0 38 af 34 be c8 68 00 3e 13 82 db be 54 95 7c bc
       -0.17644966 0.12539971 -0.42872676 -0.015416462
0002b0 ac 5f 28 bf 70 70 56 3c f0 d2 e2 3e 8a 29 70 be
       -0.65770984 0.013088331 0.44301558 -0.23453346
0002c0 f8 7e 1c 3e cb 5d a5 3e ed 8e fa bd fa 8e 2b be
       0.1528281 0.3229812 -0.12234292 -0.1675376
0002d0 0e cd 81 3e 1b 83 33 be 6f 0a dd 3d 19 a1 b4 bd
       0.25351757 -0.17530482 0.10793006 -0.088197894
0002e0 fd e9 c0 3e 16 e6 a3 bc cb 53 41 be d8 82 9b bd
       0.3767852 -0.020007174 -0.1887962 -0.07593316
0002f0 8a f4 e6 3d 80 8f 0a 3d 58 c3 b1 3e 1c 5b 66 3d
       0.11277111 0.03382826 0.34719348 0.056239232
000300 4c 0b f4 3e 65 6a 60 bd 2d 7e 97 3e af e2 8e be
       0.4766487 -0.054788966 0.29588452 -0.2790732
000310 b4 7d 3e be 67 52 78 3e 4b 24 32 bd d7 c8 85 bd
       -0.1860264 0.24250184 -0.043491643 -0.06532448
000320 9d d6 95 3e dd fe 97 be f1 cc 8a be 9e 7d 44 be
       0.292653 -0.29686633 -0.27109483 -0.19188544
000330 e0 fc aa 3e c7 d9 f7 3d 2a 22 fc 3d 59 ff 8c 3e
       0.33396053 0.121020846 0.12311204 0.27538565
000340 4a 2d 14 be 6a b2 f6 3d 1b ea b5 bc a0 8c 40 be
       -0.14470401 0.120457485 -0.022206357 -0.18803644
000350 f5 c3 1c be 3f d0 f7 3e 8a c7 2b 3e cb e2 4f 3d
       -0.15309127 0.48401067 0.16775337 0.050753396
000360 b4 e9 69 bd 75 44 ba 3e 08 8e e4 3e 55 42 5d 3e
       -0.057107642 0.36380354 0.4463961 0.21607335
000370 25 01 74 bd 64 73 83 be 8e 87 fd bd cf 06 b2 bd
       -0.059571404 -0.25673974 -0.12379371 -0.08692705
000380 f3 7f c1 bd 11 0d 3c be 60 50 9e 3e b2 87 e7 bd
       -0.094482325 -0.1836436 0.30920696 -0.11305179
000390 3f d7 c3 3d b6 2e ba 3d f4 40 10 be 6b b9 95 3d
       0.09562539 0.09090941 -0.14087278 0.07310756
0003a0 08 52 12 3f 07 05 18 be 99 c1 47 3e 82 e3 25 bd
       0.5715642 -0.14845668 0.19507445 -0.04050017
0003b0 ba e6 ac 3e 9c 36 b7 3e 36 85 a4 bc 70 bc 92 be
       0.3376978 0.3578385 -0.020083051 -0.2865939
0003c0 7d ed 0a be 18 0f d5 bd f6 e0 88 3e 73 e7 ed bd
       -0.13567157 -0.104032695 0.26734132 -0.11616411
0003d0 58 3e 26 be 8c 2e 28 3e ab b1 2a 3d ca 6e 0a 3f
       -0.1623472 0.16424006 0.041673344 0.540753
0003e0 c0 90 c3 3e a0 6f 23 3e c0 8d 46 be e6 b6 1f 3d
       0.38196373 0.1596055 -0.19390011 0.038992785
0003f0 b4 ef ad be fa 8a c1 3e 35 4d 38 3d 96 82 ac be
       -0.3397194 0.37801343 0.044995505 -0.3369338

layers.0.bn1.weight f4 [24]
000000 22 39 f3 3e 8c 65 cb 3e f5 e8 70 3f 83 54 61 3f
       0.47504526 0.39725912 0.94105464 0.8801958
000010 c9 13 41 3f 83 10 78 3f a7 c9 b8 3e 3e 27 bc 3e
       0.75420815 0.96900195 0.3609135 0.3674869
000020 38 fb a5 3f 06 fc 81 3f 53 6b 5c 3f 15 0b da 3e
       1.2967291 1.0155036 0.86101264 0.4258658
000030 79 5a 5a 3f 95 f3 9c 3e aa ef 18 3f aa b8 bf 3f
       0.852943 0.30654588 0.597407 1.497823
000040 75 23 b1 3f c2 c4 c7 3e 0d 12 01 3f 8a e5 6e 3f
       1.3838946 0.39017302 0.5041817 0.93319
000050 09 af e4 3e f5 01 f1 3f 67 65 68 3f 87 25 55 3f
       0.4466479 1.8828722 0.9077973 0.8326039

layers.0.bn1.bias f4 [24]
000000 fa 70 1c 3f ca 0e 0b 3f db e4 f8 bd fc ee 32 3e
       0.6110989 0.5431944 -0.12153026 0.17473978
000010 7b 64 b3 3d b9 9c 3f 3e ba f0 17 3f b5 eb 16 3f
       0.087593995 0.18712129 0.59351695 0.5895341
000020 a4 3e b1 bd ac 33 8c bd 1e 88 8c be 4f 65 0a 3f
       -0.08654526 -0.06845793 -0.274476 0.54060835
000030 42 9a 40 3e 3c 97 27 3f 9c 4a cb be 37 47 4a 3d
       0.18808845 0.6546514 -0.3970536 0.049384322
000040 10 3f 7c 3f 61 2c 00 3f c9 98 15 3f 80 f7 24 3e
       0.98533726 0.50067717 0.58436257 0.16110039
000050 0d 4a 03 3f 94 83 89 3d 9c db 35 3e e1 95 42 be
       0.5128487 0.0671455 0.17759556 -0.19002487

layers.0.bn1.running_mean f4 [24]
000000 42 43 30 be 55 f1 a5 3c b2 42 93 be 03 49 2d 3b
       -0.17213157 0.020256678 -0.28761822 0.0026441223
000010 f2 f7 3b 3e 1d f9 1b bd 5c 45 65 3e 29 1e 93 3e
       0.18356302 -0.03807937 0.2238974 0.28733948
000020 a8 c0 28 be 9c 96 03 3e 29 ea 41 be b6 9b 98 3e
       -0.16479743 0.12850422 -0.18936981 0.29806298
000030 2e e9 26 3e 3d 87 0d be 7a e5 ed bd f1 88 72 bd
       0.16299888 -0.1382112 -0.11616035 -0.05921263
000040 6d f2 ae 3e 73 78 2d 39 7a 58 42 3e f6 45 ff bd
       0.3416933 0.00016543437 0.18979064 -0.12464516
000050 13 59 9d 3d 59 03 9c 3d 11 9f 0e 3c 5e 2b 01 3e
       0.07683005 0.07617826 0.008704917 0.126142

layers.0.bn1.running_var f4 [24]
000000 5b b2 37 40 8f 97 73 3f b2 f0 16 40 79 fa d4 3f
       2.870261 0.95153135 2.3584409 1.6638938
000010 d4 35 20 40 ba a6 a1 40 ae 75 8d 3f 0c 05 18 40
       2.5032854 5.0516024 1.1051538 2.375308
000020 3a 58 94 3f 29 ff 87 40 22 4a 95 40 90 51 d1 3f
       1.1589425 4.2498975 4.6652994 1.6353016
000030 58 01 08 40 32 03 2c 40 f9 d3 27 40 45 75 70 40
       2.125082 2.687695 2.6223128 3.7571576
000040 39 ff ae 3f 00 87 11 40 8f 41 2b 3f 63 ad 89 40
       1.3671638 2.2738647 0.6689691 4.3024154
000050 07 73 ba 3f f9 2a 4f 40 e0 88 0c 40 75 03 4d 40
       1.4566354 3.2369978 2.1958542 3.203336

layers.0.conv2.weight f4 [24, 1, 3, 3]
000000 65 f3 8a be 72 86 9a bc ee 13 8c 3e 30 de 9b be
       -0.2713882 -0.018862937 0.27358955 -0.30442953
000010 43 52 fa bd 14 75 c3 3e f6 f3 4c 3e 7c f7 f5 3d
       -0.122227214 0.3817526 0.20014939 0.120100945
000020 5d 9c 8b be 4b 1c 89 be 8f f3 9b 3e cc ac f1 3c
       -0.27267733 -0.26779398 0.30459258 0.029501341
000030 07 b8 73 bd 75 67 e7 be 3a f7 fc 3d f6 14 e7 3e
       -0.059501674 -0.4519612 0.12351842 0.4513318
000040 92 c4 b9 bd 74 01 b6 bd 68 2a 8c 3e 4b 89 f0 bc
       -0.09070696 -0.08886996 0.27376103 -0.029362341
000050 81 10 12 bf 5c b5 1d bc 29 40 a5 be 67 6f db be
       -0.5705643 -0.009625759 -0.32275513 -0.4285843
000060 61 37 e1 3c e1 88 25 be 14 11 91 3c 4b f1 a0 3e
       0.027492227 -0.16165496 0.017708339 0.31434092
000070 71 9b 55 3c 33 65 b1 be f0 9c 89 3e ea d9 d8 be
       0.013037548 -0.3464752 0.26877546 -0.42353755
000080 63 d0 a8 be 0c c9 b3 3c 69 63 83 3d 6c 69 0e bf
       -0.32971486 0.021946453 0.06415445 -0.5562961
000090 65 8c a2 be 30 bd 30 3a 0c 93 ca 3e 52 20 03 3c
       -0.31747738 0.00067420583 0.39565313 0.008003311
0000a0 7d 1a bc 3e 87 81 5b 3d 01 e6 54 3e 2b 14 a3 3e
       0.3673896 0.053590324 0.20790865 0.31851324
0000b0 ae 86 99 3e b8 f7 12 3e 3d 27 de be 3d 78 bc be
       0.29985565 0.1435231 -0.4338931 -0.36810485
0000c0 de c4 38 3e 2f 7d 8b be 69 d6 15 bf 9f 06 8f be
       0.18043849 -0.27243945 -0.5853029 -0.2793474
0000d0 e8 6d da be c6 dc ca 3c 89 c1 74 be 48 a0 86 be
       -0.42661977 0.024763476 -0.23901953 -0.2629416
0000e0 dc 4f b5 bd b2 23 9b 3e 94 0d b3 3e aa f1 e7 3e
       -0.088531226 0.3030067 0.34971297 0.45301563
0000f0 55 9c 21 be 05 14 86 be ce 2f f9 bd ec 95 85 be
       -0.15782292 -0.2618715 -0.12167321 -0.26090944
000100 a4 da 44 be 21 0c 46 3e 22 a6 20 be ab ed 73 3d
       -0.1922403 0.19340564 -0.15688375 0.05955283
000110 a0 82 c1 3e 20 ce e8 be 82 ac cd bc 61 53 c1 3e
       0.3779497 -0.4546976 -0.025106672 0.37758926
000120 85 b6 da 3e 8d 82 34 be af ba 44 be ca e3 22 3d
       0.42717376 -0.17627926 -0.19211839 0.039768018
000130 93 a9 c4 be 11 a9 29 be 00 54 0c be 41 1c b1 be
       -0.38410625 -0.165684 -0.13703918 -0.3459187
000140 57 88 a3 bd 66 39 60 bd 86 ff 1a bd 1c fc c0 bd
       -0.07984989 -0.05474224 -0.037841342 -0.09423086
000150 47 76 1a 3f 56 7f cf 3c 4f d0 af 3d 37 d7 68 3f
       0.60336727 0.025329273 0.085846536 0.9095339
000160 f4 67 7f 3e dd 16 b0 3e f8 8e e5 3e fd 59 59 3d
       0.24941999 0.34392443 0.4483564 0.053064335
000170 f3 42 10 bd a0 4c a1 3e 5a 6f f0 3e 62 5b cc 3e
       -0.035220098 0.31503773 0.46959955 0.3991347
000180 73 44 12 3d 5b ce af 3e f1 7a ff 3c 66 e6 a6 3d
       0.03570981 0.34337124 0.031186553 0.08149414
000190 14 1d 1d 3c 05 fe c7 bd 89 ae f4 3e fa bc fd be
       0.009589452 -0.09765247 0.4778941 -0.4955824
0001a0 18 22 45 bc 38 98 9e 3e f1 d1 de be d6 29 32 3e
       -0.012032054 0.3097551 -0.43519548 0.17398772
0001b0 64 f9 f6 3b 4c 80 4c 3e dd 34 41 be 34 35 af bd
       0.007537054 0.19970816 -0.18867822 -0.085550696
0001c0 3a 97 46 be 24 45 8c 3e 6d a3 0f be f2 f0 1e 3f
       -0.19393626 0.273965 -0.14027186 0.62086403
0001d0 42 da 6f be d8 4e 7f 3e 59 55 6f 3e 34 e9 7c 3d
       -0.23423102 0.2493242 0.23372401 0.061745837
0001e0 36 e7 f2 be e5 62 5d 3e 29 51 24 3e 34 43 e3 bc
       -0.47442025 0.21619757 0.16046585 -0.027742006
0001f0 70 3f f9 be dc c7 64 3d 65 ca a8 3e 00 32 06 bf
       -0.4868121 0.055854663 0.32966915 -0.52420044
000200 13 b4 98 be fb 52 1e 3e c5 8d 5f 3d 33 72 1b bd
       -0.29824886 0.15461342 0.05457856 -0.037950706
000210 8a ac 72 3e 89 a3 ae 3e 1e 6a 91 be 2d 0a 94 be
       0.23698631 0.34109142 -0.28401273 -0.28914014
000220 27 02 76 3d 19 d6 34 3e 38 b0 22 3f 49 cb 87 3e
       0.060060646 0.17659797 0.6355014 0.26522282
000230 1b e4 63 3e 7d 1b 23 bc 1a 96 6e 3e a6 d3 09 be
       0.22254984 -0.009955284 0.23299447 -0.13459644
000240 a4 dd d6 be f6 db 8d be 6b 2c f1 be 71 94 1b 3e
       -0.41965973 -0.2770688 -0.471042 0.15193345
000250 19 44 7f be 54 09 f4 3d 9b f3 a7 3e 1e 1b 83 3e
       -0.24928321 0.11915842 0.32803044 0.25606626
000260 bc a9 41 3e 63 4d 7d bd 1d 46 b1 3d 24 81 77 3d
       0.18912405 -0.06184138 0.08655951 0.060425892
000270 4a 21 8e be a4 a8 0e 3f aa 9a da be ac b6 10 be
       -0.27759773 0.55726075 -0.42696124 -0.14132184
000280 8d 9c 97 3e 8f 8a 26 be c4 52 4f 3e 67 1a d1 be
       0.29611626 -0.16263793 0.20246416 -0.40840456
000290 f4 4d 5b 3e af 60 a0 be dc a4 0b 3e 24 84 2c 3e
       0.21416456 -0.31323764 0.13637108 0.16847283
0002a0 42 b8 ac bc f6 48 80 3e 16 c7 86 be 80 08 b8 be
       -0.021083955 0.25055665 -0.26323766 -0.35943985
0002b0 2b c6 d2 bd de 34 3b bf 67 ff 83 bc 82 a0 1b 3d
       -0.10291704 -0.73127544 -0.016112996 0.03799487
0002c0 d1 06 59 3e 54 83 0e bf e1 a7 01 be e5 40 a1 3c
       0.21194007 -0.5566914 -0.12661697 0.019684264
0002d0 8d 12 9f 3e 8f 3c 04 be 04 8e 64 be 2b e6 f4 3e
       0.3106884 -0.12913726 -0.223198 0.47831854
0002e0 d1 62 ba bd 8e 73 85 be e2 00 9f 3e 2b d6 87 be
       -0.09100879 -0.26064724 0.3105536 -0.26530585
0002f0 77 3d 12 be 46 ec be 3e b0 18 03 3d 17 a3 dd be
       -0.1428126 0.37289637 0.032005966 -0.4328849
000300 85 3a 67 3e 12 b0 b0 3e 97 7c 6c be 79 97 71 3e
       0.22580917 0.3450933 -0.23094402 0.23592938
000310 06 bd 93 3d d7 ce 05 be 81 45 81 be 8a f8 87 3e
       0.07213788 -0.13067184 -0.2524834 0.26556808
000320 3a fc 86 3c b3 72 fb be 62 3f 8e bd 38 fe 01 3f
       0.016477693 -0.49110946 -0.06945683 0.5077853
000330 3b 65 5e be 15 c1 95 bd 53 ce af 3e f7 0d 41 bd
       -0.21718304 -0.07312218 0.343371 -0.04713246
000340 b1 b2 96 3e 97 75 e8 3e ed e1 01 3e 69 90 cb 3e
       0.29433206 0.45402214 0.1268384 0.39758614
000350 56 9a a2 3e a5 be 41 3e 00 db 6a 3e 0b b2 d2 3d
       0.31758374 0.18920381 0.22935104 0.10287865

layers.0.bn2.weight f4 [24]
000000 51 6c b1 3f 9b 71 9e 3f 9a 8d 77 3f 30 c9 3a 3f
       1.386118 1.237842 0.9670044 0.7296324
000010 17 d3 57 3f 5e 95 82 3f f3 ca 84 3f 65 f0 bd 3f
       0.8430647 1.0201833 1.0374435 1.4838988
000020 4f 87 04 3f 30 f7 c2 3f e2 f0 aa 3f 35 e8 e0 3f
       0.51768965 1.5231686 1.3354762 1.7570864
000030 d2 f3 59 3f fe 47 aa 3f 4d 88 76 3f e0 77 80 3f
       0.85137665 1.330322 0.9630173 1.0036583
000040 58 62 62 3f 60 c9 c7 3f 5d 4d 92 3f f2 31 2b 3f
       0.8843131 1.560833 1.1429859 0.66873085
000050 e4 55 a0 3f 93 e2 5d 3f ba c6 95 3f 94 5b 86 3f
       1.2526212 0.8667385 1.1701272 1.0496697

layers.0.bn2.bias f4 [24]
000000 a9 ae da 3d d0 5f 5c bd 7c ec 86 3e 9a b1 ce 3e
       0.10677845 -0.05380231 0.26352298 0.40369874
000010 47 1d 3c 3e 3b 64 ad 3e c6 df f0 bc ea e5 ac 3e
       0.18370543 0.33865532 -0.029403578 0.3376916
000020 be 47 85 3f dc f1 f0 3f 61 65 d9 3f f1 62 5c be
       1.0412519 1.882381 1.6984063 -0.21522118
000030 0f 12 b5 bd 83 50 28 be 08 52 2d be e2 5e 17 3f
       -0.08841335 -0.16436963 -0.16925824 0.59129155
000040 c4 96 15 3f bc 8a cc 3c 9c 71 9a bd 88 ba 37 3f
       0.58433175 0.024968497 -0.075412005 0.71769
000050 52 e1 3b be 98 ad 10 3e 07 ff 96 bc 6a 70 94 3f
       -0.18347672 0.14128721 -0.018432153 1.1596806

layers.0.bn2.running_mean f4 [24]
000000 7c dd bb bb 6c e0 0a bd 17 6a 96 be 5a 9f e4 be
       -0.00573319 -0.03390543 -0.29377815 -0.44652826
000010 6d 4a c2 3e f3 86 59 bf 68 b2 79 3b fd ef c6 ba
       0.37947407 -0.8497154 0.0038100723 -0.0015177723
000020 a2 ed e6 be 87 6b 0c 3f c4 5e b2 3e b9 8d d7 bc
       -0.45103174 0.54851574 0.34837925 -0.026312696
000030 16 f3 dd 3d cb e8 a3 bc 7d 3b 2b bb 25 d2 0c 3f
       0.108373806 -0.020008465 -0.0026127987 0.55008155
000040 38 82 c2 be 69 e3 d9 bc 45 54 f0 bc 9a 5f 2a bf
       -0.37989974 -0.026597695 -0.029337058 -0.66552126
000050 1b 13 32 bd ed b8 ab 3e d6 d7 10 3d 95 38 c1 3e
       -0.04347525 0.33539525 0.035362087 0.3773848

layers.0.bn2.running_var f4 [24]
000000 6d b0 13 3d c1 9a 8f 3d ae 6d 70 3e 2c 07 fc 3e
       0.036056925 0.07011939 0.2347934 0.49224222
000010 2a 74 69 3e a9 2a 63 3f 11 1a da 3d c7 78 03 3d
       0.2279822 0.8873697 0.10649503 0.032097604
000020 2d 56 0e 3f fb 22 58 3f dd f9 db 3e 04 85 29 3e
       0.55600244 0.84428376 0.42964068 0.16554648
000030 80 cf 34 3d ed 0c 70 3d b9 75 dc 3c 70 8d 2c 3f
       0.0441432 0.058606077 0.026911603 0.67403316
000040 9f 12 08 3f 68 e7 bd 3d 61 2c 34 3d f0 fc 1d 3f
       0.53153414 0.09272653 0.043987636 0.61714077
000050 00 66 12 3e 82 a2 12 3f 69 11 c6 3d 39 86 d8 3e
       0.14296722 0.5727922 0.096712895 0.42289904

layers.0.conv3.weight f4 [11, 24, 1, 1]
000000 8e d6 6a bd f9 c1 78 3e 13 cb d7 bd bd ab 40 3d
       -0.05733352 0.24292745 -0.1053678 0.047038782
000010 99 f1 2a 3e 15 27 8d 3e 26 55 af 3d bc a7 ca be
       0.16693725 0.2756888 0.08561163 -0.39581096
000020 8e 94 49 be 30 9e 85 bd 0a 51 79 bc 13 14 1b 3f
       -0.19685575 -0.065243125 -0.015217075 0.60577506
000030 b1 39 f3 3d 04 97 28 3e 5d c8 df bd 12 b3 f5 bd
       0.11876238 0.16463858 -0.10926888 -0.119970456
000040 53 85 06 be 77 d1 17 3f 3e 58 25 3f db 2c 0d be
       -0.13136797 0.59303993 0.6458777 -0.13786642
000050 11 b8 c4 3e 33 59 26 bd 48 1b 7b bd f3 1c 43 3e
       0.38421682 -0.04061241 -0.061305314 0.19054012
000060 8a 0c a4 3e 29 c1 e8 3c 3e a9 40 be c7 d7 70 3e
       0.32040817 0.028412418 -0.18814561 0.23519813
000070 d7 88 fc be c8 85 0e be 5b a3 9d ba 0a 0a 26 3e
       -0.4932315 -0.13918221 -0.0012026833 0.16214767
000080 5b 51 72 3e ae 2e 18 3e c8 21 7e be 8c 00 55 3e
       0.23663847 0.14861557 -0.24817574 0.2080099
000090 d5 0e 42 3e 3f 2f 30 be da 2b e1 bd 7d 19 d4 bd
       0.1895097 -0.17205523 -0.10994692 -0.10356424
0000a0 d4 11 13 3e 69 dc 29 3e e6 ef e8 3e 8d 3d 02 3f
       0.1436227 0.16587986 0.45495528 0.5087517
0000b0 d7 36 81 3c 4a 44 57 be 52 06 ab 3e 88 2f be 3d
       0.01577322 -0.21022144 0.3340326 0.092864096
0000c0 e6 82 a0 3d 56 53 49 3e 56 44 11 3d 18 81 8c be
       0.07837467 0.19660696 0.03546556 -0.2744224
0000d0 36 da bf be eb de ce 3c de b6 10 3d 5a f1 5a bd
       -0.3747117 0.02525278 0.035330646 -0.053452827
0000e0 a6 05 97 3e be ea 9a 3e 31 c3 39 3d 16 84 a2 be
       0.29496497 0.3025722 0.045352165 -0.317414
0000f0 77 2f 8e 3d c7 63 98 3e 29 bb 6a 3e 1e cb a3 3e
       0.06942647 0.29763624 0.22922958 0.31990904
000100 ee 3b 35 bc 4a 5c 9f be 53 6e f0 bd f3 16 d6 3d
       -0.011061652 -0.31125098 -0.11739793 0.10453596
000110 c4 a1 d5 bd e2 c8 ce 3e 8f 57 8c 3e f6 24 ad 3e
       -0.10431245 0.40387636 0.27410552 0.3381726
000120 64 b5 b4 3e a7 24 5b be c9 1e 7d be bf 7c 8f bc
       0.3529464 -0.214007 -0.24718775 -0.017515538
000130 4c 6e 85 3e cb 83 bf 3c e7 87 30 3e 71 b4 01 3e
       0.26060712 0.023378273 0.17239343 0.12666489
000140 29 ca a4 be 0c ed ec bd de 34 ad 3e 7a 67 0b be
       -0.32185486 -0.115686506 0.33829397 -0.13613692
000150 7a 51 91 be ee f3 bb be 7c ac 2b be dc c5 a5 bd
       -0.28382474 -0.3670954 -0.16765016 -0.08094379
000160 dc 2d 1d 3e 4f ee 25 be 14 b4 f1 3d f3 04 cb 3e
       0.15349525 -0.16204189 0.11801925 0.39652213
000170 c4 5b f7 be ed 53 52 3e 55 1f d1 3c 30 42 b3 3e
       -0.483122 0.20539828 0.025527636 0.35011435
000180 9a 18 73 3d b5 e8 c3 be ff 2d 77 be d4 4c dc 3c
       0.059349634 -0.3826348 -0.2413864 0.026892103
000190 6c af cd bd e0 99 bf 3e 1b c9 3b 3e 1f e8 72 be
       -0.10043225 0.37422085 0.18338434 -0.2372136
0001a0 95 47 c3 be 0a f3 c7 bb e3 42 2a bb 99 09 46 be
       -0.3814055 -0.0061019706 -0.002597981 -0.19339599
0001b0 98 a0 c8 3e 45 09 14 bf ab 02 88 be eb 58 e8 bd
       0.39185023 -0.57826644 -0.26564535 -0.11345085
0001c0 57 07 cb 3e 41 3e 7c be 3d 6f 84 3c 60 ad aa 3d
       0.39654037 -0.24633123 0.016166324 0.0833385
0001d0 c4 90 09 be f5 84 1b 3e 81 d2 83 be 39 bd 02 3e
       -0.1343413 0.15187438 -0.2574654 0.12767495
0001e0 3d d1 97 3d b1 e9 f8 3e fc 85 96 bb 8d 70 06 bd
       0.07412956 0.48615792 -0.004593609 -0.03282218
0001f0 4c 83 67 be 2c b3 61 3e 6a 95 a7 be 1e f0 d1 3d
       -0.2260868 0.22041005 -0.3273118 0.10250877
000200 6b c5 9f be 18 61 fc 3c 89 f3 09 ba b5 16 0b bf
       -0.31205305 0.030808017 -0.0005262425 -0.54331523
000210 82 c5 2d be 8f 30 f9 3e e9 fc 97 3e f2 81 12 3d
       -0.16969875 0.4866986 0.29685143 0.035768457
000220 cc 38 ba 3c ee 40 ee be c3 ff a9 3e fb c4 0a 3e
       0.022732161 -0.46533912 0.33202943 0.13551705
000230 02 7c 20 be bb 2d 51 be 01 e3 c6 bd 2c 4d 75 3c
       -0.15672305 -0.20427601 -0.09711266 0.0149720125
000240 2a 43 cd 3e 6a c3 1c be 54 85 5e 3d 3a 27 3b 3d
       0.40090305 -0.1530892 0.05432637 0.045691706
000250 84 9d 41 be fe 35 79 be db 0b dc 3c 2c 2f 1b be
       -0.18907744 -0.24337003 0.026861122 -0.15154713
000260 71 6a 25 bd 2c 42 46 bd 9b 7c 3c 3e 17 a7 b1 be
       -0.040384714 -0.04840295 0.18406908 -0.34697792
000270 3f 85 9d 3e 51 95 a8 be 19 3d 89 be a6 79 eb 3d
       0.3076572 -0.3292642 -0.26804426 0.11497812
000280 73 e8 07 bf 81 97 b4 be b4 98 b8 3e c5 22 a3 be
       -0.53089064 -0.35271838 0.36054003 -0.31862465
000290 95 c1 b7 be db 67 02 be 61 63 12 3e 55 fe 9b 3d
       -0.3588988 -0.1273493 0.14295723 0.07616869
0002a0 18 1e df bd da 57 f0 bc f0 fc 92 bd d3 74 ee be
       -0.10894412 -0.029338766 -0.0717715 -0.46573505
0002b0 bc 43 a2 3e ec ad ad be 01 25 57 be c1 67 00 3e
       0.31692302 -0.33921754 -0.2101021 0.12539579
0002c0 b2 d2 8d 3e e5 d9 c6 bc 1f 4e 11 bf 2b 08 8b bd
       0.2769981 -0.024273822 -0.5675983 -0.06788667
0002d0 be b4 5c 3e c9 ad fa 3d e4 2a 91 3e c3 f2 1a 3e
       0.21553323 0.12240178 0.28353035 0.15131669
0002e0 32 2e 4c 3e 10 c2 bf bc 70 33 67 3e c0 8c 80 3e
       0.19939497 -0.023407966 0.22578216 0.25107384
0002f0 1a f4 b1 be c7 7b 3d 3e 0e 2e 29 be 25 00 22 be
       -0.34756547 0.18504249 -0.16521475 -0.15820368
000300 c0 4d 72 3e 3a 10 c6 3e d7 01 bc 3c b7 fc d6 bd
       0.23662472 0.38684255 0.022950096 -0.1049742
000310 34 81 b7 be 6f 93 ab 3c 86 f2 2f 3e 1e 85 bd bd
       -0.35840762 0.020944325 0.17182359 -0.09253906
000320 f0 9f ef 3d 44 03 94 be 55 82 38 3e ec ea e5 bc
       0.117004275 -0.2890874 0.18018468 -0.028066121
000330 19 f0 77 3e a0 45 f7 3e 55 46 e2 be 0e ec 75 be
       0.24212684 0.48295307 -0.44194284 -0.24015829
000340 4c 0f b4 3e 69 4a 37 3e 8a 57 96 3d 28 2e 8c 3c
       0.3516792 0.17899479 0.073409155 0.017111853
000350 51 06 07 bf 94 cc 61 3e d2 a7 6a 3c ce 74 c5 bc
       -0.52744013 0.22050697 0.014322238 -0.024103548
000360 c5 90 c3 3d 20 d8 80 3e c0 e0 92 3e 70 a1 bb 3e
       0.09549097 0.2516489 0.28687096 0.36646605
000370 0e f8 8a be 8a c7 cd 3e ac 58 43 be 87 a7 c8 3d
       -0.27142376 0.401913 -0.19076794 0.09797578
000380 a8 64 b1 be f1 a7 c4 3d 7e 35 b8 be a8 24 bb 3c
       -0.34647107 0.09602345 -0.3597831 0.022844627
000390 b6 5a a5 bd 0f 58 ce 3e 73 85 dd bd 91 02 d2 3e
       -0.08073942 0.40301558 -0.10816469 0.41017583
0003a0 01 1f e6 be 91 e2 d3 3d 84 96 d6 bd 19 9d 99 bd
       -0.4494553 0.103459485 -0.10477927 -0.07500667
0003b0 5a b8 f6 bd 4e 41 1a 3c e2 4e 84 3c 09 d5 34 be
       -0.12046881 0.009414984 0.016150896 -0.17659391
0003c0 44 4f d5 3e 10 b0 4e be 20 8c e9 3e 28 d4 e7 bd
       0.41662037 -0.2018435 0.4561472 -0.113197625
0003d0 71 44 71 bd 21 8a 81 3e 2b 82 87 be 86 d2 60 3d
       -0.05890316 0.25300696 -0.26466498 0.05488827
0003e0 a2 be 2d 3e 62 26 17 3e d2 3f 6f 3d 7b f5 4d 3d
       0.16967252 0.14760736 0.058410473 0.050282937
0003f0 f6 7f dc bc c0 7e ad be 16 d2 18 3d 8b 97 c7 3e
       -0.026916485 -0.33885765 0.03730973 0.38982806

layers.0.bn3.weight f4 [11]
000000 ff 98 9f 3f 04 8f 81 3f 73 d3 8d 3f bb 0d 66 3f
       1.2468566 1.012177 1.1080154 0.898647
000010 72 3f 80 3f d7 00 7d 3f d0 04 8e 3f 86 cf 3f 3f
       1.0019362 0.98829406 1.1095219 0.7492603
000020 a0 1c 87 3f 5d 9c 6f 3f 3d c9 84 3f
       1.0555611 0.93597966 1.0373913

layers.0.bn3.bias f4 [11]
000000 40 2f 15 bd f2 0c fa 3a 28 29 ee bd 19 39 8b bd
       -0.036422014 0.0019077344 -0.11628944 -0.06798
000010 02 25 14 bd 01 00 e4 bb eb a9 16 bb 28 6c 11 be
       -0.036168106 -0.0069580083 -0.0022989463 -0.14201415
000020 63 7d 3c 3e 3f 0c e7 bd 51 b8 3e be
       0.18407206 -0.11281633 -0.18624999

layers.0.bn3.running_mean f4 [11]
000000 28 92 14 3f 80 e1 87 3f 88 ec be 3f 9c 00 17 3f
       0.58035517 1.0615692 1.4915934 0.58985305
000010 6d 18 12 bf f4 e5 63 be 2e c5 4a bf c2 56 4e bf
       -0.5706852 -0.22255689 -0.7920712 -0.8060113
000020 80 0e 89 3e 77 f4 b6 be 42 cf 92 3f
       0.26768875 -0.35733387 1.14695

layers.0.bn3.running_var f4 [11]
000000 83 5d 88 3f bf 8b 16 3f de af 1d 3f 59 08 29 3f
       1.0653538 0.58806986 0.6159648 0.6602836
000010 63 78 68 3f 21 66 33 3f 31 ed 16 3f 6f 2e 28 3f
       0.90808696 0.7007771 0.58955675 0.6569585
000020 e3 f6 1f 3f 47 52 1f 3f e3 b8 07 3f
       0.62486094 0.6223492 0.5301649

layers.1.conv1.weight f4 [22, 11, 1, 1]
000000 e1 33 99 be ab 9a 1d bd 48 a5 75 be d8 b1 b9 be
       -0.29922393 -0.03847758 -0.23988831 -0.36268497
000010 8a dc a5 3d dc d0 96 be 69 38 0b be 16 6f 0b 3f
       0.08098705 -0.29456222 -0.13595738 0.5446638
000020 7d e3 f4 bd be 99 a2 3e 6c 76 ad 3e 70 9e 7e 3e
       -0.119574524 0.3175792 0.3387941 0.24865127
000030 b7 53 41 3e ab a3 5c be 88 be 61 be 02 42 7b 3e
       0.18879591 -0.2154681 -0.22045338 0.24536899
000040 c6 36 57 be 4d 3d 94 3e 26 5a 92 be a3 c7 09 3f
       -0.21016988 0.2895302 -0.28584403 0.53820246
000050 da dd e6 3e 61 76 15 bc b4 a6 24 bf 7d 28 c9 3c
       0.45091134 -0.009122462 -0.6431687 0.02455544
000060 77 44 89 bd 01 ab 7d bd ee 03 02 3e c6 ec 18 3e
       -0.06702512 -0.06193066 0.12696812 0.14934072
000070 47 29 c8 3e 97 42 22 be e3 38 40 3e 8a 5e 9d be
       0.39093992 -0.15845715 0.187717 -0.3073619
000080 37 01 89 be 2d 8b 51 be fc 99 95 3d 02 69 62 3e
       -0.2675874 -0.20463248 0.07304761 0.2211037
000090 f7 c3 fa be 66 de 74 be 9f c3 25 be b1 6f 4c be
       -0.48977634 -0.23912963 -0.16187905 -0.19964482
0000a0 f7 d6 dd bd 24 93 c1 be 2f a4 b3 3d 11 f2 92 3e
       -0.10832017 -0.37807572 0.0877155 0.28700307
0000b0 b9 69 54 be 21 10 ba 3e e6 8a 7d 3e 3c ca b3 3e
       -0.20743455 0.3634043 0.24760017 0.3511523
0000c0 f7 21 62 3e 10 07 1e bd d0 24 3f 3d a5 3b e6 bc
       0.22083269 -0.038580954 0.046665967 -0.028104613
0000d0 5f 0c e5 3d e3 b0 c1 be 9a 55 de be f3 d1 ea be
       0.11184 -0.37830266 -0.43424684 -0.45863304
0000e0 54 ef b1 bd 38 cb c0 3e c5 0c 22 bd 33 e7 83 be
       -0.08688226 0.37655044 -0.03956296 -0.25762329
0000f0 bc e1 0f 3f 46 0d 6b bd ca cd b3 bd 9d 3c 17 3e
       0.5620382 -0.057385705 -0.087794855 0.14769216
000100 c6 c4 0b 3e b5 b2 58 bc d1 3e 36 be a0 c5 7d be
       0.13649282 -0.013226201 -0.177974 -0.24782419
000110 57 f6 21 3e f7 7c a8 3c 85 2d 71 3e 61 13 da be
       0.15816627 0.0205674 0.2355252 -0.4259291
000120 5d 79 97 3e 5a 9a 1a 3f 17 57 2a 3e f0 d7 21 be
       0.2958478 0.6039177 0.16634785 -0.1580503
000130 d4 11 19 be 4b 91 22 bd fb 98 2c 3f 9b f6 67 3e
       -0.14948207 -0.039689343 0.6742093 0.22652666
000140 98 44 63 be ae 73 02 bd 80 49 5e be 9e 2b e6 be
       -0.22194135 -0.031848602 -0.21707726 -0.44955152
000150 12 46 81 3e f2 d5 42 3d 7e b5 81 bd 83 6d 0b be
       0.25248772 0.047567315 -0.06333445 -0.13615994
000160 4b 1b db bd 64 77 d7 3d ee c1 a0 3e b7 cb 10 3f
       -0.10698565 0.10520819 0.31397957 0.56560844
000170 fe ca 2c 3d 01 9a ae be de 91 15 3e a1 e1 a3 be
       0.042185776 -0.3410187 0.14606425 -0.3200808
000180 d6 7b 12 3e b7 7f da be 25 85 69 3d 17 75 fc be
       0.14305052 -0.42675564 0.057011742 -0.49308082
000190 f1 2c a4 bd e1 ab 11 bf 0c 2c c7 3c 90 70 e6 be
       -0.080163844 -0.5690289 0.024312995 -0.45007753
0001a0 82 c4 9d 3c 07 a4 0b 3d 15 09 69 bd e5 82 16 3e
       0.019258741 0.034091976 -0.056893427 0.1469837
0001b0 39 28 b2 3c b8 dd a1 3e 81 64 89 3c 13 81 60 3e
       0.021747695 0.3161447 0.016771557 0.21924238
0001c0 33 62 4a 3f 93 4b 2e 3e e2 9c 13 bd 65 f2 b5 3e
       0.7905609 0.17021017 -0.036038287 0.35536495
0001d0 d9 15 37 3e 19 c2 55 3e 74 fc 1d 3d 91 43 a4 3e
       0.17879428 0.20874824 0.038570836 0.320828
0001e0 b4 be 49 3e f7 7e 92 be d6 ee 96 3e 27 f5 e8 be
       0.19701654 -0.2861249 0.29479092 -0.45499536
0001f0 e4 76 e4 3e 61 d2 25 be 2f 5d 9c 3e f2 cf cc be
       0.44621956 -0.16193534 0.30539843 -0.400024
000200 ff 63 9b 3e f5 96 09 3e a1 47 15 3e 6d 60 de bd
       0.30349728 0.13436492 0.14578106 -0.108582355
000210 81 5e f9 3e 73 94 eb 3e 6f 73 c9 be ec 79 aa bd
       0.48704913 0.46011695 -0.3934588 -0.08324036
000220 eb 0c 9b be a6 36 71 3e ed 22 1a be 1f 70 55 bd
       -0.30283293 0.23556003 -0.15052386 -0.05210888
000230 86 60 dc 3e 7d 9b 1d be 96 47 12 be 97 32 41 3f
       0.43042392 -0.15391345 -0.1428512 0.7546782
000240 e8 4f f9 bd d4 71 d0 bd d5 5d 5a be bd 8d 6b be
       -0.12173444 -0.10177961 -0.21324857 -0.23003288
000250 a7 b1 45 be 4f f1 37 be 40 99 bd bc 56 38 d7 3d
       -0.1930605 -0.17963146 -0.023144364 0.10508792
000260 94 0f 5d be 29 9e bc 3e 76 74 cf be 24 42 eb be
       -0.21587974 0.36839417 -0.4051854 -0.459489
000270 d5 a0 41 3e b9 48 b6 bd 01 56 f8 3e ce 5a b6 3e
       0.18909009 -0.089005895 0.48503116 0.35616153
000280 e0 68 b4 3e 54 31 89 3d 79 fc 4e 3e 42 c5 1d 3d
       0.35236263 0.06698862 0.20213498 0.038518198
000290 38 35 ad 3c 4c 10 3f 3e 0d 2b 15 be 14 26 a9 3e
       0.02114354 0.1865856 -0.14567204 0.33036864
0002a0 a4 32 d6 3d c3 af 5a be 33 3e 2c be a2 41 56 3e
       0.10458878 -0.2135611 -0.16820602 0.20923474
0002b0 0c 41 0a be a2 f1 58 3e 7b b3 b5 be 4c fe d6 3e
       -0.13501376 0.21185926 -0.35488495 0.41990888
0002c0 f9 f8 6f bd 87 e5 84 3e 3b cb 2a be 1a f0 f6 3d
       -0.05858705 0.25956365 -0.16679089 0.120575145
0002d0 f7 f1 72 3e 8a 35 6d bd f4 6e d0 3e 35 e3 c4 bd
       0.23725115 -0.057912387 0.4070965 -0.09613649
0002e0 65 44 a5 be d8 b6 2c be 67 81 02 3f 4f 7d a9 3d
       -0.32278743 -0.16866624 0.509787 0.08275854
0002f0 1f 87 8f 3a 63 53 7d 3c 65 de c2 3e 09 d3 48 3c
       0.0010950303 0.0154617755 0.380603 0.012257346
000300 ca 4f a4 bb 44 3a 61 3e 26 2a 62 3d d6 2a d6 3e
       -0.0050143944 0.21994883 0.055215977 0.41829556
000310 85 fc 32 bf 99 37 07 bf 0a 11 90 3d ea 7a db be
       -0.69916564 -0.5281921 0.070345 -0.42867213
000320 9d d7 c3 be b4 d0 1c 3d 7e 2b 92 3e c2 ea 94 3d
       -0.38250437 0.038284972 0.28548807 0.07271339
000330 4e 4a d2 be de d4 72 be f8 99 4e be 43 1d 91 be
       -0.41072315 -0.23714015 -0.20175922 -0.28342637
000340 42 e9 55 be f3 7e d4 3e aa 39 76 3e 2a 3b 96 3d
       -0.20889762 0.41503105 0.24045435 0.073355034
000350 cd 79 a8 be ae 2b e9 be fa 84 85 3e f3 87 0d 3e
       -0.32905427 -0.45541137 0.26078016 0.13821392
000360 a2 81 e8 3e 25 65 8a 3c 3e 00 b6 bd a2 74 33 3e
       0.45411402 0.016893933 -0.08886765 0.1752496
000370 42 4e ca 3d 74 72 0c 3e 7b dc e4 bd b8 6c 2a bd
       0.09878208 0.13715535 -0.11174866 -0.04160759
000380 9f db fe be 4b 5a 9e 3d d1 d7 c9 3e 4e 03 e6 bd
       -0.49776933 0.07732066 0.39422467 -0.11231099
000390 8a bc a4 be 88 aa ed 3e 67 b2 ae be 0f 29 c9 be
       -0.32175094 0.46419168 -0.34120485 -0.39289138
0003a0 6a ce 79 be 81 d5 6d be 01 ef 96 3e fb 24 a8 3e
       -0.24395147 -0.23225977 0.2947922 0.32840714
0003b0 22 c3 88 3e d0 81 80 bd d1 f2 94 3c f3 af 60 3e
       0.26711375 -0.0627476 0.01818219 0.2194212
0003c0 5f b8 4c 3e 12 1d f0 3e
       0.19992207 0.4689718

layers.1.bn1.weight f4 [22]
000000 07 56 92 3f d0 77 df 3e 47 cf 64 3f 47 34 79 3f
       1.1432503 0.43646097 0.8937878 0.97345394
000010 5e 2c d0 3f e8 c4 bb 3e 1e 33 1a 3f b1 0f 60 3f
       1.626354 0.36673665 0.6023425 0.87523943
000020 d5 58 bb 3e 8c 72 34 3f af c3 a2 3f bf 91 9f 3f
       0.3659121 0.70487285 1.2715968 1.2466353
000030 54 f1 43 3f d0 ce 05 3f 4f cc b1 3e a8 54 6a 3f
       0.7654011 0.52268696 0.34726188 0.91535425
000040 9e 44 91 3e 19 56 66 3f 88 db c6 3e da 43 16 3f
       0.28372663 0.89975125 0.38839364 0.58697283
000050 5c 65 3a 3f 44 85 2e 3f
       0.7281091 0.681721

layers.1.bn1.bias f4 [22]
000000 14 20 40 be 9a 11 49 3f 66 4d 3d be f0 78 74 3e
       -0.18762237 0.7854248 -0.18486556 0.23874259
000010 7a 50 79 3e 98 67 24 3f 9e 3c fe 3e c9 47 18 3e
       0.24347106 0.6422057 0.49655622 0.14871134
000020 93 b2 28 3f 21 70 88 3e 7f 99 5b 3f 6b eb 37 bd
       0.6589748 0.26648048 0.8578109 -0.044902246
000030 66 66 88 3e f1 de f1 3e 17 32 2e 3f 58 45 99 3e
       0.26640624 0.47240403 0.6804518 0.29935718
000040 6a 5c 40 3f c6 6b ea bd 27 f3 3c 3f 15 f0 1d 3f
       0.7514101 -0.114463374 0.7380852 0.6169446
000050 0d 08 b2 be 28 21 f7 3e
       -0.34771767 0.48267484

layers.1.bn1.running_mean f4 [22]
000000 57 61 0b be 62 dd e8 3d e0 3e 2e 3e ad c3 be bd
       -0.13611351 0.113703504 0.17016172 -0.09314666
000010 4b 1a c2 3d 42 99 db 3b 38 9b ee bc cf ea 86 39
       0.09477671 0.0067016194 -0.029126748 0.00025733418
000020 9e a4 1c 3d e2 eb 92 3d 06 b6 4e be 47 ea be 3c
       0.03824293 0.07173897 -0.20186624 0.023305072
000030 94 35 34 3e 6c 8e 34 bc 23 0c 67 bb 77 67 c2 bc
       0.17598563 -0.011020284 -0.0035255037 -0.023730977
000040 ec b0 ee bd 9e 1d 5b 3e e3 ee c4 3d 76 30 8d bd
       -0.11654839 0.21398017 0.096158765 -0.06894009
000050 6b 40 39 bb cf 6a 85 bd
       -0.0028267156 -0.06514513

layers.1.bn1.running_var f4 [22]
000000 26 40 88 3f f9 a8 1b 3f cc 29 d2 3f e9 d9 4d 3f
       1.0644577 0.60804707 1.6419005 0.8041063
000010 30 cd 93 3f b8 c0 9a 3f 18 a7 65 3f 31 03 4e 3f
       1.1546993 1.2090063 0.8970809 0.8047362
000020 38 1d 9a 3f 47 6f 55 3f 57 e9 ba 3f 0a 3e 92 3f
       1.2040167 0.8337292 1.460246 1.1425183
000030 46 21 91 3f ac 2b dd 3f 6b ed dd 3f be c6 3a 3f
       1.1338279 1.7278953 1.7338079 0.72959507
000040 c6 4a 7b 3f 93 88 c4 3f 3c 5e 83 3f 24 b2 8c 3f
       0.9816097 1.5354179 1.0263133 1.0991864
000050 8b 10 8f 3f 6f 20 6b 3f
       1.1176924 0.91846365

layers.1.conv2.weight f4 [22, 1, 3, 3]
000000 67 28 35 3d b0 41 ca bc 79 d9 1c be 42 0b de 3e
       0.044227984 -0.024689525 -0.15317334 0.43367964
000010 7b 6d 41 3e 44 80 b5 be 15 57 bf 3e 8e 50 75 3e
       0.1888942 -0.3544942 0.37371126 0.2395651
000020 63 9e b9 bd 1d 7c 03 3e 8d d4 88 3e 0d d9 02 3e
       -0.09063413 0.12840314 0.26724663 0.12778111
000030 44 e3 93 3e c4 f7 f4 3e 2c 3c 8e 3e df c4 92 3e
       0.28884327 0.4784528 0.27780282 0.28665826
000040 89 fd e2 3e 76 62 46 3e 23 50 98 3d be e9 06 be
       0.44334057 0.19373497 0.0743716 -0.13175103
000050 bb e6 84 bd fb 49 80 be 58 e4 de be fb 84 70 be
       -0.06489321 -0.25056443 -0.43533587 -0.23488228
000060 7d 37 3a be 4f e4 d2 be 38 88 d9 be 99 7f ff bd
       -0.1818523 -0.4118981 -0.4248674 -0.12475509
000070 0d 8c 68 bd 0b b2 fd bc 47 59 e5 be 3f fb cb be
       -0.056774188 -0.030968687 -0.44794676 -0.39840123
000080 5d 70 cd bd 06 a5 a2 be 0d ea af be ec 3d 49 be
       -0.10031197 -0.31766528 -0.34358254 -0.19652528
000090 48 26 3d 3e 63 38 54 3e a7 a4 8b bd 6a 4c f2 3e
       0.18471634 0.20724635 -0.06818514 0.47323924
0000a0 fa e4 bb 3d ff 09 d1 be f2 c7 94 3e 5c 26 76 bd
       0.09174533 -0.4082794 0.29058796 -0.060095176
0000b0 77 db 9f be f8 1c b3 3e f2 1f bc 3e 3d 38 39 3e
       -0.31222126 0.3498304 0.36743122 0.1808786
0000c0 80 9a 88 3e 23 2d ea 3e 56 cc 9e 3e 8a 48 01 3d
       0.26680374 0.45737562 0.3101527 0.03156332
0000d0 d5 2e fb 3d be c4 d8 3d 7f ec 5d be 13 04 83 be
       0.12264792 0.105844006 -0.21672247 -0.25589046
0000e0 5a 8b 0c be 0d ff a4 be ba 85 36 bf d6 30 9d be
       -0.13725033 -0.32225838 -0.712978 -0.3070132
0000f0 fe b8 ed bd 5c fb bf be 81 ed 09 be c6 c6 67 bc
       -0.1160755 -0.3749646 -0.13469507 -0.014146512
000100 d7 01 af bd 92 ab 15 3d 17 4e b8 3e f9 8c d0 3e
       -0.08545273 0.036540575 0.35997078 0.40732554
000110 d1 79 e3 3d 42 71 b0 3e c3 2a e9 3e 54 b8 90 3d
       0.11107219 0.3446141 0.45540437 0.07066408
000120 d3 37 93 be 41 16 62 be af c3 be bd cd 83 80 be
       -0.28753528 -0.22078802 -0.093146674 -0.25100556
000130 bf 61 14 bf 67 fe 45 be 83 ec 56 bd e3 b0 81 be
       -0.5796165 -0.19335328 -0.05247165 -0.25330266
000140 d5 9f 9e be f9 f0 72 be a1 a1 5c be b2 aa c6 3d
       -0.30981317 -0.23724736 -0.21546032 0.09700526
000150 3a 8d 8c bd e5 9b d9 bd ba 99 79 3e ec d3 54 3c
       -0.06862874 -0.10625438 0.24375048 0.012989979
000160 ce b5 f3 3e 36 a1 14 3f b9 a0 32 3e cf 8e d7 3d
       0.47599643 0.5805849 0.17444123 0.105252855
000170 6d 28 ac bc a9 aa bf 3e 8b cb c8 3e 0e 6a d7 3d
       -0.02101537 0.3743489 0.3921779 0.10518275
000180 53 3a a0 3e e3 04 c2 3e 24 67 e6 3d a7 cc 93 3d
       0.31294498 0.37894353 0.11250141 0.07216769
000190 b2 46 2c 3e 77 b2 9b be 6a 83 af 3d dc 91 66 3e
       0.16823843 -0.30409595 0.08569987 0.22516578
0001a0 ba 3a 1f be ed ad a7 be 13 22 b9 3e 8a ae f5 be
       -0.15549746 -0.32749882 0.3615881 -0.47984725
0001b0 c4 6c 1f be 61 a1 b7 bd 31 04 e4 3b 99 65 c5 be
       -0.15568835 -0.089663275 0.0069585075 -0.38554075
0001c0 9e 98 a8 be b1 f9 95 bd 74 a5 ba be 9e 87 f8 be
       -0.32928938 -0.073230155 -0.36454356 -0.48540968
0001d0 f5 2a 09 be 0a 52 97 be 7d 29 b9 be 83 77 ad be
       -0.13395293 -0.29554778 -0.36164466 -0.33880243
0001e0 ac 3a 4e bc 0f d6 66 3d 69 25 e6 3d d9 be 86 3e
       -0.012587231 0.056356486 0.11237604 0.2631748
0001f0 f0 aa dd 3e ce c2 6b 3e e6 4d 07 be f9 5e 8d be
       0.43294477 0.23023531 -0.1321331 -0.2761152
000200 12 44 48 be ad bf f1 bb 48 35 71 bd 16 62 d1 bd
       -0.19557217 -0.007377586 -0.058888704 -0.102237865
000210 57 e5 d6 3e 1e 82 ea 3e 46 b4 53 3e e5 90 43 3e
       0.41971847 0.45802397 0.20674238 0.19098242
000220 5b 2d ad 3e 94 9b 3f 3e d0 a9 c1 3e 6b 40 aa 3e
       0.33823666 0.18711692 0.3782487 0.33252272
000230 ed c6 14 be 2b 85 79 3e 21 4a ff bb 33 43 46 be
       -0.14529009 0.24367206 -0.0077908193 -0.19361572
000240 bc 88 1b 3e 4c 8e 64 3e 5a 44 59 3e 69 ad 8d 3e
       0.15188879 0.22319907 0.2121748 0.27671364
000250 bf d4 02 3f 16 73 c9 3e ec 58 38 3e 90 cf ae 3e
       0.51105875 0.39345616 0.18002671 0.34142733
000260 d3 4e 64 3e 97 f7 ce be ef 71 d9 3d 2b ab fd 3d
       0.22295694 -0.4042327 0.10617434 0.12386163
000270 62 32 09 bf 69 52 07 3e 41 c7 c0 3e fd 98 b3 be
       -0.53592503 0.1321503 0.3765202 -0.35077658
000280 ab e8 ea 3d d4 43 93 3e cd 70 24 3e 67 ac ad 3e
       0.11470159 0.28762686 0.16058655 0.33920595
000290 19 b9 eb 3d 66 58 b5 3e 1e e1 f3 3e 8c 3d 63 3e
       0.11509914 0.35419005 0.47632688 0.22191447
0002a0 1f cc 86 3e 69 c1 c0 3e 0b 40 45 3e 1a 82 65 3e
       0.26327607 0.3764756 0.19262712 0.22412911
0002b0 13 12 31 3e d0 41 5c be c3 66 c9 3e 1d 52 29 3e
       0.17292051 -0.2150948 0.39336213 0.1653523
0002c0 ac 4a db be 77 71 5e 3e 04 34 3e bd bf 52 a8 be
       -0.42830408 0.21722971 -0.046436325 -0.3287563
0002d0 74 2a f9 3d 0d 73 32 3e ac 03 80 bc 88 8a 7a 3e
       0.121663004 0.17426701 -0.01562675 0.24466908
0002e0 1b 47 0a 3f 60 db 7c 3e 0b ca 09 3e 1f 74 cd 3e
       0.5401475 0.2469306 0.1345598 0.40127656
0002f0 5f b6 a3 3e ac 92 2d bf d0 66 1d be 26 45 8f 3b
       0.31975076 -0.6780193 -0.15371251 0.004372257
000300 57 d9 11 bd e8 25 14 3f 5c a5 aa 3e 8e fb a1 bd
       -0.035607662 0.5787034 0.33329284 -0.079093084
000310 0a 2e b9 3d d6 e6 df 3c
       0.090419844 0.02733175
