Project/Project_files/ckpt/mobilenetv2_19_2_stem_2_5/mobilenetv2_19_2_stem_2_5_216.pt (torch, 35563 bytes, 52 tensors)

conv1.weight f4 [24, 3, 3, 3]
00000000: 5c16 88be c9de 8abe c2b8 693e d6ed 13be
00000010: cafa 0f3e 62a2 a13e d783 3abe 104c 10be
00000020: ef9a 123d ef9a 253e d45d 9e3e 83b4 22bd
00000030: 38f7 7d3e 1ab6 c23e dee2 21bf d87b ec3e
00000040: 2a47 a03e 2d57 1cbe 6d27 bb3e 09fd 9bbe
00000050: fa9a ac3e db75 a9bd 30f6 cebe 44e4 893d
00000060: 5665 963d 7767 1dbf 688d ba3e ebc3 4ebd
00000070: 1a6f b63e 2f6f 07be 0232 d73e 6568 2fbe
00000080: d768 8f3e 651c c6be 52cc 063e f61c 55bb
00000090: 2d35 203c c738 403e 60e5 b3be c266 553e
000000a0: cedc 05bf f1cb 27be da75 23bd 9331 af3e
000000b0: b311 1c3d 13b0 84bd cd8f 5d3c 1e4c 22bf
000000c0: a328 113f a836 28be afde f6be 49c0 0c3e
000000d0: b4f8 0f3f 0610 e1bd 2843 55be d291 7bbe
000000e0: 0a14 1bbf c03a 693d bfd0 b93e 80d2 0dbf
000000f0: 8475 ef3e 9772 ac3e 4ac5 503d 7fa9 5f3e
00000100: 6abc c03e e5d8 e53e 65c7 a83d 24bc 94be
00000110: 2b6d 1bbe 3fc4 b2be da3b c8be cdab bebe
00000120: 59bd 8dbe 68ed f4bd 7846 583d 4161 c3bd
00000130: 07b0 73be 6a5c 343e 29d1 1f3e c8a9 8b3d
00000140: 2fd9 eb3e f9c7 b33e 5946 2cbe 03f1 833c
00000150: b1ba fc3d 8156 b9be 7d0f 1a3d 9d45 18bf
00000160: 2c7e b5be 5787 edbc 24b9 c4be 7bfe a4bc
00000170: e114 b6be 9331 083f 04c5 cd3e 48f7 da3c
00000180: ba7c 9b3e c65c 1c3f 4452 6b3d 802e 6f3e
00000190: dbff 0a3e 29d4 6ebd 05b5 ae3e ea01 62be
000001a0: 5399 93be 64e6 91bd 0d02 833d f076 f2be
000001b0: 6ee7 333d c769 1a3e 1191 a03d a17f c2be
000001c0: 73cb c8be f2a2 9f3e b119 10bf f812 a1be
000001d0: d47f 713e 711a 21bd 5d87 b6bc 3fa1 bdbe
000001e0: ae20 0c3e d2be 37bc 6a1d 363e b4b5 a83b
000001f0: c9c0 613d af1e 713e adfc 483e b483 183f
00000200: 93db 2bbe 6d84 cc3e 46c6 1abe fd09 c1bc
00000210: 108f 343f 32d0 433e f735 66be ac0c 9dbe
00000220: 3d11 fd3e ae3b 7c3e a2a0 b3be 9cd8 903e
00000230: 0243 a33e ddff 103e ff7d 1fbd 9dd2 c6be
00000240: 05e5 5c3e 1be3 313e dcd7 7f3e e948 55be
00000250: 663d 0dbe 3dae 593e 5c5b ca3d 48c6 e5bd
00000260: db5d 02bf da38 203e 9885 a7be 3637 13bf
00000270: fdd4 68be 8e20 02bd d8b5 c33d bd96 de3e
00000280: 8a7b ee3e ff2c 503e 4176 b0be 66b4 283d
00000290: 01d5 273e 3d8f 103e 2857 39bd f6d9 c83e
000002a0: 0a13 49be 1dfe e8bd f3cc 9d3d 5ba9 04be
000002b0: c191 e0be a123 6f3d 9ca5 d23e 2f22 9cbe
000002c0: 1ceb 543e 700b ed3e 7b94 d53e 8ebe bb3e
000002d0: 0937 5c3e 6620 333c 3b2b e0be b0e9 28bd
000002e0: 991b 30bf 9865 94be 1466 803d e998 f8bd
000002f0: cb5a fabe 7c64 65be 4042 dcbd 87ac 093e
00000300: 248c 0fbf 221f a7be 5c5a d7be 3621 513f
00000310: dc29 e33e 9aa1 5e3e 216b 423e e7f0 64be
00000320: c379 a9bb 0038 a2be f6ff 04be 793e 8fbd
00000330: b622 6f3e ab8d 263e 25b7 a53d 1258 12be
00000340: 4d18 eabc f482 3fbe 76f3 c6be 6a6f f23d
00000350: dab1 9b3d a075 723e 1cce 8d3e 8fc8 ba3e
00000360: 05ba 60bd 679f b3be 5277 c1be 3ab6 2bbe
00000370: 0000 3c3e f99c acbd f2c8 283f e378 1d3e
00000380: e05a 9abd 617b 473e 7a5f 18be 9b3f 123d
00000390: 190b 913c 9260 173f d319 0f3f 15ea e0bd
000003a0: df68 fc3d 51f4 4f3e 2af3 00be a872 eabe
000003b0: 87bc b3bb f811 92be 3781 c03d 135d af3e
000003c0: a3f1 d8be 8668 8abe aafe 883e ab47 92bd
000003d0: e26b babe 374b 91bd f8cc cb3d 33f3 11bf
000003e0: 72f7 263e 71dc cf3e 0cd4 903e 851c be3e
000003f0: 6d26 efbd 8b3e 363e dc74 483d d5c9 59be
-0.2657956 -0.27123097 0.22824386 -0.14446196 0.14060512 0.315692 -0.18214355 -0.14091516
0.035792287 0.16172384 0.3093096 -0.03972293 0.24801338 0.38029557 -0.63236797 0.46188235
0.31304294 -0.1526763 0.36553517 -0.30466488 0.33711988 -0.08274432 -0.404222 0.06732991
0.07343547 -0.61486 0.3643601 -0.05047981 0.3563164 -0.13226007 0.4203034 -0.17129667
0.28009674 -0.38693538 0.1316388 -0.0032518483 0.009778303 0.18771659 -0.35135937 0.2083998
-0.52290046 -0.16386391 -0.039907314 0.3421751 0.038102817 -0.06478896 0.013523054 -0.63397396
0.5670263 -0.164271 -0.4821677 0.13745226 0.56238866 -0.10989384 -0.208264 -0.24567345
-0.6057745 0.056940794 0.36292073 -0.5539932 0.46769345 0.33681175 0.0509694 0.21842001
0.3764375 0.4489204 0.082411565 -0.2904979 -0.15178363 -0.3491535 -0.39108163 -0.3724045
-0.27683523 -0.11959344 0.05280158 -0.09540034 -0.23797618 0.17613378 0.15607132 0.068194926
0.46064135 0.35113505 -0.1682371 0.016106134 0.12340296 -0.3619881 0.037612427 -0.5948122
-0.35447824 -0.0289952 -0.384225 -0.020140877 -0.35562804 0.53200644 0.40189373 0.026729241
0.30368596 0.6107906 0.0574515 0.23357582 0.13574164 -0.0583078 0.34122482 -0.22071043
-0.28827915 -0.07124022 0.063968755 -0.47356367 0.04392188 0.15079413 0.07840169 -0.37987998
-0.3921772 0.31179005 -0.562892 -0.31459785 0.23583919 -0.039331857 -0.022281343 -0.37037084
0.13684341 -0.011214929 0.17784658 0.005148614 0.055115495 0.23546861 0.19627638 0.59575963
-0.1678298 0.39944783 -0.15114698 -0.023564333 0.70530796 0.19122389 -0.22481523 -0.3067373
0.49427214 0.24632141 -0.3508349 0.2829026 0.3188706 0.14160104 -0.03893852 -0.3883256
0.21571739 0.1737179 0.24984688 -0.20828594 -0.13792953 0.21257873 0.09880707 -0.1121946
-0.5092446 0.15646687 -0.3271911 -0.5750612 -0.22737499 -0.031769328 0.09556168 0.4347438
0.46578628 0.20329665 -0.3446522 0.041187666 0.16389848 0.14117141 -0.045249134 0.3922879
-0.19636169 -0.11376593 0.077051066 -0.12955229 -0.438612 0.058383588 0.41141975 -0.3049483
0.20792812 0.4629779 0.41714844 0.3666882 0.21505369 0.010933017 -0.43782982 -0.041238487
-0.6879211 -0.2898376 0.0626947 -0.1213854 -0.48897395 -0.22401613 -0.10754824 0.1344472
-0.5607321 -0.3264094 -0.42061126 0.816913 0.44367874 0.21741334 0.18986179 -0.22357522
-0.005171986 -0.3168335 -0.12988266 -0.069943376 0.23353085 0.1626498 0.08091573 -0.14291409
-0.02857604 -0.18702298 -0.3885762 0.11837657 0.07602282 0.23677683 0.2769631 0.3648114
-0.054864902 -0.35082552 -0.37786347 -0.16768733 0.18359375 -0.08428378 0.6593162 0.15378146
-0.07536864 0.19480659 -0.14880171 0.03570519 0.017705487 0.5913173 0.5589878 -0.109821476
0.1232469 0.20308043 -0.1259276 -0.457906 -0.0054851207 -0.28529334 0.09399646 0.34250697
-0.42371854 -0.2703287 0.26756793 -0.07142576 -0.36410433 -0.07094424 0.09951204 -0.5701172
0.1630533 0.4059787 0.2828678 0.37131134 -0.11677251 0.17797296 0.04893957 -0.21268399

bn1.weight f4 [24]
00000000: 7046 743f a3c3 583f 34b7 823f c3b3 323f
00000010: 2dff 763f 07c6 833f 5e84 6b3f a978 8a3f
00000020: 9640 833f 3d11 9b3f a77d 563f 10e6 953f
00000030: 236b 753f 2cc7 663f 8aac 803f 27d9 883f
00000040: e06e 9b3f 6ad6 a53f 9001 8a3f c328 4f3f
00000050: 1963 563f a634 ab3f c64f 7f3f 9a3a a93f
0.9541998 0.8467352 1.0212159 0.69805545 0.9648312 1.0294808 0.9199885 1.0818073
1.0254085 1.2114636 0.8378548 1.1710835 0.958666 0.9014766 1.0052655 1.069127
1.2143211 1.2956059 1.0781727 0.8092157 0.8374496 1.3375442 0.997311 1.3221009

bn1.bias f4 [24]
00000000: 329d b23d 5755 b7bd 0666 b6bd 9ed1 08be
00000010: fb80 62be 920c 843e 6f33 64bc a59e 693e
00000020: bba1 25be 0935 96bb cf4e a23d 0ec0 b3bc
00000030: ce56 813e 4e9f 58bd c0f0 b6be 21ec 74bd
00000040: 4323 8f3e 02dd e1bd fd37 d1bd f908 003d
00000050: 6d70 6d3e 2b8b c1bc f042 b83d 5153 d53c
0.08721389 -0.08951824 -0.08906178 -0.13361213 -0.22119515 0.2579084 -0.013928278 0.22814424
-0.16174977 -0.004583959 0.07925188 -0.021942165 0.2526154 -0.0528863 -0.35730553 -0.059795503
0.2795659 -0.11028482 -0.10215757 0.031258557 0.23187418 -0.02362593 0.08997142 0.026040705

bn1.running_mean f4 [24]
00000000: eb7a 8339 72de eaba 76c3 56bc 22c5 17bb
00000010: bbf5 7ebc ed66 b6b9 2f66 833a 5834 c9bc
00000020: 9f7a 173c baa7 393c 7511 c1ba f19a 3f3c
00000030: e4c0 9d3c 8d9f f1bc f6e3 d13a 5ca6 8c3a
00000040: 9633 de3c a6ee a23a 7e16 efbb 65ac 3bbc
00000050: 184c 1d3c ac5e 39ba d14d 423c a1a0 33bc
0.00025077848 -0.0017919077 -0.013108125 -0.0023158272 -0.015561516 -0.0003479043 0.001002496 -0.024561092
0.009245544 0.011331493 -0.0014729934 0.011694656 0.019257016 -0.029495025 0.0016013372 0.0010730731
0.027124207 0.0012430742 -0.0072963824 -0.011454676 0.009600662 -0.0007071297 0.011859373 -0.01096359

bn1.running_var f4 [24]
00000000: 2b49 033f b669 923f a649 343f 5adf 3c3f
00000010: 45ce f23f a182 203f 9cbf e73f 0b68 f83f
00000020: 63c9 bb3f eb64 fc3e 15cb c03f b49b e33f
00000030: e350 d93f 4046 b73f 5d98 ed3e 2c72 903f
00000040: 62df ea3f 1266 b63f a3eb ee3e 73ca 1340
00000050: 6ea4 3640 77fd fa3e 2150 173f 94f3 bd3f
0.5128352 1.143851 0.7042488 0.7377831 1.8969198 0.62699324 1.810535 1.9406751
1.4670833 0.49295744 1.5061976 1.7781892 1.697781 1.4318314 0.46405306 1.1284842
1.8349421 1.4249899 0.46664152 2.3092315 2.853786 0.49021503 0.5910664 1.4839959

layers.0.conv1.weight f4 [24, 24, 1, 1]
00000000: 18fb fb3d 00b3 42be 06e5 6e3e b541 e23a
00000010: 9b73 a53e 43bd 69be 6e4d 9bbe e56e 9cbd
00000020: 8e28 aabe 587a c23e a047 bc3c ee7c 41bf
00000030: a908 d43d f63d 2b3e 7b63 d3bd ed29 053f
00000040: 25e0 033e e7da d53e bcd9 8a3e 79a0 c0be
00000050: e393 04bf 20ee 11be 2ff9 133d 6957 94be
00000060: 20a4 1c3e c885 f53e 708e 73be 37fd 0bbd
00000070: e899 143c 5e71 bb3e c732 d03e 57f6 67bd
00000080: 14a4 06bf c053 2d3e 9e4c d5bc 36cb 46bd
00000090: 77df 6f3d a886 46bd 3e42 cf3e 5185 b8bd
000000a0: c97c a8be 5b15 abbe 374c 2f3f 028c 8ebd
000000b0: 6a06 6cbc deeb ebbe 24ec 1d3d 1148 c13e
000000c0: 99d7 8cbd cafb adbd 10f4 f53d 05ee 8fbe
000000d0: 2011 5e3d 0021 a6be 57dd 38be c462 163f
000000e0: c3b9 a6bd 167a 133f 76b9 65be ce3c dcbe
000000f0: 1f64 c3be f913 db3d 909f 60be decb 3c3e
00000100: 1199 f2bd 3d9d b03e 5efc ec3e b874 9a3e
00000110: 1c09 a0be 352a bbbd 03c0 9c3e 5ab9 ddbe
00000120: 3a7e 723d cd06 513e 97ce 9cbe cf4e d73d
00000130: 94d2 963f 8e90 fc3e 493a 88be c24a c2bd
00000140: 854c cfbe 52c2 1bbf fe19 8cbc b521 263e
00000150: dd92 d1be 4e4c 1abe 18c5 62be 5d39 1a3d
00000160: 42f8 4cbe ec27 28bd d591 b1bd ee8c 403e
00000170: d7cb bb3d b530 92bc 2842 273d 97f7 1cbe
00000180: 703f a23e b5a8 48bd 7f74 9b3b bce2 ca3d
00000190: 8266 053d 91b8 b2be 49c3 343e 80b4 47bd
000001a0: 609d f73d 6a39 e8bd 69b8 bb3e 9f15 e6be
000001b0: 8aa7 1e3d 1da9 52bd 733b 98bd 40bc fabd
000001c0: 91ec c63d 0100 5bbf d02e bd3d 659b 8bbe
000001d0: 1d11 dabd 9968 10be dbdc 6abe 6b81 1f3f
000001e0: ba7b 573e 8a03 9abe ad65 3ebd 7a91 72be
000001f0: 587b 9bbe 991b 29be a791 4abe c295 26bf
00000200: 70c1 69bd d31f 75bd 53bd df3d 6b5f bbbe
00000210: 2349 2c3f dde4 8abe fb13 ea3b c9b3 183f
00000220: 1c48 8c3e 28e9 c43e a4a1 7d3b fabf 14bf
00000230: 1d1a 34bf 7345 a03e 26bc 5cbe c4c3 e0bd
00000240: 01e7 55bd a9e5 bdbe 677e a2be 1302 f0bd
00000250: b6b8 21bf d594 16be 0b19 a8be a116 a7be
00000260: f583 493e f302 4aba a5a5 bf3e 7d98 033f
00000270: 5ceb 243c 1b9c efbd 03ec 29bf 299f 88be
00000280: 8e14 083f 90c2 37be e9fe 56bd 403c c6be
00000290: 769d 743e 8c88 d0bd b4f5 7c3e 6206 1f3e
000002a0: 90d3 e3bd d70d 0c3e f181 04bf 73e0 3bbd
000002b0: 7dfe 5dbf 83ee 7abc ff4a 2e3f 2179 bcbe
000002c0: 487c 583e 6791 df3e af7c 94be c3e4 53be
000002d0: 2f43 733e 813e bfbe 00b1 4e3e ae2f 1abe
000002e0: 1a4e d03e 7218 9e3d 0c69 b5bd 2d71 823a
000002f0: 7b26 033e e796 233c 8152 f43e 2729 bdbb
00000300: f848 253f b5ab aebd bb61 d73e 3982 8ebe
00000310: 0c34 98be 6793 a33e 3d0d 84bc 946b 03be
00000320: 8b51 aa3e 64ec c7be 6fab a2be ffd2 47be
00000330: 23b6 c43e 32c3 ad3d 0d07 b83c e149 853e
00000340: 5ea0 80be 6fce 603e 15d8 e039 c2c5 3fbe
00000350: 9207 5abe 6af6 263f 99ee 943e 5790 b63d
00000360: 2654 31bd b6ad d83e 7456 123f 6f19 8e3e
00000370: a1da 9ebd 7531 bdbe e275 26be 4ab2 c5bc
00000380: 93b5 09be 356a 5bbe 7f6f f23e 96f5 adbd
00000390: 9f91 2e3e 875e 033e 7258 58be d7f9 d33d
000003a0: 1f05 313f b8a5 3ebe 0ab5 a23e abd9 853c
000003b0: c428 0b3f 5ce4 e43e 1266 b6bd 5b7d 93be
000003c0: 288b c6bd 7603 7fbe cdb9 a33e 59e7 46be
000003d0: 20bf 4fbe cb99 c53e 6f7b 833d 2f78 433f
000003e0: 7c44 f63e a0f0 383e 1bf0 2fbe 971e abbd
000003f0: 6855 adbe 5a2d 163f caea a13c 23be 99be
0.12303752 -0.19013596 0.23329553 0.0017262014 0.32314762 -0.22826104 -0.30332512 -0.07638339
-0.33234066 0.37983966 0.022983372 -0.7558125 0.10353214 0.16722855 -0.10321709 0.520171
0.12878473 0.41768572 0.27119243 -0.3762243 -0.5178816 -0.14250994 0.036126312 -0.2897294
0.15296984 0.4795363 -0.23784804 -0.03417703 0.009069897 0.3660993 0.4066374 -0.056631412
-0.52594113 0.1692648 -0.02603751 -0.04853364 0.058562722 -0.048468262 0.40480226 -0.09009803
-0.32907704 -0.3341473 0.6847567 -0.06960298 -0.014405826 -0.4607839 0.03855528 0.37750295
-0.068770595 -0.084952906 0.12009442 -0.28111282 0.05421555 -0.32447052 -0.18053184 0.58744454
-0.081409 0.57608163 -0.22434029 -0.4301514 -0.38162324 0.10697169 -0.21935868 0.18437144
-0.11845601 0.34494963 0.4628629 0.30167174 -0.3125695 -0.0913891 0.30615243 -0.43305475
0.05920241 0.2041275 -0.30626366 0.105130784 1.1783013 0.49329036 -0.26606968 -0.09486915
-0.40488067 -0.60843384 -0.017102238 0.16223796 -0.4093236 -0.1506817 -0.22145498 0.037652362
-0.20016578 -0.041053697 -0.086703934 0.1880376 0.09169739 -0.017845491 0.040834576 -0.15328823
0.31689024 -0.048989017 0.004744112 0.099065274 0.032568462 -0.34906438 0.1765262 -0.048756123
0.12090564 -0.11339076 0.3666413 -0.4493837 0.038733996 -0.05143081 -0.07433214 -0.12242937
0.0971309 -0.8554688 0.092374444 -0.27266994 -0.10647795 -0.14102401 -0.22935812 0.6230685
0.21043292 -0.30080825 -0.046483684 -0.23688307 -0.3036754 -0.16514434 -0.19782124 -0.6507226
-0.057069242 -0.059844803 0.109247826 -0.36596236 0.672991 -0.27127734 0.007143495 0.5964933
0.27398765 0.38459134 0.0038701082 -0.58105433 -0.70352346 0.31302986 -0.21556148 -0.10974839
-0.052222256 -0.3708928 -0.31737062 -0.117191456 -0.6317247 -0.14705212 -0.32831606 -0.32634452
0.19679244 -0.0007706128 0.37431064 0.51404554 0.01006588 -0.11699697 -0.6637575 -0.2668393
0.53156364 -0.17945313 -0.052489195 -0.38717842 0.23888192 -0.10182294 0.24703103 0.15529779
-0.11124337 0.13677154 -0.51760775 -0.04586835 -0.86716443 -0.015315655 0.68083185 -0.36811164
0.2114116 0.4366562 -0.29001376 -0.20692734 0.23756097 -0.37352374 0.20184708 -0.15057251
0.40684587 0.07719506 -0.08857927 0.0009951942 0.12807648 0.009984708 0.47719195 -0.005772728
0.64564466 -0.08528844 0.4206675 -0.27833727 -0.2972721 0.31948397 -0.016119594 -0.12834007
0.33265337 -0.3904754 -0.31771418 -0.19514082 0.3842021 0.08484496 0.0224643 0.26032928
-0.2512235 0.21953748 0.00042885603 -0.18727782 -0.2129195 0.6521975 0.29088286 0.089142494
-0.04329314 0.4232003 0.57163167 0.2775378 -0.07756544 -0.36951795 -0.16255906 -0.024132866
-0.13448171 -0.21427234 0.4735069 -0.084941074 0.17047738 0.12829028 -0.21127489 0.103503875
0.6914844 -0.18617904 0.31778747 0.016339144 0.5435908 0.44705474 -0.08906187 -0.28806576
-0.09694511 -0.24903664 0.31977692 -0.1942419 -0.20287752 0.38593897 0.064200275 0.7635526
0.48099124 0.18060541 -0.17181437 -0.08355444 -0.33854222 0.5866295 0.019765276 -0.30027875

layers.0.bn1.weight f4 [24]
00000000: e414 003f 4ab0 d83e 4a25 a43f 9f87 5e3f
00000010: e9ae 453f ca3b 7d3f 6b70 de3e 5acd a53e
00000020: 82f9 d83f a36a a83f 1a2f 573f 5a00 d63e
00000030: 08e3 073f 836b a23e 7265 173f 3740 c83f
00000040: 6939 b63f 8116 db3e b8a1 0d3f 048a 6b3f
00000050: d83e e53e efec e53f fc5f ee3f 2012 913f
0.50031877 0.42321998 1.282388 0.8692569 0.77220017 0.98919356 0.43445143 0.32383233
1.6951144 1.3157543 0.84056246 0.41797143 0.530808 0.3172265 0.5913917 1.5644597
1.423627 0.42790607 0.5532489 0.9200747 0.44774508 1.7962931 1.8623042 1.1333656

layers.0.bn1.bias f4 [24]
00000000: c86f 263f 5609 183f affd c3bd de50 643e
00000010: 7f96 693d e88d 893e 4d54 183f 67fb 373f
00000020: 659f 45be 81e2 fdbc 8fb2 bcbe a8f9 1e3f
00000030: 08f6 0d3f fc4e 3b3f eef6 f2be d784 1c3d
00000040: 0a87 8e3f cb2b 0a3f 82f3 183f 0afa 883e
00000050: 613e 163f da2b 51be 0971 8c3e 959d 0abe
0.65014315 0.59389246 -0.09569871 0.22296473 0.05702829 0.26866078 0.5950363 0.71867985
-0.19299085 -0.030991795 -0.3685498 0.62099695 0.5545354 0.73167396 -0.47454017 0.038212623
1.1134961 0.5397307 0.59746563 0.26753265 0.5868893 -0.20426884 0.2742999 -0.13536675

layers.0.bn1.running_mean f4 [24]
00000000: 11ed 58be 6c25 91bd 44e1 febd b038 f7bd
00000010: e217 563d 15a4 3ebd 2db8 183f f52a 8a3e
00000020: 978c 293d f107 713e 07b5 943d 2121 79be
00000030: 6300 98be e655 a4be 3b8c 333e f353 66be
00000040: 165c d73e 9669 2a3e 249c 39bf c213 163d
00000050: 8e7e 8d3e e5c5 493c de2a dabd 5b22 9c3d
-0.21184184 -0.07087216 -0.1244531 -0.12071359 0.05226887 -0.0465432 0.5965603 0.269859
0.041393843 0.23538186 0.07261091 -0.24329044 -0.29687795 -0.32096785 0.17533962 -0.22492962
0.42062443 0.1664184 -0.72503877 0.036639936 0.27635616 0.012315248 -0.106527075 0.0762374

layers.0.bn1.running_var f4 [24]
00000000: 3cd2 b740 bd86 1040 0b18 8f40 b0be 4b40
00000010: 13fe 7840 aed2 1c41 84a9 0440 b890 8640
00000020: 8b42 ec3f 9990 d640 3bc3 e740 6c90 3a40
00000030: 0b3e 6e40 afff a040 e094 9340 a537 e440
00000040: 0fd6 1c40 b1dc 9d40 8fdd c63f 693f e340
00000050: 5c18 ee3f a028 c040 6ad1 7940 d4df b640
5.7444134 2.2582238 4.471685 3.1835136 3.8905075 9.801435 2.0728464 4.205166
1.8457807 6.705151 7.242582 2.9150648 3.7225368 5.0312114 4.611923 7.1317925
2.450565 4.93319 1.5536364 7.1014905 1.8601184 6.004959 3.9034066 5.714823

layers.0.conv2.weight f4 [24, 1, 3, 3]
00000000: ddf5 72be 56c6 03be dd60 c13e 47b0 06bf
00000010: 2026 2dbd 2855 f63e e718 483e 5ddd 233e
00000020: 9529 96be 3ceb cebe b693 b03e 11bb 0f3d
00000030: e04f d4bd cb70 14bf 2c95 1c3e ad8e 0f3f
00000040: 01cb 3ebd f861 0cbe a881 633e c589 253e
00000050: f290 29bf 985f 063e 89b9 46be ebe6 06bf
00000060: b7a6 833e 2b77 c1be 5ac2 343b 0958 ec3e
00000070: d72a 92bd 342e 31bf 3885 a93e 4976 dbbe
00000080: ea83 adbe b2c4 bfbc 512b 7e3c 2eac c3be
00000090: 4a0f 76be 8f3b acbc b111 ac3e aa99 02be
000000a0: 4842 2a3f 685b fc3e 7bf4 353e 6bd2 2e3e
000000b0: 0ab8 2d3e 03fe f8bd fd39 fdbd 6c3c 99be
000000c0: 07e5 0abf 081e 9d3e 8179 3abf 40fa 22bf
000000d0: 7bff a1be ed4b 54bc 98e1 34be 7afa d7be
000000e0: 3a67 71ba b7fe 653e 1323 e73e 68ed 1a3f
000000f0: 1f02 afbe 2c6c 96be 0913 10bd 8546 81be
00000100: cc2f 90be 4bf9 3b3e a8ee 27be 8077 713d
00000110: b745 023f 1a1f 06bf a1b2 aebd eff3 f43e
00000120: 419e f13e 2b3c 60be 841a 16bd 9289 84bd
00000130: f467 05bf 6e41 98be 5e38 a9be 070a f9be
00000140: 8d9e 18be bec6 b13e e657 ab3d d029 67be
00000150: cfeb 2f3f e63b 133e e6f9 043e 97b2 493f
00000160: 5e3e 813e f22c 093f 4b51 e93e 702c 2d3e
00000170: f837 853e 3461 e23e a348 133f 709d f73e
00000180: 50a0 503c 2672 d13e 7442 633d 20f2 0a3e
00000190: e0d6 043d 41b5 1abe 7d11 0f3f 659f 1bbf
000001a0: 27ca f93b d4b2 ba3e bd9b 00bf ecef 873e
000001b0: fe53 52be 440e a33e df5e 1ebe 308a 81bd
000001c0: 634e c4be e35d 4d3e a19f 9bbb 032b 3f3f
000001d0: a558 bebe a8d6 a03e 0b37 623e c019 423d
000001e0: 40b2 06bf 3285 a53e 95cc a73e a021 3cbd
000001f0: 3ffb 1cbf 243c 99bd ec5a a53e 73d4 1bbf
00000200: c415 9ebe d672 f33d 50cd 563e 81ca 48be
00000210: a08e 843e d1c9 013f 6eed a0be 5a40 a6be
00000220: fd41 f23d f64b 4f3e c84f 4e3f 6e15 ea3e
00000230: 5e67 533e 9638 153e 5030 7c3e b517 85bd
00000240: 7a5e f7be e3ed 8dbe a7e0 14bf 4d74 273e
00000250: f30c b4be cb11 5e3e 8040 b03e 2c9a c23e
00000260: f96f 3d3e 1d42 a8bd 7564 af3d 8d23 f43d
00000270: 3c71 b6be 5339 343f 4e0d fbbe b046 16be
00000280: a030 b93e 3713 4bbe 1d8a 623e 6a94 08bf
00000290: 8cf7 803e 78d8 bebe 14d4 173e 47bf 7d3e
000002a0: 0837 69bd 77fd bf3e e9fb b8be 05a0 bdbd
000002b0: 2d27 3abd c30a 40bf 9b2a dfbd ee04 c23d
000002c0: b547 29bd 30e2 80bf 1cbb 33be dbda cb3d
000002d0: 28b8 9c3e 316d babd 65d9 70be 218b 2c3f
000002e0: ef7d 3dbe 6453 90be 8125 af3e 8daa b8be
000002f0: dc8d 42be 92c4 d23e 0b9f 13be 2e8a aebe
00000300: 321d 4c3e b42f e53e d450 b1be f706 da3e
00000310: baec 4c3e a670 a9be 444f b6be b335 573e
00000320: ae0d fb3d dcbf 03bf f2a1 d9bd 4e44 173f
00000330: 92b6 c7be dce5 18bd 2bbd de3e e3f5 75bd
00000340: 216f cf3e 4627 df3e c7f8 183c df7f 053f
00000350: 7a5a 0a3f 8821 cf3d 8f8d b53e 92d4 073e
-0.23726602 -0.12868628 0.37769213 -0.5261273 -0.042272687 0.48111844 0.1954075 0.16002412
-0.293286 -0.40413845 0.34487695 0.03509051 -0.103667974 -0.5798461 0.1529128 0.5607708
-0.04658032 -0.13709247 0.22217429 0.16165836 -0.66236794 0.13122404 -0.19406714 -0.526961
0.2571313 -0.3778623 0.0027581663 0.46160915 -0.07137077 -0.69211125 0.3310945 -0.42863682
-0.33889705 -0.023409221 0.015513257 -0.382173 -0.2402927 -0.021024494 0.33607247 -0.1275393
0.6650739 0.49288487 0.17769043 0.17072456 0.16964737 -0.12157824 -0.12364576 -0.2992891
-0.5425572 0.30686975 -0.7284165 -0.636631 -0.3164023 -0.012957555 -0.17664182 -0.42183286
-0.00092088024 0.22460447 0.45143947 0.60518503 -0.34181306 -0.29379404 -0.035174403 -0.25249115
-0.28161466 0.18356816 -0.16399634 0.058951855 0.50887626 -0.5239121 -0.085301645 0.47842357
0.4719105 -0.21897952 -0.03664638 -0.06471552 -0.52111745 -0.2973742 -0.33050817 -0.48640463
-0.14904232 0.3472194 0.08366375 -0.22574544 0.6871919 0.14378318 0.12985954 0.7878813
0.25242895 0.53584206 0.45569834 0.16911483 0.26019263 0.44214785 0.5753271 0.48362303
0.012733534 0.409074 0.055483297 0.13568926 0.032431483 -0.15108205 0.5588606 -0.6079009
0.0076229754 0.3646456 -0.5023764 0.26550233 -0.20539853 0.3184682 -0.15465878 -0.06325185
-0.38341054 0.20055346 -0.004749254 0.74675006 -0.37177005 0.3141377 0.2209131 0.04738784
-0.5261574 0.32328182 0.3277327 -0.045930505 -0.6132087 -0.07482174 0.3229593 -0.60871047
-0.3087598 0.118871376 0.20976758 -0.19608499 0.25890064 0.5069857 -0.31431144 -0.3247097
0.118289925 0.2024382 0.80590487 0.45719475 0.206449 0.14572367 0.24627805 -0.064986624
-0.48314267 -0.27720556 -0.5815529 0.16352959 -0.3516613 0.21686475 0.3442421 0.3800825
0.18499745 -0.08215735 0.085640825 0.11920843 -0.35633266 0.7039997 -0.49033588 -0.14675403
0.3616991 -0.19831549 0.22122999 -0.5335146 0.25188863 -0.37274528 0.14826995 0.24779998
-0.056937248 0.37498066 -0.36129692 -0.09259037 -0.045447517 -0.7501642 -0.10896798 0.094735965
-0.04132815 -1.0069027 -0.17551845 0.09953853 0.3060925 -0.09102858 -0.2352043 0.67399794
-0.18505071 -0.28188622 0.342083 -0.3606762 -0.18999428 0.41165596 -0.14416139 -0.34089798
0.19933012 0.44762957 -0.3463198 0.4258344 0.20012179 -0.33093756 -0.3560735 0.21016578
0.122584686 -0.5146463 -0.10626592 0.590886 -0.39006478 -0.037328586 0.435037 -0.06004895
0.40514472 0.4358465 0.009336657 0.5214824 0.54044306 0.101138175 0.35459563 0.13264683

layers.0.bn2.weight f4 [24]
00000000: d8c5 c43f 56da ad3f 79d0 663f 7b57 293f
00000010: 37d3 423f db9b 643f d757 a93f 5fee be3f
00000020: 58c5 043f 8119 b53f bd82 af3f 43fd 0640
00000030: 9371 863f 7e85 a63f 16bd 463f e650 7f3f
00000040: ddad 693f c789 c03f 2ddd 913f b4da 0d3f
00000050: dd6d c13f 7b96 4f3f 1925 833f c339 823f
1.5372877 1.3582256 0.90161854 0.6614911 0.7610354 0.89300317 1.3229932 1.4916495
0.5186362 1.4148408 1.3711773 2.1092079 1.050341 1.3009489 0.7763227 0.99732816
0.9128092 1.5042046 1.1395622 0.5541184 1.5111653 0.8108899 1.0245696 1.0173877

layers.0.bn2.bias f4 [24]
00000000: 3776 373d e802 98bd 75e0 9f3e b729 e83e
00000010: 2a1c 153e 3e47 0e3f 91f2 acbb fcd0 d53e
00000020: 0c72 953f 0da8 0740 b451 fe3f 09ef 8cbe
00000030: 15d9 09bd f79d 52be d7e9 bebd 1ef4 2c3f
00000040: cdda 023f 7a64 213d 1106 3ebd f2dc 6c3f
00000050: d910 40be 9dca 4f3e 48de c53c 0566 723f
0.044790473 -0.07422429 0.31225935 0.45344326 0.14561525 0.55577457 -0.0052779396 0.41761005
1.1675429 2.119632 1.9868684 -0.2752612 -0.03365429 -0.20568071 -0.09321945 0.67559993
0.51115113 0.039402463 -0.046392504 0.92524636 -0.18756427 0.20292135 0.024153844 0.9468692

layers.0.bn2.running_mean f4 [24]
00000000: cc1b 6f3c 5607 e1bd 7d12 b5be f7e4 0abf
00000010: da41 e93e 26f2 94bf fe19 3c3d 8580 af38
00000020: 1bef 5bbf 3c4c 833f e793 ca3e 3e8d be3c
00000030: a208 683d eb9b 31bd 1718 8cbb f26e 603f
00000040: 854e d9be 0587 373c c117 26bd 0593 74bf
00000050: c16a 84bd c666 8c3e 0bd6 b73c a1ce 353f
0.01459403 -0.10987727 -0.35365668 -0.5425562 0.45558053 -1.1636398 0.045923226 8.368589e-05
-0.8591172 1.025764 0.39565966 0.023260709 0.056648858 -0.043361586 -0.0042753327 0.8766929
-0.42442718 0.011201625 -0.040549997 -0.95536834 -0.06465674 0.2742216 0.02244093 0.71018416

layers.0.bn2.running_var f4 [24]
00000000: 2867 8e3d c9d3 f93d 0ec5 b93e 0302 213f
00000010: f89b c53e 7d7b b13f 0905 3f3e a7b3 443d
00000020: eb07 0340 80cc 1740 d1ab 1c3f 29a2 803e
00000030: 0b17 3e3d 3273 a33d 6095 0e3d 997c ce3f
00000040: 2ca0 473f 4bb2 1e3e fd8f 9f3d 0f0a 853f
00000050: 06f5 8a3e 7a89 1a3f 03fc 0b3f cbb0 a33f
0.06953269 0.12198598 0.36283153 0.62893695 0.38595557 1.3865811 0.18654265 0.048022892
2.0473583 2.3718567 0.6119967 0.25123718 0.046408694 0.07980956 0.034810424 1.6131774
0.7797878 0.15497701 0.077911355 1.0393695 0.27140063 0.6036602 0.54681414 1.2788328

layers.0.conv3.weight f4 [11, 24, 1, 1]
00000000: 8dde 32bd 076a af3e 1470 36be 7e6c 7b3d
00000010: 197d 953e 8d16 d33e 0e25 a93d f8c3 fabe
00000020: 19d4 58be 2f4a 1abe 4ba8 6ebd 923b 2e3f
00000030: 0646 223e 39ed 283e c492 2fbe 08ca 1cbe
00000040: b11a fcbd a12f 423f c529 583f c65f 0bbe
00000050: 83a0 003f af8a 39bc 2f2c 0cbe ea3d a83e
00000060: 5919 ca3e d50e 1f3d 3bb0 6fbd 987a 723e
00000070: a847 49bf ccd1 8dbe 959a a53d 98ca 603e
00000080: a51f 8b3e 42d4 583e 5944 8dbe 4962 563e
00000090: 9683 9c3e 2c6f 65be 1753 d2bd f671 94bd
000000a0: 0b3d 083e 3ee0 433e 0f61 183f c2fa 343f
000000b0: d762 1e3d 390b 9cbe 20bc d93e 7be0 603d
000000c0: 2f07 013e 12f9 523e d6dc 463c 3660 d1be
000000d0: a193 edbe 9397 1dbc 94d3 163e a81b cfbd
000000e0: a379 eb3e cec2 a53e b348 48bc 7649 b2be
000000f0: 0bc7 e23d b9de d23e 03ed a43e 6cde c63e
00000100: baff 41bc cd78 cebe 0d52 41be 6418 233e
00000110: b693 02be 7942 073f 65f4 a73e de20 fe3e
00000120: fc69 d43e 3979 52be 02e1 9cbe 3038 223d
00000130: 6690 be3e 9de7 41be 6cc1 ca3c f7db 6a3e
00000140: 4506 cbbe 1400 84be ee07 103f 5b41 1fbe
00000150: 6c92 a6be bffe cfbe caa0 a1be b482 48be
00000160: c9ef 3e3e 737b 3fbe e3c2 f43d 95ad a73e
00000170: 9448 efbe 2704 aa3e 5b3a 403d 2baa 023f
00000180: 4ab1 483d 6180 f3be e66f 84be 9ab9 263d
00000190: c445 29be 3266 f43e 7f23 943e c4d7 a1be
000001a0: 65cf edbe 8e9d 4abd 878b eebc 13dc 4cbe
000001b0: 58ca 0b3f 86dd 43bf 0a68 a5be d3f7 bebd
000001c0: 5c68 0a3f 7975 87be 20ee 823d 02cf 4a3c
000001d0: 8f7e 00be 8f55 703e 496c f5be b2a0 2a3e
000001e0: 571b c83d c47f 253f dbc0 e23b 7adf 873b
000001f0: 7924 c6be dbbc 963e a732 b4be 69b8 343e
00000200: 1695 c0be 79c3 8c3c bac8 0b3c e35e 20bf
00000210: 5129 b8be 4c08 1d3f bce7 9a3e 841f 0f3c
00000220: ef3e 6dbc 411c 21bf b525 073f 756a e63d
00000230: 337e 04be d45a 57be ef2f 7ebe 616a ca3d
00000240: 8d42 fe3e ec68 92be 28cb 01bc eb80 01bd
00000250: cd21 3cbe 7989 41be ae23 a13d 54c4 5cbe
00000260: 2969 50bd bbf5 f5bc 55d6 3e3e 4c53 cebe
00000270: 1b56 993e bf25 d6be 5d38 fcbe ee84 313e
00000280: c223 31bf 9816 e4be ee40 113f 9c42 d2be
00000290: c581 e2be f15e 71be 7c25 4c3e 93e6 293d
000002a0: 2471 1bbe 5054 6ebd 54e7 24be fe48 2fbf
000002b0: 62cb d43e 2a0c 05bf 3bec 7cbe 8d48 033e
000002c0: b4a3 a53e b5be d2bc 4b20 2ebf 525a 0bbe
000002d0: d5cd e13c 2bc5 d33d c16c 873e d48e 623e
000002e0: 3c61 823e 8b1c 2a3a 59ac bf3e cd1a b73e
000002f0: c089 d5be cd28 933e 5d1d 49be a914 5ebe
00000300: b357 8e3e e59c d33e e6f1 1ebd 9c26 fdbd
00000310: 8dab efbe d0dc 8e3d a95e a63e 0e2a 49be
00000320: 2a08 cb3d 6cc4 a2be a772 6a3e f941 84bd
00000330: 61e6 ed3e fce4 303f 1ef2 0ebf 740d b2be
00000340: ed94 d53e e31f 633e 913a 083c 0758 a93d
00000350: bb1d 1dbf 304e 853e 9122 0f3d a4b6 bcbd
00000360: 3dae 323e 379a e53e 76b5 d93e 88e5 d73e
00000370: 48d0 acbe c2f2 983e 3793 3cbe 31c0 ab3d
00000380: 59ad efbe f6a3 153e f680 e8be d7df 62bc
00000390: 30ba 82bc c5fc d13e 33ca a7bd fd2b 113f
000003a0: b4bd 28bf 5679 9e3d d2a4 4abe 8751 98bd
000003b0: 804f 94bd aeeb 7d3c a5b3 e93a 34d0 90be
000003c0: 93fc 013f d686 8bbe 95e5 183f 7163 c2bd
000003d0: e85e 8dbd c464 7b3e 44d9 aebe 980e 063e
000003e0: 49ef 6e3e 5fcb 573e a1d0 983d 6ea1 593d
000003f0: 9907 f5bd bd1b fdbe 5431 8bbd 917a ff3e
-0.043669272 0.3426058 -0.17816192 0.061382763 0.29197004 0.41228142 0.08259021 -0.48977637
-0.21174659 -0.15067361 -0.058265965 0.6805965 0.15847024 0.16496743 -0.1714583 -0.15311444
-0.123097785 0.75853926 0.84438735 -0.13610753 0.5024492 -0.011324569 -0.1368873 0.32859737
0.39472464 0.038832504 -0.058517676 0.23679578 -0.78624964 -0.27699125 0.08086125 0.21952283
0.2717258 0.2117472 -0.27591208 0.2093593 0.30569142 -0.2240569 -0.102697544 -0.07248299
0.13304536 0.1912851 0.595231 0.70695126 0.03866848 -0.30477312 0.4252634 0.05490158
0.12600397 0.20602825 0.012137612 -0.40893716 -0.46401694 -0.009618658 0.14729148 -0.10112697
0.4599124 0.32375187 -0.012224364 -0.3482167 0.11073121 0.4118555 0.32212076 0.3884157
-0.011840755 -0.4032654 -0.18878956 0.15927273 -0.1275166 0.52835804 0.32803646 0.4963445
0.4148711 -0.20554055 -0.30640417 0.039604366 0.37219542 -0.1893601 0.024750434 0.22935472
-0.3965322 -0.2578131 0.562621 -0.15552275 -0.32533586 -0.40624043 -0.31567985 -0.1958111
0.18646158 -0.18699436 0.11951234 0.3274962 -0.4673506 0.33206293 0.046930652 0.51040906
0.0489972 -0.47558883 -0.25866622 0.040704347 -0.1653052 0.4773422 0.2893333 -0.3160993
-0.46447292 -0.049466662 -0.029119266 -0.20005827 0.5460563 -0.7650989 -0.32305938 -0.093246125
0.5406549 -0.26456812 0.06393075 0.012378456 -0.12548278 0.23470138 -0.47934178 0.16662863
0.0977084 0.6464808 0.006919963 0.0041465135 -0.386997 0.2944096 -0.35194895 0.17648472
-0.37613744 0.017183052 0.008531744 -0.62644786 -0.35969022 0.61340785 0.30254924 0.008735541
-0.014480337 -0.6293374 0.5279191 0.11250774 -0.12938766 -0.21030742 -0.24822973 0.098835714
0.4966015 -0.28595674 -0.007921971 -0.031617086 -0.18372269 -0.18900098 0.078681335 -0.21559268
-0.05088154 -0.0300244 0.18636449 -0.40297925 0.29948506 -0.41825673 -0.49261752 0.17335865
-0.6919519 -0.44548488 0.567397 -0.41066444 -0.4423963 -0.23571374 0.19936174 0.04147966
-0.15179878 -0.058185875 -0.1610387 -0.6847075 0.4156142 -0.51971686 -0.2469949 0.12820645
0.32351458 -0.025725702 -0.68018025 -0.13608673 0.027563969 0.10340341 0.2645016 0.22124797
0.2546481 0.00064892386 0.37436178 0.35762635 -0.41706657 0.28742066 -0.19640107 -0.21687569
0.27801284 0.4133064 -0.03880491 -0.1236088 -0.4681057 0.069757104 0.32494095 -0.19644949
0.099136665 -0.31790483 0.22895299 -0.06457896 0.46464828 0.690994 -0.5583819 -0.3477589
0.41715184 0.22180133 0.008314745 0.08268743 -0.6137349 0.26036215 0.034945074 -0.092145234
0.17449279 0.4484422 0.42521256 0.42167306 -0.33752656 0.2987271 -0.18415533 0.08386267
-0.4681194 0.14613327 -0.4541089 -0.013847313 -0.015957922 0.4101316 -0.08192863 0.56707746
-0.65914464 0.07737987 -0.19789436 -0.07437425 -0.07241726 0.015498085 0.0017830028 -0.28283846
0.5077602 -0.2725131 0.59725314 -0.09491623 -0.069028676 0.24550158 -0.34150136 0.13091505
0.23333468 0.21073674 0.07461668 0.053132467 -0.1196434 -0.49435225 -0.06796518 0.49898198

layers.0.bn3.weight f4 [11]
00000000: e924 a83f d90c 873f 3e87 923f a952 643f
00000010: 1280 823f 252b 803f c975 933f e1db 2f3f
00000020: 3c2f 863f d4e5 673f 85f5 893f
1.3136264 1.0550796 1.1447523 0.8918863 1.0195334 1.0013167 1.152032 0.68694884
1.0483165 0.90585065 1.0778052

layers.0.bn3.bias f4 [11]
00000000: e3f2 be3e e8c3 043e 88ef 6a3d 6709 80bd
00000010: efcc 81bd 27ef 9ebc a262 0c3e 95cd 4bbe
00000020: 4f2f f63d 47fb 88bd e251 0abd
0.37294683 0.12965357 0.05735734 -0.06251793 -0.06337916 -0.019401146 0.137095 -0.19902642
0.12020742 -0.06688552 -0.033769496

layers.0.bn3.running_mean f4 [11]
00000000: b3bf 3d3f bd34 c03f e639 ef3f ba18 043f
00000010: a62d 46bf 8cc0 a7be ba3e 94bf 1c76 aebf
00000020: 2839 a43e 4e08 1bbf 600c c33f
0.74120635 1.5016094 1.8689544 0.5160023 -0.77413404 -0.3276409 -1.1581643 -1.3629794
0.32074857 -0.60559547 1.5238152

layers.0.bn3.running_var f4 [11]
00000000: b5b6 e63f 114c 7d3f d840 873f 7f37 983f
00000010: 8d1d c13f 57fe 9d3f c705 8b3f c319 823f
00000020: 0765 8d3f adb6 793f de47 673f
1.8024508 0.98944193 1.0566664 1.1891936 1.5087143 1.2343243 1.0861138 1.0164112
1.1046456 0.97544366 0.90344036

layers.1.conv1.weight f4 [22, 11, 1, 1]
00000000: b2db c8be 6289 0dbd 2184 c0be e98c 19bf
00000010: 227a 2abc 191c 9dbe 0720 21be 7a81 df3e
00000020: c4db 4abe c525 b63e 1ff4 ea3e 1ee6 773e
00000030: 0bf9 3a3e a637 44be fac1 a8be b4a2 d53e
00000040: 3219 b3be 346b c93e 845f 6dbe 6f21 2d3f
00000050: 6656 f43e 7d0d b4bc 3433 57bf 7d30 6f3d
00000060: 0103 09be 31f0 b5bd e88d 743e 8880 513e
00000070: f605 f93e 4ee2 77be 5ca0 883e 43a2 71be
00000080: 6a7e a1be 655d 54be 50c5 dc3d 76a8 883e
00000090: 6d19 31bf 1a82 3fbe f00d 79be 7a87 58be
000000a0: 8a50 3c3d e6f5 fbbe 1801 703e 06de c03e
000000b0: 868b 88be 1a58 df3e ad21 b13e ea1a c73e
000000c0: a00c f23e fab1 a7bd 795d 00bd 0c8a 2ebe
000000d0: 522a 153e 7416 d9be 4828 e1be 1690 11bf
000000e0: f2a5 aabd b9da ef3e 685e edbc 8df8 a2be
000000f0: c100 403f f9d3 16be 5b08 2cbe 6c69 0e3e
00000100: fde6 143e d485 3abd d51d 30be c607 c4be
00000110: b598 c83d 017f 003d 17f9 943e ba52 01bf
00000120: 1420 c23e e584 513f aa70 1a3e 83a7 61be
00000130: 3ea2 3fbe ae62 b0bd 37c2 5b3f be5b 943e
00000140: 790b 98be 44b0 65be 11e9 95be a617 c7be
00000150: e20f e03e 54ac 77bc 6a69 abbd ff2d 80be
00000160: a52a 11be eec5 8f3d d2c5 a13e c040 1f3f
00000170: 65b4 89bc 74b9 f5be befc 403e 79c6 f2be
00000180: 8bc7 4f3e 7bc3 25bf d350 5cbd 6bdf 19bf
00000190: 09d0 933c 9239 42bf a94d 59bc 79b3 fcbe
000001a0: d6ca 96bd 03bf 34bd 436b d03c 3084 303e
000001b0: 6707 093d 3366 c03e acf4 a9bd 1cba ad3e
000001c0: f187 763f 55e0 db3d 59c2 d53b 93c4 b33e
000001d0: c903 d73e 00fa 833e fdb7 a1bc 51fd b63e
000001e0: 6163 e83d bd78 abbe a451 5a3e 4df6 12bf
000001f0: 61b1 433f 59e8 56be 7694 aa3e 2968 b8be
00000200: 8436 be3e 266a 4b3e 3219 3e3e e81d 33be
00000210: 31ab 173f a99e 0d3f 0adc ecbe 815b 0ebe
00000220: 61ad 95be 8408 b43e 3bb0 5fbe c74c 143d
00000230: 5767 e63e 8920 2dbe 2170 58be e144 553f
00000240: 2054 d3bd 08c5 acbd 6699 fbbd e0e6 aebe
00000250: 140d d7be b95c a0be 33ea 55be 8a97 e33d
00000260: 2e2a 44be 2137 fb3e c0b1 f2be cb40 3fbf
00000270: c974 8b3e 2337 7fbd 6862 033f dc6b cc3e
00000280: 46c7 c83e 1e90 223e 7e13 4d3e 1ddc b93b
00000290: 7c2e cf3c 7419 8c3e abef 8cbe 8ab5 d33e
000002a0: 30c3 9b3c de4b 08be 5640 78be 818a 953e
000002b0: 5aae cbbd d6cb 9a3e 4315 febe 7dcf fb3e
000002c0: d367 a5bd 1c2c a43e f28a 3dbe 9fb9 3a3e
000002d0: 1a12 863e 0755 66bd ebf5 033f eec6 d7bd
000002e0: e0cd debe 5c5c 46be b59a 223f c824 2bbc
000002f0: 27b4 863e 0379 72bd b8e6 b03e cf8e ea3d
00000300: 7e0c bcbc a076 a43e 1864 15be 9d26 023f
00000310: 1909 42bf 8c02 28bf 4223 e23d 5b7f 09bf
00000320: a1ca efbe 9c78 afbd 0df2 d93e 0315 17bd
00000330: ccb4 e4be 3c6f 4dbe b998 81be 13a9 b3be
00000340: 683b a1be e1c3 273f 82a5 073e 1d5a c0bc
00000350: 5f1a 0cbf 7afd d6be 5ce9 7b3e e3db 433e
00000360: ec49 fe3e d119 a13b 8bd8 693c dd5f 843e
00000370: 149f cb3d 1528 5d3e f4a1 b3bd 8d3f c3bd
00000380: f9f5 1abf e5f7 803d f4b9 043f 36ef 01be
00000390: f49c cabe 1fa3 123f 2bdf cdbe c399 3cbf
000003a0: a422 aebe 028f d7be feca 943d 300d a03e
000003b0: f7c2 8c3d 4107 113e 05b2 b7bd 8017 473e
000003c0: c695 5c3e 356a fb3e
-0.39230114 -0.034554847 -0.37600806 -0.59980637 -0.010405095 -0.306855 -0.15734874 0.4365347
-0.19810396 0.3557569 0.45889375 0.24208876 0.18259065 -0.19161853 -0.32960492 0.41725695
-0.3498016 0.39339602 -0.23180968 0.6762914 0.47722167 -0.021979088 -0.84062505 0.05839585
-0.13380052 -0.088837035 0.23882258 0.20459187 0.4863736 -0.24207422 0.26684844 -0.23597054
-0.3154176 -0.20738752 0.10779822 0.26691025 -0.6917942 -0.18701974 -0.24321723 -0.2114543
0.045975246 -0.49211043 0.23437917 0.3766939 -0.26668948 0.43621904 0.34596005 0.3888772
0.47275257 -0.08188243 -0.031339142 -0.17044848 0.14566925 -0.42399943 -0.43976045 -0.5686048
-0.08332433 0.4684656 -0.02897568 -0.31830254 0.7500115 -0.14729299 -0.16800062 0.13907403
0.1454124 -0.045537785 -0.1719888 -0.3828718 0.097947516 0.03137112 0.2909629 -0.50516856
0.379151 0.81843406 0.1508204 -0.22036557 -0.18714234 -0.08612572 0.85843223 0.28976244
-0.29696253 -0.22430521 -0.29279378 -0.3888523 0.43762118 -0.01511677 -0.083697155 -0.25035092
-0.14176424 0.07020174 0.31596237 0.62208176 -0.016809652 -0.47993052 0.18846413 -0.47417048
0.20290963 -0.64751405 -0.053788017 -0.60106534 0.018043535 -0.75869095 -0.0132631445 -0.49355677
-0.07362907 -0.044127475 0.025441771 0.17237926 0.033454325 0.37577972 -0.082986206 0.33931053
0.9630118 0.10736147 0.006523412 0.35110912 0.41995075 0.25776672 -0.019741053 0.3574014
0.1134708 -0.33490553 0.21320206 -0.57407075 0.76442534 -0.20987071 0.33316392 -0.36016968
0.37150967 0.19864711 0.18564299 -0.17491877 0.5924559 0.5532022 -0.46261626 -0.13902093
-0.2923384 0.35162747 -0.2184457 0.036206033 0.45000717 -0.16906942 -0.21136524 0.83308226
-0.1031878 -0.08436018 -0.12285118 -0.3416052 -0.42002165 -0.31320742 -0.20890121 0.11112888
-0.19156715 0.49065498 -0.47401237 -0.7470824 0.27237538 -0.06230844 0.5132203 0.3992604
0.39214534 0.15875289 0.20026967 0.0056719915 0.02529072 0.2736317 -0.27526602 0.4134944
0.019013971 -0.13310191 -0.24243292 0.29207233 -0.09945364 0.3023364 -0.49625596 0.49181738
-0.080764435 0.32064903 -0.18510035 0.18234871 0.26185685 -0.056233432 0.51547116 -0.1053599
-0.43516445 -0.1937117 0.63517314 -0.010445781 0.2630932 -0.059197437 0.34551024 0.1145302
-0.022955175 0.32121754 -0.14588964 0.5084017 -0.7579513 -0.65628886 0.11041881 -0.53709954
-0.4683428 -0.08567926 0.42567483 -0.036885273 -0.44669187 -0.20061964 -0.2531183 -0.3508993
-0.31490636 0.6553326 0.1324673 -0.02348047 -0.5472774 -0.41990262 0.24600738 0.19126849
0.49665773 0.0049164076 0.014272819 0.25854388 0.09942451 0.21597321 -0.087711245 -0.09533606
-0.60531574 0.06297282 0.5184624 -0.12688908 -0.3957287 0.57280153 -0.40209326 -0.7367212
-0.34010804 -0.42101294 0.0726528 0.3126006 0.06873124 0.14162923 -0.089695014 0.19442558
0.21541509 0.49104467

layers.1.bn1.weight f4 [22]
00000000: 3fdf 973f 84fa f53e 51ce 673f bc4c 993f
00000010: 7dad b93f 415d c73e c159 353f 7acf a53f
00000020: 0a41 a13e 1f42 d53e ab84 ab3f 900a a73f
00000030: fe29 503f ffbb f13e bb47 c33e 6f4a a83f
00000040: 6f5f 7e3e 6510 813f 89c4 df3e 0c18 293f
00000050: a4ee 4f3f b664 4f3f
1.1865004 0.4804269 0.9054919 1.1976542 1.450607 0.38938335 0.7084008 1.2953942
0.31494933 0.4165201 1.3399862 1.3050098 0.81314075 0.47213742 0.38140664 1.3147715
0.24841093 1.0083128 0.43704632 0.6605232 0.8122351 0.8101305

layers.1.bn1.bias f4 [22]
00000000: fe56 7bbe a3fa 4d3f 20be 8abe 7c58 063e
00000010: 0656 cc3e 20c7 313f 2933 e83e 9337 c03d
00000020: 3a49 4b3f e6ec 1d3f 9e57 003f 44a7 13be
00000030: 678b 9b3e f0f0 173f 447e 393f 379a 973e
00000040: b4a9 613f 9243 e83d dcfa 413f 3c89 193f
00000050: 4b5b aebe 3823 d33e
-0.24544904 0.80460566 -0.2709818 0.13119692 0.3990938 0.69444466 0.45351532 0.093856
0.7940861 0.61689603 0.50133693 -0.14419276 0.30379793 0.59352016 0.7245829 0.29609844
0.8814957 0.11341013 0.75773406 0.5997503 -0.34054026 0.41237807

layers.1.bn1.running_mean f4 [22]
00000000: 4ab8 99be 02dd 813e ab34 1bbe 5a93 e6bd
00000010: 8aee 603c c9d3 27be b429 45be c82d 963b
00000020: ec46 0b3e e99f 72be 6787 fa3c 201f 8ebe
00000030: ba5d a43e 7504 ac3e 4715 7fbe acdd 593e
00000040: 1682 8f3b b73f 513e c749 bfbd a5ff 6d3e
00000050: 58e6 033e cb80 adbe
-0.30023414 0.25363928 -0.1515681 -0.11258574 0.013728747 -0.16389383 -0.1925419 0.0045830943
0.13601273 -0.23693813 0.030582143 -0.27758121 0.32102758 0.3359715 -0.2491046 0.21275967
0.004379521 0.20434462 -0.09340244 0.23242052 0.12880838 -0.33887324

layers.1.bn1.running_var f4 [22]
00000000: 6bf0 e13f 59a1 7d3f 7e81 3240 18e5 bb3f
00000010: 97b1 f73f 5c85 fe3f 03af c03f c0a2 a33f
00000020: ea8b ea3f 7dc3 d13f eeb0 1040 2d55 c53f
00000030: 3a09 ca3f d0e4 2f40 d656 2940 b76d 873f
00000040: 880b d73f b85b 1840 92ff e53f cba0 e63f
00000050: 8a96 e03f bbe2 ed3f
1.7651495 0.9907432 2.7891536 1.4679289 1.9351071 1.9884448 1.5053409 1.2784042
1.8323948 1.6387783 2.260799 1.5416619 1.5784066 2.7483406 2.645925 1.0580357
1.6800394 2.380598 1.7968619 1.801782 1.7545941 1.8584818

layers.1.conv2.weight f4 [22, 1, 3, 3]
00000000: daea 413d ea10 d2bb 556c 73be f936 213f
00000010: 588a b33e 45f1 a7be 9be9 d43e 7554 b53e
00000020: 9586 c53d 5eeb 013e 49a9 dc3e ce5a ac3e
00000030: 7e11 df3e e55b 1d3f 55eb b03e dc67 953e
00000040: a841 903e 0f4f d63d d2fb af3c cd33 7cbe
00000050: 6233 b53d d676 63be 93f3 10bf d339 93be
00000060: e780 b7be 484b d3be daf5 06bf 21c2 55be
00000070: 8bfd aabd d4d5 9b3c 7e11 f0be cdce 14bf
00000080: a3da 00be 9b60 d8be 19ba fbbe 90ea 6abe
00000090: 8458 4c3e 2985 793e 7284 debd eda4 1a3f
000000a0: 0e40 203e 03df e9be 3c87 ab3e 7fb0 4f3c
000000b0: ffc1 debe 989b e83e 3eaa f73e 28f1 6d3e
000000c0: 006e ad3e 0d45 0d3f a66c 9e3e 736a 3f3d
000000d0: 5684 f73d 6106 b53d 65ef b6be 383a c8be
000000e0: b3e1 4ebd 10ce e7be 4b09 50bf f8ba c1be
000000f0: a209 b8bd dde1 aebe 9afd 72bd f3e7 573d
00000100: e402 2dbe fa51 dcbd 6219 a83e 02c9 e53e
00000110: 7927 253e e2c7 c93e be94 253f d7c1 8e3e
00000120: 1c67 91be 008e 6cbe eeaf febd 8348 eabe
00000130: b761 25bf c770 59be 78ee 27be ebcb a6be
00000140: 1007 c2be 629c bcbe 8371 83be b797 983e
00000150: 00bf 85be 64eb 4cbe 0022 ce3e 1662 cd3c
00000160: 1441 ec3e dd3c 0c3f c2e1 e63d c891 353d
00000170: c046 bcbc 863e f23e 6697 0f3f 0e9f f53d
00000180: 4349 803e 6cd8 093f fe04 793e 8233 b83e
00000190: aa45 f93d 8f4a dbbe 1452 b9bd 3303 e63e
000001a0: 1c8a 81bd 4959 07bf f719 943e e22c 0bbf
000001b0: 168d 88be 40b9 3bbe 711f feba 0d9b e6be
000001c0: 9c2a f2be 7fbc adbd 62dd e6be e59f 0dbf
000001d0: 9f80 3fbe 73b1 babe 17ca fdbe cae4 d6be
000001e0: ee4b b73c 7d59 963d 2fe3 e93d df96 ae3e
000001f0: 4a40 fb3e bca7 8f3e fb74 4cbe a57d b7be
00000200: 7d09 58be 2ee6 b53d e073 12bd 59b5 48be
00000210: df8e 053f 4ab3 0c3f d963 a63e 557e 9b3e
00000220: 1692 d63e 29c5 553e 9ace 103f 15cf c43e
00000230: ef53 93be f812 563e a5ad 56bc 2237 6abe
00000240: 445e 313e 7544 8d3e bfcb 9c3e 47c8 953e
00000250: 58b6 203f 6705 fa3e 4d27 813e 2ef3 c43e
00000260: 746c 693e 77ce debe e21f 323d fcfd 113e
00000270: 934b 0fbf 8974 0f3e cb2b ef3e 05b4 02bf
00000280: b173 133e f6c3 c83e 2f07 433e 1bd3 ce3e
00000290: 5449 3a3e 323d c33e 52f2 113f ff15 5c3e
000002a0: 980b cc3e f066 f33e 55cb 693e d79f 5c3e
000002b0: 44ae 503e 1cd1 e7be 51a8 d03e 42e7 4c3e
000002c0: 523d 16bf f15d 683e 748e 0cbd 7184 c3be
000002d0: ca2e f13d e8bc 5c3e f8e1 f13d 3f35 ca3e
000002e0: 67e8 263f 7ecc 833e 65f1 283e 63a0 e73e
000002f0: 9119 c93e def9 7abf 6b89 98bd 4d0e 833c
00000300: 15d4 9ebc 259b 0b3f 7a03 023f 7a8f 5b3e
00000310: c109 173d 06fe 903c
0.047343113 -0.0064107077 -0.23771794 0.62974507 0.35066485 -0.32801262 0.41584477 0.35415998
0.0964481 0.12687442 0.43097904 0.33663028 0.43568033 0.61468345 0.34554544 0.291808
0.28175092 0.10464298 0.021482382 -0.24629135 0.08847691 -0.22213301 -0.56621665 -0.28755054
-0.35840532 -0.41268373 -0.5271889 -0.20874836 -0.08349141 0.01902286 -0.46888345 -0.5812805
-0.12583403 -0.42261204 -0.4916542 -0.22941041 0.19955641 0.24367203 -0.10865106 0.60407907
0.15649435 -0.45677957 0.33501613 0.012676357 -0.43507382 0.4543121 0.48372072 0.23236525
0.33872986 0.5518349 0.30942267 0.046732377 0.12085788 0.08839107 -0.3572952 -0.39106917
-0.050508212 -0.452744 -0.8126418 -0.37837958 -0.08986212 -0.34156695 -0.059323885 0.05271144
-0.16895634 -0.10757823 0.32831866 0.4487992 0.16128339 0.3941031 0.6468009 0.27882263
-0.2839898 -0.23101044 -0.124359 -0.45758447 -0.64602226 -0.21234427 -0.16399562 -0.32577452
-0.37896013 -0.3683806 -0.2567254 0.2980325 -0.26122284 -0.2001167 0.40260315 0.025071185
0.461434 0.5478037 0.11273529 0.04432848 -0.022982955 0.47313327 0.5609039 0.11993228
0.25055894 0.5384586 0.2431831 0.35976797 0.121714905 -0.4283032 -0.09048858 0.44924316
-0.063251704 -0.52870613 0.2892606 -0.5436536 -0.2667014 -0.18332386 -0.0019388032 -0.4504017
-0.47298133 -0.084832184 -0.45090777 -0.55322105 -0.18701409 -0.36463508 -0.49568245 -0.41971427
0.022375073 0.07341287 0.11420285 0.3409948 0.49072486 0.2805766 -0.199665 -0.35838047
-0.2109737 0.08881794 -0.03575504 -0.19600429 0.5217113 0.54961073 0.32498053 0.3036982
0.4190833 0.20875992 0.5656525 0.3843924 -0.28774974 0.20905674 -0.0131029235 -0.22872594
0.17321116 0.2759129 0.30624196 0.29254362 0.62778234 0.48832247 0.25225297 0.3846678
0.22795278 -0.43516895 0.043487437 0.14257044 -0.5597469 0.14009298 0.467131 -0.5105594
0.14399602 0.39212006 0.19045709 0.40395436 0.18192035 0.38132626 0.57010376 0.21492766
0.39852595 0.47539473 0.22831471 0.21545349 0.20378977 -0.45276725 0.40753415 0.20010093
-0.5868732 0.22692086 -0.03431554 -0.38186982 0.117765024 0.21556437 0.11810678 0.3949375
0.6519837 0.25741953 0.16498335 0.45239553 0.39277318 -0.9803752 -0.074480854 0.01599803
-0.019388238 0.54533607 0.50786555 0.2144145 0.036874536 0.017699253

layers.1.bn2.weight f4 [22]
00000000: 6791 4a3f 42fb 833f b863 803f d093 a23f
00000010: 901b 8a3f affc 793f a885 7a3f 7aeb 343f
00000020: 570e 933f 8fd3 6a3f 39f1 373f 261c d83f
00000030: dadd 8f3f 6d20 743f 8beb 953f 8736 323f
00000040: 5c84 a03f 3156 993f f533 9e3f c96e 803f
00000050: 2871 5f3f ac21 5e3f
0.79128116 1.0311053 1.0030432 1.2701359 1.0789661 0.9765119 0.97860193 0.7067181
1.1488751 0.9172906 0.7185245 1.688359 1.1239579 0.9536198 1.1712507 0.6961445
1.2540393 1.1979429 1.2359606 1.0033809 0.8728204 0.8677013

layers.1.bn2.bias f4 [22]
00000000: 5f54 d63e 8767 093e 6be8 263f bd0f 463e
00000010: 3032 0a3f d35a 5c3f 60b9 fe3e 245f 3140
00000020: 3322 643e 61f6 d73e fd50 2b3f 9a51 58bf
00000030: a4f9 973e 1427 733f d30f 7e3e 30c6 803f
00000040: 0748 d5bd b7bf 3abd 25c5 823d f528 00bf
00000050: f255 ae3f b51f 7bbe
0.41861245 0.13418399 0.6519839 0.19341941 0.5398283 0.86076087 0.49750805 2.771432
0.22278671 0.4218016 0.66920453 -0.84499514 0.29682648 0.94981503 0.24810724 1.0060482
-0.10414129 -0.04559299 0.063852586 -0.50062495 1.3619978 -0.24523814

layers.1.bn2.running_mean f4 [22]
00000000: 47fe ae3e b94e 1040 20ef f5be 33e9 99bf
00000010: 3641 9b3e 4bf6 d73f 4725 c3bf 9b4a 873f
00000020: 12eb 05c0 7c69 e83e a504 d93f 7459 463e
00000030: 02cf 8fbf e2ea c63d 6686 cd3e ff02 553f
00000040: 20ea 2040 c487 94ba 8c3a 0c40 9b0a 5dbe
00000050: c606 c83e c4e3 a93e
0.34178373 2.2548048 -0.48034 -1.2024292 0.3032319 1.6872038 -1.5245751 1.0569643
-2.0924726 0.45392978 1.6954542 0.19370061 -1.1235049 0.09712769 0.401416 0.83207697
2.5142899 -0.0011331965 2.1910734 -0.21586077 0.39067668 0.33181584

layers.1.bn2.running_var f4 [22]
00000000: f5c3 873e 289f 0b3f 2cf4 4c3e 35af fd3f
00000010: 1c16 433f 37bf 913e 7cc0 823f 1363 943f
00000020: dc09 b43e b814 0a3e 59bd 1040 8f20 2a3f
00000030: 2aa0 7c3f e854 733e cc2b 253e 9ac5 b73f
00000040: 0af8 163e 163e aa3e 42a6 1d3f 82f9 c63e
00000050: 0c3c 553e e9c3 d03e
0.2651669 0.5453973 0.20015019 1.9819094 0.7620561 0.28466198 1.0214992 1.1592735
0.35163772 0.13484466 2.2615569 0.6645593 0.9868189 0.23762858 0.16129988 1.4357178
0.14743057 0.33250493 0.61581814 0.38862234 0.20823687 0.40774468
