Project/Project_files/ckpt/mobilenetv2_19_4_stem/mobilenetv2_19_4_stem_60.pt (torch, 45163 bytes, 52 tensors)

conv1.weight f4 [24, 3, 3, 3]
00000000: 74aa 1abe ae60 c0bd c37e 023e a37f 43bc
00000010: 8325 9f3d dcaf 383e 3638 33be f88c b7be
00000020: 1173 6dbd 5721 fe3c 5f9a 033e 3b0e 19be
00000030: c533 7fbd 495c f83e cb08 9cbd 397c 453d
00000040: 0c3f 3abd f7ea 3abe 9323 413e 25e5 b83d
00000050: 7fd6 4dbd f993 553e 1948 113f ddf3 6cbd
00000060: ab40 c8bd cc0d 29be da9e b3bd f0bd 853e
00000070: 7d1a d9bd b8f5 03be b1d2 563e 6cf4 50be
00000080: de00 be3d 7d46 c53d cffc a2bd 24f4 c2be
00000090: df3d 113e c33e d33d 7606 36bd 2e9c 4f3c
000000a0: 87b1 1abe 1fc8 7a3e 2135 8ebd adaf c2bc
000000b0: 5cbd 8dbe c7f2 aabd 0e02 90be e855 933c
000000c0: 2d44 f8bd 4bac 7fbd d348 ae3e e8e4 83be
000000d0: 1dd5 003d b794 a83e 1a2f a53d 02b8 d6be
000000e0: 4a85 a5be 1267 533e 7774 0bbe 0b29 99be
000000f0: baac 6d3e 5613 6ebd 3847 bb3e 72e0 5c3c
00000100: dfb3 933e 24ea 183e ce45 1b3e a012 08be
00000110: 468c 58bd c88f 91bd 3b35 37bd 2955 29bd
00000120: 03c1 aebd 5857 00be 1884 4ebd 2685 3b3d
00000130: db99 b9be 10b6 f3bb ac74 a03c 99b8 d5bd
00000140: 5625 ad3e 9405 823e 8754 c5bd 9500 e93d
00000150: c2ea 323e 18c9 e1bd 5d05 8ebd a7d3 323e
00000160: e678 a6be eed7 9dbe 87a9 c3bb 5455 9b3d
00000170: ef48 5d3e a1bb 36ba 8328 afb9 dde3 163e
00000180: 99f2 af3e 6ba3 32bc 9563 5fbe a2c1 6e3d
00000190: f176 cabb a8d0 6e3e 7879 11bd c1a8 5cbe
000001a0: f07b 333e 8d51 c83d 60f7 a0bd 5dc5 83bd
000001b0: 6a77 473d 9bb9 f33c 5151 7ebc c147 78be
000001c0: 78ad 91be 5253 373e 582b 5fbd c335 8ebe
000001d0: fc8b 8c3d cddc 013e c5d0 aabc cf66 08bd
000001e0: eacd 2f3d 550c bfbd 7558 ef3e 6063 e23d
000001f0: a241 e3bd 8744 953e fe2d 94bc a6ba 923d
00000200: e39b eebd 827a 463a e75a c9bd c5d0 a43e
00000210: 6d51 363e 8447 51bd e81a 51be ad4d 55be
00000220: ea72 333e 898b 893b 7106 b3be 624d 353e
00000230: 7b61 333c 0c82 e03d f66e 483d 2438 27be
00000240: 9843 b8bd 574e a83d c73c c83d 8a34 c7bd
00000250: 4746 eb3e 7576 2d3e 6a8b 38be c799 053d
00000260: 73a8 3bbe 4238 dc3d 04a2 d4bd 7c71 ebbd
00000270: 7cd5 e8bd 774d b03e baac e3bd 81e7 0abc
00000280: 64ab 1d3e 2ee7 c6bc 11d4 bbbe 7688 06be
00000290: f806 4abd ba96 4c3e 367c 013e 8557 253e
000002a0: 3603 b03d b9db 8f3d 9169 e3bc 7579 c0bd
000002b0: e16d 30be 618c 6d3e f216 3e3e f169 1abe
000002c0: 82d0 123e eb08 9a3d a674 1f3e 2523 2b3e
000002d0: 1ecd e03d c360 18be 4630 e63d 407e 65bc
000002e0: 3505 eebe 4d5e 01be 7095 eebd 2ea6 8cbe
000002f0: 2766 6bbe 71ba cfbd 5832 85bd 78f4 b63d
00000300: 43b6 60bd 116d 27be 5766 a5be 55af a03d
00000310: 1e71 a63d 71a7 283e 8ff6 b8bd 6c5d 8bbe
00000320: b27b 8cbd 5861 8ebd b86a 5ebd 9c24 47be
00000330: b182 b53d 3765 c33e f513 933e 4dbc 0cbe
00000340: efdb e03d 648e 0abd d951 f03b 5f70 5b3e
00000350: a5d5 1fbe 04ca d2bd e7a4 eb3e 0092 a53e
00000360: b4a6 d1bd 6ef1 25be e429 21be 27f2 973c
00000370: 94ba 19be ff4e 80bc 2441 5e3e fca1 693e
00000380: fd04 753e c672 ed3c e57c 70be a936 d63d
00000390: 6a6f 0c3e d2b3 7dbe 7ce7 993d 42cd a0be
000003a0: 9e2b a13d 3f67 833e a108 8a3e b5c8 87bd
000003b0: de42 743d 2b20 f53e 2c22 1abe 429c bfbd
000003c0: b30e 4dbe 7891 54bd 3d50 b13d 32e0 3ebd
000003d0: 413e f2be 3853 5cbe add6 003e bf1a 47be
000003e0: ff06 2f3e 7466 2d3e b75d 633e f8ff 2a3e
000003f0: 05f9 6e3d 8fed 593e 8a05 163e 65ba 4ebd
-0.15104085 -0.0939344 0.12743668 -0.011932286 0.07770827 0.18035835 -0.17501912 -0.35849738
-0.057971064 0.031021757 0.12851857 -0.14946835 -0.06230523 0.48507908 -0.076188646 0.04821417
-0.045470282 -0.18253694 0.18861227 0.09028081 -0.050253388 0.20857228 0.5675064 -0.057849754
-0.097779594 -0.1650917 -0.08770533 0.26121473 -0.10600755 -0.12886703 0.2097881 -0.2040574
0.09277509 0.09632585 -0.07958376 -0.3807689 0.14183758 0.10314705 -0.044439755 0.0126715135
-0.15106784 0.24490403 -0.06943727 -0.02376541 -0.27683532 -0.08347087 -0.28126568 0.0179853
-0.121223785 -0.06242017 0.34039935 -0.2576058 0.03145324 0.3292596 0.080656245 -0.41937262
-0.32328254 0.20644787 -0.13618647 -0.29914126 0.23210421 -0.05812391 0.36577773 0.013481246
0.28848168 0.14933068 0.15163347 -0.13288355 -0.05286815 -0.07107502 -0.0447285 -0.04134098
-0.08532908 -0.12533319 -0.050418943 0.045781277 -0.36250195 -0.007437475 0.019586883 -0.104356
0.33817548 0.2539488 -0.09635263 0.11377064 0.17472365 -0.11024684 -0.06934617 0.17463551
-0.32514113 -0.30828804 -0.005971137 0.075846344 0.21609853 -0.0006970708 -0.00033408785 0.1473536
0.34364775 -0.01090322 -0.21815331 0.05829013 -0.0061787297 0.23321784 -0.035516232 -0.2154875
0.17527747 0.097811796 -0.07859683 -0.064341284 0.048697866 0.02975159 -0.015522317 -0.24246122
-0.2845266 0.17902878 -0.054484695 -0.27775392 0.068626374 0.12681885 -0.020851502 -0.03330117
0.042920984 -0.09328524 0.46747175 0.110541105 -0.11096503 0.29153845 -0.018088337 0.071645066
-0.11650827 0.00075713557 -0.09831791 0.3219053 0.17804499 -0.051093593 -0.2042042 -0.20830412
0.17524305 0.004197542 -0.34965852 0.177053 0.010948534 0.109623045 0.048933946 -0.1633001
-0.089972675 0.08218067 0.09777217 -0.09726818 0.45952055 0.16939719 -0.18021932 0.032617357
-0.18325977 0.10752918 -0.103824645 -0.11496255 -0.11368844 0.344341 -0.11116929 -0.008478046
0.15397412 -0.024280157 -0.3668523 -0.13137993 -0.049323052 0.19979373 0.12645039 0.16146667
0.085943624 0.07024331 -0.027760299 -0.09398166 -0.17229415 0.23198082 0.1856344 -0.15079476
0.14337352 0.07521232 0.15571842 0.16712625 0.10976623 -0.14880662 0.11239676 -0.014007151
-0.46488348 -0.12633629 -0.11649597 -0.27470535 -0.22988187 -0.10142983 -0.06503743 0.089333475
-0.05486132 -0.163502 -0.32304642 0.07845942 0.08127044 0.16470124 -0.09031402 -0.27219713
-0.068595305 -0.069521606 -0.054300994 -0.19447559 0.08862818 0.38163158 0.28726164 -0.13743706
0.10979449 -0.0338272 0.0073339758 0.21429585 -0.15608843 -0.10292438 0.46024248 0.32337952
-0.10236874 -0.1620538 -0.15738636 0.018548084 -0.1501258 -0.015662668 0.21704537 0.22815698
0.23927684 0.028985392 -0.23485143 0.10459644 0.13714376 -0.24775627 0.07514855 -0.314066
0.078696474 0.25664708 0.26959708 -0.06630079 0.059634082 0.47876105 -0.15052098 -0.09355976
-0.20025139 -0.051896542 0.08657882 -0.046600528 -0.4731312 -0.2151612 0.12581892 -0.19443797
0.17092513 0.16933614 0.22203718 0.16699207 0.058342952 0.21282028 0.1465055 -0.05047073

bn1.weight f4 [24]
00000000: 0660 583f 107c 703f 7851 713f 7d79 8a3f
00000010: 37cd 793f d3c0 873f 6fc7 803f 9f5a 7f3f
00000020: 2900 8d3f 0c41 6d3f fba0 4f3f f775 b33f
00000030: 63cb 5e3f 6f4f 793f 37a1 8b3f 03b3 623f
00000040: 38cc 683f 468c 803f 752e 743f 2aff 2f3f
00000050: 13b2 933f 6a18 893f c783 8f3f 57eb 9b3f
0.8452152 0.93939304 0.94264936 1.0818325 0.9757876 1.060572 1.0060862 0.9974765
1.1015674 0.9267738 0.8110501 1.4020375 0.87029094 0.9738683 1.0908574 0.885544
0.90936613 1.0042808 0.9538339 0.68748724 1.1538719 1.0710576 1.121209 1.2181195

bn1.bias f4 [24]
00000000: 294c 5e3d 3401 6d3d 3776 033d 455a adbc
00000010: 8527 34bd c484 02be 85fa 1a3d 1fe1 c9bd
00000020: c95b b5bc 825a e43c 1fb2 223d 0da2 a93c
00000030: 39d9 e1bd 745e a3bc a1c4 293b d171 0a3d
00000040: 37c0 463e 3cca 263d b862 f23c 5a1f 713d
00000050: cad0 f33d 4c27 dfbd 9344 8b3d d65d 6a3d
0.05427185 0.057862476 0.03209516 -0.021161208 -0.043983 -0.12745959 0.03783657 -0.098573916
-0.022138493 0.027875189 0.03972065 0.020707155 -0.1102776 -0.0199425 0.0025904553 0.03379995
0.19409262 0.04072021 0.029588088 0.05886779 0.11905058 -0.10896167 0.06800189 0.057218395

bn1.running_mean f4 [24]
00000000: 6af1 733c b4e1 463b c2aa 02bb 6270 c53b
00000010: 0e21 e43b 531c e33b 266f ad3b 5e9b 50bc
00000020: 4d7f 8cbb f84a 353c 1250 b6bb c801 2e3c
00000030: bddf 0439 41c2 1639 82e9 183b 84b3 573a
00000040: 47a6 9c3b 681a 7739 18c4 efbb 7fc1 293b
00000050: 523d ea3b 996a 13bb e158 483b 66fe 09bc
0.014889101 0.0030346932 -0.0019938205 0.00602536 0.0069619482 0.0069308667 0.005292791 -0.012732355
-0.0042876364 0.011065237 -0.0055637443 0.010620542 0.0001267185 0.0001437748 0.002333254 0.0008228349
0.004780564 0.00023565593 -0.0073170774 0.0025902686 0.007148423 -0.0022493957 0.0030570554 -0.00842247

bn1.running_var f4 [24]
00000000: ad96 513f c008 b63e dfe7 223f 853e 2d3f
00000010: 8a14 c73e a2d7 cb3e 126e 623f 94e6 963f
00000020: 2edd b93e fc6b 753e b237 dd3e 2877 a33e
00000030: a86f f63e 8838 403e 0f9f 1d3f e85c 163f
00000040: 637b 0e3f 0d3f 013f 2125 883e 9054 0240
00000050: de80 a13e 69e6 333f 1835 b93e f377 a83e
0.8187054 0.3555355 0.6363506 0.6767352 0.38882858 0.39812952 0.88449204 1.1789117
0.3630156 0.23966974 0.43206555 0.31926847 0.48132062 0.18771565 0.6157083 0.58735514
0.55657023 0.5048683 0.26590827 2.0364113 0.3154363 0.70273453 0.3617332 0.32904014

layers.0.conv1.weight f4 [24, 24, 1, 1]
00000000: 2a9b 24bd 3841 ea3d 7ec9 b3bc c271 973e
00000010: 52e7 603d b6d7 ccbd 502e 2bbe bc51 4fbe
00000020: 37bc dbbd d955 d0bd 4091 09bc 4973 87be
00000030: fa55 05be 1cd9 76bc 175a ab3c aa21 9c3e
00000040: 628e 5e3d 75c6 a73e 865d 993e d9ba 29bd
00000050: c74f 6dbe b10b 053e 05b6 78be 4b2f 54be
00000060: 5f9e 85be 640a 1ebd ecb6 103d 025f 2dbe
00000070: fd61 b9be 88ad 8bbe 35e1 d23e f346 8ebe
00000080: 1fe7 30bd e9e2 3f3e 3174 29bd 3257 d7bd
00000090: f411 ca3c 08d0 8ebd a01a 473e 0348 bc3d
000000a0: be10 ad3d fc86 ab3e 2ec8 033e f5c2 193e
000000b0: 6c97 843b 22da 0abe b3b2 143e bacc e23c
000000c0: 1346 84be 6439 b53e b143 bb3d c848 4c3d
000000d0: e1fb 7f3a 1cd6 0bbe b2c5 6abe 53ed 883d
000000e0: a3b5 c5be 835e 93be 20a1 b8be e856 debd
000000f0: 2eb9 01be a948 86bc b794 3ebb bcbc 623d
00000100: c974 b0be 8e79 043d cb72 923d 4a39 4dbe
00000110: a377 78be 6cf4 063e 33db 9abe 84c6 f93d
00000120: 00aa 103d 5483 0b3e 4add eb3d 4eb5 5a3d
00000130: 529a f43d a598 bd3d 7e25 c53d 20cb c3bd
00000140: b9e0 dc3d 8d1c d63e b5d3 86bc 3fd7 033f
00000150: c405 7cbe d46a 10bd 0e8a 073e 9d45 00bd
00000160: 5fd2 de3d a5db c83d a39f f2bd 9842 113e
00000170: 4513 f33d ba81 15be 197c 063b 5826 febe
00000180: 241e 803d f7b8 bcbd adc0 bfbe 42b9 75bc
00000190: 6eca 4b3d 3930 dcbd a25b 5a3d 19b6 1bbc
000001a0: 524e f5bc 6b21 c1be 0506 ea3d c839 b3bd
000001b0: 0827 20bc c8f7 ccbe f801 22be 4a7a 5ebd
000001c0: 5e18 b63d 1187 43be 4e82 a93e b6bd 263e
000001d0: 1421 e6bc 4b18 88bd 8177 49be ba3a 9c3e
000001e0: 6815 803d 26d1 3abe 2f59 03be edd0 33be
000001f0: d03b 64be da40 833e b80d 1fbe 095b d23d
00000200: b5c1 49be 72bc 493d ec45 1cbe da97 943e
00000210: 26ad 863e 90b3 62bd d9a6 39be f1fc 1a3e
00000220: 88bf df3d 6fa2 923e 5a0a 4c3d f967 2dbd
00000230: 2929 a53c 0e27 b73e 77f0 27be 5587 90be
00000240: 51b9 363e 33f1 70be a654 3fbd 819a a3be
00000250: 8eeb 42be 1ad0 b0bd 239b aabe c30f c7bd
00000260: 3aa3 d53d 183d 70be 8016 12bd 117b 79bd
00000270: 7f36 6ebe 879b 66be 2244 71be 300d 21be
00000280: 48e7 b93e 52ba cc3d cf95 933e 30bd 00be
00000290: f0f5 9b3e 1913 393d b354 0cbb f9ae 233e
000002a0: 4198 ea3d c2c4 603e edc1 91be aefa 483e
000002b0: 3775 cabd 47bc fd3d 25d6 cbbd 4826 663d
000002c0: 0be2 17be d384 babd 1912 2c3b 1d50 20be
000002d0: 40b6 3b3e f702 9b3d 4b4e 163e 929e 93be
000002e0: b24e 873e 410b b3bb e5f0 aa3b d9a8 1c3d
000002f0: 208d 7e3e fd38 483e 79d1 123d 83db da3e
00000300: e0fd 843e d0a9 91bc 62c6 87bd 5c7f 16be
00000310: 45c0 443e e428 1f3e 081c 14bf 9243 8d3d
00000320: 38eb 873d b1e1 f5bc e75e 2dbe 3369 85be
00000330: 794d 03be 6234 893d ce0e 43be 280d f93c
00000340: 3f3a e9bd a663 a3be c467 42be 71da 91be
00000350: 4952 1b3e 3152 943d 72c6 c0bd 0ef4 adbd
00000360: e6a6 51bd 7a2c aa3e 7116 923e 4679 af3e
00000370: 7fc1 7dbe 2aeb 90be bc8b 8fbe f7d5 423e
00000380: 49a5 27be 0c93 3fbe 7509 1b3e c8bb fdba
00000390: f002 4e3d 4d96 523e 3b61 bebc a6a3 ccbd
000003a0: 510c 5f3e 4f27 dabd f0eb b3bd f094 4abe
000003b0: fe03 52bc bfdd 013e 851f c73d 0f53 99bd
000003c0: 50dc f13d ecf5 4cbe 9a46 553c 2e85 533e
000003d0: cd05 63be 7a2d 1cbd 0009 c73c 4bee 983c
000003e0: e566 a73b 5e44 90bc 8831 f3bd b40b 9e3e
000003f0: 0c36 ddbd 50bb 643e d521 e9be bdc7 45be
-0.04018704 0.11438221 -0.021946665 0.29578978 0.054908104 -0.10002081 -0.16716886 -0.20246023
-0.107292585 -0.10172624 -0.008396447 -0.26455143 -0.13021079 -0.015066411 0.020916982 0.30494434
0.054335006 0.32768598 0.29954165 -0.041437957 -0.23174964 0.12992741 -0.24288185 -0.20721166
-0.2609739 -0.038584128 0.035330698 -0.16930774 -0.36207572 -0.2728083 0.41187444 -0.27788505
-0.043189164 0.18738903 -0.041370574 -0.10514678 0.024666764 -0.069732726 0.1944375 0.09193423
0.08450459 0.33501422 0.12869331 0.15015776 0.004046371 -0.13559774 0.14521293 0.027685512
-0.25834712 0.35395348 0.091437705 0.049874097 0.0009765011 -0.13655895 -0.22926977 0.06685891
-0.3861514 -0.28783044 -0.3606043 -0.1085642 -0.12668297 -0.016392069 -0.002908034 0.055355772
-0.344641 0.032342486 0.07150801 -0.20041385 -0.24264388 0.13179177 -0.3024536 0.12196067
0.035318375 0.13624316 0.11516817 0.053395562 0.11943497 0.0925763 0.09626292 -0.095602274
0.1078505 0.41818658 -0.016458372 0.51500314 -0.24611574 -0.03525813 0.13236257 -0.03131639
0.10879969 0.09807519 -0.118468545 0.1418556 0.1186891 -0.14600268 0.0020520745 -0.4963863
0.06255749 -0.09214967 -0.37451687 -0.014997782 0.0497536 -0.10751385 0.053310044 -0.009503865
-0.029944573 -0.37720808 0.114269294 -0.08751255 -0.009774931 -0.40032792 -0.15821064 -0.054315843
0.088913664 -0.19094492 0.33107227 0.16283306 -0.028091945 -0.066452585 -0.19674493 0.30513555
0.06254083 -0.18243846 -0.1282699 -0.17560168 -0.22288442 0.25635415 -0.15532577 0.1027127
-0.197028 0.04925198 -0.15261048 0.29022104 0.26303977 -0.055347025 -0.18130054 0.15135552
0.109252036 0.28639552 0.04981456 -0.042335484 0.020161228 0.35771984 -0.16400324 -0.2822825
0.1784413 -0.2352951 -0.046711586 -0.31953815 -0.1903517 -0.08633442 -0.33321485 -0.09719803
0.104315236 -0.23460805 -0.03566599 -0.06090838 -0.23262976 -0.22520266 -0.23561147 -0.15727687
0.36309266 0.09996475 0.28825232 -0.1257217 0.30461073 0.04518423 -0.002141279 0.15984716
0.114548214 0.21950057 -0.28468266 0.19626877 -0.09885638 0.12389427 -0.09952954 0.05618885
-0.14832322 -0.091073655 0.0026255904 -0.15655561 0.18331242 0.07568925 0.14678304 -0.28831917
0.26427227 -0.005463988 0.005216705 0.038246963 0.24858522 0.1955299 0.0358443 0.427456
0.2597494 -0.017781168 -0.066296354 -0.14697021 0.1921397 0.15542942 -0.5785527 0.06897654
0.06636661 -0.030014845 -0.16930734 -0.26056823 -0.12822522 0.06699444 -0.19048616 0.030401781
-0.11388063 -0.31911963 -0.18984896 -0.2848697 0.15168108 0.07242239 -0.094128504 -0.08493815
-0.051184557 0.33237058 0.28532746 0.34272212 -0.24780844 -0.28304416 -0.28036296 0.19026934
-0.16371645 -0.18708438 0.15140326 -0.0019358331 0.05029577 0.20565148 -0.023239722 -0.09992151
0.21782042 -0.10652029 -0.08785236 -0.19783378 -0.012818335 0.12682246 0.09722809 -0.07486545
0.118095994 -0.20015687 0.013017321 0.20656273 -0.22170182 -0.038129307 0.024296284 0.018668314
0.0051087015 -0.017610725 -0.11874682 0.30868304 -0.10801324 0.22337079 -0.45533624 -0.19314475

layers.0.bn1.weight f4 [24]
00000000: 1b8c 253f 93ff 1c3f 7618 1f3f 257e 853f
00000010: f353 b83f ece0 953f daa9 263f fec9 033f
00000020: b717 823f 7cb1 863f 4c45 6f3f a017 493f
00000030: 980a 543f 1f96 3e3f cbb5 453f a41e 9c3f
00000040: 6e45 7d3f 1365 923f b4e2 873f 0cf7 b63f
00000050: 2265 563f 61f3 1140 c017 163f 26f2 6b3f
0.6466691 0.61327475 0.621467 1.0429121 1.4400619 1.1709266 0.6510292 0.5148009
1.0163487 1.0522914 0.93465114 0.78551674 0.82828665 0.74447817 0.7723052 1.2196851
0.98934066 1.1437095 1.0616059 1.4294143 0.83748066 2.2804797 0.5862999 0.92166364

layers.0.bn1.bias f4 [24]
00000000: 08a5 ad3e 4f14 c93e 1a1c ac3e f642 58be
00000010: 89f1 94be 1d51 27bd 451a 833e 56d2 f93e
00000020: e2dc 133e e7e9 0c3d 7866 2dbd 131d 5b3e
00000030: cce4 81be bcd6 963e c3f2 7a3e 8c7c ed3c
00000040: dd24 04be d279 4fbe 64db 97bd dbd2 98bd
00000050: f6db 2b3e 152b e9be c0bc c33e 2abf 24be
0.3391497 0.39273307 0.3361519 -0.21119294 -0.29090527 -0.04084884 0.2560598 0.48793286
0.14439729 0.034402754 -0.04233405 0.2139781 -0.2536987 0.29460704 0.24506669 0.028990053
-0.12904687 -0.20261315 -0.07414892 -0.074620925 0.16783127 -0.4554068 0.38229942 -0.16088548

layers.0.bn1.running_mean f4 [24]
00000000: f7d9 f83a 1dfc 213e e51f fbbd cb94 ae3d
00000010: a509 203d caed c3bd a2d8 153e 3c1d 2c3d
00000020: b8bd d7bd aa77 1d3d 5242 a53d 994e 44be
00000030: a3bb cb3d d0da b1bd 6ab1 36be 7282 bfbd
00000040: 7169 793d 02f7 c33d 9fe5 d83d 9b2d 0f3e
00000050: 9c25 0dbe e6d9 713c 14c9 553c 81aa c93d
0.0018985857 0.1581883 -0.12261943 0.08524474 0.039071698 -0.09566839 0.1463342 0.042020068
-0.10534233 0.0384442 0.0806929 -0.19170608 0.09947898 -0.08684313 -0.17841116 -0.09351052
0.060891572 0.095685974 0.10590672 0.13982241 -0.13783878 0.014761424 0.013048429 0.09846974

layers.0.bn1.running_var f4 [24]
00000000: 9a6e 683f 3c9e 8e3f 2c06 0b40 cb4b ac3f
00000010: 91a6 113f 050d 4c40 3a52 883f 7a99 0840
00000020: 57b7 753f 4db4 383f 2109 e43f 9c3e 2b40
00000030: 2c43 f23f fcc3 e13f 8835 f03f ecfd 2340
00000040: a7ce 503f bb25 0540 b631 6240 e8c4 0b40
00000050: b8c3 b83f 7300 ff3f d9c4 863f 117e 3d40
0.90793765 1.1142039 2.1722517 1.346063 0.56894785 3.1882946 1.0650094 2.1343675
0.9598288 0.7215012 1.7815286 2.6756964 1.8926749 1.7637935 1.8766336 2.5623732
0.81565326 2.080428 3.534284 2.1838932 1.4434729 1.9922012 1.0528823 2.9608195

layers.0.conv2.weight f4 [24, 1, 3, 3]
00000000: fcba 163e 3f20 6c3e 68eb b6bd 8e7a dfbe
00000010: 4aaf 5fbe 7e33 3a3e 5c6a 2d3e 538e 303a
00000020: 7d2b 83bc 62ff bcbe 5d4a 82be 2b5e 1dbd
00000030: 9697 6ebd 4b5e 49be 2372 1cbe a95a a63e
00000040: 6672 723e 5104 cd3d 0b59 713e 6710 273c
00000050: 4d75 8cbe 5fd7 973e 2774 09bb 364c 81be
00000060: cb3c 183e 16cf b9bc 81e2 03be d23e 23bc
00000070: 4468 b2bd d153 31bd ece4 d3be bca8 1dbf
00000080: d224 00be f96f d3be 7089 bdbd ace0 41bd
00000090: bc3d a23d c5c9 2a3e 302f 183e 48f2 993e
000000a0: bb02 ce3e 1a6b b63e dd96 133e 5e76 243e
000000b0: 4837 89bd 14fd d3bc b308 ecbc fc12 a4bd
000000c0: 5d0f 9abe 7182 23bf dffd 65be e85e 53bd
000000d0: a357 1ebf 8d0f 85be e943 bdbe 5a52 683d
000000e0: fcb1 54bc d9ff e0bd 18da 683e 2d56 893e
000000f0: a89a e2be acfc f03d 0290 cd3d 07e2 3cbe
00000100: d356 0abe ac8a 323e b1fc 33be 812a 2dbd
00000110: a858 c53e a5c9 a0be 6cc1 4e3e e839 9a3e
00000120: 102f 793e d787 663e fac6 bbbd 8ab6 1bbe
00000130: 7394 dc3c d87a d3bd 0227 d9be c9ec 76be
00000140: 102a fbbe 19a3 96be 8f0a 5b3e 9f1b 513e
00000150: 8096 a93d ffd5 183e 6f40 0d3e 0980 f53e
00000160: cfd9 023e 749c 01bf 31b4 e13e 503c 123f
00000170: 4a45 a33e 4c11 213e 426a 983e 261f 6d3d
00000180: 9b72 14be 077d db3a 52cf f13a cf67 5ebe
00000190: 6634 c6bd 9e1a 93be b022 98be 0916 89be
000001a0: 9438 66be 73eb d53e c898 c83b d78e 933d
000001b0: fd92 993e 2adb df3d ee94 80bd 2098 913e
000001c0: c139 343b d864 563d e0f3 11be 75c9 683e
000001d0: 68f5 893e ce47 82be 50a9 6bbd 3dc6 d33d
000001e0: 59bc 89bc 8d56 8dbe 3697 7c3d 63d4 0dbf
000001f0: c308 01bf 7b00 12be 7515 fabd 135a f5be
00000200: e3d0 a4be 8497 ea3e 41f4 823e 8b19 2c3e
00000210: 2999 433d 9021 1d3c 257d 6abd 5496 f33e
00000220: bcc9 a13e 4169 253e 84a9 a63e 2bbb 6a3e
00000230: 118f ba3d b002 0b3b 8d11 1b3e f504 15be
00000240: 4026 aebe 6c5b 6a3e 9261 52be 290c 14bf
00000250: 8473 42bd e717 a3bd 653c f3bd 9bd1 b9bd
00000260: 6267 e7be 86b9 833e e631 df3e 8e0c 853d
00000270: f214 96bc 18ca ca3e 3974 1c3e a172 b43d
00000280: 8828 7abe b347 55be 2773 8f3d 1bb4 3d3d
00000290: 7ced 6fbd cbf6 e5bd 252e cbbe 2999 2ebe
000002a0: 5301 91be 8c96 dfbe 5214 78be 0dcc 3dbf
000002b0: 79ba 0dbf 0143 39bf 5d6a 5f3d e21d 63bd
000002c0: c781 74bd b812 e8bc 6ec3 e2bb dde6 333e
000002d0: 46ec 02be 20c6 17be 6d99 acbe 6b52 133e
000002e0: 36a8 b13e 3a81 d13d 2701 e2bc 358f 853e
000002f0: 4467 b63e 76d3 923e 1d99 93bd 057c 93be
00000300: e432 913e 149d 5f3e f63d 6b3d 9043 a03e
00000310: 6ac2 163e b890 a23e f3e8 0abf 75c7 173e
00000320: 11eb 9abd 87c5 b2be 64af 023e 4486 8a3e
00000330: 99e6 81be 694d 213e a34f 523e d24d 59be
00000340: 4b59 13be 6957 4b3e 08fb 94be 8157 b73e
00000350: b589 f33d 44be 7c3e 5ac7 7d3e 282f c4bd
0.14719766 0.23059176 -0.08931619 -0.4364819 -0.21844211 0.18183705 0.16935104 0.0006735075
-0.016011948 -0.36913592 -0.2544736 -0.038419884 -0.058250032 -0.19664876 -0.15277915 0.32491043
0.23676452 0.10010589 0.23569123 0.010196782 -0.27433243 0.29656503 -0.0020973773 -0.25253457
0.1486694 -0.022681754 -0.12879373 -0.009963708 -0.08711293 -0.043292824 -0.4138559 -0.61585593
-0.12514046 -0.41296366 -0.0925473 -0.047333404 0.07921931 0.16678531 0.1486175 0.30067658
0.40236458 0.35628587 0.14413019 0.16060778 -0.06699997 -0.025877513 -0.028812742 -0.080114335
-0.30089846 -0.6387091 -0.22460125 -0.05160418 -0.61852473 -0.25988427 -0.36965874 0.05671916
-0.012981888 -0.10986299 0.22739446 0.2682356 -0.44258618 0.11766943 0.10037233 -0.18445598
-0.13509683 0.17435712 -0.17576863 -0.042276863 0.38544202 -0.31403843 0.20190972 0.30122304
0.24334359 0.22512756 -0.09168811 -0.15206352 0.026926255 -0.10326165 -0.42412573 -0.24113764
-0.4905553 -0.2942131 0.21390747 0.20420693 0.08280659 0.14925383 0.1379411 0.47949246
0.127784 -0.50629354 0.44082788 0.5712328 0.318888 0.15729254 0.29768568 0.057891034
-0.14496844 0.0016745635 0.0018448627 -0.21719287 -0.09677963 -0.28731245 -0.29713964 -0.26774624
-0.2248252 0.41781196 0.0061217286 0.07204979 0.29994956 0.10930474 -0.06278406 0.28436375
0.0027500244 0.052342266 -0.14253187 0.227331 0.26945043 -0.25445408 -0.057534516 0.10340545
-0.016813444 -0.27605096 0.061667643 -0.554022 -0.50403994 -0.14257996 -0.12211124 -0.47920284
-0.32190618 0.45818722 0.25576976 0.16806619 0.047753487 0.009590521 -0.057248253 0.4757563
0.31599224 0.16153432 0.32551205 0.22922961 0.09109319 0.0021211319 0.15143414 -0.14552672
-0.34013557 0.22886437 -0.20545033 -0.57831055 -0.047473446 -0.079635434 -0.11876754 -0.09073182
-0.45196062 0.2572748 0.43592757 0.06496535 -0.018320534 0.3960731 0.1527871 0.08810926
-0.24429524 -0.20828132 0.070043854 0.04631434 -0.058576092 -0.11228713 -0.39683643 -0.17050613
-0.28321323 -0.43669546 -0.24226502 -0.7413948 -0.5536266 -0.72367865 0.054544795 -0.05544842
-0.059694078 -0.028329238 -0.0069202697 0.17568536 -0.12785444 -0.14821672 -0.33710805 0.14386909
0.34698647 0.10229726 -0.02758844 0.2608582 0.3562566 0.28676957 -0.072069384 -0.28805557
0.2835914 0.21837264 0.057432137 0.31301546 0.147226 0.31751037 -0.542617 0.1482218
-0.075643666 -0.34916326 0.12762219 0.27055562 -0.25371245 0.15752186 0.20538191 -0.21221092
-0.14389531 0.19857563 -0.29097772 0.35808948 0.118915 0.24681956 0.24783078 -0.09579307

layers.0.bn2.weight f4 [24]
00000000: b8be a43f 1215 633f 0345 8c3f 2c95 6e3f
00000010: 54ff 673f 5404 b33f 25d0 823f 723b 763f
00000020: 1919 553f 7a0e 923f edf0 8a3f 7ade 823f
00000030: ca19 6a3f e3f6 813f cbe5 9f3f 8bab 8f3f
00000040: dd72 573f 63ad 9e3f a711 a83f d2e1 8f3f
00000050: 25b9 753f 8ae2 983f 3ecd 793f e334 673f
1.2870703 0.88704026 1.0958561 0.9319637 0.90623975 1.3985696 1.0219771 0.96184456
0.8324142 1.1410668 1.0854775 1.0224144 0.914456 1.0153469 1.2492002 1.1224226
0.8415964 1.2396663 1.3130387 1.124079 0.95985633 1.1944134 0.975788 0.90315074

layers.0.bn2.bias f4 [24]
00000000: ab18 e2bd 89a3 233f 3900 efbd 5069 f93e
00000010: 4dba e33e 31d5 d93e 475e 25be baf8 1ebe
00000020: 7382 df3e 7a1f 3f3e 4d9d 143f a329 24bd
00000030: 32fd 2b3e ed10 903e ef2c 483c 7581 553f
00000040: 800c 733e d55b eb3e 1805 fc3e 61e5 043f
00000050: 3697 9b3d 8095 e53e d3aa 143d 8b8e 76bd
-0.11039861 0.6392141 -0.11669964 0.4871316 0.44478074 0.42545465 -0.16149245 -0.15524569
0.43654212 0.18664351 0.5805252 -0.04007877 0.16795805 0.28137913 0.012217744 0.8340066
0.23735237 0.459685 0.49222636 0.51912504 0.075972006 0.44840622 0.036295723 -0.060194533

layers.0.bn2.running_mean f4 [24]
00000000: 8eb4 c9bc 179b 3abe 0906 a2bc 84dc 01bf
00000010: 8663 173f 2f5f 30bf 0272 cbbc 6913 053e
00000020: c2f5 f2be de37 743e 64ce d93e d815 9dbe
00000030: a6d4 413e cf43 2fbf 867c 4fba e8c2 183f
00000040: 862e 07bf 1412 5d3e b2c0 d7be 8ce4 30bf
00000050: 17f3 833e c474 2a3f b422 b4bd 4bde 033e
-0.024622228 -0.18223225 -0.019778268 -0.50727105 0.59136236 -0.6889524 -0.024834637 0.12995686
-0.47453123 0.23849437 0.42540276 -0.30680728 0.18928775 -0.6846284 -0.0007914979 0.59672403
-0.52805364 0.21588928 -0.42139202 -0.69098735 0.257714 0.6658442 -0.087956816 0.12877767

layers.0.bn2.running_var f4 [24]
00000000: 163c 8c3d a92c 943d 7e59 023d 0eeb 113f
00000010: aa49 853f 8fbd 8a3f f40a ea3d 827b 753d
00000020: ec53 e53e c32f 763e 30c9 f23e d396 923e
00000030: 4269 eb3d 28f6 c43e 1063 7b3e 8ab0 4a3f
00000040: a7c4 f33e b71c b93e f664 bc3e 810f e53f
00000050: 3527 453e 264d cd3f 1295 303e 7a0a b73d
0.06847398 0.07235081 0.031823628 0.5699929 1.0413105 1.0839099 0.114278704 0.05993224
0.4479059 0.24041657 0.4741912 0.28630695 0.11494686 0.38469052 0.24549508 0.7917563
0.4761097 0.3615472 0.36795777 1.7895356 0.19253238 1.6039169 0.17244366 0.08937545

layers.0.conv3.weight f4 [12, 24, 1, 1]
00000000: 7702 23be 11b3 583e f81f 1cbd b4fd 1a3d
00000010: b178 01bd e3b9 833e fe4e 823e 7681 8a3a
00000020: 1460 d9be 82d4 d73e 07f3 08bd 304e 8e3e
00000030: 4e1b 5abd 42cc 823e d678 39bd de3f 19bd
00000040: 46f7 80bd f519 263e 69fd a73e 3894 b73d
00000050: ef98 f23c 1639 8ebe 2ffe 7e3d 517c 923e
00000060: fc76 a23e 156b 033c 84b9 f5bd 64e8 22bc
00000070: 960a 993b dec9 e2be 792f 183e 9be7 003e
00000080: 0484 073d 798a 803d 8956 42be e40c 053e
00000090: 6a5b 32be d2e1 6b3b ab51 783e d9a8 14be
000000a0: c31e 93bd ff6b 8b3e 78f6 d6be d07c 7d3e
000000b0: 2bbe 60bd 1a04 59be a7a6 703e 3396 873e
000000c0: 0830 d13d e489 5ebe b48d 2abe 4433 43bd
000000d0: 8a2d a5be b8d5 893e e4c0 36be 4e16 1dbe
000000e0: 52f2 e5bd 02eb 5f3d bbe6 bc3b d875 393e
000000f0: a0c5 283e cd2a 77be 9110 e53d 00cf f53c
00000100: f0b2 d3bd 6905 163e c4d2 b93d d768 42be
00000110: ea4d febe 8a7a 523e f3e3 44be 38a8 14bc
00000120: 5ca6 13bf 29e8 7ebe 5724 78bd c116 d0be
00000130: edf9 5a3c 4ed5 99be 15c1 363d 7c9d 4d3e
00000140: c2fc 083d d54d a43d c9bc 60bc 3af6 43be
00000150: 0e17 03be 039d 0cbe 7170 97be 6f6c 6ebe
00000160: cbe0 2b3e c769 edbd 90fb 9fbd 82f4 903e
00000170: a52c 8e3d c565 b53c a250 ef3c ab4b 263e
00000180: c6c4 5fbe 527b 973e ac06 d7bd 2fc0 eb3d
00000190: 9d5c 963d 655e 2a3c 3a36 0e3e f4b0 7e3e
000001a0: b497 133e fbbf 13be 9b24 943e 2ed5 bebe
000001b0: f7c5 ef3d 1410 9ebe b037 6ebe c330 553e
000001c0: 4ce8 4f3d 8728 d93d 8659 533d d31a cebd
000001d0: 4de5 8fbe 3282 83be 8ab4 a4bc 65a5 d53d
000001e0: fc17 6ebd 8ae3 d0be ea68 153e e93b 923e
000001f0: 559f 68be ed69 763e e5f2 513e 64c4 0f3e
00000200: 74ab b03e 4993 dcbd 7f19 053d e9f1 3a3e
00000210: 9ae9 2fbe 8bcf a83e ce39 863c d98d db3d
00000220: 1afb 84be 8c5e b83d a090 a43e 1cbb a83c
00000230: b053 90bd 2e48 71be 2dc7 663e d8a2 913c
00000240: d30d 073e 295b 14be d769 a33e 075a 443e
00000250: 496b fc3c e0bb 8d3e 2b41 95be 5dce c13d
00000260: 94c9 823d 84b7 2c3d b8ac 713e b67f afbe
00000270: 6946 d23d 6d6a dcbd e670 85be 544e 82be
00000280: 665e 73be 6611 a9bd 27e8 1f3d fae8 f5be
00000290: 1404 04bd f94e 20be e743 c6bd 1e45 813e
000002a0: 8c65 c83e 57b0 d73c b349 b1be db10 c4be
000002b0: 522a fe3d a865 913e cb93 6fbd 7857 67be
000002c0: e4d7 553e 6fef 48bd 04a8 e1bd 3fe9 80bd
000002d0: 11a2 f03d 3096 2ebc 5cc5 563e 89ea 9e3d
000002e0: 4d76 893e 8ffd 0c3e 286c d33e b723 233e
000002f0: 66d1 503d 99d2 e0bd 257f 7ebe 0127 e9bd
00000300: 0596 843d 2eed 1d3e baf6 8d3d a3ce 303e
00000310: f9c4 8abe c252 c5bc 52c5 783e 091b 123d
00000320: 2cff 283e 7eb2 08be 84cb b53e 45a9 90bd
00000330: 5b8b 883d 1efc 923e 8044 d5bc 1578 04bf
00000340: 1369 823e e869 8bbc fb70 18be c7f0 723e
00000350: 1b3c 6fbd df0c c93d a304 db3d b06b 33be
00000360: 250f b2bd 6f99 d53d 6f37 b23c 7fb1 263d
00000370: 9a17 c8bd bc82 123f f37c babe 703f e63e
00000380: 3f8d 1fbd 5f8c e8bc d560 973d 69b8 8a3c
00000390: 65f8 bcbe 8ed0 f13d 2508 fbbc 933e c93d
000003a0: 8bb3 98bc baea 263e 587e 093f 0f65 cbbd
000003b0: fb66 153d 7fc3 1b3e 95bc 24be 066c 713e
000003c0: 0c5d 2b3e cdb7 003d 7e45 bb3e bf54 ddbd
000003d0: e3d3 84be 1546 5ebe d5c6 0f3c 8683 123d
000003e0: 217f 0cbe 7784 753d 0f30 273e 182c 27be
000003f0: c433 2ebe 88de b3bb e451 9fbd 4e50 9b3e
-0.15918909 0.21162058 -0.038116425 0.037839606 -0.03160924 0.25727758 0.2545089 0.0010567147
-0.42456114 0.42154318 -0.033434894 0.27794027 -0.053248696 0.2554646 -0.045281254 -0.037414424
-0.06297164 0.1622084 0.32810524 0.08963817 0.02961394 -0.27777928 0.062254127 0.2861047
0.31731403 0.008021136 -0.11998275 -0.009943102 0.0046704514 -0.44294637 0.1486186 0.1258835
0.033084884 0.062764116 -0.18978323 0.12993199 -0.17417684 0.0035992754 0.24249904 -0.14517535
-0.07183602 0.27230832 -0.41984916 0.24754643 -0.05486886 -0.21192971 0.23501073 0.2648178
0.10214239 -0.21732289 -0.16655618 -0.047656313 -0.32261306 0.26920867 -0.1784702 -0.1534054
-0.112278596 0.05466748 0.00576481 0.1811136 0.16481638 -0.24137421 0.111848004 0.030005932
-0.10336864 0.14650501 0.090734035 -0.18985306 -0.4966882 0.20554557 -0.1922758 -0.00907331
-0.5767572 -0.2489325 -0.06058153 -0.4064236 0.013365251 -0.3004555 0.04461773 0.20079607
0.033444174 0.08022658 -0.013716885 -0.19136897 -0.12801763 -0.1373177 -0.29577973 -0.23283552
0.1678497 -0.11592441 -0.078116536 0.28311545 0.06942109 0.022143254 0.029213253 0.16239803
-0.21852407 0.29586273 -0.104993194 0.115112655 0.07341883 0.010398482 0.13887873 0.2487219
0.14413339 -0.14428703 0.28934178 -0.37272018 0.11707681 -0.30871642 -0.2326343 0.20819382
0.050758645 0.10603433 0.051599048 -0.1006371 -0.2810463 -0.2568527 -0.020105619 0.10431937
-0.058128342 -0.407986 0.14590803 0.28561333 -0.2271703 0.24063845 0.20502813 0.14039761
0.34505808 -0.1077028 0.032495018 0.18256344 -0.17178956 0.32970843 0.016384985 0.10720415
-0.25972825 0.090024084 0.3214159 0.020597033 -0.07047212 -0.2356269 0.22536917 0.017777845
0.13188867 -0.144879 0.31916687 0.19174968 0.030812876 0.276824 -0.29151282 0.09463189
0.06386104 0.0421672 0.23601043 -0.34277123 0.10267336 -0.107624866 -0.26062697 -0.25450385
-0.23766479 -0.082552716 0.039039757 -0.4802931 -0.03223045 -0.15655126 -0.0968092 0.25248045
0.39139974 0.026329203 -0.3462654 -0.3829411 0.12410416 0.2839787 -0.058490556 -0.2259196
0.20883137 -0.049056467 -0.110183746 -0.06294488 0.11749662 -0.010655925 0.20973724 0.07759578
0.2684807 0.137686 0.41293454 0.15931593 0.050980948 -0.10977668 -0.2485319 -0.113843925
0.064739265 0.15422508 0.06931825 0.17266326 -0.27103403 -0.024087314 0.24294022 0.035670314
0.1650359 -0.1334934 0.35506833 -0.070635356 0.06667205 0.28707975 -0.02603364 -0.5174573
0.2547079 -0.017018273 -0.14886849 0.23724662 -0.05840693 0.09816908 0.10694244 -0.17521548
-0.08694295 0.10429656 0.021754948 0.040696617 -0.09770127 0.57230735 -0.36423454 0.44970274
-0.038953062 -0.028387247 0.07391516 0.016933637 -0.3690826 0.11807357 -0.030643532 0.09826388
-0.0186403 0.16300479 0.5370841 -0.09931385 0.036475163 0.15211295 -0.16087563 0.23576364
0.16734713 0.031425286 0.36576456 -0.1080718 -0.25942907 -0.21706422 0.008775433 0.03576996
-0.13720371 0.05994078 0.16326927 -0.16325414 -0.17011935 -0.0054891743 -0.07779291 0.30334705

layers.0.bn3.weight f4 [12]
00000000: bf39 823f 9c44 8f3f 5dc8 883f 1c22 883f
00000010: 9130 803f 6689 793f 67de 6a3f 16df 853f
00000020: bbd3 7f3f b1b5 933f 660d 623f 2666 563f
1.0173873 1.1192813 1.0686146 1.0635409 1.0014821 0.9747528 0.9174561 1.0458705
0.9993245 1.1539823 0.88301694 0.83749616

layers.0.bn3.bias f4 [12]
00000000: 1c7f c63d 0340 24bd 382a 3e3c 1267 9fbc
00000010: 83c3 13be d002 ad3c d05a 36bd c890 3bbd
00000020: d5d0 96bd b793 ad3c b1a9 bc3d eab2 883d
0.09692213 -0.04010011 0.011606745 -0.019458327 -0.1443005 0.021119505 -0.0445202 -0.04579237
-0.0736405 0.0211886 0.092120536 0.0667475

layers.0.bn3.running_mean f4 [12]
00000000: c0b2 4e3f 3f2e acbe 69aa d2be bced 81bf
00000010: 5c1d 573e 55fe 2a3f 6a67 e6be 26f3 313f
00000020: d87d c23e a398 8d3f caf2 1ebf 63b7 793f
0.807415 -0.33629033 -0.41145638 -1.0150676 0.21007293 0.6679433 -0.45000774 0.6951164
0.37986636 1.1062206 -0.62089217 0.9754545

layers.0.bn3.running_var f4 [12]
00000000: 0ea2 073f e5ff be3e e91b fa3e 6410 ca3e
00000010: 90e1 f13e cea8 af3e 9adb 9a3e c546 fb3e
00000020: 6039 fa3e 2f57 103f 8480 b03e 37a3 343f
0.5298165 0.37304607 0.4884942 0.3946563 0.47242403 0.34308475 0.30245668 0.4907743
0.488719 0.5638303 0.3447305 0.70561546

layers.1.conv1.weight f4 [48, 12, 1, 1]
00000000: f381 d7bd d195 993e 93f0 af3a 417f 823c
00000010: 0a6e 743c dba9 9ebe 44ab 52bd f65d a3be
00000020: bf3d 70be 31de 74bd 16ec 9a3e 08fa 873e
00000030: 665e eebe 3528 adbe 3698 253e d7fe 823e
00000040: 879b bc3d 8b73 bcbe a4da 243d a18d 99bd
00000050: 21a4 7cbd db42 d13c 47ef b23d 442f 98bc
00000060: e727 0e3e 523c b3bd 10ff 023d e366 c53e
00000070: 3017 dbbe b42f 29be 87d6 a0bd ae9f cfbe
00000080: 2a92 a93d 3189 063e 526e abbe 0f9c 5ebe
00000090: 62a1 8c3e b1b2 283e 60b4 713d f4c9 9b3d
000000a0: c73b a73e 7eac 8d3d dd01 ec3d b46b 87be
000000b0: ead8 133e f7bc b4be 275b 143e 85a6 1bbe
000000c0: f740 4f3e 237f dd3d a293 fbbd ec95 583d
000000d0: 0771 4ebc 767a 1fbe e3da 633e 3923 d63b
000000e0: 4f7f d2bb c981 4a3e a774 0dbf 2971 0abf
000000f0: ac1c f63d c54d ad3e 2b72 843d 1525 b4be
00000100: ea0f f23d 5747 f33d f804 ae3e eafa a23c
00000110: ecc9 0cbe c743 093e 41ce 543e 4838 803e
00000120: ee7a 063f f45c ed3d cfa3 a9be a73b 8fbe
00000130: 34b0 1a3e 29de a1be 736a 26be a7fe f1bd
00000140: 0fdb dcbd c6b4 083e 072f b13e c81f a23d
00000150: 2df4 a73d 7ea9 fa3e 4aa1 1a3d 9cb0 973e
00000160: f9a6 5e3e fd4a a03e dec9 173e 6f53 c7bd
00000170: 51aa f6bc 8153 463e a979 f73d 96dd aebe
00000180: 0fe9 febc 9544 06bf 469f 9ebe 8148 833e
00000190: 5570 e63c 70bb 73bd caee 863e 75e8 d0be
000001a0: ade0 5abd 08d1 2e3e f1d6 203e de57 92bd
000001b0: 2a03 0b3f 76a1 3e3e 0705 dcbb e8fb d43d
000001c0: 7622 f3be aa43 923e 8b39 5f3d c967 20be
000001d0: 8188 8f3e b946 90be 1e4a 8abe efd5 ed3d
000001e0: 42d3 113e 80dc 13ba b61c 4c3d b0c1 18be
000001f0: ead2 ccbd b871 7c3e 5e7f 09bf 9257 393e
00000200: 5324 d1be 663a b6bd 27f5 11be c326 c4bd
00000210: f168 82bd a791 23be 874a 46be 8726 6ebe
00000220: 4ddc b43e 7449 62be 5e85 17be 1bf2 903e
00000230: 5807 e7bd e23d 4abe d911 b1be 646f 283e
00000240: 94e4 ac3d 9ee5 4bbe 56b0 01be 4162 aebc
00000250: 3445 70be ddad 933e b35c a8bd 3eff cb3e
00000260: 31a2 57be 0a7b d83e 28b6 93bd d108 27be
00000270: 7c5c 913d bd20 d13d 1a09 b3bc 59c8 a2be
00000280: 82a3 6bbe 54c7 63bd 4bd9 a23e 5b90 e73e
00000290: 5bab 9d3e 26c9 d5bd aca2 da3d 1c06 033d
000002a0: 33a7 cb3d 43ae 583e e5c3 1f3f ce9c 923e
000002b0: 47e6 87bd d5d0 87be 0341 0a3d 9153 eb3d
000002c0: b468 453d 99c2 6bbe ae84 093e cca8 9cbe
000002d0: d701 b43c d44f 98be ae8d b43e 6958 63be
000002e0: 9a79 d3be 3f02 4fbc 0f4b 753d 01ae 81be
000002f0: 54e0 0ebe 3301 acbd 292f 803e 9775 e73d
00000300: bb26 17bd ad41 8ebc 6bfc 183e 7b41 ccbd
00000310: c92d c13e 9f01 803d 2e15 f6be 7719 1c3e
00000320: 71bc c8be 658b e03d 4f04 eb3e 5cbb 9b3d
00000330: 9290 a73e 7d23 efbc 6deb 8abe 89c2 83bc
00000340: e18a 62be 0850 023e b55c fa3d 6d52 a53e
00000350: 105c 86bd 9cd8 a23e a7e6 cebe 2269 d73c
00000360: 762b c3be 74b4 1bbc 8190 5abd af0d 2fbe
00000370: e953 eabe 6f51 343e c168 5b3d 8e6d 7fbe
00000380: 9dc3 9b3e 77d3 f53d 88af 0bbe bf6c 203e
00000390: 289e 89bd 3f75 083e 69dd 623e edf8 e9be
000003a0: 7ca0 99bd 2846 62bd a219 dd3e c448 19be
000003b0: 6dd5 153e d26a d8bd e0e3 96bd 25a2 7fbe
000003c0: 07dc 37be 1cad c33d d232 583e 9857 29bf
000003d0: 1d57 57be 74ae babd 41d7 3bbd 531d 593e
000003e0: 935f 8dbc 2af2 47be 2a41 983d a3d8 76bd
000003f0: 19b3 a43e 4b4b 51be 6e10 efbd c687 4a3e
-0.10522833 0.29997113 0.0013423137 0.01592982 0.0149188135 -0.30988964 -0.051432863 -0.31907624
-0.23461054 -0.05978221 0.30258244 0.26557946 -0.46556395 -0.33819738 0.16171345 0.25585052
0.09209352 -0.36806902 0.040247574 -0.07497717 -0.061679963 0.025544574 0.08737045 -0.018577226
0.13882409 -0.087517396 0.031981528 0.3855506 -0.42791128 -0.16522104 -0.07853418 -0.40551513
0.08279832 0.13138272 -0.33482605 -0.21739219 0.27466875 0.16474415 0.05900991 0.07606879
0.32662794 0.06917666 0.11523793 -0.26449358 0.14438215 -0.3530042 0.14487897 -0.15200241
0.20239626 0.10815265 -0.12284018 0.05287735 -0.01260019 -0.15574059 0.22251467 0.0065349606
-0.006423868 0.19776072 -0.5525612 -0.5407892 0.120171875 0.33848396 0.06467088 -0.3518454
0.118194416 0.11878841 0.33988166 0.019895036 -0.13748902 0.13404761 0.20781805 0.2504294
0.52531326 0.11589995 -0.3313279 -0.279752 0.15106279 -0.31614807 -0.16251545 -0.11816149
-0.107839696 0.1335021 0.34606192 0.07916218 0.0820087 0.48957437 0.037751473 0.2962693
0.21743383 0.31307212 0.148231 -0.097327106 -0.03011051 0.19367792 0.12083752 -0.34153432
-0.03111699 -0.524484 -0.3098089 0.25641254 0.028129736 -0.059504926 0.26354057 -0.4080235
-0.053436924 0.17071927 0.15706994 -0.071456656 0.543017 0.1861628 -0.0067144665 0.1039961
-0.4748723 0.2856725 0.054498237 -0.15664591 0.28033832 -0.28178957 -0.27009672 0.1161307
0.14240745 -0.0005640462 0.04983207 -0.14917636 -0.10001166 0.24652755 -0.5370997 0.18099812
-0.40848026 -0.08897857 -0.14253674 -0.09577706 -0.06367672 -0.1597353 -0.19364367 -0.23256885
0.35324326 -0.22098333 -0.1479697 0.28309712 -0.112806976 -0.19750169 -0.3458393 0.16448742
0.08442035 -0.19911811 -0.12664923 -0.021287085 -0.23463899 0.28843585 -0.08220806 0.39843172
-0.21057965 0.4228137 -0.07212478 -0.16311957 0.07097718 0.102113225 -0.021854926 -0.31793478
-0.23011592 -0.055610016 0.31806406 0.45227322 0.30794796 -0.10438757 0.106755584 0.03198825
0.09944 0.21160226 0.62408286 0.28635257 -0.06635719 -0.26526514 0.033753406 0.114905484
0.048195556 -0.23023452 0.1342952 -0.30597532 0.021973534 -0.29748404 0.35264343 -0.22201695
-0.41303712 -0.012634813 0.059886035 -0.25328067 -0.13952762 -0.08398666 0.2503598 0.11301725
-0.03690217 -0.017365301 0.1494004 -0.09973427 0.37730244 0.06250309 -0.48063034 0.15244089
-0.3920627 0.109640874 0.45901725 0.07604095 0.32727486 -0.029191727 -0.2713274 -0.016083973
-0.2212329 0.12725842 0.12224714 0.32289448 -0.06560528 0.31805885 -0.4041035 0.026295248
-0.38119096 -0.009503473 -0.053360466 -0.17095064 -0.45767143 0.1760919 0.053566698 -0.24944136
0.3042268 0.12003224 -0.13641179 0.15666483 -0.06719619 0.13325976 0.22154774 -0.45697728
-0.07501313 -0.055242687 0.4318362 -0.14969164 0.14632197 -0.10567249 -0.073676825 -0.24964197
-0.17955028 0.09554502 0.21113136 -0.6614928 -0.21029325 -0.091153055 -0.04585958 0.21202593
-0.017257487 -0.19525972 0.07434304 -0.060265195 0.3216789 -0.20438878 -0.116730556 0.19778356

layers.1.bn1.weight f4 [48]
00000000: 8501 c83e 6929 783f 5e09 a23f 16d6 3f3f
00000010: d996 0e3f 8557 403f d8aa de3e ad18 953f
00000020: c5ac 223f 391e 2c3f 4119 973f 83ae 8d3f
00000030: 6ba6 5d3f 6c49 153f 55b7 5b3f eb41 b83f
00000040: 2dd8 663f 866e 3b3f ce0a 4a3f 67a0 f23e
00000050: b696 243f 9e19 1e3f 2a9c 593f 94be 893f
00000060: 1e98 013f 110f 523f 9e1f e53f 837b a43f
00000070: 7ff1 083f 7cf3 993f ef33 f53e cb13 393f
00000080: 8391 e23e 6021 b13f 16c1 643f 56ce ae3f
00000090: 8827 703f 13b1 de3f bcfc 1a3f b680 9c3f
000000a0: 3de1 ea3e 8a67 503f 4a60 da3e 9f78 5a3f
000000b0: 6bd6 843f dc11 513f 8ea9 fe3e 95cc 3e3f
0.3906366 0.96938187 1.2659109 0.74936044 0.55698925 0.75133544 0.43489718 1.1648155
0.63544875 0.67233616 1.1804582 1.1068882 0.8658206 0.5831516 0.8582662 1.4395117
0.9017361 0.7321552 0.78922737 0.47388002 0.64292467 0.6175784 0.8500391 1.0761285
0.5062274 0.8205424 1.7900274 1.2850193 0.53493494 1.202743 0.47891185 0.72295827
0.44251642 1.383831 0.89357126 1.3656719 0.9381032 1.7397789 0.6054189 1.222678
0.45874968 0.8140799 0.42651588 0.85340303 1.0377935 0.81667876 0.49738735 0.7453092

layers.1.bn1.bias f4 [48]
00000000: ee08 1d3f 98f4 afbe 673f 313d 49e0 893e
00000010: 665b e33e 26f5 b33e 38ee 0b3f a3b3 c7bd
00000020: 69d9 c73e 99a1 a23e 4cab 44bd abab 6dbe
00000030: 37ec 703e 2d70 043f 7b59 653e 62e6 e53d
00000040: 9e30 fb3d bad3 ab3e f81e a1be d004 0b3f
00000050: 02de dc3e 2ff5 c43e 48ef 423e a182 583e
00000060: 09c4 0d3f 0993 85be ace6 843e 7c13 453c
00000070: 6933 e73e 928a a93d 6079 023f a56b a13e
00000080: 03e8 0c3f 1d07 f13c 483c 49be d9b9 5e3d
00000090: 3043 e63d 0f17 95be b984 cabe 5c68 a2bc
000000a0: e154 f53e c360 9cbe 8593 0f3f 1bb1 863e
000000b0: 656d f8bd f278 57be 7956 193f 3e0a 9b3e
0.6134175 -0.34366298 0.043273356 0.26928928 0.4440567 0.3514797 0.5466037 -0.0975106
0.39033058 0.31763914 -0.048014924 -0.23210017 0.23527609 0.51733667 0.22397415 0.11225583
0.12265132 0.33559972 -0.3146894 0.5430422 0.4313813 0.3846831 0.19036591 0.21143581
0.5537725 -0.2608874 0.2595724 0.012028571 0.4515641 0.08278383 0.50966454 0.3152744
0.5504152 0.029422337 -0.19651902 0.054376457 0.11243284 -0.29119155 -0.39554384 -0.019825153
0.4791632 -0.30542573 0.5608447 0.26306996 -0.1213024 -0.2104223 0.5989757 0.30281252

layers.1.bn1.running_mean f4 [48]
00000000: 7247 3f3d 86a7 2cbd cf1a 293d 0324 11bd
00000010: 532a a6bd c753 c23c 2322 a33d 3f3a 4ebd
00000020: ca8d eb3c 2b5d a13d bff3 7a3d 3192 9bbd
00000030: a98f 463d c97c e0bb 14ee 94bc 2c1f 053e
00000040: 56f2 253d 5656 ad3c 1af7 c83c 56ab 27bd
00000050: af9d 6a3c b9bc 1f3d 548d 683b ad46 b7bc
00000060: 062d c83a dd38 a2bd d3d1 56bd c1fa 28bd
00000070: d3d1 6a3d fa68 3fbd 00d6 01bd a79c 51bc
00000080: 004d cebd 8397 b43c c530 0ebd 4b3e 81bc
00000090: 93a7 793d dee8 053d 0074 673d 840c 66bd
000000a0: d527 573b 9b21 0e3d 2c9c b1bc 3e3f 11bd
000000b0: 62af 223c a839 61bd 62ae df3c 783e 82bd
0.046698995 -0.04215195 0.041285332 -0.035434734 -0.081135415 0.023721589 0.079654954 -0.050348517
0.028754134 0.078790985 0.06126761 -0.07596243 0.04847685 -0.006850813 -0.01817993 0.13000172
0.040514313 0.021159332 0.02453189 -0.040934883 0.014319821 0.03899834 0.0035484629 -0.022372568
0.0015272207 -0.07921002 -0.052446198 -0.041254763 0.05732901 -0.046730973 -0.031698227 -0.0127936965
-0.1007328 0.022044903 -0.03471448 -0.015776774 0.060950827 0.032692783 0.05650711 -0.05616428
0.0032830138 0.034700017 -0.021680914 -0.035460703 0.00992951 -0.054986626 0.027304832 -0.06359571

layers.1.bn1.running_var f4 [48]
00000000: f73c 453f be1f 153f 1038 933f 60c6 383f
00000010: 70eb 4f3f 85df 253f df04 3d3f f545 263f
00000020: ed06 613f 2ac5 8a3f 7aa2 483f f573 153f
00000030: 3300 a93f c224 f73e 6d6d 373f 571f 113f
00000040: bff8 883f a5ff 6d3f 0b15 153f a25b 1a3f
00000050: 547d 8b3f 02a1 003f c5d0 713f fbea 173f
00000060: 63bd f93e d5b2 453f f8b0 503f 6395 5e3f
00000070: 8f4a f03e 6cd3 b63e a5b3 303f 766e 863f
00000080: 96bb 433f d2da 293f 780c 673f 270f 063f
00000090: 2f54 0f3f d313 e23e 07a5 a03f cd9e 0c3f
000000a0: 2931 543f 6e25 383f eba8 763f 0987 023f
000000b0: abe6 043f 7561 333f 5573 423f a5c9 283f
0.7704615 0.5825156 1.1501484 0.72177696 0.81218624 0.6479419 0.7383556 0.64950496
0.8790119 1.084142 0.7837292 0.5838006 1.3203186 0.4827023 0.71651345 0.56688446
1.0700911 0.9296821 0.58235234 0.6029607 1.0897622 0.5024568 0.9445918 0.59342927
0.48777303 0.77226 0.8152003 0.86946696 0.46931884 0.35708177 0.69024116 1.050246
0.7645811 0.6634952 0.902534 0.5236687 0.5598783 0.4415575 1.2550362 0.5492981
0.8288751 0.71932113 0.963515 0.509873 0.5191447 0.7007058 0.7595723 0.65932685

layers.1.conv2.weight f4 [48, 1, 3, 3]
00000000: 0ca6 11bf 1165 f9bd 278f 63bd 1bff 8abc
00000010: fa3d 03be d946 07be a55c db3e b192 993e
00000020: 9342 0b3e abed db3d 1632 853e 5db5 203e
00000030: f899 333e 3b92 e63e 9ea9 513e 5eac 913e
00000040: 23e2 0d3e 62dd d7bc 5b38 b3bd b939 62be
00000050: bbda 18be 0f92 4dbe 45c5 eabe cbf5 5abe
00000060: 7ccd a03d a72b f6bd 621b 5cbe 972e 93bd
00000070: a73c b5be ae19 7fbe 7f39 9e3e 8b95 7b3d
00000080: e70f a2be fa17 523e 6c80 e63e 5cbb 8a3d
00000090: b591 b93e 783f 403e 803b 57be 094e 403e
000000a0: 261f 16be 3763 91be d2cb 7bbd da82 c8be
000000b0: ec4a 1a3e 77d5 eabe 3e40 9fbd c8b7 d0bd
000000c0: 8484 31be bd57 aabe fd62 a7bd 2c73 683d
000000d0: 4740 49be 45d5 3bbe 66c8 2d3e 0327 fdbc
000000e0: fa04 91be 35e6 a03e 8b9f 773d b6ef aebe
000000f0: 135a 9a3e 1351 b7bd 767f f4bd 7087 56bd
00000100: ca96 123e a725 ae3d d60f c63e a259 ba3e
00000110: 7ec1 d3bc 7dfa a73e d564 883e 6a24 14bc
00000120: db4e 36be 5b25 7abd 4a78 31be dee4 35be
00000130: e9af b5be 31e7 71be 814d 85be 3f5b ecbe
00000140: 5e89 56be 983e 323c f0b4 b2be 8624 2dbe
00000150: 63ac 95be 84bd e0be 3590 64be 8b70 46be
00000160: 3425 033d 2a0f 0bbe cc3f aa3e 8bc3 953e
00000170: 5e9e 6e3e 0049 4b3e 09c0 983e 0c55 233c
00000180: e648 96bd eb28 97be fc35 5dbe cb29 11be
00000190: 4d94 a0bd 0d5e 9cbc 5140 27be 0350 8b3e
000001a0: 0e16 b33e d2b3 20be a177 b63e 436b c93e
000001b0: 4a79 3fbe ff5a 6fbe c40a 5cbe 0aea eabd
000001c0: 4ae8 3bbe 0bfa e1be 1a75 e7bd dd9e cfbd
000001d0: 4085 54be ac3e d83d dffa 3dbd 04dc b33a
000001e0: 49e7 08bf 624e a03e 7d39 aab9 c550 203e
000001f0: 1794 b8be 48df 0b3e d898 a83c c4cd 8d3e
00000200: 73ab 8b3e 3ee3 b83e a664 523e 29f3 3cbe
00000210: 303b 7bbe c362 ddbe d264 4c3d cb4e 273e
00000220: 2616 f03d 7c6a 833d 0c8f 423d 4689 683e
00000230: 8c9c 5d3e 55cf 5ebe 94dc fe3d 8126 9e3e
00000240: 52d4 52be cdd5 49be 566e ce3c 5216 dabc
00000250: e263 debe a8c3 90bd 22a9 c2bc a6ba 44be
00000260: d4c7 c5be 70e3 dfbd 06c7 82be d1a8 e03d
00000270: e48f 493e c2ae 163f 202c 7b3e bac5 013c
00000280: 4224 d9bd 8168 d6be 0d70 953e 0fda 783e
00000290: 99cf ce3d 6262 2c3e eac9 b73e 4b94 4c3e
000002a0: e20f 23be 9627 093e 2ad1 163e 4d32 89be
000002b0: 9404 6a3e 3f0d 8f3c 19f6 573e 53d6 c4be
000002c0: 4894 463e e80d c73d 29a3 e13d d76e cdbd
000002d0: d1b8 bb3b ff68 32be f99f 02be c9ea f8bd
000002e0: d262 9dbe 708d 11be d06a c1be b1b5 6fbe
000002f0: 33e7 27bb ecb4 ac3d be3b 2cbd 4e1a 78be
00000300: cdb3 6d3d 3623 f83e c715 bb3c b7f2 db3e
00000310: 2425 7cbc b32a 81bd ffa1 a33e c83f 563e
00000320: 86d1 b13d c618 f83e 898a 983e 3196 db3d
00000330: 0da2 343e 1fc2 173e 5e99 023e 47ce 9b3e
00000340: fce5 8dbe eb17 86bc 91b0 8a3e 78a2 5e3e
00000350: 7567 a0be 2aa2 8dbe 36cf 603e 1c69 493e
00000360: 6ed8 abbd a23e 3f3e fd9b 6abd 2344 9dbe
00000370: dcbf 743d 7876 553e 5365 11bf 49a9 c63d
00000380: a240 d03e da90 2b3e ca6d 2e3e 990b 2d3e
00000390: f5e4 d73d 9c31 cd3e 4960 d93e 8b66 083e
000003a0: dbca 9c3e 2acb b93e fc45 913c 67c9 b6bd
000003b0: ff9e ca3d 9942 013e 67b6 bfbe ab46 733e
000003c0: 7b4c 0b3e aebf debe bbea 323e 3a81 5c3e
000003d0: fc04 333d 039c 093e 66bb 8f3d f21c 153f
000003e0: be1e 463d c2bf 1a3e 8cb7 143f 61f8 2abd
000003f0: 1a19 68be b80f 583d a7be 0c3d 526a d1be
-0.5689399 -0.1217748 -0.055556443 -0.016967347 -0.12816611 -0.1321062 0.4284412 0.2999473
0.13599615 0.10738691 0.26014775 0.15694185 0.17539203 0.4503344 0.2047486 0.28451818
0.13855796 -0.02635068 -0.08750983 -0.22092332 -0.14927189 -0.20075248 -0.4585363 -0.21382825
0.07851693 -0.12020045 -0.2149482 -0.07186621 -0.35397837 -0.2491214 0.3090324 0.061421912
-0.31652758 0.20516959 0.45019853 0.06774017 0.36243978 0.18774211 -0.21018791 0.18779768
-0.1466032 -0.28396007 -0.061473675 -0.39162332 0.15067643 -0.45865986 -0.07775925 -0.101913035
-0.17335707 -0.33270064 -0.081731774 0.05675046 -0.19653426 -0.18343075 0.16970977 -0.030902391
-0.2832411 0.31425634 0.060454886 -0.3416726 0.30146846 -0.089510106 -0.11938374 -0.052375257
0.14315334 0.08503275 0.38683957 0.3639651 -0.0258491 0.32808295 0.2663943 -0.009041885
-0.17803518 -0.06107078 -0.17331043 -0.17763087 -0.3548577 -0.23623349 -0.26035693 -0.46163365
-0.20950839 0.010879181 -0.3490367 -0.16908464 -0.29233083 -0.4389459 -0.22320636 -0.19378869
0.0320179 -0.13580003 0.33251798 0.2925075 0.233026 0.19852066 0.2983401 0.009969007
-0.07338123 -0.29523405 -0.21602625 -0.14176099 -0.07840786 -0.019087816 -0.16333129 0.27209482
0.34977764 -0.15693596 0.35638145 0.39339647 -0.18698612 -0.23374556 -0.21488482 -0.11470421
-0.1835033 -0.4413608 -0.11301632 -0.10137723 -0.20753956 0.10558829 -0.046381827 0.0013722186
-0.53477913 0.313098 -0.0003246776 0.15655811 -0.36050484 0.13659394 0.020580694 0.2769605
0.27279243 0.36110872 0.20546207 -0.18452133 -0.24534297 -0.43239412 0.049900837 0.16338651
0.117229745 0.06416795 0.0474997 0.22708616 0.21641749 -0.21758778 0.12444416 0.3088875
-0.20588806 -0.19710465 0.025199097 -0.026621971 -0.4343558 -0.070685685 -0.02376229 -0.19211826
-0.3862902 -0.10932052 -0.25542468 0.10969699 0.19683796 0.5886041 0.24528551 0.007920677
-0.10602619 -0.41876605 0.2918705 0.24301933 0.1009819 0.16834405 0.35896236 0.19978444
-0.15924028 0.13394007 0.14728227 -0.2679619 0.22853309 0.01746237 0.21089973 -0.38444766
0.19392502 0.09719449 0.110174485 -0.10030907 0.005728819 -0.17422865 -0.12756337 -0.12154157
-0.30739456 -0.1421411 -0.37776804 -0.23409154 -0.0025619983 0.084329456 -0.042049162 -0.24228784
0.0580328 0.48464364 0.022837533 0.42958614 -0.015389714 -0.06306972 0.3195953 0.20922768
0.086825415 0.484564 0.29793194 0.10722006 0.17639942 0.14820145 0.12753817 0.30430815
-0.27714527 -0.016368827 0.27087834 0.21741664 -0.3132893 -0.27662784 0.21954045 0.19669002
-0.0839089 0.18676236 -0.05727767 -0.30716047 0.059753284 0.20845973 -0.56795233 0.09700257
0.4067431 0.16754475 0.17034069 0.16898955 0.10541717 0.4007691 0.42456272 0.13320367
0.30623516 0.36287814 0.017733566 -0.08925133 0.09893607 0.12623061 -0.3744385 0.23757426
0.13603394 -0.43505615 0.17472355 0.21533671 0.043705925 0.1343842 0.07018165 0.5824729
0.04836916 0.15112212 0.5809257 -0.04174078 -0.22665825 0.052749366 0.034361508 -0.40901428

layers.1.bn2.weight f4 [48]
00000000: e5e0 833f aeb5 653f 0d83 4e3f ac2e a93f
00000010: 2f8d 7a3f b2f2 973f fd0c 933f 1d44 873f
00000020: 7100 6c3f 09e8 623f d41a b23f df41 5f3f
00000030: 416a ab3f 57e5 783f ca98 663f 2257 803f
00000040: 284f 903f f8a8 8d3f 26dc 643f c6a6 513f
00000050: 9c7f ab3f a92d 5e3f 043c 713f 04bc 833f
00000060: 23d1 9a3f dbf1 613f 7514 843f d80e 933f
00000070: 4afc 6a3f 68e7 6a3f 2b3e 5d3f cfee 5e3f
00000080: 52a3 893f d765 6d3f 2690 6c3f 8e79 6a3f
00000090: 85af 723f d0c9 803f 110c 723f f1bf a93f
000000a0: bb92 7d3f b11d 5e3f 809d 973f 4296 6e3f
000000b0: 5026 653f 8ba6 463f 2512 983f 9d10 813f
1.0303007 0.89730346 0.8066872 1.3217368 0.9787168 1.187094 1.1488339 1.0567662
0.92188174 0.8863531 1.3914437 0.87209886 1.3391801 0.97224945 0.9007689 1.0026591
1.1274157 1.106719 0.8939842 0.818951 1.3398318 0.8678842 0.942322 1.0291753
1.2095073 0.8825967 1.0318743 1.1488905 0.9179121 0.9175935 0.86422986 0.87083143
1.0752966 0.9273352 0.92407453 0.9159173 0.9479907 1.0061588 0.9454966 1.3261701
0.9905202 0.86764055 1.184494 0.93198025 0.89511585 0.77597874 1.1880537 1.0083195
