Project/Project_files/ckpt/mobilenetv2_19_4_stem/mobilenetv2_19_4_stem_71.pt (torch, 45163 bytes, 52 tensors)

conv1.weight f4 [24, 3, 3, 3]
00000000: 39f5 1dbe c44c b8bd e67c 183e edc2 ddbc
00000010: a07e c93d 0326 363e aeb3 32be d50a bdbe
00000020: d169 f2bc fae0 3c3d 5f7f 073e 3886 24be
00000030: 3e42 7cbd e9b4 053f a000 bcbd 4f95 213d
00000040: 0ad7 97bd 74ff 4abe 458c 4e3e 3fe2 b83d
00000050: a49b 21bd 61f5 3f3e 4217 163f 8ef2 8abd
00000060: 94b2 f6bd ba4b 4dbe 3397 d3bd 9002 873e
00000070: a890 e6bd a309 01be 518a 553e 742f 5bbe
00000080: 772d b53d 7bc6 da3d b41d b0bd 7cbd d6be
00000090: e77a 133e c525 c83d cb3f 31bd dd4a 843c
000000a0: 30ef 1fbe 7dd0 843e 3047 abbd 88ba dfbc
000000b0: 28f1 8dbe d348 83bd 18e4 96be be25 913c
000000c0: 0b75 07be 23ba aabd 6eba b73e 4be0 8abe
000000d0: 7a95 9a3c 3464 b93e 93c7 cb3d 6176 e0be
000000e0: bfe9 a9be 7bb0 6e3e 5376 24be ea1f 98be
000000f0: 3677 693e d592 8dbd fdd8 c43e 2e84 043c
00000100: ea00 9e3e c87a 3d3e 9cbf 223e e161 00be
00000110: b202 dfbc 29e2 9abd be6e 2abd cec6 d9bc
00000120: a5e4 afbd 5ecd 05be e423 86bd 9634 483d
00000130: db9b bfbe c55a b4bc 19ed eb3c 3eb5 bfbd
00000140: b898 b83e ada8 883e a24c c9bd 517c 003e
00000150: 6b0e 313e 7110 e6bd 8632 8cbd 54e6 463e
00000160: a2b1 b2be 0033 a6be e9ba d73c c066 b53d
00000170: e331 653e 1c50 8bbb 11b4 63bb 404a 0e3e
00000180: 4f44 b73e 037c f2bc 6097 65be 2bad 7b3d
00000190: 8aae 10bc 35de 823e 4f1a 46bd 2ea2 65be
000001a0: 17e9 413e b56b e73d 3ea2 d7bd b74d 7dbd
000001b0: 94e2 563d e43a 2f3d cc1a c5bb 8cd4 81be
000001c0: a282 95be 0b58 4a3e a40a 4ebd b078 96be
000001d0: fa6d a13d 56ec ee3d 3215 b7bc 0e14 eabc
000001e0: 3055 ff3c e98b bdbd b512 043f 09e0 ea3d
000001f0: 4b69 01be ff01 9d3e 3e59 8abc 35a1 963d
00000200: 0992 e3bd 8c19 343b bb17 e3bd 0004 ae3e
00000210: 8b9c 453e 7b2f 9abd c91d 63be 74b2 4ebe
00000220: 2bd8 313e b909 203c d1b9 bbbe 1f30 4f3e
00000230: 017c 213b 669c fc3d 12a5 453d 3182 2ebe
00000240: 1287 c6bd 8e76 873d 0423 c73d 352c 06be
00000250: 69e5 fd3e 4c73 383e e73a 43be 5d88 b63c
00000260: 9f86 3cbe b773 063e c985 f5bd e1f2 03be
00000270: bac6 eebd 2605 bf3e fd78 fabd 696c 323b
00000280: 050e 153e 16f4 06bd 0d13 c1be fafa 0abe
00000290: 19bb 69bd 9ff5 5a3e 9334 053e 74db 2c3e
000002a0: da25 aa3d d134 ad3d a67f 12bd b29c c6bd
000002b0: c5e7 43be 267b 753e 2488 593e 292e 25be
000002c0: 848b 1e3e 3ced a53d eff3 2e3e 6761 373e
000002d0: 9988 a83d dccc 16be d655 0b3e e7cc 82bc
000002e0: f94d f6be 47cc e7bd 0083 1ebe a442 96be
000002f0: 3c5e 82be 8abd cbbd 910e 8abd a468 bf3d
00000300: 7bb1 1cbd f3ca 38be dc0e a8be 572d ac3d
00000310: 7741 b93d 1494 2d3e 04a7 f8bd 17bf 90be
00000320: c9ef a1bd 8a6d a0bd 1e77 67bd 5a46 43be
00000330: aef2 ad3d 90ce cf3e b7c0 933e 9dd6 1abe
00000340: a999 da3d 6077 42bd 1811 913c 20f9 643e
00000350: 5a11 2ebe b02e b7bd 1815 043f 3288 a93e
00000360: a9be e5bd 2019 26be 5898 1fbe 4076 253d
00000370: 0766 29be 22ad 6dbb a405 5e3e 70c0 823e
00000380: c32e 7e3e 0b4c 353c 8b28 74be c91d f73d
00000390: 2f03 0f3e fdba 85be eacc e23d 7e3e afbe
000003a0: 714c bf3d 1576 863e 98c8 913e 2d99 53bd
000003b0: 8f33 813d e543 043f 6f85 1cbe e9e4 c6bd
000003c0: e76d 47be ac61 8bbb 10a6 8f3d 6906 54bd
000003d0: 6926 00bf 8306 61be 220b f03d 91a8 57be
000003e0: 10d5 2c3e cfff 473e ee67 6f3e 4b5a 2f3e
000003f0: c164 733d dbdd 5d3e c101 283e 920c 9abd
-0.15425576 -0.08999017 0.14891395 -0.027070487 0.09838605 0.17787938 -0.17451355 -0.36922327
-0.029591473 0.046112992 0.13232182 -0.16066825 -0.06158661 0.5222917 -0.09179807 0.039449032
-0.07414062 -0.1982401 0.20170696 0.09027528 -0.03945507 0.18745948 0.5862924 -0.06784545
-0.1204578 -0.20048419 -0.10331573 0.26369143 -0.1125806 -0.12601332 0.20853545 -0.2140482
0.08846562 0.106823884 -0.085994154 -0.4194144 0.14402352 0.09772829 -0.04327373 0.016148979
-0.15618587 0.25940314 -0.08363187 -0.027310625 -0.2772305 -0.064103745 -0.29470897 0.017718192
-0.13228242 -0.08336284 0.35884422 -0.27124247 0.018870104 0.3620926 0.09950175 -0.43840316
-0.33186147 0.2330951 -0.16060762 -0.29711848 0.22799382 -0.069127716 0.384468 0.008088155
0.30860072 0.18503869 0.15893406 -0.12537338 -0.027222965 -0.07562668 -0.04160952 -0.026584055
-0.08588532 -0.13066623 -0.06549814 0.048878275 -0.37423596 -0.022015939 0.02879958 -0.09360741
0.36054015 0.2669119 -0.0982907 0.12547423 0.17290656 -0.11233605 -0.06845574 0.194238
-0.34901148 -0.32460785 0.026334243 0.08857489 0.22382312 -0.004251493 -0.003474478 0.13895512
0.35794303 -0.029600149 -0.22421026 0.061444443 -0.008830676 0.25560156 -0.048364934 -0.22425148
0.18936573 0.1129984 -0.10528992 -0.061841693 0.052462175 0.04278077 -0.0060151573 -0.25357473
-0.29201227 0.19760148 -0.050303116 -0.29388952 0.078823045 0.11666171 -0.022348974 -0.028574016
0.03116855 -0.09255201 0.51591045 0.114685126 -0.12637822 0.30665585 -0.016888257 0.073549666
-0.11111838 0.0027481047 -0.110885106 0.33987427 0.19297998 -0.075285874 -0.22179331 -0.20185262
0.17367618 0.009767943 -0.36665204 0.202332 0.0024640562 0.12334518 0.048253126 -0.17041852
-0.09693731 0.066144094 0.097234756 -0.13102801 0.4958909 0.18012732 -0.19065438 0.02228182
-0.18410729 0.13130079 -0.11988408 -0.1288562 -0.11658998 0.37308615 -0.12230108 0.0027225262
0.1455613 -0.032947622 -0.37709847 -0.13572302 -0.057063196 0.2138276 0.13008337 0.1688059
0.08308001 0.084573396 -0.035766266 -0.09697856 -0.19131382 0.23972759 0.2124334 -0.1613089
0.15482908 0.081018895 0.17085241 0.1790825 0.08229179 -0.14726585 0.13606963 -0.015966846
-0.48106363 -0.1131826 -0.1547966 -0.29347718 -0.2546252 -0.09948261 -0.067410596 0.093461305
-0.038255196 -0.18046169 -0.32823837 0.084070854 0.090456896 0.16951019 -0.12141231 -0.2827079
-0.079070635 -0.07833393 -0.056510083 -0.19069806 0.08493553 0.40587282 0.28857967 -0.15120931
0.106738396 -0.047477126 0.017708346 0.22360659 -0.16998807 -0.08944452 0.51594687 0.3311172
-0.11218006 -0.16220522 -0.15585458 0.040395975 -0.16542827 -0.0036266525 0.21681839 0.25537443
0.24822526 0.011065493 -0.23843591 0.12066228 0.13966058 -0.26119223 0.110742405 -0.34227365
0.09340752 0.26261964 0.28473353 -0.05165975 0.06308662 0.516661 -0.15285276 -0.0971163
-0.19475518 -0.0042535868 0.07014096 -0.051763926 -0.5005861 -0.2197514 0.117208734 -0.21060397
0.16878152 0.19531177 0.2337949 0.17124288 0.05942226 0.21666662 0.16406919 -0.07521929

bn1.weight f4 [24]
00000000: 0c88 593f fef7 6f3f 864e 6f3f ce10 883f
00000010: ec68 7a3f ec0d 883f f040 803f 80b1 7e3f
00000020: aa3c 8e3f 986c 6e3f 6acf 473f c6d6 b73f
00000030: 993d 623f 1ebd 7a3f 24a6 8a3f d067 5f3f
00000040: 9442 6b3f b481 7d3f f929 763f b1c2 243f
00000050: 0460 983f 98ef 893f 71f2 913f 307d 9b3f
0.84973216 0.9373778 0.9347919 1.0630128 0.9781635 1.0629249 1.0019817 0.99489594
1.1112263 0.9313445 0.78050864 1.4362419 0.8837524 0.9794482 1.0831952 0.8726778
0.91898465 0.99026036 0.96157795 0.64359576 1.1904302 1.0776243 1.1402112 1.2147579

bn1.bias f4 [24]
00000000: 0dd4 453d 065f 2d3d 9924 153d 2489 1bbd
00000010: 6173 3cbd 6c7f 00be 797f b43d c344 e9bd
00000020: 29ab 49bc 608c eb3c 8baf bfbc f0cd 333d
00000030: 8ab3 03be 7bb2 13bd 591a 10bd 2796 ab3d
00000040: 00cd 2c3e 079a 1c3d 9fc8 223d c135 9c3d
00000050: f0a4 f83d 6ad9 50be f857 523d f0dd 4b3d
0.04829793 0.04232695 0.036411855 -0.037972584 -0.04600847 -0.12548608 0.08813376 -0.113900684
-0.012308874 0.02875346 -0.023399135 0.04389757 -0.12861457 -0.036058884 -0.035181377 0.08378249
0.16875076 0.03823283 0.03974211 0.0762744 0.12140834 -0.20395437 0.051353425 0.049772203

bn1.running_mean f4 [24]
00000000: 798f 883c e5f0 b63a 7e8d 1fbc 44f6 02ba
00000010: 0419 73bb b67d b03b 169f 17bc 73d3 10bc
00000020: 5351 343a a131 c73b 3bcf fdba 07f0 503b
00000030: 77a4 a53b c6c2 60bb a6d3 a4ba bdd7 56bb
00000040: 7723 663c b1de 5aba 65cc 30bb 64cf b7ba
00000050: 738f 0f3c 5399 043b b324 5e3b e769 3cbb
0.016669976 0.001395729 -0.009738324 -0.0004995803 -0.0037093768 0.0053860797 -0.009254238 -0.008839476
0.00068785733 0.0060789143 -0.0019364128 0.0031881349 0.005055006 -0.0034295782 -0.0012575283 -0.0032782399
0.014046541 -0.00083492236 -0.0026977297 -0.0014023599 0.008762228 0.002023299 0.0033896386 -0.0028749646

bn1.running_var f4 [24]
00000000: caa4 563f e37c e03e 19e8 1f3f 9ef9 5d3f
00000010: 1f1f ef3e fa6b ce3e 2e24 5e3f 326c aa3f
00000020: d85b e53e bc10 8a3e e220 c13e b8cc bc3e
00000030: 6089 023f 5407 333e 95dc 303f 106c 2d3f
00000040: ed7d 1d3f 0b89 133f ab64 8b3e 025a 0240
00000050: 6017 a63e b623 533f 9fab b73e f4b2 ae3e
0.838452 0.4384528 0.6246353 0.8670901 0.4670343 0.40316755 0.86773956 1.3314269
0.44796634 0.26965892 0.377204 0.36874938 0.5099087 0.17483264 0.6908658 0.67743015
0.6152027 0.57630986 0.2722524 2.0367436 0.3243971 0.82476366 0.35873124 0.34120905

layers.0.conv1.weight f4 [24, 24, 1, 1]
00000000: 13cf 16bd 0684 f43d 5dd4 00bc e8e3 9e3e
00000010: fdb8 383d 1682 c5bd 33df 16be 659b 6dbe
00000020: cbe4 91bd b0c2 9bbd af87 3bbc 8fa2 90be
00000030: 974a 10be f4d0 bdbc 4358 f13c f9ba a53e
00000040: 5733 173d 828e c33e 9e33 9e3e 7024 78bc
00000050: 51ff 8abe d3d7 073e 4836 80be 2df9 5cbe
00000060: d44f 8ebe 6480 d6bc 60ac 313d a8ed 2dbe
00000070: b8d4 cbbe f9ee 94be ee4b e53e 1e0d 93be
00000080: 7d9b 53bd cd3e 4d3e 360b ebbc 65ed bfbd
00000090: 0d64 1b3d 73dd c3bd 7832 2f3e a58e d23d
000000a0: a436 a23d abaa b83e cace 0d3e 72bd 3d3e
000000b0: d208 99b9 0c3a 17be 37ad 1f3e 8346 9b3c
000000c0: ebcb 90be 1814 be3e d908 003e f081 5b3d
000000d0: 0ba3 6b3b dff2 20be ee37 68be 31ad 873d
000000e0: f96d c2be 318a a2be 2a5b b5be d022 00be
000000f0: cfc7 1bbe 8d59 b5bc 847f d3ba 292f 583d
00000100: c2a2 c2be 6d17 aa3c 8a9d af3d 6e3e 59be
00000110: 1ea8 8cbe c94e 0b3e 53a0 98be 78d6 083e
00000120: 01b6 d93c db13 1f3e 91bd 013e 7c17 3b3d
00000130: 58b8 c83d 258a d63d d493 da3d fb58 e7bd
00000140: dca0 ff3d d059 d83e 6812 97bc 7eea 0a3f
00000150: 47f5 86be 435c 15bd 7f08 0f3e d392 f7bc
00000160: 8f65 0a3e 359e b53d 40a8 f4bd e302 043e
00000170: 39e5 fa3d 7220 22be c504 12bd 074b 05bf
00000180: 7f30 5f3d ee87 dbbd bf79 cabe f718 f8bc
00000190: 6273 9d3c 2b0f e1bd cd60 833d 76a0 70bc
000001a0: 10cb e6bc a7fd cabe e232 d53d d1db 8ebd
000001b0: 5b49 d23b 6fc2 d2be 9a30 2dbe 9baa 68bd
000001c0: fa55 d73d 30bf 46be e5a8 b63e aba7 293e
000001d0: 9c4a 4dbc 865a 8abd e7db 60be 3921 a33e
000001e0: 035a 923d a77d 4abe f352 0cbe f6cd 47be
000001f0: d477 65be 0df0 8a3e 0043 21be c80e da3d
00000200: 89b8 51be 0cca 843d 6672 2bbe 1c85 973e
00000210: e1c5 913e 335b 52bd 6efe 42be 89e8 1b3e
00000220: 8a27 cf3d 9055 963e ec6a 3b3d f04c 25bd
00000230: b65a f73c 8b3d c03e 18df 31be f460 97be
00000240: 532e 3f3e 2b2c 80be 50a6 94bc 6fb6 a0be
00000250: 3bf6 4ebe a131 bdbd 68a1 cebe a0e4 b9bd
00000260: 8cce e13d d16c 83be fdf8 7dbd 00b3 a8bd
00000270: 2d1e 83be 960e 4bbe 3f55 76be a19f 18be
00000280: 5d68 c13e 2283 f83d add2 953e 427e 23be
00000290: 7800 9e3e 5cf2 803d abfb fbb9 201b 1b3e
000002a0: 057d bd3d 782d 823e 6dca 95be 2253 3f3e
000002b0: 5b98 00be 826b 093e ae18 0ebe c772 8f3d
000002c0: ce6b 04be 740a fbbd 0731 0f3c 7edb 39be
000002d0: df89 3b3e 5112 ae3d 9e62 0a3e 9044 a0be
000002e0: d28f 963e b076 633b 2793 313c ba3f d33b
000002f0: 9785 943e c5ca 273e 8ccc d33c cef5 e53e
00000300: 02a2 883e 315e 80bd 7309 8dbd 26dd 22be
00000310: ba5d 5f3e cf19 333e 89a1 14bf 6f8c 893d
00000320: d8ca b53d 9fc8 64bc 9531 4fbe d9e8 8abe
00000330: 0b28 17be 6e47 d13d 9b04 57be ded9 4f3d
00000340: b97e fcbd 6273 adbe 8f23 5fbe 7132 92be
00000350: 9b44 233e 69aa 8e3d d480 bbbd 1cfc cbbd
00000360: a9c7 77bd 7137 bd3e ba79 953e 9405 b03e
00000370: 653f 89be 7808 98be 5781 98be 627b 383e
00000380: 15a0 39be e6d4 47be b929 0b3e fbdb 56b8
00000390: 05c7 853d 0132 733e 101b fd3b 88b5 e5bd
000003a0: dc1b 603e 68e1 fdbd 387c bcbd 91bf 56be
000003b0: 210e 69bc 9977 313e d8db 873d 5ba5 73bd
000003c0: 7761 f53d b10b 51be 7b9a cb3c ce0a 5f3e
000003d0: 7dbb 76be 1edb 54bd 926d cb3c f5fc 8b39
000003e0: f87b 153c cda7 66bc 9ef7 12be b027 a93e
000003f0: 6f4e 05be a69e 773e 56ab f5be ae7f 47be
-0.036818575 0.11939244 -0.007863131 0.31033254 0.045098294 -0.096439525 -0.14733581 -0.2320381
-0.07123717 -0.07605493 -0.011445924 -0.28249022 -0.14090954 -0.023170926 0.029461032 0.3236921
0.036914196 0.38194662 0.30898756 -0.015145406 -0.27147916 0.13265924 -0.25041413 -0.21579428
-0.2779528 -0.026184268 0.04337728 -0.1698519 -0.3981073 -0.29088572 0.44784492 -0.28720945
-0.051661957 0.20043488 -0.02869187 -0.09371451 0.037937213 -0.095637225 0.17109096 0.102811135
0.07920578 0.3606771 0.13848415 0.18529299 -0.00029189006 -0.14768237 0.1559342 0.018954521
-0.28280577 0.37124705 0.12503375 0.053590715 0.0035955335 -0.15717648 -0.22677585 0.066248305
-0.37974527 -0.31746057 -0.35421115 -0.1251328 -0.1521294 -0.022137428 -0.0016136025 0.05277935
-0.380148 0.020763123 0.0857497 -0.21215221 -0.27472013 0.13604273 -0.29809818 0.13363063
0.026576044 0.15534918 0.1266997 0.045676693 0.09800786 0.10475568 0.10672727 -0.112962686
0.12481853 0.42256021 -0.018441394 0.54264057 -0.26359007 -0.03646494 0.13968085 -0.030221378
0.13515304 0.08868066 -0.11946154 0.12891726 0.12250752 -0.1583269 -0.03564908 -0.5206761
0.05448961 -0.10719286 -0.3954601 -0.030285342 0.019220058 -0.10989221 0.06414948 -0.014686694
-0.028173 -0.39646646 0.10410096 -0.069755204 0.006417436 -0.41163966 -0.16913071 -0.056803327
0.105144456 -0.1940887 0.3567573 0.16567867 -0.012529995 -0.06755547 -0.21958886 0.31861284
0.071460746 -0.19774495 -0.13703518 -0.19512162 -0.22408992 0.2713627 -0.15748215 0.106473505
-0.20480551 0.0648385 -0.16742858 0.29593742 0.28471282 -0.051356506 -0.1904237 0.15225424
0.10114963 0.29362154 0.045756266 -0.040356576 0.030194622 0.37546954 -0.1737026 -0.29566157
0.18670015 -0.25033697 -0.01814571 -0.31389186 -0.20211117 -0.092379816 -0.40357518 -0.0907681
0.11025724 -0.25668958 -0.06200503 -0.082372665 -0.2560896 -0.19829783 -0.24055956 -0.14904644
0.37774935 0.121343866 0.29262295 -0.15966132 0.30859733 0.062962264 -0.00048061958 0.15147066
0.09252361 0.25425315 -0.29256 0.18684056 -0.12558119 0.13419917 -0.13876602 0.07004314
-0.12931749 -0.12257853 0.008739716 -0.18150136 0.18314312 0.08499587 0.13514182 -0.3130231
0.294066 0.0034708194 0.0108383065 0.006446806 0.2900817 0.16385944 0.025854371 0.44914097
0.26686102 -0.062679656 -0.06886568 -0.15904674 0.21813098 0.17490314 -0.58058983 0.06716239
0.0887658 -0.013963847 -0.20233758 -0.27130774 -0.14761369 0.10218702 -0.2099785 0.050744884
-0.12328858 -0.33877093 -0.21790908 -0.2855411 0.1594414 0.06966097 -0.091554314 -0.099601954
-0.060493145 0.3695636 0.29194432 0.34379256 -0.2680618 -0.2969396 -0.29786178 0.18015817
-0.18127473 -0.19514808 0.13590135 -5.122645e-05 0.065321006 0.23749544 0.0077241734 -0.11216265
0.21885628 -0.123965085 -0.0920338 -0.20971514 -0.01422456 0.17330779 0.06633729 -0.059483867
0.119814806 -0.20414616 0.024853935 0.21781465 -0.24094959 -0.05196678 0.02483252 0.00026700614
0.009123795 -0.014078093 -0.14352271 0.33038092 -0.13018201 0.24181613 -0.4798228 -0.194823

layers.0.bn1.weight f4 [24]
00000000: 5774 293f 1207 1f3f 7289 1e3f 4d65 893f
00000010: b10f bb3f 55a4 9b3f cea5 233f b823 f43e
00000020: 4760 863f 6939 813f 1fc6 723f 489a 473f
00000030: d1bc 513f c2b1 3a3f d967 443f 9198 a23f
00000040: d805 793f 3169 903f 8e70 8b3f eeaf c73f
00000050: bd74 583f 6098 1140 64ac 103f c6ac 643f
0.66193146 0.62120163 0.61928475 1.073404 1.4614164 1.2159525 0.6392487 0.476835
1.0498132 1.0095645 0.9483356 0.7796979 0.81928736 0.72927487 0.7672096 1.270281
0.9727454 1.1282102 1.0893724 1.5600564 0.8455313 2.2749252 0.5651305 0.8932613

layers.0.bn1.bias f4 [24]
00000000: 82ef a93e 53dd c83e 0e77 b13e 8ec8 48be
00000010: e19e 8bbe a6eb 1abd 4961 8e3e 941a 083f
00000020: 9a94 0a3e 35df ca3d ef26 b3bc 186a 693e
00000030: d467 8abe 89fb a23e ee69 853e 2a77 cbba
00000040: e239 22be b96d 4abe 198f 98bd 465f febd
00000050: 433e 2f3e f527 15bf a59b d23e 001d 4cbe
0.33190542 0.39231357 0.34661144 -0.19607756 -0.27269652 -0.037822388 0.27808598 0.53165555
0.1353325 0.099058546 -0.02186915 0.22794378 -0.2703234 0.3183253 0.2605738 -0.0015523185
-0.15842393 -0.19768418 -0.07449169 -0.12420516 0.17113595 -0.58264095 0.41134372 -0.19932938

layers.0.bn1.running_mean f4 [24]
00000000: d48e bfbb 902f 583e ce8d 01be cd4e 043e
00000010: 2663 663d 85cd efbd d237 043e 0c8b d6bc
00000020: 8930 02be 60af 3bbd 151b fc3d 9ef5 4bbe
00000030: 0bd9 c93d b77c 95bd 4e24 2bbe a3c9 d8bd
00000040: 465c 413d b9c0 c23d 1d43 f93d fc63 063e
00000050: 9cfd 45be 5e02 193d 67a0 bf3c afea 343e
-0.005845884 0.21111894 -0.1265175 0.12920685 0.0562469 -0.117091216 0.12911919 -0.02618935
-0.12713827 -0.045821548 0.12309853 -0.19917914 0.09855851 -0.07299178 -0.16713068 -0.10585334
0.04720714 0.09509415 0.12171004 0.13124079 -0.19335026 0.037355773 0.023391915 0.1766765

layers.0.bn1.running_var f4 [24]
00000000: 5d50 843f 3b1e 9e3f e48e 2940 813d ba3f
00000010: ef40 203f 1c3f 6440 8fac 953f 8316 0c40
00000020: 90f8 823f 5787 403f 6092 0440 653e 5d40
00000030: eddd 0a40 7941 0640 db59 fd3f b5d7 3d40
00000040: 12c1 833f 5ebc 2540 acdb 8140 9200 2940
00000050: f8ac d33f 98d0 1940 589b 843f ad2e 4640
1.0337025 1.2352976 2.6493464 1.455002 0.6259908 3.566352 1.1693286 2.188874
1.0232105 0.7520651 2.071434 3.4569333 2.1697953 2.0977461 1.9793047 2.9662907
1.0293295 2.589622 4.0580654 2.6406598 1.6537161 2.4033566 1.0359907 3.0965989

layers.0.conv2.weight f4 [24, 1, 3, 3]
00000000: 9a2b 233e 0df1 7c3e d17d 00be 182a e2be
00000010: 8052 6dbe b607 4b3e ba3c 2f3e adec b6bc
00000020: 0467 acbc 84f6 c1be 45a7 83be 0869 38bd
00000030: 41d7 96bd c35a 62be 694b 21be 5c45 aa3e
00000040: 235a 793e 299a ef3d 5e56 843e 8d97 963c
00000050: d596 97be a6f9 993e a2b2 25bb fe5c 8cbe
00000060: 06b0 123e 725b f2bc 1750 09be 39eb e1bc
00000070: bfd0 adbd 2f49 32bd d6e4 d2be 1de6 26bf
00000080: 18cb 14be a47a d3be 3305 06be 7591 08bd
00000090: 6a54 473d 55d1 be3d 558f 1d3e 175c ac3e
000000a0: 94cd fd3e 7701 a43e 3b26 0c3e bf91 303e
000000b0: 593d adbd be62 0cbd 5da2 54bc 10ae d0bd
000000c0: 3c51 94be 0bc8 28bf e655 75be 252a b3bd
000000d0: 2cce 1ebf dad4 8ebe 8707 b9be 4455 193d
000000e0: 858a b6bc 5b7d 14be 1a8f 703e f578 983e
000000f0: cf85 ebbe 0567 0b3e d6e7 8b3d 71b2 ffbd
00000100: af99 27be 24f1 143e e80e 3abe 41f7 8bbd
00000110: 5833 d13e dcbf a0be 4838 693e c96b b03e
00000120: 60fc 5c3e 676b 913e 5614 91bd ca58 20be
00000130: a08e a43c d29c dabd cf0e e4be 3e21 83be
00000140: 0e37 febe 81d2 9bbe 7fdc 653e ed75 7d3e
00000150: ef4d cc3d 8975 293e 84d5 033e 57a8 fa3e
00000160: 0d18 e63d 55b9 ffbe 731f fb3e 0b5b 033f
00000170: 35c3 a23e bf15 203e e279 b93e 9f88 b13d
00000180: e7d1 0abe aa02 a73c 053c d23c edf5 77be
00000190: 0a92 06be b2fa 65be ad0d adbe 3ee2 9abe
000001a0: 9204 b8be 4bfa c73e a7db 9abb 8e4e 63bc
000001b0: 8859 983e 0bcc 1d3e 5807 93bd 1232 943e
000001c0: 978c 7e3c f747 943d 95fd b9bd a3b3 533e
000001d0: f464 a83e e4c1 99be b294 a2bd 57fa de3d
000001e0: bac2 09bc 09b1 8cbe 59ff 883d 0a1e 0abf
000001f0: 4aa0 0dbf 7c99 f0bd f9dc 2fbe ca9d f1be
00000200: 1f1c b9be 7b45 ec3e 2dd2 8e3e f0a0 1e3e
00000210: 5d22 573d ac27 e33c 6d1b 44bd ae9b f73e
00000220: 9614 af3e 3feb 2b3e 3584 b23e fca8 813e
00000230: f5e0 bc3d 8393 0bbb 0016 1a3e 71c2 10be
00000240: f885 92be e5bb 803e 6466 8fbe aa7f 26bf
00000250: 006f 49bc 49a4 c3bd 9401 14be 61e3 5abd
00000260: 9840 c2be b434 a23e a1ca e03e c280 0c3e
00000270: fc8b f43c bac0 b53e 87f2 753e 0a26 e53d
00000280: 014d 63be ec99 39be d03c 933d 558d 823c
00000290: 4755 a2bd dfb8 0bbe 449f e7be 3a54 24be
000002a0: 4674 93be 6526 e0be 29ee 6fbe 4be9 38bf
000002b0: d6c1 29bf bfe2 39bf a027 063d 952b 89bd
000002c0: e51b 3bbd cc35 80bd 6c99 f73c 0875 323e
000002d0: 28b3 09be 4b12 f3bd 98f2 b4be 04ae 233e
000002e0: 7e5c c93e c8fe c33d 8c3f c8bd e9e3 863e
000002f0: f20b ab3e 7fc9 8d3e e433 65bd 6ade 8ebe
00000300: 3cad 8b3e a079 553e 75bc 193e 997c a43e
00000310: 9a4b 593e 59d5 ac3e 2111 11bf 1b41 f93d
00000320: 90fd 7cbd e38e b0be 6aa8 113e 7430 a23e
00000330: 3a5e 7cbe 1db0 233e 2aa0 433e 1b80 61be
00000340: 44b7 22be 4a01 3f3e a35d 9cbe 8dcf b93e
00000350: ab9f d33d 6ca7 843e 1ae2 913e 2418 babd
0.15934601 0.24701329 -0.12547995 -0.4417274 -0.23176003 0.1982716 0.17113009 -0.022329653
-0.021045215 -0.3788339 -0.25713554 -0.04502204 -0.07365275 -0.22104935 -0.15751423 0.33256042
0.2435079 0.116993256 0.25847143 0.018382812 -0.29607263 0.3007328 -0.0025283475 -0.27414697
0.1432496 -0.02958462 -0.13409458 -0.027577983 -0.08487081 -0.043526825 -0.41190213 -0.65194875
-0.14530599 -0.41304505 -0.13087921 -0.033341844 0.048664488 0.09317271 0.15386708 0.3366401
0.49570906 0.32032368 0.13686459 0.17243098 -0.08458967 -0.034273855 -0.012978164 -0.1018945
-0.28968227 -0.6593024 -0.23958549 -0.08748273 -0.62033343 -0.27896768 -0.36138555 0.03743483
-0.022282848 -0.14500944 0.23492089 0.29779783 -0.46000525 0.13613518 0.068313286 -0.12485207
-0.1636722 0.14545113 -0.18169749 -0.06834269 0.40859485 -0.31396377 0.22775376 0.34457234
0.21580648 0.28402254 -0.07083957 -0.1565887 0.02008754 -0.10674442 -0.44542548 -0.256113
-0.49651378 -0.3043404 0.22447394 0.24752016 0.09975802 0.16548742 0.12874418 0.48956558
0.11235056 -0.49946085 0.4904743 0.51310796 0.31789556 0.15633295 0.36225802 0.086686365
-0.13556634 0.020387013 0.025663385 -0.24214907 -0.13141647 -0.22458914 -0.33799496 -0.30250734
-0.35940987 0.39058146 -0.0047258916 -0.013873709 0.29755807 0.15409867 -0.07179135 0.2894445
0.015536449 0.07240289 -0.0908157 0.20673995 0.3288952 -0.3003074 -0.07938518 0.10887592
-0.008408243 -0.27478817 0.06689329 -0.53952086 -0.55322707 -0.11748025 -0.17174138 -0.47190696
-0.36154267 0.4614676 0.27894726 0.1549108 0.052523006 0.027728878 -0.047877718 0.48360962
0.34195393 0.16788958 0.3486649 0.25324237 0.09222595 -0.002129764 0.15047455 -0.14136674
-0.28617835 0.25143352 -0.28007805 -0.6503855 -0.012294531 -0.09552819 -0.14453727 -0.0534395
-0.37939906 0.31680834 0.43904594 0.13720992 0.029851906 0.354986 0.24018298 0.11188896
-0.22197343 -0.18125123 0.071893334 0.015936533 -0.079264216 -0.13644741 -0.45238698 -0.16047755
-0.28799647 -0.43779293 -0.23430695 -0.72230977 -0.66311395 -0.7261161 0.032752633 -0.06697766
-0.0456809 -0.06260261 0.030224524 0.17427456 -0.13447249 -0.118687235 -0.35341334 0.1598435
0.39328378 0.0957008 -0.097777456 0.26345757 0.3340755 0.27692792 -0.05595769 -0.27904063
0.27280605 0.20847178 0.15013297 0.3212631 0.21220246 0.3375652 -0.5666676 0.12170621
-0.061765254 -0.34484014 0.14224401 0.31677592 -0.2464532 0.1598515 0.19104066 -0.22021525
-0.15890223 0.18652835 -0.3054019 0.3629116 0.103331886 0.25908983 0.28492814 -0.09086636

layers.0.bn2.weight f4 [24]
00000000: 66c5 a43f 6e72 663f e98c 8b3f 3652 6e3f
00000010: 36e6 5f3f 9796 b43f 4226 823f 6cff 773f
00000020: d9d0 583f 225c 943f 4ed1 8d3f f054 873f
00000030: 4df4 693f 5a8f 7f3f 6a13 a93f 6b72 923f
00000040: b853 543f 85d5 9b3f 0c22 ab3f 7471 933f
00000050: fc3c 703f 38c7 963f ebf2 763f 1cdc 563f
1.2872741 0.90018356 1.0902377 0.93094194 0.8746065 1.4108456 1.0167925 0.9687412
0.84693676 1.1590617 1.10795 1.0572796 0.913884 0.9982811 1.320905 1.1441168
0.82940245 1.2174536 1.3369765 1.1518998 0.93843055 1.1779547 0.96464413 0.8392961

layers.0.bn2.bias f4 [24]
00000000: 4ad5 d0bd e69d 2d3f 476b 13be 9edd f23e
00000010: 269b d93e d55e dc3e 4359 38be a1aa 45be
00000020: 9e44 ce3e 9223 4f3e d2d7 0f3f d33c 92bd
00000030: 9037 4d3e 5578 9f3e 995a aa3c 9337 5e3f
00000040: 9a55 903e 1dec 023f 7032 0a3f 2d43 023f
00000050: fd32 ad3d d499 183f 6a4c 3e3d 8087 9dbd
-0.10196932 0.6781906 -0.14396392 0.47434705 0.4250118 0.430411 -0.180028 -0.19303371
0.40286726 0.20228413 0.5618869 -0.071405075 0.20040727 0.31146494 0.020795153 0.8680355
0.2819031 0.5114153 0.5398321 0.5088375 0.08456991 0.59609723 0.046459593 -0.0769186

layers.0.bn2.running_mean f4 [24]
00000000: b06e 25bd 0969 4fbe 21ad a4bc 75d0 0fbf
00000010: a609 1d3f 9b34 41bf 3f00 42bd d582 393e
00000020: c153 f4be 190c 8c3e 45a7 f63e 1587 ddbe
00000030: 169e 513e c8a2 38bf 7118 39bc b10a 253f
00000040: 4a4a fcbe c460 943e 321f f0be 632d 41bf
00000050: a028 7e3e 5b8e 393f 0c42 9fbd 0e53 e63d
-0.040388763 -0.20254911 -0.020102086 -0.56177455 0.6134285 -0.75470895 -0.047363516 0.18116315
-0.4772015 0.2735298 0.48174492 -0.43267122 0.20470461 -0.72123384 -0.011297331 0.6446944
-0.49275428 0.28980076 -0.468988 -0.7545988 0.24820185 0.7248284 -0.07776269 0.1124631

layers.0.bn2.running_var f4 [24]
00000000: 264f 963d 8ca2 a73d a815 1b3d 5a54 203f
00000010: 54f6 953f bda5 9e3f 438e fc3d 1117 8a3d
00000020: 22e7 f13e 7a75 843e 0a48 0d3f eb54 ad3e
00000030: 94b1 0b3e a4fe c93e 1ce2 8c3e 2d3a 6d3f
00000040: 8966 d33e daeb d83e 000e e03e 8344 0f40
00000050: ef2f 323e 77b2 e23f 304b 313e 070d a93d
0.07339315 0.081853 0.03786245 0.6262871 1.1715798 1.2394329 0.12331822 0.06742681
0.47246653 0.25870878 0.5518805 0.3385385 0.1364196 0.39452088 0.27516258 0.92666894
0.41289166 0.4236744 0.4376068 2.2385566 0.17401098 1.7710713 0.17313838 0.08254438

layers.0.conv3.weight f4 [12, 24, 1, 1]
00000000: b39c 2abe d101 623e 3213 7abd 8d3b 473c
00000010: 2dd6 9dbc 8b0f 643e 7633 7c3e b50b 1ebc
00000020: 7b34 ecbe 021a dc3e a9a6 2bbd edf1 9b3e
00000030: 93fb 79bd 7e14 943e 1494 23bd ed7f ccbc
00000040: 5106 80bd 255b 213e 1683 b53e 286a a33d
00000050: 0853 723c ee7c 98be bb6f ab3d 31fd 9b3e
00000060: 3ab9 9e3e 03de 963c b7de c5bd d3d9 2cbd
00000070: c93c cd3a f7cd ebbe f62c 1d3e 8a1b 233e
00000080: 6e5f 173d 7fed b83d ca2f 4ebe e3fa fc3d
00000090: 951a 33be 4f0b 43bb da76 883e af9e 05be
000000a0: afce e7bd d447 9e3e fc98 e9be 1a6a 873e
000000b0: b77c 6bbd e771 76be dc9b 683e 4dbb 7a3e
000000c0: 107c cf3d 0fbf 84be 9543 39be 2782 9bbd
000000d0: fa4e aabe 3fff 903e 8d89 21be 5dc8 08be
000000e0: 43df 01be b61b 433d d70c 273b ab7a 4b3e
000000f0: 4a27 493e 5685 86be 9551 f23d 2bcf 323c
00000100: 0643 aebd 52e5 283e 0b1f ef3d cf0c 3abe
00000110: 047a 00bf c07e 613e e658 64be a3ec 44bd
00000120: 94d9 18bf a77d 8abe 7680 8ebd f40b d6be
00000130: 485f 193d 935e aabe 8b75 893d 4ea2 553e
00000140: 3ff8 143d a323 903d 3043 40bc ee37 44be
00000150: 904c fdbd ee01 15be a82c adbe 2e52 7bbe
00000160: 576e 3a3e 2fb5 f3bd d8ff 78bd 7e9c 883e
00000170: e1b9 ac3d 9ebc 143d 5647 633d ae76 373e
00000180: 9c0d 61be 96d7 a13e edf3 abbd 74f2 2e3e
00000190: b4d1 a73d 4e96 11bb 9a5d 213e e97f 8c3e
000001a0: aed3 373e 1732 0cbe 636b 843e 8923 cdbe
000001b0: 909a 023e cd0d 9abe 2fec 81be 696b 523e
000001c0: fde5 143d 8dcb 063e cf36 563d e946 e0bd
000001d0: bddb a0be e419 88be 3c1a 083c 1111 ea3d
000001e0: 24b6 87bd 2e75 dbbe e2f7 313e d5ee 983e
000001f0: 0d56 61be d9da 723e 8082 6c3e f41b 273e
00000200: 7c81 b43e 1d11 dabd 339b 163d d1f7 3d3e
00000210: ec21 4abe a788 a63e 3abc f33b f0f5 093e
00000220: 86fe 8cbe d6e4 f33d 373b a13e fda5 1f3d
00000230: c588 c5bd 3351 85be 389e 603e 5bd3 c83c
00000240: 6333 1b3e 92d0 1dbe 9b42 b03e 34c8 373e
00000250: 5f5a 2b3d 6dbe 953e ea73 9bbe a53a d93d
00000260: a5ca 5c3d 8a17 5f3d 9b5d 6a3e 9eea d2be
00000270: 6135 cc3d 393d c2bd 6ac2 8dbe 29b3 8cbe
00000280: 078c 85be 9b4e cfbd d156 0d3d 7f57 f8be
00000290: 72f7 25bd 2a26 32be d2a0 c3bd 4041 863e
000002a0: 3bdc d73e e233 d63c 634a b3be b78d cabe
000002b0: 7f05 143e 9b72 a03e aa70 a0bd cf2e 82be
000002c0: 9570 593e c125 48bd 7b57 f4bd 9c2d d7bd
000002d0: 42aa fe3d aa7a bc3b 4159 683e 2210 843d
000002e0: 77a0 923e 0cc6 153e b924 dd3e ab45 273e
000002f0: 5d64 523d 5a9c f4bd 4171 71be 8eb6 e7bd
00000300: 659e a63d 76fa 313e be01 ad3d e323 2b3e
00000310: fede 97be d7d1 afbc a77d 713e 6cf1 c13c
00000320: 3eaa 0f3e e54f 23be a7df c13e 9b98 3dbd
00000330: d0b5 8e3d 6838 9a3e 4248 63bc beca 09bf
00000340: 6711 5f3e fe1c a5bc f05f 22be eb8d 993e
00000350: 5615 06bd f411 d43d af2d de3d 872a 33be
00000360: e5d5 abbd a79d db3d 7211 273c 4ae3 233d
00000370: 23a3 d6bd 7ffb 143f 7d32 c8be e53a fc3e
00000380: b213 fdbc f45c fabc d31a a03d 0209 a93c
00000390: ec9a c2be 3c49 073e cbd5 0dbd bb44 bc3d
000003a0: 5c55 21bd df3e 2d3e 1052 103f 97a0 e8bd
000003b0: 8faf 0e3d 059c 1d3e 1eb1 27be 676d 813e
000003c0: 17e0 2d3e da2b 0c3d a30c ca3e bbfd f2bd
000003d0: f332 87be 331a 48be e9cf 7f3c 82ea 8b3d
000003e0: 78b4 0bbe 9d3b b03d 2a41 213e 2a2f 27be
000003f0: c957 35be b98e 403c 664b dcbd 3ce9 a53e
-0.16661339 0.22071005 -0.061053462 0.012160194 -0.019267166 0.22271554 0.24629006 -0.009646346
-0.4613379 0.42988592 -0.041906986 0.30458012 -0.061030935 0.28921884 -0.03993614 -0.024963344
-0.06251205 0.15757425 0.35451573 0.07979232 0.014790304 -0.29782814 0.0837092 0.30466607
0.31000692 0.01841641 -0.0966162 -0.04219992 0.0015658374 -0.46055576 0.15349182 0.15928474
0.036956243 0.09029674 -0.20135418 0.1235254 -0.17490609 -0.002976138 0.26653177 -0.13048814
-0.11318719 0.30914176 -0.4562453 0.26448137 -0.057491984 -0.24066888 0.22715706 0.24485512
0.10131085 -0.25927016 -0.18092187 -0.07593184 -0.3326338 0.28319737 -0.15775128 -0.13357683
-0.12682824 0.04763385 0.002548983 0.19871013 0.19643894 -0.26273602 0.11831967 0.0109136505
-0.085088775 0.16493729 0.11675843 -0.18168949 -0.5018618 0.22021008 -0.22299537 -0.048077237
-0.59707 -0.2704899 -0.06958096 -0.41805995 0.037444383 -0.3327528 0.06711873 0.20862696
0.03636956 0.07038047 -0.011734769 -0.1916196 -0.12368119 -0.14551517 -0.33823133 -0.24543068
0.18206154 -0.118997924 -0.060790867 0.26681894 0.08433891 0.036312692 0.055487953 0.17916366
-0.21977848 0.31609792 -0.083961345 0.17084676 0.081942946 -0.0022214833 0.15758362 0.27441338
0.17951843 -0.13690983 0.2586318 -0.40066174 0.12754273 -0.30088654 -0.25375506 0.20548786
0.036352146 0.13163586 0.052298363 -0.10951025 -0.31417647 -0.26582253 0.008307036 0.114290364
-0.066265374 -0.42862839 0.17379716 0.29869714 -0.22005482 0.23716296 0.23096657 0.16319257
0.3525504 -0.10647795 0.036769103 0.18551566 -0.19739503 0.32526132 0.00743821 0.13472724
-0.27537936 0.11908881 0.3149049 0.038976658 -0.09645227 -0.26038513 0.21935356 0.024514845
0.15156321 -0.15411595 0.34425816 0.17947465 0.04183423 0.29246846 -0.30361873 0.10606889
0.053904194 0.054465808 0.2288727 -0.41194624 0.09971119 -0.094843335 -0.2768739 -0.27480438
-0.26083395 -0.10122415 0.034506623 -0.48504254 -0.040519185 -0.17397371 -0.095521584 0.26221657
0.4216021 0.026147787 -0.3501769 -0.39561245 0.14455222 0.31337437 -0.07833989 -0.25426337
0.21234353 -0.04886413 -0.11930748 -0.10506746 0.12434818 0.0057519274 0.22690298 0.064483896
0.2863805 0.1462633 0.4319208 0.1633517 0.051365245 -0.11943884 -0.23578359 -0.113141164
0.0813568 0.173807 0.08447598 0.16712908 -0.29662317 -0.021462364 0.23583089 0.02367469
0.14029786 -0.15948446 0.37865946 -0.046288114 0.06968272 0.3012116 -0.013872208 -0.53824985
0.21783982 -0.020155426 -0.1585691 0.29991087 -0.03273519 0.10354987 0.10848557 -0.17496692
-0.083904065 0.10723429 0.01019703 0.04001168 -0.104803346 0.5819625 -0.3910102 0.49263683
-0.03089318 -0.030561902 0.07817616 0.020634178 -0.3800882 0.1321153 -0.034627717 0.09192797
-0.039388046 0.16918515 0.5637522 -0.11358755 0.034835394 0.15391548 -0.16376159 0.2527878
0.16980015 0.034221508 0.39462766 -0.118648015 -0.2640606 -0.19541244 0.0156135345 0.06831838
-0.13643062 0.0860512 0.15747514 -0.16326585 -0.17709269 0.011752778 -0.107565686 0.32404506

layers.0.bn3.weight f4 [12]
00000000: bdde 803f f7b1 903f f6ed 863f 66ca 883f
00000010: e593 7a3f ee51 7c3f 1995 6d3f da67 883f
00000020: 4a5a 7f3f 33aa 943f 5e37 633f a525 543f
1.0067974 1.130431 1.054137 1.0686767 0.9788192 0.98562515 0.9280563 1.0656693
0.99747145 1.1614441 0.8875636 0.8286994

layers.0.bn3.bias f4 [12]
00000000: 4261 b73d 1697 45bb add7 b639 0acf 9bbc
00000010: 4c16 b1bd 1151 ea3d ead8 e2bc 5f9f cabd
00000020: bc58 94bd f63d 643d 0a47 1b3e d86b dc3d
0.08954097 -0.0030149869 0.00034874436 -0.019019622 -0.08646831 0.114412434 -0.027691323 -0.09893679
-0.07243487 0.055723153 0.15163818 0.10762757

layers.0.bn3.running_mean f4 [12]
00000000: 0dab 4d3f acfc cebe 91cd d7be 306c 8bbf
00000010: 89b0 7d3e c924 283f 702e 13bf 5231 473f
00000020: b0f4 d53e d475 953f f514 2abf 645c 793f
0.8033913 -0.40427148 -0.42149022 -1.0892391 0.24774374 0.6568113 -0.57492733 0.7780963
0.41788244 1.1676583 -0.6643823 0.974066

layers.0.bn3.running_var f4 [12]
00000000: 47e5 0b3f 49f2 cf3e 3fe9 073f 7662 e33e
00000010: b389 fe3e f5b0 c33e fdd4 b03e 0cb9 083f
00000020: f5a3 083f b3f6 1f3f 7c9a cf3e b47f 483f
0.54646724 0.40614536 0.5309028 0.44411057 0.4971443 0.38220945 0.34537497 0.5340736
0.5337518 0.6248581 0.4054755 0.7831986

layers.1.conv1.weight f4 [48, 12, 1, 1]
00000000: d644 08be 9c66 9a3e 7ef5 dd3c 8fdb ad3c
00000010: 1ddf f6bb be1f 9ebe 9fc7 84bd 7423 9dbe
00000020: 86fb 83be a94c 57bd 29a9 a23e 1e4f ab3e
00000030: b4d3 f6be 862f c9be 0bbb 143e 450c 8b3e
00000040: 0367 573d fd7c bdbe e971 1dbd ab6a c8bd
00000050: 4015 cebc 39da 02bc a49a 4f3d 5784 3bbc
00000060: 2951 1e3e 4739 c3bd 9664 993c 8eee d23e
00000070: 59a5 e5be c308 33be 0327 5dbd 8f62 d1be
00000080: 3f8c c93d f264 fa3d 29ae b9be 1fec 3dbe
00000090: 8db1 923e e25f 2c3e bb02 303d 429a d63d
000000a0: 652b b03e 43f4 663d b84e e13d 5f7a 80be
000000b0: 6af0 1c3e 8a6d c5be 75ca 2d3e 2300 12be
000000c0: 2282 433e 4b64 c03d 8414 dfbd df64 643d
000000d0: dcc4 85bd 8ed5 1bbe 2e62 4f3e 4846 d43c
000000e0: f833 633c db5a 543e 6a2d 18bf 049e 13bf
000000f0: df90 053e f159 b63e 2474 933d 639d bbbe
00000100: 197b 0a3e f384 033e 3fd0 b13e 7ab2 7a3c
00000110: cb3a 02be 97bb f73d 01b9 673e 9984 893e
00000120: 6ddb 0c3f e1fd 0a3e 840d aebe ed66 93be
00000130: 666a 103e 0212 a9be e7dd 22be 3009 03be
00000140: bb9d 0dbe 8c76 013e 1b1f af3e 68c5 833d
00000150: 86fb a73d 6cd2 053f a6fc 663d ee59 a23e
00000160: 9016 513e b830 9f3e 5a1b 0f3e e383 cabd
00000170: b78d 54bd 6268 363e 7e50 203e b74c b4be
00000180: 51ca 29bd af61 0abf f382 9abe f9f3 913e
00000190: 27e8 403d 9021 47bd 41e6 903e 8f14 dcbe
000001a0: a2a5 98bd 4cfb 313e 0ec1 063e 4e50 91bd
000001b0: d194 0f3f 9a1b 3f3e 0be7 93bc cf38 cc3d
000001c0: 2ec6 00bf a4b4 923e 51d2 7dbc 74ed 3bbe
000001d0: 2f42 7d3e fdb6 94be 7c49 9bbe 5f6e e23d
000001e0: 5a79 363e ded5 dd3c 98a7 663c b4e4 b9bd
000001f0: 0677 02be e038 893e 92b4 10bf f8ed 4b3e
00000200: 2b9d debe 7442 5ebd 87bd 10be 5e24 2ebd
00000210: b4d9 7abd 1d3a 1dbe 9af4 50be ebc9 4ebe
00000220: d043 b73e e16f 5cbe 4501 2bbe 0ac7 a13e
00000230: 891b 14be b250 60be 35f9 bdbe ba21 103e
00000240: 76b1 623d c41a 8ebe ad0e fcbd ce55 b3bb
00000250: 743e 6cbe 72d0 913e 742c b6bd 7c09 e43e
00000260: ecd5 39be c2a7 e73e 0d0b 2dbd b97c 19be
00000270: e0b5 cb3d 55d6 ac3d 7843 1b3d 4c55 b2be
00000280: 7bcf 88be 7824 39bd 416a ab3e 4d0d f23e
00000290: 3844 863e d101 f3bd 9931 a33d c827 c23d
000002a0: 01b1 ba3d 6261 6b3e d47b 1a3f 3e99 a93e
000002b0: 3429 76bd 2fe7 97be e9e7 383d ef03 0a3e
000002c0: b52d 883d eb6c 7dbe 1414 f73d 149f 96be
000002d0: 7d3b f9bb fbfd a7be 0e27 be3e 5f9d 36be
000002e0: c7d5 edbe 1374 24bc 1206 543d 499f 59be
000002f0: a2ab 11be 02ff dcbd 652b 993e bda9 b43d
00000300: 933e 2b3b 9abd 2dbc 2ddf f13d 70cb e7bd
00000310: 7ed5 de3e e624 8e3d 5828 f4be e5df 3d3e
00000320: ef32 e2be a5c3 b63d d833 e13e 89dd 8a3d
00000330: 0b84 ab3e 8eb5 a1bc 8e7c 8dbe b4e7 0c3d
00000340: d429 69be 4921 3b3e 386a d43d f1a6 bb3e
00000350: 72cc dcbd fe08 aa3e 8f22 bebe bdef 2b3d
00000360: 70d9 d0be 3ed2 a0bc f23a f9bc 1b81 35be
00000370: f7e0 e8be 7598 2c3e ac1e bb3d 0a78 8bbe
00000380: 77a2 ad3e 5c2a 023e 67b2 05be 6350 343e
00000390: 5916 74bd 5293 f63d d8a0 313e b76f eabe
000003a0: b81b 00be 0f71 f0bd c704 023f 74db 10be
000003b0: 1ba4 073e ff12 f7bd d598 03bd 0ab1 65be
000003c0: 6e4e 25be 66f1 b93d d249 673e 247f 2ebf
000003d0: 7237 5cbe a205 b7bd 554c 65bd ee91 793e
000003e0: c2a0 68ba faa1 5cbe 5637 b63d b031 5cbc
000003f0: 1e28 a13e ee97 4fbe f7cb f9bd 7bef 473e
-0.13307509 0.3015641 0.027094599 0.021222858 -0.0075339214 -0.30883592 -0.06483387 -0.3069111
-0.25777835 -0.052563343 0.31769684 0.334588 -0.48208392 -0.3929407 0.14524476 0.27157798
0.052588474 -0.3700942 -0.03843871 -0.0978597 -0.025156617 -0.007986599 0.050684586 -0.0114451265
0.15460648 -0.09532409 0.01872472 0.41197628 -0.44852713 -0.17483811 -0.053992283 -0.40895507
0.09841203 0.12226285 -0.36265686 -0.18547104 0.28651085 0.16833451 0.042971354 0.10478641
0.34408107 0.05638529 0.110013425 -0.25093362 0.15326086 -0.38560134 0.16971762 -0.14257865
0.1909261 0.09394129 -0.10892585 0.05576026 -0.065316886 -0.15218183 0.20252296 0.025912419
0.013867371 0.20737784 -0.59444296 -0.5766299 0.13043545 0.35615495 0.071998864 -0.36643514
0.1352352 0.12843685 0.34729192 0.015301341 -0.1271774 0.12096327 0.22629167 0.26858976
0.5502232 0.1357341 -0.33994687 -0.28789464 0.14103088 -0.3302155 -0.15904962 -0.12796474
-0.138297 0.12642878 0.3420342 0.06434137 0.08202271 0.52274203 0.056393288 0.31709236
0.20418763 0.31091857 0.13975278 -0.09888437 -0.051892962 0.17813256 0.15655705 -0.3521478
-0.04145271 -0.54055303 -0.3017803 0.2850645 0.047096398 -0.048615992 0.2830067 -0.42984435
-0.07453467 0.17381018 0.13159582 -0.07095395 0.5608645 0.18662873 -0.018054506 0.09971773
-0.503024 0.28653443 -0.015492038 -0.183523 0.24732278 -0.2904586 -0.30329502 0.11056208
0.1781973 0.027079519 0.014078043 -0.09076825 -0.12740716 0.26801205 -0.5652553 0.19914997
-0.43479285 -0.054262593 -0.14134799 -0.04251515 -0.061242774 -0.153542 -0.20405808 -0.20194213
0.35793924 -0.21527053 -0.16699703 0.31597167 -0.14463629 -0.21905783 -0.37104192 0.14075366
0.05534502 -0.27754796 -0.12307487 -0.005472875 -0.23070699 0.28479344 -0.088951975 0.44538486
-0.18148011 0.45245177 -0.042246867 -0.14988984 0.09946799 0.08439318 0.03790614 -0.348307
-0.26720795 -0.045200795 0.33479503 0.47275773 0.26223922 -0.11865581 0.079684444 0.09480244
0.09115792 0.22986367 0.60345197 0.33124727 -0.060097888 -0.29668567 0.04514304 0.13478063
0.06649343 -0.2474858 0.120643765 -0.29418242 -0.0076059685 -0.3281096 0.3713917 -0.1783347
-0.46452162 -0.01003744 0.0517636 -0.21252169 -0.14225629 -0.107908264 0.2991592 0.088214375
0.0026129826 -0.010604287 0.118101455 -0.113180995 0.43522257 0.069406316 -0.4768703 0.1854244
-0.44179484 0.08924035 0.43984866 0.06780536 0.33499178 -0.019739892 -0.2763409 0.034400657
-0.22769862 0.18274416 0.10371822 0.36650804 -0.10781182 0.33209985 -0.3713574 0.04197668
-0.40790892 -0.019631501 -0.030423615 -0.17725031 -0.45484135 0.16855033 0.091367096 -0.2724002
0.33913013 0.12711471 -0.13056336 0.1760879 -0.059591625 0.12039818 0.17346513 -0.45788357
-0.12510574 -0.11740314 0.5078854 -0.14146215 0.13246195 -0.1206417 -0.032128174 -0.22430816
-0.161432 0.09079246 0.22586754 -0.6816275 -0.21505526 -0.08936621 -0.055981 0.24372074
-0.00088740524 -0.21546164 0.08897273 -0.013439581 0.3147592 -0.202728 -0.12197106 0.19524948

layers.1.bn1.weight f4 [48]
00000000: 70ab c83e c0ec 743f 5d5d a33f 1361 473f
00000010: ff20 163f 1645 433f 8644 ea3e c002 933f
00000020: d8cd 2a3f 2278 2e3f 5c50 943f 48ae 883f
00000030: 9cc9 643f 211d 123f a65d 463f 1c1a b83f
00000040: d33e 6c3f 05c1 343f 1273 4b3f ca66 e63e
00000050: e4cd 233f 5a33 213f ed36 503f d1cb 7e3f
00000060: d5dd 043f e7de 423f 81ab df3f c93f b63f
00000070: 0f0f 023f 83db 8c3f 3401 ec3e 7e69 383f
00000080: 4dde e33e 3d66 b23f 0cd5 5a3f c416 b63f
00000090: b5b5 793f 6902 d53f 090c 1a3f 70f0 a53f
000000a0: 9b2d ec3e f70f 483f 56c9 d33e 614d 4c3f
000000b0: f91b 963f 8adb 443f dd00 f63e 2018 4e3f
0.39193296 0.9567375 1.2762867 0.778825 0.586441 0.7627729 0.45755404 1.1485214
0.6672034 0.6815206 1.1587024 1.0678186 0.8937013 0.570757 0.77486646 1.4382968
0.9228336 0.70607024 0.7947246 0.45000297 0.6398604 0.6296898 0.8133381 0.9952975
0.5190099 0.7612137 1.7474214 1.4238216 0.5080423 1.100449 0.46094668 0.7203597
0.4450554 1.3937451 0.85481334 1.4225698 0.9754289 1.664136 0.60174614 1.2964001
0.46128544 0.7814936 0.41364545 0.7980557 1.1727287 0.7689749 0.48047534 0.8050556

layers.1.bn1.bias f4 [48]
00000000: 7002 1f3f 001e bbbe a250 8a3d 6db4 7c3e
00000010: e0b4 d73e a738 b23e 010d 083f 52fd dbbc
00000020: 2d5c bb3e 2c39 a23e 49fd eebd e8b7 67be
00000030: 86e8 5d3e 46e2 093f bf3c 9e3e 9941 793e
00000040: 040e f23d bbb7 bc3e 6d70 a2be b3c6 123f
00000050: 579f e23e 664d c23e 0072 703e 5b66 dd3d
00000060: 1b3a 0c3f 4630 a7be 913f 873e e410 3dbd
00000070: 10ed f83e c8f7 3e3e c4e8 083f 23b2 a63e
00000080: 7f53 0e3f 9db0 3b3d ecae 79be 4589 a83d
00000090: 2785 b03d a397 b8be 38b2 d0be 8135 cebc
000000a0: 6a84 f73e b15e b0be 11fe 143f 19cc a53e
000000b0: 52c8 f2bd 5463 88be 6dff 1e3f f80e 7f3e
0.62113094 -0.36546326 0.06753661 0.24678202 0.42130184 0.34808847 0.5314484 -0.026854191
0.36593762 0.31684244 -0.11669404 -0.22628748 0.21670732 0.5386089 0.3090572 0.2434143
0.118190795 0.36858925 -0.317264 0.5733444 0.44262192 0.37949675 0.23480988 0.108105384
0.5477616 -0.32654017 0.26415685 -0.046158686 0.48618364 0.18649209 0.5348017 0.32557783
0.55596155 0.04582273 -0.24383134 0.08229307 0.08619147 -0.3605319 -0.4076097 -0.025171997
0.4834321 -0.34447244 0.58200175 0.32382277 -0.11854614 -0.2663828 0.621085 0.24908054

layers.1.bn1.running_mean f4 [48]
00000000: 840f ad3d 1331 99bd b0c9 02bc dfd7 93ba
00000010: 6772 15be 6952 b63d 9c4b c73d 5936 b03c
00000020: 6895 3a3d 82a6 983d d562 683d 8cbf 00be
00000030: e73b 053d 98b1 cabc 94a6 98bd 1a2c fa3d
00000040: 5b5a 9f3d db24 9f3b f68e 003d 8ac9 36bd
00000050: b938 7ebc 43cd 0a3c faa0 903b 3f6a c6bd
00000060: 12ab 3dbd d8c0 b1bd 3616 b5bd 3cea 61bd
00000070: 61ef e53d 68a6 70bc 385e ff3b 46d9 263c
00000080: 6c88 cdbd ca07 03bd 04e1 4fbd 6953 19bd
00000090: 1cb8 c73d 136c 083c 8306 0f3d a347 d6bd
000000a0: 0240 4a3d f4a2 4d3c 00cc 95bd d95d 66bd
000000b0: 9de1 cb3d 8ce4 a93c f7ee 2f3d 36b9 dbbc
0.08450225 -0.07480063 -0.007982656 -0.0011279545 -0.14594422 0.08902437 0.09731218 0.02151029
0.04555264 0.07453634 0.05673488 -0.1257307 0.03252783 -0.024742886 -0.07453647 0.12215443
0.07780906 0.0048566884 0.03138634 -0.044625796 -0.015516453 0.00847179 0.004413721 -0.096882336
-0.046305723 -0.0867936 -0.08842127 -0.055155024 0.112272985 -0.014688112 0.007793214 0.010183638
-0.10035786 -0.03198985 -0.0507517 -0.03743306 0.09751913 0.008326548 0.03491832 -0.10462882
0.04937745 0.012551058 -0.073143005 -0.056241844 0.09955142 0.020738862 0.042952504 -0.026821714

layers.1.bn1.running_var f4 [48]
00000000: 8d76 5c3f 0f7d 203f f231 a53f 99dd 4c3f
00000010: 989c 7a3f 0042 3a3f 505c 423f 4f59 2f3f
00000020: 1575 743f 925d 843f 48d6 443f bd4d 1a3f
00000030: 87be c13f 382c 1a3f 0ebf 453f 0114 1a3f
00000040: 2af1 923f f3c2 843f 9baa 1f3f 4945 2f3f
00000050: abea 9b3f 9135 143f 7e19 7c3f 14ab 293f
00000060: 2403 093f 8fb3 683f 4ba5 6b3f d6cd 6b3f
00000070: ad2b 0e3f 2d43 d43e 98c4 363f c658 973f
00000080: 28b2 493f 8b92 343f 4f55 823f bc54 0b3f
00000090: 3d60 1a3f a00a e23e 499e b73f 9cf1 143f
000000a0: 2299 573f aacf 4c3f 003b 933f b107 143f
000000b0: 7df9 0d3f 925a 453f 3f69 563f 8c6c 343f
0.86118394 0.62690824 1.2905867 0.8002563 0.97895193 0.7275696 0.7592211 0.6849565
0.95491153 1.0341055 0.7688947 0.6027487 1.5136269 0.6022372 0.7724465 0.60186774
1.1479847 1.0371994 0.623697 0.68465096 1.218099 0.57894236 0.984764 0.6627667
0.5352042 0.90898985 0.9204909 0.92110956 0.55535394 0.414575 0.7139373 1.1823967
0.7878747 0.70536107 1.0182284 0.5442617 0.603031 0.4414873 1.434518 0.58181167
0.8421804 0.8000437 1.150238 0.57824236 0.55458814 0.77091324 0.8375434 0.7047813

layers.1.conv2.weight f4 [48, 1, 3, 3]
00000000: 0493 16bf 2409 22be 6cdd 44bd 3b53 2fbd
00000010: 4e0f eebd bc5b 1dbe 26ad dd3e 527b 9a3e
00000020: e07f 073e 3803 bf3d 0ee9 573e a0b6 3f3e
00000030: 7989 403e 1e9b e23e 9ada 5c3e 5538 a13e
00000040: 7c1b 613e 0074 4fbc 88cb f3bd a99f 66be
00000050: 3aea 1cbe cb91 4ebe 76b3 f7be 9e50 4ebe
00000060: 1897 023e 926b 04be c3ec 58be da61 bebd
00000070: 6094 bdbe 2cf4 87be 4c82 903e e193 6e3d
00000080: 9ad8 acbe 9bc5 553e 96e8 ef3e 4ecf 503d
00000090: eff6 c23e ddcd 653e 4f2e 34be 8aa0 2d3e
000000a0: 46e4 1dbe 4201 a7be 081c 23bd a546 cabe
000000b0: d2ff 193e 6675 e8be a9dd eebd 6750 c1bd
000000c0: 6e99 2fbe c72a b4be a086 70bd d04c 553d
000000d0: c16c 81be 0511 3fbe 2878 423e e771 05bd
000000e0: a79d 95be 0167 a23e 6815 823d 6ced b7be
000000f0: 9ef5 9e3e 7406 b7bd 8102 01be 7ef1 54bd
00000100: a3fd 053e 8bf7 b23d 0e88 c93e cf32 bd3e
00000110: 1476 e1bc 1b42 b83e 4877 8f3e 440a f4bb
00000120: 33b9 2ebe fa35 6dbd 00bd 37be e636 4bbe
00000130: b8ef babe a699 94be 8a7a 8abe f668 ddbe
00000140: d639 74be b04a 2f3d b14f cdbe c1d0 34be
00000150: 3180 9bbe 208f e5be b0b2 34be 947b 35be
00000160: 287c 043d 6915 1dbe 9479 9f3e eed4 8c3e
00000170: 3f4a 643e 24c0 4b3e d417 a53e 3d8f d63b
00000180: 1808 18bd 90bf b6be 1498 77be e2e7 1bbe
00000190: b692 b7bd b5f1 b4bb e78b 5fbe acca 8f3e
000001a0: 3edb c23e 782a 0abe 6e4f b43e f40e c13e
000001b0: 69ba 2abe e2d9 78be 65c3 43be 9dd4 b9bd
000001c0: dae1 68be 0c2f ecbe 14dd 26be e742 c2bd
000001d0: cecc 65be 170c f23d 80fe 63bd 388e 193b
000001e0: dcf3 11bf 86a9 b13e 0b1c b2bc 51ff 373e
000001f0: 4454 a9be 7b13 963d 5a9d 383d 2257 983e
00000200: 375e 923e f4f9 d03e 2136 593e e055 4fbe
00000210: a545 78be 4e9b cfbe 59f2 4d3d fa1b 3a3e
00000220: e538 973d ed33 f73c 1ca6 353d b280 6b3e
00000230: 8adc 753e 06a0 7bbe 6474 1d3e 80e0 a53e
00000240: 21e8 58be c670 6abe fdca d3bc 4e0c 25bc
00000250: 8a8a cfbe 1599 f9bd f15b 83bb 7c7e 4ebe
00000260: 8700 dcbe 993c 16be d160 7ebe 87cb b33d
00000270: 3a41 753e 83ee 113f 8820 863e 24f9 fabb
00000280: 78c4 13be 4135 debe 22d5 9b3e a330 853e
00000290: efce ec3d 66be 493e ea90 ba3e 64c5 563e
000002a0: 0639 15be 009c 0f3e bcb0 1c3e d3fd 96be
000002b0: 419b 603e 0564 813d 15af 4d3e ff96 d2be
000002c0: 842c 5e3e b587 8a3d 0d24 023e 0b9b b9bd
000002d0: cf3b 07bc b9bb 49be 79a7 0cbe c744 e5bd
000002e0: 8829 afbe b3cf 05be 715b bfbe 908a 8abe
000002f0: 456f 753c a39a a13d 0f0b e9bc 6462 4cbe
00000300: 3f1c 2a3d 8cc2 003f 795c 2c3d cb02 f73e
00000310: 0fd9 943c 1045 6ebd e426 a33e 1cfc 3e3e
00000320: 67bc fe3d 638c dd3e d8cb be3e 1f34 443e
00000330: 95ab 733e e14d ca3d 7802 b03d e7d6 a93e
00000340: 4eaf 82be f442 efbc 9e2a 8c3e 1426 833e
00000350: 4825 a3be dbb6 87be 6c35 703e 80b3 543e
00000360: 52a7 34bd d77d 393e f616 bcbd d2a3 94be
00000370: ef96 253d fbfc 633e 66b8 16bf 70f4 c13d
00000380: 7584 de3e 41be 163e 27d7 363e 82c7 833e
00000390: 7525 bf3d cf2c bb3e 4210 f13e 6696 f23d
000003a0: 631d a13e 2b8f b33e 4173 1c3d b6b6 f2bd
000003b0: 4ce5 df3d 0750 fe3d 43b2 cfbe d3eb 733e
000003c0: fe5f 133e f17b e5be 0000 283e fe0a 973e
000003d0: a382 503d 5972 163e 7b9e de3d 4734 153f
000003e0: beaa 953c 336d 0e3e 7dfd 103f 9d30 46bd
000003f0: 7a9c 6fbe 5319 193d 1032 af3c 00e7 dbbe
-0.5881808 -0.158238 -0.048062727 -0.042803984 -0.11624013 -0.15367025 0.43296164 0.3017221
0.13232374 0.09326786 0.21084997 0.1872201 0.18802442 0.4425897 0.21567765 0.3148829
0.2198314 -0.012661934 -0.11904055 -0.22521843 -0.15323725 -0.20172803 -0.48379105 -0.2014794
0.1275295 -0.1293166 -0.21184067 -0.092960075 -0.37027264 -0.26553476 0.2822441 0.058246497
-0.33759004 0.20876162 0.46857136 0.05097895 0.3807902 0.22441812 -0.1759579 0.16955772
-0.1541911 -0.32618147 -0.039821655 -0.39507023 0.15038994 -0.45402068 -0.11663372 -0.09439164
-0.17148373 -0.35188887 -0.05872214 0.052075207 -0.25278285 -0.18658836 0.18991148 -0.03257933
-0.29221842 0.3171921 0.06351739 -0.35923326 0.31046766 -0.08936778 -0.12598611 -0.051988117
0.13085036 0.08738621 0.39361614 0.36952826 -0.027522124 0.35987934 0.28020692 -0.007447513
-0.17062835 -0.057912804 -0.17943192 -0.19845161 -0.36511016 -0.29023474 -0.27046615 -0.4324414
-0.23850188 0.042795837 -0.40099862 -0.17657758 -0.3037124 -0.44835758 -0.17646289 -0.17722923
0.032344967 -0.15340199 0.31147444 0.27506202 0.22293948 0.19897515 0.32244742 0.006547837
-0.037117094 -0.35693026 -0.24179107 -0.15225175 -0.0896353 -0.005521978 -0.21830712 0.28084314
0.38057894 -0.13492763 0.3521685 0.3770672 -0.16672672 -0.24301866 -0.19117506 -0.09073756
-0.22742406 -0.46129644 -0.16295272 -0.09485417 -0.22441408 0.11818712 -0.055662632 0.0023430716
-0.57012725 0.3469965 -0.021741888 0.17968489 -0.33072102 0.07327934 0.045071937 0.29753977
0.28587505 0.408157 0.21212055 -0.20247602 -0.24245317 -0.40548176 0.05027995 0.18174735
0.07383899 0.030176127 0.044347867 0.22998312 0.2400991 -0.24572763 0.15376431 0.32397842
-0.211823 -0.22894582 -0.025853628 -0.010073734 -0.40535384 -0.12187401 -0.004008763 -0.20165437
-0.42969152 -0.14671554 -0.2484162 0.08779054 0.23950663 0.57004565 0.26196694 -0.0076590944
-0.14430416 -0.43400005 0.30436045 0.2601367 0.11562907 0.19701537 0.36438686 0.20973736
-0.14572534 0.14024353 0.15301794 -0.29490528 0.21934225 0.06317905 0.2008632 -0.41130826
0.21696669 0.06764165 0.12709065 -0.09062775 -0.008254006 -0.19700517 -0.13735761 -0.11194759
-0.34211373 -0.13067512 -0.37374452 -0.2705884 0.014980142 0.07890823 -0.028447656 -0.19959408
0.041530844 0.50296855 0.042080376 0.48244318 0.018169908 -0.058171332 0.3186561 0.1865086
0.12438279 0.4327117 0.37264895 0.19160508 0.23795922 0.098781355 0.08594221 0.3317177
-0.25524372 -0.02920673 0.27376264 0.2561499 -0.3186438 -0.26506695 0.23457879 0.20771599
-0.04410488 0.1811441 -0.09184067 -0.29031235 0.040427145 0.22264473 -0.5887512 0.09470451
0.43460432 0.14721014 0.17855512 0.2573815 0.09333316 0.36557624 0.47082716 0.118450925
0.31467733 0.35070166 0.038195852 -0.118512556 0.10932407 0.12417608 -0.4056569 0.23820429
0.14392087 -0.44821122 0.1640625 0.29500574 0.050905835 0.14692058 0.108700715 0.58282894
0.018269893 0.13908844 0.5663679 -0.048386205 -0.23399535 0.037377667 0.021386176 -0.42949677

layers.1.bn2.weight f4 [48]
00000000: fc61 893f 1d4a 5f3f 3b82 4f3f 7822 ab3f
00000010: 2dbe 783f cdec 953f 2214 903f fa64 893f
00000020: d99f 6e3f 815f 613f 41f0 b43f 494c 503f
00000030: 69bb ae3f 9a16 803f d522 6c3f f7ef 7a3f
00000040: a229 973f deff 8a3f d840 5d3f 71e1 523f
00000050: 2c33 ac3f 9f52 5e3f b8b5 763f cfce 883f
00000060: 41b2 9b3f 30ca 5d3f 0708 833f 5a91 953f
00000070: f05a 6f3f fca3 6c3f c30d 693f ae16 613f
00000080: 2b98 883f bd53 623f bcec 693f f660 653f
00000090: 41cb 6c3f 14cb 833f e0bb 6d3f 0fd0 ad3f
000000a0: 1ec3 7b3f 54a7 573f 02b0 963f 9b37 6b3f
000000b0: 6124 633f 29ba 453f 8bc4 993f 3c7e 843f
1.0733027 0.8722246 0.8105809 1.3369894 0.97165185 1.1712891 1.1256144 1.0733941
0.9321266 0.8803635 1.413582 0.813664 1.3650943 1.0006897 0.9224065 0.9802241
1.180958 1.0859334 0.8642707 0.82375246 1.3453116 0.8684482 0.9637103 1.0688113
1.2163774 0.8663664 1.0236825 1.1684983 0.93498135 0.9243772 0.91036624 0.8792523
1.0671438 0.88409024 0.91376853 0.89601076 0.9249764 1.029635 0.928648 1.357912
0.983446 0.842397 1.1772463 0.9188172 0.88727385 0.7723718 1.2013105 1.0351024
