Project/Project_files/ckpt/mobilenetv2_19_4_stem/mobilenetv2_19_4_stem_67.pt (torch, 45163 bytes, 52 tensors)

conv1.weight f4 [24, 3, 3, 3]
0	0xbe1ea125	-0.1549116
1	0xbdbd43a1	-0.09241415
2	0x3e10175e	0.14071414
3	0xbc991352	-0.01868597
4	0x3dbddad2	0.09270252
5	0x3e391691	0.18075015
6	0xbe2d3607	-0.16915141
7	0xbeb8f58c	-0.36124837
8	0xbd22ac60	-0.03971517
9	0x3d26b17f	0.040696617
10	0x3e03957b	0.12849991
11	0xbe1ee2e8	-0.15516245
12	0xbd761f3f	-0.060088392
13	0x3f021e86	0.50827825
14	0xbdae0510	-0.08497059
15	0x3d3203bd	0.043460596
16	0xbd82f60a	-0.063945845
17	0xbe48af66	-0.19598159
18	0x3e538d22	0.20659307
19	0x3dcda0a8	0.100404084
20	0xbd07db6f	-0.033168253
21	0x3e4e8e5c	0.20171493
22	0x3f166861	0.5875302
23	0xbd6c83d3	-0.057742905
24	0xbdd9fcf5	-0.10643951
25	0xbe390634	-0.18068773
26	0xbdc2a4ad	-0.09504066
27	0x3e896ebb	0.26842293
28	0xbdd9756e	-0.10618101
29	0xbdf4c137	-0.11950915
30	0x3e54850c	0.20753878
31	0xbe56ed07	-0.20988856
32	0x3dbdc4be	0.09266041
33	0x3dbed237	0.09317439
34	0xbdc309e9	-0.095233746
35	0xbed472f2	-0.41493946
36	0x3e14e7eb	0.14541595
37	0x3dd3f650	0.10349715
38	0xbd2345d7	-0.039861526
39	0x3c6a2f60	0.014293522
40	0xbe1916f2	-0.14950159
41	0x3e8415a7	0.2579777
42	0xbdaa177f	-0.08305263
43	0xbcf2bc5b	-0.02963083
44	0xbe8f0c33	-0.27938995
45	0xbd846ea6	-0.06466417
46	0xbe915598	-0.28385615
47	0x3ca994b7	0.020700796
48	0xbe00db65	-0.12583692
49	0xbd94b9e6	-0.0726202
50	0x3eb4946d	0.3526949
51	0xbe87b890	-0.26507998
52	0x3caf8d06	0.02142955
53	0x3eb078a6	0.34467047
54	0x3dc22ff4	0.094818026
55	0xbedc81e8	-0.4306786
56	0xbea929b9	-0.33039644
57	0x3e63b0ce	0.22235414
58	0xbe1d83a5	-0.1538225
59	0xbe97e46f	-0.29666469
60	0x3e6823f1	0.2266996
61	0xbd8d7804	-0.06907657
62	0x3ec1a6b2	0.3782249
63	0x3bda45a2	0.006661133
64	0x3e9bc4d2	0.304236
65	0x3e2c8b3f	0.16849993
66	0x3e1cfcfb	0.1533088
67	0xbe01a7f9	-0.12661733
68	0xbd1053bd	-0.03523611
69	0xbd9d9697	-0.07694738
70	0xbd37e8d0	-0.04489976
71	0xbd013298	-0.03154239
72	0xbdbc594a	-0.09196718
73	0xbe0433bb	-0.12910359
74	0xbd8a4fe2	-0.06753518
75	0x3d3ba03a	0.0458071
76	0xbebd672c	-0.36992776
77	0xbc9976ba	-0.018733371
78	0x3ccfbfa7	0.025359942
79	0xbdc961e2	-0.09833123
80	0x3eb3eb66	0.35140532
81	0x3e865971	0.26240113
82	0xbdcc3f32	-0.09972991
83	0x3df78499	0.12085838
84	0x3e2f224a	0.17102924
85	0xbde81ee3	-0.11334016
86	0xbd8bf3f9	-0.068336435
87	0x3e3ae4d7	0.18251358
88	0xbeb040fd	-0.34424582
89	0xbea3f5cc	-0.32023466
90	0x3c81805b	0.015808275
91	0x3da993ce	0.08280145
92	0x3e60688c	0.21914881
93	0xbb6cfa9a	-0.0036160112
94	0xba8fe1b0	-0.0010977294
95	0x3e124a31	0.14286114
96	0x3eb3fb61	0.35152724
97	0xbcc21bc2	-0.023694877
98	0xbe6467b4	-0.22305185
99	0x3d7b8f4c	0.061415955
100	0xbc3f0db5	-0.011660983
101	0x3e77a08c	0.24182338
102	0xbd3bc413	-0.045841288
103	0xbe64755d	-0.22310396
104	0x3e3a7dcb	0.18212049
105	0x3de1e9d7	0.110309295
106	0xbdc1dc35	-0.09465829
107	0xbd83825a	-0.06421347
108	0x3d484bbb	0.048900347
109	0x3d0c4afe	0.034251206
110	0xbc39d359	-0.011341893
111	0xbe7e7811	-0.24850489
112	0xbe945239	-0.2896898
113	0x3e473b60	0.19456244
114	0xbd4b249c	-0.04959546
115	0xbe91ee61	-0.2850218
116	0x3da621bb	0.08111902
117	0x3decfc13	0.11571517
118	0xbcd09f6d	-0.025466645
119	0xbd0688dd	-0.032845367
120	0x3d0c84a3	0.03430618
121	0xbdbe76e3	-0.093000196
122	0x3f004ecb	0.5012023
123	0x3de7f745	0.1132646
124	0xbdf2d411	-0.11856855
125	0x3e9c1e63	0.30491933
126	0xbcb4907b	-0.02204155
127	0x3d8eee51	0.06979049
128	0xbdebe78f	-0.11518776
129	0x3b126dfe	0.0022343392
130	0xbdd7d114	-0.10537925
131	0x3eab3fea	0.334472
132	0x3e42aacd	0.19010468
133	0xbd7eb94e	-0.06218844
134	0xbe5a7a2f	-0.21335672
135	0xbe554c2a	-0.20829836
136	0x3e2db8f1	0.16965081
137	0x3ba0535c	0.0048927497
138	0xbeb7e38f	-0.359158
139	0x3e487cba	0.1957883
140	0x3bca41fa	0.006172416
141	0x3dfd98c0	0.123826504
142	0x3d697d12	0.057004042
143	0xbe28064f	-0.16408657
144	0xbdc12993	-0.09431758
145	0x3d89a009	0.067199774
146	0x3dc5d3de	0.09659551
147	0xbdeec5f0	-0.11658847
148	0x3ef7976d	0.48357716
149	0x3e3409e4	0.17581898
150	0xbe3bcc0e	-0.1833956
151	0x3d063b6e	0.03277152
152	0xbe39b673	-0.18136005
153	0x3dff2af6	0.12459366
154	0xbdef0a03	-0.116718315
155	0xbdfe0cab	-0.1240476
156	0xbde21528	-0.110391915
157	0x3ebc3bb4	0.367643
158	0xbdeedcf8	-0.1166324
159	0x3bb7d8aa	0.005610545
160	0x3e22be02	0.15892795
161	0xbcc05fa1	-0.0234831
162	0xbebe42b3	-0.37160262
163	0xbe045ea8	-0.12926733
164	0xbd5c01a5	-0.053712506
165	0x3e54af3b	0.2076997
166	0x3e063c0d	0.13108845
167	0x3e2a6a9f	0.16642235
168	0x3da08808	0.07838446
169	0x3d9a2caa	0.0752805
170	0xbd0bc4a6	-0.034123085
171	0xbdb4b988	-0.0882445
172	0xbe3403bd	-0.17579551
173	0x3e773068	0.2413956
174	0x3e56af50	0.20965314
175	0xbe179ffe	-0.14807126
176	0x3e1fc97d	0.15604205
177	0x3dabc200	0.08386612
178	0x3e2fbb22	0.17161229
179	0x3e3b0d57	0.18266807
180	0x3dc18338	0.09448856
181	0xbe16c5a7	-0.14723836
182	0x3dfc0d15	0.12307183
183	0xbc3beea5	-0.0114704715
184	0xbef11d5a	-0.47092706
185	0xbdf75348	-0.120764315
186	0xbe14ee0e	-0.14543936
187	0xbe94b42b	-0.29043707
188	0xbe7d0365	-0.24708326
189	0xbdd6c6a5	-0.10487107
190	0xbd924d0b	-0.07143601
191	0x3db6dd3a	0.08928914
192	0xbd525ed0	-0.05135995
193	0xbe383e01	-0.17992403
194	0xbea7ff71	-0.32812074
195	0x3d9a8b8b	0.07546147
196	0x3dafc9da	0.08583422
197	0x3e2a5779	0.1663493
198	0xbde8ec92	-0.11373247
199	0xbe90064f	-0.28129813
200	0xbda182c9	-0.078862734
201	0xbda8f53e	-0.08249901
202	0xbd782d59	-0.060590122
203	0xbe488768	-0.19582903
204	0x3d9aacca	0.07552488
205	0x3ec8c6c9	0.3921416
206	0x3e90851e	0.2822656
207	0xbe195591	-0.14974047
208	0x3ddac271	0.10681618
209	0xbd31781f	-0.043327447
210	0x3c054e46	0.008136338
211	0x3e5d183c	0.21591276
212	0xbe2b6929	-0.16739334
213	0xbdd38d52	-0.10329689
214	0x3efc7979	0.49311426
215	0x3ea7dcfa	0.3278578
216	0xbddd027d	-0.1079149
217	0xbe24056a	-0.1601769
218	0xbe21b2e8	-0.15790904
219	0x3cf405bc	0.02978789
220	0xbe271f41	-0.16320516
221	0xbbc78d7b	-0.006089864
222	0x3e5e6186	0.2171689
223	0x3e7e808c	0.24853724
224	0x3e812427	0.25222895
225	0x3c7038d7	0.014661989
226	0xbe724693	-0.23659734
227	0x3de4dff1	0.11175526
228	0x3e08969c	0.13338703
229	0xbe85d3a0	-0.2613802
230	0x3dc4ff01	0.09618951
231	0xbeac1448	-0.33609223
232	0x3dac050d	0.08399401
233	0x3e843886	0.25824374
234	0x3e8c8a01	0.2744904
235	0xbd5f33c2	-0.05449272
236	0x3d80fd15	0.062982716
237	0x3efe3e98	0.4965713
238	0xbe1fe43c	-0.15614408
239	0xbdc66156	-0.09686534
240	0xbe4e654b	-0.20155828
241	0xbcd1c8b2	-0.025608394
242	0x3d97f851	0.074204095
243	0xbd4a87b1	-0.04944581
244	0xbefa2035	-0.48852697
245	0xbe61fae8	-0.2206837
246	0x3df63b21	0.12022997
247	0xbe4cd1a4	-0.20001847
248	0x3e306fa9	0.17230095
249	0x3e3e4d49	0.1858417
250	0x3e6d516d	0.23175593
251	0x3e315d75	0.17320807
252	0x3d711049	0.05885342
253	0x3e5c82bb	0.21534245
254	0x3e1b533d	0.15168472
255	0xbd8ccf9f	-0.06875538

bn1.weight f4 [24]
0	0x3f562747	0.8365368
1	0x3f708124	0.9394705
2	0x3f6e95e3	0.9319746
3	0x3f8a11cd	1.0786682
4	0x3f7a07d8	0.9766822
5	0x3f88492a	1.0647328
6	0x3f80d0b9	1.0063697
7	0x3f7f073c	0.99620414
8	0x3f8cead0	1.1009159
9	0x3f6ea157	0.93214935
10	0x3f491d3d	0.7856024
11	0x3fb6ba14	1.4275537
12	0x3f61ca9b	0.88199776
13	0x3f7aec42	0.9801675
14	0x3f8ab7d0	1.0837345
15	0x3f5f33e9	0.87188584
16	0x3f6c8ea9	0.9240518
17	0x3f7f6682	0.9976579
18	0x3f74669b	0.95469064
19	0x3f28c518	0.6592574
20	0x3f96a0e3	1.1767849
21	0x3f8964ae	1.073385
22	0x3f91beb6	1.1386325
23	0x3f9b1534	1.2115846

bn1.bias f4 [24]
0	0x3d8b774c	0.068098634
1	0x3c7a9735	0.01529484
2	0x3cf26261	0.029587926
3	0xbccc5b77	-0.024945958
4	0xbccf1bbe	-0.025281783
5	0xbdd4afec	-0.10385117
6	0x3d6e1abe	0.058130972
7	0xbdbaf30e	-0.0912839
8	0xbb922f4f	-0.004461206
9	0x3cd7e215	0.026352922
10	0xbbb08b75	-0.0053877183
11	0x3d0dda90	0.034632266
12	0xbdc84d82	-0.097804084
13	0x3af231c8	0.0018477971
14	0xbd2ce812	-0.042213507
15	0x3d7d9973	0.06191392
16	0x3e2acd71	0.16679932
17	0x3c523b6e	0.012831552
18	0x3ceb11c4	0.028694995
19	0x3d9f7f0a	0.07787903
20	0x3e053462	0.13008264
21	0xbe2cd3d3	-0.1687768
22	0x3d5e034d	0.054202367
23	0x3d80958c	0.06278524

bn1.running_mean f4 [24]
0	0x3ca5b8d3	0.020229733
1	0xb9d76226	-0.00041081122
2	0xbc3cc2d6	-0.011521062
3	0x3b867b1d	0.0041040317
4	0x3aebbda7	0.0017985598
5	0x3c125900	0.008932352
6	0xbba954ff	-0.005167603
7	0xbc41dcec	-0.011832457
8	0xba30e16a	-0.00067474565
9	0x3c2bbf33	0.010482597
10	0xbaac971e	-0.0013167595
11	0x3c061cf1	0.008185611
12	0x3bb65a42	0.005564959
13	0xba86c3dd	-0.001028176
14	0x3b77a1a6	0.003778556
15	0xbb93bae4	-0.004508363
16	0x3c636a82	0.013880374
17	0x3b5b6cd5	0.0033481617
18	0xbb2b0e27	-0.0026100965
19	0x3c318de1	0.010837049
20	0x3c1a97bc	0.00943559
21	0x3b7ffe3f	0.0039061455
22	0x3bca1b23	0.0061677857
23	0xbb217222	-0.002463468

bn1.running_var f4 [24]
0	0x3f64da80	0.89395905
1	0x3ecd4bdb	0.40096936
2	0x3f21b1a0	0.6316166
3	0x3f3fcd92	0.7492305
4	0x3ee5c97c	0.44880283
5	0x3ee5aecf	0.4485993
6	0x3f64670a	0.89219725
7	0x3fa0b382	1.2554781
8	0x3ec5d0cc	0.38635862
9	0x3e915f7f	0.2839317
10	0x3efaacc1	0.48959926
11	0x3eb20920	0.34772587
12	0x3edeca94	0.4351393
13	0x3e27d8df	0.16391324
14	0x3f2b9683	0.6702654
15	0x3f24c316	0.6436018
16	0x3f1943d2	0.5986911
17	0x3f1c8674	0.6114266
18	0x3e71e567	0.23622666
19	0x3fff369b	1.9938539
20	0x3ea7716b	0.3270372
21	0x3f4345b4	0.76278234
22	0x3eaf613e	0.34253877
23	0x3ec4d90a	0.38446838

layers.0.conv1.weight f4 [24, 24, 1, 1]
0	0xbd71a899	-0.058998678
1	0x3dfcbd09	0.12340743
2	0xbbbd001d	-0.005767836
3	0x3e9bcb72	0.30428654
4	0x3d396060	0.045257926
5	0xbdd2ce75	-0.10293285
6	0xbe19cee8	-0.15020335
7	0xbe5a55b9	-0.21321763
8	0xbdc15bb5	-0.0944132
9	0xbdc568f8	-0.09639162
10	0xbad2774c	-0.0016057282
11	0xbe8cc278	-0.27492118
12	0xbe111bb0	-0.14170718
13	0xbc401523	-0.011723789
14	0x3cc9a40a	0.024614353
15	0x3e9f2335	0.31081548
16	0x3d2524fc	0.040318474
17	0x3eb9c166	0.36280364
18	0x3e9e7fdb	0.3095692
19	0xbcea5a1f	-0.028607426
20	0xbe8347ba	-0.2564066
21	0x3e014cd8	0.1262697
22	0xbe8128ea	-0.25226527
23	0xbe570f0c	-0.21001834
24	0xbe89b5a2	-0.26896387
25	0xbd0516cb	-0.03249244
26	0x3d171032	0.03688068
27	0xbe2d2eae	-0.16912338
28	0xbec78b0e	-0.38973278
29	0xbe90509b	-0.28186497
30	0x3edcff88	0.43163705
31	0xbe92b4ae	-0.28653473
32	0xbd699ade	-0.05703246
33	0x3e3d655f	0.18495701
34	0xbd180cae	-0.037121467
35	0xbdc4e24e	-0.09613477
36	0x3d21d8fc	0.039513573
37	0xbdc1f2ef	-0.09470164
38	0x3e364601	0.17800142
39	0x3dce0988	0.10060412
40	0x3dae6b5c	0.08516571
41	0x3eb45989	0.3522456
42	0x3e0be2ee	0.13660786
43	0x3e3432fd	0.17597575
44	0x3b9c7754	0.004774967
45	0xbe0ccc4d	-0.1374981
46	0x3e1c0eb7	0.15239988
47	0x3ce8e34c	0.028428696
48	0xbe886c97	-0.26645347
49	0x3ec02fc0	0.3753643
50	0x3de62bc9	0.1123882
51	0x3d44014d	0.047852803
52	0x3b4a098b	0.0030828442
53	0xbe15b7ed	-0.14620943
54	0xbe703603	-0.23458104
55	0x3d9e45e5	0.07728175
56	0xbec268b3	-0.37970504
57	0xbe961e53	-0.2932001
58	0xbeb50e0f	-0.35362288
59	0xbde3cb1a	-0.11122723
60	0xbe0e118c	-0.13873881
61	0xbc4b15e5	-0.012395357
62	0xbaca3c46	-0.001542934
63	0x3d53c4ab	0.05170123
64	0xbebc52a5	-0.36781803
65	0x3c976d60	0.018484771
66	0x3d97e509	0.07416732
67	0xbe5dddb7	-0.21666609
68	0xbe87a5a7	-0.2649357
69	0x3e0f7dd7	0.14012848
70	0xbea127f8	-0.31475806
71	0x3df1def9	0.11810107
72	0x3d0007b5	0.03125735
73	0x3e0e0c94	0.13871986
74	0x3dede222	0.11615397
75	0x3d32993b	0.043603163
76	0x3ddf6a48	0.109089434
77	0x3ddb2b03	0.10701563
78	0x3dcd155d	0.1001384
79	0xbdd4712d	-0.10373149
80	0x3df4acab	0.11946996
81	0x3eda3361	0.42617324
82	0xbc935808	-0.017986313
83	0x3f09d0d5	0.5383428
84	0xbe7c7869	-0.24655308
85	0xbd18cf0c	-0.03730683
86	0x3e1236d0	0.14278722
87	0xbcdf388c	-0.027248643
88	0x3e06ca90	0.13163209
89	0x3dcb45c0	0.09925413
90	0xbdf193bc	-0.11795756
91	0x3e0fccb5	0.14042933
92	0x3de3ab42	0.11116649
93	0xbe114860	-0.14187765
94	0xbc8f7f66	-0.017516803
95	0xbf03087a	-0.5118481
96	0x3d7dd4b8	0.061970443
97	0xbdd299e8	-0.102832615
98	0xbec57823	-0.3856822
99	0xbcc31864	-0.023815341
100	0x3d06a076	0.03286787
101	0xbdeac0bf	-0.11462545
102	0x3d89a22c	0.06720385
103	0xbcaa24b0	-0.020769447
104	0xbce2d376	-0.027688723
105	0xbec83455	-0.39102426
106	0x3ddc734d	0.107641794
107	0xbda070a8	-0.078339875
108	0xbac4ce0e	-0.0015015022
109	0xbed415f5	-0.41423002
110	0xbe2d2e40	-0.16912174
111	0xbd490bb9	-0.049083445
112	0x3dc33874	0.09532252
113	0xbe4b02bf	-0.19825266
114	0x3eaf5588	0.34244943
115	0x3e25da5c	0.16196579
116	0xbcbc1a26	-0.022961687
117	0xbd9fd8f3	-0.07805052
118	0xbe5712ff	-0.2100334
119	0x3e9d9b8d	0.30782738
120	0x3d80f1c0	0.0629611
121	0xbe49772b	-0.19674365
122	0xbe0a74d5	-0.1352113
123	0xbe45536b	-0.19270103
124	0xbe6764fe	-0.22597119
125	0x3e87c8a2	0.26520258
126	0xbe1d3827	-0.15353452
127	0x3ddee4ef	0.10883509
128	0xbe4bc925	-0.1990095
129	0x3d6c6697	0.057715025
130	0xbe242ca2	-0.16032651
131	0x3e945957	0.2897441
132	0x3e921a28	0.2853558
133	0xbd5b712b	-0.053574722
134	0xbe3f84c7	-0.18702994
135	0x3e1ccc5a	0.15312329
136	0x3dcbf1df	0.099582426
137	0x3e9613dd	0.2931203
138	0x3d52740a	0.051380195
139	0xbd1ba8da	-0.038002826
140	0x3c9e97b8	0.019359455
141	0x3ebd18d6	0.3693301
142	0xbe2f1fcf	-0.17101978
143	0xbe935ca9	-0.28781632
144	0x3e2a4a11	0.16629817
145	0xbe81d81f	-0.253602
146	0xbc9f8495	-0.0194724
147	0xbea468f9	-0.32111338
148	0xbe4a3c0c	-0.19749469
149	0xbdc24ad7	-0.09486931
150	0xbec0be07	-0.3764498
151	0xbda2c7d9	-0.07948274
152	0x3df8f156	0.12155406
153	0xbe81ab9e	-0.25326246
154	0xbd2942fc	-0.041323647
155	0xbda3169c	-0.07963297
156	0xbe8240ad	-0.2543997
157	0xbe42f32d	-0.19038077
158	0xbe73211d	-0.237431
159	0xbe23870c	-0.15969485
160	0x3eb81212	0.35951287
161	0x3de9d86c	0.11418232
162	0x3e96878e	0.29400295
163	0xbe14c948	-0.14529908
164	0x3e9d67ca	0.30743247
165	0x3d5accab	0.053417843
166	0x3b5706cd	0.003281045
167	0x3e2565bd	0.16152091
168	0x3dc1eeb1	0.09469355
169	0x3e7ca7a7	0.2467333
170	0xbe95978a	-0.29217178
171	0x3e4b5a15	0.19858582
172	0xbe01c168	-0.12671435
173	0x3e0660f7	0.13122927
174	0xbe02d791	-0.12777545
175	0x3d87df8f	0.06634437
176	0xbe0a8535	-0.13527377
177	0xbde906f8	-0.11378282
178	0x3c3227cb	0.010873745
179	0xbe28fb42	-0.16502097
180	0x3e3b3cba	0.18284884
181	0x3d98258f	0.07429039
182	0x3e0aba6d	0.13547678
183	0xbe9d7601	-0.30754092
184	0x3e9350bf	0.28772542
185	0x3be87bf9	0.007094857
186	0x3ce50a50	0.027959019
187	0x3c824594	0.015902318
188	0x3e8a4053	0.270022
189	0x3e302f87	0.1720563
190	0x3c95c542	0.018282536
191	0x3ee2852e	0.44242233
192	0x3e84cc19	0.25936964
193	0xbd4fd099	-0.050736044
194	0xbd83253b	-0.064035855
195	0xbe239a4d	-0.1597683
196	0x3e4ba7df	0.19888256
197	0x3e23627f	0.15955542
198	0xbf13ccda	-0.57734454
199	0x3d8c7f13	0.06860175
200	0x3db1e0ee	0.0868548
201	0xbcb1108b	-0.021614334
202	0xbe3c0068	-0.1835953
203	0xbe8eedae	-0.2791571
204	0xbe10f52d	-0.14156027
205	0x3da5ad35	0.08089677
206	0xbe55fdf1	-0.20897652
207	0x3d2452b1	0.040117923
208	0xbdf1e30f	-0.11810886
209	0xbeabee2e	-0.33580154
210	0xbe57a7dd	-0.21060129
211	0xbe949701	-0.29021457
212	0x3e23472f	0.15945123
213	0x3d7caa50	0.06168586
214	0xbdab0087	-0.0834971
215	0xbdc161dc	-0.09442493
216	0xbd47e39f	-0.04880106
217	0x3eb5f46d	0.35538045
218	0x3e8da713	0.2766653
219	0x3eb34032	0.35009915
220	0xbe871ae3	-0.263877
221	0xbe9352d2	-0.28774124
222	0xbe97ac81	-0.29623798
223	0x3e2e9c35	0.17051776
224	0xbe3d7fe1	-0.18505813
225	0xbe4bc49d	-0.19899221
226	0x3e056929	0.13028397
227	0xbbabc605	-0.0052421116
228	0x3d8df3a6	0.06931238
229	0x3e627734	0.22115785
230	0xbbe0af72	-0.006856852
231	0xbdd1a5e4	-0.10236719
232	0x3e6da3d7	0.23207031
233	0xbdeb9d80	-0.1150465
234	0xbdbdb188	-0.09262377
235	0xbe51035f	-0.20411442
236	0xbb1c438f	-0.002384398
237	0x3e22a59b	0.15883486
238	0x3dae57f0	0.085128665
239	0xbd72bb4b	-0.059260648
240	0x3e01752a	0.12642351
241	0xbe4e530e	-0.2014887
242	0x3c93d783	0.0180471
243	0x3e626397	0.22108303
244	0xbe6b4089	-0.22973837
245	0xbd37b71c	-0.04485236
246	0x3c89cd63	0.016821569
247	0x3bdaa681	0.006672681
248	0x3c1c8b82	0.009554746
249	0xbc4563f6	-0.012047758
250	0xbe085eea	-0.13317457
251	0x3ea2b0fe	0.3177566
252	0xbdfa7351	-0.12229026
253	0x3e765ed2	0.24059609
254	0xbef1d481	-0.4723244
255	0xbe479f78	-0.19494426

layers.0.bn1.weight f4 [24]
0	0x3f27acc2	0.6549798
1	0x3f1f7170	0.62282467
2	0x3f220ee5	0.6330398
3	0x3f85dc06	1.0457771
4	0x3fb86981	1.4407197
5	0x3f98955b	1.192058
6	0x3f241676	0.6409677
7	0x3ef7e01a	0.48413163
8	0x3f853468	1.0406618
9	0x3f865a36	1.049628
10	0x3f723c11	0.94622904
11	0x3f4a73bd	0.7908285
12	0x3f52c411	0.82330424
13	0x3f3d27a7	0.7388863
14	0x3f46f02b	0.7771022
15	0x3fa23851	1.2673436
16	0x3f7b1317	0.98076004
17	0x3f8ed2f5	1.1158129
18	0x3f8af55d	1.0856129
19	0x3fc1c0be	1.5136945
20	0x3f53b580	0.8269882
21	0x401187eb	2.2739208
22	0x3f14087b	0.5782544
23	0x3f67d824	0.9056418

layers.0.bn1.bias f4 [24]
0	0x3eac4eb6	0.33653802
1	0x3ec6c3ab	0.38821158
2	0x3ea8f7fa	0.3300169
3	0xbe5f35a8	-0.21797812
4	0xbe996969	-0.29963234
5	0xbd3d1b47	-0.04616859
6	0x3e8c115e	0.27357
7	0x3f05a888	0.52210283
8	0x3e0b9ecd	0.13634796
9	0x3d9d81a0	0.0769074
10	0xbcbb1d25	-0.022841046
11	0x3e5b3cbc	0.21409887
12	0xbe86a11e	-0.26294798
13	0x3e9cb267	0.3060486
14	0x3e7caa43	0.24674325
15	0x3cd4fa31	0.025998207
16	0xbe150a76	-0.14554772
17	0xbe5edcb6	-0.21763882
18	0xbd93c8da	-0.07216044
19	0xbdde2eec	-0.108487934
20	0x3e3e7c81	0.18602182
21	0xbf0da07c	-0.55323005
22	0x3eca7e31	0.395494
23	0xbe3b7cf8	-0.1830939

layers.0.bn1.running_mean f4 [24]
0	0xbd00dfb7	-0.03146335
1	0x3e14e93b	0.14542095
2	0xbe1c5cf7	-0.15269838
3	0x3db79f02	0.08965875
4	0x3d578b30	0.052622974
5	0xbdd46716	-0.103712246
6	0x3e0514c1	0.12996198
7	0x3ba9481c	0.005166067
8	0xbda37708	-0.07981688
9	0xbca9c7cd	-0.020725155
10	0x3dfcf01b	0.12350484
11	0xbe4070d9	-0.18793048
12	0x3d9bd2eb	0.07608589
13	0xbd8646ba	-0.06556459
14	0xbe1a224e	-0.15052149
15	0xbdd4fdc2	-0.10399963
16	0x3c2eb1dd	0.010662523
17	0x3dd99c6e	0.1062554
18	0x3ddc6e20	0.10763192
19	0x3e1956e2	0.1497455
20	0xbe062a34	-0.13102037
21	0x3c94faa1	0.018185915
22	0x3c7397ab	0.014867703
23	0x3e115660	0.14193106

layers.0.bn1.running_var f4 [24]
0	0x3f773f04	0.9658053
1	0x3f9be8f5	1.2180468
2	0x4018ddfb	2.3885486
3	0x3fb163d4	1.385859
4	0x3f1a47ad	0.6026562
5	0x405605db	3.3441074
6	0x3f942d20	1.1576271
7	0x400c301a	2.190436
8	0x3f8303f2	1.0235579
9	0x3f483ad8	0.7821479
10	0x3ffc1546	1.9693992
11	0x404a078e	3.156711
12	0x4005ec45	2.0925457
13	0x3ffdf1ce	1.9839418
14	0x3fff2122	1.9931986
15	0x40370396	2.8595939
16	0x3f66cecc	0.90159297
17	0x401ecf60	2.4814072
18	0x40748cb0	3.821087
19	0x401d047d	2.453399
20	0x3fd7c775	1.6857744
21	0x400a0e9f	2.1571424
22	0x3f731fd7	0.9497046
23	0x40399075	2.899442

layers.0.conv2.weight f4 [24, 1, 3, 3]
0	0x3e2235a4	0.15840775
1	0x3e6dd18e	0.2322447
2	0xbe024661	-0.1272216
3	0xbee0ee4b	-0.43931803
4	0xbe6cc8f3	-0.23123531
5	0x3e3c7144	0.18402582
6	0x3e334856	0.17508063
7	0xbc9dcbb5	-0.019262174
8	0xbca58c5b	-0.020208528
9	0xbebf2608	-0.37333703
10	0xbe812f9a	-0.2523163
11	0xbd330d65	-0.043713946
12	0xbd826514	-0.06366935
13	0xbe59bcd4	-0.21263438
14	0xbe17b6e6	-0.14815864
15	0x3eaa57b9	0.33270052
16	0x3e791372	0.24323824
17	0x3dea6e40	0.1144681
18	0x3e8037e3	0.25042638
19	0x3c9e5212	0.019326244
20	0xbe92414c	-0.28565443
21	0x3e9c25fd	0.30497733
22	0xb905baf1	-0.0001275351
23	0xbe8677f3	-0.2626339
24	0x3e125bea	0.14292875
25	0xbce8eba4	-0.028432675
26	0xbe0748da	-0.13211384
27	0xbc6b7e26	-0.014373338
28	0xbdb02ad6	-0.0860192
29	0xbcb6c572	-0.022310946
30	0xbed8c412	-0.4233709
31	0xbf23fe53	-0.6405994
32	0xbe0b37d8	-0.13595521
33	0xbed222b6	-0.41042107
34	0xbdf02402	-0.11725618
35	0xbd293175	-0.04130693
36	0x3da217a2	0.07914664
37	0x3e0133aa	0.12617365
38	0x3e19f4da	0.1503481
39	0x3ea87e6d	0.32908955
40	0x3ee98a56	0.45613354
41	0x3eaca1a1	0.33717063
42	0x3e062bbe	0.13102624
43	0x3e228d81	0.15874292
44	0xbdc2f591	-0.09519494
45	0xbd0c177e	-0.03420209
46	0x3b230146	0.0024872585
47	0xbdc0869b	-0.09400674
48	0xbe9c514b	-0.30530772
49	0xbf2486c4	-0.64268136
50	0xbe68c92a	-0.22732988
51	0xbdb23064	-0.08700636
52	0xbf1ee665	-0.62070304
53	0xbe89d903	-0.2692338
54	0xbebebfa1	-0.37255576
55	0x3cf12a66	0.029439162
56	0xbd0461ab	-0.032319706
57	0xbe0a9a54	-0.13535434
58	0x3e6f5f3e	0.23376176
59	0x3e922f8b	0.28551897
60	0xbee3ce98	-0.44493556
61	0x3e0e4548	0.13893616
62	0x3db257ee	0.087081775
63	0xbe14b7f0	-0.14523292
64	0xbe194731	-0.14968564
65	0x3e1de925	0.15420969
66	0xbe2eacfe	-0.17058179
67	0xbd50602e	-0.050872974
68	0x3ed11ca9	0.40842178
69	0xbea2d729	-0.3180478
70	0x3e5c9548	0.21541321
71	0x3eaa94ad	0.33316556
72	0x3e55990d	0.20859165
73	0x3e8806b4	0.26567614
74	0xbd9e8612	-0.07740416
75	0xbe2b5be0	-0.16734266
76	0x3d01de48	0.031706125
77	0xbdd0e155	-0.10199229
78	0xbeea6db0	-0.4578681
79	0xbe6d4fb4	-0.23174936
80	0xbefc2691	-0.49248174
81	0xbe993ca7	-0.29929087
82	0x3e5b5bbd	0.21421714
83	0x3e7cf6ff	0.24703597
84	0x3db8f898	0.090317905
85	0x3e1f3577	0.15547739
86	0x3e11c516	0.14235339
87	0x3ef28f32	0.47374874
88	0x3de51165	0.11184958
89	0xbf028c82	-0.5099565
90	0x3ef990f2	0.48743397
91	0x3f030556	0.51180017
92	0x3ea2a3dc	0.3176564
93	0x3e0c3f06	0.13695917
94	0x3eb82a31	0.3596969
95	0x3d9b53eb	0.075843655
96	0xbe07e9c2	-0.13272765
97	0x3ca5d44d	0.020242834
98	0x3cde3446	0.027124535
99	0xbe7c9098	-0.24664533
100	0xbdd4b400	-0.10385895
101	0xbe772bd0	-0.24137807
102	0xbea35dbb	-0.31907448
103	0xbe8dd479	-0.27701166
104	0xbea36e9f	-0.31920335
105	0x3ecfab85	0.40560547
106	0x3a9054d4	0.0011011609
107	0x3c26e9b3	0.010187554
108	0x3e8f05ee	0.27934211
109	0x3e11c4df	0.14235257
110	0xbd7f91ef	-0.062395032
111	0x3e9c28aa	0.30499774
112	0x3c151d20	0.009101182
113	0x3d8729a9	0.06599743
114	0xbdaf96e0	-0.08573699
115	0x3e66e5d9	0.22548617
116	0x3e9ff231	0.31239465
117	0xbe96eb33	-0.29476318
118	0xbda1df82	-0.07903959
119	0x3dc06798	0.09394759
120	0xbc86dc33	-0.016462421
121	0xbe8c2710	-0.27373552
122	0x3d7e3ab4	0.062067702
123	0xbf08b72c	-0.534045
124	0xbf08bf07	-0.53416485
125	0xbe1c6a30	-0.15274882
126	0xbe2b4367	-0.1672493
127	0xbefbcbfc	-0.49179065
128	0xbebaa329	-0.36452606
129	0x3edeffee	0.43554634
130	0x3e840901	0.2578812
131	0x3e26c0d0	0.1628449
132	0x3d3f8759	0.046759937
133	0x3c15db8d	0.009146583
134	0xbd56244f	-0.05228072
135	0x3ef94862	0.48688036
136	0x3eb17fc4	0.3466779
137	0x3e3c7150	0.184026
138	0x3ea273e2	0.31729037
139	0x3e7a497c	0.24442095
140	0x3dc1e692	0.09467806
141	0xbc9c0a9d	-0.01904803
142	0x3e128354	0.1430791
143	0xbe10b6ab	-0.14132182
144	0xbe8fdbe6	-0.28097457
145	0x3e7116fe	0.23543927
146	0xbe8860be	-0.26636308
147	0xbf21c37f	-0.6318893
148	0xbcd023a3	-0.025407618
149	0xbdc26597	-0.09492033
150	0xbe064de5	-0.13115652
151	0xbd551436	-0.052021228
152	0xbed75464	-0.42056572
153	0x3ea18916	0.315499
154	0x3ed86850	0.42267084
155	0x3dcf939c	0.10135576
156	0x3cb06c53	0.021536028
157	0x3eb9170a	0.3615039
158	0x3e575af9	0.21030797
159	0x3dd2b897	0.10289114
160	0xbe80b460	-0.25137615
161	0xbe3c4ff3	-0.18389873
162	0x3da3a1eb	0.07989868
163	0x3d09a061	0.033600215
164	0xbd8b6c09	-0.068077154
165	0xbdf8db93	-0.121512555
166	0xbee3f305	-0.44521347
167	0xbe39993c	-0.1812486
168	0xbe8fab75	-0.280605
169	0xbedee071	-0.4353061
170	0xbe616c32	-0.2201393
171	0xbf39954c	-0.72493434
172	0xbf1f1630	-0.6214323
173	0xbf3e7dc0	-0.7441063
174	0x3d59e3a4	0.05319561
175	0xbd57fe19	-0.05273256
176	0xbd1fcdaa	-0.039014496
177	0xbd52c218	-0.051454633
178	0x3c9d3296	0.01918916
179	0x3e2e7e0d	0.17040272
180	0xbe0f96dd	-0.14022394
181	0xbe010d3e	-0.12602708
182	0xbeafbda8	-0.34324384
183	0x3e120698	0.14260328
184	0x3ec08cdf	0.37607476
185	0x3dcd8764	0.10035589
186	0xbd81083e	-0.063004
187	0x3e8c4d0a	0.27402526
188	0x3eb2e64b	0.34941325
189	0x3e8c688f	0.27423522
190	0xbd8246d6	-0.06361167
191	0xbe918419	-0.28421095
192	0x3e8dc563	0.27689657
193	0x3e5fd7c5	0.21859653
194	0x3dfc83bd	0.123298146
195	0x3ea42ece	0.3206696
196	0x3e5a5f28	0.21325362
197	0x3ea1ec07	0.31625387
198	0xbf0df43a	-0.55450785
199	0x3e093c14	0.13401824
200	0xbd93eb07	-0.07222562
201	0xbeb03172	-0.34412724
202	0x3e0d5ab4	0.13804132
203	0x3e9b1c16	0.30294865
204	0xbe824c48	-0.25448823
205	0x3e21eb2e	0.1581237
206	0x3e481efe	0.19543073
207	0xbe6b7701	-0.22994615
208	0xbe229ca1	-0.15880062
209	0x3e3d06b0	0.18459582
210	0xbe9ffc84	-0.31247342
211	0x3eb80f0e	0.35948986
212	0x3dcb830b	0.09937104
213	0x3e6f5d69	0.23375477
214	0x3e864a68	0.26228642
215	0xbde9efa5	-0.11422662

layers.0.bn2.weight f4 [24]
0	0x3fa3f2f7	1.2808522
1	0x3f64e25c	0.89407897
2	0x3f8c4adf	1.0960349
3	0x3f6e1605	0.9300235
4	0x3f60e002	0.8784181
5	0x3fb39b1a	1.4031708
6	0x3f820bbd	1.0159832
7	0x3f77d4f4	0.96809316
8	0x3f575391	0.8411189
9	0x3f92c19c	1.1465335
10	0x3f8cf4a9	1.1012164
11	0x3f86a83f	1.0520095
12	0x3f6c978b	0.92418736
13	0x3f7eeb8a	0.99578154
14	0x3fa5a53a	1.2941048
15	0x3f91a6c5	1.1379019
16	0x3f52d94a	0.82362807
17	0x3f9e287a	1.2356102
18	0x3fab2ed5	1.3373667
19	0x3f91dd20	1.1395607
20	0x3f71694c	0.94301295
21	0x3f983559	1.189128
22	0x3f77f7a8	0.9686227
23	0x3f5cef87	0.8630299

layers.0.bn2.bias f4 [24]
0	0xbde39d50	-0.11113989
1	0x3f2b4ae7	0.66911167
2	0xbe0286af	-0.1274669
3	0x3ef9bf50	0.48778772
4	0x3ee02952	0.43781525
5	0x3edf10f5	0.43567625
6	0xbe226c18	-0.15861547
7	0xbe333064	-0.17498928
8	0x3ed1297d	0.40851966
9	0x3e466fb1	0.19378544
10	0x3f0f4ef6	0.5597986
11	0xbd1f7b9b	-0.03893624
12	0x3e43a096	0.19104227
13	0x3e9b3b08	0.30318475
14	0x3c6b9962	0.014379831
15	0x3f5adef3	0.85496444
16	0x3e8863c1	0.26638606
17	0x3ef35775	0.47527662
18	0x3f0300c8	0.5117307
19	0x3f025ffa	0.509277
20	0x3db00dd1	0.08596385
21	0x3f05007a	0.5195385
22	0x3d4ce8a9	0.05002657
23	0xbd903b04	-0.07042506

layers.0.bn2.running_mean f4 [24]
0	0xbd5bbc07	-0.053646114
1	0xbe33e070	-0.17566085
2	0xbc60ac3c	-0.013712939
3	0xbf02c423	-0.5108053
4	0x3f180386	0.59380376
5	0xbf33a98c	-0.70180583
6	0xbd2da0a3	-0.042389523
7	0x3e313d54	0.17308551
8	0xbef0cb26	-0.4702999
9	0x3e86e705	0.2634813
10	0x3ef05440	0.46939278
11	0xbec10b34	-0.3770386
12	0x3e580438	0.2109536
13	0xbf3b4e78	-0.7316661
14	0xbd2d7ff6	-0.04235836
15	0x3f226397	0.6343321
16	0xbf015312	-0.5051738
17	0x3e771e85	0.24132736
18	0xbee22614	-0.44169676
19	0xbf354c0f	-0.7081918
20	0x3e86c2bd	0.2632045
21	0x3f32c190	0.698266
22	0xbdb20340	-0.08692026
23	0x3dca4527	0.09876471

layers.0.bn2.running_var f4 [24]
0	0x3d942c68	0.07235032
1	0x3d966ce5	0.07344989
2	0x3d11012f	0.03540152
3	0x3f199648	0.59994936
4	0x3f8bd167	1.092328
5	0x3f91f628	1.1403246
6	0x3df638ec	0.12022576
7	0x3d851aa5	0.06499223
8	0x3ee6cffa	0.4508055
9	0x3e87b292	0.26503426
10	0x3f08ca52	0.53433716
11	0x3ea07cd3	0.31345233
12	0x3e06d8d7	0.13168655
13	0x3ed1c9ac	0.40974176
14	0x3e87b941	0.26508525
15	0x3f66ce15	0.90158206
16	0x3ee66a73	0.4500309
17	0x3ec33649	0.38127354
18	0x3ed37aa8	0.41304517
19	0x4004d671	2.0755885
20	0x3e3c8159	0.18408717
21	0x3fe063bd	1.7530438
22	0x3e2e7f0f	0.17040657
23	0x3da844f9	0.082162805

layers.0.conv3.weight f4 [12, 24, 1, 1]
0	0xbe2c84b6	-0.168475
1	0x3e60801c	0.2192387
2	0xbd46236e	-0.048373632
3	0x3ce324d4	0.027727522
4	0xbcf99ccb	-0.030470273
5	0x3e743bc2	0.23850921
6	0x3e7f7ba1	0.24949504
7	0x3be73e4a	0.007056986
8	0xbee89333	-0.45424804
9	0x3ed64531	0.41849664
10	0xbd4e0df4	-0.050306275
11	0x3e99a66a	0.30009776
12	0xbd71cabe	-0.05903124
13	0x3e8d1112	0.27552086
14	0xbd1cf93c	-0.038323626
15	0xbcee3aea	-0.029080827
16	0xbd8859c1	-0.06657744
17	0x3e1e712d	0.1547286
18	0x3eb17330	0.34658194
19	0x3db547b7	0.08851569
20	0x3cd5f0dc	0.026115827
21	0xbe95d50c	-0.29264104
22	0x3d87cb06	0.066305205
23	0x3e95b14f	0.29236838
24	0x3e9e4e05	0.309189
25	0x3bf741f4	0.007545704
26	0xbde8b73b	-0.113630734
27	0xbcf58a8b	-0.029973289
28	0x3b35cef9	0.0027741774
29	0xbee87c52	-0.4540735
30	0x3e219d57	0.15782677
31	0x3e1faaef	0.1559255
32	0x3cff0857	0.031131906
33	0x3d9e69db	0.07735034
34	0xbe410cec	-0.18852586
35	0x3e0aadae	0.13542816
36	0xbe39d812	-0.1814883
37	0x3be64437	0.007027175
38	0x3e845c2a	0.25851566
39	0xbe0db63e	-0.13839051
40	0xbdcc13f3	-0.099647425
41	0x3e9aa0b7	0.3020074
42	0xbee53f56	-0.44774884
43	0x3e8303ab	0.25588736
44	0xbd42470a	-0.04743103
45	0xbe6abd1f	-0.22923706
46	0x3e67cdaa	0.22637048
47	0x3e79709b	0.24359362
48	0x3dd00f21	0.101591356
49	0xbe76e3ab	-0.24110286
50	0xbe3621df	-0.17786358
51	0xbd91e464	-0.0712364
52	0xbea8f1c3	-0.3299695
53	0x3e8e00ca	0.27734977
54	0xbe2d169d	-0.16903158
55	0xbe1ab2a7	-0.15107213
56	0xbdd85487	-0.10562997
57	0x3d63fef1	0.055663053
58	0x3bf295b4	0.0074031
59	0x3e46da6f	0.19419263
60	0x3e37ce73	0.17949848
61	0xbe8904c7	-0.26761457
62	0x3ddb146d	0.10697255
63	0x3c962a9a	0.01833086
64	0xbd99cae2	-0.075094
65	0x3e1f0999	0.15531005
66	0x3dd6c02b	0.10485872
67	0xbe3ee0cf	-0.18640445
68	0xbf00d940	-0.503315
69	0x3e571428	0.21003783
70	0xbe5f4853	-0.21804933
71	0xbd341f54	-0.04397519
72	0xbf183188	-0.5945058
73	0xbe8c1481	-0.27359393
74	0xbd92bb0c	-0.071645826
75	0xbecdcc36	-0.40194863
76	0x3d110e20	0.03541386
77	0xbea1ab05	-0.3157579
78	0x3d5edfe8	0.054412752
79	0x3e585446	0.21125898
80	0x3d229b2c	0.039698765
81	0x3d9b0164	0.075686246
82	0xbc057d9c	-0.008147623
83	0xbe4cf213	-0.20014219
84	0xbdfb4d3a	-0.12270589
85	0xbe0d8f24	-0.13824135
86	0xbea11396	-0.31460255
87	0xbe7afa1e	-0.24509475
88	0x3e335d49	0.17516054
89	0xbdde48d2	-0.10853733
90	0xbd9670da	-0.073457435
91	0x3e90b282	0.2826119
92	0x3d921b8d	0.07134161
93	0x3ce502af	0.027955381
94	0x3d6c1d14	0.05764492
95	0x3e332c87	0.17497455
96	0xbe58d80b	-0.21176164
97	0x3e9b4236	0.30323952
98	0xbdcc207b	-0.09967133
99	0x3e1dc625	0.15407617
100	0x3da6d4eb	0.0814608
101	0x3c16b8b5	0.009199311
102	0x3e1625d5	0.1466287
103	0x3e859880	0.2609291
104	0x3e242617	0.16030155
105	0xbe1725c8	-0.14760506
106	0x3e8aa724	0.27080643
107	0xbec491d6	-0.38392514
108	0x3e030d61	0.12798072
109	0xbe9f920d	-0.31166115
110	0xbe80d014	-0.2515875
111	0x3e503266	0.20331725
112	0x3d02993f	0.031884428
113	0x3dfe0ba0	0.12404561
114	0x3d46437f	0.048404213
115	0xbdb12fe3	-0.08651712
116	0xbe9bc206	-0.30421466
117	0xbe86b140	-0.26307106
118	0xbc38495b	-0.011247958
119	0x3e03e4fa	0.12880316
120	0xbd5ec14c	-0.05438356
121	0xbed3e961	-0.4138899
122	0x3e18a58f	0.14906906
123	0x3e9acf1b	0.30236134
124	0xbe6bbc62	-0.23021081
125	0x3e7eabb5	0.24870189
126	0x3e5b2e55	0.21404393
127	0x3e133322	0.14374974
128	0x3eb27b01	0.3485947
129	0xbdda5f67	-0.10662728
130	0x3d1ffe47	0.039060857
131	0x3e3ceb88	0.18449223
132	0xbe456c42	-0.19279578
133	0x3ea28b35	0.31746832
134	0x3acaeada	0.0015481368
135	0x3e0147c6	0.12625036
136	0xbe87834b	-0.26467356
137	0x3dd8fe79	0.10595412
138	0x3ea22a7c	0.31673038
139	0x3d2b31f7	0.041795697
140	0xbdc44981	-0.09584332
141	0xbe8678a8	-0.26263928
142	0x3e5c9044	0.21539408
143	0x3cde82c5	0.027161965
144	0x3e0ce4e8	0.13759196
145	0xbe187480	-0.14888191
146	0x3eac3a82	0.33638388
147	0x3e4996fe	0.19686505
148	0x3d1a920a	0.03773693
149	0x3e92172c	0.28533304
150	0xbe983294	-0.29726088
151	0x3dd29668	0.10282594
152	0x3d60c61a	0.054876424
153	0x3d78537d	0.060626496
154	0x3e6c5bd4	0.23081905
155	0xbec5fb02	-0.38668066
156	0x3de1b3a5	0.110205926
157	0xbdb80971	-0.08986176
158	0xbe8d6546	-0.27616328
159	0xbe8b7a74	-0.27241862
160	0xbe7cea38	-0.24698722
161	0xbdc477dd	-0.095931746
162	0x3d2fff09	0.04296783
163	0xbef79081	-0.48352435
164	0xbce611ab	-0.028084597
165	0xbe284129	-0.16431107
166	0xbdc326b4	-0.095288664
167	0x3e79bbbd	0.24388023
168	0x3ecf61d1	0.40504315
169	0x3cd41fa1	0.025893988
170	0xbeb40a10	-0.35163927
171	0xbec9fd28	-0.39450955
172	0x3e0ae941	0.13565542
173	0x3e9b3c56	0.3031947
174	0xbdbbc3b7	-0.09168189
175	0xbe828aea	-0.25496608
176	0x3e57b14c	0.21063727
177	0xbd157c92	-0.036495753
178	0xbdefc500	-0.11707497
179	0xbdb98b02	-0.09059717
180	0x3dfcdb6b	0.12346538
181	0x3c010d0d	0.007876647
182	0x3e658200	0.22412872
183	0x3d970e37	0.07375758
184	0x3e8b0b94	0.2715727
185	0x3e13c716	0.14431414
186	0x3ed71f11	0.4201589
187	0x3e3091ba	0.1724309
188	0x3d17a3c3	0.03702141
189	0xbde24fd0	-0.11050379
190	0xbe7878ef	-0.24264883
191	0xbde707e7	-0.11280804
192	0x3d936398	0.071967304
193	0x3e2f4d1f	0.17119263
194	0x3dad87a5	0.08473138
195	0x3e39434c	0.18092078
196	0xbe96530d	-0.29360238
197	0xbc9bf762	-0.01903886
198	0x3e74bdf0	0.2390058
199	0x3d082eee	0.03324788
200	0x3e1539a3	0.14572768
201	0xbe23d714	-0.16000015
202	0x3eb992d8	0.36244845
203	0xbd1cd19c	-0.038285837
204	0x3d98c21a	0.07458897
205	0x3e92e581	0.28690723
206	0xbc3932f2	-0.01130365
207	0xbf080e3c	-0.5314672
208	0x3e71a099	0.2359642
209	0xbcf429fe	-0.02980518
210	0xbe136682	-0.14394572
211	0x3e8d259c	0.27567756
212	0xbcc4b8d4	-0.024013914
213	0x3dbbef61	0.09176517
214	0x3ddd86bd	0.10816715
215	0xbe43d3b1	-0.19123723
216	0xbdbb61c6	-0.09149508
217	0x3de7a5a5	0.11310891
218	0x3cbb0e63	0.022834009
219	0x3d306187	0.04306176
220	0xbdd3b3fd	-0.103370644
221	0x3f12aae4	0.5729201
222	0xbebfc869	-0.37457588
223	0x3ef1ac36	0.472017
224	0xbd15d987	-0.036584403
225	0xbcc69a3f	-0.024243472
226	0x3da25fc3	0.07928421
227	0x3c45de11	0.012076871
228	0xbec2ea98	-0.38069606
229	0x3dfa07b0	0.122084975
230	0xbd2801b8	-0.041017264
231	0x3dc3583a	0.09538312
232	0xbd0ef4ed	-0.03490155
233	0x3e31c691	0.17360903
234	0x3f0fd70e	0.5618752
235	0xbdde213d	-0.108461834
236	0x3ce45b97	0.027875705
237	0x3e176db7	0.14787947
238	0xbe2109e3	-0.15726428
239	0x3e7f6a59	0.24942912
240	0x3e253f53	0.16137438
241	0x3d01bf8c	0.031676814
242	0x3ec43c81	0.3832741
243	0xbde5a1d2	-0.112125054
244	0xbe863195	-0.26209703
245	0xbe5e55a4	-0.21712357
246	0x3c108a8e	0.0088220965
247	0x3d8c3656	0.06846301
248	0xbe0664eb	-0.13124435
249	0x3d849c9c	0.06475183
250	0x3e17bef6	0.1481894
251	0xbe345658	-0.17611063
252	0xbe375dc1	-0.17906858
253	0x3c5ab30a	0.01334835
254	0xbdbc28b7	-0.09187453
255	0x3ea483c4	0.3213178

layers.0.bn3.weight f4 [12]
0	0x3f820555	1.0157877
1	0x3f908b71	1.1292554
2	0x3f888c43	1.0667804
3	0x3f87d939	1.0613166
4	0x3f7c3427	0.9851708
5	0x3f7b02ed	0.9805134
6	0x3f6c7649	0.9236799
7	0x3f86d05c	1.0532336
8	0x3f7eb280	0.9949112
9	0x3f951dd8	1.1649733
10	0x3f63861f	0.8887653
11	0x3f521ad7	0.82072204

layers.0.bn3.bias f4 [12]
0	0x3de47a2f	0.11156117
1	0xbc4fb2a5	-0.0126768695
2	0xbcaf3c48	-0.021391049
3	0xbc040235	-0.008057167
4	0xbddfc74d	-0.109266855
5	0x3d94fe46	0.07275061
6	0xbbe093fc	-0.0068535786
7	0xbdfbf212	-0.123020306
8	0xbda75d40	-0.08172083
9	0x3d0d9c83	0.03457309
10	0x3e0dd984	0.13852507
11	0x3df0f7ac	0.1176599

layers.0.bn3.running_mean f4 [12]
0	0x3f4efb24	0.8085196
1	0xbec5c80b	-0.38629183
2	0xbedf07fb	-0.43560776
3	0xbf868f73	-1.0512527
4	0x3e6b4af6	0.22977814
5	0x3f2a11ba	0.664333
6	0xbf00d81a	-0.50329745
7	0x3f3d21bd	0.73879606
8	0x3ed2e3b3	0.41189346
9	0x3f91a101	1.137726
10	0xbf2504da	-0.6446053
11	0x3f6f0abb	0.9337575

layers.0.bn3.running_var f4 [12]
0	0x3f09f2de	0.5388621
1	0x3ec86e9f	0.39146897
2	0x3f055d55	0.5209554
3	0x3eccb96b	0.39985213
4	0x3f01686e	0.5054997
5	0x3ebdbdb6	0.370588
6	0x3ea8c5a4	0.32963288
7	0x3f021186	0.5080799
8	0x3f0070c1	0.5017205
9	0x3f1e67eb	0.61877316
10	0x3ece9618	0.40348887
11	0x3f436644	0.7632792

layers.1.conv1.weight f4 [48, 12, 1, 1]
0	0xbe02ffcb	-0.1279289
1	0x3e981b5f	0.29708382
2	0x3c1966f6	0.009362927
3	0x3ce4b78f	0.027919559
4	0x3b922810	0.004460342
5	0xbe9bee09	-0.30455044
6	0xbd9e6e28	-0.077358544
7	0xbea330e5	-0.3187324
8	0xbe7a4434	-0.2444008
9	0xbd65ddd6	-0.056119762
10	0x3ea25e3a	0.31712514
11	0x3e9a7628	0.3016827
12	0xbef5a5df	-0.47978112
13	0xbebda8d4	-0.37042868
14	0x3e19ed9f	0.15032052
15	0x3e89842b	0.2685865
16	0x3d75e66c	0.0600342
17	0xbebd6c37	-0.36996624
18	0xbb82db29	-0.003993411
19	0xbdb5512e	-0.088533744
20	0xbd34441c	-0.044010267
21	0x3a2705a2	0.0006371384
22	0x3d900844	0.070328265
23	0xbc75deaf	-0.015006705
24	0x3e1697e0	0.14706373
25	0xbdd59973	-0.10429659
26	0x3ccd2a3a	0.02504455
27	0x3ed0210d	0.40650216
28	0xbedc3827	-0.4301159
29	0xbe2fe842	-0.17178443
30	0xbd584d27	-0.052807953
31	0xbed18fc4	-0.40929997
32	0x3dc22ba5	0.09480981
33	0x3deb0888	0.114762366
34	0xbeb6afaa	-0.35680896
35	0xbe4a317d	-0.19745441
36	0x3e9787c1	0.2959576
37	0x3e2f4745	0.17117031
38	0x3d8ba583	0.06818678
39	0x3da12e3e	0.07870148
40	0x3ea7acbb	0.3274897
41	0x3d68c193	0.05682523
42	0x3e09146a	0.13386694
43	0xbe7539ae	-0.23947784
44	0x3e1e9c81	0.15489389
45	0xbec375e3	-0.38175878
46	0x3e0f4ae4	0.13993412
47	0xbe13fabd	-0.14451118
48	0x3e655465	0.22395475
49	0x3dcf8ac3	0.101338886
50	0xbdd61e2b	-0.10454973
51	0x3d50788e	0.05089622
52	0xbd014885	-0.0315633
53	0xbe13efc5	-0.14446934
54	0x3e5c2785	0.2149945
55	0x3af40342	0.0018616694
56	0x3a4343c4	0.00074487575
57	0x3e52a03e	0.2056894
58	0xbf11c5c4	-0.5694239
59	0xbf0fe27d	-0.5620497
60	0x3e03fad2	0.12888649
61	0x3eb3b66e	0.3510012
62	0x3d92b9c1	0.07164336
63	0xbeb688c5	-0.35651222
64	0x3e031cef	0.12804006
65	0x3e040dfd	0.12895961
66	0x3eaccd1f	0.33750245
67	0x3c8e316e	0.017357554
68	0xbe07ddc2	-0.13268188
69	0x3e039b6b	0.12852256
70	0x3e66160d	0.22469349
71	0x3e887724	0.26653397
72	0x3f0841cb	0.5322539
73	0x3e058c31	0.1304176
74	0xbeb6df62	-0.35717303
75	0xbe872ebc	-0.26402843
76	0x3e04ade0	0.12956953
77	0xbea6a8f8	-0.32550788
78	0xbe34268b	-0.17592828
79	0xbe054782	-0.1301556
80	0xbe0cf57d	-0.13765521
81	0x3e119577	0.14217173
82	0x3ead9595	0.33903185
83	0x3d8445ef	0.06458651
84	0x3dc25ee7	0.094907574
85	0x3f02e6ad	0.51133233
86	0x3d49d51e	0.04927551
87	0x3e9cdb7a	0.30636197
88	0x3e600a15	0.21878846
89	0x3ea154f7	0.31510136
90	0x3e0c8cbe	0.13725564
91	0xbdc249c1	-0.09486724
92	0xbd0961da	-0.033540584
93	0x3e3e49c9	0.18582834
94	0x3e03916a	0.1284844
95	0xbeb1f710	-0.34758806
96	0xbd209d50	-0.039212525
97	0xbf09f425	-0.5388816
98	0xbe9d41a3	-0.3071414
99	0x3e8d84d8	0.27640414
100	0x3d3bf165	0.04588451
101	0xbd5c0a02	-0.05372048
102	0x3e8eb95c	0.27875793
103	0xbed2f123	-0.41199598
104	0xbd8c7847	-0.068588786
105	0x3e3417c1	0.17587186
106	0x3e0db8d8	0.13840044
107	0xbd95dab1	-0.07317103
108	0x3f0d9f9e	0.5532168
109	0x3e309021	0.17242481
110	0xbcc028b3	-0.023456907
111	0x3ddc91f8	0.10770029
112	0xbf02dc9a	-0.5111786
113	0x3e93290c	0.28742254
114	0x3b01cbf4	0.0019805403
115	0xbe2e4aaf	-0.17020677
116	0x3e830c7e	0.25595468
117	0xbe9178df	-0.2841253
118	0xbe95cd0f	-0.2925801
119	0x3dc2106f	0.09475791
120	0x3e30a23f	0.17249392
121	0x3cd77f9d	0.026305968
122	0x3d0fbaa8	0.03509012
123	0xbdd7dda2	-0.1054032
124	0xbdf4fd31	-0.11962355
125	0x3e85913a	0.26087362
126	0xbf0fe6a7	-0.5621132
127	0x3e4bb54d	0.1989338
128	0xbed76161	-0.42066482
129	0xbd7bda7a	-0.061487652
130	0xbe06b982	-0.13156703
131	0xbd88dd2e	-0.06682812
132	0xbd828714	-0.0637342
133	0xbe16dcf1	-0.1473272
134	0xbe489429	-0.19587769
135	0xbe63dacd	-0.22251435
136	0x3eadf9bc	0.33979595
137	0xbe5e75e8	-0.21724665
138	0xbe1fc2dc	-0.15601677
139	0x3ea7c97e	0.32770914
140	0xbe0c9cec	-0.13731736
141	0xbe52f5d7	-0.20601593
142	0xbebceebf	-0.369009
143	0x3e06d6ad	0.1316783
144	0x3d970851	0.07374633
145	0xbe79f633	-0.24410324
146	0xbdfe3f6d	-0.12414441
147	0xbc93b7fb	-0.018032065
148	0xbe65227f	-0.2237644
149	0x3e91cd51	0.28476956
150	0xbdb068b4	-0.086137205
151	0x3eda3698	0.42619777
152	0xbe42f74b	-0.19039647
153	0x3ee8c925	0.4546596
154	0xbd39e465	-0.04538383
155	0xbe239a67	-0.15976869
156	0x3dd26154	0.1027247
157	0x3d90c125	0.070680894
158	0x3ce9a85e	0.028522667
159	0xbea56add	-0.32308093
160	0xbe8c1579	-0.27360132
161	0xbd443cb3	-0.04790945
162	0x3eaadcdf	0.33371636
163	0x3eea5638	0.45768905
164	0x3e8ccb30	0.2749877
165	0xbdf4aa67	-0.11946564
166	0x3dbecb24	0.0931609
167	0x3da5f340	0.08103037
168	0x3daafa03	0.08348467
169	0x3e60638f	0.21912979
170	0x3f1dddfa	0.61666834
171	0x3ea241ab	0.31690726
172	0xbd744ca1	-0.05964339
173	0xbe9529ef	-0.29133555
174	0x3d2aa4d7	0.04166111
175	0x3df0abaa	0.11751492
176	0x3d6a747c	0.057239994
177	0xbe70c30f	-0.23511909
178	0x3e077681	0.132288
179	0xbe995651	-0.29948667
180	0x3c099cc8	0.008399196
181	0xbea00b78	-0.3125875
182	0x3eba0222	0.36329752
183	0xbe4e9bc5	-0.20176609
184	0xbee4b00e	-0.4466557
185	0xbc855388	-0.016275182
186	0x3d50ec88	0.051006824
187	0xbe5dd8f0	-0.21664786
188	0xbe18fce5	-0.14940222
189	0xbdc7839a	-0.09741898
190	0x3e96eb26	0.2947628
191	0x3db1453a	0.08655782
192	0xbc032ae1	-0.008005829
193	0xbc14a73f	-0.009073078
194	0x3e0a7717	0.13521992
195	0xbdc6653e	-0.09687279
196	0x3eda373c	0.42620265
197	0x3d8a77cf	0.06761133
198	0xbef07cbf	-0.46970174
199	0x3e490b96	0.19633326
200	0xbed95c70	-0.42453337
201	0x3db82068	0.08990556
202	0x3ee01910	0.4376912
203	0x3d7f5836	0.062339984
204	0x3eadb7e6	0.33929366
205	0xbca882d1	-0.02057019
206	0xbe885688	-0.26628518
207	0x3c1277c9	0.008939692
208	0xbe796698	-0.24355543
209	0x3e1bbf59	0.15209712
210	0x3dfe0a5f	0.12404322
211	0x3eb3e7a1	0.35137656
212	0xbdc96387	-0.098334365
213	0x3ea1bca3	0.3158923
214	0xbec516fe	-0.38494104
215	0x3d5b59ed	0.053552557
216	0xbec7e96c	-0.39045274
217	0xbc4e40ea	-0.012588719
218	0xbd10ab42	-0.035319574
219	0xbe3a60df	-0.18201016
220	0xbee5f688	-0.4491465
221	0x3e37ba82	0.17942241
222	0x3dacde35	0.0844082
223	0xbe87fa11	-0.26557973
224	0x3ea9f202	0.3319245
225	0x3df70723	0.12061908
226	0xbe030c50	-0.12797666
227	0x3e2a27b6	0.16616711
228	0xbd8e8284	-0.06958488
229	0x3de1a3b1	0.1101755
230	0x3e1a5a0d	0.15073414
231	0xbef2676d	-0.47344533
232	0xbdedde4b	-0.11614665
233	0xbdd4fd69	-0.10399897
234	0x3ef7399d	0.48286143
235	0xbe042c67	-0.12907563
236	0x3e129675	0.14315207
237	0xbdfb814f	-0.12280523
238	0xbcd48039	-0.025940048
239	0xbe6e6e4d	-0.23284264
240	0xbe2ecc3e	-0.170701
241	0x3dba03fa	0.0908279
242	0x3e665f2a	0.2249724
243	0xbf2b3011	-0.6687022
244	0xbe559ca1	-0.2086053
245	0xbdcd8bfe	-0.10036467
246	0xbd5d45d9	-0.05402169
247	0x3e6ddf70	0.23229766
248	0xbc0b6c18	-0.008509658
249	0xbe592107	-0.21204005
250	0x3db90f4b	0.0903612
251	0xbce829e6	-0.028340291
252	0x3ea4e7ce	0.32208103
253	0xbe517d0e	-0.20457861
254	0xbde02243	-0.10944035
255	0x3e4034da	0.18770161

layers.1.bn1.weight f4 [48]
0	0x3ec885b5	0.3916451
1	0x3f75c474	0.9600289
2	0x3fa3e8ef	1.2805461
3	0x3f40aeba	0.7526661
4	0x3f130190	0.5742426
5	0x3f4187aa	0.7559763
6	0x3ee688fd	0.4502639
7	0x3f9384d0	1.1524906
8	0x3f2a40a2	0.6650487
9	0x3f28233d	0.6567877
10	0x3f92f76e	1.148176
11	0x3f8dc7cb	1.1076597
12	0x3f6112e4	0.8791945
13	0x3f16b7ba	0.58874094
14	0x3f4d05ed	0.8008717
15	0x3fb771b4	1.4331574
16	0x3f67f469	0.90607315
17	0x3f39e381	0.7261277
18	0x3f4be45e	0.79645336
19	0x3ee95816	0.45575017
20	0x3f24cb77	0.6437296
21	0x3f1ea2d3	0.619672
22	0x3f51bec1	0.8193169
23	0x3f847fc9	1.0351497
24	0x3f0303ce	0.5117768
25	0x3f47e0c5	0.78077346
26	0x3fe0fd76	1.757735
27	0x3fb278d3	1.3943123
28	0x3f01b277	0.5066294
29	0x3f93d7d6	1.1550243
30	0x3eef0892	0.46686226
31	0x3f3be5d3	0.7339756
32	0x3eda16aa	0.42595416
33	0x3fb4f7d3	1.413813
34	0x3f59505d	0.8488825
35	0x3fb07c7b	1.3787988
36	0x3f7338e7	0.950087
37	0x3fd948b8	1.6975317
38	0x3f186d4d	0.5954178
39	0x3fa326c7	1.2746209
40	0x3ef20471	0.47269014
41	0x3f498210	0.78714085
42	0x3ed69b69	0.41915444
43	0x3f4f0ae7	0.8087601
44	0x3f8ca1be	1.098686
45	0x3f49d6c1	0.78843313
46	0x3ef040a3	0.46924314
47	0x3f4c9339	0.79912144

layers.1.bn1.bias f4 [48]
0	0x3f1e635e	0.6187037
1	0xbeb7abe7	-0.3587334
2	0x3d54b949	0.051934514
3	0x3e8a5ce2	0.2702399
4	0x3edce84f	0.43145987
5	0x3eb44244	0.35206807
6	0x3f09325a	0.53592455
7	0xbd8dc309	-0.06921966
8	0x3ebae0e4	0.36499703
9	0x3ead4da1	0.3384829
10	0xbda4fad2	-0.08055653
11	0xbe72b886	-0.23703203
12	0x3e69be66	0.22826537
13	0x3f04a46d	0.51813394
14	0x3e908ae5	0.28230968
15	0x3e38553f	0.18001269
16	0x3e053182	0.13007167
17	0x3eb1815b	0.34669003
18	0xbea00f13	-0.312615
19	0x3f10badf	0.5653514
20	0x3edf0a69	0.4356263
21	0x3ec62338	0.38698745
22	0x3e67b3b8	0.22627151
23	0x3de56f83	0.1120291
24	0x3f0d6766	0.552359
25	0xbe9c04bd	-0.30472365
26	0x3e76140a	0.24031082
27	0xbcebd858	-0.028789684
28	0x3ef81e27	0.48460504
29	0x3e0d0124	0.13769966
30	0x3f06b3e7	0.5261826
31	0x3e9e59a6	0.3092777
32	0x3f1259db	0.5716836
33	0x3d7b134b	0.061297696
34	0xbe7b19f3	-0.24521618
35	0x3d92cde9	0.071681805
36	0x3dd9df3b	0.10638281
37	0xbea6e5c8	-0.32597184
38	0xbed2129e	-0.4102983
39	0xbca598e0	-0.020214498
40	0x3ef056c9	0.46941212
41	0xbeac36c3	-0.3363553
42	0x3f12e03f	0.5737342
43	0x3e9ed76b	0.31023726
44	0xbe02c8b0	-0.12771869
45	0xbe7a1039	-0.24420251
46	0x3f2130b1	0.6296492
47	0x3e80cbe5	0.2515556

layers.1.bn1.running_mean f4 [48]
0	0x3dc59d4c	0.096491426
1	0xbd8548a9	-0.065079994
2	0x3cb57798	0.022151753
3	0x3afc0d93	0.001923012
4	0xbdf8d30e	-0.121496305
5	0x3da2cbac	0.079490036
6	0x3df3a2f1	0.11896313
7	0xbb8eeebf	-0.004361957
8	0x3d8e05fd	0.06934736
9	0x3dc55959	0.09636182
10	0x3d128c11	0.03577811
11	0xbdfb2450	-0.122627854
12	0x3c601a0f	0.013678088
13	0xbcc1e940	-0.023670793
14	0xbd8c9839	-0.06864972
15	0x3e07852a	0.13234392
16	0x3d225d07	0.0396395
17	0x3c1e5595	0.009663959
18	0x3d00d164	0.03144969
19	0xbd192e14	-0.03739746
20	0xbcf6516c	-0.030068122
21	0x3cac10ff	0.021004198
22	0x3ccdb081	0.025108578
23	0xbdb0e029	-0.08636505
24	0xbc4fa3f8	-0.012673371
25	0xbdaafeca	-0.083493784
26	0xbd6e2991	-0.05814511
27	0xbd02e5b0	-0.03195733
28	0x3df557f7	0.119796686
29	0xbd25624b	-0.040376943
30	0x3c020d49	0.007937738
31	0x3c65e668	0.014031984
32	0xbe0f9d88	-0.14024937
33	0xbc29a9f3	-0.01035546
34	0xbd423b79	-0.04742
35	0xbd404656	-0.046942078
36	0x3db7c97d	0.08973978
37	0x3d33b0e3	0.043869864
38	0x3cb18b95	0.021673003
39	0xbdb9e23a	-0.090763524
40	0x3bc484be	0.0059972694
41	0x3c32a645	0.0109039
42	0xbda1e0d5	-0.079042114
43	0xbceb5ea4	-0.028731652
44	0x3dab92cd	0.083776094
45	0xbc882718	-0.016620204
46	0x3da62338	0.08112186
47	0xbd2128e0	-0.039345622

layers.1.bn1.running_var f4 [48]
0	0x3f5a3c6c	0.85248446
1	0x3f219eaf	0.63132757
2	0x3f9ab3b5	1.2086092
3	0x3f4060db	0.7514779
4	0x3f63d84e	0.8900193
5	0x3f2eb3f9	0.68243366
6	0x3f433306	0.7624973
7	0x3f2de23c	0.6792333
8	0x3f65b275	0.8972543
9	0x3f8a5eff	1.081024
10	0x3f43f639	0.7654758
11	0x3f185196	0.5949949
12	0x3fbbccda	1.4671891
13	0x3f08d5b4	0.53451085
14	0x3f3fc74b	0.7491347
15	0x3f16334e	0.58672035
16	0x3f91d405	1.1392828
17	0x3f7c2189	0.9848867
18	0x3f14cbde	0.58123577
19	0x3f1a2a80	0.602211
20	0x3f92d9a9	1.1472675
21	0x3f0008b9	0.5001331
22	0x3f861366	1.047467
23	0x3f27dfcc	0.6557586
24	0x3efc2932	0.4925018
25	0x3f559b5b	0.8344018
26	0x3f6d6c8c	0.92743754
27	0x3f68cfc0	0.90942
28	0x3f08899f	0.53334993
29	0x3ec859a2	0.39130884
30	0x3f35f216	0.7107252
31	0x3f8f49c0	1.1194382
32	0x3f481ae8	0.78166056
33	0x3f34946d	0.7053898
34	0x3f7c9d8d	0.98677903
35	0x3f061f54	0.5239155
36	0x3f144c01	0.5792847
37	0x3ed50bd6	0.41610593
38	0x3fb3e1c3	1.4053272
39	0x3f14f69f	0.58188814
40	0x3f5b582f	0.8568143
41	0x3f4b40c9	0.7939573
42	0x3f896422	1.0733683
43	0x3f18b625	0.5965293
44	0x3f0be52d	0.5464657
45	0x3f3e6bfa	0.7438351
46	0x3f4e3dee	0.8056325
47	0x3f317c1a	0.6932999
