Project/Project_files/m2_quantize/mobilenetv1_l1_0.5_5_5_pruned_net_int8.onnx (onnx, 862057 bytes, 28 tensors)

259_quantized i1 [16, 3, 3, 3]
-21 -43 0 1 -55 17 -49 -84
-49 59 65 21 -13 13 -33 11
-7 -63 98 98 77 79 67 36
-4 -27 -9 89 62 -4 58 9
18 20 34 -59 -40 -16 -83 -54
-47 5 -32 46 -28 -16 -59 -52
-4 4 14 -52 27 10 -3 -54
-3 19 -31 -6 49 -28 63 -4
-33 -41 31 -97 -39 60 -23 -22
3 -33 -26 19 -81 9 39 -14
51 -59 -23 11 11 35 17 26
-3 -39 -30 -11 49 25 49 57
35 70 50 33 -36 -61 -27 -50
-72 -36 -46 -57 -76 -48 6 -60
-25 -20 55 33 64 -18 -54 0
-55 -28 -3 50 40 65 -10 16
13 -40 11 13 26 40 78 -113
-127 -117 -105 59 55 39 -8 37
32 -54 22 5 94 110 -47 29
108 49 -109 -73 28 18 0 -100
-71 40 -35 -6 -24 7 -3 -34
-22 23 -35 -44 22 39 -4 79
-1 24 52 -23 -34 24 18 -23
75 -3 -1 46 -12 -12 69 117
53 55 35 4 -29 -66 -1 38
84 31 15 5 -17 -12 -50 -79
-4 34 -63 -20 -2 -8 20 21
25 39 -5 35 -25 93 -7 23
22 14 -26 25 -32 -2 74 -12
15 21 -44 -45 17 -23 -32 59
0 -16 24 9 -3 -38 56 -12
12 26 -14 8 16 -40 -26 20
00000000: ebd5 0001 c911 cfac cf3b 4115 f30d df0b
00000010: f9c1 6262 4d4f 4324 fce5 f759 3efc 3a09
00000020: 1214 22c5 d8f0 adca d105 e02e e4f0 c5cc
00000030: fc04 0ecc 1b0a fdca fd13 e1fa 31e4 3ffc
00000040: dfd7 1f9f d93c e9ea 03df e613 af09 27f2
00000050: 33c5 e90b 0b23 111a fdd9 e2f5 3119 3139
00000060: 2346 3221 dcc3 e5ce b8dc d2c7 b4d0 06c4
00000070: e7ec 3721 40ee ca00 c9e4 fd32 2841 f610
00000080: 0dd8 0b0d 1a28 4e8f 818b 973b 3727 f825
00000090: 20ca 1605 5e6e d11d 6c31 93b7 1c12 009c
000000a0: b928 ddfa e807 fdde ea17 ddd4 1627 fc4f
000000b0: ff18 34e9 de18 12e9 4bfd ff2e f4f4 4575
000000c0: 3537 2304 e3be ff26 541f 0f05 eff4 ceb1
000000d0: fc22 c1ec fef8 1415 1927 fb23 e75d f917
000000e0: 160e e619 e0fe 4af4 0f15 d4d3 11e9 e03b
000000f0: 00f0 1809 fdda 38f4 0c1a f208 10d8 e614

262_quantized i1 [16, 1, 3, 3]
-22 42 29 18 -10 -9 -13 23
-13 -65 31 -36 -39 35 15 22
75 21 -10 11 -14 19 50 -54
17 11 -17 -39 7 3 55 127
-13 27 20 -101 -2 -32 -10 15
-17 -4 -8 1 5 -7 -17 -9
-3 10 -27 -27 0 22 -70 -15
67 -15 41 37 36 -47 6 35
36 2 -8 -20 -29 16 -34 -4
2 3 17 59 6 -26 20 2
-54 53 -89 48 -32 -104 1 -24
56 90 -25 -14 3 -21 25 70
-6 -1 12 -33 -28 1 63 25
62 39 -22 -6 10 -15 -66 16
13 -31 -74 90 81 -42 50 -24
-46 -24 90 -48 36 12 -21 27
0 17 57 -17 9 -14 4 -93
43 19 -37 76 33 33 -42 -11
00000000: ea2a 1d12 f6f7 f317 f3bf 1fdc d923 0f16
00000010: 4b15 f60b f213 32ca 110b efd9 0703 377f
00000020: f31b 149b fee0 f60f effc f801 05f9 eff7
00000030: fd0a e5e5 0016 baf1 43f1 2925 24d1 0623
00000040: 2402 f8ec e310 defc 0203 113b 06e6 1402
00000050: ca35 a730 e098 01e8 385a e7f2 03eb 1946
00000060: faff 0cdf e401 3f19 3e27 eafa 0af1 be10
00000070: 0de1 b65a 51d6 32e8 d2e8 5ad0 240c eb1b
00000080: 0011 39ef 09f2 04a3 2b13 db4c 2121 d6f5

265_quantized i1 [32, 16, 1, 1]
15 -21 3 9 -22 34 -50 57
-26 34 1 -25 9 -4 -36 -15
20 -6 -10 -48 24 -3 -34 -25
-7 4 -6 -48 -74 42 33 52
-21 10 25 2 -42 -17 19 11
-5 34 12 -34 13 21 -34 -27
-12 46 19 -18 18 15 -43 7
25 -15 -17 -18 -16 -25 -30 -23
0 64 -2 20 -51 -28 8 -41
-16 -9 46 -19 37 7 38 -50
16 7 2 -34 19 1 -1 19
-4 25 -36 -20 -55 -32 36 25
-37 -25 33 -14 45 37 -26 19
-28 7 -3 22 -41 31 55 2
-40 40 -18 -35 3 23 -15 15
-29 14 -32 -15 4 16 1 20
0 0 24 -6 8 26 -3 -9
-14 -4 -18 36 -16 71 24 7
1 -25 8 -15 -16 15 50 -5
8 -5 27 -19 -36 -64 -32 -6
-38 26 -24 -65 -1 5 -10 11
-30 14 -52 21 -44 23 -30 -6
70 10 -32 37 -58 3 90 1
28 -22 -16 -44 -11 -16 -26 -19
-28 -36 -24 -25 7 26 -20 21
-15 0 -10 27 -6 -21 -4 46
0 22 -3 17 14 2 36 19
-1 32 -32 55 -55 -77 28 -17
-21 -30 16 7 -23 1 12 -28
12 6 15 -24 -22 52 7 18
-11 5 14 -31 -2 5 15 -1
-8 -45 -27 19 7 25 0 -9
00000000: 0feb 0309 ea22 ce39 e622 01e7 09fc dcf1
00000010: 14fa f6d0 18fd dee7 f904 fad0 b62a 2134
00000020: eb0a 1902 d6ef 130b fb22 0cde 0d15 dee5
00000030: f42e 13ee 120f d507 19f1 efee f0e7 e2e9
00000040: 0040 fe14 cde4 08d7 f0f7 2eed 2507 26ce
00000050: 1007 02de 1301 ff13 fc19 dcec c9e0 2419
00000060: dbe7 21f2 2d25 e613 e407 fd16 d71f 3702
00000070: d828 eedd 0317 f10f e30e e0f1 0410 0114
00000080: 0000 18fa 081a fdf7 f2fc ee24 f047 1807
00000090: 01e7 08f1 f00f 32fb 08fb 1bed dcc0 e0fa
000000a0: da1a e8bf ff05 f60b e20e cc15 d417 e2fa
000000b0: 460a e025 c603 5a01 1cea f0d4 f5f0 e6ed
000000c0: e4dc e8e7 071a ec15 f100 f61b faeb fc2e
000000d0: 0016 fd11 0e02 2413 ff20 e037 c9b3 1cef
000000e0: ebe2 1007 e901 0ce4 0c06 0fe8 ea34 0712
000000f0: f505 0ee1 fe05 0fff f8d3 e513 0719 00f7

268_quantized i1 [32, 1, 3, 3]
15 10 -19 -37 -48 -32 18 44
57 -16 -22 45 29 -45 38 26
-17 -2 22 10 35 66 22 -32
3 -43 -6 -31 -15 -20 -38 44
38 58 51 13 -20 28 -6 -13
5 46 23 21 20 -16 11 6
18 32 -10 26 27 -5 -4 -2
-10 0 29 -30 41 44 -16 15
20 35 -4 39 14 -18 46 -12
2 -7 11 -12 -10 -18 -10 -30
-33 -6 11 31 29 64 3 29
-20 -12 -21 21 6 -33 -10 13
-15 -35 -31 17 -2 -4 13 -16
-29 7 -13 -18 2 77 37 51
-1 -43 6 -40 -30 9 -10 -16
24 -10 8 8 54 21 -53 -79
-34 -32 47 12 61 18 39 -19
-41 64 -61 67 13 20 0 4
18 3 -17 27 21 -36 24 9
-1 -33 2 24 38 37 20 2
10 -72 -39 -48 -3 -62 49 63
-24 -17 72 6 -26 -10 -1 -27
-14 24 4 -22 -22 15 26 -7
-15 28 -25 3 22 -68 107 25
98 56 -82 61 -127 -11 0 54
23 34 4 53 17 -22 -10 -2
26 9 24 33 21 1 -17 -19
1 21 -13 -19 -6 -11 -22 4
-35 -41 28 36 -43 34 30 -14
12 -8 44 44 36 40 -10 -17
-44 -45 -69 -24 -19 11 -14 -24
-11 -11 -13 -23 44 8 -10 4
00000000: 0f0a eddb d0e0 122c 39f0 ea2d 1dd3 261a
00000010: effe 160a 2342 16e0 03d5 fae1 f1ec da2c
00000020: 263a 330d ec1c faf3 052e 1715 14f0 0b06
00000030: 1220 f61a 1bfb fcfe f600 1de2 292c f00f
00000040: 1423 fc27 0eee 2ef4 02f9 0bf4 f6ee f6e2
00000050: dffa 0b1f 1d40 031d ecf4 eb15 06df f60d
00000060: f1dd e111 fefc 0df0 e307 f3ee 024d 2533
00000070: ffd5 06d8 e209 f6f0 18f6 0808 3615 cbb1
00000080: dee0 2f0c 3d12 27ed d740 c343 0d14 0004
00000090: 1203 ef1b 15dc 1809 ffdf 0218 2625 1402
000000a0: 0ab8 d9d0 fdc2 313f e8ef 4806 e6f6 ffe5
000000b0: f218 04ea ea0f 1af9 f11c e703 16bc 6b19
000000c0: 6238 ae3d 81f5 0036 1722 0435 11ea f6fe
000000d0: 1a09 1821 1501 efed 0115 f3ed faf5 ea04
000000e0: ddd7 1c24 d522 1ef2 0cf8 2c2c 2428 f6ef
000000f0: d4d3 bbe8 ed0b f2e8 f5f5 f3e9 2c08 f604

271_quantized i1 [64, 32, 1, 1]
13 -3 8 36 50 -21 -37 0
73 -11 13 4 48 -26 -22 -42
9 28 -25 56 -58 12 -11 37
-38 -36 17 -9 21 17 22 -9
-29 5 -16 -72 -35 30 -19 -24
15 56 -12 -33 23 -47 -16 -40
18 16 6 -1 -43 18 -25 20
51 -17 -3 49 -58 -11 1 -12
13 -33 71 33 44 62 46 5
-12 -5 6 -13 -17 57 39 23
50 12 -15 10 -29 56 -19 19
-34 32 -21 -69 2 66 -54 -10
13 -4 18 -9 72 100 -17 26
5 -8 -44 -13 50 34 -19 12
5 0 15 3 -22 96 5 27
-16 -10 -60 35 21 -2 69 -23
21 124 -10 1 7 -33 62 -50
-69 -38 -15 -31 -1 -42 20 -32
-14 -32 17 59 13 -22 -22 -15
-17 33 -8 51 23 66 -52 -47
9 -4 11 13 -18 10 -9 -28
2 20 42 28 -8 -11 -21 -10
-19 -14 -34 1 -1 3 -16 17
-9 20 -23 30 18 -13 -21 -22
56 -47 -33 20 -32 43 53 14
43 48 52 -18 -13 -13 -25 0
-22 37 -61 -33 -35 -30 -2 -14
-17 -44 13 9 38 6 -7 42
31 -20 -37 -26 -40 -4 1 -12
-10 -23 -25 43 60 31 44 -13
12 -23 -49 -30 -63 18 -5 -58
42 -47 68 37 -10 29 1 -30
00000000: 0dfd 0824 32eb db00 49f5 0d04 30e6 ead6
00000010: 091c e738 c60c f525 dadc 11f7 1511 16f7
00000020: e305 f0b8 dd1e ede8 0f38 f4df 17d1 f0d8
00000030: 1210 06ff d512 e714 33ef fd31 c6f5 01f4
00000040: 0ddf 4721 2c3e 2e05 f4fb 06f3 ef39 2717
00000050: 320c f10a e338 ed13 de20 ebbb 0242 caf6
00000060: 0dfc 12f7 4864 ef1a 05f8 d4f3 3222 ed0c
00000070: 0500 0f03 ea60 051b f0f6 c423 15fe 45e9
00000080: 157c f601 07df 3ece bbda f1e1 ffd6 14e0
00000090: f2e0 113b 0dea eaf1 ef21 f833 1742 ccd1
000000a0: 09fc 0b0d ee0a f7e4 0214 2a1c f8f5 ebf6
000000b0: edf2 de01 ff03 f011 f714 e91e 12f3 ebea
000000c0: 38d1 df14 e02b 350e 2b30 34ee f3f3 e700
000000d0: ea25 c3df dde2 fef2 efd4 0d09 2606 f92a
000000e0: 1fec dbe6 d8fc 01f4 f6e9 e72b 3c1f 2cf3
000000f0: 0ce9 cfe2 c112 fbc6 2ad1 4425 f61d 01e2

274_quantized i1 [64, 1, 3, 3]
26 45 -15 91 56 -12 -57 -65
4 37 14 -94 53 64 -64 29
-7 -8 -22 -1 36 -8 -9 -16
-54 -22 -21 15 -40 -4 -35 17
16 -35 33 33 -35 -14 24 -23
-6 64 -23 28 36 32 77 -73
103 -1 -79 30 -32 -62 39 29
68 38 30 -25 14 -21 -53 -45
-13 -21 29 53 -8 43 13 25
-37 -21 31 6 -14 -43 14 77
27 -21 41 44 45 52 -15 -14
10 14 17 39 -53 15 76 -40
53 -4 -65 -10 -13 37 -3 15
-79 -35 -44 79 8 69 19 45
13 -28 -21 -18 -35 39 -30 23
38 21 72 -30 24 19 -27 -14
-50 26 97 10 39 48 -55 50
-94 73 111 -40 -112 -1 62 -9
9 -10 -15 -15 64 -3 51 29
-24 -3 -30 -20 51 18 -37 37
76 66 -16 -62 90 -38 -113 100
-32 -54 25 -38 4 -23 29 -14
-1 1 22 54 -26 -87 -43 81
-19 -54 103 77 38 -34 37 17
-54 -34 87 -74 42 29 28 56
-10 1 55 41 -48 -44 48 122
-85 -13 -84 -78 109 37 41 -101
-51 -66 -37 48 17 3 53 22
12 -49 45 12 36 52 -6 -19
-2 33 23 43 49 -33 -37 8
-5 -15 -32 50 -82 -41 -58 -123
-7 -61 -95 -4 -46 -52 -64 36
00000000: 1a2d f15b 38f4 c7bf 0425 0ea2 3540 c01d
00000010: f9f8 eaff 24f8 f7f0 caea eb0f d8fc dd11
00000020: 10dd 2121 ddf2 18e9 fa40 e91c 2420 4db7
00000030: 67ff b11e e0c2 271d 4426 1ee7 0eeb cbd3
00000040: f3eb 1d35 f82b 0d19 dbeb 1f06 f2d5 0e4d
00000050: 1beb 292c 2d34 f1f2 0a0e 1127 cb0f 4cd8
00000060: 35fc bff6 f325 fd0f b1dd d44f 0845 132d
00000070: 0de4 ebee dd27 e217 2615 48e2 1813 e5f2
00000080: ce1a 610a 2730 c932 a249 6fd8 90ff 3ef7
00000090: 09f6 f1f1 40fd 331d e8fd e2ec 3312 db25
000000a0: 4c42 f0c2 5ada 8f64 e0ca 19da 04e9 1df2
000000b0: ff01 1636 e6a9 d551 edca 674d 26de 2511
000000c0: cade 57b6 2a1d 1c38 f601 3729 d0d4 307a
000000d0: abf3 acb2 6d25 299b cdbe db30 1103 3516
000000e0: 0ccf 2d0c 2434 faed fe21 172b 31df db08
000000f0: fbf1 e032 aed7 c685 f9c3 a1fc d2cc c024

277_quantized i1 [64, 64, 1, 1]
-3 -7 0 18 -11 26 -2 5
-23 -23 -3 29 1 8 -23 0
-4 -29 -20 -6 -25 13 -25 -6
-11 12 -20 37 16 22 24 -2
-7 -30 -22 -37 -12 -7 36 -37
27 -1 36 -23 -30 8 11 0
-29 3 -19 -40 29 -5 10 12
4 7 9 -17 -2 -11 13 -23
-9 -6 -6 11 17 15 2 2
-9 8 13 -6 4 32 9 -1
-13 -5 12 -9 -16 -2 -9 7
12 2 3 7 13 1 -16 4
11 -7 -9 -2 16 7 -5 6
-2 16 18 3 -6 -3 3 -3
15 3 15 -10 18 1 -19 2
-12 -7 13 6 -1 -14 -1 0
29 42 -12 -20 31 1 -12 7
6 -24 -16 -1 -12 5 18 0
4 13 -6 3 26 12 -8 21
-19 5 -6 8 -6 -26 -12 -35
35 16 -18 15 5 21 17 5
-6 -41 -23 -9 12 -19 -2 -23
-13 7 1 3 -49 11 -16 -20
-18 14 10 -27 2 43 35 13
-23 20 -24 -20 13 -3 -4 -18
12 -11 -2 11 22 25 24 11
14 -12 -32 -2 40 -42 35 -10
40 40 -30 -6 16 55 -12 6
12 31 18 46 -22 -4 -6 -25
13 37 -17 -17 -5 17 69 30
-11 19 -10 -7 13 -10 -9 18
59 37 17 -6 -19 -39 -3 9
00000000: fdf9 0012 f51a fe05 e9e9 fd1d 0108 e900
00000010: fce3 ecfa e70d e7fa f50c ec25 1016 18fe
00000020: f9e2 eadb f4f9 24db 1bff 24e9 e208 0b00
00000030: e303 edd8 1dfb 0a0c 0407 09ef fef5 0de9
00000040: f7fa fa0b 110f 0202 f708 0dfa 0420 09ff
00000050: f3fb 0cf7 f0fe f707 0c02 0307 0d01 f004
00000060: 0bf9 f7fe 1007 fb06 fe10 1203 fafd 03fd
00000070: 0f03 0ff6 1201 ed02 f4f9 0d06 fff2 ff00
00000080: 1d2a f4ec 1f01 f407 06e8 f0ff f405 1200
00000090: 040d fa03 1a0c f815 ed05 fa08 fae6 f4dd
000000a0: 2310 ee0f 0515 1105 fad7 e9f7 0ced fee9
000000b0: f307 0103 cf0b f0ec ee0e 0ae5 022b 230d
000000c0: e914 e8ec 0dfd fcee 0cf5 fe0b 1619 180b
000000d0: 0ef4 e0fe 28d6 23f6 2828 e2fa 1037 f406
000000e0: 0c1f 122e eafc fae7 0d25 efef fb11 451e
000000f0: f513 f6f9 0df6 f712 3b25 11fa edd9 fd09

280_quantized i1 [64, 1, 3, 3]
10 33 2 35 60 -2 26 11
19 127 46 17 -36 4 -32 -102
-87 -40 17 52 51 -14 43 37
-53 31 -12 -20 -34 -5 -10 -24
-49 -8 20 15 3 7 1 45
6 23 26 24 26 22 -31 -25
-11 -26 6 -24 -44 -2 -4 8
16 4 -31 -44 -50 -35 -37 20
15 45 -25 -9 43 -55 24 14
43 82 58 2 6 15 5 -27
20 11 33 46 -45 -41 14 32
19 23 15 24 14 38 18 15
6 -4 18 2 -64 -41 -6 -28
-48 32 10 9 -20 -6 -4 -6
-5 -12 1 -30 -8 15 33 13
18 20 20 -13 -3 29 11 19
-13 18 18 15 39 15 17 -20
-6 9 -15 23 -50 33 -49 6
-37 -45 17 -31 -39 -6 8 -21
-24 54 56 -54 55 -26 -45 11
-20 -44 8 -30 17 -51 0 33
-21 44 23 -20 -50 -25 -12 -70
-31 -35 -31 1 -25 4 19 -30
-54 25 -61 -39 -31 3 -2 18
6 35 39 18 32 -4 -17 4
-27 -54 -3 -5 -6 -35 -40 11
47 24 22 29 18 10 -26 3
-13 28 27 32 35 13 24 2
1 -49 -3 5 7 -26 75 -24
-24 82 -24 -48 19 -17 -49 -3
-45 -6 6 -40 -12 39 -41 11
47 -32 -7 44 -33 27 15 41
00000000: 0a21 0223 3cfe 1a0b 137f 2e11 dc04 e09a
00000010: a9d8 1134 33f2 2b25 cb1f f4ec defb f6e8
00000020: cff8 140f 0307 012d 0617 1a18 1a16 e1e7
00000030: f5e6 06e8 d4fe fc08 1004 e1d4 cedd db14
00000040: 0f2d e7f7 2bc9 180e 2b52 3a02 060f 05e5
00000050: 140b 212e d3d7 0e20 1317 0f18 0e26 120f
00000060: 06fc 1202 c0d7 fae4 d020 0a09 ecfa fcfa
00000070: fbf4 01e2 f80f 210d 1214 14f3 fd1d 0b13
00000080: f312 120f 270f 11ec fa09 f117 ce21 cf06
00000090: dbd3 11e1 d9fa 08eb e836 38ca 37e6 d30b
000000a0: ecd4 08e2 11cd 0021 eb2c 17ec cee7 f4ba
000000b0: e1dd e101 e704 13e2 ca19 c3d9 e103 fe12
000000c0: 0623 2712 20fc ef04 e5ca fdfb fadd d80b
000000d0: 2f18 161d 120a e603 f31c 1b20 230d 1802
000000e0: 01cf fd05 07e6 4be8 e852 e8d0 13ef cffd
000000f0: d3fa 06d8 f427 d70b 2fe0 f92c df1b 0f29

283_quantized i1 [128, 64, 1, 1]
3 38 23 19 -11 -5 6 28
-20 -13 -4 8 -8 12 6 -5
-14 5 15 -30 1 3 -27 -27
-20 37 14 -18 -2 -2 21 18
-1 -42 2 3 13 9 -24 6
-3 12 2 -19 14 10 6 28
-15 -11 -14 -39 -7 -31 9 -34
61 35 43 -21 43 16 3 -7
54 -12 -3 -14 -33 21 26 -20
-3 -14 -8 -38 -22 29 -29 2
-44 11 7 29 -34 8 4 -29
4 7 -50 17 2 -3 -3 14
1 -2 -5 -10 -27 -25 -3 -6
0 -32 -1 -22 41 -13 12 -18
6 -3 -20 18 -18 -8 -1 1
31 -6 2 46 15 3 -11 -13
-10 17 9 7 -28 0 39 27
4 -18 26 -3 -15 -25 -39 17
-3 -39 -6 8 15 -29 12 17
14 10 39 -1 24 -40 8 -18
30 -17 -10 -1 23 -38 28 25
15 -3 -1 34 -6 -9 6 -23
-23 35 -5 17 -16 -27 41 -20
3 -37 23 -14 -8 -24 6 33
-4 16 23 -18 -16 -40 6 -6
9 14 -14 2 15 34 -14 0
14 -8 14 0 -14 -8 -20 -30
8 32 -28 -7 -11 0 -7 5
8 15 1 -12 21 26 -14 4
-12 52 -23 2 12 -5 12 15
-21 6 20 -11 14 17 -20 -23
18 27 2 28 -13 -30 1 41
00000000: 0326 1713 f5fb 061c ecf3 fc08 f80c 06fb
00000010: f205 0fe2 0103 e5e5 ec25 0eee fefe 1512
00000020: ffd6 0203 0d09 e806 fd0c 02ed 0e0a 061c
00000030: f1f5 f2d9 f9e1 09de 3d23 2beb 2b10 03f9
00000040: 36f4 fdf2 df15 1aec fdf2 f8da ea1d e302
00000050: d40b 071d de08 04e3 0407 ce11 02fd fd0e
00000060: 01fe fbf6 e5e7 fdfa 00e0 ffea 29f3 0cee
00000070: 06fd ec12 eef8 ff01 1ffa 022e 0f03 f5f3
00000080: f611 0907 e400 271b 04ee 1afd f1e7 d911
00000090: fdd9 fa08 0fe3 0c11 0e0a 27ff 18d8 08ee
000000a0: 1eef f6ff 17da 1c19 0ffd ff22 faf7 06e9
000000b0: e923 fb11 f0e5 29ec 03db 17f2 f8e8 0621
000000c0: fc10 17ee f0d8 06fa 090e f202 0f22 f200
000000d0: 0ef8 0e00 f2f8 ece2 0820 e4f9 f500 f905
000000e0: 080f 01f4 151a f204 f434 e902 0cfb 0c0f
000000f0: eb06 14f5 0e11 ece9 121b 021c f3e2 0129

286_quantized i1 [128, 1, 3, 3]
41 56 5 -51 -35 2 12 -25
7 -41 -40 33 54 -50 -34 52
-27 -20 3 45 9 -51 18 -32
23 76 -6 24 -20 6 -6 -41
-13 -17 -51 -43 14 14 -5 4
26 5 4 21 -13 19 29 -18
-14 29 32 -9 -15 -27 -8 -15
-42 -3 -31 30 -13 52 86 27
49 10 -56 45 4 -22 3 -44
-39 -19 64 -29 9 22 -3 18
4 28 27 0 47 62 23 -3
30 -44 30 -34 3 -8 -30 -44
15 -20 11 5 94 72 -37 78
-13 -23 -43 -106 -9 13 -12 13
15 -16 45 50 -15 7 -29 -51
47 61 21 -66 -39 45 -42 -33
36 -30 80 -29 47 -34 -14 -5
24 -48 7 -20 -31 -19 -24 -25
5 -21 -13 -25 -23 -23 -10 1
0 -25 -1 -19 -45 59 50 -38
15 42 -23 27 18 -33 9 -25
-22 -11 -40 -46 -40 2 -55 -13
32 44 72 -23 -5 -15 10 -29
-60 -64 1 6 -24 56 -27 -21
29 -27 -11 105 -105 -30 -31 -33
47 43 39 6 -32 -17 -19 -6
45 36 -14 68 26 -18 -1 -12
-49 4 -39 46 49 25 11 23
-82 -41 -28 0 13 73 23 13
11 -24 -16 -42 22 1 -58 5
-41 -16 -38 -41 -51 -17 2 48
28 40 -21 53 3 12 -1 -23
00000000: 2938 05cd dd02 0ce7 07d7 d821 36ce de34
00000010: e5ec 032d 09cd 12e0 174c fa18 ec06 fad7
00000020: f3ef cdd5 0e0e fb04 1a05 0415 f313 1dee
00000030: f21d 20f7 f1e5 f8f1 d6fd e11e f334 561b
00000040: 310a c82d 04ea 03d4 d9ed 40e3 0916 fd12
00000050: 041c 1b00 2f3e 17fd 1ed4 1ede 03f8 e2d4
00000060: 0fec 0b05 5e48 db4e f3e9 d596 f70d f40d
00000070: 0ff0 2d32 f107 e3cd 2f3d 15be d92d d6df
00000080: 24e2 50e3 2fde f2fb 18d0 07ec e1ed e8e7
00000090: 05eb f3e7 e9e9 f601 00e7 ffed d33b 32da
000000a0: 0f2a e91b 12df 09e7 eaf5 d8d2 d802 c9f3
000000b0: 202c 48e9 fbf1 0ae3 c4c0 0106 e838 e5eb
000000c0: 1de5 f569 97e2 e1df 2f2b 2706 e0ef edfa
000000d0: 2d24 f244 1aee fff4 cf04 d92e 3119 0b17
000000e0: aed7 e400 0d49 170d 0be8 f0d6 1601 c605
000000f0: d7f0 dad7 cdef 0230 1c28 eb35 030c ffe9

289_quantized i1 [128, 128, 1, 1]
0 18 -26 0 58 -97 46 -3
-25 -26 -65 -49 3 71 15 -55
-32 55 -26 8 -9 34 51 19
38 37 -41 24 -15 62 -53 -32
-17 -6 39 5 11 -44 -58 -7
4 -27 14 19 -16 33 41 -53
-1 4 -20 5 16 -74 37 -6
21 22 13 2 -27 20 -21 -4
-13 35 23 47 45 17 -21 36
28 -41 -13 -9 33 -16 -27 -37
8 41 39 -24 -36 -4 4 -74
53 -7 -7 -7 7 57 4 -4
-23 19 25 4 -51 -39 -21 17
39 2 -11 -36 11 27 -13 2
-34 -29 5 -47 -5 -39 -1 -48
21 -81 -19 37 15 -17 -18 -51
17 35 -19 2 -22 -32 17 16
-20 5 -73 -25 -9 0 26 -62
-38 19 11 48 17 21 -6 -24
9 35 -1 36 17 -3 -5 -30
13 12 8 -31 -9 10 -33 40
-16 13 9 16 9 -12 -17 -20
12 -45 -26 29 -26 9 24 41
-12 35 15 -10 10 -9 34 -6
6 -29 -26 10 2 -7 -37 -11
0 -30 8 -1 46 -6 -10 -22
18 -1 5 -21 12 2 -11 -37
73 11 -33 -10 -9 9 28 57
22 14 39 -47 -7 5 -5 -26
8 17 -22 4 -31 9 -21 -2
19 -2 -15 -29 -23 4 -4 9
-37 37 38 -9 -10 22 53 0
00000000: 0012 e600 3a9f 2efd e7e6 bfcf 0347 0fc9
00000010: e037 e608 f722 3313 2625 d718 f13e cbe0
00000020: effa 2705 0bd4 c6f9 04e5 0e13 f021 29cb
00000030: ff04 ec05 10b6 25fa 1516 0d02 e514 ebfc
00000040: f323 172f 2d11 eb24 1cd7 f3f7 21f0 e5db
00000050: 0829 27e8 dcfc 04b6 35f9 f9f9 0739 04fc
00000060: e913 1904 cdd9 eb11 2702 f5dc 0b1b f302
00000070: dee3 05d1 fbd9 ffd0 15af ed25 0fef eecd
00000080: 1123 ed02 eae0 1110 ec05 b7e7 f700 1ac2
00000090: da13 0b30 1115 fae8 0923 ff24 11fd fbe2
000000a0: 0d0c 08e1 f70a df28 f00d 0910 09f4 efec
000000b0: 0cd3 e61d e609 1829 f423 0ff6 0af7 22fa
000000c0: 06e3 e60a 02f9 dbf5 00e2 08ff 2efa f6ea
000000d0: 12ff 05eb 0c02 f5db 490b dff6 f709 1c39
000000e0: 160e 27d1 f905 fbe6 0811 ea04 e109 ebfe
000000f0: 13fe f1e3 e904 fc09 db25 26f7 f616 3500

292_quantized i1 [128, 1, 3, 3]
1 -29 -19 21 -14 -14 -3 14
1 -23 -22 -14 -41 24 54 -6
41 -39 45 -44 22 41 -52 -32
42 4 -16 6 45 21 0 35
20 -10 23 14 -8 2 34 9
20 26 -8 -10 41 3 13 35
32 21 33 -26 22 -2 -3 24
26 -32 37 -4 -14 23 -22 -39
-13 26 27 13 37 -18 27 -26
22 24 10 -5 67 37 -49 -29
-11 29 -22 -12 54 7 -34 41
4 -14 10 15 -37 -10 -13 -37
-27 33 46 7 -45 -27 -20 8
-30 11 -18 -5 -12 62 58 -13
34 29 8 36 -54 -4 10 58
11 -2 21 -3 20 -7 49 55
9 42 33 -35 -11 -3 48 11
19 -5 -44 -45 -20 -13 15 74
30 -19 -29 42 21 -16 2 32
33 -19 -32 -19 -5 -17 -27 -32
39 -19 28 22 40 7 3 -11
-11 -3 -6 -12 -4 -32 7 0
19 4 74 37 -3 29 17 8
29 26 12 18 -18 -1 -36 -11
-8 34 44 -23 30 46 -24 7
6 17 8 -42 -53 35 34 31
17 15 -23 -24 -17 -19 -11 -9
-9 -5 2 -17 -38 -40 -28 -5
-22 16 0 2 -14 -7 45 -2
-1 58 -17 -17 -4 -20 44 22
-42 46 12 4 47 13 8 24
22 -19 -24 -4 -13 -23 -22 19
00000000: 01e3 ed15 f2f2 fd0e 01e9 eaf2 d718 36fa
00000010: 29d9 2dd4 1629 cce0 2a04 f006 2d15 0023
00000020: 14f6 170e f802 2209 141a f8f6 2903 0d23
00000030: 2015 21e6 16fe fd18 1ae0 25fc f217 ead9
00000040: f31a 1b0d 25ee 1be6 1618 0afb 4325 cfe3
00000050: f51d eaf4 3607 de29 04f2 0a0f dbf6 f3db
00000060: e521 2e07 d3e5 ec08 e20b eefb f43e 3af3
00000070: 221d 0824 cafc 0a3a 0bfe 15fd 14f9 3137
00000080: 092a 21dd f5fd 300b 13fb d4d3 ecf3 0f4a
00000090: 1eed e32a 15f0 0220 21ed e0ed fbef e5e0
000000a0: 27ed 1c16 2807 03f5 f5fd faf4 fce0 0700
000000b0: 1304 4a25 fd1d 1108 1d1a 0c12 eeff dcf5
000000c0: f822 2ce9 1e2e e807 0611 08d6 cb23 221f
000000d0: 110f e9e8 efed f5f7 f7fb 02ef dad8 e4fb
000000e0: ea10 0002 f2f9 2dfe ff3a efef fcec 2c16
000000f0: d62e 0c04 2f0d 0818 16ed e8fc f3e9 ea13

295_quantized i1 [256, 128, 1, 1]
59 -7 52 22 10 -16 12 25
-21 -17 -7 -5 -34 24 -4 -20
-59 6 18 -8 -47 15 27 -2
-12 -3 -14 -38 -27 27 6 -29
-1 69 14 -5 -27 -51 -26 -20
-4 7 -52 -18 9 -5 -7 -18
-3 -11 44 43 23 -33 29 19
-11 -29 -63 -14 -11 -2 7 -22
-3 -42 16 41 -35 23 33 -18
4 -34 1 -27 -8 10 12 33
-13 -22 31 -79 35 1 -31 -59
-33 4 -8 -43 0 14 -27 -23
-47 -42 9 33 -10 13 -9 -21
-20 18 -21 -26 -14 -8 -11 -22
-15 -31 -31 -10 0 23 14 46
7 6 2 -7 -30 40 -22 -9
47 -12 6 -7 13 22 -17 24
-8 -5 -9 26 18 -4 -2 51
-34 -11 24 -13 -2 2 34 -18
-3 -5 0 -5 -43 0 -13 26
43 -12 -30 -10 9 -30 26 0
45 -13 -36 5 11 12 32 3
-34 -14 6 -8 -46 -15 10 50
10 20 -47 7 -16 36 37 20
-26 -11 -21 19 -15 -13 67 -27
-38 29 3 13 13 15 8 12
0 4 -35 2 39 -22 13 -5
46 23 38 -18 4 -8 46 4
2 -13 13 18 63 40 9 -4
-26 -12 2 -4 18 -32 -19 11
30 -20 11 4 20 35 47 2
-4 -68 -1 -4 -22 26 -17 44
00000000: 3bf9 3416 0af0 0c19 ebef f9fb de18 fcec
00000010: c506 12f8 d10f 1bfe f4fd f2da e51b 06e3
00000020: ff45 0efb e5cd e6ec fc07 ccee 09fb f9ee
00000030: fdf5 2c2b 17df 1d13 f5e3 c1f2 f5fe 07ea
00000040: fdd6 1029 dd17 21ee 04de 01e5 f80a 0c21
00000050: f3ea 1fb1 2301 e1c5 df04 f8d5 000e e5e9
00000060: d1d6 0921 f60d f7eb ec12 ebe6 f2f8 f5ea
00000070: f1e1 e1f6 0017 0e2e 0706 02f9 e228 eaf7
00000080: 2ff4 06f9 0d16 ef18 f8fb f71a 12fc fe33
00000090: def5 18f3 fe02 22ee fdfb 00fb d500 f31a
000000a0: 2bf4 e2f6 09e2 1a00 2df3 dc05 0b0c 2003
000000b0: def2 06f8 d2f1 0a32 0a14 d107 f024 2514
000000c0: e6f5 eb13 f1f3 43e5 da1d 030d 0d0f 080c
000000d0: 0004 dd02 27ea 0dfb 2e17 26ee 04f8 2e04
000000e0: 02f3 0d12 3f28 09fc e6f4 02fc 12e0 ed0b
000000f0: 1eec 0b04 1423 2f02 fcbc fffc ea1a ef2c

298_quantized i1 [256, 1, 3, 3]
18 -10 -20 48 55 -43 -13 10
17 -13 -19 -48 -18 -34 9 28
-37 46 80 -34 -7 -42 9 -38
55 -47 -14 -22 -3 7 33 -32
-34 59 -25 -20 5 2 56 -27
-24 -17 -9 -15 -27 40 8 -39
-43 -39 -28 -14 -21 82 26 -42
16 -13 29 -29 57 82 -92 25
-14 -31 -32 -31 29 -46 27 61
3 24 14 4 36 16 11 8
-8 -17 -22 -16 -35 38 -1 -22
39 3 9 -46 -2 110 -77 11
4 -50 40 21 -40 41 -31 25
68 -31 -60 -80 -31 -4 61 -71
48 39 -2 -19 -77 -58 17 45
71 18 -73 13 8 13 3 -17
15 -10 -31 15 -5 -36 30 -19
-114 29 -71 9 120 1 72 82
-1 -12 20 3 -17 45 -20 -17
10 -14 -75 89 28 -66 62 21
-5 -70 43 52 30 -25 5 -34
-22 10 -7 2 7 37 49 -2
-28 -22 9 41 -41 19 16 -14
-69 8 31 24 72 48 -10 11
-44 10 22 47 -34 56 -7 41
-22 -19 -36 -19 -28 -40 21 64
-36 -25 -7 78 -61 -3 14 -67
1 16 38 26 -24 -15 48 -20
-21 -63 79 63 -6 -12 70 -32
-51 -49 10 -10 -7 26 18 26
21 24 -23 -36 24 43 15 6
-42 -30 -24 -20 -33 30 -51 -21
00000000: 12f6 ec30 37d5 f30a 11f3 edd0 eede 091c
00000010: db2e 50de f9d6 09da 37d1 f2ea fd07 21e0
00000020: de3b e7ec 0502 38e5 e8ef f7f1 e528 08d9
00000030: d5d9 e4f2 eb52 1ad6 10f3 1de3 3952 a419
00000040: f2e1 e0e1 1dd2 1b3d 0318 0e04 2410 0b08
00000050: f8ef eaf0 dd26 ffea 2703 09d2 fe6e b30b
00000060: 04ce 2815 d829 e119 44e1 c4b0 e1fc 3db9
00000070: 3027 feed b3c6 112d 4712 b70d 080d 03ef
00000080: 0ff6 e10f fbdc 1eed 8e1d b909 7801 4852
00000090: fff4 1403 ef2d ecef 0af2 b559 1cbe 3e15
000000a0: fbba 2b34 1ee7 05de ea0a f902 0725 31fe
000000b0: e4ea 0929 d713 10f2 bb08 1f18 4830 f60b
000000c0: d40a 162f de38 f929 eaed dced e4d8 1540
000000d0: dce7 f94e c3fd 0ebd 0110 261a e8f1 30ec
000000e0: ebc1 4f3f faf4 46e0 cdcf 0af6 f91a 121a
000000f0: 1518 e9dc 182b 0f06 d6e2 e8ec df1e cdeb

301_quantized i1 [256, 256, 1, 1]
56 20 -1 -29 26 8 19 -19
-9 -25 -20 -15 -3 -20 4 -11
2 0 -33 -5 52 -4 3 -14
10 -27 16 -35 45 -23 -21 11
24 -20 -8 -15 18 36 39 5
40 -21 -11 28 24 -3 34 -5
-5 -25 12 -16 8 22 -11 21
-2 -34 33 3 17 12 1 2
11 9 6 -3 36 -3 8 17
-47 -28 -11 14 -5 6 -11 -9
20 -25 9 -29 -14 -7 -43 4
-10 -2 5 2 -30 -5 -32 5
-9 -39 16 38 -7 -25 -23 -35
25 23 -10 -6 -31 -10 6 -20
-31 40 5 16 14 -34 -15 22
-11 18 -25 -15 16 8 -52 37
-15 -7 5 -10 -6 -61 24 -5
-8 58 -11 12 -17 38 -18 16
-24 -13 -45 41 -19 -35 86 17
-4 -27 -13 -4 -33 23 -21 -49
3 26 5 -19 18 -49 1 34
-6 39 34 -11 2 -11 -46 25
12 9 -19 -4 45 18 -25 -17
-6 41 -28 -4 2 7 24 9
-17 -27 -36 27 -21 11 -41 -18
-8 -28 -36 4 -35 -24 -29 -64
8 52 10 15 -4 -4 8 6
-14 20 13 -7 2 27 51 41
-37 45 34 -1 30 -26 3 -23
-25 20 -6 -38 -6 -37 -10 3
-25 20 8 -19 -10 36 8 54
5 20 10 20 13 -13 4 -17
00000000: 3814 ffe3 1a08 13ed f7e7 ecf1 fdec 04f5
00000010: 0200 dffb 34fc 03f2 0ae5 10dd 2de9 eb0b
00000020: 18ec f8f1 1224 2705 28eb f51c 18fd 22fb
00000030: fbe7 0cf0 0816 f515 fede 2103 110c 0102
00000040: 0b09 06fd 24fd 0811 d1e4 f50e fb06 f5f7
00000050: 14e7 09e3 f2f9 d504 f6fe 0502 e2fb e005
00000060: f7d9 1026 f9e7 e9dd 1917 f6fa e1f6 06ec
00000070: e128 0510 0ede f116 f512 e7f1 1008 cc25
00000080: f1f9 05f6 fac3 18fb f83a f50c ef26 ee10
00000090: e8f3 d329 eddd 5611 fce5 f3fc df17 ebcf
000000a0: 031a 05ed 12cf 0122 fa27 22f5 02f5 d219
000000b0: 0c09 edfc 2d12 e7ef fa29 e4fc 0207 1809
000000c0: efe5 dc1b eb0b d7ee f8e4 dc04 dde8 e3c0
000000d0: 0834 0a0f fcfc 0806 f214 0df9 021b 3329
000000e0: db2d 22ff 1ee6 03e9 e714 fada fadb f603
000000f0: e714 08ed f624 0836 0514 0a14 0df3 04ef

304_quantized i1 [256, 1, 3, 3]
13 -35 -31 19 21 18 -36 -22
52 -28 41 5 14 -16 -23 10
-18 -28 19 42 -47 74 1 -59
-46 -7 -39 -19 8 9 47 -40
24 19 -23 -24 24 -15 24 0
-32 42 -1 -15 25 44 -36 41
35 7 -22 -5 25 -37 9 -15
25 -36 4 -45 -44 11 30 47
23 -16 -23 -25 -10 -47 0 6
-21 13 9 -10 45 -4 -26 3
-9 53 -26 -54 15 28 -14 -50
28 5 3 -27 -44 27 57 -12
19 -26 4 -20 16 -13 -7 -17
-31 13 47 47 -33 5 35 -2
-12 -34 28 34 -12 9 -2 -31
-20 -10 7 62 -70 41 9 24
33 4 34 -36 22 7 -43 -27
-38 0 -38 -19 -13 61 -1 -30
3 1 35 24 -34 -33 29 -36
-26 -12 -20 41 -15 -34 -31 30
-34 4 -15 -25 -29 43 48 16
11 10 16 29 33 -9 -32 3
-18 -17 -20 17 42 -1 -11 -13
20 39 -35 18 -3 -28 -18 -18
40 23 13 -25 -18 10 -21 -1
45 35 15 -27 -45 0 -7 9
-20 12 9 32 7 9 9 -20
-36 0 14 -31 -14 59 37 -55
31 38 -47 -8 46 -31 -31 -69
67 -25 -29 8 27 -16 63 -31
-8 -3 -13 -58 15 47 19 68
33 9 -16 -44 -18 -11 12 -14
00000000: 0ddd e113 1512 dcea 34e4 2905 0ef0 e90a
00000010: eee4 132a d14a 01c5 d2f9 d9ed 0809 2fd8
00000020: 1813 e9e8 18f1 1800 e02a fff1 192c dc29
00000030: 2307 eafb 19db 09f1 19dc 04d3 d40b 1e2f
00000040: 17f0 e9e7 f6d1 0006 eb0d 09f6 2dfc e603
00000050: f735 e6ca 0f1c f2ce 1c05 03e5 d41b 39f4
00000060: 13e6 04ec 10f3 f9ef e10d 2f2f df05 23fe
00000070: f4de 1c22 f409 fee1 ecf6 073e ba29 0918
00000080: 2104 22dc 1607 d5e5 da00 daed f33d ffe2
00000090: 0301 2318 dedf 1ddc e6f4 ec29 f1de e11e
000000a0: de04 f1e7 e32b 3010 0b0a 101d 21f7 e003
000000b0: eeef ec11 2aff f5f3 1427 dd12 fde4 eeee
000000c0: 2817 0de7 ee0a ebff 2d23 0fe5 d300 f909
000000d0: ec0c 0920 0709 09ec dc00 0ee1 f23b 25c9
000000e0: 1f26 d1f8 2ee1 e1bb 43e7 e308 1bf0 3fe1
000000f0: f8fd f3c6 0f2f 1344 2109 f0d4 eef5 0cf2

307_quantized i1 [256, 256, 1, 1]
-2 -6 -6 -9 28 15 11 -18
16 22 12 -25 1 54 25 -24
-14 -15 -9 6 -9 -8 -2 26
3 6 -6 -28 -15 48 -28 7
22 -2 40 11 -24 -19 1 -35
22 30 14 12 30 -25 -7 -5
-19 -35 50 13 -32 -8 -16 -11
47 21 -14 -11 19 -3 11 17
25 3 35 -40 38 0 -9 -31
-60 -33 58 9 30 11 -30 -1
1 4 52 -30 -23 13 -12 15
15 -9 15 42 -11 20 -16 -42
-22 9 10 -3 62 36 15 52
-6 -44 -6 -4 -14 71 -38 -34
-8 29 0 -8 32 56 -41 -18
-39 3 -4 -12 14 6 39 4
14 34 10 -13 16 -11 -12 6
0 -13 6 28 -14 21 18 -3
-12 63 -17 11 27 -33 14 19
14 11 -46 -25 3 -10 36 6
19 44 59 -44 -10 -32 15 46
-22 48 -11 -6 19 -34 64 30
-4 -18 -17 -37 2 51 -13 -17
-24 5 -15 18 -3 -2 -3 32
-40 -17 38 9 18 -47 -9 -3
13 -41 -34 13 -22 13 -18 18
-42 -35 -24 9 8 -20 -43 -20
-50 -1 -18 -56 -3 -14 8 -16
-14 -15 26 -3 22 -41 10 40
-3 -24 -5 4 -14 -3 27 46
0 5 -31 -11 -42 -5 8 -24
43 -18 -12 -18 3 36 20 9
00000000: fefa faf7 1c0f 0bee 1016 0ce7 0136 19e8
00000010: f2f1 f706 f7f8 fe1a 0306 fae4 f130 e407
00000020: 16fe 280b e8ed 01dd 161e 0e0c 1ee7 f9fb
00000030: eddd 320d e0f8 f0f5 2f15 f2f5 13fd 0b11
00000040: 1903 23d8 2600 f7e1 c4df 3a09 1e0b e2ff
00000050: 0104 34e2 e90d f40f 0ff7 0f2a f514 f0d6
00000060: ea09 0afd 3e24 0f34 fad4 fafc f247 dade
00000070: f81d 00f8 2038 d7ee d903 fcf4 0e06 2704
00000080: 0e22 0af3 10f5 f406 00f3 061c f215 12fd
00000090: f43f ef0b 1bdf 0e13 0e0b d2e7 03f6 2406
000000a0: 132c 3bd4 f6e0 0f2e ea30 f5fa 13de 401e
000000b0: fcee efdb 0233 f3ef e805 f112 fdfe fd20
000000c0: d8ef 2609 12d1 f7fd 0dd7 de0d ea0d ee12
000000d0: d6dd e809 08ec d5ec ceff eec8 fdf2 08f0
000000e0: f2f1 1afd 16d7 0a28 fde8 fb04 f2fd 1b2e
000000f0: 0005 e1f5 d6fb 08e8 2bee f4ee 0324 1409

310_quantized i1 [256, 1, 3, 3]
27 7 -4 28 -11 -1 -24 -2
-32 -48 10 -12 -20 -10 61 63
7 -16 32 -25 -12 -16 -7 12
-44 39 -21 -17 -15 47 -12 -28
55 -30 -34 54 15 40 21 6
9 11 3 16 -9 -18 -49 6
4 75 -4 -16 -36 -7 28 -8
18 27 82 -45 6 53 -23 -20
-29 -13 -30 27 14 11 21 -1
32 -2 -7 3 14 -34 22 -1
37 -30 -12 15 35 -19 -9 52
16 11 15 22 3 13 19 13
-9 6 -11 -19 -9 -2 -31 -57
5 14 8 -14 -19 41 -40 -7
45 -35 37 -9 56 -39 33 42
47 -5 -12 -2 -20 -34 -3 -39
18 55 -18 21 39 30 26 1
-9 -52 34 -39 22 16 -32 1
-3 -4 10 -18 -23 -18 -16 19
3 -17 -21 -23 2 41 -14 -34
-8 13 3 26 42 -26 66 -23
3 -58 19 26 -23 -3 28 -30
26 -33 22 -26 5 7 -11 12
12 17 15 23 -21 -22 -35 25
12 33 51 -20 -17 28 -15 21
1 -17 9 1 -6 -17 16 25
-46 15 -20 -8 35 11 65 0
-2 51 -1 -21 30 -14 19 -58
-18 -26 56 -22 52 87 -71 -8
-50 -20 -42 1 -31 -42 37 58
71 24 -16 39 -2 -25 -38 -23
54 -21 41 24 -13 18 -15 28
00000000: 1b07 fc1c f5ff e8fe e0d0 0af4 ecf6 3d3f
00000010: 07f0 20e7 f4f0 f90c d427 ebef f12f f4e4
00000020: 37e2 de36 0f28 1506 090b 0310 f7ee cf06
00000030: 044b fcf0 dcf9 1cf8 121b 52d3 0635 e9ec
00000040: e3f3 e21b 0e0b 15ff 20fe f903 0ede 16ff
00000050: 25e2 f40f 23ed f734 100b 0f16 030d 130d
00000060: f706 f5ed f7fe e1c7 050e 08f2 ed29 d8f9
00000070: 2ddd 25f7 38d9 212a 2ffb f4fe ecde fdd9
00000080: 1237 ee15 271e 1a01 f7cc 22d9 1610 e001
00000090: fdfc 0aee e9ee f013 03ef ebe9 0229 f2de
000000a0: f80d 031a 2ae6 42e9 03c6 131a e9fd 1ce2
000000b0: 1adf 16e6 0507 f50c 0c11 0f17 ebea dd19
000000c0: 0c21 33ec ef1c f115 01ef 0901 faef 1019
000000d0: d20f ecf8 230b 4100 fe33 ffeb 1ef2 13c6
000000e0: eee6 38ea 3457 b9f8 ceec d601 e1d6 253a
000000f0: 4718 f027 fee7 dae9 36eb 2918 f312 f11c

313_quantized i1 [256, 256, 1, 1]
14 -2 -11 5 8 2 -29 -34
-31 8 -9 -10 6 18 -23 -24
25 -10 -7 51 -4 -13 18 19
1 26 20 1 16 -19 -11 7
-5 -24 -27 -2 -42 -12 -5 14
7 -3 12 -34 -21 -9 -16 -14
-18 -4 -20 1 5 5 -25 -12
16 -14 2 -34 27 34 7 6
4 -31 9 26 13 -1 -22 -15
-4 -38 27 -3 -1 -21 -16 2
25 8 -30 -8 21 40 -4 -14
23 -3 20 4 -10 -2 0 -26
10 14 -1 -12 31 16 -8 21
-22 8 11 -6 -7 7 0 40
21 14 0 24 -7 12 9 23
-13 14 18 -8 21 18 -33 -4
4 18 7 -2 5 2 0 20
28 10 -2 -3 -1 9 10 -13
-6 -19 2 -16 -37 7 17 -17
-17 -39 -1 -35 -8 7 -7 -16
-4 -30 26 -5 -32 -20 -14 14
14 -45 6 -13 -23 -8 -8 1
-29 -12 8 -12 -26 -14 -20 10
-3 -6 -11 -5 -16 17 41 -18
-11 20 13 -5 -5 -48 -11 -14
17 -24 -5 13 -8 -20 -16 -5
9 -10 -12 -16 -3 22 2 1
24 0 -10 6 8 29 26 7
-14 -14 13 -5 -5 -16 -24 -3
26 30 -15 -6 -35 -10 3 16
-9 20 8 -18 -18 12 -9 11
5 19 37 -4 -39 -15 22 5
00000000: 0efe f505 0802 e3de e108 f7f6 0612 e9e8
00000010: 19f6 f933 fcf3 1213 011a 1401 10ed f507
00000020: fbe8 e5fe d6f4 fb0e 07fd 0cde ebf7 f0f2
00000030: eefc ec01 0505 e7f4 10f2 02de 1b22 0706
00000040: 04e1 091a 0dff eaf1 fcda 1bfd ffeb f002
00000050: 1908 e2f8 1528 fcf2 17fd 1404 f6fe 00e6
00000060: 0a0e fff4 1f10 f815 ea08 0bfa f907 0028
00000070: 150e 0018 f90c 0917 f30e 12f8 1512 dffc
00000080: 0412 07fe 0502 0014 1c0a fefd ff09 0af3
00000090: faed 02f0 db07 11ef efd9 ffdd f807 f9f0
000000a0: fce2 1afb e0ec f20e 0ed3 06f3 e9f8 f801
000000b0: e3f4 08f4 e6f2 ec0a fdfa f5fb f011 29ee
000000c0: f514 0dfb fbd0 f5f2 11e8 fb0d f8ec f0fb
000000d0: 09f6 f4f0 fd16 0201 1800 f606 081d 1a07
000000e0: f2f2 0dfb fbf0 e8fd 1a1e f1fa ddf6 0310
000000f0: f714 08ee ee0c f70b 0513 25fc d9f1 1605

316_quantized i1 [256, 1, 3, 3]
6 20 24 -15 33 52 12 16
26 -16 35 8 28 -14 -5 -23
-6 31 11 3 23 -48 54 -37
-28 -30 -23 -1 -26 -24 -8 25
-24 32 -3 7 3 22 27 32
-27 51 -14 -10 12 18 0 -5
-1 -17 -20 -12 19 20 29 -26
-16 2 -19 -10 -15 18 8 -8
3 16 -4 -15 36 2 28 -12
5 -1 -3 3 9 15 -5 -14
-10 6 -1 31 -19 13 4 -11
7 -19 5 -4 58 27 -9 -22
-11 20 -8 -16 11 -7 -12 1
6 -13 12 -17 21 4 -6 21
-4 -25 34 -14 -23 2 11 24
15 -29 -31 -22 -17 -2 23 52
-51 -43 23 -24 64 74 -19 32
3 -18 29 4 -20 20 -29 5
-18 4 9 -17 17 -4 -22 12
-17 30 18 41 9 -40 -21 46
-26 -21 -19 0 17 58 -4 -1
36 -31 31 6 4 -18 -3 19
-7 -6 -14 26 -9 -14 -5 8
-12 24 4 -6 -17 -2 1 -10
-13 26 22 38 -3 -6 -6 22
1 -10 17 -16 0 1 8 45
-4 24 -31 -30 12 69 -16 23
7 40 -11 -10 -13 6 -25 -18
61 15 25 -6 1 28 6 11
24 -4 24 -13 32 33 11 -22
8 -32 8 -19 1 -16 22 16
5 -9 8 27 18 -20 16 5
00000000: 0614 18f1 2134 0c10 1af0 2308 1cf2 fbe9
00000010: fa1f 0b03 17d0 36db e4e2 e9ff e6e8 f819
00000020: e820 fd07 0316 1b20 e533 f2f6 0c12 00fb
00000030: ffef ecf4 1314 1de6 f002 edf6 f112 08f8
00000040: 0310 fcf1 2402 1cf4 05ff fd03 090f fbf2
00000050: f606 ff1f ed0d 04f5 07ed 05fc 3a1b f7ea
00000060: f514 f8f0 0bf9 f401 06f3 0cef 1504 fa15
00000070: fce7 22f2 e902 0b18 0fe3 e1ea effe 1734
00000080: cdd5 17e8 404a ed20 03ee 1d04 ec14 e305
00000090: ee04 09ef 11fc ea0c ef1e 1229 09d8 eb2e
000000a0: e6eb ed00 113a fcff 24e1 1f06 04ee fd13
000000b0: f9fa f21a f7f2 fb08 f418 04fa effe 01f6
000000c0: f31a 1626 fdfa fa16 01f6 11f0 0001 082d
000000d0: fc18 e1e2 0c45 f017 0728 f5f6 f306 e7ee
000000e0: 3d0f 19fa 011c 060b 18fc 18f3 2021 0bea
000000f0: 08e0 08ed 01f0 1610 05f7 081b 12ec 1005

319_quantized i1 [256, 256, 1, 1]
4 17 5 -36 22 5 -22 3
-11 16 -27 5 -8 7 -29 -28
19 -22 20 -15 3 -7 -35 -4
-42 2 -46 -34 10 3 11 5
-7 21 -4 -16 -20 -15 13 4
36 -9 -10 9 -17 9 -33 5
3 -3 14 8 -17 -34 2 -14
-37 -12 4 2 -18 54 -34 -18
-3 6 15 -22 4 1 38 -6
24 -36 -15 -15 -12 48 11 19
-37 13 23 33 7 3 7 26
7 11 -14 -1 -26 25 -38 40
-13 -21 16 -29 -40 25 -9 -21
-9 -42 -6 6 9 55 -15 25
-24 -31 -2 -6 2 4 -7 -38
-8 -13 -11 -28 -12 -32 17 -5
1 31 -22 3 -7 10 -26 -3
18 -22 -4 23 -22 23 5 0
-7 -20 25 -35 -18 15 11 27
33 -8 -22 -13 -1 28 36 -27
9 -23 -36 0 50 -38 -15 18
0 31 -37 31 12 -11 0 -2
10 -22 -9 17 29 -9 -23 22
-13 6 -23 28 5 -26 37 11
22 -6 -22 -31 -29 -2 18 30
-16 6 4 -8 4 -8 0 22
-29 12 6 -31 -3 2 -11 -1
40 16 -30 -1 -25 -66 32 9
15 1 -12 5 16 34 -8 -21
-3 -12 14 1 2 -16 -10 -19
5 -24 -4 2 -21 18 0 -8
27 3 -4 6 9 -16 13 -1
00000000: 0411 05dc 1605 ea03 f510 e505 f807 e3e4
00000010: 13ea 14f1 03f9 ddfc d602 d2de 0a03 0b05
00000020: f915 fcf0 ecf1 0d04 24f7 f609 ef09 df05
00000030: 03fd 0e08 efde 02f2 dbf4 0402 ee36 deee
00000040: fd06 0fea 0401 26fa 18dc f1f1 f430 0b13
00000050: db0d 1721 0703 071a 070b f2ff e619 da28
00000060: f3eb 10e3 d819 f7eb f7d6 fa06 0937 f119
00000070: e8e1 fefa 0204 f9da f8f3 f5e4 f4e0 11fb
00000080: 011f ea03 f90a e6fd 12ea fc17 ea17 0500
00000090: f9ec 19dd ee0f 0b1b 21f8 eaf3 ff1c 24e5
000000a0: 09e9 dc00 32da f112 001f db1f 0cf5 00fe
000000b0: 0aea f711 1df7 e916 f306 e91c 05e6 250b
000000c0: 16fa eae1 e3fe 121e f006 04f8 04f8 0016
000000d0: e30c 06e1 fd02 f5ff 2810 e2ff e7be 2009
000000e0: 0f01 f405 1022 f8eb fdf4 0e01 02f0 f6ed
000000f0: 05e8 fc02 eb12 00f8 1b03 fc06 09f0 0dff

322_quantized i1 [256, 1, 3, 3]
33 -17 -24 23 -1 -31 23 -25
31 3 53 27 -24 -24 4 18
19 -18 -1 -8 2 -10 -7 -13
-6 -12 -9 -21 -10 10 51 47
-12 26 -50 44 5 36 18 32
-1 -4 21 -23 26 -27 -6 -12
-7 -15 10 -22 29 27 -15 -25
67 -20 51 -6 8 -19 34 -26
41 1 42 -17 -2 2 41 35
26 16 -3 -3 5 43 -22 2
-29 4 17 29 13 54 -53 -5
-8 -26 -14 10 -2 11 -23 47
1 0 2 -2 33 -17 15 14
-9 -19 -22 6 25 15 -15 3
27 4 -23 13 6 31 -6 -29
25 9 24 7 -13 44 4 -1
9 -13 10 13 -2 11 4 12
-12 -16 22 15 4 -13 -15 -6
-13 13 35 -15 8 39 21 -20
-30 7 -8 30 17 -16 20 -15
25 4 -17 13 -13 14 12 -22
-18 19 -6 0 31 -7 48 -19
58 66 -39 -1 18 12 0 -17
-5 16 -31 -19 -14 -11 14 -11
16 -15 -9 3 17 -17 15 -5
-14 -16 -25 9 25 16 -15 -7
32 4 14 -14 11 63 -38 104
-14 -18 7 -22 53 32 -18 -22
-18 11 -10 13 3 -12 39 -25
45 -9 53 -22 53 -5 11 -24
-7 -12 -21 25 19 -19 26 -30
11 -20 -19 -3 -22 1 42 -22
00000000: 21ef e817 ffe1 17e7 1f03 351b e8e8 0412
00000010: 13ee fff8 02f6 f9f3 faf4 f7eb f60a 332f
00000020: f41a ce2c 0524 1220 fffc 15e9 1ae5 faf4
00000030: f9f1 0aea 1d1b f1e7 43ec 33fa 08ed 22e6
00000040: 2901 2aef fe02 2923 1a10 fdfd 052b ea02
00000050: e304 111d 0d36 cbfb f8e6 f20a fe0b e92f
00000060: 0100 02fe 21ef 0f0e f7ed ea06 190f f103
00000070: 1b04 e90d 061f fae3 1909 1807 f32c 04ff
00000080: 09f3 0a0d fe0b 040c f4f0 160f 04f3 f1fa
00000090: f30d 23f1 0827 15ec e207 f81e 11f0 14f1
000000a0: 1904 ef0d f30e 0cea ee13 fa00 1ff9 30ed
000000b0: 3a42 d9ff 120c 00ef fb10 e1ed f2f5 0ef5
000000c0: 10f1 f703 11ef 0ffb f2f0 e709 1910 f1f9
000000d0: 2004 0ef2 0b3f da68 f2ee 07ea 3520 eeea
000000e0: ee0b f60d 03f4 27e7 2df7 35ea 35fb 0be8
000000f0: f9f4 eb19 13ed 1ae2 0bec edfd ea01 2aea

325_quantized i1 [256, 256, 1, 1]
9 14 -3 30 4 -13 16 12
-4 18 16 -3 5 -1 -30 17
-10 -13 -5 -17 13 8 -25 -27
49 -21 7 -18 19 -16 -11 -35
12 -1 4 -11 -7 21 14 -4
23 0 -3 -30 20 3 -20 14
24 0 -6 15 1 5 -10 3
19 14 18 8 -40 0 16 10
5 3 -17 -15 -5 12 -28 -18
3 49 1 14 45 -15 18 10
27 7 -31 20 17 22 -13 -8
-5 -4 6 -9 11 -4 17 -24
28 25 22 -1 14 9 -39 5
-9 -24 -25 24 -9 -29 43 -32
7 -33 6 29 17 -25 -12 -13
-23 -26 -29 -13 14 -9 16 18
-13 -17 15 1 2 -38 -20 -18
-6 4 -8 36 -11 -12 16 -11
27 14 21 3 -5 -14 -51 12
5 -2 21 -45 -15 -17 3 -1
-23 -12 10 -15 -14 -2 9 -29
6 -4 -30 9 25 22 0 -10
5 -29 13 -17 13 55 37 2
3 -10 -11 1 26 -13 17 -10
5 -23 8 2 -6 -11 -13 -4
2 -59 -9 3 13 13 -1 28
-34 -13 -14 -3 29 -24 -1 7
15 -4 10 -17 12 -12 9 1
2 7 -2 21 0 -18 -6 -27
-1 12 -19 -6 -11 7 7 -2
-3 -11 34 3 -24 -10 13 23
21 -13 7 -8 29 -8 38 3
00000000: 090e fd1e 04f3 100c fc12 10fd 05ff e211
00000010: f6f3 fbef 0d08 e7e5 31eb 07ee 13f0 f5dd
00000020: 0cff 04f5 f915 0efc 1700 fde2 1403 ec0e
00000030: 1800 fa0f 0105 f603 130e 1208 d800 100a
00000040: 0503 eff1 fb0c e4ee 0331 010e 2df1 120a
00000050: 1b07 e114 1116 f3f8 fbfc 06f7 0bfc 11e8
00000060: 1c19 16ff 0e09 d905 f7e8 e718 f7e3 2be0
00000070: 07df 061d 11e7 f4f3 e9e6 e3f3 0ef7 1012
00000080: f3ef 0f01 02da ecee fa04 f824 f5f4 10f5
00000090: 1b0e 1503 fbf2 cd0c 05fe 15d3 f1ef 03ff
000000a0: e9f4 0af1 f2fe 09e3 06fc e209 1916 00f6
000000b0: 05e3 0def 0d37 2502 03f6 f501 1af3 11f6
000000c0: 05e9 0802 faf5 f3fc 02c5 f703 0d0d ff1c
000000d0: def3 f2fd 1de8 ff07 0ffc 0aef 0cf4 0901
000000e0: 0207 fe15 00ee fae5 ff0c edfa f507 07fe
000000f0: fdf5 2203 e8f6 0d17 15f3 07f8 1df8 2603

328_quantized i1 [256, 1, 3, 3]
-13 -8 4 -20 -23 13 -34 -47
16 10 -37 -16 -21 -1 36 31
-34 -30 4 56 -26 -27 -25 -7
5 -8 20 55 -34 -17 12 -46
42 -47 -33 -10 45 -19 1 10
-35 3 23 -15 -25 -28 -61 18
29 -49 28 33 -13 27 -1 34
-27 22 -20 1 -40 14 18 -5
-27 -43 6 -62 17 35 -28 -23
-8 74 -47 8 -55 41 -7 -36
-38 -16 -52 19 78 -9 17 -42
26 -26 -11 -14 18 16 -2 14
20 -18 19 1 -9 -10 -4 49
-15 -11 -22 -13 15 -4 -13 -16
36 -29 -8 -2 22 -4 35 -31
-44 40 -11 2 -21 -20 50 -14
-13 -6 26 -50 33 19 -9 -2
16 6 -15 4 8 -11 -13 -8
-45 35 -51 110 -35 -11 7 -10
-22 -22 42 2 28 -18 -26 -23
34 42 -13 -4 24 0 -70 -76
22 32 44 9 -6 26 -27 4
-36 -20 14 76 7 -21 -31 -13
27 7 -3 25 -9 25 -15 7
27 -20 -34 -5 22 -16 -14 22
-14 -23 3 -27 -14 27 6 -6
-11 -9 4 41 -24 5 -18 11
3 18 25 14 -42 45 -27 -2
-26 -15 -4 11 1 -10 21 -18
-24 1 -28 2 -11 -6 -3 -14
3 9 -24 -13 -6 14 -25 -5
-14 -5 -23 53 -9 -12 -6 0
00000000: f3f8 04ec e90d ded1 100a dbf0 ebff 241f
00000010: dee2 0438 e6e5 e7f9 05f8 1437 deef 0cd2
00000020: 2ad1 dff6 2ded 010a dd03 17f1 e7e4 c312
00000030: 1dcf 1c21 f31b ff22 e516 ec01 d80e 12fb
00000040: e5d5 06c2 1123 e4e9 f84a d108 c929 f9dc
00000050: daf0 cc13 4ef7 11d6 1ae6 f5f2 1210 fe0e
00000060: 14ee 1301 f7f6 fc31 f1f5 eaf3 0ffc f3f0
00000070: 24e3 f8fe 16fc 23e1 d428 f502 ebec 32f2
00000080: f3fa 1ace 2113 f7fe 1006 f104 08f5 f3f8
00000090: d323 cd6e ddf5 07f6 eaea 2a02 1cee e6e9
000000a0: 222a f3fc 1800 bab4 1620 2c09 fa1a e504
000000b0: dcec 0e4c 07eb e1f3 1b07 fd19 f719 f107
000000c0: 1bec defb 16f0 f216 f2e9 03e5 f21b 06fa
000000d0: f5f7 0429 e805 ee0b 0312 190e d62d e5fe
000000e0: e6f1 fc0b 01f6 15ee e801 e402 f5fa fdf2
000000f0: 0309 e8f3 fa0e e7fb f2fb e935 f7f4 fa00

331_quantized i1 [512, 256, 1, 1]
-48 20 -33 1 37 -2 -16 -7
16 -33 -20 -16 -45 -14 -16 -65
-25 13 20 17 5 -37 -13 15
-5 -45 -6 35 4 -18 10 9
9 15 -10 4 4 -21 -10 -24
0 25 15 -11 16 2 39 14
-4 4 11 1 12 18 23 3
-29 -21 -28 15 -5 -26 -20 -43
37 22 -7 13 23 -34 -8 7
11 -10 -25 -26 5 11 52 -9
10 -8 -29 53 -2 8 -54 -50
17 -2 -5 50 -9 -22 21 30
-3 19 56 2 6 -27 34 -19
-17 -27 -53 3 19 -25 -6 20
-18 -4 -38 -32 -1 -2 4 -23
1 39 9 38 -36 -9 67 21
24 -23 26 25 -4 -4 -27 -57
-5 19 3 12 27 -1 11 38
-12 -30 11 -51 -5 -36 2 7
-8 -16 6 -13 -14 -5 -21 8
30 -3 11 -10 -9 -8 -18 13
5 -18 -32 23 -14 31 -12 -2
6 11 -11 5 -9 24 7 -41
-44 -27 0 -36 -27 -17 5 -32
0 29 -12 -2 -4 -14 -11 15
27 -26 -20 30 -33 -3 -25 20
-6 -12 -21 -14 -9 9 -9 -25
-1 9 -7 11 11 -18 -14 -10
24 -15 -25 -31 -25 41 -1 -18
18 -21 17 23 16 12 -8 -13
-18 -31 -38 -13 -25 -8 5 0
-1 -41 -15 30 -1 -6 8 5
00000000: d014 df01 25fe f0f9 10df ecf0 d3f2 f0bf
00000010: e70d 1411 05db f30f fbd3 fa23 04ee 0a09
00000020: 090f f604 04eb f6e8 0019 0ff5 1002 270e
00000030: fc04 0b01 0c12 1703 e3eb e40f fbe6 ecd5
00000040: 2516 f90d 17de f807 0bf6 e7e6 050b 34f7
00000050: 0af8 e335 fe08 cace 11fe fb32 f7ea 151e
00000060: fd13 3802 06e5 22ed efe5 cb03 13e7 fa14
00000070: eefc dae0 fffe 04e9 0127 0926 dcf7 4315
00000080: 18e9 1a19 fcfc e5c7 fb13 030c 1bff 0b26
00000090: f4e2 0bcd fbdc 0207 f8f0 06f3 f2fb eb08
000000a0: 1efd 0bf6 f7f8 ee0d 05ee e017 f21f f4fe
000000b0: 060b f505 f718 07d7 d4e5 00dc e5ef 05e0
000000c0: 001d f4fe fcf2 f50f 1be6 ec1e dffd e714
000000d0: faf4 ebf2 f709 f7e7 ff09 f90b 0bee f2f6
000000e0: 18f1 e7e1 e729 ffee 12eb 1117 100c f8f3
000000f0: eee1 daf3 e7f8 0500 ffd7 f11e fffa 0805

334_quantized i1 [512, 1, 3, 3]
-46 55 -21 -13 -9 -13 -19 -19
38 -13 8 -14 -28 -1 -3 -1
12 -6 -28 -43 -18 15 28 -33
18 -5 -31 2 17 49 27 -27
-2 14 42 -27 6 4 2 -26
-9 10 21 25 -33 36 64 11
-21 -18 -12 59 -11 2 0 35
-20 5 -29 -31 7 4 -30 15
-10 18 21 -18 -1 11 -15 12
-30 -24 18 9 -24 31 28 -3
4 11 10 -52 -53 -60 -57 -34
49 4 -48 25 -20 -42 -25 -25
-11 -25 29 1 1 -22 -32 -41
54 31 -29 -29 5 -35 0 46
-14 16 -8 -18 5 -1 62 -40
-45 -44 -43 61 -39 -31 5 35
14 -28 -38 12 -26 -1 23 -26
-5 -1 3 -13 -31 35 4 -10
-57 -59 16 23 2 -32 -8 10
-43 -16 -13 -10 32 52 45 2
-34 -3 -10 7 42 20 -32 -35
-17 21 55 -19 -29 16 -21 -41
-28 16 38 -33 10 -9 -28 -43
64 -5 -39 9 -24 8 -16 15
24 -28 53 -44 13 -22 -8 31
9 -43 -41 -23 0 -45 25 22
-2 -6 34 -1 61 29 10 -21
-9 48 -5 12 -31 2 13 -13
48 13 13 -32 -26 -23 39 61
-5 9 -21 28 45 16 -33 -40
3 48 16 -3 -6 31 -8 -30
-25 3 -30 -29 40 39 39 -3
00000000: d237 ebf3 f7f3 eded 26f3 08f2 e4ff fdff
00000010: 0cfa e4d5 ee0f 1cdf 12fb e102 1131 1be5
00000020: fe0e 2ae5 0604 02e6 f70a 1519 df24 400b
00000030: ebee f43b f502 0023 ec05 e3e1 0704 e20f
00000040: f612 15ee ff0b f10c e2e8 1209 e81f 1cfd
00000050: 040b 0acc cbc4 c7de 3104 d019 ecd6 e7e7
00000060: f5e7 1d01 01ea e0d7 361f e3e3 05dd 002e
00000070: f210 f8ee 05ff 3ed8 d3d4 d53d d9e1 0523
00000080: 0ee4 da0c e6ff 17e6 fbff 03f3 e123 04f6
00000090: c7c5 1017 02e0 f80a d5f0 f3f6 2034 2d02
000000a0: defd f607 2a14 e0dd ef15 37ed e310 ebd7
000000b0: e410 26df 0af7 e4d5 40fb d909 e808 f00f
000000c0: 18e4 35d4 0dea f81f 09d5 d7e9 00d3 1916
000000d0: fefa 22ff 3d1d 0aeb f730 fb0c e102 0df3
000000e0: 300d 0de0 e6e9 273d fb09 eb1c 2d10 dfd8
000000f0: 0330 10fd fa1f f8e2 e703 e2e3 2827 27fd

337_quantized i1 [512, 512, 1, 1]
2 4 -1 3 5 1 6 1
1 -6 3 5 1 -3 6 -6
-12 0 6 2 1 4 -2 4
-1 -6 -3 -9 -3 -7 -4 6
7 8 -3 4 -7 -6 5 2
0 -6 -1 12 -1 0 -9 1
6 13 -3 -2 1 3 10 -2
13 1 0 2 3 -9 -9 -8
6 -4 -12 0 4 15 10 3
-3 -2 3 9 -3 -16 6 -13
9 -3 1 -6 1 4 6 5
-2 3 -1 -9 2 -6 -11 6
-3 -1 0 17 4 -2 6 -9
-1 -7 1 -5 0 1 -12 2
4 2 0 4 -7 -12 -8 7
-3 3 -12 1 -1 3 -10 -7
2 -6 -5 -9 -3 3 5 -4
0 5 -5 1 1 1 4 -7
1 -13 5 4 -3 4 9 6
6 3 -6 -1 2 -14 6 1
-3 0 0 6 9 -4 4 15
3 3 4 -3 2 5 3 -4
-2 6 -10 -2 -4 0 6 9
3 -2 5 6 2 -5 -5 2
15 -6 5 9 21 1 5 -6
3 1 -5 -6 -5 -10 -18 -16
3 -2 -12 5 -5 -1 -3 8
4 2 -4 -11 1 0 -10 7
4 -4 -3 -1 -9 3 3 5
7 7 1 -15 9 1 5 -10
3 -2 5 4 -1 5 -2 4
-1 12 -7 -6 4 7 -2 -1
00000000: 0204 ff03 0501 0601 01fa 0305 01fd 06fa
00000010: f400 0602 0104 fe04 fffa fdf7 fdf9 fc06
00000020: 0708 fd04 f9fa 0502 00fa ff0c ff00 f701
00000030: 060d fdfe 0103 0afe 0d01 0002 03f7 f7f8
00000040: 06fc f400 040f 0a03 fdfe 0309 fdf0 06f3
00000050: 09fd 01fa 0104 0605 fe03 fff7 02fa f506
00000060: fdff 0011 04fe 06f7 fff9 01fb 0001 f402
00000070: 0402 0004 f9f4 f807 fd03 f401 ff03 f6f9
00000080: 02fa fbf7 fd03 05fc 0005 fb01 0101 04f9
00000090: 01f3 0504 fd04 0906 0603 faff 02f2 0601
000000a0: fd00 0006 09fc 040f 0303 04fd 0205 03fc
000000b0: fe06 f6fe fc00 0609 03fe 0506 02fb fb02
000000c0: 0ffa 0509 1501 05fa 0301 fbfa fbf6 eef0
000000d0: 03fe f405 fbff fd08 0402 fcf5 0100 f607
000000e0: 04fc fdff f703 0305 0707 01f1 0901 05f6
000000f0: 03fe 0504 ff05 fe04 ff0c f9fa 0407 feff

linear.weight_quantized i1 [10, 512]
-9 -88 5 -32 1 5 2 5
-1 10 8 11 13 -66 -31 -28
10 -10 7 13 -5 -20 -1 0
-18 -29 6 2 -1 3 8 10
13 7 -10 -38 9 6 -21 -14
7 0 3 7 -7 -22 5 -63
-50 8 8 0 -37 6 -34 8
-50 -5 -5 -53 -13 4 -10 12
5 -17 5 -2 -5 0 9 7
-11 -1 5 13 2 -2 -12 -16
8 4 -14 0 5 -31 -2 3
6 2 6 6 -11 11 -10 -24
-37 -26 8 -41 0 -58 7 -16
2 -57 -1 -16 -18 10 -8 0
-4 -7 3 6 6 5 -51 8
-19 -11 -8 -55 -3 10 5 -4
-3 -11 -7 5 7 -78 13 -8
11 -10 8 -15 10 15 -32 -29
-49 9 5 -49 -1 2 7 -1
-3 -14 -29 -2 7 9 -1 0
5 11 -53 -45 7 -3 -1 4
3 10 -5 4 10 -59 -10 -20
-57 0 -10 -56 -30 10 4 6
5 -14 10 13 -51 0 -4 -25
11 5 -4 -2 -33 -16 -57 3
12 13 1 2 -21 -1 4 7
-33 6 -31 1 -10 2 5 -5
0 -29 9 8 9 -14 3 4
4 -8 4 -10 7 7 11 -12
-7 -10 -72 3 -75 7 4 5
-5 -5 -11 7 -27 -13 10 -9
7 3 7 8 -21 -4 -16 -8
00000000: f7a8 05e0 0105 0205 ff0a 080b 0dbe e1e4
00000010: 0af6 070d fbec ff00 eee3 0602 ff03 080a
00000020: 0d07 f6da 0906 ebf2 0700 0307 f9ea 05c1
00000030: ce08 0800 db06 de08 cefb fbcb f304 f60c
00000040: 05ef 05fe fb00 0907 f5ff 050d 02fe f4f0
00000050: 0804 f200 05e1 fe03 0602 0606 f50b f6e8
00000060: dbe6 08d7 00c6 07f0 02c7 fff0 ee0a f800
00000070: fcf9 0306 0605 cd08 edf5 f8c9 fd0a 05fc
00000080: fdf5 f905 07b2 0df8 0bf6 08f1 0a0f e0e3
00000090: cf09 05cf ff02 07ff fdf2 e3fe 0709 ff00
000000a0: 050b cbd3 07fd ff04 030a fb04 0ac5 f6ec
000000b0: c700 f6c8 e20a 0406 05f2 0a0d cd00 fce7
000000c0: 0b05 fcfe dff0 c703 0c0d 0102 ebff 0407
000000d0: df06 e101 f602 05fb 00e3 0908 09f2 0304
000000e0: 04f8 04f6 0707 0bf4 f9f6 b803 b507 0405
000000f0: fbfb f507 e5f3 0af7 0703 0708 ebfc f0f8
