Project/Project_files/mobilenetv2_experiments/pruned_onnxs/mobilenetV2-14_l1_0.5_5_10_pruned_net.onnx (onnx, 67528 bytes, 37 tensors)

layers.0.conv4.weight f4 [8, 16, 1, 1]
00000000: baac 02be a15e 40be 2bf5 8fbd e20b 63be
00000010: 590a 2a3d 805e adbd ee63 65be 86be ecbe
00000020: 77f1 87be b3bd ddbd 094d 56bd e5f7 8f3d
00000030: 7d2d 14be 2280 303e d4dd 7bbe e58f 92bd
00000040: 6193 293d 98c4 42be c5bd e73d 54cf cf3d
00000050: 8e49 be3d 7299 7dbc bb3d a8bd eaac 99be
00000060: 3e18 9f3e f803 3abe e011 803d 8866 0dbf
00000070: 21c0 653d 8d91 82be b481 ae3c f2dc 5c3e
00000080: bb41 c7be 6489 84be 93bd 10be fdc0 ce3d
00000090: 185d 33be 5f0c b0bd 9ebe 17be ec3d 2a3e
000000a0: c252 953e 3a35 433e 0501 8a3d 1106 eb3d
000000b0: 0b86 9abe 5b50 1ebe 63da cb3d fb61 973e
000000c0: d295 61be 3706 783d 467d d3bd 4c19 1b3e
000000d0: 7de6 1e3e 9b9f 1abe 4c25 aabe c40c 343d
000000e0: cde1 e53c 095e f7be 4721 8a3e e6f5 a23d
000000f0: 80f7 58be afdb 043e 68a3 4f3e 84ea c1be
00000100: d4b7 9dbe 993f 33be ac0e f1be 8494 bf3d
00000110: 4a2c f53d c872 7a3e 8d5c 2b3e fac5 843e
00000120: 422d 183e 6ecc 0e3e 9e2d 3cbe 9ac9 b7be
00000130: 5cb3 f8be 92de 74be be14 843e f2f2 a3be
00000140: 27f4 173e b250 cfbe 6c6d e63d 1526 28be
00000150: 6e74 953c 3189 1ebe 36cb e03d 39d6 c4bd
00000160: 2139 09bf 236f 49be a6d3 c2bd c35a 873e
00000170: 8898 8f3e 3e2b 7e3e 5d84 893e 7c4f 7a3e
00000180: 6780 3abe 6397 9a3e c6c6 1ebe ca1c 17be
00000190: 9e4c 46be 9227 b63c f030 793e 9dc6 843b
000001a0: 83fd 99be dff2 a03e cf83 bcbd 6749 6f3e
000001b0: 1276 553e 2c8b 2a3e 6bc2 b43e b9fc 323f
000001c0: 00da a5bd b586 8cbc e4ba 39be 6195 013f
000001d0: 7791 15be 99de 263c c47c b7bb f22a edbe
000001e0: 0dca 863e 389a 10be 3083 abbc c793 d6bd
000001f0: 86ec debe 976a 9f3e 0e6d 6c3e 313b 023e
-0.12761202 -0.18786098 -0.07029184 -0.22172502 0.041513775 -0.0846529 -0.22401401 -0.46239108
-0.2655141 -0.10827198 -0.05231956 0.07029704 -0.14470477 0.17236379 -0.2459634 -0.07156352
0.041400317 -0.19020307 0.113154925 0.101469666 0.09291373 -0.015478479 -0.08214899 -0.30014735
0.31073183 -0.18165576 0.062534094 -0.55234575 0.05609143 -0.2550167 0.021302082 0.21568659
-0.38917336 -0.2588607 -0.14134817 0.10095403 -0.17515981 -0.085961096 -0.14818808 0.16625184
0.29164702 0.19063273 0.06738476 0.114757665 -0.30180392 -0.1546034 0.09953763 0.2956694
-0.22029808 0.060552802 -0.103266284 0.15146369 0.15517612 -0.15099947 -0.3323158 0.043957487
0.028061772 -0.4831393 0.26978514 0.07957058 -0.21188164 0.12974428 0.20277178 -0.37874234
-0.30804312 -0.1750473 -0.47081506 0.09354499 0.11971338 0.24457848 0.16734524 0.25932294
0.14861014 0.13945171 -0.18376777 -0.35895997 -0.4857434 -0.23913029 0.25797075 -0.3202129
0.1483923 -0.40491253 0.11251339 -0.16420777 0.018243995 -0.15482022 0.109762594 -0.09611172
-0.53602797 -0.19671302 -0.09513025 0.26436433 0.2804606 0.24821183 0.26858798 0.24444383
-0.18213044 0.30193624 -0.15505514 -0.14757076 -0.19365165 0.022235665 0.24335074 0.004051997
-0.30076227 0.31435296 -0.09204828 0.23367845 0.20845821 0.16654652 0.3530458 0.69916874
-0.08098221 -0.017154077 -0.181377 0.5061856 -0.14606272 0.010184907 -0.00559959 -0.46321827
0.26326028 -0.1412133 -0.020936579 -0.10477405 -0.43539828 0.3113601 0.23088476 0.12717892

layers.2.conv4.weight f4 [12, 12, 1, 1]
00000000: ba3c 723e c9ba 143e 0423 5cbe bc9f d0bd
00000010: 1549 243e ea90 14be a2b3 a7be d5e5 c9bd
00000020: 5ca8 02be 4dd9 563e 75dd 43bd 9206 aa3c
00000030: 63c9 17be caee ecbb ad59 143d b2d7 89be
00000040: 640a 15be b31f 1cbe 41dc 403c 25b7 483e
00000050: 9db1 943e dec6 713d 48db 06bd 61f4 203e
00000060: 0741 5ebe 4b62 77bd 9e5d 2dbd e43f a2be
00000070: 76a1 dc3e 3101 8c3e 72f4 e3bd 018c 0cbe
00000080: f570 9dbc 9bad 1fbe 05e7 173e 6b85 06bd
00000090: 829e 073e 361a fa3d 7c67 2b3c 45bc 9ebd
000000a0: 2f6c 8ebe 59e5 903d 4d6f cb3e f360 123e
000000b0: 34cd c2be a728 8e3e ab8b 4a3d be5b a33d
000000c0: 7d07 a0bc 0419 fcbd b333 dc3d 6d60 613e
000000d0: 8224 6fbe 5659 323e f35d cc3d 4df0 e93e
000000e0: 5dfb b1bd 72b5 423c be84 fb3d 3a89 0dbc
000000f0: 454c e7bd f60c 6c3e f7da c23e ce15 3c3e
00000100: 5e92 e33d 62b8 d53c 72d7 b7be 30d3 9ebc
00000110: 1a0c 28be a275 af3e 32e1 40be 77fc 2a3e
00000120: 3525 3b3e c09a 4abe 4420 d03d e488 90be
00000130: b143 36be 78ad 87be 8f13 603e f6b1 57ba
00000140: 3cb4 07be f6fe 483e b2b5 8ebe 01e9 a8bc
00000150: fe77 88bd 4cf3 1ebe 5d98 3cbe 2f94 e3bd
00000160: 232f 8c3d 670a 93be f824 bbbd 61fd 753d
00000170: 93db 653e c3c7 58be e1cf 4b3b 2e9f 7c3e
00000180: ad59 973e 79b1 3c3e 2089 48be 30f2 4bbd
00000190: 0b2d 61bc 14f3 b1bd e880 843d 92a0 65be
000001a0: ab11 d43d dcd6 7c3e fe8f 8a3d 22d1 6f3e
000001b0: 8e59 3e3d 61e4 2d3e cc5f 0e3e c3ed 8a3e
000001c0: 8fef a8be 9209 5fbe acc1 b8bc a282 3d3e
000001d0: df2a 463e 2d03 3fbd 5fb0 573e d37d 783d
000001e0: c818 b93d 2193 5abc a097 f1bd ddd5 3b3e
000001f0: b930 c23d 5955 07be 47ab 49be 8a1b 353e
00000200: fd9a 22bd 07fd 2dbe 9695 41be 76ba 5c3e
00000210: a4ca fc3c ca66 bdbd 8ea7 463e 9a08 7dbe
00000220: 0c7a d9bc c089 403d 68f1 0b3e 7f67 64bc
00000230: e27b 363d c0ea 8ebe af90 4ebe f85c 79be
0.23655978 0.14524378 -0.21497732 -0.10186717 0.16043504 -0.14508405 -0.32754236 -0.0985829
-0.12759537 0.20981331 -0.04781862 0.020755086 -0.14822917 -0.0072306143 0.036218334 -0.26922375
-0.14554745 -0.15246467 0.011771263 0.19601114 0.29041758 0.059027545 -0.032923967 0.15718223
-0.21704493 -0.060396474 -0.04232561 -0.3168937 0.43091935 0.2734466 -0.111306086 -0.13725282
-0.019218901 -0.15593569 0.1483422 -0.03284208 0.1324406 0.122120306 0.010461684 -0.07750753
-0.27816913 0.070749946 0.39733353 0.14294796 -0.38047183 0.2776539 0.049449604 0.07976483
-0.01953482 -0.12309459 0.10752048 0.2200944 -0.2335377 0.17416891 0.09978857 0.45691147
-0.08690522 0.01188408 0.12281178 -0.008638674 -0.11293844 0.23051819 0.38057682 0.18367693
0.11111902 0.026088897 -0.3590656 -0.019387811 -0.16410866 0.34269434 -0.18835905 0.1669787
0.18275912 -0.19785595 0.10162404 -0.2822944 -0.1779926 -0.26499534 0.21882461 -0.00082281174
-0.13252348 0.1962851 -0.27872998 -0.020618917 -0.06663512 -0.15522498 -0.18417497 -0.11112248
0.06844928 -0.28718874 -0.091379106 0.060056094 0.22447042 -0.21169953 0.0031099247 0.24670097
0.29560605 0.18427075 -0.19583559 -0.049791515 -0.013743649 -0.086889416 0.064698994 -0.22424534
0.103549324 0.24691337 0.067657456 0.23419622 0.046472125 0.16981651 0.13903731 0.27134523
-0.3299527 -0.21780995 -0.022553287 0.18506864 0.19352292 -0.046633888 0.21063374 0.06066687
0.0903793 -0.013340742 -0.11796498 0.18343301 0.09481949 -0.13216151 -0.19694243 0.17686287
-0.03969859 -0.16991054 -0.18904719 0.21555504 0.030858345 -0.09248121 0.19399855 -0.24710312
-0.026547454 0.04700637 0.13666308 -0.013940691 0.044551738 -0.27913475 -0.2017238 -0.24351871

layers.4.conv4.weight f4 [16, 16, 1, 1]
00000000: 68a3 173e 8708 76bd 7175 9e3c cfd0 d33d
00000010: 0b6b 37be faab c23a bc81 663e 1867 23be
00000020: 0569 763e e411 14bb f74d 66be ad11 8e3d
00000030: 6082 643e 66f2 68be d0ad a83d dac1 26be
00000040: 575a 5cbd 8594 f4bd 8a81 133e 8777 3e3d
00000050: cee8 27be 4b36 a2bd 8b6c 57be 325d 363e
00000060: 4ace 4fbe 6771 25be 96cd 76bd b7c1 713e
00000070: ee21 7a3e 9e4c d53d a203 9d3e 1543 83be
00000080: 1b2e 35bd 98bb 6c3d 2bdd 3b3e 1018 edbd
00000090: fcaf a2be d6fd 333e e322 903e 7a37 163e
000000a0: 2d2d 02be ad90 853d 62f2 93be a956 1abe
000000b0: fb67 96be 1521 d03c 1dd0 413c d3d6 4a3e
000000c0: 5c06 013d 7f46 e73b cdfd 983e 6dfd 3c3e
000000d0: 1c21 24be 521c 58be 1736 db3b e179 f4bd
000000e0: a9ed f63d 2b29 9dbb 840a 57be 9832 993e
000000f0: edee 9d3e df6c 80bd bc7c 7a3d 81ea 6dbe
00000100: c1d3 72bd 2b04 9bbe 0774 15be 7d7f 893c
00000110: 08b8 0a3e cc61 0cbe 0852 083d 631e a5bd
00000120: 09ed edbe bd97 6c3d a360 d7bd 78b0 1ebc
00000130: d122 22be de47 863d e2fa d73e 4a97 a33d
00000140: 1e8b 9d3c c04f 26be 7e6f a7bd e233 ba3d
00000150: 2399 573d 6caa 6dbe 83c6 f0bc 2ab6 e83d
00000160: 468f cebe 2cf7 143e fd53 8b3e 916f 95be
00000170: 0756 983d 7b47 ddbd d1b0 3bbe ae8c ed3d
00000180: 87c7 713d 96c2 953d 3102 0a3e a8b3 bdbe
00000190: 336a 393e ae65 a13e cd45 353e b372 9abd
000001a0: 931c 1a3e fbd9 e73d 7a92 383e 7fec ee3e
000001b0: 2d43 e53d 9645 0fbe 0344 bcbd be1d c43c
000001c0: b82f 6abe 8c2c 8abe 54e9 913d 275f e43e
000001d0: 54c2 28be 4596 9abe 04df b73d e31e 223e
000001e0: 31d7 f83c 377b 94be b5cc 80bd 2b89 9a3d
000001f0: 56ed 253e c63f 453e 9ae9 8a3d eabb 3d3d
00000200: 61f4 1d3e ecbf 0b3e dc51 aebd 64ce 4c3d
00000210: 43b2 06be e513 6b3e 200c 503e aa21 063f
00000220: f07b 85be f032 e5bd b8d0 033e c901 7dbe
00000230: dbfb 213e f03f 5cbe 8d7b cebd 4db6 083e
00000240: 2a62 9c3e 769f 45bd 79df 923c ac04 883e
00000250: 8361 953d 9b1c 2b3d e784 803e a047 833d
00000260: a8dc fe3c 1ab3 8cbe d020 bdbe 9a3b 753e
00000270: 99f7 66bc b4d9 23be ef54 643e a17d 28bb
00000280: f1b6 6dbd 6a02 b93e ebe4 6fbd 2c08 8d3e
00000290: 0f13 343c e835 debd 2f3a 493e 2a8b 9bbd
000002a0: 1752 fbbd c71a c3be 1ab6 2b3d f28b 133e
000002b0: 4cbb 1a3e 7b72 2d3d 8137 11be 8463 453c
000002c0: 5d5a 83be f1a9 1e3b 492d 353d 9a7f d9bb
000002d0: 399e 11be 8192 3ebd 6704 0dbe f2d2 e9bd
000002e0: 9b3b 023e db2c 13bc fb9e 1b3e 756b 743e
000002f0: d72c 0c3d 9082 0b3e 6958 333e f133 ab3d
00000300: 98b4 59be ae26 0cbd d72e f4bc 9526 333e
00000310: 3ca3 5ebe 252a 88bd fc4c c13e a6b5 813d
00000320: 3826 433e 7654 673e 92f9 6aba 28c4 59be
00000330: a3cc 2d3e 61b7 91bd 5713 4f3c 0477 febd
00000340: aabd 323e e8ef 93bc 5767 743d 4074 e23e
00000350: 482b 833e aaf5 ed3d c7e0 603e 8368 03be
00000360: 93f6 73be 285f 3a3d 84eb 35be d407 15be
00000370: b743 abbe 4591 543e 002b 3abe 652b 00bd
00000380: dcbf 5f3d 6d43 81bd 5237 cabd fc72 7f3e
00000390: 1c59 3d3e 8a9b 873e d08f cc3e 62d9 a2bc
000003a0: 3af6 033e 97d1 1d3e 8d9c 23be bb59 b1be
000003b0: 7920 0f3e b01c c4bd 3e0f f0bd 2239 0fbe
000003c0: 3929 80bd 4333 3a3e 1687 5d3e 237f 11be
000003d0: b2a2 48be de8f 483e e45e 25be b7f2 b73e
000003e0: 2908 6fbe afa6 2e3e 37ae 3dbc d4cc 1cbe
000003f0: 1c31 013c d254 5b3e f216 543e c151 aa3d
0.14808428 -0.060066726 0.01934311 0.103425615 -0.17911927 0.0014852278 0.22510427 -0.15957296
0.240635 -0.0022593671 -0.22490679 0.06936965 0.22315359 -0.22748718 0.08236277 -0.16284886
-0.053797092 -0.1194239 0.14404884 0.04650071 -0.16397402 -0.07920512 -0.210375 0.17808989
-0.20293537 -0.16156541 -0.060254656 0.23609053 0.24427006 0.10415004 0.30666834 -0.25637117
-0.044233423 0.05779609 0.18346088 -0.11576855 -0.3177489 0.175773 0.28151616 0.146696
-0.12712546 0.06521735 -0.2889586 -0.1507212 -0.29376206 0.0254064 0.011829403 0.19808511
0.031500205 0.0070579643 0.29881135 0.1845605 -0.16028255 -0.21104553 0.0066897976 -0.11937309
0.12057049 -0.0047961674 -0.21000105 0.29921412 0.30846348 -0.062707655 0.061154112 -0.23233987
-0.059283976 -0.30276617 -0.14595042 0.016784424 0.13546765 -0.13709182 0.033281356 -0.080624364
-0.46469906 0.057761896 -0.10516479 -0.009685628 -0.15833594 0.06556676 0.42183596 0.079878405
0.019231375 -0.1624136 -0.08175562 0.09091927 0.052636277 -0.23209542 -0.029391533 0.1136287
-0.40343684 0.14547414 0.27212515 -0.2918668 0.074382834 -0.108046494 -0.18329169 0.11599098
0.059028175 0.07312505 0.13477398 -0.3705113 0.18106918 0.31522888 0.17702408 -0.075414084
0.15049963 0.11320873 0.18024626 0.46664807 0.111944534 -0.13991389 -0.0919266 0.023939963
-0.22869766 -0.26987112 0.07124582 0.44603845 -0.1648038 -0.30192772 0.08978084 0.15832095
0.030376049 -0.29000255 -0.06289045 0.07545694 0.16203818 0.19262609 0.06782837 0.046321787
0.15425254 0.13647431 -0.08511707 0.050001517 -0.13153939 0.22956808 0.20317125 0.5239512
-0.2607112 -0.11191356 0.12872589 -0.24707712 0.15818731 -0.21508765 -0.10082159 0.13350792
0.30543643 -0.048247777 0.017928826 0.26566064 0.072939895 0.041775327 0.25101396 0.06410146
0.031111076 -0.27480394 -0.36939096 0.23948517 -0.014097118 -0.16001016 0.22298025 -0.0025709646
-0.058035795 0.36134654 -0.058567923 0.27545297 0.010990872 -0.108501256 0.19651102 -0.07594903
-0.12271517 -0.38106367 0.041921712 0.14408854 0.1511051 0.042345505 -0.1418133 0.012047652
-0.2565488 0.002421018 0.04423264 -0.0066375257 -0.14220513 -0.046526436 -0.1377121 -0.11417188
0.1271805 -0.008982862 0.15197365 0.23869117 0.03422245 0.13624024 0.17514195 0.083595164
-0.21260297 -0.034216575 -0.029807491 0.17495187 -0.21741956 -0.066486634 0.37754047 0.06333475
0.19057548 0.22590813 -0.00089635805 -0.21266234 0.16972594 -0.07115055 0.012638888 -0.12425044
0.17455164 -0.018058732 0.059668865 0.44229317 0.25618958 0.11619122 0.21960746 -0.12832837
-0.2382453 0.045500904 -0.17765623 -0.14553767 -0.334501 0.20758541 -0.18180466 -0.031291384
0.05462633 -0.063116886 -0.09873833 0.24946207 0.18491024 0.26485854 0.3995347 -0.019879047
0.12886897 0.15411983 -0.15977688 -0.3463877 0.13977231 -0.09575784 -0.11721657 -0.13986638
-0.062578626 0.18183617 0.21633562 -0.14208655 -0.19593313 0.19586131 -0.16149479 0.35927364
-0.23342957 0.17055772 -0.011577181 -0.1531251 0.007885244 0.21419075 0.20711878 0.083163746

linear.weight f4 [10, 256]
00000000: 9d80 f03d 3a54 b8bd 2089 eb3c ebe5 5a3d
00000010: ab26 1f3e 0c52 3bbe 6a70 64be b5de c53e
00000020: 321c 8abd d940 203b f472 013e e649 033f
00000030: 1ee7 403d ed02 d23d 67e4 a73e 4093 1c3f
00000040: 7181 3d3e b5e7 a9be 7279 863d 0eeb 82be
00000050: b4e2 a6be b9e3 30be 031c c1be 18fb 62be
00000060: 9960 053e 4ef0 a0be df12 27be 2bf7 a3be
00000070: a6c0 78bd 14ac 9f3d 7dc8 aabe bf9c 69be
00000080: a56e 343e c35e 5d3e 804f 64be 1af4 193e
00000090: 4383 983e bb0c 30bd 6bed 45be 2379 82bb
000000a0: f483 473e 15d8 6ebd fda8 babe 7411 083e
000000b0: 73e5 33bd 1743 e93e 9259 57bd 6851 723d
000000c0: d29b 3a3e 344b 51bd 4644 6cbe 7850 d4bd
000000d0: d402 8bbd 2c58 a2be 8a63 b7bd 1cb9 113e
000000e0: 4a75 e1bc 66fb 4ebb ee20 24bd 696f 2cbe
000000f0: 0705 673d 7537 ee3e e1f2 c33d cb8f 6d3e
00000100: 2650 e7be ed66 c43c 258b a13d b74a 10bd
00000110: 28a8 b8bb a5af cebd 395d 853e b6b7 19bd
00000120: 7df4 c7bd 9d7f aabd 4ba3 d9bd f86d 2a3e
00000130: 02e1 873e 16b7 4a3d 0cb7 17be 5440 2ebe
00000140: fdfe d93d 7337 eabd 28eb ae3e c886 c7bc
00000150: 32b4 0e3e 05ea a63c c74d b63e 903d aebe
00000160: 9937 8f3e e7bd ec3e 1747 983e f5ec af3e
00000170: 10e1 6a3d 9c9f 043e 95f0 213e 7e2d e03d
00000180: 2393 f1bd cd36 a33d 9baf 18be e9cd bdbe
00000190: 0f4c 033e a4e9 15be 2d7c b6bd 6013 1fbe
000001a0: 73fa 9ebe 0145 21be 161c debe f9fe 80be
000001b0: 205b cbbe 39d7 8dbe 4869 21be ecdd 7bbd
000001c0: a800 d33c fbcd 3bbe 1ffd 6bbe 5310 58bd
000001d0: dd2e af3e d870 a7bd 0b11 07bf e79a 1fbd
000001e0: 5041 1d3d 2c7f 60be 0a6f f0bc b66a 1cbc
000001f0: 46ee 82be 79d6 f8bd 6a27 103e 33d8 0abe
00000200: 310c 2fbe a039 d33e 89a2 febe 774c e13e
00000210: aa98 983e 2eb3 60bc d64d c03e b937 9ebd
00000220: a133 3f3e 4700 c13d 7055 98be 9232 ecbe
00000230: 24f7 493c 270f 12be e882 15bc 0997 00be
00000240: 7175 f2bd bde2 babd 74f3 353e dd9d b23d
00000250: 8c5a e9be 54e2 93be eeb1 eb3d 7686 c43e
00000260: ff54 61be a630 e9bd 7a26 303e 390f 243c
00000270: 5f36 9b3d 3651 4d3d 99c0 e43d a960 cebe
00000280: 0de1 02be f169 e83d 1c15 1dbe a0af 803d
00000290: c0cc cd3c 4467 b33d 47d8 e0bd 4cec 783e
000002a0: 3cdd 013e 6497 653e 541a 8e3e 25f4 47be
000002b0: 63c7 7fbe 6891 ae3d 4e88 fc3e df89 de3d
000002c0: 947a 653d 163c c23d 6f1b adbe 2207 fc3d
000002d0: 7af5 5dbe 9411 84be c3b3 97be 608e c3bd
000002e0: 8466 b9be a59d 8c3e 6f09 ddbd e0e9 c53d
000002f0: 9029 333e 95fd 973e bcd0 90be 5922 2ebe
00000300: 8fbe c6bd 7bf7 a53e 13af 78bd 098d d2be
00000310: 33f1 143d 3161 153e 65bb fbbd 660f 153f
00000320: aa01 a53e c5c5 863e 8b15 8a3d b02e 5b3e
00000330: def0 443e bf65 ad3d 7444 143e e77c 67be
00000340: b201 26be 90e9 f1bd 49f7 343d 2461 3fbe
00000350: c564 c1bd c750 833c 2ef4 8c3d 0230 a03e
00000360: f6d9 073d 885b 3b3e 0bf8 c1bd fc5c 4abd
00000370: 225b c23a 8d57 babd 5b8e 0a3d 0566 a8be
00000380: 5fdf a43e 16b2 ebbd e83b 5dbe 168c e23b
00000390: 041f be3d 398d 8f3e 8245 8a3d f604 853e
000003a0: 8058 513d 72eb 723e 1889 f93e 223e 9c3e
000003b0: ef81 ecbd aff3 ad3e 0b02 80bc 95ae 21be
000003c0: b00b 94bc c246 353e 20c0 923c cb64 50bd
000003d0: aaa4 0a3e ccf7 4ebe c3ff 163e e8e4 5dbd
000003e0: 1967 90be c08d 4dbd 4b93 af3b 14df 85bd
000003f0: ea56 69be ca2a 423e 592c aebd a4a0 82bd
0.11743281 -0.0900044 0.02875191 0.053441923 0.15542094 -0.18293017 -0.22308508 0.38646474
-0.06743659 0.0024452715 0.12641507 0.51284635 0.04709541 0.10254464 0.32791445 0.61162186
0.18506409 -0.3318459 0.065661326 -0.25569957 -0.32594836 -0.1727437 -0.37716684 -0.22166097
0.1302513 -0.31433338 -0.16315793 -0.32024512 -0.0607306 0.07796493 -0.33356085 -0.228137
0.17620333 0.2161818 -0.22295952 0.15034524 0.29787645 -0.04298089 -0.19328849 -0.003981726
0.1948393 -0.05831154 -0.36457053 0.13287908 -0.04391999 0.45558998 -0.052575655 0.059159666
0.18223503 -0.05109711 -0.23072919 -0.10366911 -0.06787649 -0.31707895 -0.089545324 0.1423077
-0.027521748 -0.003158295 -0.040070467 -0.16839375 0.05640128 0.46526685 0.0956781 0.23199384
-0.45178336 0.02397486 0.07887868 -0.035227504 -0.00563528 -0.10092095 0.26047686 -0.037528716
-0.09763429 -0.083251216 -0.10626849 0.16643512 0.26538855 0.04949101 -0.1481592 -0.17016727
0.10644338 -0.11436357 0.34163785 -0.02435626 0.13935927 0.020375261 0.35606214 -0.34031343
0.27972105 0.46238634 0.29741737 0.3436047 0.057343543 0.12951511 0.15814431 0.10946177
-0.11795642 0.07969437 -0.14910738 -0.3707116 0.12821983 -0.14639908 -0.089104034 -0.15534735
-0.31050453 -0.15748979 -0.43380803 -0.2519453 -0.3971796 -0.27703264 -0.15762818 -0.061490938
0.025757149 -0.18340294 -0.23045777 -0.052749943 0.3421544 -0.0817582 -0.5276038 -0.038966086
0.038392365 -0.21923512 -0.029349823 -0.009546926 -0.25572413 -0.121502824 0.14077535 -0.13559036
-0.17094494 0.41254902 -0.4973338 0.4400365 0.29803973 -0.013714595 0.37559384 -0.07725472
0.18672039 0.09423881 -0.29752684 -0.46132332 0.012326989 -0.14263593 -0.009125449 -0.12557615
-0.118388064 -0.09125278 0.17768651 0.08721516 -0.45576894 -0.28883612 0.11508547 0.38383836
-0.2200508 -0.11386232 0.17202178 0.010013395 0.0757873 0.050126277 0.111695476 -0.4030812
-0.12781163 0.11348332 -0.15340084 0.06283498 0.025122046 0.08759931 -0.10978752 0.2430889
0.1268205 0.22421032 0.27754462 -0.19526727 -0.24978404 0.08523828 0.49322742 0.108661406
0.056025103 0.09484117 -0.33809993 0.12306048 -0.21675673 -0.2579466 -0.29629335 -0.0954864
-0.36211026 0.27464023 -0.10792815 0.09663749 0.17496324 0.29685655 -0.28284252 -0.1700529
-0.09704315 0.32415375 -0.06071384 -0.41123226 0.036362838 0.14587857 -0.12291602 0.5822662
0.32227832 0.2632276 0.0674239 0.21404529 0.19232509 0.08466672 0.14479238 -0.2260624
-0.16211584 -0.11812127 0.044181142 -0.186894 -0.094430484 0.016029729 0.06882511 0.31286627
0.033166848 0.18296635 -0.094711386 -0.049405083 0.0014828185 -0.0909873 0.033827167 -0.32890335
0.3220167 -0.115085766 -0.21604884 0.006913672 0.092832595 0.28037432 0.06751539 0.25980347
0.05110979 0.23722628 0.48737407 0.30516154 -0.1154822 0.33974978 -0.015625974 -0.15789254
-0.01807198 0.17702773 0.017913878 -0.050877374 0.13539377 -0.20211715 0.14746003 -0.05417338
-0.28203657 -0.05018401 0.005358135 -0.065366894 -0.22787061 0.18961635 -0.085045524 -0.06378296

linear.bias f4 [10]
00000000: a766 f7bc d340 53be 625a 203e 7cca 703e
00000010: f154 4d3d 528b 64bd 9b62 03be 9984 3abd
00000020: 7485 59be d10b 013e
-0.030200316 -0.20630197 0.15659478 0.23514742 0.050129835 -0.05579693 -0.12830584 -0.04553661
-0.21242315 0.12602164

onnx::Conv_184 f4 [16, 3, 3, 3]
00000000: 50f6 00bd df3a 3cbe a57e d2bc c45d 8d3d
00000010: da64 3cbe e11e 80bb f60c 2cbd f149 5cbe
00000020: b634 b6bd 22f8 f83d bd0e af3d 1c24 47bc
00000030: 5cca 73bc 54ac 72bc c09b 1abe 5b3a b63d
00000040: 91c9 fabc dd0d 2fbe a6ba 6c3e 5309 793e
00000050: 5edb 5b3e 0a14 523e 580b 133e e9da 283d
00000060: 1a5b d1bc e149 0bbe 0d08 d1bd 1a06 f63b
00000070: 42ff 0d3c 87f7 51bc d314 ce3d 40a3 0c3e
00000080: 93bd f9bd 857b 343e 713d 9bbd b0c5 a33d
00000090: a0cb c4bc aa15 02be 68e7 19be 4420 8d3d
000000a0: acac 61be 4596 86be a539 b13d 26a0 50be
000000b0: c5ed ffbd 8a66 443d a906 acbc de7b 723d
000000c0: c7b7 c63d c9ae b6bd e0f8 883c 58d8 9c3d
000000d0: 6087 4fbe 2a0f 343c f4ab 113d 5dea d53d
000000e0: 0ce9 053d 2d6e a3be 9cd2 8dbd 3266 1f3e
000000f0: 74de adbe 4bcc e3bd 6a16 923e e791 903e
00000100: d4da b43c ff32 20be ed33 193d a58f 02bd
00000110: aa41 56bd d9f3 d4bd ed0a ecbd 9bbe 883d
00000120: e60c 3a3d b72a 893e 8193 353d 7ebc 633e
00000130: ec35 813e 9de5 b03d 5c98 4d3e 4bec ec3d
00000140: 15cd 9fbe a221 5bbe 31c5 c0be 753c d9be
00000150: c6b3 43be 20b4 6c3e dd7e 023b 9f04 9d3e
00000160: 34d6 ff3d 3c1c 003d f1e3 713d e8ed 3fbe
00000170: 3ff5 9b3d df1b 343d 1314 ef3e 26ce bf3e
00000180: d6b1 47be a4ce 073e 35f7 8f3e 63a7 ba3e
00000190: e69d a0be 52c7 91be 8e8d 133e 9ed3 133e
000001a0: 04d4 96bd ee91 aabe b4f7 24be cec6 db3d
000001b0: 3660 6abe 09b1 2bbe 7a5a aabe 90da 953e
000001c0: 16f5 bebd f67b c9be a288 ddbd c27b 543e
000001d0: 99d9 d1be b2e3 7ebe 0d99 3b3e 0dbd 033f
000001e0: c104 c43e 3adf 1a3f 9774 9d3e 42b5 3d3e
000001f0: 9d58 9e3e 92b1 3fbe 35ee 5ebe 0161 e93c
00000200: f0cd ea3d fb31 06be 753a 423e ded1 16be
00000210: 8f48 b2be f626 15bd 9c07 babe 7fe6 25be
00000220: 6b4d 41bc d120 3b3e 191f 0ebe f991 19be
00000230: 14e7 8cbe 0e51 f83d e7f2 eb3c 0bc8 ae3a
00000240: 833b a6bd d052 19be a1c8 e23d bdf9 bbbb
00000250: 1bcb 833e 1a38 983c 986d 3a3d 7d39 a63e
00000260: 5fa9 c73d 9952 32be 8d3f 25be 9658 0d3e
00000270: 3816 10be 5f4c a03e 35df 3fbe 9372 773e
00000280: e6fd 9d3e c218 30be 8f4f 953e cddf a1bd
00000290: 210c 903d cc79 0abf e8e7 2c3f bcfe ec3e
000002a0: 4eaf 643e d53d e2bd c584 1b3c 9857 8dbe
000002b0: a717 dcbd 9158 95be ee60 3fbf 6b3e 923c
000002c0: 5599 32be 6b1d fa3e df55 893e b354 90bd
000002d0: 03d4 f53e b2b6 56bd 1f67 b4be 7718 16bf
000002e0: dd1b bd3e 1510 c93e 507f 97bc 991e bebd
000002f0: e79a d83d 9402 61bd fe60 19be 5960 06bd
00000300: 8f9e 303e b6a7 893e 4c45 be3d 0938 bc3d
00000310: 4c5b 4dbe cde1 bd3c f429 0cbd 0d2a b93d
00000320: 5710 acbe 26a9 873e cd51 8e3e c13a 19be
00000330: e701 aa3d c0d8 60be dd58 6dbe e35e 5bbe
00000340: ad0e 87bd e225 2cbe d8c6 2b3e 26e6 c03e
00000350: 3722 2cbc 630f 413e 149c 9e3d 354d 83be
00000360: 2e8b b83e 920f b13e 8749 b2be d14c 1dbe
00000370: 8a03 9f3e 4251 d0be c316 a1be c569 48be
00000380: b5ca 9e3d 701a e23e 6fc5 b13e f043 a3be
00000390: 1673 9a3d 1f65 e53e 7843 0ebe 9180 a0bd
000003a0: 4e95 fb3d 8b68 62be 5e2e a4be c019 2cbe
000003b0: 5c71 dfbe 5282 57be 4ba9 033e 82f2 503c
000003c0: 70ac e73d 1761 863e 8248 cf3e d0d2 3dbe
000003d0: ef2d 493e 9203 9bbe 5705 1dbe 3716 0f3e
000003e0: f360 b63e ca31 753e 88ca d6bc b38c 173e
000003f0: 62fd 8cbe 9faf 323e fe9b e53d adf5 7dbd
-0.031484902 -0.18381833 -0.025695154 0.0690265 -0.18397847 -0.003909931 -0.042004548 -0.21512581
-0.088967726 0.121567026 0.08547733 -0.012154605 -0.014879789 -0.014811594 -0.15098476 0.08897849
-0.030613692 -0.17095132 0.23118076 0.24319963 0.214704 0.20515457 0.14359796 0.041224394
-0.025556136 -0.13602401 -0.10206614 0.0075080516 0.008666815 -0.012815363 0.10062566 0.1373415
-0.121943615 0.17625244 -0.075800784 0.0799669 -0.024022877 -0.12703577 -0.1502968 0.0689092
-0.22038525 -0.26286522 0.08653573 -0.20373592 -0.12496523 0.04794935 -0.02099927 0.05920016
0.097030215 -0.089200564 0.016720235 0.07658452 -0.20266485 0.0109899435 0.035564378 0.10445092
0.032692954 -0.31919995 -0.06924936 0.15566328 -0.3395878 -0.1112295 0.28532726 0.28236315
0.022077002 -0.15644453 0.037403036 -0.03187527 -0.052308716 -0.10398073 -0.115255214 0.0667698
0.045422457 0.267904 0.044330124 0.22239873 0.25236452 0.08637545 0.20077652 0.11568507
-0.31211153 -0.21399549 -0.37650445 -0.42428938 -0.19111547 0.23115587 0.0019912042 0.30667588
0.12492028 0.031276926 0.059055272 -0.18743098 0.07615136 0.043971892 0.46695003 0.37461966
-0.19501433 0.13262421 0.28118291 0.3645583 -0.31370467 -0.28472382 0.14409468 0.14436194
-0.073646575 -0.3331446 -0.16110116 0.10731278 -0.22888264 -0.16766752 -0.33272153 0.29268312
-0.0932409 -0.39352387 -0.10817076 0.20750335 -0.40986326 -0.24891546 0.18320103 0.51460344
0.38284877 0.60496867 0.30753013 0.18526176 0.30926982 -0.18720081 -0.21770556 0.028488638
0.11465061 -0.13105004 0.18967612 -0.14728495 -0.34820983 -0.03641411 -0.3633393 -0.16201209
-0.011798243 0.18274237 -0.1387905 -0.1499709 -0.2752005 0.12124835 0.028802348 0.0013334764
-0.0811682 -0.14972997 0.11073423 -0.005736558 0.25740895 0.018581439 0.045514673 0.32465735
0.09749102 -0.17414321 -0.16137524 0.13803324 -0.14070976 0.31308267 -0.1873749 0.241648
0.30857772 -0.17196944 0.2916226 -0.07904015 0.070335634 -0.540921 0.6754136 0.46288097
0.22332498 -0.1104695 0.009492104 -0.2760589 -0.10746699 -0.29169133 -0.7475728 0.017852029
-0.17441304 0.4885057 0.26823327 -0.07047405 0.48013315 -0.052420326 -0.35234925 -0.5863108
0.3693532 0.39270082 -0.018493325 -0.0928318 0.1057642 -0.0549341 -0.14978406 -0.032806728
0.17247985 0.26885766 0.09290561 0.09190375 -0.20054358 0.02317896 -0.034219697 0.09041224
-0.33606216 0.26496238 0.27796784 -0.14963819 0.08301144 -0.21957684 -0.2317843 -0.21422915
-0.06594596 -0.16811326 0.16775072 0.3767559 -0.010506204 0.18853526 0.07744613 -0.25644842
0.36043686 0.34582192 -0.34821722 -0.15361334 0.31057388 -0.40686995 -0.31462678 -0.19571598
0.07753507 0.44160795 0.34720942 -0.3188777 0.07541482 0.44803712 -0.13892925 -0.07837022
0.12284337 -0.22110192 -0.32066625 -0.16806698 -0.43641174 -0.21045807 0.12857549 0.012753131
0.11312187 0.2624595 0.40485007 -0.1853745 0.19646429 -0.3027616 -0.15334068 0.13973318
0.3562084 0.23944774 -0.026219621 0.14799766 -0.27537066 0.17449807 0.11211394 -0.062001873

onnx::Conv_185 f4 [16]
00000000: 82e5 ec3d 041b abbe c3d3 193e 346f bb3e
00000010: 80be 983e 6040 4dbc d264 bc3e c4a2 fd3e
00000020: 9eb0 333f 4072 243b 7d5f 7dbe e09b 52bd
00000030: 9b42 633e e025 86be 0129 2cbe e645 b93e
0.11567213 -0.3341905 0.15022187 0.3660828 0.2983284 -0.012527555 0.3679567 0.49538243
0.7019137 0.0025092512 -0.24743457 -0.051418185 0.22193377 -0.2620077 -0.16812517 0.3618614

onnx::Conv_187 f4 [16, 16, 1, 1]
00000000: 80f8 4e3e 9854 96bd 3032 febd 5f10 0c3e
00000010: 99d9 bf3e 997c cebe 7456 8dbe 256f 74be
00000020: a457 23be 78f6 c13e 3c88 37be 6178 253e
00000030: e682 d33e ba86 d13c 4a7c 963d 761c f73d
00000040: a0de 493e b613 243e 7d75 1b3e bdd6 53bd
00000050: 473b ae3e 7bcd 0c3f 1fe6 99be 80c8 d63d
00000060: 536e bebe 1b09 efbe 0c86 5ebe 765e 80bd
00000070: 7ce1 cc3e cd84 f1be 1427 1fbe 9c7c 5dbe
00000080: 2487 503f f120 6f3d 4a41 193f 8f93 cdbd
00000090: 0221 aebe 1e66 353e 0a08 b1bd acb5 973e
000000a0: fa69 ae3d 12c2 243f a31f cabe 4a37 c53e
000000b0: 4919 dc3e 2375 b33e 85c3 c1bd 5ac8 fabe
000000c0: 5c7b fa3d e604 033f fe0d 8f3d ee85 0abf
000000d0: 18cc 033f 9d82 b3be 1c49 e4bd 2eb0 f73e
000000e0: c298 4b3f 19b2 823e 7d42 93be b84d 0f3f
000000f0: 7bb6 37bd a4e7 353f 2f38 dabe b6e9 7fbe
00000100: 3610 bbbe 6ba5 8f3e b078 30bf b2e0 bd3e
00000110: 012a f23e e709 303e 4feb 573e ea1c 4a3e
00000120: f151 00bf 5616 503e 62ec 1abe 8530 acbc
00000130: 3a44 dcbe 65d7 83bd 2c34 c83d 0577 1b3e
00000140: d11c 4fbe 6a96 dfbd c7da 013d 1e1f 9bbe
00000150: 72ec b8be b027 2bbe 3e43 b7bd c9a0 0bbf
00000160: fef2 91be cd7f b73e 966e 02be 38be 9bbc
00000170: c4ba c7be 8cf0 c53d 55c2 3f3d d328 5c3c
00000180: db0c 133e c440 993e 6595 883d 4375 543d
00000190: 637f 153e a515 4fbd d84c 3f3d 13d8 1cbe
000001a0: 5768 f5be 8dfc e13d 7da4 c03c 1af3 f73e
000001b0: 21eb 08be 1696 9f3d 0f9f 5e3e ec04 9a3e
000001c0: da1d 54be 509f bdbd 798d 5ebe e5d9 59be
000001d0: a071 7dbe 1f0f e1bd 26ea d2bd dd25 d3be
000001e0: 6064 6abe 384e 05be 4b05 353e d1db 1fbd
000001f0: 2457 81be 0210 0b3e 0dd8 123d 4448 023e
00000200: 8cdf 96be 10a4 eebd 853d b03e d09f a9be
00000210: 6b05 b1be 297d cdbe b43f 01bf 9698 02bf
00000220: 1da9 dcbd 8e35 68bc 9332 abbb 9673 e73b
00000230: ec8e a63e 1d55 133f 9aff 1cbf 7379 3ebe
00000240: f45f 483c 725e ed3e 9ece 8abe 3f7d 513e
00000250: dc07 913e 25c9 a8be 91d4 163e 6784 503e
00000260: 6917 0d3e 567d e7bc 0889 ec3e 2610 023f
00000270: 92dc 8f3e c361 ccbe 2385 e33e c2d2 abbe
00000280: 322d 00bf e963 0fbe 4ed5 a3bd 9e3c 933e
00000290: 408e d6be 71e3 903d ae49 db3e 207d 2fbd
000002a0: abfa 253e 4490 2f3e e96e 8d3e 0f60 7d3e
000002b0: b5ea 8cbe 16a2 d23d 2532 853e 3f2d 003d
000002c0: f50d 0b3f 45e6 cd3e 268a 49bf 6a87 323d
000002d0: 6638 30bd 690a 813e 1bd0 123f 76b2 c0be
000002e0: c924 853e 85db b13e e6b6 4ebe 6212 143e
000002f0: b8a4 853e 08dd 723e 14a3 d13c 011f 5d3f
00000300: aa24 16bf 8d44 d1be e936 2abf df30 c43d
00000310: f492 3f3d f2da 8f3f 1d2c 8e3d 807f 09be
00000320: 5acb d83d 7a64 8bbe b2c1 53bf 6b10 b2bd
00000330: af38 283e 53f6 cebe 5ff3 19bf dfc5 08bd
00000340: 246d 20bf 257c a03e 2476 8d3e 1b98 0ebe
00000350: 673c dabe ca45 f6bd cea1 533f f395 2f3e
00000360: 44ef 343e 8701 333d ce84 4ebe 1793 eabe
00000370: 3122 18bf d879 b93e 6b1e 80be 3e06 f3be
00000380: d71c a6be 6f63 313f d21d 75be cc1d ac3e
00000390: 8d09 f3be 2ffa 0cbf f5cb 7f3d f925 aebe
000003a0: e838 293e d4fb 253d fafb 183f 83ec 083e
000003b0: 64ca ccbe 6181 0bbe 46a4 e33e eb44 003f
000003c0: f0ff 5c3d 49e6 96be 73c3 04bf 9199 343f
000003d0: 27a3 fb3e adc0 c13d 726c a2be 98ae f8be
000003e0: a6f3 813e 7b7e 343e 9238 04bf f254 2b3e
000003f0: afc4 efbe 4ac8 05bf 1ed6 053f 28f3 363e
0.20211983 -0.07340354 -0.12411916 0.1367812 0.374707 -0.40329435 -0.2760502 -0.23870523
-0.15951401 0.37883353 -0.17923063 0.16159202 0.41310805 0.025576938 0.07347925 0.12065975
0.19713831 0.16023144 0.15181537 -0.051718462 0.340296 0.5500104 -0.3005838 0.10487461
-0.37193546 -0.46686634 -0.21730822 -0.06268017 0.4001578 -0.4717163 -0.15542251 -0.21629566
0.8145621 0.058381025 0.5986525 -0.1003791 -0.34009558 0.17714736 -0.086441115 0.29630792
0.08516307 0.6435863 -0.39477262 0.38518745 0.4298804 0.35050306 -0.094611205 -0.4898098
0.1223056 0.5117935 0.06985091 -0.5411061 0.514833 -0.35060588 -0.11146757 0.48376602
0.79529965 0.25526503 -0.28761664 0.55977964 -0.04485176 0.7105658 -0.4262099 -0.24991497
-0.36535805 0.2805589 -0.68934155 0.3708549 0.4729767 0.17191277 0.21085857 0.19737592
-0.5012503 0.2032102 -0.15129235 -0.02101923 -0.43020803 -0.064375676 0.09775576 0.15182121
-0.20225836 -0.10917361 0.031702783 -0.30297178 -0.36117893 -0.16714358 -0.08948372 -0.54542214
-0.285057 0.35839692 -0.12737498 -0.019011602 -0.39009678 0.09665021 0.04681619 0.013437468
0.14360373 0.29932225 0.0666912 0.051869642 0.14599375 -0.05055775 0.046704143 -0.15316801
-0.47931167 0.11034498 0.023515934 0.4842766 -0.13370945 0.077922985 0.21740364 0.3008188
-0.20714512 -0.09258902 -0.21733655 -0.21274526 -0.24750376 -0.10989212 -0.102985665 -0.41239825
-0.22889853 -0.1301812 0.176778 -0.039027993 -0.25261796 0.13580325 0.035850573 0.1272288
-0.29467428 -0.11652386 0.34421936 -0.3312974 -0.34574446 -0.40134552 -0.5048783 -0.5101408
-0.10774443 -0.014172925 -0.005224535 0.0070633395 0.32530916 0.5755175 -0.6132752 -0.18601017
0.012229908 0.4636112 -0.2711076 0.20457934 0.2832631 -0.3296596 0.14729525 0.20363007
0.13778462 -0.028258007 0.46198297 0.5080589 0.2809797 -0.39918336 0.44437513 -0.33559233
-0.5006896 -0.14002956 -0.07999669 0.28757185 -0.41905403 0.07074631 0.4282965 -0.042843938
0.16208903 0.17144877 0.2762368 0.24743675 -0.27522817 0.10284822 0.2601482 0.03129315
0.5431817 0.40214744 -0.7872642 0.043586172 -0.043022536 0.25203255 0.57348794 -0.37636155
0.26004627 0.34737793 -0.20186958 0.14460137 0.26102233 0.23717129 0.025590457 0.86375433
-0.58649695 -0.40872613 -0.66490036 0.09579634 0.046771005 1.1238692 0.06942008 -0.13427544
0.10585661 -0.27225095 -0.8271743 -0.08694538 0.16427873 -0.40422305 -0.6013698 -0.03339183
-0.62666535 0.31344715 0.27629197 -0.13925211 -0.42624208 -0.1202503 0.8266877 0.17147045
0.17669398 0.04370263 -0.20167848 -0.45815346 -0.5942717 0.36225772 -0.25023207 -0.474657
-0.32443878 0.6929235 -0.23937157 0.33616483 -0.47468224 -0.5506925 0.062450368 -0.34013346
0.16525614 0.040523365 0.59759486 0.13371472 -0.39998162 -0.13623573 0.44461268 0.5010516
0.05395502 -0.2947257 -0.5186073 0.70546824 0.49147913 0.09460578 -0.31723362 -0.48570704
0.25381202 0.17626373 -0.5164882 0.16731623 -0.46829745 -0.5225874 0.5227984 0.17866194

onnx::Conv_188 f4 [16]
00000000: 38bd 113d 2373 b03e cc76 79bf 0c57 88bf
00000010: e558 173e 305c 893f 8034 35be faeb 9c3f
00000020: be3a 863f 2a11 1fbf 77f2 58be 075e a9bf
00000030: 66df 603f 1a80 0b3f 61da 5bbe fd80 273d
0.035580844 0.34462842 -0.97446895 -1.0651565 0.14780004 1.0731258 -0.17695808 1.2259514
1.0486677 -0.62135565 -0.21186243 -1.323182 0.8784088 0.5449234 -0.21470024 0.040894497

onnx::Conv_190 f4 [16, 1, 3, 3]
00000000: 2f3c ea3e 9280 893f 9dca 323f f4eb 63bf
00000010: db32 efbe 5528 e93d 83ae 4f3e 1d86 afbe
00000020: eccb 19bf b067 14bf 6b14 21be 69ba c83d
00000030: 0461 783f 3507 9d3f b522 14bf a610 8a3f
00000040: 2dc5 67bf 6321 5bbf fd7b a83d d622 a4bc
00000050: c587 84be b157 7fbe bf8d 3bbd ee1e c7be
00000060: 0c62 fdbe a474 d9bd 5231 3bbc ac51 c83e
00000070: 85b0 913f dd5a 2ebe 699d 14bf beaa babe
00000080: 35af c33e a1f6 0dbf 5e41 9e3e cd10 8cbf
00000090: fbd0 e1be 56f4 0bbf d713 08be b20e 4c3c
000000a0: f636 19bf aa47 a3be 20ff 993f 380f ad3d
000000b0: 93e3 1d3f 64a2 333f 350d 3fbe 0ae8 67bf
000000c0: 33b0 d93f 1058 e3bc 1302 c7be e523 df3e
000000d0: 6ce1 403f 5560 1bbe 4b9d 6cbd 17d4 c83d
000000e0: 995d 723f 3376 c13c f354 19bf d87a 983f
000000f0: 47c4 8dbd d0af 4abf 2a12 1ebf b52f f2be
00000100: 0cb4 0440 0f90 7e3f c371 d5be 86e1 c7be
00000110: dc49 b5bf 69c9 7a3f 572a 0d3f ada9 a73d
00000120: 2495 3dbe eec8 c83e 7da4 bcbf a7fb 553f
00000130: 3426 9b3f aad8 81bf 9d91 58bf 43cc 403f
00000140: 2966 513f 68a8 0a3f 33d3 883e a462 12bf
00000150: f0f3 95be c4ad 7f3e f65d a33e b175 a03e
00000160: 0a63 103f ef34 eebc 9dc7 06bf 536f 773f
00000170: 1706 7d3f da42 ec3e 6df6 2c3f 3f29 63bf
00000180: a14d 013f dfe1 8fbf 5360 34bd c6b2 443f
00000190: 9e83 77bd ef96 a5bb 9631 eebe d244 753f
000001a0: bc35 8c3e 134a 243f 6e07 d6be 1295 24bf
000001b0: aa79 52bf 17e7 61be 2b69 973f 95b9 a13f
000001c0: af3e 743f 4195 99bf 151c 31be 3aa3 b73e
000001d0: c05c 08bf 3e30 173f 3e0a eebe cabc f43e
000001e0: b359 593f 14c2 b03e 6b4c a8bf c74e f7bd
000001f0: 6fba debe 3ca7 503f 39e6 37be 301e 973f
00000200: 0df5 64bf 68c4 033f f101 3c3f 6179 6ebf
00000210: 2a3c 9a3e a441 6bbf 4d28 713e 59d7 503f
00000220: f356 1d3f ad30 133f e3dc 1b3f aaa1 c5be
00000230: 8763 48be 188b 583c a7bb 79bf 9aa0 98be
0.4574904 1.0742362 0.69840413 -0.8903191 -0.46718487 0.11384646 0.20281415 -0.34282008
-0.60076785 -0.57970715 -0.15730445 0.0980118 0.97023034 1.2267824 -0.5786546 1.0786331
-0.9053524 -0.8559782 0.08226774 -0.020036142 -0.25884834 -0.24935795 -0.045789476 -0.38890785
-0.49488866 -0.106179506 -0.011425333 0.3912481 1.1381994 -0.17026849 -0.5805269 -0.3645839
0.3821961 -0.5545445 0.30909246 -1.0942627 -0.44104752 -0.546697 -0.13288818 0.0124546755
-0.5984949 -0.31890613 1.2030983 0.08450168 0.61675376 0.70169663 -0.18657382 -0.9058844
1.7006897 -0.027751952 -0.3886877 0.43582073 0.75343966 -0.15173467 -0.057767194 0.09806078
0.9467407 0.023615932 -0.5989525 1.1912489 -0.069222026 -0.7917452 -0.61746466 -0.47302023
2.0734892 0.99438566 -0.41688356 -0.39039248 -1.4163165 0.9796358 0.5514273 0.0818666
-0.18513924 0.39215797 -1.4737698 0.83587116 1.2121034 -1.0144246 -0.8459719 0.7531168
0.8179651 0.5416322 0.26723632 -0.57181764 -0.29287672 0.2496863 0.31907624 0.3133979
0.5640112 -0.029077975 -0.52648336 0.9665424 0.9883742 0.46144754 0.67563516 -0.8873481
0.5050908 -1.1240805 -0.044037174 0.76835287 -0.060428254 -0.005053393 -0.46522206 0.95808136
0.27384746 0.6417553 -0.41802543 -0.64289963 -0.82216895 -0.2206081 1.182897 1.263476
0.9540815 -1.1998674 -0.17295869 0.3586672 -0.53266525 0.59057987 -0.4649219 0.47800285
0.84902495 0.3452307 -1.3148321 -0.120755725 -0.43501613 0.8150518 -0.17958917 1.1806087
-0.8943642 0.5147157 0.7344046 -0.9315396 0.30124027 -0.91897035 0.2355053 0.81578594
0.614608 0.5749615 0.6088392 -0.38599902 -0.19569217 0.013216756 -0.9755196 -0.2981003

onnx::Conv_191 f4 [16]
00000000: 5050 dbbd 7c2c 1cbd d931 563f 08eb 643d
00000010: 302d 893b f364 cfbe 2dd5 943d 9c1e 30bf
00000020: 51b1 a6be 4b63 11bf 6d40 8ebe ffac 96be
00000030: feec d8be 00d7 75be babf 123d 30eb d1bc
-0.10708678 -0.03812836 0.8366981 0.055888206 0.004186295 -0.40506706 0.072672226 -0.68796706
-0.32557157 -0.56792134 -0.27783528 -0.2942886 -0.4236831 -0.24007797 0.035827376 -0.025624841

onnx::Conv_193 f4 [8, 16, 1, 1]
00000000: 3bb6 f63c 1d85 00bf 4cac d7be 4423 af3e
00000010: a030 193f 403a d0be 3acb b0bd f59c 8fbe
00000020: dad1 753e bb0e c0be eecf cdbe 90b4 933e
00000030: 45f2 36be 145b acbe 63a1 ddbe 27f3 843e
00000040: 4744 563f 7acd fe3e 7e5c 353f c070 3a3f
00000050: a274 e1be a34e db3e 64d1 ca3d a294 bd3c
00000060: 6991 b7be a6ef febe b582 be3d 0f3f fa3c
00000070: 492f c9bd df91 663e cd72 d6bd ee87 cf3e
00000080: c47d 97be 299e 323f dbb3 a53e ca09 abbe
00000090: b311 1fbf 2733 f13e 448f 91be fe98 a9be
000000a0: 0d1d 24be dd72 643e 0d8a cfbd 809e 9f3e
000000b0: ea96 20bf 761d b83e 3f39 283f fa78 85be
000000c0: 09d5 353f d783 9b3e 9041 ba3c 4fe4 4c3e
000000d0: 5a04 ce3d 3e7e b6be d8a1 2f3e 1144 9dbe
000000e0: 6ca5 efbe dd47 b43e 8b7c 113f 6a4f c8be
000000f0: 70d4 64be bd81 adbc 464e 92bb 5bfd 2ebe
00000100: bca4 f7bd bf99 29be 5cbe 043e 2a2a 1e3e
00000110: 361a b33e 3ac3 693d c774 f1be 4768 173f
00000120: 2417 17bf 084a fcbe 2176 143f bd96 82be
00000130: 905b ea3e 9569 96be e93f 8f3b 53fd 1a3e
00000140: 3d4c f8be ac24 a63d d25e 9b3e 2cc5 3fbe
00000150: a113 bebd 9586 eabd 7424 03bf 5ead 153f
00000160: 5d31 e43d 4d89 dfbe 4a67 bc3e cd2e 3e3d
00000170: dbf1 f23d 4b29 47bf daf4 5a3e 5807 0cbf
00000180: e0ba a43e b776 703e 1477 59be 3e21 593e
00000190: 8e6d 9f3e b4b6 a9be e50d 18bf 7a00 c83d
000001a0: 573d 06bf ed30 a23e 64e1 8e3e 9eae b13e
000001b0: 4143 ac3e 4464 e23c fee2 1f3e 218e 403e
000001c0: 527d 1f3d dcdb f7be c6bf 2d3e 10fd ddbd
000001d0: c24c b23e 7951 953d ec8d 823e 6efa e03e
000001e0: f815 893b 389d 9f3e bd4c 20bf 85a3 103f
000001f0: 3711 8abe 629d 84be 3bd3 e4be 325a a03e
0.030116191 -0.50203115 -0.4212364 0.34206593 0.5983982 -0.4066944 -0.086325124 -0.28049436
0.24005833 -0.37511238 -0.401977 0.28848696 -0.17865856 -0.33663237 -0.4328719 0.2596676
0.8369793 0.4976614 0.70844257 0.7282829 -0.44034296 0.42833433 0.09903219 0.023142163
-0.35853127 -0.49792212 0.09302274 0.030547647 -0.09823472 0.22516583 -0.10471115 0.40533394
-0.2958814 0.69772583 0.3236378 -0.33405906 -0.6213638 0.4710934 -0.28429615 -0.33124536
-0.16026707 0.22309442 -0.10133753 0.31175613 -0.62730277 0.35959977 0.6571235 -0.2606886
0.7102819 0.30374023 0.02273634 0.20008968 0.10059424 -0.3564319 0.17151582 -0.30715993
-0.46805894 0.35211077 0.5683066 -0.39123088 -0.22346663 -0.021180028 -0.0044648973 -0.17088835
-0.120919675 -0.16562556 0.12963241 0.15445772 0.34980935 0.05707095 -0.47159407 0.5914349
-0.59019685 -0.4927523 0.5799275 -0.2550563 0.45772982 -0.29377428 0.0043716324 0.15135698
-0.48495665 0.08112463 0.3034578 -0.18727559 -0.09281088 -0.11451451 -0.512275 0.5846766
0.11142228 -0.4365944 0.36797553 0.04643135 0.118625365 -0.77797383 0.21382466 -0.54698706
0.32173824 0.23482786 -0.21236831 0.21204087 0.3113827 -0.33147204 -0.593962 0.09765716
-0.5243735 0.31677952 0.27906334 0.34703535 0.3364506 0.027635701 0.15613934 0.18804218
0.038937874 -0.48409927 0.16967687 -0.108392835 0.34824187 0.0729093 0.25498903 0.43941063
0.004183527 0.31174636 -0.62617093 0.5649951 -0.2696626 -0.25901324 -0.44692406 0.31318814

onnx::Conv_194 f4 [8]
00000000: c9e0 753f aaa5 7dbf a311 a8be 3750 9abd
00000010: 0625 4fbe faf8 023f 1ffc dcbe 9b2e 10be
0.9604612 -0.9908091 -0.32825956 -0.07534831 -0.20228967 0.5116116 -0.43161103 -0.14080279

onnx::Conv_196 f4 [48, 8, 1, 1]
00000000: fbd9 203e 4553 8d3e 0188 a1be e23e 8dba
00000010: 2bf5 ecbd a673 05be f120 6fbe 116c 86be
00000020: 33ff 113e 0051 5fbe a63d 43be 5446 c23d
00000030: 5d73 d53e d0dc 29bf f946 24be 5e63 113e
00000040: 0ff2 debd d122 49bd 34a2 a33e 52f1 e5bd
00000050: e3da 6a3e fde5 ff3c 320c 553e 63c9 6fbe
00000060: 8880 edbd abcb c23e c90d 36be 60b5 8bbe
00000070: fff1 63be 7e51 bcbe b7ff aebe c254 12be
00000080: 37c3 2cbe e008 c73e 25c9 13bd 4d57 353e
00000090: 1324 823e ad05 cfbc 7918 eabe e397 03be
000000a0: 98ee 803e 66ae 743e 29c2 50be 9521 1abe
000000b0: 90df f93c 8d6d a23e d987 e73d d7d6 f13d
000000c0: f937 523e a027 5d3e 85b3 5abe 30cf 533e
000000d0: fd58 9bbe 41f1 04bd 946d 073e 6edc ea3c
000000e0: 317e c13e 599b 523e f92e c4be ae44 9dbe
000000f0: 5325 24bd 763d 1a3e baf9 de3d 0f12 f43d
00000100: fdb9 aabe b370 3bbe e55a 33bc 3c45 7bbd
00000110: 3707 163e 77f0 873e 0a4d 30bd 6ef6 c1bd
00000120: dde6 85bd 5643 873e 6797 2e3e 97a9 59bd
00000130: f2d5 d0bd e53b 3c3e 8713 cfbc b075 073f
00000140: 2f5e 153e b789 67be 0700 d6bd 2f0e 213e
00000150: b659 523e 0225 aebd 1bb7 a9be 7f1f 40be
00000160: bb1b 593e da4d b4be 1d62 823e 0085 e1be
00000170: cd50 41bd 1695 743e c89d 90bd ad7a 8a3d
00000180: 8aa0 a33e 23f0 a3bd d2db 76be c88f 353f
00000190: 0c17 283e ea65 9f3e e356 1cbe a2ce bfbe
000001a0: 6374 67be 3079 a83e 421d c13e c269 6dbe
000001b0: 6de1 e83b 6936 05bf 6f1e a0be 0313 d33e
000001c0: 1d0f c3bd c1bc 33be 36ae 3b3e 101d 7bbe
000001d0: 24bc 0f3c f023 4f3e c174 033e e55d df3d
000001e0: b7b0 e03d a202 f13d 81c9 09be 7ecc 30bd
000001f0: 2d11 0b3e a9b7 05bd 465c 843d 6046 423e
00000200: 48b6 b0be c6ea 763e eb11 2bbc e8f6 6abe
00000210: d67f b8be b6fc d23d ce5b e3be 63b1 f7be
00000220: 8947 55be adb4 40bd d4fe 1a3e 4d1f fa3d
00000230: 4098 bebd a3d8 8f3e f334 753e 7623 1bbd
00000240: d215 0c3e dd8b 1d3d fd3c 02be 3e5d 793e
00000250: 0700 a03d 55fc 93be c110 abbc 82b1 653c
00000260: be8e 213e e9a0 54be a683 053e 69e1 8bbe
00000270: a2e1 31be e96f 04bf f3b0 a9be f4bc 2abf
00000280: 77b6 7abd 0112 51be ce1a cc3e a0e6 793d
00000290: 2c6e a63e 09e3 843e 5a7b 81bd 2eab 633e
000002a0: 16d7 9fbd b6a5 5a3e 680b e73c a99f 993e
000002b0: 4477 123e 6151 bdbe 6f84 babd 2de9 413d
000002c0: e543 57bd 2ae8 153e 89a2 adbd bc8a 073e
000002d0: 7318 973e c705 74bc 02b4 833e 1349 8b3e
000002e0: 5e18 16be 69fc c13e 307a 87be 356c c03d
000002f0: da56 4ebe 69a5 f13e c26b d43e de08 aabd
00000300: a51b 5ebc c15d bd3d 3307 d13e 62c6 e2be
00000310: 80e5 90be 2c1e a0be c7e4 c0be e67c 843d
00000320: 2450 293e 942a a03d 5056 4abe 0274 663e
00000330: 7b18 02be 56e8 dfbd 0968 79be a4ba 143d
00000340: 7216 503e 27f4 3b3e 13dd 24be 3a3f 7fbd
00000350: 3d50 07bd a361 00be 94b6 8c3e ab24 8f3e
00000360: 3f7c 08be ee2a 23be d7b8 01bf 39de f9bd
00000370: 8212 05be 5032 513e 7ac5 703e 62a4 263e
00000380: 0304 db3d 239d 65bd 7906 e03d 0f5d b8bd
00000390: 7dcd b13d 8af5 883e 43ea e93d b47e a03c
000003a0: 32fd 84bd ade7 303e 3e41 263f 0f7e c9bc
000003b0: 3ca1 a5bd 5616 3f3c 94b6 0f3f 5d95 f8bd
000003c0: f603 643e c38b 5cbe edf7 09be 308a 57be
000003d0: 6a0a 2c3e f298 a8bd 4b3d a33e f21b 063e
000003e0: 6914 313f 8a96 dfbc 0f6d ad3e 2a7a ab3e
000003f0: d534 84be de4d ad3d fb9a acbd 15c6 af3e
0.15708153 0.27602592 -0.31549075 -0.0010776187 -0.115701996 -0.13032398 -0.2335241 -0.26254323
0.14257507 -0.21808243 -0.19066486 0.0948607 0.41689578 -0.6635256 -0.16042699 0.14198062
-0.10886013 -0.04910547 0.3195969 -0.11227669 0.22935061 0.031237597 0.20805433 -0.23416667
-0.11596781 0.3804601 -0.17778696 -0.27286816 -0.22260283 -0.36780924 -0.3417947 -0.14290145
-0.16871344 0.3887396 -0.0360805 0.17709084 0.25418147 -0.025271261 -0.45721796 -0.12850909
0.25182033 0.23894653 -0.20386566 -0.15051873 0.03050211 0.31724206 0.11305208 0.118085556
0.20529164 0.21597147 -0.21357544 0.20684505 -0.3034133 -0.03245664 0.13225394 0.028669562
0.3779159 0.20567073 -0.38317087 -0.3071646 -0.040074658 0.15062508 0.10887475 0.11917507
-0.33345023 -0.1830471 -0.010946964 -0.061345324 0.1465119 0.26550648 -0.04304222 -0.09470831
-0.06538174 0.2641856 0.17049943 -0.05314025 -0.10197057 0.18382223 -0.025277866 0.5291395
0.1458671 -0.22611128 -0.10449224 0.15728067 0.20542035 -0.085031524 -0.3314751 -0.18762015
0.21201985 -0.35215646 0.2546548 -0.44046783 -0.0471962 0.23884997 -0.070613444 0.0676168
0.3195842 -0.08004787 -0.24107292 0.7092252 0.16415042 0.31132442 -0.1526752 -0.37462336
-0.22602992 0.3290496 0.37717634 -0.23184875 0.007106951 -0.5203615 -0.3127322 0.41225442
-0.09524367 -0.17552473 0.18328175 -0.24522805 0.008772884 0.20228553 0.12837507 0.10906581
0.10971206 0.1176808 -0.13455774 -0.04316377 0.13580771 -0.032645855 0.06462912 0.18972158
-0.3451407 0.24112996 -0.010441284 -0.2294575 -0.3603503 0.10302107 -0.4440598 -0.48377523
-0.2082807 -0.047047306 0.15136272 0.122130014 -0.09306383 0.28094968 0.2394598 -0.037875615
0.13680199 0.038463462 -0.12718578 0.24351975 0.07812505 -0.28903452 -0.020882012 0.014019372
0.15777108 -0.20764507 0.13038501 -0.27320412 -0.17371228 -0.5173326 -0.33142814 -0.6669457
-0.06120917 -0.20417024 0.398642 0.061010957 0.3250593 0.25954464 -0.063223556 0.22233269
-0.07804696 0.21352276 0.028203681 0.30004624 0.14303309 -0.3697615 -0.09107291 0.047341514
-0.052554984 0.14639345 -0.08478267 0.13236517 0.2951084 -0.014893956 0.25723273 0.2720419
-0.14657733 0.37887886 -0.2646041 0.09395639 -0.20150319 0.4719651 0.41488463 -0.083024725
-0.013556396 0.09246398 0.40825805 -0.4429198 -0.28300095 -0.3127302 -0.37674543 0.06469135
0.16534477 0.07820621 -0.19759488 0.22505191 -0.12704651 -0.109329864 -0.24356093 0.036310807
0.20321062 0.18354855 -0.16099958 -0.062316157 -0.033035506 -0.12537245 0.27483046 0.27957663
-0.13328646 -0.15934345 -0.5067267 -0.12200589 -0.12995341 0.20429349 0.23512831 0.16273645
0.106941245 -0.05605806 0.109387346 -0.090021245 0.08681772 0.2674983 0.11421635 0.019591667
-0.06493606 0.17275877 0.649433 -0.024596242 -0.08087394 0.01166304 0.5613797 -0.12137864
0.22267136 -0.2153769 -0.13473482 -0.21048808 0.16800848 -0.08232297 0.318827 0.13096598
0.6917177 -0.027293462 0.33872268 0.3349164 -0.25821558 0.084621176 -0.08427998 0.34330812

onnx::Conv_197 f4 [48]
00000000: 5165 5f3e b799 263f 4aa0 4dbd b848 013f
00000010: fbae 0c3f 3c41 913e fd2c 153e 9357 533e
00000020: 9a39 b13d 0013 36bb b8ce ba3e 9c26 93bd
00000030: e22a 593f 5673 b33e ba6c 80be 63e2 123f
00000040: e058 553d 2c65 a2be da39 113f d754 973e
00000050: 9828 1b3e 6baf ce3d 9a9b d83d 0ab5 a9be
00000060: b000 a63c 1e9d 183f 4268 c03d e993 79be
00000070: 5b5c af3e 28f7 cabe d069 53be 771a 2e3f
00000080: 16a4 5d3e 5097 f1be a050 493d d092 103f
00000090: 58e1 18be dd63 ab3d 3852 f7bd 4ccf 0bbf
000000a0: e61d 23bd f80c ab3e 4683 063f dce5 e8be
000000b0: 8c9d 89be 5702 df3d cd1f 9bbe fc66 883e
0.21815993 0.650783 -0.05020169 0.50501585 0.549545 0.28370082 0.14567943 0.20638876
0.08653565 -0.002778232 0.3648584 -0.071850985 0.8483106 0.35048932 -0.25082952 0.5737669
0.05208671 -0.31717813 0.567289 0.29556915 0.15152204 0.10092052 0.10576554 -0.33145934
0.020264 0.5961474 0.093948856 -0.2437283 0.3425015 -0.3964169 -0.20645833 0.6800913
0.21644625 -0.47185755 0.049149156 0.5647402 -0.14929712 0.08368657 -0.12076229 -0.54613185
-0.039823435 0.33408332 0.5254406 -0.4548787 -0.2687801 0.10889118 -0.302977 0.2664107
