Project/Project_files/ckpt/mobilenetV2-17-ckpt/mobilenetV2-17-ckpt_29.pt (torch, 99560 bytes, 53 tensors)

conv1.weight f4 [32, 3, 3, 3]
000000 10 d6 93 bd 56 31 72 be 21 06 71 bd 02 63 ef 3c
       -0.072185636 -0.23651633 -0.058843736 0.029222015
000010 1f 31 5f be 3f ad 4c 3e 76 09 13 be 7c e7 62 be
       -0.21796082 0.19987963 -0.14359078 -0.22158617
000020 71 88 21 bd ad 27 6e 3e ce 55 3d 3e 52 9b 5a bc
       -0.03943676 0.23257323 0.18489763 -0.013342695
000030 7c 2a 7d bd a6 e7 a4 3c f7 8a c2 bd 61 2e b0 3d
       -0.061808094 0.02012999 -0.09499162 0.08602596
000040 ec a7 b9 ba 44 8c 86 be c2 64 97 3e b4 39 3e 3e
       -0.0014164425 -0.2627889 0.2956906 0.185767
000050 2e eb 06 3e ef 9c 61 3e 37 ce 92 3d e9 a8 cb 3d
       0.13175651 0.22032522 0.071682386 0.099443264
000060 8f d9 86 bd 1c 22 6a be df 81 fe bd ce 1b 5e 3e
       -0.06584465 -0.22864574 -0.12427115 0.21690294
000070 62 a6 1a 3c da 0c 92 be 9b 4b 04 3e 89 eb 6c be
       0.009439083 -0.2852543 0.12919466 -0.23136725
000080 68 27 a5 ba e2 c3 da 3d ed 79 ea 3d d5 75 83 bd
       -0.0012600245 0.10681893 0.11449037 -0.06418959
000090 e1 1b 09 3e ea c1 92 3e 31 7f 95 be 9a a5 f5 bd
       0.13389541 0.2866357 -0.29198602 -0.119944766
0000a0 e8 b9 d5 bd 64 ee ad 3c 99 e4 b4 bd 9b 08 4d 3e
       -0.104358494 0.021231838 -0.08832664 0.20022814
0000b0 89 9b 16 be 04 d7 6e 3c 39 fc 0b bd 65 7d 01 be
       -0.1470777 0.014577631 -0.034176085 -0.1264549
0000c0 91 3b 9e bd 4e 9e 30 3d 18 31 ec 3d 3b 41 97 be
       -0.07726205 0.04311972 0.115328014 -0.29541954
0000d0 f4 b9 d1 bb 55 9d 0c bd 91 c7 d3 bd 2e 16 6a be
       -0.006400341 -0.03432973 -0.10340799 -0.22860023
0000e0 dd 0e bd bd a2 35 ec bb ec 21 87 3e 7a ef e1 bd
       -0.092313506 -0.007208542 0.26393068 -0.11032005
0000f0 86 9d 37 3e 0b e3 f8 bd 24 2c 8d 3d cb 11 22 3c
       0.17931184 -0.1215268 0.06893185 0.0098919375
000100 d1 48 a4 be 02 bb f1 bd 72 02 99 3d f3 7c 99 be
       -0.32086805 -0.11803247 0.074711695 -0.2997814
000110 79 a2 2d be 46 af 50 3e f9 bd 20 be ff f2 3d be
       -0.1695651 0.20379362 -0.15697469 -0.18549727
000120 97 90 d2 3d a6 50 18 be 91 54 e2 bd b2 c0 d8 3d
       0.102814846 -0.14874515 -0.11051286 0.10583629
000130 74 15 25 be 98 38 68 3d 90 1e 38 3e 6f 3f 13 be
       -0.16121465 0.056694597 0.17980409 -0.14379667
000140 f5 2a 54 3e c4 d8 a8 3e c3 85 00 bd 95 21 81 3d
       0.20719512 0.3297788 -0.031377565 0.063052334
000150 c9 52 99 3d a7 e6 6c bc 9b d4 d5 bc cd 11 eb bd
       0.07486493 -0.014459289 -0.026102355 -0.114780046
000160 75 29 59 be 14 15 8c be 75 23 04 be 4d 07 d3 bd
       -0.21207221 -0.2735983 -0.12904151 -0.10304127
000170 47 8b 7a 3d 17 4f ea bc 75 ea f8 3d 8c f4 4e 3e
       0.06116798 -0.028602166 0.12154094 0.20210475
000180 98 ae 23 3e 05 4f 49 3e 67 4f 40 be 1c d6 f5 3c
       0.15984571 0.1965905 -0.1878029 0.030009322
000190 a5 6e 2e be 26 d7 b7 bc 75 77 6b ba b3 5a 40 be
       -0.17034395 -0.022441458 -0.0008982339 -0.18784599
0001a0 ba d2 12 3e bf 8a 86 bd ef 63 e3 3d c2 ec f4 3b
       0.14338198 -0.065694325 0.11103045 0.007474513
0001b0 0b 89 9a 3d db 85 8d 3d ee dc 50 3d 94 ab 3f be
       0.0754567 0.069102965 0.050991945 -0.18717796
0001c0 6a 05 5c be 49 7b ac 3d 61 ea 53 be a1 0c 39 be
       -0.2148644 0.08421952 -0.20694877 -0.18071224
0001d0 28 13 88 3e 77 ae f1 3d c5 07 0f bc c4 63 b9 bd
       0.26577115 0.11800855 -0.00872988 -0.09052232
0001e0 10 9b 8f 3d 4f 34 3a bd 4f a2 ce 3c 3c 27 8b bb
       0.07011998 -0.04546004 0.02522388 -0.0042466205
0001f0 36 12 2d 3c 0f 3e 7b 3e b9 9b b5 bd 09 a2 e7 3d
       0.010563424 0.24535392 -0.08867592 0.11310203
000200 ed d1 e6 bd 0a 63 f1 3d 23 c1 f0 3d d2 8c ad 3c
       -0.11270509 0.11786468 0.11755588 0.021185312
000210 f6 9c 60 3e c3 7b 15 3e b5 cc a3 be 84 7c 84 be
       0.21934876 0.14597993 -0.31992117 -0.25876248
000220 98 af bd 3d b8 b2 6f bd 46 b0 8a be 74 56 33 3d
       0.092620075 -0.05852005 -0.2708761 0.04378362
000230 74 90 0b bd ad 7f c2 3d 59 bd 46 3d 68 cf 36 be
       -0.034073308 0.094970085 0.04852042 -0.17852557
000240 ba 9a 9b bd f3 11 fa 3d 07 24 68 3e e7 6c f3 3d
       -0.07597871 0.12210455 0.22669993 0.11886006
000250 13 c1 ae 3e 34 d5 7e 3e 84 fc 5d 3d 15 dd 1e 3e
       0.3413168 0.24886018 0.054195896 0.15514024
000260 78 34 83 bd b5 ff 30 bd 82 46 19 be 94 77 9c 3c
       -0.06406492 -0.04321261 -0.14968303 0.019099988
000270 e9 f5 ac bd fa 9f 80 3a c7 af 4c 3d 41 df ed 3c
       -0.08445341 0.0009813302 0.04997232 0.02903712
000280 97 99 1c bc 2a a8 56 bb d0 59 6c be eb ae ed bd
       -0.009558103 -0.0032754042 -0.23081136 -0.116056286
000290 d8 bd 3c 3d 2d 84 88 3d dc a0 4a bb ab 53 a2 3d
       0.046079487 0.066658355 -0.0030918634 0.07926115
0002a0 3e 27 67 3e 08 b0 7a bd ad 0b b7 bd be 9a 1e be
       0.22573563 -0.061203033 -0.08937774 -0.15488717
0002b0 22 d9 1f be b0 11 47 3e 26 a4 5d 3d ae c9 20 bd
       -0.15610173 0.19440341 0.054111622 -0.039254837
0002c0 34 e4 24 3e bc 90 54 3e 4f ff 64 3e 3d 81 3d 3e
       0.16102678 0.20758337 0.22363017 0.18506332
0002d0 25 1e 47 bb a9 c7 27 be da 65 25 be cb 9d 08 be
       -0.0030382958 -0.16384758 -0.16152135 -0.13341443
0002e0 58 39 83 be 86 e0 3a be 96 2c 49 bc 3e ef 68 bd
       -0.25629687 -0.18249711 -0.0122786965 -0.056868784
0002f0 e0 b0 05 be 2b 3b 34 be 9e a3 da bd e6 a6 29 3d
       -0.13055754 -0.17600696 -0.10675739 0.041418932
000300 df ff 24 be 56 cc 1f be 09 dc 64 be dc 70 32 3e
       -0.16113232 -0.15605292 -0.22349562 0.17425865
000310 0d 9f 7e 3b 5c c9 06 3e 37 c2 00 bd 95 12 3b be
       0.0038852126 0.1316275 -0.031435218 -0.18268807
000320 2f 6e 80 bc f8 4f 7a be 6e 69 0b be 55 7f 11 be
       -0.01567754 -0.24444568 -0.13614437 -0.1420873
000330 a8 42 49 3e 86 22 4f 3e 4c b5 6d 3e 67 54 66 bb
       0.19654334 0.20228013 0.2321369 -0.0035145523
000340 bd 0f 30 3e 8e 49 ad 3d 0f 0f 28 be ae 45 9f 3d
       0.17193504 0.08461295 -0.16411994 0.07776962
000350 e5 8e d3 bd 60 ec ff 3d f9 e3 4f 3e ca 6a 12 3e
       -0.10329989 0.12496257 0.20301808 0.1429855
000360 1a 24 7d bd 9c da 3e be 20 7a 5b be c9 20 5f be
       -0.061802007 -0.1863808 -0.21433306 -0.2178985
000370 b9 05 48 3e df c4 81 3d 88 61 44 3e da f5 e5 3c
       0.19533433 0.06336378 0.1917783 0.028071333
000380 aa d1 8b bc ae 23 1e 3e 68 64 9f bd b0 eb 94 3d
       -0.017067749 0.15443298 -0.07782823 0.07271516
000390 0e ac 73 3c ed 01 a4 3e 6c d7 59 3e 48 91 ab bd
       0.014872564 0.3203272 0.21273583 -0.083773196
0003a0 e3 6e 27 3e a2 ba 57 3e 34 37 23 3e 5a eb 50 be
       0.16350894 0.21067289 0.15939027 -0.2040228
0003b0 a4 f6 28 bd 21 77 65 3c 78 ff 27 bb fe 28 88 bd
       -0.04125084 0.014005453 -0.002563445 -0.06648444
0003c0 78 70 76 be 0f 5f e2 bd c4 20 0d 3e 53 a8 e8 bd
       -0.24066341 -0.11053287 0.1378203 -0.1136023
0003d0 06 a7 8b be f1 75 84 bd bc 25 44 3e 47 e1 82 be
       -0.27275866 -0.06467808 0.1915502 -0.25562498
0003e0 57 e2 14 3e 61 43 21 3e 53 b0 97 3d 7a 05 71 bd
       0.14539467 0.1574836 0.07406678 -0.058843113
0003f0 f0 41 94 bd ef 12 4b 3e 8c 5a 62 3e 66 af 52 3e
       -0.07239139 0.19831441 0.22104853 0.20574722

bn1.weight f4 [32]
000000 43 55 6f 3f 21 e8 52 3f 10 2e 53 3f 77 17 96 3f
       0.93489474 0.8238545 0.8249216 1.1725911
000010 ee 3e 89 3f 56 eb 51 3f 41 bc 68 3f b2 5a 89 3f
       1.072233 0.8199972 0.9091225 1.0730803
000020 8b eb 74 3f 46 27 6d 3f d7 3e 42 3f 78 3f 7b 3f
       0.9567191 0.9263805 0.75877136 0.9814372
000030 b9 1c 6d 3f 1d 11 7d 3f a7 f5 20 3f 05 78 58 3f
       0.9262195 0.9885424 0.62874836 0.84558135
000040 95 09 75 3f 08 55 78 3f 66 32 4f 3f 96 22 78 3f
       0.95717746 0.9700475 0.80936277 0.96927774
000050 7d 84 8b 3f 71 19 95 3f 6d e0 64 3f e6 fe 6b 3f
       1.0899807 1.1648389 0.89404947 0.9218582
000060 a0 d2 7d 3f 2b ec 58 3f 52 4f 6c 3f 77 43 65 3f
       0.99149513 0.84735364 0.92308533 0.8955607
000070 ad 7b 71 3f 34 6e 5e 3f f1 13 83 3f e0 a5 74 3f
       0.9432934 0.86886907 1.0240461 0.95565605

bn1.bias f4 [32]
000000 4d 89 f1 bc 18 b1 8d bd 4b 64 00 3c 88 21 13 be
       -0.029484415 -0.069185436 0.007836412 -0.1436826
000010 cd 14 9b 3d 92 e0 6a bd bb 64 05 3c ce 46 e8 3d
       0.07572327 -0.057343073 0.008141692 0.1134163
000020 1c 60 76 bd 59 f1 1a be 93 cb 2b bd 69 91 28 bd
       -0.06015025 -0.1513113 -0.04194219 -0.0411543
000030 23 49 25 3d 31 67 25 3d 31 d6 fd 3c 3f b7 b9 3d
       0.04035295 0.040381614 0.030985923 0.090681545
000040 66 52 11 bc 8c eb 57 3d 6a 50 c1 3c 02 ae 8f bc
       -0.008869743 0.05271487 0.023597915 -0.017539028
000050 26 1d 24 3e 51 7a 9a 3c a0 a5 13 bd 5b 11 45 bd
       0.16026744 0.018857153 -0.036046624 -0.048112255
000060 d6 db 17 3c 25 39 0d bd 19 2f 6e 3d bb 21 d1 bd
       0.009268722 -0.034478325 0.058150385 -0.10211512
000070 e8 f5 0f 3d c0 2e 3e bd 6d bd 48 bc 90 28 e6 bc
       0.035146624 -0.046431303 -0.012252194 -0.028095514

bn1.running_mean f4 [32]
000000 7c 2e ca 3c b9 db d8 3a 6d 00 9b 3b 64 2f 6a ba
       0.024680369 0.0016544975 0.0047302754 -0.00089334534
000010 b2 41 d2 3a e2 3f 82 bb 9d 6c 9e bc c1 86 95 39
       0.0016041307 -0.0039749006 -0.0193389 0.00028519894
000020 f2 23 0c bc 0a 51 52 3a 3b ad 45 ba 41 f6 17 3b
       -0.008553492 0.000802294 -0.0007540767 0.002318755
000030 5f fb 7c bb 2d a0 05 bc 83 1a 91 bb 9a b5 45 b9
       -0.0038601977 -0.008155865 -0.0044282093 -0.00018855036
000040 05 f3 e9 3a cd 0e 0b bc cd 43 84 ba e6 ea 88 3a
       0.0017848915 -0.0084874155 -0.0010091007 0.0010445982
000050 69 1f c3 3a 95 c7 01 bb 03 b7 4e bb ba c0 a7 bb
       0.001488668 -0.0019802798 -0.003154219 -0.0051194103
000060 14 4d 5f ba 87 8f 25 3c e2 73 c5 3c 3b 04 f5 3b
       -0.00085182604 0.01010502 0.024103109 0.007477311
000070 66 4e 57 bb e8 54 a7 bb 81 66 1e 3c 53 d3 3f bc
       -0.0032853126 -0.005106557 0.0096679935 -0.011708098

bn1.running_var f4 [32]
000000 e7 bf 3a 3f 95 21 e8 3e 48 5f e0 3f fa d6 a8 3d
       0.7294907 0.4533812 1.7529078 0.082441285
000010 2b e1 27 3e 30 a2 f0 3e 27 e5 5c 3f db 8a 2a 3f
       0.16394489 0.4699874 0.8628716 0.66618127
000020 ae 40 d7 3e 2a 49 61 3e 01 df 99 40 8b fa 3d 3e
       0.42041534 0.22000566 4.808472 0.18552606
000030 3d 0d 46 3f f7 96 9e 3e a1 86 03 3f b8 8c 49 3e
       0.7736395 0.30974552 0.513773 0.19682586
000040 fe 64 14 3f 71 3b f9 3e 6c 9e 6a 3e ff 2f 95 3d
       0.579666 0.48678163 0.22911996 0.07284545
000050 e3 c0 27 3f a6 6f 30 3e 7e 06 d0 3e ae b1 3f 3e
       0.65528697 0.1723009 0.40629953 0.18720123
000060 82 e8 f5 3e 26 29 3a 3f fa b3 08 3f f9 83 99 3e
       0.48028952 0.7271904 0.5339962 0.299835
000070 f0 5b 4d 3f a1 4d c8 3e 95 52 d3 3e 9b 8e d0 3e
       0.8021841 0.39121726 0.41273943 0.407338

layers.0.conv1.weight f4 [32, 32, 1, 1]
000000 1c 94 d4 bd e8 95 87 3e 0c 46 32 3e c6 62 7f 3e
       -0.10379812 0.26481557 0.17409533 0.24940023
000010 8f 8f 20 be 92 1b 34 be 2e cc fc bc 54 74 55 3e
       -0.15679763 -0.17588642 -0.03085908 0.20845157
000020 79 6a 36 be ee 3a 55 be c2 00 72 3d 50 66 9f 3c
       -0.17814054 -0.20823261 0.059082754 0.019457966
000030 81 35 28 bd 52 ac 1d 3d 20 76 9d bd 80 2f 47 3e
       -0.04106665 0.038494416 -0.07688546 0.19451714
000040 10 95 30 3e d0 a2 e2 3d 93 12 0d 3e 9a 26 e8 3c
       0.17244363 0.1106621 0.13776617 0.02833872
000050 19 f4 01 bd 71 b0 b2 3d eb 5b da 3b e6 74 8d be
       -0.03172693 0.0872506 0.0066637895 -0.2762825
000060 95 21 32 3e 29 c0 a3 3c d0 b5 42 bd da 6e f3 3c
       0.17395623 0.01998909 -0.04753667 0.029715944
000070 bb fc 17 3d 21 56 cf 3d 4d 1d 0b 3c d1 3a 2d 3e
       0.037106257 0.1012385 0.008490873 0.16916968
000080 dd 2e 71 3d a4 71 ed 3d f0 f3 90 bd b1 6c df bb
       0.058882583 0.11593941 -0.070777774 -0.006818377
000090 d3 9e 0a be 1e dc 30 bc 4d 83 27 3d 14 ae 02 bf
       -0.13537149 -0.0107946675 0.040896703 -0.5104687
0000a0 60 68 26 3b e7 a3 2e 3e 55 d1 cb bd 55 d5 1c 3e
       0.0025391802 0.17054711 -0.09952036 0.15315755
0000b0 a2 a4 bc 3d 1b a1 b1 be b4 02 7b 3d f8 3d 82 bd
       0.09211089 -0.34693226 0.061281875 -0.06359476
0000c0 fe f3 b0 bc 88 0b 22 be 03 b2 8f bd b0 72 fc bd
       -0.02160072 -0.15824711 -0.07016375 -0.123265624
0000d0 c4 27 00 bb 30 82 60 3c ed 2f b6 3d a6 4d f4 3d
       -0.0019554952 0.013702914 0.0889586 0.11928873
0000e0 46 c0 d4 3d 22 45 0e ba 55 30 a8 3d 98 ec be bc
       0.10388236 -0.0005427172 0.082123436 -0.023306176
0000f0 86 80 9b 3d cb 14 02 ba 45 9e 0f be d8 88 c4 3d
       0.07592873 -0.0004962205 -0.14025219 0.095964134
000100 36 8a fa bd e4 87 44 be ab f1 67 3c 08 99 0e bf
       -0.12233393 -0.19192463 0.014156739 -0.5570226
000110 0d e4 9c 3c c0 ad 68 3a 7c c4 81 bd f7 73 d9 3d
       0.019151712 0.00088759884 -0.063363045 0.10617822
000120 22 ad 53 be c7 7d a9 bd c5 9f 01 be 90 5d 9f 3c
       -0.20671514 -0.08275943 -0.12658603 0.019453794
000130 96 14 b9 3d 50 33 2a be 5c 95 1f be 54 37 1a bd
       0.090371296 -0.16621137 -0.1558432 -0.03765042
000140 23 8e 92 bd 84 b2 28 3e 05 fd 87 3c 45 8e 3e 3e
       -0.07156017 0.16474348 0.016600141 0.18608959
000150 7f b1 58 3c 23 37 69 bd 46 66 ee 39 fb fc 0d be
       0.013225912 -0.056937348 0.00045471097 -0.13866036
000160 85 50 bc 3d 00 ab ed 3d a5 8d 38 3e a5 9f 20 be
       0.091950454 0.11604881 0.18022783 -0.156859
000170 4a ec 00 be 1b 00 46 be d5 93 7d be 92 d4 ff 3d
       -0.12590137 -0.19335978 -0.24763425 0.124917164
000180 a8 13 f5 3d 99 b6 9e bc 56 65 a9 3d 4e 2e e7 bd
       0.1196664 -0.019374179 0.082712814 -0.11288129
000190 b5 14 33 3d 8b 36 23 3e 6b 9f 09 3d 81 ce cd 3e
       0.04372092 0.15938775 0.0335993 0.40196612
0001a0 8f 74 44 3e 07 31 3c 3e 40 1d 9b bd 52 7f fa 3d
       0.19185089 0.18378077 -0.07573938 0.12231316
0001b0 bc 82 89 3d da 80 0e 3e 5d 44 b1 bc a0 0e bb bd
       0.06714389 0.1391634 -0.021639043 -0.09133649
0001c0 e4 85 aa be fc 2a 06 be 63 5c 9d 3d 60 c7 32 bd
       -0.33305275 -0.13102335 0.07683637 -0.04364717
0001d0 8b 66 4b be 94 fb 5d be d3 4d 11 be 8d 0a c5 bd
       -0.19863336 -0.21678 -0.14189844 -0.09621153
0001e0 51 7d 7f be 6f c0 40 bc 9b db 3b 3d c4 e1 c9 bd
       -0.24950148 -0.01176463 0.04586373 -0.098575145
0001f0 5d 20 be bd c2 79 76 3b 54 55 ba 3d 21 89 54 bd
       -0.092835166 0.0037609194 0.09098306 -0.05188859
000200 14 22 f7 3d 65 f4 17 3e 66 ae 90 bc 8e b4 85 be
       0.12067047 0.14839323 -0.017661285 -0.26114315
000210 fe 17 ff 3d 9e 06 e6 bd 72 42 82 be a8 2b ec bd
       0.12455748 -0.11231731 -0.2544132 -0.11531764
000220 05 86 85 be 8b 62 22 3d 22 47 07 3e c4 27 64 be
       -0.2607881 0.03964476 0.13210729 -0.22280794
000230 5d c5 5c 3b 6b 44 44 be 3e 1b 39 be 06 32 99 3d
       0.0033686974 -0.19166724 -0.18076798 0.07480244
000240 aa 14 14 3d 40 60 58 bd 33 35 36 3e 33 32 5d be
       0.03615252 -0.052826166 0.17793731 -0.2160118
000250 9d e4 a5 bd 7f 64 5e 3d 46 8d db 3b 23 6c 1c 3e
       -0.08100245 0.05429506 0.0067001907 0.15275626
000260 84 ed 1f 3e ec 31 1c be a5 a5 10 3d 25 27 26 be
       0.15617949 -0.15253419 0.03531422 -0.1622587
000270 dd 2e e1 bd 31 5b 81 3c 26 34 a4 3d 38 6a 0c 3e
       -0.109952666 0.015790554 0.08017759 0.13712394
000280 8f e1 90 bd f7 6c 07 3e 54 9f c9 3d 9d a6 af be
       -0.07074272 0.1322516 0.098448426 -0.34306803
000290 f8 05 92 be be 53 4c 3c 6e ee 2e bd b9 8a 16 3e
       -0.2852018 0.012471138 -0.042707853 0.14701356
0002a0 4d 4c 9f 3c 10 02 4b 3e 93 cf 1b bc 1f 0e e7 bd
       0.019445563 0.19825006 -0.009509939 -0.1128199
0002b0 8f 13 1f be dd 1b 1d 3d 9d b1 38 be a6 1f 63 bc
       -0.15534805 0.03835665 -0.18036504 -0.013862526
0002c0 6f ba 73 bd d9 8b 9d 3d ae 75 ec 3d fe af d2 bd
       -0.05950397 0.076926894 0.11545883 -0.10287474
0002d0 fb f9 a7 bc 49 4a 4f be 28 ba 9e 3d df 98 dd bc
       -0.020504942 -0.20243181 0.0775035 -0.027050434
0002e0 2f db 2d bc 4d 95 bb 3d 9e ad 5d bd 08 36 f1 bb
       -0.0106113395 0.09159336 -0.054120652 -0.0073611774
0002f0 63 25 6a 3e 12 43 7d be ea 45 e1 bd 23 b1 cc bd
       0.22865824 -0.24732617 -0.10999663 -0.09994724
000300 2c fb 4e 3e c5 2b 13 3e 9d 51 02 3e 19 f8 1b 3e
       0.20213002 0.14372166 0.12726445 0.1523136
000310 5b 5c 33 bd a0 e1 79 bd 78 b5 33 bd ca 4a e6 3c
       -0.04378925 -0.06100619 -0.043874234 0.028111834
000320 52 18 98 be be d5 85 bd 89 46 d8 bc 46 7f 0b be
       -0.29706055 -0.06534909 -0.026400821 -0.1362277
000330 51 cc 5d be 36 52 d7 3d 65 b0 dd 3d 15 d5 d9 bd
       -0.21659972 0.10513727 0.1082466 -0.10636345
000340 a1 1a 29 3e 82 7f 97 3d de 95 89 3d 11 31 1f 3e
       0.16514064 0.07397367 0.06718038 0.15546061
000350 a9 8f 9a 3e a8 de cb bd 06 3b c6 3d 7e ed b6 bc
       0.3018773 -0.09954578 0.096792266 -0.022330042
000360 62 50 52 bc ad 9b 37 3e ab 07 5a 3e c2 86 13 3e
       -0.012836548 0.1793048 0.21291988 0.14406875
000370 3d 9b 3c 3e b4 9e 9d bd a7 eb 23 3e 8d 68 2c be
       0.18418594 -0.07696286 0.16007863 -0.16836758
000380 8a b0 27 3e b2 c4 5a be 63 ca 2e 3e 2d ac 1f be
       0.16375938 -0.21364096 0.17069392 -0.15593024
000390 b0 99 73 bd 76 4d 63 3c 56 e1 b5 3c 3f d7 71 3e
       -0.05947274 0.013873449 0.022202175 0.23617266
0003a0 71 de 86 be 5e a9 9c 3d ec a4 48 be f7 c8 0e 3e
       -0.26341584 0.07649492 -0.19594163 0.1394385
0003b0 f3 22 71 3d fd ed 43 3d 14 42 27 3d ca 4c 52 bc
       0.05887122 0.047834385 0.0408345 -0.012835691
0003c0 60 7a 8c 3d 1c 1b 1d be 00 f1 c4 3c 56 ac 1a be
       0.06859279 -0.15342373 0.024040699 -0.15104803
0003d0 b9 78 64 3e a4 a5 6a 3c 1e 58 83 be 0d 84 bc 3d
       0.22311677 0.014321718 -0.25653166 0.09204874
0003e0 4b 78 14 3d 2e 0f b6 3d 36 58 a6 3e 4d 21 23 be
       0.036247533 0.08889614 0.32489175 -0.15930672
0003f0 8b 13 cf 3d 65 6a 45 3e 12 84 9d 3e 3a 3a 16 3e
       0.101111494 0.19278868 0.30764824 0.14670649

layers.0.bn1.weight f4 [32]
000000 3a 52 8f 3f d4 48 82 3f 7b 5a 1e 3f d6 04 52 3f
       1.1196969 1.0178475 0.6185681 0.8203863
000010 3a 22 63 3f ce 2f 8e 3f f3 98 72 3f d8 1a 60 3f
       0.887241 1.1108339 0.9476463 0.8754096
000020 11 00 3b 3f a7 9b fb 3e 1a f2 6d 3f 50 87 58 3f
       0.73046976 0.4914219 0.9294754 0.8458147
000030 07 5f 5d 3f 1a 6c 5f 3f e5 68 7a 3f 10 83 95 3f
       0.86473125 0.87274325 0.97816306 1.1680622
000040 77 29 80 3f ca 7b 8a 3f 1a 84 75 3f d6 31 61 3f
       1.0012654 1.0819027 0.95904696 0.8796667
000050 f1 59 7f 3f 99 55 77 3f 68 0f ad 3f b4 09 63 3f
       0.99746615 0.96614987 1.3520327 0.8868668
000060 08 81 0f 3f 4f 3e 25 3f e5 30 6e 3f 9b 56 61 3f
       0.5605626 0.645482 0.9304336 0.88022774
000070 e9 30 20 3f 97 7a 91 3f 74 74 2d 3f 97 d1 65 3f
       0.6257463 1.1365536 0.6775582 0.89772934

layers.0.bn1.bias f4 [32]
000000 cc 99 34 3d 24 80 bd 3d 28 57 bb 3e 24 d6 41 3e
       0.044091985 0.092529565 0.36589932 0.18929344
000010 71 8e 75 3e 9b ed 44 3e c4 39 d7 3d e4 d7 1c 3e
       0.23980118 0.19231264 0.10509065 0.1531673
000020 f6 66 7d 3e b4 76 c4 3e 2f 90 eb 3d b9 80 58 3e
       0.24746308 0.38371813 0.1150211 0.21142854
000030 4b 38 3d 3e 7e 69 30 3e 55 f5 41 3c 84 b7 96 3b
       0.18478505 0.17227742 0.011838277 0.0045995135
000040 db a9 ba 3d f2 39 37 3d 92 bd 04 be c1 bd 22 3e
       0.091144286 0.044732995 -0.1296294 0.15892698
000050 41 a1 c7 bd e7 96 96 bd 0f 28 c1 bd 94 d0 01 3e
       -0.097475536 -0.07353001 -0.09431469 0.12677222
000060 35 b9 c8 3e 3f fa 9a 3e 4e 47 19 3e e1 91 11 3e
       0.39203802 0.30269048 0.14968607 0.14215805
000070 de 91 97 3e 33 5b 08 3b 4d 90 9a 3e a6 f6 0f 3e
       0.29603475 0.0020806312 0.30188218 0.14058933

layers.0.bn1.running_mean f4 [32]
000000 fc 5a ea 3c 0d 90 ff bd a1 8c 2e 3e ba 20 ae bb
       0.028607838 -0.124786474 0.17045833 -0.00531396
000010 7b 64 07 3d 1c af 8b 3c 32 eb 18 3d 72 e7 f8 3d
       0.03305481 0.017051272 0.037333675 0.1215352
000020 80 f1 d9 3d 08 eb 1b bd f7 12 02 3d c8 97 98 3b
       0.106417656 -0.03806594 0.031756368 0.0046567656
000030 55 90 45 3d d6 49 15 be 56 cb 89 bb ff 29 8e bd
       0.04823335 -0.14578947 -0.0042051477 -0.06941604
000040 2d 8c e6 bd 1b 85 0f be 3d 89 d2 bd ce df dd bc
       -0.11257205 -0.1401562 -0.102800824 -0.027084257
000050 24 9e b1 3c b4 05 4d bd c1 9d 11 3d dc 24 03 3e
       0.021681853 -0.050054267 0.035550836 0.1280703
000060 a1 07 48 be 14 92 0d bd ec dd 5d 3d 60 7f 12 bd
       -0.1953416 -0.03456314 0.05416672 -0.035766006
000070 81 15 da 3d 48 f9 67 3d f7 08 14 3d a9 a0 be bd
       0.10648633 0.056634218 0.036141362 -0.09307987

layers.0.bn1.running_var f4 [32]
000000 86 27 e5 3f 13 8d a2 3f 3c fa 75 3f 6c 50 cd 3f
       1.7902687 1.2699302 0.9608495 1.6040168
000010 54 f0 98 3f 17 ae 47 3f 42 89 a7 3f c9 af a4 3f
       1.1948342 0.78000015 1.3088763 1.2866145
000020 45 d9 b9 3f ce 35 8c 3f 86 51 dd 3f da 55 e8 3f
       1.451943 1.095392 1.7290504 1.81512
000030 46 7d 0e 40 84 19 1c 40 f5 50 a6 3f 05 0d dd 3f
       2.226396 2.4390574 1.2993456 1.7269598
000040 ea 02 1c 40 da b1 de 3f 4d fc 8e 3f 57 8f be 3f
       2.4376779 1.7398026 1.1170746 1.4887494
000050 33 98 03 40 61 35 70 40 99 05 02 40 db 24 0c 40
       2.0561645 3.753258 2.0315917 2.1897495
000060 10 8e 27 3f 56 22 b5 3f 4e 30 ad 3f 46 de 82 3f
       0.65451145 1.4151103 1.3530366 1.0224082
000070 89 45 12 40 18 2a a3 3f 14 c6 9d 3f e5 8a be 3f
       2.285494 1.2747221 1.2326074 1.4886137

layers.0.conv2.weight f4 [32, 1, 3, 3]
000000 3a 2e 6b be 3f 92 c5 bd e4 3f 81 3e f8 65 87 3e
       -0.22966853 -0.09647035 0.25244057 0.26444983
000010 c4 4d 9a 3e 3b 4d ed 3e ca c2 0d be 1e ed 63 be
       0.30137455 0.46347985 -0.13843837 -0.22258422
000020 dc d2 e3 3c 30 9d de 3d 4f 1b d7 3e c5 7d 97 3e
       0.027810507 0.10869825 0.42013022 0.29588142
000030 94 ee a6 be 69 7f 5d be a0 19 2f be 16 1d b4 bd
       -0.32603896 -0.21630634 -0.17099619 -0.0879461
000040 ae 8a fb bd 23 5e 4a be a5 b9 da 3d 98 f4 c4 bd
       -0.122823104 -0.19762473 0.1067994 -0.09616965
000050 a3 2d 3d 3e be 83 93 be 90 5b b6 3e 79 fe cb be
       0.1847444 -0.2881145 0.35616732 -0.39842585
000060 1e 7c 87 bd ba 56 2e 3e 26 79 6d bd 57 ca 66 be
       -0.0661547 0.17025271 -0.057976864 -0.22538124
000070 0c 8b c7 bd 16 70 9b bd 8d cb 59 3e c7 42 a2 3e
       -0.09743318 -0.07589738 0.21269055 0.31691572
000080 17 b8 93 be 45 9e 99 3e 6b 98 32 be 32 97 77 be
       -0.28851387 0.30003563 -0.17440955 -0.2417877
000090 d7 7a 8a 3e 91 1e 95 3e 8b b2 74 be cb cc 95 3c
       0.27046844 0.29124883 -0.23896234 0.01828613
0000a0 19 f4 78 be db 14 bd bd 27 d9 83 3e cb ca 9c be
       -0.24311866 -0.092324935 0.25751612 -0.3062347
0000b0 68 01 16 be 6e 4f 31 bd 47 9e aa be 43 cf 8c be
       -0.14648974 -0.04328864 -0.3332388 -0.27501878
0000c0 a5 6d 28 be ba ca 76 bc a3 5b 3c bc 76 13 d7 3e
       -0.16448076 -0.015062982 -0.011496457 0.42007035
0000d0 e7 0a ee 3c 44 63 9c 3e 7e d2 ae bd 34 09 0f be
       0.029057933 0.30544484 -0.08536242 -0.13968354
0000e0 8c ac 78 be 0c 9f 24 3e 1e 3b df bd 1f 8e c3 be
       -0.24284571 0.16076297 -0.108999476 -0.38194367
0000f0 2e b3 83 be 75 c9 3a 3d e4 dc d8 bd ca f6 19 be
       -0.2572264 0.04560228 -0.105890065 -0.15035549
000100 11 f0 9e 3e aa 08 0c 3e c8 a3 54 3a 87 69 8c 3e
       0.3104253 0.1367518 0.00081115635 0.2742426
000110 3e 2c a5 be 48 d7 2e 3e 05 eb ed 3c c2 93 be be
       -0.32260317 0.17074311 0.02904273 -0.37222105
000120 e6 73 5f 3d 77 7e 0a 3e 3e bb 00 3e e1 7f e7 3e
       0.05455389 0.13524805 0.12571427 0.4521475
000130 4f 6c 30 be 73 cb 15 be 1d 4c dd bc 78 9e a2 3c
       -0.17228816 -0.14628391 -0.027013833 0.019850954
000140 a6 e6 c1 be 7c 21 bf 3a ce 40 42 3e 76 71 57 be
       -0.37871283 0.0014582123 0.18970034 -0.21039376
000150 0a 0c a5 bd 4f 2d 51 3e 19 5f ac be 2e e3 52 be
       -0.08058937 0.2042744 -0.33666304 -0.20594475
000160 1d ff e7 3d c4 f9 9a be e3 53 89 be 5d 43 42 3e
       0.11327956 -0.3026868 -0.26821813 0.1897101
000170 f3 a5 75 3e 8a ea 8d be e9 af 08 bd ec f3 8d 3e
       0.23989086 -0.27718002 -0.033370886 0.2772516
000180 d4 69 e7 bc 94 69 3f 3e 35 5a 61 be d3 c6 0a be
       -0.028248705 0.18692619 -0.22007068 -0.13552408
000190 2d 48 06 3e db e7 87 3c 5b 19 99 be b5 ca 11 be
       0.1311347 0.01659005 -0.29902157 -0.14237483
0001a0 57 f7 ec 3d ba e0 fe 3d 50 13 ba 3e 88 6b 04 bd
       0.11570614 0.12445207 0.3634286 -0.032329112
0001b0 7b 7d 0d be 45 8f 7d be 48 d7 a0 3e 1b 42 35 be
       -0.13817398 -0.24761684 0.31414247 -0.17700998
0001c0 6a 7c 7c be 5d 05 99 be 60 5d dd be 2e fe 41 3e
       -0.24656835 -0.29886904 -0.43235302 0.18944618
0001d0 c7 22 fd 3c a7 16 80 bd 5d 4d 99 3e a1 07 41 be
       0.030900372 -0.062543206 0.29941836 -0.18850566
0001e0 b3 7d 23 bd 64 0c 23 3c b2 c2 94 be f6 0e 87 3c
       -0.039914798 0.009951685 -0.2905479 0.016486626
0001f0 25 47 74 be 4a 79 a7 3d a3 de df 3d e7 d7 e2 3e
       -0.23855264 0.08177431 0.109311365 0.44305345
000200 f6 3f 4a 3d 5f 8d 99 be 00 f5 05 be d0 7e 70 3e
       0.049377404 -0.2999067 -0.13081741 0.23485875
000210 60 0b 23 be e9 f0 a7 3d d5 3a 92 be 38 39 2a be
       -0.15922308 0.08200247 -0.2856051 -0.1662339
000220 ee 85 19 be a4 87 0e be f9 77 8b 3c 4e e0 f2 bd
       -0.14992496 -0.1391893 0.01702498 -0.11859189
000230 cf d1 2f be fb c2 cd 3e bf 20 47 3d ed 56 42 3e
       -0.1716988 0.4018782 0.048615213 0.18978472
000240 a1 4c 5b 3e 6c a8 8a be 3f 90 ab be 07 14 07 3e
       0.2141595 -0.2708162 -0.3350849 0.13191234
000250 d0 73 b3 3c 06 34 73 bd df 30 ec 3d f6 24 59 3e
       0.02190581 -0.059375785 0.11532759 0.21205506
000260 da 28 77 3c 65 74 d8 bd 80 78 68 3d 7c b8 b5 3e
       0.015085423 -0.105690755 0.056755543 0.35492313
000270 b4 18 4b bd d0 f2 03 be 51 c5 75 3e fb 19 a1 3d
       -0.049584106 -0.12885594 0.24001051 0.078662835
000280 06 ef 50 be 09 b5 9d be 8f 8a 86 bd a5 d1 11 be
       -0.2040368 -0.3080218 -0.06569397 -0.1424013
000290 1e f1 34 3e 3b 1a 98 be 3b 78 16 be 8a a7 9e be
       0.17670104 -0.29707512 -0.14694302 -0.30987197
0002a0 d7 5b ed 3d 4c cf d0 3c b4 11 88 bd 6a 28 12 bd
       0.11589783 0.025489472 -0.066440016 -0.035683073
0002b0 ed a1 b9 be dd 46 0d bf b4 f4 b9 bd f3 b6 69 be
       -0.36256352 -0.55186254 -0.090798765 -0.22823696
0002c0 f5 cd 87 3d 61 78 55 3e 88 9b 70 3a 46 da f8 3c
       0.0663108 0.20846702 0.00091784494 0.030377518
0002d0 54 7a ce bd 87 70 e0 3e cb ee b1 3e 91 2c 92 3d
       -0.10081926 0.43835852 0.34752497 0.071374066
0002e0 c5 0e 61 bc 4d 8d 61 be c5 d4 2d 3e fc 80 78 3c
       -0.0137364315 -0.22026558 0.16975696 0.015167471
0002f0 ab 6b 5d bd 82 d8 30 3c 55 c7 b3 3d 96 0f ab be
       -0.05405776 0.010793807 0.08778254 -0.3341033
000300 eb d0 1b 3e 12 04 2b 3e 4f 89 3d be 6f b5 93 be
       0.15216415 0.16700771 -0.1850941 -0.2884936
000310 81 9d 48 3d e8 28 ef 3d a6 ff 9e 3c b7 30 10 3e
       0.048978332 0.11677724 0.019409012 0.14081083
000320 4a 82 b3 3d 14 80 56 bd 8e 3c 57 3e bf f7 dc 3e
       0.08765085 -0.05236824 0.21019194 0.43157765
000330 a0 59 9d bd 96 64 a9 3e 29 a8 03 3e 42 08 a2 be
       -0.0768311 0.33084553 0.12857117 -0.31646925
000340 ce 3f 8c 3e 7a b9 3b 3e 89 1a 2c 3e e1 89 89 3e
       0.2739243 0.18332472 0.16806997 0.26863006
000350 0c f6 9f be 3c df d8 3e 59 60 2c be 7e 5f 1c be
       -0.31242406 0.42357814 -0.16833629 -0.15270802
000360 8c 50 d4 3c e9 c1 b3 be 0e 95 cc 3d 4f e6 7f be
       0.025917314 -0.3510888 0.099893674 -0.249902
000370 c5 74 bc 3e 68 91 14 3c 7f be 82 3e 44 b8 0a be
       0.36807838 0.009067871 0.25535962 -0.13546854
000380 43 e7 c8 bd 89 be ff bd 95 9a ca 3c a9 01 12 3e
       -0.09809735 -0.124875136 0.024731914 0.14258446
000390 b2 27 7b 3e f3 7b 42 3e e1 3d 9c be 86 f1 19 be
       0.24526861 0.18992595 -0.3051596 -0.1503354
0003a0 03 63 f7 3e a8 ed 70 bc b8 a0 e2 bd e2 70 6d be
       0.48317727 -0.014705099 -0.11065811 -0.23187593
0003b0 9e ff f1 3d 69 d7 73 be e8 03 47 3e ff 3d 84 be
       0.11816333 -0.23812641 0.19435084 -0.2582855
0003c0 d0 de 02 bf 36 8d 15 bd e7 2b 40 3e 3d 3c 54 3e
       -0.51121235 -0.036511622 0.18766747 0.20726104
0003d0 50 b4 85 bc 42 48 59 3e 86 61 45 3e f5 33 65 3e
       -0.016321331 0.2121897 0.19275483 0.22383101
0003e0 1e c3 d7 be 5b 57 d8 bd 49 cb 56 be 21 8e 3d 3e
       -0.4214105 -0.10563537 -0.20975985 0.18511249
0003f0 93 bb d4 3d 76 ca 0c be 18 70 61 3e 17 fc 39 3e
       0.103873394 -0.13749108 0.22015417 0.18162571

layers.0.bn2.weight f4 [32]
000000 01 d4 76 3f 8a e4 8a 3f a7 fb 89 3f 05 fe 77 3f
       0.9641724 1.0850995 1.0779923 0.9687198
000010 4e 14 92 3f 5d 82 85 3f 60 d5 72 3f e7 08 70 3f
       1.1412446 1.0430409 0.94856834 0.93763584
000020 c0 c8 82 3f c0 ab 80 3f 92 55 89 3f c5 f1 a4 3f
       1.0217514 1.0052414 1.0729239 1.2886282
000030 13 b9 67 3f 14 41 86 3f 26 e7 7c 3f 2a c8 60 3f
       0.90516776 1.048861 0.98790205 0.87805426
000040 c8 99 8b 3f 02 c5 89 3f 11 fc 6f 3f ce ed 8c 3f
       1.0906305 1.0763247 0.93744 1.1010072
000050 8e 2c 69 3f 64 03 6f 3f 3b 1d 91 3f a2 16 84 3f
       0.9108361 0.9336455 1.1337045 1.0319407
000060 16 b0 9a 3f 1f e2 81 3f 5b ec 8a 3f 0c 9e 5e 3f
       1.2084987 1.0147132 1.085338 0.8695991
000070 f1 99 4b 3f c6 33 87 3f fc fe 8e 3f 3e e4 7f 3f
       0.7953177 1.0562675 1.1171565 0.99957645

layers.0.bn2.bias f4 [32]
000000 86 d5 95 3d ae 9e e6 bd c3 ab 1e 3e 87 d6 33 3d
       0.07316117 -0.112607345 0.1549521 0.04390576
000010 b9 cc 4a be dd cb 0b 3e 4e e3 ae bd 5b 6f f5 3d
       -0.19804658 0.13651986 -0.08539449 0.1198413
000020 85 6c 69 3d be d5 e0 3e 37 80 b7 3c e7 64 2a 3e
       0.056988258 0.43913072 0.022400005 0.16640054
000030 19 a6 db bd b5 dc 51 3e a5 4a 88 bc 7e b7 1d 3d
       -0.1072504 0.2049435 -0.016637156 0.03850507
000040 18 0b ff 3c fa d0 6c 3d d2 53 72 3d af b8 41 3e
       0.03113322 0.057816483 0.05916197 0.18918107
000050 8c 66 80 bd 6a 3f eb 3d 76 94 6f 3d d1 5e bf bd
       -0.06269559 0.11486705 0.058491193 -0.09344257
000060 86 d5 67 3e 69 94 35 3e 07 cd 95 3d 83 d1 43 3e
       0.22640046 0.17732395 0.073144965 0.19122891
000070 6a 2f 58 3e e5 36 6d bd 8e f2 ce 3b a4 4e 9e 3d
       0.21111837 -0.05791368 0.006315536 0.07729843

layers.0.bn2.running_mean f4 [32]
000000 34 72 96 3e 6f 4c 15 be a0 cc ed bc f6 0f ca bd
       0.29384005 -0.14579938 -0.029028237 -0.098663256
000010 39 74 ab bd 13 dd 1a bd c5 b4 da be 94 3b 55 3d
       -0.08371777 -0.03780849 -0.4271604 0.05205877
000020 84 f1 b0 3c 4b 71 78 be dc c7 ab 3c 07 8c 6d 3d
       0.021599539 -0.24261968 0.020969324 0.05799487
000030 6b ba dd be 75 40 1f be be f1 d2 3c 2e 0e 32 bd
       -0.43306288 -0.15551932 0.025750037 -0.043470554
000040 f5 b7 06 3c 0b c0 ef bc 9c 28 57 be e1 6b b6 be
       0.00822257 -0.029266378 -0.21011585 -0.3562918
000050 5e 01 61 3e 8b 8a 89 bd 40 a8 0e 3f a8 df 1c 3e
       0.21973178 -0.06715878 0.5572548 0.15319693
000060 70 b6 e6 bc 9f 46 58 3e 8c df b8 be b1 93 dd 3d
       -0.028163165 0.2112069 -0.36108053 0.108191855
000070 6f 9e b7 3c b1 d7 25 3d b7 d1 ad bc 90 6b ee 3c
       0.022414414 0.040488902 -0.021218164 0.029104024

layers.0.bn2.running_var f4 [32]
000000 a9 28 64 3e a6 23 82 3e 81 c0 34 3d 1f ee 95 3d
       0.22281136 0.25417823 0.0441289 0.073208086
000010 07 8c 27 3e e1 24 cc 3e c3 b0 86 3e 1c 4b 8d 3d
       0.1636201 0.39871886 0.26306733 0.068990916
000020 39 e3 9e 3d fe dc ce 3d de 7a b7 3d 72 61 39 3d
       0.07758183 0.10100745 0.08958982 0.045258947
000030 6a c4 a2 3e d6 c2 5d 3d 9d 9e e0 3d c1 77 93 3d
       0.31790477 0.05414089 0.10967753 0.072005756
000040 90 b9 0b 3e 0b c5 08 3e 56 f1 cb 3d eb 9e 8e 3e
       0.13645005 0.13356416 0.099581406 0.2785562
000050 33 7b d3 3d 71 c7 b2 3c 93 a9 08 3f 5f c6 aa 3d
       0.10326233 0.021823617 0.5338375 0.083386175
000060 38 d0 23 3d a4 fa 7f 3d f7 fa 96 3e d7 ea 56 3d
       0.039993495 0.06249489 0.29488346 0.052470054
000070 a7 3b 35 3d 0f 80 78 3d bd c6 49 3d e8 1c aa 3d
       0.044246342 0.060669 0.049261797 0.08306295

layers.0.conv3.weight f4 [16, 32, 1, 1]
000000 7a f6 ef 3d e8 6c 40 3d 0f fe f7 3d 73 8b 5e 3e
       0.117169335 0.04697886 0.12109005 0.21732883
000010 6e 69 0f bc 04 45 1d 3e fd eb 61 be 01 f7 dd bd
       -0.008753164 0.15358359 -0.22062679 -0.10838128
000020 87 cd 35 3e c6 48 4b be c0 c6 59 3e 65 51 b9 3d
       0.17754184 -0.1985198 0.21267223 0.09048728
000030 44 7e 4c bc a7 a9 3b bc 64 b6 41 3e c6 25 3b 3e
       -0.012481276 -0.0114540225 0.18917233 0.18276128
000040 39 61 12 be 38 46 21 be ef b7 ea bd f3 40 bb 3d
       -0.142949 -0.15749443 -0.11460864 0.091432475
000050 f0 f2 47 be 35 84 42 3e 52 7f 2e bd 7f ca ad 3d
       -0.19526267 0.18995745 -0.04260189 0.08485889
000060 13 2a ec bc 5e e4 b7 be c7 f9 a9 3c b2 33 98 3d
       -0.028828656 -0.35916418 0.020748986 0.07431735
000070 55 fc 6e 3d c5 58 dd bd 70 d4 80 bc 44 44 0e be
       0.05834611 -0.10807947 -0.015726298 -0.13893229
000080 e2 ed 22 be ec 33 9b 3d e1 26 eb bc 82 06 0b 3d
       -0.15911058 0.07578263 -0.028705062 0.033941753
000090 43 77 50 3e df 58 d7 3d 99 90 59 be 53 5f 5c bd
       0.20357995 0.10514998 -0.21246566 -0.053801846
0000a0 a2 64 19 3d 18 8f 16 3e 82 68 25 3e 1d 71 89 be
       0.037449487 0.14703023 0.16153148 -0.2684411
0000b0 d0 c1 92 3d 72 af 3b 3c 80 7c 51 be 85 78 4e bc
       0.07165873 0.011455404 -0.20457649 -0.012601976
0000c0 e5 05 49 be a9 f5 18 be 47 42 da bd f3 46 bd 3e
       -0.19631155 -0.14937462 -0.10657173 0.36968192
0000d0 1e 12 9b bd ce e8 08 bc 8c b3 4a bd 31 81 1b 3c
       -0.07571815 -0.008356286 -0.049487635 0.009491251
0000e0 af bb 93 3d 9f 27 0c be 4e a1 04 3e d1 e0 29 be
       0.07213532 -0.13686989 0.12952158 -0.16589667
0000f0 7a ae da 3d 9c f3 2d be 0b 31 0c 3e 9b 21 ca 3d
       0.1067781 -0.16987461 0.13690583 0.09869691
000100 ae 94 44 bd 04 06 41 3e f7 e1 73 be c3 14 b8 bd
       -0.047993354 0.18849951 -0.23816667 -0.08988335
000110 34 95 65 be 75 54 0d be 2f 38 3f be 74 6f f2 bd
       -0.22420198 -0.13801749 -0.18673776 -0.11837664
000120 c0 cc 2a be d1 9b b7 be 99 10 a7 bd ce 73 04 be
       -0.16679668 -0.35861066 -0.081574626 -0.12934801
000130 3c 62 36 be aa 5e 07 be fd ec 32 be 70 bf 5c 3d
       -0.17810911 -0.13219705 -0.17473216 0.053893507
000140 e2 99 df bd 91 83 30 3d db c2 e7 3c 21 af b7 bd
       -0.10918023 0.04309422 0.028291157 -0.0896895
000150 93 5c 78 bd 44 b7 3d 3e 8d a0 5c 3d 2d 2d b9 bc
       -0.06063516 0.18526942 0.05386405 -0.02260455
000160 f6 ec e2 3d d2 6d 9e 3d 45 5c 18 3e ac 96 5f 3e
       0.11080353 0.0773579 0.14878948 0.2183482
000170 f0 5a 89 be 9b cb ef bd c7 14 cc 3d 4a 3d be bd
       -0.26827192 -0.117087565 0.099649005 -0.09289034
000180 22 02 8b 3d 91 62 40 3e 8f ac 2e 3e 3d 23 bd bd
       0.06787516 0.187876 0.17058013 -0.09235237
000190 48 11 7c be f2 ff 22 3e 89 e6 14 3e 01 e6 07 3e
       -0.24615967 0.15917948 0.14541067 0.13271333
0001a0 d9 08 b9 bb 5b a6 be bc ca a0 17 be 7b b4 8b 3e
       -0.0056468067 -0.023272684 -0.1480743 0.27286133
0001b0 ff f0 29 bd 43 51 0d 3c 45 cf 8a 3e 42 69 59 3d
       -0.041489597 0.008625331 0.2711126 0.053078897
0001c0 7d 2e d9 bb 6f 92 a8 bd e1 0a 8a be 39 2a 8f 3d
       -0.0066278563 -0.08231055 -0.26961425 0.06990475
0001d0 31 b0 64 3d 04 5c f3 3d 36 dc 87 3e 3e 9d cc bd
       0.05583209 0.11882785 0.26535195 -0.09990929
0001e0 d3 53 0e 3e 00 0e 67 3e 93 63 a9 3d e0 80 11 bc
       0.13899164 0.22563934 0.082709454 -0.008880824
0001f0 a3 fa bb 3c 43 a6 69 be b0 fd a2 3d 9e 82 06 3d
       0.022946661 -0.2281733 0.07958543 0.03283941
000200 34 a9 aa be ff a9 91 3d d4 60 ff bc 9b 38 69 3d
       -0.33332217 0.07112502 -0.031174101 0.05693875
000210 b5 da 90 be c8 35 0d 3e 7f eb 9e 3e d8 62 3b 3e
       -0.2829186 0.13790047 0.31039044 0.18299425
000220 9c b2 26 be 2a 84 0b be 5a a4 c1 bc 4d b4 c6 3c
       -0.16279072 -0.13624635 -0.02363794 0.024255896
000230 b7 54 56 3e a8 c2 7b 3c 97 8a 81 3e 49 a4 98 3d
       0.20930754 0.015366234 0.25301048 0.0745321
000240 b3 6a 37 bb 30 3b e0 bd 8d 29 41 3e 5d 7a 78 bd
       -0.0027987182 -0.10948789 0.18863507 -0.06066357
000250 75 cc 65 bd 53 03 25 be 28 94 0a be 58 43 c3 3d
       -0.05610319 -0.1611455 -0.1353308 0.09534329
000260 eb 66 c5 3d 0c bc f4 3c 22 8d 2b bd 51 18 da 3d
       0.09638771 0.029874824 -0.04188264 0.10649169
000270 d5 8b 25 be 4d be 02 be ce 1d e0 3d 4b bd f6 3d
       -0.16166623 -0.12767906 0.10943185 0.120478235
000280 e9 b0 37 be c0 63 d6 bc 98 7e e3 3d 30 92 1e 3e
       -0.1793858 -0.026170611 0.1110813 0.15485454
000290 41 68 de bd d7 6d 81 3d 55 e6 87 bd 3a c9 8c bd
       -0.108597286 0.063197784 -0.06635729 -0.068743184
0002a0 86 67 49 bd 32 ab 13 bc 4a 36 2c be 23 e5 83 bd
       -0.049170993 -0.009012984 -0.16817585 -0.06440189
0002b0 d8 ca 08 3d 16 46 74 3c 41 13 e2 bd 71 09 29 be
       0.033396572 0.014909288 -0.11038829 -0.16507508
0002c0 e2 47 bb 3c 74 c6 c5 3d 0f 67 d1 bd 6d 3e c3 bd
       0.022861425 0.096569926 -0.10224735 -0.09533391
0002d0 f7 4e 88 be f4 2b c0 3b 03 4e 85 be f5 32 b0 bd
       -0.26622745 0.0058646146 -0.2603608 -0.08603469
0002e0 68 8c 9d be ff 19 52 3d ec e9 b1 3c d9 e0 3f be
       -0.30771184 0.051294323 0.021717988 -0.18738116
0002f0 f7 24 19 3e e0 f9 8a bd f4 0a 88 be 14 78 2e be
       0.14955507 -0.06785941 -0.26570857 -0.17037994
000300 08 a5 41 3e 04 5f 31 3d 30 29 30 3e 35 cc 38 3d
       0.1891061 0.043303505 0.17203212 0.045116622
000310 c9 3e 17 be 13 5c c1 3d f6 2f e5 3b 97 95 c5 bd
       -0.14770044 0.0944139 0.006994243 -0.096476726
000320 bc 91 ec bd 4b 2b eb 3c da ef 35 3e cf ee 3c be
       -0.11551234 0.028707167 0.17767277 -0.18450473
000330 44 48 e1 3d a2 72 9f be ec f6 0a be c3 62 33 bd
       0.11000112 -0.31142145 -0.13570756 -0.04379536
000340 64 24 14 3e fd 18 a0 bd 58 31 4e 3d 07 7b 28 3e
       0.14467007 -0.07817266 0.050340027 0.16453181
000350 0d 2b a2 ba 0c 6a 37 be 06 3f 14 be 8c 61 4c bd
       -0.0012372449 -0.17911547 -0.14477167 -0.049897715
000360 7d ad 72 3d bd e0 3d be 21 bc d6 bd ac 86 38 3d
       0.059247483 -0.18542762 -0.104851015 0.045050308
000370 e0 db 5c 3e 65 74 46 3d 05 dd a7 3e e5 ad 84 be
       0.2156825 0.048450846 0.32785812 -0.2591392
000380 40 2f af bd 93 d4 35 3d fd 28 16 be 76 98 6e 3d
       -0.08553934 0.04439218 -0.14664073 0.058250867
000390 a4 3b da bd 4a ec 88 3d 0b 65 38 3e 6c fa 4c 3d
       -0.10655907 0.066856936 0.18007295 0.05004351
0003a0 dd e2 37 3e 24 6a 28 be d8 63 80 3e b6 85 7b 3d
       0.17957635 -0.1644674 0.25076175 0.061406814
0003b0 92 c2 3a be a3 04 88 be f5 56 a7 3d 89 6e 6a bd
       -0.18238285 -0.26566038 0.081708826 -0.05723432
0003c0 65 9f 89 3e f8 e6 3b be c4 1f 17 be 61 5f 84 bc
       0.2687942 -0.18349826 -0.14758211 -0.016158761
0003d0 62 5e a0 bd 6a 42 4f be c1 5a 7a 3e 63 66 a1 bd
       -0.07830502 -0.20240179 0.24448682 -0.07880857
0003e0 de 44 16 be e7 3d 83 3d 06 6a c4 bd 2e 2a 24 be
       -0.14674708 0.06408291 -0.09590535 -0.16031715
0003f0 5c 8e 10 be 16 15 84 3d e4 5d 75 3c 41 d8 b0 3d
       -0.14116806 0.06449334 0.014975999 0.08634997

layers.0.bn3.weight f4 [16]
000000 06 34 7c 3f 9b 94 80 3f 5d f5 7f 3f 4a 2b 94 3f
       0.9851688 1.0045351 0.9998377 1.1575711
000010 d5 32 8e 3f 81 4b 95 3f 62 e8 7c 3f 61 ed 89 3f
       1.1109263 1.1663667 0.9879209 1.0775567
000020 50 0f 99 3f 1f 7a 86 3f e8 b6 8c 3f f5 65 83 3f
       1.1957798 1.0506018 1.0993319 1.026549
000030 c6 90 92 3f ab c4 8e 3f 8d be 91 3f ea 73 9e 3f
       1.1450431 1.1153768 1.1386276 1.2379124

layers.0.bn3.bias f4 [16]
000000 7a 68 a0 bd c6 c9 6e 3c 96 5d 2d bd 3b 2b 0e be
       -0.07832427 0.014574474 -0.04232558 -0.13883679
000010 81 e9 ac bc 43 ff 19 be 89 db b1 bd fc 93 a5 bc
       -0.021107437 -0.15038781 -0.08684451 -0.020212166
000020 6b db 10 3e 22 13 a0 bb 26 eb 67 3d 9c 6c 60 bd
       0.14146201 -0.0048850933 0.05662074 -0.054791078
000030 aa 90 e8 3c 1c d2 3a bd a4 25 23 3d ff 66 00 bd
       0.028389294 -0.045610532 0.03983082 -0.031348225

layers.0.bn3.running_mean f4 [16]
000000 d2 b4 2e 3c 03 3e 92 bc 02 ea 36 bf b5 1a 1f 3f
       0.010663228 -0.017851835 -0.7145082 0.62150127
000010 41 e2 bd 3c a4 59 4d bf 32 02 d9 bd 4e 70 a8 be
       0.023179175 -0.80214906 -0.10596122 -0.32898182
000020 99 c0 8b 3e 80 0e d1 bd 57 70 3d be 21 4b a8 3d
       0.27295378 -0.10207844 -0.18499885 0.08217455
000030 e0 71 95 be 1b 6e af 3e e8 1f 2e 3f 1f 9b 7c be
       -0.29188442 0.3426369 0.68017435 -0.24668549

layers.0.bn3.running_var f4 [16]
000000 dc 2f 69 3e a3 63 8f 3e e0 b3 9e 3e fb 28 a6 3e
       0.22772163 0.28005704 0.3099661 0.3245314
000010 ba 3d 73 3e 51 b2 1f 3f cd 68 97 3e 10 f5 36 3e
       0.23754016 0.62381464 0.29572144 0.17866921
000020 ea cd a3 3e ba bd 83 3e d1 5c d5 3e be e0 9b 3e
       0.31993037 0.25730687 0.41672376 0.30444902
000030 20 45 c7 3e 9b 2c b6 3e 3f 2f ca 3e d0 40 b0 3e
       0.38919926 0.35580906 0.3948917 0.34424448

layers.0.conv4.weight f4 [16, 32, 1, 1]
000000 d2 1e 8e bd e7 4b e9 bd 9d 0e 3e 3a bf 0c 38 be
       -0.06939472 -0.1139143 0.00072501024 -0.17973612
000010 44 f3 0a 3e be a6 8b be 75 bb 40 bd 6f 1a 11 3e
       0.13569361 -0.27275652 -0.047053773 0.1417024
000020 e5 8f 93 3c c3 35 3b bd 65 ed 35 3e 19 af 38 be
       0.01801295 -0.045705568 0.1776634 -0.18035544
000030 a1 c5 4a be b8 2d 27 3e 60 ea 7f 3d 5f 0d 01 be
       -0.19801952 0.16326034 0.062479377 -0.12602757
000040 96 a4 a1 3e fd c9 1f 3e 2c e4 cc ba 57 2e c1 3c
       0.31570882 0.15604396 -0.0015631965 0.023581667
000050 83 e4 78 3e b5 af f1 3d 31 74 24 be 3b 84 8e 3d
       0.2430592 0.118010916 -0.16059949 0.06958815
000060 94 99 b4 3e 74 a2 25 3e f5 e3 40 3d 44 d1 eb 3c
       0.3527342 0.16175252 0.047092397 0.028786309
000070 2c b9 58 bd da 90 87 be cf 99 f5 3d 1e fa 27 be
       -0.05291097 -0.264777 0.11992227 -0.16404006
000080 d2 53 c4 bd 48 6c b4 bc 74 fa 39 3c 7a d0 d6 3d
       -0.095863 -0.022024289 0.011351217 0.104889825
000090 46 bd c3 3d aa 37 33 3e e1 de 28 3e 48 71 b9 3d
       0.095575854 0.17501703 0.16491272 0.0905481
0000a0 38 03 51 3d 50 e9 02 bd 54 8d 2a 3e 5a cc 0a bc
       0.05102846 -0.031960785 0.16655475 -0.008471573
0000b0 fb f1 c7 bc 05 c9 cd 3d ae a8 07 be 39 97 46 bd
       -0.024407377 0.10048107 -0.1324794 -0.04848406
0000c0 28 7a 5b bd 7b 9e 1f be 01 09 d8 3d 72 7d 30 bb
       -0.053583294 -0.15587799 0.10548592 -0.002693024
0000d0 c4 e7 5e be 97 8c 12 be de 8f f5 bd e0 c1 a0 3c
       -0.21768099 -0.14311443 -0.11990331 0.019623697
0000e0 f4 cf 11 3e c9 63 10 3e 2e a0 ae bd d6 6d 3f 3e
       0.14239484 0.14100565 -0.085266456 0.18694243
0000f0 48 06 88 bc b7 95 c0 3d c6 e8 6f 3c ab c9 7c 3d
       -0.016604558 0.09403556 0.0146429 0.061715763
000100 4a 0b fd bd 59 9d 45 3d b7 cc 92 3b 29 ee b4 bd
       -0.12355669 0.04824576 0.0044799703 -0.08834488
000110 18 e5 78 be c5 2e 39 3e 91 05 31 be 21 0d d2 bc
       -0.24306142 0.18084247 -0.1728728 -0.025641026
000120 3e 6b 2a 3e ce 84 5d be 0a 78 31 3e 91 e7 c7 3c
       0.16642472 -0.21632692 0.17330948 0.024402412
000130 a5 0f 36 3e a9 27 6e 3d c1 ed 2b be 54 92 89 3e
       0.17779405 0.05814329 -0.16789915 0.26869452
000140 73 c1 a3 38 f0 24 19 3e dd ea f4 3d 4b cb 09 3e
       7.8084784e-05 0.14955497 0.11958859 0.13456456
000150 cc d1 f3 3d ad 7f 23 3e be 07 96 bd 55 19 3f be
       0.1190525 0.15966673 -0.073256955 -0.18662007
000160 46 04 19 be ca b4 a6 bd c6 22 fc bd ea db 2c 3e
       -0.14943036 -0.081399515 -0.1231132 0.16880766
000170 f8 c7 2f bd 96 f1 af bd bf cd ed bd 16 f9 0c 3e
       -0.042915314 -0.08591001 -0.116115086 0.13766894
000180 1d 94 6a 3d a1 fd 16 3e db 0e fe bd 02 c9 ce bd
       0.057270158 0.14745189 -0.12405177 -0.10096933
000190 a3 d4 5b bd 9b 44 f9 3c 88 67 5d bd f7 c5 b7 bc
       -0.053669583 0.030428221 -0.054053813 -0.022433264
0001a0 1f e5 73 bc 9c 9d 76 3e 5d dc d3 3d f3 c4 c4 3d
       -0.01488617 0.2408356 0.10344765 0.096078776
0001b0 c0 78 f8 ba 69 1d b4 bd ac 05 89 bd bf d9 44 bd
       -0.0018956885 -0.08794672 -0.06690535 -0.04805922
0001c0 8b 43 06 3e fd 3d b5 bc 7d 81 44 bd ff aa c1 3d
       0.13111703 -0.022124285 -0.047975052 0.09456443
0001d0 1f 0b 10 3e 86 c5 cf bd a7 49 e1 3d 86 75 2e be
       0.14066742 -0.101450965 0.11000376 -0.17037019
0001e0 dd 75 94 bd c1 2e 3b bc 12 66 a2 bd 6c 38 9f 3d
       -0.07249043 -0.011424721 -0.079296246 0.077744335
0001f0 d7 3c c3 3d 2b 40 0c be d1 0f f3 3c 1b 25 d8 bd
       0.09533089 -0.13696353 0.029670628 -0.10553952
000200 2f d9 e4 3d 7f 42 60 3e 4a 73 cb bd 72 8b 7b bd
       0.11174237 0.21900366 -0.09934099 -0.061412282
000210 af 72 74 3d 4c 9e 69 bb 79 4b 02 3e c0 ed 21 3e
       0.059679683 -0.003564733 0.12724103 0.1581335
000220 d6 97 79 3e 61 9f 26 bd 92 65 19 be 7a 62 58 3d
       0.24374327 -0.04067934 -0.14980152 0.05282829
000230 ad 48 a2 bd b1 9b 88 bc d5 ab c7 3d 2c d9 10 bd
       -0.07924018 -0.016675802 0.09749571 -0.03536336
000240 12 df 7b be d6 9d a2 bb 65 f7 fa bd c2 10 21 be
       -0.24596813 -0.004962663 -0.12254218 -0.15729049
000250 e9 23 79 be 35 f5 a9 3d d0 71 cb bd 16 ef 47 3c
       -0.24330105 0.08298723 -0.099338174 0.012202999
000260 0d d2 88 3c 19 45 2e 3c 36 92 c4 bd 64 e9 fe bc
       0.016701723 0.010636591 -0.095982 -0.031117149
000270 77 b6 21 3d 05 7c d2 bc 5b c0 0d be 3a b4 cb bd
       0.039480653 -0.025693903 -0.13842909 -0.09946485
000280 53 16 12 3d 10 79 04 3e 7e 3f 5b bc 42 fb 97 be
       0.03566582 0.12936807 -0.013381837 -0.29683882
000290 82 0a 81 3d 91 10 53 bd c8 de 1c 3e 1a 1c 2d 3e
       0.06300832 -0.05152947 0.1531936 0.16905251
0002a0 b5 95 30 bd 63 66 90 3d 18 28 26 3d 14 dd 44 be
       -0.04311152 0.07050779 0.04056558 -0.1922496
0002b0 3c d3 75 3d ed 82 d0 bc a4 87 a8 bd 3d e5 92 3d
       0.060015902 -0.025453055 -0.082289964 0.0717263
0002c0 3e 24 02 be 35 ba 32 3c 92 ae b0 3c 68 99 94 3c
       -0.12709138 0.010908653 0.021567617 0.018139556
0002d0 6f ef 1b be 2c f4 25 be ba 4b d4 3c 80 79 d3 bd
       -0.15228055 -0.16206425 0.025915015 -0.10325909
0002e0 bb 6f bf 3c cc c4 50 3d 50 b9 24 be bf 5c ba bd
       0.023368707 0.05096893 -0.16086316 -0.09099721
0002f0 72 80 22 3e 02 4c 82 bd bb 60 47 be ca 23 3c bd
       0.1586931 -0.063621536 -0.19470493 -0.04593257
000300 3b 86 86 be 9e 6f e8 bd d4 76 89 bc 4c 26 c7 bb
       -0.26274285 -0.11349414 -0.016780294 -0.0060775634
000310 2a 46 3b be b0 5b 42 3c 61 7b 3c 3d 72 c4 76 3d
       -0.18288484 0.01186268 0.0460161 0.06024594
000320 c9 e6 66 bc fb 9e ca 3a a9 ec 16 bd fc 9c c8 3d
       -0.014093109 0.0015458757 -0.03684679 0.097955674
000330 aa 3f 97 bd 4a 50 6c bc ac 5f 18 3e 96 bb 4f bd
       -0.0738519 -0.014423439 0.14880246 -0.050716005
000340 d6 9d 42 3b 7d 63 90 3d 80 69 30 bd 38 5a d9 bb
       0.0029696128 0.07050226 -0.043069363 -0.0066330694
000350 61 6c 4a 3e fd 34 9f 3e 33 84 21 3c 7a 6b 0f 3d
       0.19767906 0.31095114 0.009858179 0.035014607
000360 6e d0 e0 3d 26 98 0e 3d 56 ea 02 be 3a 81 71 be
       0.10977255 0.03481307 -0.12784705 -0.23584452
000370 ab 53 f0 3d c9 28 1d 3e cd d5 a6 bd 42 e9 13 3e
       0.117347084 0.1534759 -0.08146248 0.1444445
000380 e4 81 bf 3c 52 44 b7 3c c8 ba 00 be d6 17 92 bd
       0.023377366 0.022371445 -0.12571251 -0.071334526
000390 4b f3 39 3e 98 e8 86 3c b2 37 d2 bd 1a 9a 7e 3c
       0.18159215 0.016468331 -0.10264529 0.01553967
0003a0 c2 4c 9c be bd c5 78 bd 73 b4 83 bd ff a2 eb bd
       -0.30527312 -0.060735453 -0.06430902 -0.115056984
0003b0 20 9f 1c 3e 8d 16 d0 bc 07 90 ae bc 6e 58 88 3d
       0.15295076 -0.025401378 -0.021308912 0.066574916
0003c0 1d 50 47 be 4f 43 6c 3c b4 53 e9 3d 04 e6 20 bd
       -0.19464155 0.0144203445 0.11392918 -0.03928186
0003d0 0b fc 74 3d f5 64 9f bd 7b 08 a7 bd 8a de 53 3d
       0.05981068 -0.07782928 -0.081559144 0.0517259
0003e0 d5 e3 f5 3d 12 45 28 3e e3 87 c8 3d 83 3c 66 3e
       0.12006346 0.16432598 0.09791543 0.22484021
0003f0 39 c1 e1 bd 93 d7 ad bc 6b 4c 08 be e6 10 7a bc
       -0.110231824 -0.021220958 -0.13310401 -0.015262818
