Project/Project_files/ckpt/mobilenetv2_19_5/mobilenetv2_19_5_39.pt (torch, 52267 bytes, 52 tensors)

conv1.weight f4 [32, 3, 3, 3]
0	0xbe325c0c	-0.17417926
1	0xbe82e258	-0.25563312
2	0xbdca2507	-0.09870344
3	0x3ce13a8f	0.027493743
4	0xbe172f65	-0.14764173
5	0x3deb320d	0.11484156
6	0xbc8c59bf	-0.017132638
7	0xbe6783f9	-0.22608937
8	0xbe12083c	-0.14260954
9	0x3dae33e1	0.08505989
10	0x3e528ad8	0.20560777
11	0xbd03131d	-0.03200065
12	0xbdd34357	-0.103155784
13	0x3e06d6b2	0.13167837
14	0xbe0a03e8	-0.13478053
15	0x3e374798	0.17898405
16	0x3c908238	0.017640218
17	0xbe853afb	-0.2602156
18	0x3e7e65c9	0.24843515
19	0x3e8724c3	0.26395234
20	0x3e33bf6c	0.1755349
21	0x3ea14e20	0.31504917
22	0x3e89e008	0.26928735
23	0x3dd82cab	0.10555395
24	0x3da4fbfb	0.08055874
25	0xbde191f0	-0.110141635
26	0x3c594902	0.013262035
27	0x3e0e8ddc	0.13921303
28	0x3d97a345	0.07404188
29	0xbe0b8a8a	-0.13627067
30	0x3db53c54	0.08849397
31	0xbe867215	-0.26258913
32	0x3e530923	0.20608954
33	0x3e01d450	0.12678647
34	0x3da1d632	0.07902183
35	0xbe472bdf	-0.19450329
36	0xbd9826b9	-0.07429261
37	0x3e2f7772	0.17135409
38	0xbcbc1df3	-0.0229635
39	0xbe672312	-0.22571972
40	0xbedda92f	-0.4329314
41	0x3e716a83	0.23575787
42	0x3d84ad7e	0.064784035
43	0x3e573dc9	0.21019663
44	0xbe3f8e15	-0.18706544
45	0xbda65a12	-0.08122648
46	0xbd9c2200	-0.076236725
47	0xbd990181	-0.0747099
48	0x3df8d4be	0.12149952
49	0xbd8ad755	-0.067793526
50	0x3d8f69f5	0.070026316
51	0x3de841a3	0.11340644
52	0x3e0df2b8	0.13862121
53	0xbe566043	-0.20935158
54	0x3c2287bb	0.009920056
55	0x3d3910b4	0.045181945
56	0xbd979e94	-0.07403293
57	0x3de84202	0.11340715
58	0x3da88c09	0.082298346
59	0xbde20e79	-0.11037917
60	0x3dd981a5	0.10620431
61	0xbe7fa2d1	-0.24964453
62	0x3e2e47cd	0.17019577
63	0x3d80ea7a	0.06294723
64	0x3df15c29	0.11785156
65	0xbe0fccb6	-0.14042935
66	0x3e4e9b5d	0.20176454
67	0xbece512f	-0.40296313
68	0xbe09b462	-0.13447717
69	0x3e81047f	0.25198743
70	0xbe4b9e88	-0.19884694
71	0xbda1d8f7	-0.07902711
72	0x3d9069b1	0.07051409
73	0x3d03bc28	0.03216186
74	0xbe1bf376	-0.15229592
75	0x3e60aeb2	0.21941641
76	0xbe9119df	-0.2834005
77	0x3d267cf1	0.040646497
78	0x3e4a3191	0.1974547
79	0xbe90e87e	-0.28302377
80	0x3d795c5c	0.060879096
81	0x3eaa0e0b	0.3321384
82	0x3df85d8d	0.121272184
83	0x3c05d242	0.008167805
84	0x3e01b80c	0.12667865
85	0xbc86889e	-0.016422566
86	0x3d4c3e44	0.04986407
87	0xbdb8a5d0	-0.09016001
88	0xbe7e7b8a	-0.24851814
89	0xbe32f7fe	-0.17477414
90	0xbe8ce032	-0.27514797
91	0xbdb98dd0	-0.09060252
92	0xbcdbda33	-0.026837444
93	0xbd93c10c	-0.07214555
94	0x39339e10	0.00017129653
95	0x3e820d33	0.25400695
96	0x3ea39e3d	0.31956664
97	0x3e4aca57	0.19803749
98	0xbd91794f	-0.07103216
99	0x3878e3cd	5.9339964e-05
100	0xbd32c100	-0.04364109
101	0x3d3c78a8	0.046013504
102	0xbd7f6f59	-0.06236205
103	0xbe825f04	-0.25463116
104	0x3e21eb1b	0.15812342
105	0x3dddb4d1	0.108255036
106	0x3d776bde	0.060405605
107	0xbd58fec5	-0.052977342
108	0x3de8fbe8	0.11376172
109	0x3e50fb0c	0.20408267
110	0x3c4ece8e	0.012622489
111	0xbe3ec9e7	-0.18631707
112	0xbe3e6d27	-0.18596326
113	0x3d5d90f4	0.054093316
114	0xbdfb6725	-0.12275533
115	0xbe581266	-0.21100768
116	0x3e61008e	0.21972868
117	0x3e0ae508	0.13563931
118	0x3ddd5555	0.108072914
119	0xbd29f34d	-0.041491795
120	0x3d410607	0.04712489
121	0xbe185525	-0.1487623
122	0x3d9891a9	0.074496575
123	0x3e0160e1	0.12634613
124	0xbdd3b45c	-0.10337135
125	0x3ea4b8d7	0.32172272
126	0xbe4302e6	-0.19044074
127	0x3d8e597e	0.06950663
128	0xbe149674	-0.14510518
129	0x3d632b92	0.055461474
130	0xbd68b989	-0.056817565
131	0xbba34278	-0.004982289
132	0x3eac33d6	0.33633298
133	0x3da33024	0.079681665
134	0xbe58bc18	-0.21165502
135	0xbe8d3273	-0.27577552
136	0x3df438ce	0.11924897
137	0xbc434ffa	-0.011920923
138	0xbe92ee3e	-0.2869739
139	0x3dccba4f	0.09996473
140	0x3e30c0ae	0.17261001
141	0x3e643195	0.22284539
142	0x3cf3b462	0.0297491
143	0xbe17ae95	-0.14812692
144	0xbd160cef	-0.03663343
145	0x3d354913	0.044259142
146	0x3e21e1d8	0.15808809
147	0x3d8e7320	0.06955552
148	0x3e69df55	0.228391
149	0x3e9bdefe	0.30443567
150	0x3cf45867	0.02982731
151	0xbe064be5	-0.13114889
152	0xbe8d4826	-0.27594107
153	0xbcc70f73	-0.024299359
154	0xbdeb7c1a	-0.1149828
155	0x3d03eee3	0.032210242
156	0xbe6a7fcb	-0.22900312
157	0x3d78947a	0.060688473
158	0x3e163bd6	0.14671263
159	0x3d1279f2	0.035760827
160	0x3bd8986c	0.006609967
161	0xbd351e80	-0.04421854
162	0xbe666298	-0.22498548
163	0x3c5afc99	0.013365888
164	0x3e03d547	0.12874328
165	0x3e1d9f2c	0.1539275
166	0x3daee09b	0.08538934
167	0x3d2649b3	0.04059763
168	0x3e46d88c	0.19418544
169	0x3e488d3a	0.19585124
170	0xbd4ebfd4	-0.05047591
171	0xbd5866a1	-0.05283225
172	0xbd2e2ffe	-0.042526238
173	0x3dda4d99	0.10659332
174	0x3e45f5bf	0.19332026
175	0xbc0cba59	-0.008589351
176	0xbd3f407f	-0.046692368
177	0x3e6a8c5c	0.22905105
178	0x3ed378e2	0.41303164
179	0x3e032a1c	0.12809032
180	0x3c04b304	0.008099321
181	0xbe13cc82	-0.14433482
182	0xbe121a13	-0.14267759
183	0xbd36a4f1	-0.044590894
184	0xbe63cc0f	-0.22245811
185	0xbe477b91	-0.1948073
186	0xbe175933	-0.1478012
187	0xbda66ae1	-0.08125854
188	0xbe65c5ba	-0.22438708
189	0xbe6f60f7	-0.23376833
190	0xbe18d7dc	-0.14926094
191	0x3dcca5c7	0.09992557
192	0xbe1d0f1f	-0.153378
193	0xbbd2ad1e	-0.0064293286
194	0xbe408ab5	-0.18802913
195	0x3e115f50	0.14196515
196	0x3bc4011a	0.0059815766
197	0x3dc95ce2	0.09832169
198	0xbdcb0d24	-0.09914616
199	0xbea31b68	-0.31856847
200	0xbcb3bb59	-0.02193992
201	0xbe8f4365	-0.27981105
202	0xbde8ad65	-0.113611974
203	0xbe193076	-0.14959893
204	0x3ca58e82	0.020209555
205	0x3cfad3b5	0.030618528
206	0x3e0d4c3d	0.13798614
207	0x3d68a157	0.05679449
208	0x3deb5c70	0.114922404
209	0x3cc7b986	0.024380457
210	0x3c991a46	0.018689286
211	0x3e646a2b	0.22306125
212	0xbd15bb0b	-0.03655533
213	0x3e19b171	0.15009095
214	0x3e8b1e04	0.27171338
215	0x3eb2fb21	0.3495722
216	0xbe5c081e	-0.21487471
217	0xbe772e31	-0.24138714
218	0xbe201fc1	-0.15637113
219	0xbe626199	-0.22107543
220	0x3e01a868	0.12661898
221	0xbc288948	-0.010286637
222	0x3e7c19c3	0.24619202
223	0x3e089f91	0.1334212
224	0xbd3e8cbc	-0.046520934
225	0x3e052fb2	0.13006476
226	0xbdd691da	-0.10477038
227	0x3d319a3e	0.043359987
228	0x3d6be875	0.057594735
229	0x3e97047e	0.29495615
230	0x3d723df3	0.05914111
231	0xbe061646	-0.13094434
232	0x3e64b5a6	0.22334918
233	0x3b55b55c	0.003260932
234	0x3e678995	0.22611077
235	0xbe489ac4	-0.19590288
236	0xbe33226d	-0.17493601
237	0x3dec0084	0.11523536
238	0x3df44594	0.119273335
239	0xbdc61523	-0.09672
240	0xbe82eef5	-0.25572935
241	0xbcb0b0d7	-0.021568699
242	0x3de991b0	0.11404741
243	0xbdef6e53	-0.116909645
244	0xbe9b7cb8	-0.3036859
245	0xbe044d1c	-0.1292004
246	0x3def77a1	0.11692739
247	0xbeb0e50b	-0.34549746
248	0x3e37c1cd	0.17945023
249	0x3e372b57	0.17887627
250	0x3d98905b	0.074494086
251	0x3c75d1ed	0.0150036635
252	0x3d4c09e3	0.049814116
253	0x3e5802cb	0.21094815
254	0x3d800c12	0.06252302
255	0x3df948ba	0.121720746

bn1.weight f4 [32]
0	0x3f71fefe	0.9452971
1	0x3f75e68f	0.9605493
2	0x3f7db30c	0.9910133
3	0x3f97b39a	1.1851685
4	0x3f87570a	1.0573437
5	0x3f82317c	1.0171351
6	0x3f8b834b	1.0899442
7	0x3f7e6166	0.9936737
8	0x3f8f8be8	1.1214571
9	0x3f95796f	1.1677684
10	0x3f4cc68f	0.79990476
11	0x3f8d5faf	1.1044825
12	0x3f2f21f5	0.6841119
13	0x3f81adc8	1.0131159
14	0x3f8116b8	1.0085058
15	0x3f62bdc6	0.8857082
16	0x3f816bd3	1.011103
17	0x3f71c812	0.9444591
18	0x3f864ea7	1.0492753
19	0x3f81ce20	1.0141029
20	0x3f891d19	1.0712005
21	0x3fa6a3a2	1.3018687
22	0x3f5c6a02	0.86099255
23	0x3f7829d0	0.969388
24	0x3f7b27e4	0.98107743
25	0x3f440f24	0.765856
26	0x3f75ad50	0.9596758
27	0x3f87e60a	1.0617077
28	0x3f7259f3	0.946685
29	0x3f6e7fbe	0.9316367
30	0x3f4dceb5	0.80393535
31	0x3f8c55df	1.0963706

bn1.bias f4 [32]
0	0xbcf7e437	-0.030260189
1	0xbdf5d28a	-0.12003048
2	0x3c73e64c	0.01488645
3	0x3cd04109	0.025421636
4	0xbd0598b7	-0.032616343
5	0xbb1ac939	-0.0023618473
6	0xbcce8f87	-0.025214924
7	0xbc943424	-0.018091269
8	0x3d854a28	0.06508285
9	0xbca0c857	-0.01962678
10	0xbd592b97	-0.053020086
11	0xbbdcd38c	-0.0067390855
12	0x3ca84287	0.020539535
13	0xbcf64f26	-0.030067038
14	0x3d9d489c	0.07679865
15	0x3bff8b80	0.007798612
16	0xbc78ffca	-0.015197704
17	0xbd3c9f69	-0.046050463
18	0xbd865b64	-0.065604
19	0x3db22057	0.086975746
20	0xbccf48e0	-0.025303304
21	0x3cf2f4dc	0.029657774
22	0xbb0a48a7	-0.0021100433
23	0xbe129e0a	-0.143181
24	0xbd80c27b	-0.06287094
25	0x3d35ea4f	0.044412907
26	0x3d048711	0.032355372
27	0x3d681bcd	0.056667138
28	0xbd9ffe8e	-0.07812224
29	0x3cb5bfb3	0.022186136
30	0xbc4319c3	-0.011907998
31	0x3c58db2c	0.013235848

bn1.running_mean f4 [32]
0	0x3c89e272	0.01683161
1	0xbb3e69e3	-0.0029054813
2	0xbb96f7cf	-0.004607178
3	0xbb14ecb6	-0.0022724099
4	0xbb901d62	-0.004398034
5	0x3b5a1f86	0.003328295
6	0xbc0f4905	-0.008745437
7	0xbb842b3a	-0.0040334733
8	0x39c6ca6d	0.00037916322
9	0x3abc5c40	0.0014370754
10	0x399b30b4	0.0002960019
11	0xba41e873	-0.00073970034
12	0x3c23d071	0.009998427
13	0x38347d18	4.3031847e-05
14	0xbacdde97	-0.0015706596
15	0xbad3fb4b	-0.0016172914
16	0x3bd51778	0.006503042
17	0x3b64844f	0.00348689
18	0x3b45d145	0.0030184549
19	0x3b87819e	0.0041353246
20	0x3c10ef0d	0.008846057
21	0x3ab4d672	0.001379682
22	0x3b92136b	0.004457881
23	0x38987d56	7.2712704e-05
24	0x3a0d9d0f	0.00054021267
25	0xbbd376a9	-0.0064533544
26	0x3c53469d	0.0128952535
27	0x3ae82591	0.0017711391
28	0xbb6ba1c2	-0.003595457
29	0xbc02c5d1	-0.007981733
30	0xbad7a2cc	-0.0016451715
31	0xbb825c2b	-0.0039782724

bn1.running_var f4 [32]
0	0x3fbe96cc	1.488977
1	0x3e2ee95e	0.1708121
2	0x3f26dbde	0.6517924
3	0x3e33d01f	0.1755986
4	0x3e24e04d	0.16101189
5	0x3e91c705	0.28472152
6	0x3f4b7090	0.7946863
7	0x3f68bc2d	0.90912133
8	0x3e84bc35	0.2592484
9	0x3e4de03c	0.2010507
10	0x3e8b0844	0.27154744
11	0x3e8ec89f	0.27887437
12	0x3ec39f58	0.38207507
13	0x3e76913e	0.24078843
14	0x3f092dcb	0.535855
15	0x3e8f3d31	0.27976373
16	0x3ecb57ee	0.39715523
17	0x3e76652d	0.24062033
18	0x3df155ce	0.11783944
19	0x3e810169	0.25196388
20	0x3f2123da	0.6294533
21	0x3e6c3434	0.23066789
22	0x3f00e8dd	0.5035532
23	0x3e29d201	0.16584016
24	0x3de2dd3d	0.11077354
25	0x3f1888c1	0.5958367
26	0x3f544c89	0.82929283
27	0x3ed06bea	0.40707332
28	0x3ec2ff46	0.38085383
29	0x3ee357c5	0.444029
30	0x3e9257c5	0.28582588
31	0x3f388e83	0.72092456

layers.0.conv1.weight f4 [32, 32, 1, 1]
0	0xbe177bf7	-0.14793383
1	0x3defc198	0.11706847
2	0x3db60e67	0.08889466
3	0x3e84f811	0.2597051
4	0xbd195c2e	-0.037441425
5	0xbe1b83d6	-0.1518701
6	0xbcfeb454	-0.031091847
7	0x3e150868	0.14553988
8	0xbe304127	-0.17212354
9	0xbea20371	-0.3164325
10	0x3da10064	0.07861403
11	0xbe1c629f	-0.15271996
12	0xbe0035bf	-0.12520503
13	0xbd5fd600	-0.054647446
14	0x3d98fa63	0.074696325
15	0x3de61880	0.11235142
16	0x3de575c8	0.112041056
17	0x3d5b8bb2	0.05360002
18	0x3e800281	0.2500191
19	0x3d3ebacc	0.046564862
20	0xbdb3c180	-0.087771416
21	0xbd985170	-0.07437408
22	0x3da0102e	0.07815586
23	0xbe0eaa21	-0.13932087
24	0x3eb2feb2	0.34959942
25	0xbc8155f7	-0.015788062
26	0x3af1ecc3	0.0018457401
27	0x3dfd0d00	0.12355995
28	0xbc8d00ee	-0.017212357
29	0x3de9fdd1	0.11425365
30	0xbe5342d0	-0.20630956
31	0x3e61805f	0.22021626
32	0x3db8d9b6	0.090259
33	0x3d394ea3	0.04524101
34	0xbd03ebda	-0.032207347
35	0x3ea37ff5	0.3193356
36	0xbd925b31	-0.071463
37	0x3d3fcee6	0.046828173
38	0xbb3dc705	-0.0028957736
39	0xbe691839	-0.22763146
40	0xbc5ba0a7	-0.013405002
41	0x3e9c3a1d	0.30513087
42	0x3dc306d2	0.09522785
43	0x3e394dea	0.18096128
44	0x3d88e590	0.066844106
45	0xbe227d0d	-0.15868016
46	0x3e13ee0f	0.14446281
47	0xbe458bec	-0.19291657
48	0xbda0f001	-0.07858277
49	0xbe314842	-0.1731272
50	0x3e850c3b	0.25985894
51	0xbe0701e8	-0.13184321
52	0xbe44acfc	-0.19206613
53	0xbe2d6679	-0.16933621
54	0x3d811156	0.06302135
55	0xbc22975b	-0.009923781
56	0x3e896e0c	0.26841772
57	0x3bff56b3	0.007792318
58	0x3d7449db	0.059640747
59	0xbdcf38df	-0.10118269
60	0xbdcbc71d	-0.09950087
61	0x3d79974e	0.06093531
62	0xbcf112f5	-0.029427985
63	0x3d005e04	0.03133966
64	0xbd35d90a	-0.044396438
65	0xbd1d7a3d	-0.038446654
66	0x3e933a84	0.2875558
67	0xbe6ec5a8	-0.23317587
68	0x38961c06	7.157777e-05
69	0xbe43a5ea	-0.1910626
70	0xbdf98732	-0.121839896
71	0xbccfe0d6	-0.025375765
72	0x3b683f85	0.0035438251
73	0x3df3580d	0.11882029
74	0x3da5d2e2	0.08096863
75	0xbda55c9b	-0.08074304
76	0x3c165526	0.009175574
77	0xbee416c4	-0.4454862
78	0x3bfd7c8e	0.0077357953
79	0xbde9906f	-0.11404502
80	0x3e393e37	0.1809014
81	0xbddadc02	-0.106864944
82	0xbe479acf	-0.19492649
83	0x3dade918	0.08491725
84	0x3c351e30	0.011054561
85	0x3cb2cb5d	0.021825487
86	0xbda57285	-0.080784835
87	0xbed94627	-0.42436334
88	0x3d771e62	0.06033171
89	0xbd4395a7	-0.04775014
90	0x3db104bc	0.08643481
91	0xbea42ddc	-0.32066238
92	0xbe5f3269	-0.21796574
93	0xbe53f3fd	-0.20698543
94	0xbe346630	-0.17617106
95	0x3dbd7d28	0.09252387
96	0x3db5ad81	0.08870984
97	0x3d5e6480	0.054295063
98	0x3d773366	0.06035175
99	0xbe8ff5df	-0.28117272
100	0xbd501709	-0.050803218
101	0x3d946809	0.07246406
102	0x3dbcb45e	0.0921409
103	0x3ec02f36	0.3753602
104	0x3e21742d	0.15766974
105	0x3e85901a	0.26086503
106	0xbdb92f5a	-0.09042235
107	0xbd2f8001	-0.042846683
108	0x3d91a860	0.07112193
109	0x3e165379	0.1468028
110	0xbe53f1be	-0.20697686
111	0xbd440235	-0.047853667
112	0xbe6cc71a	-0.23122826
113	0xbc907c38	-0.017637357
114	0x3e090c3c	0.13383573
115	0xbe2d1927	-0.16904126
116	0x3c34bb10	0.011030927
117	0xbef7698d	-0.48322716
118	0xbe39d637	-0.18148123
119	0x3c633cf9	0.0138695175
120	0xbd8cc579	-0.068736024
121	0x3d4309af	0.047616657
122	0x3d556fa7	0.052108433
123	0xbda1cac4	-0.079000026
124	0x3d4de192	0.05026395
125	0xbdbbc0f9	-0.09167666
126	0x3d084dd9	0.033277366
127	0xbda343fd	-0.07971952
128	0x3df59cd0	0.119928
129	0x3e47d2ff	0.19514082
130	0x3e2ca7d6	0.168609
131	0xbc8bfc23	-0.017088002
132	0xbcaf78a9	-0.02141984
133	0x3d9fd43b	0.078041516
134	0xbe856fc8	-0.26061845
135	0x3da96aa9	0.08272297
136	0xbde0e858	-0.10981816
137	0xbcb8a4b2	-0.02253947
138	0x3e36e224	0.17859703
139	0xbe33ed9c	-0.1757111
140	0xbd141823	-0.03615583
141	0xbe71e658	-0.23623025
142	0xbe06ff4c	-0.13183326
143	0xbe4101f8	-0.18848407
144	0x3dc674f0	0.09690273
145	0xbe8e1bce	-0.27755588
146	0x3dff90ef	0.12478816
147	0xbe3456b9	-0.17611207
148	0xbc5a3706	-0.013318783
149	0xbdd2a649	-0.102856226
150	0x3d2fd21b	0.04292498
151	0x3ec1f79e	0.3788423
152	0x3d811622	0.063030496
153	0x3cb63ed3	0.022246754
154	0x3bf012eb	0.007326474
155	0xbe8d8a7c	-0.27644718
156	0x3bc74864	0.0060816277
157	0x3e01be08	0.12670147
158	0x3e2f699b	0.17130129
159	0xbda8dcab	-0.08245214
160	0xbbed5b81	-0.007243574
161	0x3e609e0f	0.21935295
162	0xbd07ae3d	-0.03312515
163	0xbdd5529b	-0.10416146
164	0xbd623367	-0.055224802
165	0x3a807ffc	0.0009803767
166	0xbe8f23fe	-0.27957147
167	0x3e408e7c	0.18804353
168	0xbe8dff27	-0.27733728
169	0x3da1dc9e	0.079034075
170	0xbde124f1	-0.10993374
171	0xbe9404cf	-0.2890992
172	0xbd8521ef	-0.06500613
173	0x3dc402d2	0.095708504
174	0xbdf08617	-0.117443256
175	0x3db052cc	0.08609542
176	0xbe51f1cc	-0.20502394
177	0x3e164d6d	0.14677973
178	0x3e1453ff	0.14485167
179	0xbe4bae1a	-0.19890633
180	0xbe15438b	-0.14576547
181	0xbe67a756	-0.22622427
182	0x3dfcd4bb	0.123452626
183	0x3dc74720	0.09730363
184	0xbbb9bd4e	-0.005668319
185	0xbc33bb2e	-0.01096992
186	0x3db6ce7c	0.089261025
187	0x3da16ceb	0.078821026
188	0x3d916254	0.07098833
189	0x3c183629	0.009290257
190	0xbe70dc8d	-0.23521633
191	0x3bbe1778	0.0058011375
192	0x3e7a10c2	0.24420455
193	0x3e5206e0	0.20510435
194	0x3e83626e	0.25661033
195	0x3e325103	0.17413716
196	0x3ca48ff8	0.02008818
197	0x3b6dcfd0	0.0036287196
198	0x3d2d9aa6	0.042383812
199	0x3d0bc4c1	0.034123186
200	0xbe8ee209	-0.27906826
201	0x3dfcad7e	0.123377785
202	0xbe000b7d	-0.12504382
203	0xbc6695e2	-0.014073821
204	0xbe55411f	-0.20825623
205	0x3d1af39e	0.037829988
206	0x3e1d9770	0.153898
207	0xbda37b7b	-0.079825364
208	0x3cb5dd89	0.022200363
209	0xbe4f5802	-0.20248416
210	0xbab0f8cf	-0.0013501885
211	0xbe308cb5	-0.17241175
212	0x3dd7b928	0.105333626
213	0xbe4c7413	-0.19966154
214	0x3de80948	0.11329895
215	0x3ea335a5	0.31876865
216	0xbc839732	-0.016063306
217	0x3e51a976	0.204748
218	0x3e796ce1	0.2435794
219	0xbcf611fe	-0.030037876
220	0x3e7279ab	0.23679225
221	0x3cef0202	0.029175762
222	0x3e05696f	0.13028501
223	0xbdbad043	-0.09121754
224	0x3e53e9c4	0.20694643
225	0xbe6a328c	-0.22870845
226	0x3e7b6705	0.24551018
227	0xbeb20ba6	-0.34774512
228	0xbccda3ca	-0.025102515
229	0xbe291050	-0.16510129
230	0xbdd72a03	-0.1050606
231	0x3d226ee9	0.039656553
232	0xbeaf62f4	-0.34255183
233	0x3d41ba5b	0.047296863
234	0xbe4f505f	-0.20245503
235	0xbd83127f	-0.06400012
236	0x3e01280c	0.12612933
237	0xbdc91b00	-0.09819603
238	0xbe105422	-0.14094594
239	0x3d92621f	0.07147621
240	0x3dec879e	0.115493044
241	0xbe3ddb20	-0.18540621
242	0x39b97b53	0.00035377833
243	0xbd5b8555	-0.053593952
244	0x3e13a785	0.14419372
245	0x3dabeb61	0.08394504
246	0xbd98b366	-0.074560925
247	0x3dd79171	0.105257876
248	0xbc3e0df0	-0.011600003
249	0xbe2c563f	-0.16829775
250	0x3ec7295e	0.38898748
251	0x3c3eead4	0.011652667
252	0xbc320e3a	-0.01086765
253	0x3e876df5	0.26451078
254	0x3e065f96	0.131224
255	0x3e612348	0.21986115

layers.0.bn1.weight f4 [32]
0	0x3fa85e5e	1.3153799
1	0x3f320ec7	0.695538
2	0x3f83983f	1.0280837
3	0x3f3e302a	0.7429224
4	0x3f2de0e8	0.67921305
5	0x3f72ef9c	0.94896865
6	0x3f235f5f	0.638174
7	0x3f04e3f3	0.5191032
8	0x3f2f12ee	0.6838826
9	0x3e7314ce	0.23738405
10	0x3fd4f4ca	1.6637204
11	0x3f382a3e	0.71939456
12	0x3f52ac11	0.822938
13	0x3f5f934e	0.87334144
14	0x3ee3fe5c	0.44529998
15	0x3f6715fc	0.9026792
16	0x3f751f87	0.9575123
17	0x3eaa891d	0.33307734
18	0x3f6b8eb9	0.9201465
19	0x3f91c3bc	1.1387858
20	0x3f7c3c50	0.9852953
21	0x3f5aceed	0.85471994
22	0x3f719c6a	0.94379294
23	0x3f475031	0.7785674
24	0x3f3490af	0.7053327
25	0x3f627c3a	0.88470805
26	0x3f357c5a	0.7089287
27	0x3f8bf9be	1.093559
28	0x3ecd8ffa	0.40148908
29	0x3f1b2328	0.6060052
30	0x3f5ecd9f	0.870325
31	0x3f178903	0.5919344

layers.0.bn1.bias f4 [32]
0	0x3dcdb32b	0.10043939
1	0x3e7dfc35	0.2480324
2	0x3e21f10b	0.15814607
3	0x3e8e336e	0.27773613
4	0x3eb94963	0.36188802
5	0x3e361991	0.1778319
6	0x3e9bf5ec	0.3046106
7	0x3f15d72d	0.5853146
8	0x3eb7e7e2	0.359191
9	0x3f0ee93d	0.55824643
10	0x3f269acd	0.6507996
11	0x3e985367	0.2975113
12	0x3e2eece0	0.17082548
13	0xbe25e616	-0.16201052
14	0x3efbbf5f	0.49169442
15	0x3e2d6815	0.16934235
16	0xbd937351	-0.07199729
17	0x3f0a7bab	0.5409495
18	0xbe06cd64	-0.13164288
19	0x3c82db1f	0.015973626
20	0x3de12ac4	0.10994485
21	0xbe487a6c	-0.1957795
22	0xbdfc2340	-0.12311411
23	0x3e7c89d3	0.24661951
24	0x3eb4b5a1	0.35294822
25	0x3e1d5ad9	0.15366687
26	0x3e9949d8	0.2993915
27	0xbdc1b9f4	-0.09459296
28	0x3eeb0bc9	0.4590743
29	0x3ea39ba4	0.31954682
30	0x3e5479cf	0.20749591
31	0x3ecd7425	0.40127674

layers.0.bn1.running_mean f4 [32]
0	0xbc0045ac	-0.007829111
1	0xbc95b7eb	-0.018276175
2	0x3dc0cf73	0.09414568
3	0xbd94381b	-0.07237264
4	0xbdff5e94	-0.12469211
5	0xbdbaeede	-0.091275916
6	0xbdc50122	-0.09619357
7	0x3b9a3d12	0.004706987
8	0xbd686f52	-0.05674679
9	0xbcd1585c	-0.025554828
10	0x3da0f8ef	0.0785998
11	0x3d0d62be	0.034517996
12	0xbb475b1f	-0.0030419303
13	0xbd82b14e	-0.063814744
14	0x3d3ec542	0.04657484
15	0x3d00b414	0.031421736
16	0x3d6098aa	0.05483309
17	0xbbf343a3	-0.0074238344
18	0xbdab02c8	-0.0835014
19	0xbca9bc35	-0.020719627
20	0x3ca3d5a9	0.019999342
21	0x3c450070	0.01202403
22	0xbd311809	-0.043235812
23	0xbd028cc7	-0.031872537
24	0x3d465bb5	0.048427302
25	0xbcbab51d	-0.02279144
26	0xbd085330	-0.03328246
27	0x3c802292	0.015641484
28	0x3cc0d9c5	0.02354134
29	0xbdc6c155	-0.09704844
30	0xbd69a7c0	-0.057044744
31	0xbb5643a7	-0.0032694133

layers.0.bn1.running_var f4 [32]
0	0x3f300efc	0.68772864
1	0x3f91dbe6	1.1395233
2	0x3ff82e04	1.9389043
3	0x3fce60ee	1.612333
4	0x3ffa3152	1.9546301
5	0x3fd77075	1.6831194
6	0x3fd67659	1.6754867
7	0x4006460b	2.098025
8	0x3ff6ffa8	1.929677
9	0x3f82d9e7	1.0222749
10	0x400ca8fe	2.1978145
11	0x4012d48c	2.2942228
12	0x3fed1ef7	1.8525075
13	0x403a7fa6	2.914041
14	0x3f431c22	0.762148
15	0x4004cb0e	2.0748935
16	0x401084ed	2.2581131
17	0x3f78492b	0.96986645
18	0x3fac0b02	1.3440859
19	0x4047b54d	3.1204407
20	0x406c96bb	3.6966999
21	0x400d737c	2.2101736
22	0x402138b2	2.5190854
23	0x4040f743	3.0150917
24	0x3ff49ab3	1.910971
25	0x3f8cb1ab	1.099172
26	0x3f7a33e3	0.9773542
27	0x3fb8c431	1.4434873
28	0x3fb53b6b	1.4158758
29	0x400c056c	2.187831
30	0x3f7ac1c6	0.97951925
31	0x3fbfe469	1.499158

layers.0.conv2.weight f4 [32, 1, 3, 3]
0	0xbdb35ff1	-0.08758534
1	0x3d8dc4a4	0.06922272
2	0x3ea72102	0.3264237
3	0xbe69dbed	-0.22837801
4	0x3e866a8b	0.2625316
5	0x3f03116c	0.5119846
6	0xbd0d2ab6	-0.03446456
7	0x3e367373	0.17817478
8	0x3e93a9f3	0.28840598
9	0x3e9acc9e	0.30234236
10	0x3f005b69	0.5013948
11	0x3e0b1dd4	0.13585597
12	0xbe8497e9	-0.25897148
13	0xbe37ab5a	-0.17936459
14	0x3e87ac5d	0.2649869
15	0x3cbb0bbd	0.022832746
16	0xbe2ff79e	-0.17184302
17	0xbe240dcf	-0.16020893
18	0x3e3f3e59	0.18676127
19	0xbea154a0	-0.31509876
20	0x3e237b67	0.15965043
21	0xbeebbe0a	-0.46043426
22	0x3dcddc95	0.10051838
23	0xbeac22c5	-0.33620277
24	0xbe608939	-0.21927346
25	0x3e3430f1	0.17596795
26	0xbd12d0c4	-0.035843626
27	0xbe1c0e39	-0.152398
28	0xbe7c2419	-0.24623145
29	0xbe415f79	-0.18884076
30	0x3e3413b2	0.17585638
31	0x3e030042	0.12793067
32	0xbe7942ea	-0.24341932
33	0x3e17b485	0.14814956
34	0xbee68e04	-0.45030224
35	0xbec10fd4	-0.37707388
36	0x3e51dab1	0.2049358
37	0xbc5b6b08	-0.013392217
38	0xbe353beb	-0.17698638
39	0x3e8a22f1	0.26979783
40	0xbebbbd35	-0.3666779
41	0x3cbf4d85	0.023352394
42	0x3ebbf80b	0.3671268
43	0xbe80a99c	-0.25129402
44	0xbd24eb8e	-0.040263705
45	0x3e049fa4	0.12951523
46	0xbe79ff83	-0.24413876
47	0xbe24ce8b	-0.16094415
48	0xbe9a0dec	-0.30088747
49	0xbe066e01	-0.131279
50	0xbd82cd26	-0.06386785
51	0x3e603e8f	0.21898864
52	0x3e455caf	0.19273637
53	0x3eeca8ef	0.46222636
54	0x3e078152	0.13232926
55	0xbd7524ab	-0.059849422
56	0xbeb175d0	-0.34660196
57	0xbd70915b	-0.05873237
58	0x3eda4f42	0.42638594
59	0x3b846de8	0.004041422
60	0xbe575fef	-0.2103269
61	0xbd086a8c	-0.033304736
62	0x3d9d2134	0.076723486
63	0xbe91075f	-0.28325936
64	0x3c977ce4	0.01849217
65	0x3ea6a1d3	0.32545337
66	0xbdaafeb5	-0.08349363
67	0x3e98b8a2	0.29828364
68	0xbd470b21	-0.048594598
69	0x3eb19f46	0.34691828
70	0xbd2e8d28	-0.042615086
71	0xbeac58ce	-0.33661503
72	0x3d1ac425	0.037784714
73	0x3ec1f438	0.37881637
74	0x3e909032	0.28235012
75	0x3eb7168e	0.35759395
76	0x3bfd16f8	0.0077236854
77	0xbd876a46	-0.06612067
78	0xbe89db23	-0.26925
79	0x3cf88ec8	0.03034152
80	0xbe47b8ef	-0.1950414
81	0xbe4025ad	-0.18764372
82	0x3ebd3538	0.36954665
83	0xbe6fa3d0	-0.23402333
84	0xbdf21673	-0.11820688
85	0x3e66d990	0.22543931
86	0xbdbe1b45	-0.09282545
87	0xbe0259fe	-0.12729642
88	0x3e249cc6	0.1607543
89	0xbd7d8403	-0.061893474
90	0xbe46a8e8	-0.1940037
91	0x3e12ab01	0.14323045
92	0xbd3c1520	-0.045918584
93	0xbe9b4721	-0.30327705
94	0x3e93bef6	0.2885663
95	0x3cee9c35	0.02912722
96	0xbd83bd4f	-0.06432592
97	0x3ee583a1	0.44826987
98	0xbe85d6a8	-0.26140332
99	0xbe8aba46	-0.2709524
100	0xbd4609e0	-0.04834926
101	0xbb3741de	-0.0027962844
102	0xbe8d6d97	-0.27622673
103	0xbd6e05a3	-0.058110844
104	0x3e7f6d68	0.24944079
105	0x3daf2f2c	0.08553919
106	0x3ea0479a	0.31304628
107	0x3d97ff83	0.07421782
108	0x3e01e02b	0.1268317
109	0xbf00fe23	-0.5038778
110	0x3d9ad70c	0.07560548
111	0xbe98c892	-0.29840523
112	0xbec3ae5b	-0.3821896
113	0xbd6fd7bc	-0.05855535
114	0xbeca04d9	-0.39456823
115	0x3ca130ed	0.01967665
116	0x3e8e203d	0.2775897
117	0x3d7f2138	0.06228754
118	0xbd25a7ec	-0.040443346
119	0xbe1872de	-0.14887568
120	0xbe3f62d7	-0.18690048
121	0xbe34a673	-0.1764162
122	0xbe6818d2	-0.22665718
123	0xbd5e43eb	-0.05426399
124	0xbebf41da	-0.37354928
125	0xbe88425b	-0.26613125
126	0x3e343d8b	0.17601602
127	0x3ebb20bc	0.36548412
128	0x3e160088	0.1464864
129	0xbe13e2eb	-0.14442031
130	0xbf03b7ca	-0.51452315
131	0x3d571105	0.052506465
132	0xbe20ebaf	-0.15714906
133	0x3de58198	0.11206359
134	0x3a8a7f32	0.0010566472
135	0xbea4bef4	-0.32176936
136	0xbeabc7db	-0.33550915
137	0xbd5e9658	-0.054342598
138	0xbceca447	-0.028886927
139	0xbd036be0	-0.0320853
140	0xbc9a4bcf	-0.018834976
141	0x3e45421f	0.19263504
142	0x3db01367	0.08597451
143	0x3eba50f4	0.36389887
144	0x3e30c24f	0.17261623
145	0xbe0e910f	-0.13922523
146	0xbe8642c7	-0.26222822
147	0x3e51d491	0.20491244
148	0x3dca2acb	0.09871443
149	0x3d8d5a61	0.06902004
150	0xbcdc4087	-0.026886238
151	0x3ec8ab51	0.39193204
152	0x3e7553b1	0.23957707
153	0xbe117f69	-0.1420876
154	0x3e051c83	0.12999158
155	0x3e315c61	0.17320396
156	0x3d23f8c5	0.040032167
157	0xbede10c5	-0.4337217
158	0x3e77fc53	0.24217348
159	0x3e44489b	0.19168322
160	0xbe3af62b	-0.18257968
161	0xbe0691b4	-0.13141519
162	0xbe2064c2	-0.15663436
163	0xbef59cac	-0.47971094
164	0xbe0cd330	-0.13752437
165	0xbe39a5c8	-0.18129647
166	0xbe6fd787	-0.23422061
167	0x3da8b9a8	0.08238536
168	0xbd078b44	-0.0330918
169	0xbe1c058a	-0.15236488
170	0x3dcda5c6	0.100413844
171	0xbe9193f9	-0.28433207
172	0xbd837643	-0.06419041
173	0xbedc4d00	-0.43027496
174	0xbdb56a53	-0.0885817
175	0xbd7eab6d	-0.062175203
176	0xbc9194f7	-0.017771227
177	0x3e19f421	0.15034534
178	0xbeb64309	-0.3559802
179	0x3db89887	0.09013467
180	0xbe14e4a9	-0.14540352
181	0x3e460293	0.1933692
182	0x3e93c1c8	0.2885878
183	0x3e4713ed	0.19441195
184	0x3eea1890	0.45721865
185	0x3d975527	0.073892884
186	0x3e162d38	0.14665687
187	0xbdf8fd1a	-0.1215765
188	0xbe3a1038	-0.1817025
189	0x3c2449e2	0.010027381
190	0x3e11cce4	0.14238316
191	0xbe875d6d	-0.26438466
192	0xbb9b5ed4	-0.004741529
193	0x3da7be8a	0.08190639
194	0xbe1b4c78	-0.1516589
195	0xbeda7453	-0.42666873
196	0xbcf0d87d	-0.029400105
197	0x3e3186d9	0.17336597
198	0xbd82ffc6	-0.06396441
199	0x3c2a6669	0.010400393
200	0xbe290c89	-0.16508688
201	0x3cebc7c2	0.028781775
202	0x3e365f8a	0.17809883
203	0x3ea0f324	0.31435502
204	0x3e9f772c	0.31145608
205	0x3ea5e85b	0.32403836
206	0xbcbe140f	-0.023202924
207	0x3ed2cf67	0.4117386
208	0x3de53b01	0.11192895
209	0x3e955a95	0.2917067
210	0x3ea32754	0.31865942
211	0x3ef63afa	0.4809187
212	0x3d82b84d	0.06382809
213	0x3e3d6b83	0.18498044
214	0xbe4aa1a6	-0.19788226
215	0x3e32c40f	0.17457603
216	0x3ea85645	0.32878318
217	0xbe83de1c	-0.25755394
218	0x3e4eaa19	0.20182075
219	0xbd5b9599	-0.053609464
220	0x3e6b7cbb	0.229968
221	0x3ead3601	0.33830264
222	0x3e28073c	0.1640901
223	0xbd4deed7	-0.050276604
224	0xbe5556c0	-0.20833874
225	0xbdd5623d	-0.10419128
226	0x3e647903	0.22311787
227	0x3d6d8cdd	0.057995666
228	0x3f1d9a43	0.6156351
229	0x3e40962c	0.18807286
230	0xbdee1d13	-0.11626639
231	0xbdb925da	-0.09040423
232	0x3b3eeab0	0.0029131584
233	0x3e3206ef	0.17385457
234	0xbe1c3fab	-0.15258662
235	0xbd0ac7e1	-0.033882026
236	0x3e39ae2f	0.18132852
237	0xbe485d49	-0.19566835
238	0xbe3d5bc0	-0.18492031
239	0xbf29c5d6	-0.663175
240	0x3cc1f0d8	0.023674414
241	0xbd7c4cf0	-0.06159681
242	0xbd850612	-0.064952984
243	0x3eaca5e2	0.3372031
244	0x3ea5e7bf	0.3240337
245	0x3e92553e	0.2858066
246	0x3e56f5a8	0.20992148
247	0x3e3547e4	0.17703205
248	0xbe513dc3	-0.20433716
249	0xbde91ee3	-0.11382844
250	0xbe9ae5ca	-0.3025344
251	0xbdf8193d	-0.12114189
252	0x3cb06594	0.021532811
253	0xbe768c72	-0.24077013
254	0x3e670180	0.22559166
255	0x3ade0a8d	0.00169404

layers.0.bn2.weight f4 [32]
0	0x3f574e9f	0.8410434
1	0x3f5ff638	0.87485075
2	0x3f6278cf	0.8846559
3	0x3f6b280b	0.91857976
4	0x3f9d0b09	1.2268993
5	0x3f88e975	1.0696245
6	0x3f8a31b3	1.0796417
7	0x3fb2a20f	1.3955706
8	0x3f59976f	0.84996694
9	0x3fbbaa8c	1.4661422
10	0x3f958ca7	1.1683549
11	0x3f963cdf	1.1737326
12	0x3f88a4be	1.0675275
13	0x3faea19b	1.3643068
14	0x3f8dc16b	1.1074651
15	0x3f657a83	0.89640063
16	0x3fa4443e	1.2833326
17	0x3fa589fe	1.2932737
18	0x3f873596	1.0563228
19	0x3f82d34b	1.0220731
20	0x3f8855bd	1.0651165
21	0x3f44e681	0.7691422
22	0x3f69d347	0.9133801
23	0x3f5ebe65	0.8700927
24	0x3f68d58d	0.9095085
25	0x3f528b83	0.8224413
26	0x3f816202	1.0108035
27	0x3f93567f	1.1510772
28	0x3f61ade1	0.88155943
29	0x3f994831	1.1975156
30	0x3f63c717	0.8897566
31	0x3f9d0146	1.2266014

layers.0.bn2.bias f4 [32]
0	0x3d3270c8	0.043564588
1	0x3e12def5	0.14342864
2	0x3e0c2c59	0.13688792
3	0x3d6f9941	0.058495764
4	0xbe551101	-0.20807268
5	0xbdf1340f	-0.117775075
6	0xbcb4d225	-0.022072861
7	0xbd137371	-0.035998765
8	0x3de4d85b	0.11174079
9	0x3e16d54d	0.14729805
10	0x3c8761c2	0.016526107
11	0x3e660e62	0.22466424
12	0xbd13a518	-0.036046118
13	0xbd0a5ecc	-0.03378181
14	0xbe466c5a	-0.1937727
15	0x3e493fd4	0.19653255
16	0x3e41f95d	0.18942781
17	0xbdbe4cb0	-0.09291971
18	0x3ebe8018	0.37207103
19	0x3de13c21	0.10997797
20	0x3e3f95bc	0.18709463
21	0x3c86baeb	0.016446551
22	0x3ed7f510	0.42179155
23	0x3d9de4d4	0.07709661
24	0xbd9933ba	-0.07480569
25	0x3cbe21fc	0.023209564
26	0xbdcf7162	-0.10129048
27	0x3d5fdab4	0.05465193
28	0x3deff87f	0.11717319
29	0xbe5b6615	-0.2142566
30	0x3eba74bd	0.3641719
31	0xbe25e17f	-0.16199301

layers.0.bn2.running_mean f4 [32]
0	0x3f21e8b8	0.63245726
1	0x3e240eda	0.1602129
2	0xbeab63c3	-0.3347455
3	0xbf081bbf	-0.5316734
4	0xbd0537c7	-0.032523897
5	0x3d4a3285	0.049364585
6	0xbc45125b	-0.012028302
7	0x3de79e0c	0.11309442
8	0x3e81e4a4	0.2536975
9	0xbcb74242	-0.022370461
10	0x3ddbcf0d	0.10732851
11	0x3d338638	0.043829173
12	0xbee0340c	-0.4378971
13	0xbe8a483d	-0.27008238
14	0xbbe58288	-0.007004086
15	0xbd67da59	-0.056604717
16	0x3e67472a	0.2258574
17	0xbd93056f	-0.07178771
18	0xbea41688	-0.3204844
19	0xbec896cb	-0.39177546
20	0x3ea40f1e	0.32042783
21	0xbdf35157	-0.11880749
22	0x3e6d8517	0.23195301
23	0x3f359c53	0.70941657
24	0x3e9dc198	0.30811763
25	0x3ec252b1	0.37953714
26	0xbeffbe81	-0.4995003
27	0x3e1b43ef	0.15162633
28	0xbda1c686	-0.078991935
29	0xbcd55827	-0.02604301
30	0x3e60b109	0.21942534
31	0x3db846b0	0.089978576

layers.0.bn2.running_var f4 [32]
0	0x3f69ad23	0.9127981
1	0x3e0e1239	0.13874139
2	0x3e2f93d2	0.17146233
3	0x3e8f0def	0.27940318
4	0x3e372958	0.17886865
5	0x3e0adb25	0.1356016
6	0x3da93f87	0.0826407
7	0x3d828b7d	0.063742615
8	0x3df39d97	0.11895292
9	0x3cf00083	0.029297119
10	0x3f8b12a1	1.086506
11	0x3cd47599	0.025934981
12	0x3e919c5b	0.28439602
13	0x3e3a0502	0.18165973
14	0x3dce6377	0.10077565
15	0x3d8fc5c5	0.070201434
16	0x3e58f0b9	0.21185578
17	0x3d353cb7	0.044247355
18	0x3e82d9d4	0.25556815
19	0x3e8aaec4	0.2708646
20	0x3e5a453b	0.21315472
21	0x3d264571	0.04059357
22	0x3e5e9e7f	0.21740149
23	0x3f03a050	0.5141649
24	0x3dcb106a	0.0991524
25	0x3e598778	0.21243083
26	0x3e9b693e	0.3035373
27	0x3ed29698	0.4113052
28	0x3cf5b961	0.029995622
29	0x3e1e9c62	0.15489343
30	0x3dfa41da	0.122195914
31	0x3db44281	0.08801747

layers.0.conv3.weight f4 [12, 32, 1, 1]
0	0x3c800775	0.015628556
1	0xbe0b5d10	-0.1360972
2	0xbe0f0ad0	-0.13968968
3	0xbe152868	-0.14566195
4	0xbde83e58	-0.11340016
5	0x3e2d4927	0.16922437
6	0xbd911363	-0.07083776
7	0xbdbc512b	-0.09195169
8	0x3e3e76bb	0.1859998
9	0xbe48f2dd	-0.19623895
10	0xbdef9754	-0.116987854
11	0x3e84d3e3	0.25942907
12	0xbd918bbc	-0.0710673
13	0x3e9dab9e	0.30794996
14	0x3e2b43d9	0.167251
15	0x3e3fca19	0.18729438
16	0x3c03a269	0.008034327
17	0x3d803c3c	0.06261489
18	0x3e2646fe	0.16238019
19	0x3d8f374a	0.069929674
20	0xbe4bfa8e	-0.19919798
21	0x3e263364	0.16230541
22	0x3d66e98c	0.05637507
23	0x3e61fb09	0.22068419
24	0xbdb4701c	-0.08810446
25	0xbe158ce4	-0.14604527
26	0x3e176eae	0.14788315
27	0x3e00ff43	0.12597375
28	0x3e35003b	0.17675869
29	0xbddf9b8d	-0.10918341
30	0x3e50792c	0.20358723
31	0xbe9b12ee	-0.3028788
32	0x3d11c291	0.035585944
33	0x3dfffa21	0.1249888
34	0xbd8c4c63	-0.06850507
35	0xbe5171b2	-0.20453528
36	0x3e198784	0.14993101
37	0x3e6bde1c	0.23033947
38	0xbe625caa	-0.22105661
39	0xbe0b0686	-0.13576707
40	0xbd5b402b	-0.053527992
41	0x3e9a3591	0.30118993
42	0x3e693e0e	0.22777578
43	0x3c9ee31e	0.019395407
44	0x3e0d25ee	0.13784
45	0x3da1f97a	0.07908912
46	0x3e443837	0.1916207
47	0x3e9670dc	0.2938298
48	0xbe50a70b	-0.20376222
49	0xbe1c3673	-0.15255146
50	0x3e110c34	0.14164811
51	0x3d969fc0	0.07354689
52	0xbe228780	-0.15872002
53	0x3da77605	0.08176807
54	0x3d79adb6	0.06095668
55	0xbe2b174c	-0.16708106
56	0xbe00df68	-0.12585223
57	0xbe024a4a	-0.12723652
58	0x3e6c741f	0.23091172
59	0xbab49472	-0.001377715
60	0xbd8b0876	-0.06788723
61	0xbe8b655a	-0.27225763
62	0xbd0a7c4c	-0.033809945
63	0x3e120b5f	0.1426215
64	0xbdbd0ea4	-0.09231308
65	0x3e2475a9	0.16060509
66	0x3c936ac9	0.017995255
67	0x3d685b22	0.056727536
68	0xbe926f02	-0.28600317
69	0x3d917550	0.07102454
70	0x3cdc147e	0.02686524
71	0xbea9576b	-0.33074507
72	0xbc017161	-0.007900567
73	0xbc9a1f4a	-0.018813748
74	0xbda4efd1	-0.08053554
75	0xbe255d38	-0.16148841
76	0xbe7d9850	-0.24765134
77	0x3ebc35dd	0.36759844
78	0x3e7034b0	0.23457599
79	0xbd2c6316	-0.042086683
80	0xbc52b2cf	-0.012860014
81	0xbda4e414	-0.08051315
82	0xbdf44d8f	-0.11928856
83	0xbe2d45d5	-0.1692117
84	0xbcaa748e	-0.02080753
85	0x3da6acca	0.08138426
86	0x3e06239d	0.13099523
87	0xbe88417b	-0.26612458
88	0x3de5fe33	0.11230125
89	0x3dcb6c94	0.09932819
90	0xbd84b242	-0.064793125
91	0x3e3ca797	0.18423305
92	0xbdca86ec	-0.098890156
93	0xbeab61ae	-0.3347296
94	0x3cc78d52	0.024359379
95	0xbe2581a9	-0.16162743
96	0x3dd51b34	0.10405579
97	0x3dbd2fdf	0.09237646
98	0xbdb37e91	-0.08764375
99	0x3c3e5f4c	0.0116194
100	0xbebb8a39	-0.36628893
101	0x3e12a956	0.14322409
102	0xbd7d3d07	-0.06182578
103	0x3da27a78	0.07933515
104	0x3e30c737	0.17263494
105	0xbebf125d	-0.37318698
106	0xbea9837f	-0.33108136
107	0x3c8b13dc	0.016977243
108	0xbc6fb35e	-0.014630167
109	0x3e87bcc5	0.26511207
110	0x3d4a6cdc	0.049420223
111	0x3e4240e2	0.18970063
112	0x3c24ad84	0.010051135
113	0xbdb4ec12	-0.08834089
114	0xbe34850f	-0.17628883
115	0x3e553597	0.20821224
116	0x3d9e96a3	0.077435754
117	0x3e01c13a	0.12671366
118	0x3e7eb5c8	0.24874032
119	0x3d61c1b0	0.055116355
120	0x3db98f92	0.09060587
121	0x3e15ed42	0.14641288
122	0x3e749510	0.23884988
123	0xbd61f8de	-0.05516898
124	0x3db02c2c	0.08602175
125	0xbe0924e0	-0.13392973
126	0x3dd292ea	0.10281928
127	0x3e400c42	0.18754676
128	0xbdd6c90c	-0.104875654
129	0x3e5db432	0.2165077
130	0xbd98e8c4	-0.074662715
131	0xbe3c1091	-0.18365695
132	0x3ca8e3b0	0.020616382
133	0x3e225196	0.15851435
134	0xbe65e60f	-0.22451042
135	0x3eae0dbe	0.3399486
136	0x3d4c6626	0.049902104
137	0x3bb456cb	0.0055035106
138	0x3dfffc9a	0.12499352
139	0xbe38ae1d	-0.18035169
140	0x3e52085e	0.20511004
141	0x3ce980a1	0.028503718
142	0x3e55ff89	0.2089826
143	0xbdd1e771	-0.10249222
144	0x3dac11c3	0.08401825
145	0xbdafe676	-0.08588879
146	0x3e7a7fd4	0.24462825
147	0xbd8718b1	-0.065965064
148	0x3ddd55a8	0.10807353
149	0x3d6eff4e	0.058348946
150	0x3ceb01e7	0.02868743
151	0xbdc05a70	-0.093922496
152	0x3e676b4b	0.22599523
153	0xbcc1a78f	-0.023639468
154	0x3dc09b40	0.094046116
155	0x3daaf260	0.083470106
156	0xbdd16814	-0.102249295
157	0xbe9c45bf	-0.30521962
158	0x3e82111f	0.25403687
159	0xbd4b25bc	-0.049596533
160	0xbea47c10	-0.32125902
161	0xbdf10569	-0.1176861
162	0x3e144d77	0.14482675
163	0xbd39bac9	-0.045344148
164	0xbe251c16	-0.16123995
165	0xbe6f9f37	-0.2340058
166	0xbddf75c2	-0.109111324
167	0xbdfaf3ab	-0.12253507
168	0xbda949b3	-0.0826601
169	0xbe43b1b3	-0.19110756
170	0xbe187f79	-0.14892377
171	0x3c23cf3a	0.009998137
172	0x3eb5e0b0	0.35522985
173	0x3e122aa7	0.14274083
174	0xbead76b4	-0.33879626
175	0x3cc1c96d	0.023655618
176	0xbcd24132	-0.025665853
177	0xbd96349a	-0.07334252
178	0x3d9eb56f	0.077494495
179	0x3e4916db	0.19637625
180	0xbd092ab3	-0.033487987
181	0xbb14d6d7	-0.0022711062
182	0xbe601652	-0.21883515
183	0xbe0bf52b	-0.13667743
184	0x3d0ceeaa	0.034407295
185	0x3e06a549	0.13148989
186	0x3e007f34	0.12548524
187	0xbdf6a831	-0.12043799
188	0x3de9ac44	0.1140981
189	0x3e120f32	0.14263609
190	0x3b4aeb30	0.0030962937
191	0xbe327018	-0.17425573
192	0x3de07cd8	0.10961312
193	0x3c23bc32	0.0099936
194	0x3d6c6674	0.057714894
195	0x3e233a45	0.15940197
196	0x3e0c4c3b	0.13700955
197	0x3d246348	0.040133744
198	0x3dcd2998	0.10017699
199	0xbe54d9b6	-0.20786175
200	0x3c37215a	0.011177385
201	0x3e9c8be4	0.30575478
202	0x3e2f229c	0.17103046
203	0xbe39f2f2	-0.18159083
204	0x3d905d3e	0.070490345
205	0xbebf912e	-0.3741545
206	0xbe0922fe	-0.13392255
207	0x3e146d3e	0.14494798
208	0x3eb7e796	0.35918874
209	0x3cdcc0fb	0.026947489
210	0x3e3375c7	0.17525397
211	0x3dda7fc7	0.10668903
212	0xbe7642bf	-0.24048899
213	0xbdbb5b6d	-0.091482975
214	0xbd2b51e5	-0.041826148
215	0xbe1562eb	-0.14588515
216	0x3e1c1a67	0.15244447
217	0x3d9a7a4e	0.07542859
218	0x3de9fa99	0.11424751
219	0xbc73d1d9	-0.014881575
220	0x3e832c17	0.25619575
221	0x3d9d39e0	0.076770544
222	0x3d9e3961	0.07725788
223	0xbe5ce7b0	-0.21572757
224	0xbe142840	-0.14468479
225	0xbd949799	-0.072554775
226	0x3dbda9ce	0.09260903
227	0xbe803022	-0.25036722
228	0x3e4937f3	0.19650249
229	0xbb73120c	-0.0037089614
230	0x3e609e3f	0.21935366
231	0x3db6dac0	0.08928442
232	0x3e686c95	0.22697671
233	0x3e36f15b	0.17865507
234	0x3e505d7c	0.20348161
235	0x3df7e66e	0.12104498
236	0xbd6e3895	-0.05815943
237	0x3dbccc14	0.09218612
238	0x3e26e9cc	0.16300124
239	0xbdbd205c	-0.09234688
240	0x3cc6df56	0.024276417
241	0x3d2a3a70	0.041559637
242	0xbea4e388	-0.32204843
243	0x3e0e2eae	0.13884994
244	0xbe42b02b	-0.19012515
245	0x3e0fc3f2	0.14039591
246	0x3e9225ce	0.28544468
247	0xbe15b0d8	-0.14618242
248	0xbdfcea28	-0.12349349
249	0x3e07d235	0.13263781
250	0x3e0097b8	0.12557876
251	0x3c3928d0	0.011301234
252	0xbe4094bb	-0.18806736
253	0xbdc5632a	-0.09638055
254	0x3d67ca09	0.05658916
255	0x3d8a4913	0.06752219

layers.0.bn3.weight f4 [12]
0	0x3f72e7ff	0.9488525
1	0x3f73effa	0.9528805
2	0x3f848490	1.0352955
3	0x3f8c0b32	1.0940917
4	0x3f7d180f	0.98864836
5	0x3f86a7d4	1.0519967
6	0x3f8d3e2d	1.10346
7	0x3f6e9f00	0.93211365
8	0x3f758b50	0.959157
9	0x3f7c7647	0.98617977
10	0x3f85a796	1.0441768
11	0x3f74bef4	0.9560387

layers.0.bn3.bias f4 [12]
0	0xbcfaed18	-0.030630633
1	0xbdb49a03	-0.08818438
2	0xbdb53e61	-0.088497885
3	0x3d8639ac	0.06553969
4	0xbc4e24e0	-0.012582034
5	0x3d96007d	0.07324312
6	0xbd53abf2	-0.05167765
7	0x3d8524bd	0.06501148
8	0x3d27898c	0.04090266
9	0xbdacc9ea	-0.084369496
10	0x3dd1d679	0.102459855
11	0xbe337abd	-0.1752729

layers.0.bn3.running_mean f4 [12]
0	0x3ea956bc	0.33073986
1	0x3e5ff320	0.21870089
2	0xbed0dda8	-0.4079411
3	0x3eb1c3e2	0.3471976
4	0x3ee7b95e	0.4525861
5	0xbeb6ca5e	-0.3570127
6	0x3ef68991	0.4815183
7	0x3e9441c9	0.2895644
8	0xbe2dca83	-0.16971783
9	0xbf13e797	-0.57775253
10	0xbe437134	-0.19086152
11	0xbf1691ec	-0.5881641

layers.0.bn3.running_var f4 [12]
0	0x3ed9ecad	0.42563382
1	0x3e936153	0.2878519
2	0x3f064621	0.5245076
3	0x3ee3dc20	0.4450388
4	0x3efce645	0.49394432
5	0x3efeb01e	0.49743742
6	0x3ee60c87	0.44931433
7	0x3e99b735	0.30022588
8	0x3ea200a6	0.3164112
9	0x3eeabfc1	0.45849422
10	0x3edb0067	0.42773744
11	0x3ebe536d	0.37173024

layers.1.conv1.weight f4 [60, 12, 1, 1]
0	0xbdd64870	-0.10463035
1	0xbe0be392	-0.1366103
2	0x3792b211	1.7487475e-05
3	0xbe83cbc8	-0.2574141
4	0xbe446c10	-0.19181848
5	0x3ec4a884	0.38409817
6	0x3e12e41f	0.14344834
7	0xbdb4c685	-0.08826927
8	0x3dc68c7a	0.096947625
9	0x3e050701	0.12990953
10	0x3e13ebd8	0.14445436
11	0x3e2a028d	0.16602536
12	0x3ef693db	0.4815968
13	0xbd9421aa	-0.072329834
14	0xbe6e986d	-0.23300333
15	0x3de471ec	0.111545414
16	0xbe750034	-0.23925859
17	0xbe5d3bba	-0.21604815
18	0xbe2d3fbd	-0.16918845
19	0x3e71037b	0.23536484
20	0x3e1ed0aa	0.15509287
21	0x3e5318c1	0.20614912
22	0xbdbc3560	-0.09189868
23	0xbda88032	-0.08227576
24	0xbe08d11e	-0.13361022
25	0x3e148383	0.14503293
26	0xbd265f92	-0.040618487
27	0xbdb722dc	-0.08942196
28	0x3e678bce	0.22611925
29	0xbe134499	-0.14381637
30	0xbeec4ba6	-0.46151465
31	0xbcef4846	-0.029209267
32	0xbdb3d377	-0.08780568
33	0xbedb83b1	-0.4287391
34	0xbe4e9e7b	-0.20177643
35	0x3dd9b2b4	0.10629788
36	0xbeae3834	-0.34027255
37	0xbe65d29d	-0.22443624
38	0xbeac9c91	-0.337132
39	0x3e8787c7	0.26470777
40	0x3dff6c3f	0.12471818
41	0x3d628e1a	0.0553113
42	0x3e82f94d	0.25580826
43	0x3c95c237	0.018281085
44	0x3e80721b	0.25087056
45	0xbe73295d	-0.23746248
46	0xbeaeab89	-0.34115246
47	0x3e5703f6	0.20997605
48	0x3dca76f5	0.098859705
49	0xbe1f2f6f	-0.15545438
50	0x3e8a2a39	0.26985338
51	0x3d2db09b	0.042404752
52	0xbe90a8cf	-0.2825379
53	0x3d9c6782	0.0763693
54	0x3c898dd4	0.016791262
55	0x3d86b221	0.06576944
56	0x3e5b24c7	0.21400748
57	0xbe0e4ebf	-0.13897227
58	0x3ed8bb76	0.4233052
59	0x3d05ad04	0.032635704
60	0xbd67303d	-0.056442488
61	0xbdc027a4	-0.09382561
62	0xbe879b06	-0.2648546
63	0x3e02d221	0.1277547
64	0x3ea0c9d9	0.31403998
65	0x3dc035e0	0.09385276
66	0xbdbb1632	-0.09135093
67	0x3e059128	0.13043654
68	0x3e3d9aa7	0.18516026
69	0x3e97a57e	0.29618448
70	0xbcff56ba	-0.031169284
71	0xbe8a847d	-0.27054206
72	0x3ed4c8f2	0.4155956
73	0x3e8577d1	0.26067975
74	0x3c137587	0.009000189
75	0x3d84e255	0.06488482
76	0xbdfbffec	-0.123046726
77	0x3dc76202	0.097354904
78	0xbe3c420c	-0.1838457
79	0x3e86046b	0.26175246
80	0xbe8e7401	-0.2782288
81	0x3e0b4319	0.13599814
82	0x3cdef64a	0.02721705
83	0x3d48a5e3	0.048986327
84	0x3e18e3ad	0.14930601
85	0xbda45e30	-0.08025777
86	0x3c9b6ec2	0.018973712
87	0x3d3b930f	0.045794543
88	0x3ebb06e2	0.3652869
89	0x3eb6361f	0.35588166
90	0x3d09bfdc	0.033630237
91	0x3dbd0a9e	0.09230541
92	0x3e91b903	0.28461465
93	0xbe409165	-0.18805464
94	0xbdc40a54	-0.095722824
95	0x3e8027b3	0.25030288
96	0xbdfe1b82	-0.124075904
97	0xbd6bc076	-0.057556592
98	0xbe32aa9b	-0.17447893
99	0xbea5d050	-0.32385492
100	0xbcc1b18e	-0.023644235
101	0x3e9125f4	0.28349268
102	0xbd396357	-0.045260753
103	0xbe578393	-0.21046285
104	0x3e38a74e	0.18032572
105	0xbdbaee66	-0.09127502
106	0xbeb00d3b	-0.34385094
107	0x3e47cb7c	0.19511217
108	0xbef0f625	-0.47062793
109	0x3e6a2ab4	0.22867852
110	0x3ddaedf1	0.10689915
111	0xbd289122	-0.041154034
112	0xbdedf78c	-0.116194814
113	0x3e5b0a27	0.21390592
114	0x3cb3b8d1	0.021938713
115	0x3e7f5515	0.249348
116	0x3e528132	0.20557097
117	0x3c88c112	0.016693626
118	0x3e9d5de2	0.3073569
119	0xbeb941fd	-0.36183158
120	0x3e00386e	0.12521526
121	0xbd00fcf0	-0.03149122
122	0xbe3c36fa	-0.18380347
123	0xbe966c10	-0.2937932
124	0xbea19d95	-0.31565538
125	0xbe62a592	-0.22133473
126	0xbe83e89c	-0.25763404
127	0x3ea08084	0.3134805
128	0xbe43248d	-0.19056912
129	0xbee4609b	-0.44604954
130	0x3dc6d802	0.09709169
131	0xbc35340c	-0.011059772
132	0x3d7e93d8	0.062152714
133	0xbd822161	-0.06354023
134	0x3eb004fc	0.34378803
135	0x3dc04eb1	0.09390009
136	0x3eaa630a	0.33278686
137	0x3e27399a	0.16330567
138	0x3e4429ca	0.19156566
139	0xbe4d5115	-0.20050462
140	0xbe4c476e	-0.19949123
141	0x3eddf998	0.43354487
142	0x3e3b6ccb	0.1830322
143	0xbe9338c3	-0.28754243
144	0x3edc15b1	0.429853
145	0xbd076a3f	-0.03306031
146	0xbe69ab62	-0.22819284
147	0x3d1d2e4c	0.03837423
148	0x3de23cc2	0.11046745
149	0x3ead9861	0.33905318
150	0xbd495111	-0.049149577
151	0x3de4a91b	0.11165067
152	0x3e5c439b	0.21510164
153	0xbe41eae1	-0.18937255
154	0xbc70fceb	-0.014708738
155	0x3eaf5dee	0.3425135
156	0xbeb51eaf	-0.35374972
157	0xbe6ad7c3	-0.22933869
158	0x3e9611dc	0.293105
159	0xbde6f980	-0.11278057
160	0xbdea1281	-0.114293106
161	0x3e081ca5	0.13292177
162	0xbd1bfe16	-0.038084112
163	0x3d365550	0.044514954
164	0x3daee352	0.08539452
165	0x3ef2f189	0.47449902
166	0x3be1cb57	0.006890695
167	0x3d9349ab	0.071917854
168	0xbd64217e	-0.055696003
169	0xbe057e7d	-0.13036533
170	0x3d177b13	0.036982607
171	0x3df2d99b	0.11857911
172	0xbdef27a0	-0.1167748
173	0x3e048fc3	0.12945466
174	0xbea3ef59	-0.32018545
175	0xbe0ce85b	-0.13760512
176	0x3e74611f	0.23865174
177	0xbd5da0f4	-0.054108575
178	0x3f024bcc	0.50896907
179	0xbd95c0a9	-0.07312138
180	0xbe7aac5f	-0.24479817
181	0xbe419c42	-0.18907264
182	0x3db7f863	0.08982923
183	0x3ded527f	0.115880005
184	0x3ea79a2b	0.32734808
185	0x3c64c73a	0.013963515
186	0x3e41d6fa	0.18929663
187	0xbe09b66e	-0.13448498
188	0xbee4302e	-0.44568008
189	0xbd181eaf	-0.037138637
190	0xbdddece0	-0.10836196
191	0x3ba3ce6e	0.0049989736
192	0xbdf3799b	-0.11888429
193	0x3d7b2dba	0.061322905
194	0xbe509704	-0.20370108
195	0xbd7b569e	-0.0613619
196	0xbeb95079	-0.36194208
197	0x3dbfd4f7	0.09366792
198	0xbdde2352	-0.108465806
199	0xbedd648a	-0.43240768
200	0x3e33fd35	0.1757706
201	0xbe332e9f	-0.17498253
202	0x3e8cbf6d	0.27489796
203	0x3d62e3e0	0.0553931
204	0xbcb31c42	-0.02186406
205	0x3e02c2d1	0.12769629
206	0xbf0e3e34	-0.55563664
207	0xbe0601d6	-0.13086638
208	0xbd65acd6	-0.056073032
209	0x3d1e2684	0.03861095
210	0x3dfdefaa	0.12399228
211	0xbe1a49be	-0.15067193
212	0x3e896354	0.26833594
213	0x3e0a532c	0.1350829
214	0xbbf620de	-0.0075112423
215	0x3daf7eae	0.08569084
216	0xbec87397	-0.39150688
217	0x3d523bff	0.051326748
218	0xbe649ed4	-0.22326213
219	0x3ddab835	0.10679666
220	0x3cd7564f	0.026286272
221	0x3d468d21	0.048474435
222	0xbeb66204	-0.35621655
223	0x3e6de71c	0.23232692
224	0xbdacc86b	-0.08436664
225	0x3e928f32	0.28624874
226	0xbe93fdb3	-0.28904495
227	0x3cc8df8e	0.024520662
228	0x3d3c4278	0.045961827
229	0x3e074037	0.1320809
230	0xbe1c1fd6	-0.1524652
231	0x3e8ef363	0.27920064
232	0xbdaa99ae	-0.08330093
233	0x3df264fb	0.11835667
234	0x3e46c0c4	0.19409472
235	0x3d4cbed4	0.049986675
236	0x3eb6bbdd	0.35690203
237	0x3d8ee6be	0.06977604
238	0x3e3417de	0.1758723
239	0xbe1475c1	-0.14498045
240	0xbcd80f05	-0.02637435
241	0xbf00ccef	-0.50312704
242	0xbcab1d08	-0.020887867
243	0xbe0fff1b	-0.14062159
244	0x3d86504d	0.06558285
245	0x3d558d6a	0.052136816
246	0x3e620c64	0.22075039
247	0xbcfe69ac	-0.031056248
248	0xbed51cac	-0.41623437
249	0x3da9e52e	0.08295666
250	0x3e550e5d	0.2080626
251	0x3ddf4730	0.1090225
252	0xbd017a5e	-0.03161084
253	0x3d1251d1	0.035722557
254	0x3e48dbe0	0.19615126
255	0x3e5b1ef4	0.21398526

layers.1.bn1.weight f4 [60]
0	0x3f5bd1f1	0.8586722
1	0x3f680eee	0.9064778
2	0x3f668817	0.90051407
3	0x3f4490c9	0.76783425
4	0x3f53193d	0.82460386
5	0x3feec60a	1.8654187
6	0x3f57b512	0.84260666
7	0x3fc2fa8a	1.5232708
8	0x3f944021	1.158207
9	0x3f009ebe	0.5024222
10	0x3f43e1d3	0.76516455
11	0x3f8e35da	1.1110184
12	0x3f90f18e	1.1323717
13	0x3f301447	0.6878094
14	0x3fad5999	1.3542968
15	0x3f9baba5	1.2161757
16	0x3f4f72d3	0.8103458
17	0x3f7f5146	0.9973339
18	0x3f811bd1	1.0086614
19	0x3fc1a89e	1.5129583
20	0x3f975637	1.1823186
21	0x3f679525	0.9046195
22	0x3f9f7453	1.2457374
23	0x3f555715	0.83336
24	0x3fcf71d2	1.620661
25	0x3f847bd7	1.0350293
26	0x3f74ce66	0.9562744
27	0x3f0b7339	0.5447269
28	0x3f2f446e	0.6846379
29	0x3f9906a8	1.1955156
30	0x3f5175da	0.8182045
31	0x3f4e9c11	0.8070689
32	0x3f64f7ed	0.89440805
33	0x3f6677ed	0.9002674
34	0x3f23f7c5	0.6404994
35	0x3f915f20	1.1357155
36	0x3ede4c1a	0.43417436
37	0x3f5aab0f	0.85417265
38	0x3f7940cb	0.9736449
39	0x3fad94fe	1.3561094
40	0x3f94914e	1.1606843
41	0x3f87e09e	1.0615423
42	0x3fa00472	1.2501357
43	0x3f71e3e2	0.94488347
44	0x3f4a7511	0.7908488
45	0x3f1721e9	0.5903612
46	0x3ef135e6	0.47111434
47	0x3f912153	1.1338295
48	0x3f8d8da6	1.1058853
49	0x3f8adce4	1.084866
50	0x3f01eb5a	0.50749743
51	0x4003a9ba	2.0572343
52	0x3f558207	0.8340153
53	0x3f588875	0.84583217
54	0x3f83e2b1	1.0303556
55	0x3f888385	1.0665137
56	0x3f58767c	0.8455579
57	0x3f5ecf98	0.8703551
58	0x3f56ad3d	0.8385809
59	0x3f31a036	0.6938509

layers.1.bn1.bias f4 [60]
0	0x3e933645	0.28752342
1	0xbe09cd2e	-0.13457176
2	0xbddeaa22	-0.10872294
3	0x3e83768f	0.2567639
4	0xbe95d27d	-0.29262152
5	0xbe915c80	-0.28390884
6	0x3e4eaa2b	0.20182101
7	0xbc85ac12	-0.016317401
8	0xbd0d36e6	-0.034476183
9	0x3edd5737	0.43230602
10	0xbeaa07b1	-0.33208993
11	0x3ca048c6	0.019565951
12	0x3df35c87	0.118828826
13	0x3e9d638f	0.3074002
14	0xbe0215ef	-0.1270368
15	0x3d165d7a	0.03671024
16	0x3e855e6b	0.26048598
17	0x3d2da027	0.04238906
18	0xbdbb5045	-0.091461696
19	0x3e1acfe0	0.1511836
20	0x3c4fd414	0.012684841
21	0xbe057985	-0.13034637
22	0x3a9888cb	0.0011637447
23	0xbdf47067	-0.119355015
24	0xbe86d78c	-0.26336324
25	0x3e850d85	0.25986877
26	0xbd59bef8	-0.053160638
27	0x3ed16761	0.40899184
28	0x3e6ac8f2	0.22928217
29	0x3cc89a2b	0.024487576
30	0xbdc3a4d9	-0.095529266
31	0x3e9df6f4	0.30852473
32	0x3e8ca990	0.27473116
33	0x3e527228	0.2055136
34	0x3ec247c5	0.3794538
35	0x3d808621	0.06275583
36	0x3ef51fae	0.47875732
37	0xbe57be9a	-0.21068802
38	0xbe9e11c9	-0.30872944
39	0x3af0d436	0.0018373791
40	0x3e2666e3	0.16250186
41	0x3e149ae3	0.1451221
42	0x3ef8c89d	0.48590556
43	0xbd131321	-0.035906915
44	0x3e76ac0a	0.24089065
45	0x3ec4fd76	0.38474625
46	0x3f03140e	0.51202476
47	0x3e3a2cce	0.18181154
48	0x3e2ae98e	0.16690657
49	0xbd9c961c	-0.076458186
50	0x3ee72c5e	0.45151037
51	0x3dd812e5	0.10550479
52	0x3e697957	0.22800194
53	0xbe62e37d	-0.22157092
54	0x3d7e818b	0.06213526
55	0x3e401005	0.18756111
56	0x3f000d13	0.5001995
57	0x3e40460d	0.18776722
58	0x3e76bfd5	0.24096616
59	0x3ed66ddd	0.41880694

layers.1.bn1.running_mean f4 [60]
0	0xbba965b7	-0.005169596
1	0x3cd2b311	0.025720151
2	0xbc273f7f	-0.01020801
3	0x3ccf8fce	0.025337126
4	0x3d75102d	0.05982988
5	0x3dacb61a	0.084331706
6	0xbcd0d4a9	-0.02549203
7	0x3b41b271	0.0029555822
8	0xbd282a19	-0.041055772
9	0x3dec37b2	0.115340605
10	0x3d714f61	0.058913592
11	0xbc2568d5	-0.010095795
12	0x3c160022	0.009155305
13	0xbd096f0a	-0.03355316
14	0x3dec1f43	0.115294
15	0xbccb448b	-0.024812957
16	0x3d2b9363	0.041888606
17	0x3b004a68	0.00195756
18	0x3c21d1e6	0.009876704
19	0x3d958e05	0.07302479
20	0x3bd3e054	0.006465951
21	0xbd28de4d	-0.041227628
22	0x3d168005	0.036743183
23	0x3d31a055	0.043365795
24	0x3cde218c	0.027115606
25	0xbb9ad876	-0.004725511
26	0x3c0214aa	0.007939497
27	0x3e178767	0.14797746
28	0x3cb2082d	0.021732414
29	0xbd0ee05a	-0.034881927
30	0x3c3a7bcd	0.0113820555
31	0x3ca6cf21	0.020362439
32	0xbce693de	-0.02814668
33	0x3cfbb1d0	0.030724436
34	0x3c99319c	0.018700413
35	0xbd01eae0	-0.031718135
36	0x3c3c7c47	0.011504239
37	0xbd61389d	-0.05498563
38	0xbd24b99c	-0.040216073
39	0x3d33cf2d	0.04389875
40	0xbd4ad66b	-0.04952089
41	0x3c1c6f16	0.009547969
42	0xbd2bca02	-0.041940697
43	0x3d9b5c66	0.07585983
44	0xbdc9d22c	-0.0985454
45	0xbda104a7	-0.078622155
46	0x3c2654d3	0.01015206
47	0x3d83d55b	0.06437179
48	0xbd564f49	-0.052321706
49	0x3df48dc2	0.11941101
50	0xbdf32550	-0.11872351
51	0xbdda2e90	-0.10653412
52	0xbd616c31	-0.05503482
53	0xbdbde244	-0.09271672
54	0x3bb9c766	0.005669522
55	0x3cabd0bc	0.020973556
56	0x3d2d65c8	0.042333394
57	0x3d96d0a1	0.073640116
58	0xbd8f6f97	-0.07003706
59	0x3bcaf3dd	0.0061936215
