Project/Project_files/ckpt/mobilenetv2_19_5/mobilenetv2_19_5_27.pt (torch, 52267 bytes, 52 tensors)

conv1.weight f4 [32, 3, 3, 3]
000000 40 67 22 be 96 44 66 be 42 c1 9d bd 56 10 81 3d
       -0.15859699 -0.22487101 -0.077028766 0.06301944
000010 2d fe eb bd 53 05 07 3e 68 ad 0a bd ce 14 57 be
       -0.115230896 0.13185625 -0.03385678 -0.2100403
000020 a2 3e ff bd 13 d2 c6 3d c2 c5 3d 3e 46 02 26 bd
       -0.12463118 0.09708037 0.1853247 -0.040529512
000030 60 b4 c0 bd 47 11 ed 3d ef be 11 be 3f 27 24 3e
       -0.09409404 0.11575561 -0.14232992 0.16030596
000040 5f e4 0b 3d 72 4b 7f be 82 8c 5e 3e 9b 01 69 3e
       0.03415334 -0.24931124 0.21733287 0.22754519
000050 7e c6 1b 3e c3 4f 99 3e c5 d7 82 3e e9 c9 c9 3d
       0.15212438 0.29943666 0.25555244 0.098529644
000060 be 1d 6d 3d 70 50 de bd 16 2c 9d bb c4 1a 09 3e
       0.057889692 -0.10855186 -0.004796515 0.13389117
000070 24 51 8f 3d 3e f3 e7 bd e1 04 9a 3d db 33 83 be
       0.06997898 -0.11325692 0.07520462 -0.256255
000080 58 ab 21 3e 51 5d 08 3e 7a 83 9d 3d e6 f5 43 be
       0.15788019 0.13316847 0.07691093 -0.19136772
000090 16 20 9b bd 17 05 0f 3e e8 2a 61 bd b4 31 52 be
       -0.07574479 0.13966785 -0.05497256 -0.20526773
0000a0 f6 42 c9 be 84 dc 4a 3e b4 81 96 3d 4a 91 52 3e
       -0.393089 0.19810683 0.07348958 0.20563236
0000b0 2c 01 3d be a7 24 70 bd 24 da aa bd 8b 8f 75 bd
       -0.18457478 -0.058628704 -0.08342388 -0.059951346
0000c0 4a ff fa 3d 52 fa 64 bd f7 e2 5c 3d ff 2f c9 3d
       0.12255724 -0.055902787 0.053927388 0.09823608
0000d0 c7 6b f2 3d 7c 06 3d be 7a ec e1 3c 2e 0a b3 3c
       0.11836963 -0.18459505 0.027578581 0.02185544
0000e0 8d e2 99 bd b2 eb bf 3d a6 c0 af 3d db 45 db bd
       -0.07513914 0.09371127 0.08581667 -0.10706683
0000f0 a0 14 d5 3d 1c d2 86 be 40 00 20 3e 88 9b 69 3d
       0.104043245 -0.26332176 0.15625095 0.05703309
000100 c0 72 de 3d d1 5c f6 bd 45 0e 28 3e 95 9d bb be
       0.108617306 -0.12029422 0.16411693 -0.36643663
000110 29 02 f6 bd 01 7a 58 3e bf 42 44 be ee 00 bf bd
       -0.12012131 0.21140291 -0.19166087 -0.09326349
000120 d4 2a 8c 3d 95 b1 2d 3c b3 62 24 be 39 97 3d 3e
       0.06844106 0.010601421 -0.16053276 0.18514718
000130 bf 54 8a be 17 37 28 3d 48 61 39 3e 06 80 83 be
       -0.2701778 0.041068163 0.18103516 -0.25683612
000140 5c 16 b0 3d 77 a8 94 3e 8c 70 b3 3d d8 9c a2 3c
       0.08598015 0.29034778 0.08761701 0.01985018
000150 ba f2 ca 3d 21 09 bf bc e4 48 44 3d 8b a7 ba bd
       0.09909578 -0.023319783 0.047921076 -0.091139875
000160 7b 46 67 be 5f 0e 1d be f3 2e 77 be ab 1f a2 bd
       -0.2258548 -0.15337513 -0.24139003 -0.079161964
000170 f9 ad ba bc bd b3 8f bd 04 59 af bb fc 1e 6b 3e
       -0.022788035 -0.07016704 -0.0053511877 0.22961038
000180 73 37 98 3e 92 58 3b 3e 72 55 b5 bd 6f 0c 02 3c
       0.29729804 0.18295506 -0.08854188 0.007937535
000190 d1 ff 3e bd 59 dc 13 3d cb 5e 4b bd 96 f3 7e be
       -0.046630684 0.03609881 -0.04965095 -0.24897608
0001a0 91 42 0a 3e 5c 9b c3 3d 8f e0 6e 3d 75 9c 5f bd
       0.13501956 0.09551117 0.058319625 -0.05459257
0001b0 cd 2b e0 3d f4 20 26 3e ac fd 4b 3c f7 72 37 be
       0.10945854 0.16223508 0.012450617 -0.1791495
0001c0 33 18 37 be b3 b4 48 3d 99 7d f3 bd 5c 85 41 be
       -0.17880325 0.049000453 -0.1188919 -0.18898529
0001d0 d8 8c 3f 3e 1d 7a 0f 3e 28 49 68 3d d6 f1 19 bd
       0.18706071 0.14011426 0.056710392 -0.03758415
0001e0 91 6d ba 3c e1 18 0e be 64 03 9d 3d 9d 36 ad 3d
       0.022757323 -0.13876678 0.07666662 0.08457682
0001f0 d2 b8 a7 bd 66 5b 9c 3e 7c d8 14 be 50 99 6f 3d
       -0.081895486 0.3053848 -0.14535707 0.05849582
000200 a1 da 04 be ea 66 28 3d bd 8c 7f bd 71 a3 a3 bc
       -0.12974025 0.04111377 -0.062390078 -0.019975396
000210 e9 25 9b 3e a8 5d b0 3d 34 c3 52 be 04 20 8b be
       0.3030236 0.086116135 -0.20582277 -0.27172863
000220 6c 8c ec 3d 42 f2 17 bd a0 e6 82 be 8a 66 b9 3d
       0.11550221 -0.03709627 -0.25566578 0.09052761
000230 e9 f8 11 3e 4e 4c 45 3e a3 11 3d 3d 30 0f 14 be
       0.14255108 0.19267389 0.046159398 -0.14458919
000240 6a b6 1c bd 03 31 33 3d 6d 88 24 3e 29 ea b4 3d
       -0.0382599 0.043747913 0.16067667 0.08833725
000250 9b 04 4c 3e b4 35 8f 3e b4 b6 af 3c 89 98 c1 bd
       0.19923632 0.2797066 0.021449424 -0.09452922
000260 03 9a 66 be b3 46 01 bd b7 c5 d8 bd 81 a2 48 3d
       -0.22519688 -0.031561565 -0.10584586 0.0489831
000270 9f 3d 48 be 99 c1 2a 3d 65 4c 04 3e 51 18 eb 3c
       -0.19554757 0.041688535 0.12919767 0.028698118
000280 38 8b d3 3b 19 20 43 bd 24 fb 4a be 5c ba 82 3b
       0.006455805 -0.047638033 -0.19822365 0.003989501
000290 54 b0 cb 3d 01 3b 0d 3e 66 32 a3 3d 51 f3 39 3d
       0.09945741 0.1379204 0.07968597 0.04539806
0002a0 c2 58 3d 3e 6a 02 39 3e 08 e5 3d bd c1 c0 6e bd
       0.1849089 0.18067327 -0.046361 -0.058289293
0002b0 5b 12 4f bd 26 dc ed 3d f8 1d 27 3e 66 41 fd bb
       -0.050554615 0.116142556 0.16320026 -0.0077287434
0002c0 9f ee ff bb 84 cc 44 3e 04 fe be 3e 5b 57 fc 3d
       -0.0078104283 0.19218642 0.37303174 0.12321349
0002d0 4c 76 01 3d 45 1b 01 be 5c c3 03 be 5a db 70 bd
       0.031606957 -0.12608059 -0.12867492 -0.05880294
0002e0 41 7a 63 be c0 c9 3b be 36 3b 09 be 8b c8 8a bd
       -0.22214605 -0.1833868 -0.13401493 -0.06776532
0002f0 a6 88 57 be a1 b1 55 be 32 cd 0d be e5 5e c5 3d
       -0.21048221 -0.20868541 -0.13847807 0.0963724
000300 3b 87 01 be de 04 11 bc 95 88 3f be 6a 52 15 3e
       -0.12649243 -0.008851258 -0.18704446 0.1458222
000310 7a 66 db 3b 91 00 b4 3d 6c 8b 95 bd 22 6d 9a be
       0.006695566 0.087891705 -0.07301983 -0.30161387
000320 1a 07 a7 bc 70 7b 7e be 23 3f d8 bd 52 e5 0b be
       -0.020389128 -0.24851775 -0.105589174 -0.13661698
000330 64 23 11 3d 18 66 14 3d 16 cb 04 3e f7 60 55 3d
       0.03543414 0.036230177 0.12968096 0.052094426
000340 9e 37 cf 3d 94 a4 cc 3c 27 af c2 3b 52 fe 56 3e
       0.1011803 0.02498082 0.00594129 0.20995453
000350 e4 9b b3 bc 7b 93 02 3e 0b 58 80 3e f2 8b a5 3e
       -0.02192492 0.12751572 0.2506717 0.32333332
000360 75 6e 4e be 29 7b 5e be 52 ee 37 be 18 81 4f be
       -0.20159324 -0.2172667 -0.17962006 -0.20264089
000370 cd 20 0b 3e 40 95 e9 bb a6 64 6c 3e 93 c0 f2 3d
       0.13586731 -0.0071283877 0.2308527 0.11853137
000380 39 75 24 bd 4e de fa 3d b6 4c c0 bd 9f 99 3c 3d
       -0.040150855 0.122494325 -0.093896315 0.046044942
000390 a2 cb 1a 3d c3 ac 84 3e df 7a 84 3d 92 e3 00 be
       0.037791856 0.25913057 0.06468748 -0.12586811
0003a0 38 29 4b 3e cb 83 9e 3c a3 9c 53 3e b5 a3 2b be
       0.19839942 0.019349953 0.20665221 -0.16761668
0003b0 35 b3 1c be 69 66 dc 3d d0 12 ed 3d 1e 69 bb bd
       -0.15302737 0.10761721 0.11575854 -0.09150909
0003c0 91 1d 77 be 87 5a a2 bc 95 53 bc 3d da c7 c6 bd
       -0.24132372 -0.019818557 0.091956295 -0.097060874
0003d0 e8 47 90 be 17 89 fe bd e5 ef e8 3d 02 83 a5 be
       -0.2817986 -0.124284916 0.11373881 -0.32326514
0003e0 51 32 2e 3e 29 53 2b 3e 8a 1d 95 3d 79 90 c6 3b
       0.17011382 0.16730942 0.07281025 0.006059703
0003f0 56 c9 56 3d de d5 4b 3e 5c fd aa 3d e0 af f0 3d
       0.052438103 0.19905803 0.08349106 0.117522955

bn1.weight f4 [32]
000000 55 62 75 3f e2 df 72 3f 61 5b 7e 3f 1c ac 95 3f
       0.9585317 0.9487287 0.99358183 1.1693149
000010 2d 34 86 3f bb 2b 7d 3f fd a6 88 3f 8b 8b 7b 3f
       1.0484673 0.9889485 1.0675961 0.982598
000020 e3 4e 8e 3f 93 b0 93 3f fd b4 51 3f ae 22 8d 3f
       1.1117824 1.1538261 0.8191679 1.1026208
000030 6c 8f 40 3f 33 d7 7a 3f b9 93 7c 3f 0b cd 65 3f
       0.75218844 0.9798462 0.98662907 0.89765996
000040 15 25 82 3f c4 69 75 3f 58 91 84 3f 3a c2 80 3f
       1.0167567 0.9586451 1.0356855 1.0059273
000050 81 53 88 3f 7f c5 a5 3f 3b e7 60 3f 65 ff 7c 3f
       1.0650483 1.2950896 0.8785283 0.988272
000060 43 1f 72 3f 07 db 4d 3f c4 7b 7b 3f ac 50 87 3f
       0.9457895 0.80412334 0.98235726 1.0571494
000070 b4 3f 73 3f ea 03 74 3f c5 73 56 3f 89 d3 8b 3f
       0.9501908 0.9531847 0.837704 1.092393

bn1.bias f4 [32]
000000 e6 65 32 bd 35 de d5 bd f4 f8 17 3d 90 3d 48 bd
       -0.04355421 -0.10442773 0.037102655 -0.048886836
000010 18 58 fb 3a 22 7d f4 bc ff 31 01 3d 7a dd 56 bb
       0.0019176034 -0.029844824 0.03154182 -0.003278582
000020 fe d7 ca 3d b5 00 3f 3d a4 94 c5 bc 3e 67 00 bd
       0.099044785 0.046631534 -0.024118729 -0.03134846
000030 3c 8a ac 3d 58 b4 82 bd 7f 0f 1b 3d db cb 8a 3c
       0.084248036 -0.06382054 0.037856575 0.016942909
000040 b0 5b 1d bd 78 56 cc bd 07 15 e2 bb f9 8c e6 3c
       -0.03841752 -0.0997743 -0.0068994793 0.028143393
000050 98 de 9a bc bf 6b 53 3c 99 39 9f 3b 5a 79 b7 bd
       -0.01890497 0.012904107 0.004859161 -0.08958693
000060 69 d4 6a bd 15 31 a0 3c e7 de 58 3d 1d 65 20 bd
       -0.057331476 0.019554654 0.05294695 -0.03915893
000070 99 b2 20 bd 62 ba 6c 3d e6 f2 8a 3d d2 94 1f 3b
       -0.039232824 0.057794936 0.067846105 0.0024350178

bn1.running_mean f4 [32]
000000 cf e2 9e bc 88 3c 84 3a 5c 03 8e 3b d3 b3 29 bb
       -0.01939526 0.001008884 0.0043338966 -0.0025894537
000010 31 bb c2 bb ba f3 bb 3a 79 c4 44 3c 4d 9b d2 bc
       -0.005942725 0.0014339604 0.012009733 -0.025708819
000020 1d ae 6e 3a fa c0 19 3c fa 8d 1c bc 87 53 57 3c
       0.00091049244 0.009384388 -0.009555334 0.013142473
000030 9d 95 a9 b8 d0 8c 48 bb a1 b6 a9 ba 76 57 d7 bb
       -8.0864156e-05 -0.003060151 -0.0012948104 -0.0065717055
000040 da 9d e8 3a da 6b 26 3a 4f 13 58 bb 23 83 7c bb
       0.0017747239 0.00063484686 -0.0032970493 -0.0038530312
000050 06 82 97 3a 37 ef b3 3a b5 ea 26 3b ea 38 d3 bb
       0.0011559136 0.0013727908 0.0025469486 -0.0064459937
000060 b7 3c 88 3b 4a 18 a4 3b 02 22 ac bb 37 ad ce 3b
       0.0041576284 0.0050077783 -0.0052530775 0.00630727
000070 66 16 b0 b9 27 4c df 39 14 d0 00 bc 96 6a 3d 3c
       -0.00033586024 0.00042590612 -0.00786211 0.011561057

bn1.running_var f4 [32]
000000 d2 f7 92 3f 39 8e 22 3e 38 1f 23 3f e8 bd ad 3d
       1.1481879 0.15874566 0.6371951 0.08483487
000010 1d 6f c2 3d 86 3c 7d 3e 63 d6 30 3f 1a cd 4a 3f
       0.094938494 0.24730119 0.6907713 0.7921921
000020 e7 a8 5e 3e 11 25 12 3e 44 e3 9c 3e 36 8e 6c 3e
       0.21744119 0.14271952 0.3064214 0.23101124
000030 64 13 55 3f 13 89 26 3e 5e 70 e2 3e f4 95 6f 3e
       0.8323271 0.16263227 0.44226354 0.23397046
000040 99 1b b6 3e ac 1a 89 3e 17 81 ce 3d 25 d1 95 3e
       0.3556793 0.26778162 0.10083216 0.29261127
000050 43 55 ec 3e 96 a1 3b 3e c7 b5 0b 3f 2f b0 35 3e
       0.461588 0.18323359 0.54574245 0.1774299
000060 0e 0c b1 3d 4f 34 1f 3f d2 75 1e 3f 8c 59 b3 3e
       0.086448774 0.6218919 0.6189853 0.35029256
000070 91 f2 9f 3e dd 56 db 3e f9 14 b3 3e a9 f5 fe 3e
       0.3123975 0.4283971 0.34976938 0.497968

layers.0.conv1.weight f4 [32, 32, 1, 1]
000000 9d 1b 14 be 52 6e 05 3e f8 63 d1 3d 3a a7 70 3e
       -0.14463659 0.13030365 0.10224146 0.23501292
000010 6e 2b 2b bd 5b 9b 1b be 20 87 0e bd 34 7b 08 3e
       -0.041789465 -0.15195982 -0.034796834 0.13328248
000020 40 ab 31 be 9c 0b 94 be 5d e4 64 3d 47 f9 22 be
       -0.17350483 -0.28915107 0.055881847 -0.15915404
000030 27 28 e1 bd df c7 f8 bc d9 7a 74 3d 92 32 e7 3d
       -0.109939866 -0.030368743 0.05968747 0.112889424
000040 3d 68 ea 3d 07 0c 53 3d 91 fc 4a 3e 12 c3 c0 3b
       0.11445663 0.051525142 0.19822909 0.005882629
000050 91 4a 9e bd 29 6c 90 bd 8a 7f 80 3d 9e db 04 be
       -0.07729066 -0.0705188 0.06274326 -0.12974402
000060 6b 17 95 3e fc f1 af bc b2 7b 8a bb 19 fc ff 3d
       0.2911943 -0.021477692 -0.0042261714 0.12499256
000070 45 d9 df bc 56 e5 c9 3d d9 4f 34 be 97 48 58 3e
       -0.027325282 0.098581955 -0.17608584 0.21121441
000080 67 a0 cd 3d ac 95 40 3d 55 bf 08 bc 6a 1c 99 3e
       0.1004036 0.04701774 -0.008346398 0.2990449
000090 31 8c 4e bd 39 fd 1b 3d 0c 36 72 bc 0f 7d 5c be
       -0.050426666 0.03808329 -0.014783394 -0.21532081
0000a0 3d 6a e7 bc 75 5c 85 3e 06 5e b6 3d c3 49 08 3e
       -0.0282489 0.26047102 0.08904652 0.13309388
0000b0 70 bb 6f 3d 6f 46 2e be 46 26 e5 3d 7a 8f 23 be
       0.058528364 -0.17019056 0.11188941 -0.159727
0000c0 f8 d8 9d bd ef 7e 2c be 0d 09 62 3e cd 17 aa bd
       -0.07707399 -0.16845296 0.22073765 -0.08305321
0000d0 be a2 21 be 02 ca 29 be f4 d2 b9 3d ae db ba bc
       -0.15784737 -0.16580966 0.09073439 -0.02280983
0000e0 64 c4 5a 3e d5 e1 c1 3c c1 98 b0 3d 4a 1a d8 bd
       0.2136398 0.023667255 0.086228855 -0.10551889
0000f0 64 a8 89 bd 87 27 57 3d 0c c6 8c bd 4b 6c 12 bc
       -0.06721571 0.05252793 -0.06873712 -0.008936952
000100 a6 e5 7f bd b7 d4 18 bd 25 81 86 3e 03 10 8b be
       -0.06247487 -0.037312236 0.26270404 -0.27160653
000110 a8 01 83 bc db 06 24 be 58 14 d8 bd 9a b4 65 3c
       -0.015992 -0.1601824 -0.10550755 0.01402011
000120 6b e5 3d bc 92 37 e6 3d 77 f2 00 3d d0 5f 94 bd
       -0.011590342 0.11241068 0.031481232 -0.07244837
000130 7c 23 d0 bc 35 93 c9 be ec 4a c3 bc d6 53 b9 bd
       -0.025407545 -0.39370123 -0.023839436 -0.090491936
000140 94 31 f1 3d 1f 1d ec bd b2 56 5b be 3d e6 95 3d
       0.117770344 -0.11528992 -0.2141979 0.07319305
000150 98 05 a1 bc ec 97 3e bd 68 4b ce bd af b4 cb be
       -0.019655988 -0.046531603 -0.10072976 -0.39786288
000160 55 0b 92 3c 5f d6 f5 ba 06 34 a8 3d ab 90 91 be
       0.01782767 -0.0018755904 0.08213048 -0.28430685
000170 5c db 21 be 65 26 3b be 20 54 11 be a0 f2 ba 3d
       -0.15806335 -0.18276365 -0.14192247 0.09128308
000180 d9 a7 a9 3d 14 81 8d 3d d9 40 37 3d 1c 7d 85 be
       0.082839675 0.06909385 0.044739578 -0.26072013
000190 50 08 93 bd 2e 17 9d 3d 5a 24 a0 3d 53 b4 9c 3e
       -0.0717932 0.07670437 0.078194335 0.30606326
0001a0 b8 0f 20 3e 51 6f 86 3e 35 10 9d bd b6 4e 33 bc
       0.15630996 0.26256803 -0.07669107 -0.010944059
0001b0 22 89 8c 3d 58 67 1d 3e 05 af 0d be 96 43 39 bd
       0.068620935 0.15371454 -0.13836296 -0.04523047
0001c0 cd 83 1a be eb 99 72 bd 06 dd fd 3d b2 f6 38 be
       -0.1508934 -0.05922882 0.123956725 -0.18062857
0001d0 32 b8 96 3c a0 23 d8 be 92 3a 59 be 38 cb 9e 3c
       0.018398378 -0.4221468 -0.21213749 0.019384012
0001e0 0e 63 bf bd 55 c7 bc 3c f3 7a a0 3d ce 44 ac bd
       -0.09345065 0.023044268 0.07835951 -0.08411561
0001f0 72 08 1d 3d 62 34 c8 bd 3a d2 15 3d 9a b6 38 bd
       0.038338132 -0.09775616 0.03657744 -0.045096017
000200 0a 14 d0 3d d4 d6 52 3e 12 a5 12 3e 03 23 05 3d
       0.10160072 0.20589763 0.14320782 0.032504093
000210 6b ca aa 3c 38 f9 fe 3c 38 91 68 be d1 99 a6 3d
       0.020848474 0.031124696 -0.22711647 0.08134807
000220 b4 0d f5 bd 5d 75 85 bc 46 7a 5c 3e 35 89 2c be
       -0.11965504 -0.016291315 0.21531019 -0.16849215
000230 68 50 c4 bd 75 96 0a be 77 1f e8 bd 64 46 3e be
       -0.09585649 -0.13533957 -0.113341264 -0.1858154
000240 a9 4e bc 3d aa 79 89 be e2 8f bc 3d 69 31 20 be
       0.09194691 -0.26850635 0.09207131 -0.15643848
000250 f9 2b 64 bc 74 f6 d8 bd c3 0e 34 bc 1d 39 ac 3e
       -0.0139264995 -0.10593882 -0.010989848 0.33637324
000260 96 ca 84 3d cd 20 1d 3d e9 1f 08 bd f5 04 74 be
       0.06483953 0.03836136 -0.033233557 -0.23830016
000270 31 ca ec 3a cb 36 a5 3d ef 61 fb 3d d8 b3 83 bd
       0.0018065629 0.080670916 0.12274539 -0.06430787
000280 44 79 9f bc 53 53 33 3e 38 e9 a2 3b e5 fa 09 be
       -0.019467004 0.17512254 0.0049716495 -0.13474615
000290 b9 d1 8a bd 71 40 48 3b e9 4b 88 be cb db 48 3e
       -0.06778283 0.0030555988 -0.26620415 0.19615094
0002a0 47 2d 6b be aa ea 5a 3d d0 00 95 bd 55 e2 8c be
       -0.2296649 0.05344645 -0.072755456 -0.27516428
0002b0 9c c7 bf bd 93 8d a7 3d 7d b9 19 be 8a 2f 4d 3d
       -0.09364244 0.081813 -0.15012164 0.050094165
0002c0 20 f8 47 be 39 11 7b 3d 6a d2 03 3e 5a 3b 31 be
       -0.19528246 0.06129572 0.12873235 -0.17307797
0002d0 8a b3 08 be d3 38 2a be 75 ed c6 3d 81 b7 a9 3d
       -0.13349739 -0.16623239 0.0971326 0.08286954
0002e0 44 be 8c bd 14 76 cb ba 60 40 b4 3d 0e 45 49 3d
       -0.06872228 -0.0015522861 0.08801341 0.04913812
0002f0 96 01 9d 3d 5c 1d 18 3d 75 9f 21 be 88 a4 05 bc
       0.07666318 0.037137374 -0.15783484 -0.008156903
000300 98 cb 3c 3e 68 4f 36 3e 5d 7e 8a 3e f4 69 30 3e
       0.1843704 0.17803729 0.27049533 0.17227918
000310 b4 e4 3f 3d e9 30 75 bc e2 54 93 3d 7d 71 1d 3c
       0.046848968 -0.014965274 0.071939245 0.009609577
000320 49 3d 81 be 17 d7 d0 3d 68 ca d4 bd a4 6c c1 bd
       -0.2524207 0.10197275 -0.103901684 -0.0944455
000330 f7 40 1a be ab 47 3e 3d 40 20 dc 3d f0 75 f0 bd
       -0.15063845 0.046455067 0.10748339 -0.11741245
000340 b2 16 f8 3c e2 cc 37 be 73 38 05 bd 6e b6 20 be
       0.03028426 -0.1794925 -0.032524537 -0.15694591
000350 f6 d3 d7 3d 1c 98 4e be 35 fc 09 3e c5 f4 88 3e
       0.10538475 -0.20175213 0.13475116 0.26749244
000360 ab 81 d5 bc c6 a9 2e 3e 98 e8 3a 3e 6b ee 04 bc
       -0.026062807 0.17056951 0.1825279 -0.008113484
000370 35 da 3e 3e ec 33 c1 3c 10 ea 00 3e 1f 87 bf bd
       0.18637927 0.023584329 0.12589288 -0.09351944
000380 d2 91 43 3e 86 a4 64 be 5e 3a 63 3e 32 90 9a be
       0.19098595 -0.22328386 0.22190234 -0.30188137
000390 61 2c 49 bd ee 25 0b be 41 2b 8a bd 34 cb 62 3d
       -0.04911459 -0.13588688 -0.06746531 0.05536957
0003a0 af 0e 94 be 6c 95 1f 3d f3 64 40 be 0d db 37 bd
       -0.28917453 0.03896086 -0.18788509 -0.044886637
0003b0 03 64 df 3d a8 aa d8 bd a4 a5 b9 bd 79 97 86 3d
       0.109077476 -0.10579425 -0.090647966 0.0657186
0003c0 11 eb 13 3e ae 42 45 be 5b c3 04 3c 1d e3 d0 bc
       0.1444514 -0.19263718 0.008103217 -0.025498921
0003d0 f8 c7 25 3e e7 62 cb 3d ee 07 bc bd 7f 3b f5 3d
       0.16189563 0.099309735 -0.091812 0.119742386
0003e0 51 f6 0e bd 9e 29 00 be e9 d4 b0 3e 78 8d 05 bd
       -0.034902874 -0.12515876 0.34537438 -0.03260562
0003f0 df c2 d9 3c a0 69 78 3e 3a 25 27 3e 8d 5e 5a 3e
       0.02658218 0.24259043 0.16322795 0.21325131

layers.0.bn1.weight f4 [32]
000000 b8 43 ac 3f da 0e 36 3f 4f 47 84 3f 68 93 3a 3f
       1.3458166 0.7111641 1.0334262 0.72881174
000010 ec 02 48 3f 0b 8d 7b 3f 7d 14 23 3f 61 67 12 3f
       0.7812946 0.9826209 0.6370314 0.57188994
000020 cc 7a 41 3f 76 c6 84 3e 39 0a cc 3f 4a e9 3e 3f
       0.75578 0.25932664 1.594062 0.7457472
000030 d3 26 5f 3f 3f cb 59 3f 15 e5 d0 3e 91 68 71 3f
       0.87168616 0.85075754 0.40799776 0.9430018
000040 ed a1 65 3f fb b5 bb 3e 76 2e 65 3f 7e 3e 88 3f
       0.89700204 0.36662278 0.8952402 1.0644071
000050 ae 52 6e 3f 54 05 5d 3f 5d 46 6a 3f 52 a4 4a 3f
       0.9309491 0.86336255 0.91513616 0.7915698
000060 1f d7 45 3f 04 36 5e 3f 47 2d 33 3f 49 8e 83 3f
       0.77281374 0.8680117 0.6999096 1.0277797
000070 55 7d ce 3e 18 10 1b 3f 91 64 82 3f 26 c7 2c 3f
       0.40329996 0.6057143 1.018694 0.67491376

layers.0.bn1.bias f4 [32]
000000 8f df 8b 3d 0d 74 63 3e 86 a8 0b 3e df 40 90 3e
       0.0682975 0.22212239 0.13638505 0.28174493
000010 59 64 85 3e 4d b8 f6 3d ad 49 98 3e 19 5f 07 3f
       0.26053122 0.12046871 0.2974371 0.5287948
000020 6c 71 91 3e 41 35 06 3f 92 e6 0e 3f d1 c7 86 3e
       0.28406847 0.5242501 0.5582057 0.26324323
000030 11 88 f8 3d 3d da 2c be 1a 48 05 3f 74 49 ea 3d
       0.121353276 -0.16880126 0.52063143 0.11439791
000040 30 e9 ed bd c4 d3 fe 3e c5 0b 10 be 54 fe e7 3c
       -0.116167426 0.4977094 -0.1406699 0.028319515
000050 2b 60 05 3e bb fc 31 be 72 c1 08 be 38 24 62 3e
       0.13024966 -0.17381565 -0.13355044 0.22084129
000060 43 e9 90 3e c5 fc 11 3e 6b 8b 97 3e 34 ff 07 be
       0.28302965 0.1425658 0.29598555 -0.13280946
000070 43 6f e5 3e c3 b3 9e 3e 8f df 21 3e bd f4 a0 3e
       0.44811448 0.30996522 0.15807937 0.3143672

layers.0.bn1.running_mean f4 [32]
000000 89 e3 8d bd 6a 9e 40 3c 30 3d d4 3d ab ad ee 3c
       -0.069281645 0.011756519 0.10363233 0.029135546
000010 89 33 3b bd 03 f5 83 bd 0f c0 45 bd 9b d5 a0 3d
       -0.045703445 -0.06443217 -0.048278864 0.07853242
000020 7e 02 84 bd e1 f4 ae 3d f0 8d 6d ba ad 2f 8d bb
       -0.06445788 0.08542801 -0.0009061983 -0.004308662
000030 15 14 71 bc 98 79 33 3d 2a 31 a6 bc 6b ae 86 3d
       -0.014714261 0.043817133 -0.020287115 0.06576236
000040 a8 cf f5 bc 95 9f aa bc 20 bf 84 bd 3d 7c 8f 3c
       -0.030006245 -0.020828048 -0.06481767 0.017515296
000050 95 47 b0 3c b2 1c 0b 3d 4e 6b ed 3b 99 0e 57 bc
       0.021518508 0.033962913 0.0072454577 -0.013126039
000060 ed 1b 87 bb 95 da 1b bd d0 63 5e bd 73 15 6c bd
       -0.004123202 -0.038050253 -0.054294407 -0.057637643
000070 cc 41 bf 3d 3a 29 b4 bc 61 b3 bd 3c 76 c5 38 bc
       0.09338722 -0.021992315 0.023156824 -0.011277547

layers.0.bn1.running_var f4 [32]
000000 47 94 25 3f b7 88 66 3f a5 67 db 3f a7 ad a2 3f
       0.6467938 0.9005236 1.7141005 1.2709244
000010 48 84 d6 3f 67 c2 a0 3f 65 10 c4 3f 6a d1 bc 3f
       1.6759119 1.2559327 1.5317503 1.4751408
000020 61 a0 00 40 b4 03 70 3f d7 ec e7 3f 89 31 f0 3f
       2.0097888 0.9375565 1.8119153 1.8765117
000030 c5 02 ab 3f 4f ad 1c 40 66 f0 26 3f a4 9c e8 3f
       1.336022 2.448078 0.6521057 1.8172803
000040 8a c1 df 3f 02 8f 5e 3f 79 81 91 3f b1 ab 1c 40
       1.7480938 0.8693696 1.1367637 2.4479792
000050 aa b6 32 40 5d 04 d2 3f d6 28 ea 3f dd 66 21 40
       2.792399 1.6407582 1.8293712 2.5219033
000060 a0 6c ce 3f 1f b5 8b 3f 94 de 65 3f 9b b4 8c 3f
       1.61269 1.0914649 0.8979275 1.0992616
000070 d7 a7 a1 3f 1f ab fe 3f d4 ca 4a 3f 29 f4 aa 3f
       1.2629346 1.9895972 0.7921574 1.3355762

layers.0.conv2.weight f4 [32, 1, 3, 3]
000000 1d 93 0a be 5c 79 11 3e 93 d0 a6 3e 6b 7c 04 be
       -0.13532682 0.14206451 0.32581005 -0.12938087
000010 ce 17 aa 3e 60 cc 00 3f 50 5f 29 bd fa d0 b7 3d
       0.33221287 0.5031185 -0.041350663 0.08975406
000020 d2 65 68 3e 4e f6 92 3e c8 f3 ff 3e b5 1f 08 3e
       0.22695091 0.2870354 0.49990678 0.13293345
000030 73 e3 86 be d4 5d 18 be f0 d3 33 3e 28 7d 92 3d
       -0.26345405 -0.14879543 0.17561316 0.07152778
000040 96 cd 29 be 75 d2 4a be 51 f3 33 3e 7c e6 9c be
       -0.16582331 -0.19806845 0.17573287 -0.30644596
000050 bf 13 17 3e 50 53 dd be 0b dd c6 3d 41 4a af be
       0.14753626 -0.43227625 0.09710129 -0.3423634
000060 8b ca 29 be 89 79 1d 3e 0b 26 59 bd 8a 4c cb bd
       -0.1658117 0.15378393 -0.053014796 -0.09926708
000070 21 d8 9b be 18 76 3f be 1a b7 07 3e 98 8f 29 3e
       -0.3043833 -0.18697393 0.13253441 0.16558683
000080 a6 d7 58 be 61 5d 2d 3e c9 93 c2 be 18 56 cd be
       -0.21176013 0.16930152 -0.38003376 -0.40104747
000090 cd 7c 47 3e c9 29 81 bc 56 70 07 be 8f f8 5a 3e
       0.19481201 -0.015766995 -0.13226447 0.2138388
0000a0 88 e7 ae be 0e 11 ab 3c 26 51 c9 3e 7d 3d 82 be
       -0.3416102 0.020882156 0.39319724 -0.25437537
0000b0 ad 4d 68 bd 9c 35 e9 3d a1 75 88 be 76 77 26 be
       -0.056714702 0.11387178 -0.26652244 -0.16256508
0000c0 89 18 90 be 07 a0 bf bd a6 6e 5e bd 6c df 6b 3e
       -0.2814372 -0.09356695 -0.05430474 0.23034447
0000d0 f8 b4 ff 3d 11 78 e4 3e 81 a6 c7 3d f0 aa fe bc
       0.12485689 0.44622853 0.09748555 -0.031087369
0000e0 f8 50 ba be 44 53 15 bd fe fc c2 3e 2d 6f da bb
       -0.363899 -0.03645636 0.38083643 -0.006666085
0000f0 f5 14 3c be c8 95 25 bd 4f b4 ce 3d ba 0f 83 be
       -0.1836737 -0.040426046 0.10092985 -0.25597936
000100 31 f1 3b 3d b8 b1 a1 3e b0 28 06 bd a3 23 93 3e
       0.045884315 0.315809 -0.032753646 0.28738126
000110 c2 73 8a bd 55 05 a3 3e 18 97 3b bd a6 0a b0 be
       -0.0676036 0.31840006 -0.04579839 -0.34383124
000120 d9 cf 7b 3d 93 88 c9 3e 1c f8 64 3e 2a 9e a9 3e
       0.061477516 0.3936201 0.22360271 0.33128482
000130 3b 1c 81 3c 98 1f 9c bd 20 f2 67 be e9 f6 00 3d
       0.015760532 -0.076232135 -0.22650957 0.031485472
000140 15 07 6e be de 3c 25 be e5 31 b3 3e be 27 71 be
       -0.23244889 -0.161365 0.34999004 -0.23550317
000150 ec 64 b8 bd 8f 45 4c 3e ac 8e 7e bd 1d 63 f7 bd
       -0.09003624 0.1994841 -0.06214778 -0.12079451
000160 1f 5c 37 3e d9 de a3 bd 85 a3 66 be 31 65 05 3e
       0.17906235 -0.08001489 -0.22523315 0.13026883
000170 af f9 9e bd 5b 1d 8f be a9 e8 85 3e 2a d6 3c 3d
       -0.07762467 -0.27952084 0.26154068 0.04610268
000180 d6 37 e3 bd 87 63 d8 3e 06 30 6a be 32 f3 6e be
       -0.11094634 0.42263433 -0.22869882 -0.23334959
000190 cc 38 31 bd 7b b2 8b bb 9d d9 89 be 80 81 94 bd
       -0.043267056 -0.00426322 -0.26923838 -0.07251263
0001a0 c0 b9 5c 3e b7 28 d0 3d 09 e4 9c 3e 13 6d 7f 3d
       0.21555233 0.10164016 0.30642727 0.06235988
0001b0 5e ab d3 3d f6 75 d8 be 14 25 06 3e 69 86 8a be
       0.1033542 -0.42277497 0.13100082 -0.27055672
0001c0 d3 cc c0 be c7 f5 62 bd ea b0 c9 be 56 a5 33 3b
       -0.37656268 -0.055410173 -0.39392787 0.002741178
0001d0 31 25 95 3e b6 f3 91 3d 3a f4 48 bc 2d 12 fa bd
       0.29129937 0.07126562 -0.012265259 -0.12210498
0001e0 80 53 1b be 93 75 15 be f4 11 7c be e8 46 af bd
       -0.15168571 -0.14595632 -0.24616224 -0.08558446
0001f0 63 8a ab be de ed 81 be 0c 93 3d 3e df 3d c7 3e
       -0.33504018 -0.2537679 0.18513125 0.3891439
000200 45 d7 f4 3d bf 96 ee bd 7d 27 f7 be 36 a7 e0 3c
       0.11955122 -0.11649846 -0.48272315 0.027423482
000210 a3 97 08 be 7a bf 9f 3d 4f 32 14 bc 20 60 80 be
       -0.13339095 0.07800193 -0.009045198 -0.25073338
000220 40 ec b6 be 18 83 e7 bd e6 a7 08 bd f6 31 bd bd
       -0.3572712 -0.11304301 -0.033363245 -0.09238045
000230 f9 74 2a bd 75 fb 54 3e c1 7d 1e 3d 8c 1d a4 3e
       -0.04161546 0.20799048 0.038694147 0.32053792
000240 55 e7 1f 3e 8b 82 05 be 2d 37 78 be ca e8 52 3e
       0.1561559 -0.1303808 -0.24239798 0.20596614
000250 9b 99 56 3d a7 24 8f 3d 8f 38 2f bd fb 29 c1 3e
       0.052392583 0.06989413 -0.042778548 0.3772734
000260 dd 9a 61 3e af 7d 0c be 44 d4 d4 3d 21 73 26 3e
       0.22031732 -0.1371982 0.10392049 0.16254856
000270 6b d1 3a ba fe ef bd be f8 87 86 3e 4f 3f 1c 3e
       -0.00071265426 -0.37097162 0.2627561 0.15258525
000280 3e 47 57 be ab ef 27 be 62 b3 55 be 35 0f bd be
       -0.2102327 -0.1640002 -0.2086921 -0.36925665
000290 0b 7d 7e bd 46 4f 5b be 0e 11 80 be 7f 64 8c 3d
       -0.06213097 -0.21416959 -0.25013012 0.068551056
0002a0 89 51 46 bd 6b 42 19 be 53 c5 af 3d 38 71 42 be
       -0.0484176 -0.14966743 0.085825585 -0.18988502
0002b0 fa 03 98 bd 02 0f d4 be f4 33 07 be 27 da 34 be
       -0.074226335 -0.414177 -0.13203412 -0.17661344
0002c0 df 39 61 bd 11 ad 08 3e 15 b9 a4 be 8f c0 97 3d
       -0.05498683 0.1334727 -0.32172456 0.074097745
0002d0 b6 f2 10 be da 3b 54 3e 6d 02 86 3e 64 fe 38 3e
       -0.14155087 0.20725957 0.26173726 0.18065792
0002e0 0b 54 ed 3e db 74 2b 3d c7 29 10 3e a9 a2 be bd
       0.46353182 0.04185949 0.14078437 -0.09308369
0002f0 c5 61 18 be 3c 83 74 3b a8 ca 15 3e da 91 63 be
       -0.14881046 0.0037309667 0.14628088 -0.22223607
000300 76 2d af 3c 7b 0a 95 3d d6 d2 45 be 39 7f c2 be
       0.021383982 0.072773896 -0.19318709 -0.37987688
000310 d0 25 05 3d 63 30 0e 3e b1 b9 6c bd 5b 0b 0d 3c
       0.032506764 0.13885646 -0.057794277 0.008608664
000320 bf c1 1c be 91 c1 59 3c b0 38 27 3e 92 3f 98 3e
       -0.15308283 0.013290779 0.16330218 0.29736
000330 3d 4c 96 3e 42 e6 9c 3e 37 c9 c1 3c 83 98 b5 3e
       0.2935504 0.30644423 0.023655517 0.3546792
000340 c1 e6 32 3e 1e b1 9a 3e e0 ce c5 3e 25 e3 c9 3e
       0.17470838 0.30213255 0.38634396 0.3943111
000350 99 f5 ca 3c 1b 8c 82 3e b6 ad 4e be 76 28 aa 3d
       0.024775313 0.25497517 -0.20183453 0.083084986
000360 3c 90 ae 3e 79 f5 74 be 99 d2 f6 3d a9 cb 50 bd
       0.34094417 -0.23921765 0.12051887 -0.050975475
000370 01 b6 8b 3e c3 4c 8e 3e f6 3f 30 3e 81 8f 9b bd
       0.27287295 0.2779294 0.17211899 -0.075957306
000380 06 26 48 be 86 45 ea bd d2 a2 35 3e 68 9c d9 3d
       -0.19545755 -0.11439042 0.17737892 0.10625535
000390 89 f0 0d 3f e2 c0 46 3e 55 9b 3c be ee 8c 00 bc
       0.5544515 0.19409516 -0.1841863 -0.0078461
0003a0 12 5b 2f 3d 19 74 2d 3e e1 e5 d1 bd 86 c9 0d bd
       0.04281146 0.16938819 -0.10248924 -0.034616016
0003b0 5a 9b 48 3e 4d ae 51 be 5c 5e 1e be 7c 56 1d bf
       0.19590512 -0.20476647 -0.15465683 -0.6146009
0003c0 6e 1c 24 bd 49 f8 9b bd f9 4b ec bc e0 d2 9f 3e
       -0.040066175 -0.07615716 -0.02884482 0.31215572
0003d0 1f 58 67 3e 9f a2 a5 3e 89 32 4f 3e 19 6a 3f 3e
       0.2259221 0.32350633 0.20234121 0.18692817
0003e0 df f8 48 be a3 cd db bd 1e 0a 96 be 33 30 b0 bd
       -0.19626187 -0.107325815 -0.29304594 -0.08602943
0003f0 b7 53 36 3d 87 65 6d be 95 ce 6d 3e f2 63 4d 3c
       0.04451343 -0.23183261 0.23223336 0.012536036

layers.0.bn2.weight f4 [32]
000000 c4 8c 64 3f 19 fd 65 3f d2 95 65 3f 52 f0 6e 3f
       0.8927729 0.8983932 0.8968173 0.9333545
000010 b3 d3 94 3f a6 c7 84 3f 76 15 86 3f cd 20 a9 3f
       1.1627105 1.0373428 1.0475299 1.3213135
000020 bf b2 5e 3f f0 37 af 3f 1a a5 96 3f af fb 94 3f
       0.86991495 1.3688946 1.1769135 1.1639308
000030 06 2c 88 3f 47 2d a9 3f 85 49 8b 3f af 79 73 3f
       1.0638435 1.3216943 1.0881811 0.9510755
000040 6a 69 a0 3f 82 4b 9c 3f 95 d2 86 3f d6 64 76 3f
       1.253217 1.2210543 1.0533015 0.96247613
000050 ad ce 8f 3f a9 a6 4b 3f c2 74 64 3f c6 e3 61 3f
       1.1234947 0.7955118 0.8924066 0.8823818
000060 0b 60 69 3f f8 19 55 3f 6d 7b 7d 3f d7 07 99 3f
       0.91162175 0.8324275 0.9901646 1.1955518
000070 00 38 66 3f c9 21 97 3f b9 4d 68 3f 1f 03 97 3f
       0.899292 1.1807185 0.90743595 1.1797827

layers.0.bn2.bias f4 [32]
000000 d2 df 6d bc 57 8c 1f 3e 7b 78 9d 3d f1 ce 78 3d
       -0.014518695 0.15580879 0.076889955 0.06074423
000010 66 20 24 be f1 17 0c be 3f 5b 10 bd 71 f2 ab bb
       -0.16027984 -0.13681008 -0.03524327 -0.005247407
000020 cd ac 14 3e 05 cb d9 3d 48 a7 1b 3d 13 f0 3c 3e
       0.14519043 0.10634426 0.03800133 0.18450956
000030 bf 11 66 bc 86 5a 41 3c 09 7e 67 be 19 f2 95 3d
       -0.014042317 0.011801368 -0.22606672 0.07321567
000040 53 3d 25 3e 53 91 e7 bd a4 fa 90 3e 23 43 47 3d
       0.16136675 -0.11307015 0.28316224 0.04864801
000050 36 29 41 3e 24 ff 98 3a 8f 05 c9 3e 84 97 0b 3d
       0.18863377 0.0011672718 0.39262053 0.034080043
000060 b8 ea 64 bd c5 29 94 3c ac a3 03 be 0c 44 0c bd
       -0.055887908 0.018086324 -0.12855405 -0.034244582
000070 37 d0 b6 3d 53 9d 3e be 2d f1 8f 3e d6 53 af bd
       0.089264326 -0.18614702 0.2811369 -0.08560912

layers.0.bn2.running_mean f4 [32]
000000 09 64 29 3f e2 96 08 3e af cc ab be 0c 31 fc be
       0.66168267 0.13338807 -0.335546 -0.4925617
000010 5e 14 ce bc ca e7 e2 3c ee 4d 4b bc b2 58 fb 3d
       -0.025156196 0.027698416 -0.012408717 0.12272777
000020 ea 68 61 3e 96 6e 24 3a 5d ee 07 3d 10 f3 23 3d
       0.22012678 0.0006272582 0.033186305 0.040026724
000030 14 32 bc be 2e 69 6a be 42 9e 51 3b ee ce fa bd
       -0.36756957 -0.22891685 0.0031985198 -0.122465
000040 e5 cb 2a 3e 57 ab d9 bd fc 13 95 be 22 23 cd be
       0.16679342 -0.106283836 -0.2911681 -0.40065867
000050 57 69 9d 3e 9c d1 c7 bd 47 15 58 3e 13 90 28 3f
       0.3074443 -0.09756777 0.21101867 0.6584484
000060 c9 80 82 3e 00 dd bc 3e c9 a4 ea be 2c 63 01 3e
       0.2548888 0.3688736 -0.45828846 0.12635487
000070 a9 6b 60 bd c5 ed d1 bc fd 3d 5b 3e af 46 7b 3d
       -0.054790173 -0.025626073 0.21410365 0.061346706

layers.0.bn2.running_var f4 [32]
000000 f2 56 7a 3f 68 5e fe 3d d0 81 29 3e ef 65 77 3e
       0.9778892 0.1242035 0.16553426 0.24159978
000010 35 34 3a 3e ab 64 ee 3d 45 cf 8e 3d 25 23 a5 3d
       0.18183978 0.11640295 0.06973127 0.08063344
000020 14 20 eb 3d d2 64 e1 3c 4c 32 67 3f 34 d0 b0 3c
       0.11480728 0.027513895 0.9031112 0.021583654
000030 34 1f 79 3e ab 08 10 3e 87 de a7 3d 40 04 a1 3d
       0.2432831 0.14065807 0.081967406 0.07862139
000040 a9 a5 10 3e 02 cf 40 3d 2f 41 63 3e 18 c1 8f 3e
       0.14125694 0.047072418 0.22192834 0.28077006
000050 43 4f 4c 3e 7a 17 e6 3c 51 ac 49 3e 49 a4 f5 3e
       0.19952111 0.028087366 0.1969464 0.47976902
000060 c4 9c b4 3d ca 09 48 3e 72 b2 7f 3e 1c c4 93 3e
       0.08818963 0.19534984 0.24970415 0.28860557
000070 e3 70 c7 3c 3e bd 06 3e e1 cd 0a 3e fe ff a6 3d
       0.02434582 0.13158128 0.13555099 0.081542954

layers.0.conv3.weight f4 [12, 32, 1, 1]
000000 e0 89 b2 3a a5 0b 7a bd 57 d0 d8 bd 27 b7 05 be
       0.0013621412 -0.06104626 -0.10586613 -0.13058148
000010 53 94 ba bd 97 8b 18 3e 5b 89 02 be 82 01 72 bd
       -0.09110322 0.14897 -0.1274771 -0.05908347
000020 43 3e 22 3e 06 7b 45 be c4 36 ee bd 8a 18 81 3e
       0.15844063 -0.19285211 -0.116315395 0.25214034
000030 6f 70 70 bd 77 b5 85 3e 2a 44 00 3e b0 da 4c 3e
       -0.058700975 0.2611501 0.12526003 0.20005298
000040 0f 6d 15 3d 9a 8a a9 3d 7a 2d 25 3e a1 32 9d 3d
       0.03648096 0.08278389 0.16130629 0.07675672
000050 5b 49 1a be 7f 4a 1d 3e b3 9e 78 3d 82 fd 51 3e
       -0.15067045 0.15360449 0.060698222 0.20506862
000060 80 b3 eb bd fc 56 20 be 53 a9 2e 3e 84 c8 c8 3d
       -0.11508846 -0.15658182 0.1705678 0.0980387
000070 2f bb 24 3e 7a c8 02 be d6 8b 1a 3e 87 1f 83 be
       0.1608703 -0.12771788 0.15092406 -0.2560999
000080 36 5d 38 3d 3b 8e e9 3d 64 75 6e bd e0 dc 42 be
       0.045010768 0.114040814 -0.05821742 -0.1902957
000090 7d ef cf 3d e5 68 52 3e 60 f2 36 be cd e8 15 be
       0.10153101 0.20547827 -0.17865896 -0.14639588
0000a0 1f 80 75 bd 99 20 91 3e bc 66 60 3e 1c e5 94 3b
       -0.05993664 0.28345183 0.2191419 0.0045439135
0000b0 8e 60 07 3e 97 50 7b 3d be b3 38 3e 3c b3 81 3e
       0.13220426 0.061356153 0.18037316 0.25332057
0000c0 d4 16 5a be 02 ba 0b be 63 a4 f3 3d 29 d4 41 3d
       -0.2129777 -0.13645175 0.11896589 0.047321472
0000d0 3e b1 29 be 7d 9e b5 3d 83 3f 5c 3d 18 fa 06 be
       -0.16571519 0.0886812 0.053771507 -0.1318134
0000e0 41 7b ce bd 95 49 0a be dc 69 42 3e cb e7 6e 3c
       -0.100821026 -0.13504632 0.18985695 0.014581631
0000f0 cb 4e a7 bd 9e 3c 57 be dd 6f 29 3c 3d c2 fa 3d
       -0.081693254 -0.21019217 0.010341612 0.12244079
000100 8a 51 c9 bd 28 39 11 3e c4 46 24 3c dc f8 14 3c
       -0.098300055 0.1418196 0.010026637 0.009092536
000110 7b 7a 8f be 3a f8 51 3d af 37 43 3d a7 af 80 be
       -0.28023133 0.051262118 0.047660526 -0.25134012
000120 5a 2f 31 bc 7e 8a f7 bb 99 e3 82 bd d5 be 08 be
       -0.010814512 -0.0075543514 -0.06391067 -0.13354047
000130 e4 f0 5f be bf bd ac 3e 8a 49 56 3e 6f 77 69 bc
       -0.21869236 0.33738515 0.2092649 -0.014249667
000140 64 bd 68 bc 45 76 8a bd 87 6f c6 bd 1b 01 1a be
       -0.0142053105 -0.067608394 -0.09689241 -0.15039484
000150 c1 37 9c 3c 1a b0 b9 3d 9c 37 e9 3d 46 66 7d be
       0.019069554 0.09066792 0.1138756 -0.24746045
000160 47 ba cb 3d d7 0b e7 3d 66 9e 96 bd a2 b6 2a 3e
       0.09947639 0.11281555 -0.07354431 0.16671231
000170 64 8a 95 bd aa 2b a6 be 46 f5 82 3c 2d a6 29 be
       -0.073017865 -0.32455188 0.015986096 -0.16567297
000180 0a 9f b9 3d 70 2d 8d 3d 3c 8c 75 bd 94 d4 49 bc
       0.090635374 0.06893432 -0.05994819 -0.012318749
000190 b8 c6 ab be d9 b6 0d 3e 07 6c 3d bd 86 ca 95 3d
       -0.33550048 0.13839282 -0.0462456 0.07314019
0001a0 ff 8c 22 3e 5d 00 b6 be c5 bc 94 be ed 72 3d 3d
       0.15874098 -0.35547152 -0.2905027 0.04625218
0001b0 e6 61 10 bc fa e9 89 3e 7e 6e 3d 3d 6e 5d 1f 3e
       -0.008812403 0.26936322 0.04624795 0.15562984
0001c0 93 ea 30 b9 d0 a1 9a bd 73 5b 27 be ba 4b 4d 3e
       -0.00016872054 -0.075503945 -0.16343479 0.20048419
0001d0 fb 25 1e 3d 2f 06 99 3d f7 15 51 3e 81 ba 9f 3d
       0.03861044 0.074718826 0.20418535 0.07799245
0001e0 b7 7e a5 3d 6e bc ee 3d f8 52 4d 3e c1 3a 60 bd
       0.080808096 0.11657034 0.20051181 -0.054743532
0001f0 fc db b4 3d 4a e3 05 be 8c d9 e4 3d 82 91 49 3e
       0.08831021 -0.13074985 0.11174306 0.19684413
000200 1f 66 e4 bd 1b f2 6c 3e e2 a5 e4 bd 5c 3d 18 be
       -0.111522906 0.23139231 -0.11164452 -0.14867157
000210 fc c1 09 3d a9 8c e2 3d dd eb 60 be 8f c1 97 3e
       0.033632264 0.11061985 -0.21964975 0.2963986
000220 f7 2f 78 3d a7 63 1d 3d 09 13 b6 3d 03 95 2a be
       0.060592618 0.038425114 0.088903494 -0.16658406
000230 71 86 28 3e 1e 6a c3 3d fc ea 63 3e fd 1c ad bd
       0.16457535 0.095417246 0.22257608 -0.08452795
000240 bb ba bc 3d 94 7f b2 bd b2 aa 54 3e a2 9c 10 bd
       0.092153035 -0.0871574 0.2076824 -0.035305627
000250 3c 27 b8 3d c5 59 f9 ba 4a aa 84 bc 10 1b e7 bd
       0.08991858 -0.0019023946 -0.016194481 -0.11284459
000260 9c d3 37 3e b0 df 04 bd 13 9c a7 3d 61 0d 98 3d
       0.17951816 -0.032439888 0.08184066 0.07424427
000270 fc 8a c0 bd 4e b4 7a be 53 26 6b 3e 8e 90 5f bd
       -0.09401509 -0.24482843 0.22963838 -0.054581217
000280 dc ce 87 be e7 65 cd bd 68 ec 02 3e 32 55 f1 bc
       -0.2652501 -0.10029202 0.12785494 -0.02945957
000290 28 2f 1f be fc 8e 49 be 8f f8 00 be 98 99 1a be
       -0.15545332 -0.1968345 -0.12594818 -0.15097654
0002a0 45 68 bb bd 6a 13 41 be e6 41 2b be f3 5f fd 3c
       -0.09150747 -0.18855062 -0.16724357 0.030929541
0002b0 76 9f aa 3e e3 2f 0b 3e 99 fe a2 be 99 b6 99 3d
       0.33324784 0.13592486 -0.31834868 0.07505531
0002c0 e7 55 1a bc 74 b3 79 bd 6c 02 8b 3d dc 38 fc 3d
       -0.009419895 -0.060962155 0.06787571 0.123155326
0002d0 63 9b 33 bd a2 2b b7 39 93 33 41 be ec 60 e9 bd
       -0.04384936 0.0003493699 -0.1886733 -0.113954395
0002e0 c7 b6 90 3c c2 e7 df 3d ba 0b c6 3d af 84 ab bd
       0.01766528 0.10932876 0.096702054 -0.08374917
0002f0 a8 05 8f 3d da 21 0b 3e 70 28 0f 3c dc f4 25 be
       0.06983501 0.13587132 0.008737668 -0.16206688
000300 94 0a bc 3d 12 4d 27 bd 59 73 0c 3d b4 34 0d 3e
       0.09181705 -0.040844984 0.03428969 0.13789636
000310 78 dd 0c 3e 71 7f ee 3c 66 96 b9 3d b3 bb 34 be
       0.13756359 0.029113503 0.09061889 -0.17649727
000320 61 4e 9b 3a 9a f1 a2 3e 7c 5d 36 3e 3c d4 2c be
       0.001184892 0.31824952 0.17809099 -0.16877836
000330 34 6d 8a 3d 7a 6b a7 be 1c 47 dd bd b6 c1 f8 3d
       0.0675911 -0.32699186 -0.10804579 0.121463224
000340 4d 97 91 3e 69 b4 13 3a 46 bb 1f 3e b5 41 5a 3d
       0.28435746 0.0005634488 0.15598783 0.05328532
000350 d9 f3 68 be 69 64 bd bd 39 73 75 bd 41 08 00 be
       -0.2274927 -0.09247667 -0.059924338 -0.12503149
000360 7f 70 12 3e 96 56 99 3d c8 fd ec 3d ed d4 3f 3c
       0.14300726 0.07487218 0.115718424 0.01170848
000370 51 70 6d 3e aa 4b e4 3d a8 be 05 3e 60 a7 2c be
       0.23187377 0.11147244 0.13061011 -0.16860723
000380 5b 4b 1b be dd 85 98 bd 45 6c b4 3d 0e 95 74 be
       -0.15165465 -0.074474074 0.08809713 -0.23884985
000390 00 e9 2b 3e ca 12 94 bb 03 eb 50 3e 27 b3 b0 3d
       0.16788101 -0.0045188414 0.2040215 0.086279206
0003a0 bc 53 48 3e 97 54 0f 3e a5 26 49 3e 8d da ca 3d
       0.19563192 0.13997112 0.19643648 0.099049665
0003b0 e4 bf 8c bd 29 48 06 3d e9 a7 1e 3e 23 73 d1 bd
       -0.06872538 0.03278366 0.1549374 -0.10227039
0003c0 5d 3e 0b 3d e1 74 3a 3b e0 86 98 be 7c 4d 86 3d
       0.03399502 0.0028451013 -0.297904 0.06557748
0003d0 f7 37 20 be 73 77 dd 3d c0 6a 82 3e 60 00 e1 bd
       -0.15646349 0.10813799 0.2547207 -0.109864
0003e0 df a0 f7 bd 5f 3b 0a 3e a1 e4 e0 3d a5 7f 38 3c
       -0.120912306 0.13499211 0.109811075 0.011260902
0003f0 13 b2 44 be c1 11 b2 bd b5 b5 8e 3c 2b c6 ac 3d
       -0.19208555 -0.086947925 0.017420629 0.08436235

layers.0.bn3.weight f4 [12]
000000 e6 8e 71 3f ca cb 76 3f 9e 3b 81 3f f8 6d 8d 3f
       0.9435867 0.9640471 1.0096319 1.1049185
000010 8c 90 80 3f 7b 12 84 3f 94 10 8c 3f 77 fc 73 3f
       1.0044112 1.031814 1.0942559 0.95307106
000020 7b 38 78 3f 59 5f 77 3f 32 d2 84 3f c0 89 73 3f
       0.9696118 0.96629864 1.0376647 0.95132065

layers.0.bn3.bias f4 [12]
000000 61 fd c1 3c 09 d7 d4 bd 00 21 af ba 2d bd 6a 3c
       0.02368039 -0.10392577 -0.0013361275 0.01432733
000010 1d 48 72 bd 5b ee 8c 3c 46 44 03 bb 5a d7 12 3e
       -0.059150804 0.0172035 -0.0020029708 0.14339963
000020 2b c4 a7 3a 1c 3d 6d bd 19 fe f5 3d 6b 59 b8 bd
       0.0012799551 -0.057919607 0.12011356 -0.0900143

layers.0.bn3.running_mean f4 [12]
000000 18 ef 9a 3e ef 2a 1b 3e f0 2d 98 be ef 35 a3 3e
       0.3026054 0.15153097 -0.29722548 0.31877086
000010 9d 38 be 3e 87 9e ac be a5 11 c3 3e d9 d9 15 3e
       0.37152568 -0.33714697 0.380994 0.14633884
000020 72 bf 05 be 7f 86 ec be 46 7d 62 be 37 59 03 bf
       -0.13061312 -0.46196362 -0.221181 -0.51308006

layers.0.bn3.running_var f4 [12]
000000 31 08 ab 3e eb 95 65 3e ff c7 d9 3e 4a 4f c7 3e
       0.33404687 0.2242047 0.42535397 0.3892768
000010 87 fb c2 3e fd c7 cb 3e a6 eb b7 3e 41 2f 6e 3e
       0.38082525 0.39801016 0.35921973 0.23260213
000020 23 37 83 3e da 89 bc 3e ba 56 bd 3e ed 55 a1 3e
       0.25628003 0.36823922 0.3698023 0.3151087

layers.1.conv1.weight f4 [60, 12, 1, 1]
000000 e3 bf e4 bd 15 c4 0b be 4d b5 0c 3c 65 ec 62 be
       -0.11169412 -0.13649018 0.008588147 -0.2216049
000010 7b 2e 31 be a9 65 bb 3e 1e a6 0f 3e a4 ce 8a bd
       -0.17302887 0.36600998 0.14028212 -0.06777695
000020 8b 03 e5 3d f1 65 bb 3d f5 e2 02 3e 4c 30 27 3e
       0.111823164 0.09150303 0.1278189 0.16327018
000030 1d b8 d7 3e 9f 54 b8 bd 2a 4a 87 be d1 e8 fb 3d
       0.42132655 -0.09000515 -0.2642377 0.123002656
000040 e9 f4 28 be 2c 59 74 be 5d b0 6d be b0 d3 42 3e
       -0.16499676 -0.23862141 -0.23211809 0.19026065
000050 0e 9f 0a 3e 52 60 60 3e bd 87 95 bc fc ec 0d bd
       0.13537237 0.21911743 -0.018253202 -0.034649834
000060 55 42 d8 bd d4 c1 1e 3e d4 cd 92 bd fc 18 85 bd
       -0.10559527 0.15503627 -0.07168165 -0.06498906
000070 6c 82 2c 3e 10 04 e8 bd 55 eb e3 be d5 f0 10 bd
       0.16846627 -0.113289 -0.44515482 -0.035385925
000080 f7 6e b8 bd 28 a3 d9 be 81 a3 56 be f2 31 a1 3d
       -0.0900554 -0.4250729 -0.2096081 0.078708544
000090 88 cd 94 be 0d 20 2a be 14 22 a9 be c6 cf 9a 3e
       -0.29063058 -0.16613789 -0.33033812 0.30236644
0000a0 d7 51 08 3e b2 35 cf 3d b8 64 70 3e b8 ed 1c bd
       0.1331247 0.101176634 0.23475921 -0.038312644
0000b0 5e f3 77 3e fd 9f 7c be 35 e5 a5 be 36 3b 46 3e
       0.24213931 -0.24670406 -0.32401434 0.19358525
0000c0 58 39 89 3c d7 97 04 be 1f 16 80 3e f1 53 64 3d
       0.016750976 -0.12948547 0.25016877 0.055744115
0000d0 0e 02 82 be 74 90 f9 3d 99 9c 9a 3c 17 81 a2 3d
       -0.25392193 0.12185755 0.0188735 0.07934778
0000e0 75 4a 62 3e 58 e6 21 be c8 a3 c3 3e 9b cc 5d 3c
       0.22098716 -0.15810525 0.38210893 0.013537551
0000f0 10 74 8a bd 98 58 87 bd ee 6d 74 be da 4d d9 3d
       -0.067604184 -0.06608695 -0.2387006 0.10610552
000100 63 af 99 3e 2c 17 cb 3d af a8 d1 bd b8 5f f6 3d
       0.30016622 0.09916529 -0.10237252 0.12029976
000110 f9 81 30 3e 06 41 94 3e c7 2f 58 bd 86 1c 74 be
       0.1723708 0.2895586 -0.05277994 -0.23839006
000120 8d 49 c1 3e 5d 55 8e 3e 4c 2f 4c bc 2f 14 b8 3b
       0.37751427 0.27799502 -0.012462448 0.0056176404
000130 85 9e 2b be 4a 7a 75 3d 2e 4e 2d be e2 24 3c 3e
       -0.16759689 0.059931077 -0.16924354 0.18373445
000140 7a b5 9c be e8 c4 c5 3d dd d1 33 3d 49 f6 13 bb
       -0.30607206 0.096566975 0.043901313 -0.0022577217
000150 3a 91 0d 3e 05 b9 d7 bd 39 94 b2 3d 29 71 cc 3d
       0.13824931 -0.105333365 0.087196775 0.09982521
000160 72 a1 ae 3e 2c 7e ac 3e 8e 43 12 3d 56 eb 50 3d
       0.34107548 0.33690012 0.035708956 0.051005684
000170 7a 55 5f 3e d9 56 26 be 88 08 89 bd 51 a6 8c 3e
       0.2180995 -0.16244067 -0.0669108 0.2747064
000180 2e 85 f7 bd 13 6c 14 bd e7 9f 4c be e8 f5 a3 be
       -0.12085949 -0.03623588 -0.19982873 -0.3202355
000190 26 d2 51 bd a5 48 81 3e 3f e3 90 bd 3c 41 44 be
       -0.051225804 0.25250736 -0.07074594 -0.1916551
0001a0 a5 74 31 3e 4f 97 de bd 10 0f 9c be 54 12 00 3e
       0.17329653 -0.108687036 -0.30480242 0.12506992
0001b0 6f 2b e8 be 51 15 3a 3e b1 a5 60 3d 6a d6 26 bd
       -0.45345637 0.18172194 0.054845516 -0.040731825
0001c0 93 19 8a bd ec b7 6d 3e 68 4b b9 3c da 3e 81 3e
       -0.06743159 0.23214692 0.022618964 0.25243264
0001d0 46 ef 3c 3e dc f1 4f bc 48 76 81 3e 20 fb ca be
       0.1845065 -0.012691941 0.25285554 -0.39644718
0001e0 85 6e 05 3e 07 c4 d1 bd b7 8a 2e be 20 77 97 be
       0.13030441 -0.102424674 -0.17045103 -0.29583073
0001f0 51 5d 96 be 78 c0 51 be 66 94 62 be 45 45 97 3e
       -0.2936807 -0.20483577 -0.22126922 0.29545036
000200 81 d8 59 be a2 18 d8 be 21 e0 b3 3a 7d 78 f2 bc
       -0.21273996 -0.42206293 0.0013723412 -0.029598469
000210 4e b0 2c 3d d1 c3 05 be 21 1f 8a 3e 87 dc 31 3e
       0.042160325 -0.1306298 0.26976874 0.17369281
000220 43 7a ab 3e 51 c0 1a 3e ce f6 58 3e eb 98 2c be
       0.33491716 0.15112425 0.21187899 -0.16855209
000230 39 44 6d be c1 a0 c3 3e 3b 13 24 3e 41 67 94 be
       -0.23170556 0.38208583 0.16022961 -0.28985026
000240 22 60 c0 3e 95 25 17 3c 58 d2 5a be 2c 7a 46 3d
       0.37573344 0.009225269 -0.21369302 0.048456356
000250 29 5a 48 3d b4 da a4 3e 6a 1c 07 3c 96 d2 46 3e
       0.04891411 0.32198107 0.0082465205 0.1941627
000260 0d 75 6e 3e d1 b5 08 be a9 79 2a bd 82 17 a3 3e
       0.23286839 -0.13350607 -0.04161993 0.31853873
000270 92 1f 8c be ca f5 73 be e8 19 86 3e 5f 00 24 be
       -0.27367836 -0.2382423 0.2619164 -0.16015767
000280 49 eb 2b be b9 26 d8 3d 74 bd f0 bc 1e ad 08 3d
       -0.16788973 0.10554261 -0.029387213 0.033368222
000290 8f a0 eb 3d a1 7f e7 3e 8c 8d 07 3d f3 f7 5c 3d
       0.115052335 0.4521456 0.033093974 0.0539474
0002a0 8c ba 4c bd e5 70 c6 bd 41 7b 4e 3d 9c 91 e6 3d
       -0.049982592 -0.09689502 0.050410513 0.112582415
0002b0 a9 ce 9f bd 66 61 18 3e 61 ed 95 be f8 5a 28 be
       -0.07803089 0.14880905 -0.29282668 -0.16440952
0002c0 20 ae 6e 3e f6 ee 97 bd 1e a4 e3 3e 80 d0 6d bd
       0.23308611 -0.07418625 0.4446115 -0.05806017
0002d0 44 c0 91 be 66 07 d3 bd 06 06 70 3d 69 c0 62 3d
       -0.28467 -0.103041455 0.058599494 0.055359278
0002e0 44 dd bb 3e cb 1c 0c 3d f8 1c fd 3d ee 73 da bd
       0.3669225 0.034207147 0.12359041 -0.10666643
0002f0 4e 2e b3 be a7 bd 88 3a 20 85 4a be 01 86 67 bc
       -0.34996265 0.0010432497 -0.19777346 -0.01413107
000300 6b 43 08 be 9e 7f 46 3d b6 02 3b be 9d 8e 48 bd
       -0.13306968 0.04846155 -0.18262753 -0.04896413
000310 31 19 8e be 0b 67 f0 bb d9 c3 c5 bc 52 cf db be
       -0.27753595 -0.0073365024 -0.024141239 -0.4293161
000320 9b d2 fa 3d df f2 d7 bd ae e3 b0 3e 2a d3 ab 3d
       0.12247201 -0.10544371 0.34548706 0.08389886
000330 e6 34 4a 3b d2 61 04 3e 80 d9 02 bf ec bd 9f bd
       0.0030854284 0.1292794 -0.5111313 -0.077998966
000340 96 20 b2 bc 1d b5 86 bc 7e bf 16 3e 2a e8 08 be
       -0.021744054 -0.016443783 0.14721486 -0.13369814
000350 37 52 89 3e d6 38 e5 3d 18 e5 a3 bc 16 61 ac 3d
       0.26820537 0.11192481 -0.020006701 0.08416955
000360 6c 41 c7 be 86 02 3c 3c 6a f8 5f be b8 74 3f 3e
       -0.389171 0.011475211 -0.21872106 0.18696868
000370 d8 54 1c bb c1 5a 81 3d 0c cb a5 be a0 10 5f 3e
       -0.0023854282 0.06316138 -0.32381475 0.21783686
000380 d6 4d e3 bd ad ba 80 3e a0 ee 5f be 73 35 c7 bc
       -0.110988304 0.25142422 -0.21868372 -0.024317479
000390 db 8a 30 3d 14 d2 aa 3d 48 8c 00 be eb ed 6d 3e
       0.043101173 0.083408505 -0.12553513 0.2323529
0003a0 34 c1 e7 bd 3e c1 03 3e 4e 42 4f 3e ac b8 56 3d
       -0.113161474 0.12866685 0.20240137 0.05242221
0003b0 eb af 9b 3e 3a 41 65 3d f8 6a 19 3e 9a c8 35 be
       0.30407652 0.055970408 0.14982212 -0.17752305
0003c0 f6 0b 22 bd 3f 46 b8 be f0 8f e2 bd cd 4b 0e be
       -0.039562188 -0.35991094 -0.1106261 -0.13896103
0003d0 cc d2 d5 3d 55 7d 52 3d 5c 83 86 3e cd 0c 49 bd
       0.10440597 0.051389057 0.26272094 -0.049084473
0003e0 ea 2d ef be eb 8c 48 3c ba 86 cb 3d 4d fd 92 3d
       -0.46714717 0.012240629 0.099378064 0.071772195
0003f0 fb d6 5c 3c fd 95 8b bc 5a 22 4a 3e a0 2c 36 3e
       0.01347899 -0.017039293 0.19739667 0.1779046

layers.1.bn1.weight f4 [60]
000000 d7 b1 5e 3f 78 c2 65 3f f0 5c 4e 3f 00 f5 42 3f
       0.8699011 0.8974986 0.8061056 0.7615509
000010 6d cb 5a 3f cf b3 d9 3f 1a e8 62 3f b4 ba b0 3f
       0.85466653 1.7007998 0.8863541 1.3806977
000020 3c fb 89 3f ae bd f5 3e 5a f1 4a 3f ed cc 8b 3f
       1.0779796 0.47996277 0.79274523 1.0921913
000030 5e 45 94 3f 06 00 3a 3f 50 60 a2 3f b3 f1 82 3f
       1.1583669 0.72656286 1.2685642 1.0230011
000040 06 f1 4c 3f 1d 57 78 3f 87 e9 71 3f 85 b6 b3 3f
       0.8005527 0.97007924 0.9449696 1.4040076
000050 87 5f 94 3f c1 63 65 3f 45 d8 96 3f 25 47 64 3f
       1.1591653 0.8960534 1.178475 0.8917106
000060 f7 75 c5 3f ba 10 7e 3f e3 87 6e 3f 5d f3 16 3f
       1.5426625 0.9924427 0.93176097 0.5896509
000070 60 cf 38 3f 52 57 90 3f 24 54 43 3f 93 89 5a 3f
       0.7219143 1.1276648 0.76300263 0.8536617
000080 00 60 5f 3f c8 f0 6f 3f 16 43 40 3f 75 8f 89 3f
       0.8725586 0.9372678 0.75102365 1.0746905
000090 31 0f d6 3e 43 88 63 3f 66 ef 7e 3f e8 d9 97 3f
       0.41808465 0.88879794 0.99584043 1.1863375
0000a0 76 6e 87 3f e3 48 8a 3f 6d a7 a1 3f fb 38 79 3f
       1.0580585 1.0803493 1.2629219 0.9735257
0000b0 72 05 47 3f 63 cf 1c 3f ad 85 06 3f 84 0f 8c 3f
       0.77742684 0.61253947 0.52547723 1.0942235
0000c0 5f 1c 9b 3f c4 7a 81 3f 41 35 0a 3f 85 cb df 3f
       1.2118033 1.011559 0.5398751 1.7483984
0000d0 98 14 68 3f eb 25 57 3f 50 25 84 3f 49 60 8e 3f
       0.90656424 0.84042233 1.0323887 1.1123134
0000e0 60 b6 6c 3f 59 a5 48 3f 01 80 66 3f 94 1d 38 3f
       0.9246578 0.783773 0.9003907 0.7192013

layers.1.bn1.bias f4 [60]
000000 15 7f 88 3e db 10 e9 bd a6 ea 2f be f0 c1 80 3e
       0.26659456 -0.11380168 -0.17179355 0.25147963
000010 a9 cf 83 be a0 cf 8d be dc 24 17 3e af 41 b4 3d
       -0.2574437 -0.27697468 0.14760154 0.08801591
000020 99 17 07 3c 93 5d e4 3e eb 97 97 be 90 6f 01 bd
       0.008245372 0.4460264 -0.29608092 -0.031600535
000030 db 36 a0 3d fc c1 85 3e 13 92 92 bd 11 a5 59 bc
       0.07822963 0.2612456 -0.07156768 -0.013283984
000040 05 ec 87 3e f7 c7 e0 3d bf bd a1 bd 89 87 fd 3d
       0.26547256 0.1097564 -0.07897519 0.12379367
000050 21 0d b1 3c e4 85 f7 bd 38 06 22 bc 75 14 bf 3d
       0.021612706 -0.120860845 -0.009889178 0.09330074
000060 f5 20 29 be b0 f1 88 3e 01 d6 26 3d fa ed b5 3e
       -0.16516478 0.26746893 0.040731434 0.35533124
000070 32 4f 67 3e 3b 21 0c 3d 60 44 12 be 10 34 79 3e
       0.22588804 0.03421138 -0.14283895 0.24336267
000080 c7 00 86 3e 5d 53 1e 3e 22 b8 8a 3e 2a 27 ce bc
       0.26172468 0.15461488 0.27093607 -0.02516516
000090 70 cf f8 3e 6c 19 2d be 08 d0 8e be 2e 85 f2 bb
       0.48595762 -0.16904229 -0.2789309 -0.00740113
0000a0 e5 9e 34 3e 5e 7d e5 3d 8e 07 cc 3e ce 04 a0 bc
       0.17638738 0.112055525 0.39849514 -0.019533541
0000b0 e8 1a 79 3e 43 9d b5 3e c3 5b e8 3e d4 22 1c 3e
       0.2432667 0.35471544 0.4538251 0.15247661
0000c0 14 cb 10 3e 92 72 0e be 29 77 d3 3e ae 4f c9 3d
       0.14139968 -0.13910893 0.4130185 0.09829651
0000d0 cf d3 16 3e 77 20 5d be ee 43 a7 3d 55 66 d5 3d
       0.14729236 -0.21594416 0.081672534 0.10419909
0000e0 95 24 d7 3e 4c b3 7d 3e ac 77 30 3e 0e 1b c6 3e
       0.42020097 0.24775428 0.17233151 0.38692516
