Project/Project_files/ckpt/mobilenetv2_19_5/mobilenetv2_19_5_7.pt (torch, 52267 bytes, 52 tensors)

conv1.weight f4 [32, 3, 3, 3]
-0.13847551 -0.19268823 -0.05673158 0.092877984 -0.08390576 0.14187884 -0.06731948 -0.16972612
-0.097031 0.1165894 0.15766521 -0.05464002 -0.08647271 0.09250354 -0.1464038 0.14033107
0.08255737 -0.20846573 0.13017172 0.1344454 0.14922702 0.23797303 0.20692872 0.11152086
0.02103493 -0.075823955 0.008658424 0.136913 0.016373536 -0.09739244 0.09677416 -0.21044898
0.10389423 0.13995919 0.0721542 -0.178598 -0.028438443 0.08886665 -0.1363397 -0.140886
-0.2730831 0.09709773 0.033071786 0.1630607 -0.1888799 -0.063616656 -0.111680835 -0.08526743
0.10926832 0.041697495 0.024886996 0.0052580456 0.096225865 -0.11388068 0.04727335 -0.038350746
-0.079252124 0.065417096 0.11586698 -0.13216108 0.110859364 -0.24159247 0.15959358 0.026077181
0.08260037 -0.08162476 0.11882163 -0.24802008 -0.101930626 0.17156722 -0.14315997 -0.10808699
0.06582622 -0.035322297 -0.1749174 0.11967995 -0.21418774 0.031123115 0.14407836 -0.19986522
0.13464382 0.23567072 0.0045174244 0.076794505 0.116360575 -0.023818072 0.033706907 -0.06278435
-0.20415697 -0.13708137 -0.16843475 -0.058674354 0.029083893 -0.033566575 0.01905817 0.15675099
0.2280094 0.1645612 -0.118394084 0.009426392 -0.060018227 0.03316101 -0.024820741 -0.20978194
0.08973829 0.039176352 0.0803895 -0.01407792 0.10462356 0.04768319 0.01712322 -0.14330138
-0.14007153 0.057024267 -0.12803207 -0.16666758 0.15006654 0.13813306 -0.061342973 -0.047019735
0.038216185 -0.08032777 0.067767434 0.024494829 -0.024998106 0.31775922 -0.06656605 0.026591998
-0.07570632 0.03229489 -0.040644404 0.006751154 0.19562958 0.09612102 -0.13135114 -0.2540019
0.13509361 -0.032680273 -0.15584037 0.07995276 0.06875883 0.1518035 0.034149252 -0.14647867
-0.07577559 0.0669375 0.19830126 0.10244737 0.14068966 0.19728088 -0.01697435 -0.06230732
-0.11035309 -0.031497248 -0.07228271 0.07739701 -0.098098844 -0.005784801 0.039374392 0.044883307
-0.00527277 -0.0065451846 -0.1774336 -0.005091066 0.08226995 0.11173426 0.060589865 0.047173522
0.1600975 0.054224458 -0.056083508 -0.09444761 -0.06840231 0.14113659 0.10612993 -0.0052045626
0.037424516 0.1449523 0.27932268 0.13386443 0.08252521 -0.08074752 -0.107975006 -0.0723525
-0.20206675 -0.19311894 -0.087510444 -0.05317265 -0.15692167 -0.186054 -0.09859848 0.07664792
-0.1266505 -0.017450867 -0.18583882 0.1486375 0.01189016 0.07078373 -0.022773394 -0.24195907
-0.027615054 -0.20000552 -0.08968946 -0.11676416 0.094485626 0.054520477 0.11934204 0.04031602
0.11505518 0.03249668 -0.0324682 0.16776368 -0.010748135 0.10792221 0.175114 0.2303389
-0.16383366 -0.14345807 -0.1837611 -0.19050318 0.15030552 0.010720072 0.21470241 0.098816596
-0.02771364 0.09524125 -0.11789712 0.029644746 -0.0069767646 0.15574022 0.060406815 -0.104007185
0.15626833 0.05182831 0.19970179 -0.12715045 -0.09397633 0.13297401 0.0970433 -0.08085749
-0.19812126 -0.045923643 0.035624713 -0.06292841 -0.25711203 -0.08226685 0.13040939 -0.26761878
0.15454839 0.14438131 0.059473705 -0.029660223 0.01851086 0.15947463 0.12593009 0.07809825
00000000: 86cc 0dbe 1050 45be 605f 68bd d036 be3d
00000010: c8d6 abbd b048 113e ccde 89bd afcc 2dbe
00000020: 30b8 c6bd 6cc6 ee3d fd72 213e 37ce 5fbd
00000030: 9b18 b1bd 7f72 bd3d e1ea 15be f3b2 0f3e
00000040: d713 a93d 0a78 55be bc4b 053e 0eac 093e
00000050: f8ce 183e 34af 733e 1fe5 533e 0c65 e43d
00000060: 7251 ac3c 9749 9bbd 10dc 0d3c ec32 0c3e
00000070: cb21 863c b075 c7bd 8831 c63d f07f 57be
00000080: 80c6 d43d 7651 0f3e 95c5 933d 65e2 36be
00000090: bdf7 e8bc b8ff b53d a29c 0bbe 6b44 10be
000000a0: 8cd1 8bbe 2ddb c63d 4876 073d 62f9 263e
000000b0: bc69 41be 7349 82bd ecb8 e4bd b1a0 aebd
000000c0: 12c8 df3d feca 2a3d d0df cb3c af4b ac3b
000000d0: 1112 c53d 463a e9bd b3a1 413d ac15 1dbd
000000e0: f04e a2bd 66f9 853d ab4b ed3d 3c55 07be
000000f0: 3c0a e33d 0464 77be 806c 233e d09f d53c
00000100: 622a a93d e22a a7bd c158 f33d faf8 7dbe
00000110: 01c1 d0bd 51af 2f3e 8798 12be b65c ddbd
00000120: e6cf 863d 1dae 10bd 8c1d 33be c31a f53d
00000130: 0854 5bbe e7f5 fe3c 4789 133e 78a9 4cbe
00000140: 12e0 093e aa53 713e e706 943b 7046 9d3d
00000150: 744e ee3d 1e1e c3bc 4110 0a3d 1595 80bd
00000160: 860e 51be 0f5f 0cbe 297a 2cbe 8554 70bd
00000170: 5841 ee3c 1b7d 09bd e11f 9c3c 5583 203e
00000180: 4c7b 693e bb82 283e 9978 f2bd 2771 1a3c
00000190: acd5 75bd d7d3 073d de54 cbbc 14d1 56be
000001a0: b5c8 b73d 6277 203d 40a3 a43d 13a7 66bc
000001b0: e144 d63d 734f 433d ff45 8c3c 99bd 12be
000001c0: e96e 0fbe 4792 693d d71a 03be e8aa 2abe
000001d0: 0bab 193e c172 0d3e c542 7bbd c497 40bd
000001e0: 9388 1c3d e382 a4bd a7c9 8a3d 61a9 c83c
000001f0: d4c8 ccbc 56b1 a23e c853 88bd 76d7 d93c
00000200: ea0b 9bbd a647 043d bf7a 26bd c938 dd3b
00000210: 1f53 483e 19db c43d ea80 06be 890c 82be
00000220: fb55 0a3e c0db 05bd 9e94 1fbe 46be a33d
00000230: 6ed1 8c3d 6072 1b3e 16e0 0b3d 81fe 15be
00000240: 3c30 9bbd 8716 893d 7c0f 4b3e edcf d13d
00000250: f310 103e 0004 4a3e cb0d 8bbc f635 7fbd
00000260: cd00 e2bd 4203 01bd f508 94bd 5382 9e3d
00000270: 0ce8 c8bd 6e8e bdbb 0b47 213d 8fd7 373d
00000280: 33c7 acbb fd78 d6bb 27b1 35be f5d2 a6bb
00000290: 267d a83d efd4 e43d 142d 783d 0639 413d
000002a0: 99f0 233e 771a 5e3d d2b7 65bd c06d c1bd
000002b0: 8316 8cbd 1c86 103e a65a d93d 098b aabb
000002c0: 734a 193d 606e 143e 6203 8f3e c213 093e
000002d0: fa02 a93d f55e a5bd 0022 ddbd 8c2d 94bd
000002e0: 96ea 4ebe f9c0 45be ad38 b3bd 91cb 59bd
000002f0: 13b0 20be f184 3ebe 00ee c9bd 96f9 9c3d
00000300: abb0 01be 1ff5 8ebc 884c 3ebe 6e34 183e
00000310: f2ce 423c 0ff7 903d 458f babc 1ec4 77be
00000320: f738 e2bc 3fce 4cbe 1caf b7bd 0c22 efbd
00000330: ae81 c13d dd50 5f3d 9969 f43d 6922 253d
00000340: 0da2 eb3d 3d1b 053d 60fd 04bd 3eca 2b3e
00000350: f218 30bc 5206 dd3d 1651 333e f6dd 6b3e
00000360: 03c4 27be ace6 12be df2b 3cbe 4413 43be
00000370: b1e9 193e 3ea3 2f3c f3da 5b3e 5b60 ca3d
00000380: b707 e3bc d80d c33d 0c74 f1bd 8ad9 f23c
00000390: 589d e4bb 5d7a 1f3e 236d 773d b801 d5bd
000003a0: ce04 203e ec49 543d a07e 4c3e ba33 02be
000003b0: a976 c0bd 572a 083e a3be c63d 9d98 a5bd
000003c0: 4de0 4abe 6e1a 3cbd 38eb 113d 9ce0 80bd
000003d0: 30a4 83be 867b a8bd 0a8a 053e 5405 89be
000003e0: ef41 1e3e b2d8 133e b39a 733d fff9 f2bc
000003f0: 16a4 973c 514d 233e d1f3 003e faf1 9f3d

bn1.weight f4 [32]
0.9653075 0.9338443 0.9960709 1.1011642 1.0231707 0.97816634 1.0565497 0.98414177
1.0252072 1.0696096 0.92833537 1.1072041 0.92696154 0.9214095 0.9802525 0.94694144
1.0073017 0.9701754 0.99273974 0.9685348 1.0245692 1.19616 0.9471203 1.0045347
0.96843874 0.93425596 1.006098 1.0651095 0.9929203 0.96374243 0.9104625 1.0627857
00000000: 641e 773f 6c10 6f3f 81fe 7e3f f3f2 8c3f
00000010: 42f7 823f 1c69 7a3f 053d 873f b7f0 7b3f
00000020: fd39 833f f8e8 883f 63a7 6d3f ddb8 8d3f
00000030: 5a4d 6d3f 7ee1 6b3f d4f1 7a3f c16a 723f
00000040: 43ef 803f 6a5d 783f 3124 7e3f e6f1 773f
00000050: 1525 833f c51b 993f 7a76 723f 9894 803f
00000060: 9aeb 773f 662b 6f3f d2c7 803f 8255 883f
00000070: 0630 7e3f d3b7 763f 1214 693f 5d09 883f

bn1.bias f4 [32]
0.011718832 -0.033406112 0.046174664 -0.0045811357 -0.030982768 -0.03335823 -7.037391e-05 -0.0035343545
0.012954941 0.008435857 -0.017638832 -0.00917823 0.025774265 -0.0088726645 -0.015761208 -0.009580978
0.02979577 -0.023645734 -0.02754919 0.042087298 0.010264035 0.062949136 0.01651072 -0.053696953
0.007445616 0.005995528 0.041794796 -0.04038329 -0.029153775 0.04901721 0.014560112 0.0061635133
00000000: 5800 403c d9d4 08bd a521 3d3d 5a1d 96bb
00000010: 93cf fdbc a4a2 08bd b595 93b8 a1a0 67bb
00000020: f640 543c 8c36 0a3c 507f 90bc 4960 16bc
00000030: 8d24 d33c a75e 11bc a61d 81bc 89f9 1cbc
00000040: 4216 f43c b3b4 c1bc d7ae e1bc bb63 2c3d
00000050: 7c2a 283c 7aeb 803d 7d41 873c 56f1 5bbd
00000060: 5bfa f33b 2276 c43b 0531 2b3d f368 25bd
00000070: e6d3 eebc 45c6 483d 898d 6e3c 4cf7 c93b

bn1.running_mean f4 [32]
0.009274609 0.0030646473 0.0010033156 -0.004392615 -0.0058264504 -0.0012602912 -0.010951744 -0.0021122152
0.0013561727 0.0028159819 -0.008809934 0.0031426058 -0.0115148 -0.005150356 -0.006040742 -0.0036924302
-0.0013598393 -0.0026825496 -0.0009262591 -0.0023006469 0.0020125706 -0.00034157824 -0.008503375 -0.0033891886
0.0023462968 0.0007458964 0.011330769 0.0045470013 -0.0009472298 -0.00065704354 -0.0038555218 -0.003292443
00000000: 88f4 173c 40d8 483b af81 833a edef 8fbb
00000010: cfeb bebb 5b30 a5ba f26e 33bc 176d 0abb
00000020: 9bc1 b13a 568c 383b 8b57 10bc 2df4 4d3b
00000030: 92a8 3cbc 51c4 a8bb 6bf1 c5bb b3fc 71bb
00000040: a33c b2ba b7cd 2fbb 32d0 72ba 73c6 16bb
00000050: 55e5 033b db15 b3b9 bd51 0bbc 261d 5ebb
00000060: 54c4 193b 4388 433a b1a4 393c 03ff 943b
00000070: 844f 78ba 723d 2cba ecac 7cbb 07c6 57bb

bn1.running_var f4 [32]
0.7658507 0.31372154 0.49541456 0.07345483 0.111813 0.21355468 0.3481217 0.5172715
0.13575903 0.09396642 0.75200135 0.12205684 3.2833881 0.24027471 0.36853123 0.09041508
0.21680404 0.24243908 0.061729852 0.17587954 0.32747203 0.1386653 0.7202315 0.16392033
0.1608969 0.341824 0.38098812 0.18561843 0.19793466 0.3892601 0.27694273 0.37869316
00000000: cb0e 443f 1ca0 a03e faa6 fd3e 7c6f 963d
00000010: 37fe e43d 14ae 5a3e 023d b23e e86b 043f
00000020: 6a04 0b3e 7771 c03d 2983 403f f0f8 f93d
00000030: 0823 5240 930a 763e 20b0 bc3e 8b2b b93d
00000040: e101 5e3e f341 783e 71d8 7c3d c419 343e
00000050: 6aaa a73e 47fe 0d3e 1761 383f bbda 273e
00000060: 28c2 243e 8e03 af3e e010 c33e c212 3e3e
00000070: 62af 4a3e 1a4d c73e 70cb 8d3e 12e4 c13e

layers.0.conv1.weight f4 [32, 32, 1, 1]
-0.08355795 0.18100281 0.1558333 0.21864855 -0.11088853 -0.09281943 -0.07965252 0.119640164
-0.14395605 -0.20009269 0.07168468 -0.13900357 -0.05750865 0.016937638 0.014015175 0.095416665
0.1650929 0.04097684 0.07797813 0.001385215 -0.035782315 0.020114874 0.08262715 -0.12323854
0.08959051 -0.03708478 0.019965261 0.12728935 -0.03986079 0.05359879 -0.056014467 0.110652715
0.09907102 -0.018575635 0.005458318 0.21561258 -0.046832237 0.0706538 -0.021749338 -0.20764174
-0.056655552 0.15852812 0.054621816 0.076888226 0.0722725 -0.11771206 0.050013103 -0.09215776
-0.12057072 -0.1902098 0.079134375 -0.09216811 -0.06927325 -0.10534418 0.076344304 0.079699725
0.037003335 0.057432625 0.13947266 -0.099742346 0.028477095 0.08673152 -0.068734065 -0.059516802
-0.16897748 -0.016529085 0.19574282 -0.14528038 -0.049046136 -0.082452565 -0.00569965 -0.02039971
-0.04506637 0.045437824 -0.03778066 0.008085873 -0.035202287 -0.21500401 -0.10283549 -0.11606474
0.11019986 -0.020328863 -0.08735157 0.12506919 -0.02263973 -0.07391347 -0.116781205 -0.3237167
0.15214905 0.08310194 0.06931221 -0.24250038 -0.070966594 -0.18445507 -0.13686515 0.11194474
0.07360778 0.055964604 0.04436993 -0.21249956 -0.007440805 0.11355212 0.018422108 0.21945775
0.057732474 0.17791942 -0.09267329 0.0054159053 0.08563874 0.12382648 -0.042374067 -0.06945695
-0.08606228 -0.112706035 0.10961325 -0.20909534 -0.009491597 -0.2924347 -0.17839728 0.038261484
-0.112951554 -0.044024516 0.15949115 -0.091342285 -0.035769574 -0.060860015 0.026725402 0.014690213
0.072121345 0.18065862 0.080907315 -0.0072947745 0.055945612 0.060408805 -0.15292862 0.07276798
-0.10602709 0.016254134 0.20132272 -0.07511851 -0.12559418 -0.051568065 -0.12837125 -0.18154404
0.06414362 -0.206377 0.07257623 -0.1090575 -0.025626058 -0.11366396 -0.045337122 0.23399885
0.11196997 0.063192345 -0.10203605 -0.15397227 0.026969206 -0.037148025 0.025688386 -0.04592416
-0.05066696 0.09681696 0.01729967 -0.21023104 -0.09878572 0.033197343 -0.22109964 0.12077046
-0.17958052 0.11266025 -0.043040544 -0.19182283 -0.07620957 0.06949273 -0.14857307 -0.012959096
-0.11985774 0.02438257 0.096407466 -0.10914553 -0.03308352 -0.044315536 0.08828411 0.032785542
-0.115531996 -0.00095841347 0.055213373 0.034965597 0.05600764 -0.042181227 -0.059719276 0.013893454
0.1128896 0.14337032 0.12581715 0.14536114 0.008279543 -0.013289196 0.07683547 0.010593074
-0.1542338 0.060440335 -0.038719393 -0.08509069 -0.1503513 0.15777645 0.17201646 -0.17270614
0.08323346 -0.110359825 -0.020139558 -0.13541363 0.1338317 -0.1372627 0.09283223 0.06687267
-0.06223195 0.18805224 0.06586046 0.05343464 0.1263381 -0.042693883 0.11298495 -0.08436137
0.14928962 -0.22164838 0.19826362 -0.19843838 -0.0965067 -0.02396371 0.02447385 0.08892758
-0.21540917 0.03424872 -0.22059855 0.07433206 0.08509028 -0.12502547 -0.0018514327 0.022197029
0.11766931 -0.17415597 -0.03165954 0.054997623 0.16784674 0.09593173 -0.10613647 0.105017096
-0.041354734 -0.0646837 0.22181007 -0.08732068 0.0993011 0.1846712 0.17140535 0.19622797
00000000: 6e20 abbd cd58 393e c492 1f3e 68e5 5f3e
00000010: 8719 e3bd 1d18 bebd dc20 a3bd e705 f53d
00000020: 3769 13be 19e5 4cbe 6bcf 923d f456 0ebe
00000030: 318e 6bbd cdc0 8a3c e89f 653c d069 c33d
00000040: 1d0e 293e 55d7 273d ffb2 9f3d 1a90 b53a
00000050: 7a90 12bd f3c7 a43c 6c38 a93d 7d64 fcbd
00000060: 3b7b b73d 36e6 17bd 308e a33c 2458 023e
00000070: 1145 23bd 688a 5b3d 6d6f 65bd e49d e23d
00000080: bfe5 ca3d ee2b 98bc b1db b23b 8bc9 5c3e
00000090: 29d3 3fbd f1b2 903d ab2b b2bc 09a0 54be
000000a0: a70f 68bd 3255 223e 20bb 5f3d 9377 9d3d
000000b0: 9b03 943d 0513 f1bd 8ada 4c3d 35bd bcbd
000000c0: c8ed f6bd 5cc6 42be 3411 a23d a2c2 bcbd
000000d0: 22df 8dbd b0be d7bd 675a 9c3d 9c39 a33d
000000e0: cf90 173d 793e 6b3d ecd1 0e3e b745 ccbd
000000f0: cc48 e93c 4ca0 b13d 72c4 8cbd e4c7 73bd
00000100: 6f08 2dbe 0168 87bc ce70 483e 61c4 14be
00000110: 9ae4 48bd e4dc a8bd 21c4 babb 4b1d a7bc
00000120: 8497 38bd 031d 3a3d e5bf 1abd 9c7a 043c
00000130: 4630 10bd 032a 5cbe 6a9b d2bd 5ab3 edbd
00000140: 77b0 e13d b788 a6bc 61e5 b2bd 2312 003e
00000150: f476 b9bc f25f 97bd fc2a efbd 32be a5be
00000160: f6cc 1b3e 5a31 aa3d 8ff3 8d3d 0552 78be
00000170: ef56 91bd cae1 3cbe 6126 0cbe 4943 e53d
00000180: adbf 963d 243b 653d 3ebd 353d 7c99 59be
00000190: ffd1 f3bb 048e e83d f6e9 963c 88b9 603e
000001a0: e378 6c3d 8230 363e 7ecb bdbd e877 b13b
000001b0: 5d63 af3d bd98 fd3d 6e90 2dbd 723f 8ebd
000001c0: 6c41 b0bd 6cd2 e6bd e97c e03d 171d 56be
000001d0: a582 1bbc 00ba 95be c7ad 36be 13b8 1c3d
000001e0: 2553 e7bd 0d53 34bd a651 233e aa11 bbbd
000001f0: 1e83 12bd 5a48 79bd 3bef da3c 38af 703c
00000200: 5bb4 933d 93fe 383e bcb2 a53d 0109 efbb
00000210: 3a27 653d 396f 773d 5299 1cbe 6107 953d
00000220: bb24 d9bd 6427 853c 8b27 4e3e bcd7 99bd
00000230: c39b 00be 0939 53bd c173 03be aee6 39be
00000240: bb5d 833d 7e54 53be d9a2 943d 8a59 dfbd
00000250: bded d1bc a6c8 e8bd 6bb3 39bd 659d 6f3e
00000260: 8350 e53d fd6a 813d 47f8 d0bd e8aa 1dbe
00000270: 86ee dc3c 8728 18bd 7370 d23c f91a 3cbd
00000280: 2988 4fbd f847 c63d 0ab8 8d3c ce46 57be
00000290: 2b50 cabd f0f9 073d f267 62be 8156 f73d
000002a0: f5e3 37be 6bba e63d 484b 30bd 346d 44be
000002b0: c313 9cbd 3452 8e3d 8a23 18be 6352 54bc
000002c0: fa77 f5bd f5bd c73c 4771 c53d b187 dfbd
000002d0: 9682 07bd 3584 35bd 4dce b43d 224a 063d
000002e0: 0a9c ecbd 0a3e 7bba 6b27 623d 1638 0f3d
000002f0: 4468 653d 39c6 2cbd 339c 74bd 5fa1 633c
00000300: aa32 e73d abcf 123e 36d6 003e 8dd9 143e
00000310: eca6 073c eeba 59bc ea5b 9d3d 938e 2d3c
00000320: 77ef 1dbe 4990 773d 3a98 1ebd 0744 aebd
00000330: b1f5 19be 2690 213e 1525 303e e1d9 30be
00000340: 4e76 aa3d 5504 e2bd b7fb a4bc dfa9 0abe
00000350: 2d0b 093e 988e 0cbe d31e be3d 8af4 883d
00000360: eee6 7ebd c490 403e d9e1 863d 48de 5a3d
00000370: c65e 013e c8df 2ebd a764 e73d a7c5 acbd
00000380: 61df 183e cbf7 62be 9e05 4b3e 6e33 4bbe
00000390: 4ea5 c5bd 8b4f c4bc 627d c83c aa1f b63d
000003a0: 3994 5cbe 6348 0c3d 96e4 61be 683b 983d
000003b0: d043 ae3d ad06 00be c6ab f2ba 8bd6 b53c
000003c0: 9bfc f03d f155 32be 6fad 01bd 3045 613d
000003d0: 04e0 2b3e db77 c43d 145e d9bd 3413 d73d
000003e0: 9563 29bd e378 84bd 2e22 633e 2fd5 b2bd
000003f0: 605e cb3d 721a 3d3e e284 2f3e fcef 483e

layers.0.bn1.weight f4 [32]
1.0724916 0.7085854 1.0383543 0.87576514 1.0455803 0.93604916 0.7599984 0.9236914
0.94859385 0.3360192 1.2594882 0.8829474 0.9067413 0.82876515 0.65724957 1.004598
0.83429563 0.4579047 0.8714956 0.97223425 0.92272335 0.9651497 0.9161013 0.8254479
0.9739551 0.92731756 0.84568894 0.9634103 0.47702405 0.61065495 1.0536691 0.84405005
00000000: 6847 893f da65 353f cbe8 843f 2532 603f
00000010: 93d5 853f eba0 6f3f 418f 423f 0a77 6c3f
00000020: 0cd7 723f b50a ac3e e936 a13f d708 623f
00000030: 3320 683f f429 543f 8241 283f ab96 803f
00000040: 6694 553f 7c72 ea3e 561a 5f3f 58e4 783f
00000050: 9937 6c3f 0d14 773f 9d85 6a3f 8e50 533f
00000060: 1f55 793f af64 6d3f 127f 583f 0fa2 763f
00000070: 7f3c f43e e253 1c3f a1de 863f aa13 583f

layers.0.bn1.bias f4 [32]
-0.06956372 0.21838574 0.050659627 0.13567932 0.015301077 0.12420065 0.16839507 0.21114463
0.09402828 0.4359355 0.10853963 0.12570144 -0.08323954 -0.15714869 0.28719503 -0.0066401362
-0.14834264 0.41580796 -0.14663698 0.05400802 0.10300204 -0.05423192 0.11892727 0.16418369
0.08356255 0.057302065 0.14497623 -0.08768643 0.36802956 0.2893574 0.023134599 0.15054855
00000000: 6c77 8ebd 83a0 5f3e 7880 4f3d 85ef 0a3e
00000010: 5eb1 7a3c e95c fe3d c26f 2c3e 4c36 583e
00000020: e691 c03d f032 df3e 074a de3d e1b7 003e
00000030: 7e79 aabd 96eb 20be 3a0b 933e 8095 d9bb
00000040: 22e7 17be c8e4 d43e 0128 16be 8337 5d3d
00000050: bcf2 d23d 4a22 5ebd 2490 f33d c51f 283e
00000060: d822 ab3d 92b5 6a3d a674 143e f194 b3bd
00000070: 5f6e bc3e a726 943e c584 bd3c 6629 1a3e

layers.0.bn1.running_mean f4 [32]
0.0092397155 0.00075555 0.044761207 -0.02248097 -0.027826207 -0.020071914 -0.01702092 0.061303772
0.00029316134 0.0031640464 0.0038256568 0.007980827 -0.019610716 0.009587335 0.011395782 0.0005722826
-0.042160835 -0.0064300788 -0.03309838 -0.029049465 -0.044195477 -0.012975061 -0.008945123 0.04458142
0.054367017 -0.024014752 -0.03351476 -0.014647019 0.011806751 0.022726785 -0.025180837 -0.02106967
00000000: 2d62 173c 1a10 463a 8757 373d 032a b8bc
00000010: c9f3 e3bc db6d a4bc 756f 8bbc aa19 7b3d
00000020: 73b3 9939 e45b 4f3b dfb7 7a3b 04c2 023c
00000030: a7a6 a0bc 3314 1d3c 60b5 3a3c 3c05 163a
00000040: d7b0 2cbd 69b3 d2bb 2b92 07bd 25f9 edbc
00000050: 5106 35bd 5a95 54bc 918e 12bc 029b 363d
00000060: f3af 5e3d 96ba c4bc c646 09bd 0dfa 6fbc
00000070: 1a71 413c 862d ba3c 0b48 cebc 4d9a acbc

layers.0.bn1.running_var f4 [32]
0.36974925 0.5652126 1.7034001 0.70048505 0.709802 0.65706956 0.5294854 0.5344767
0.8266642 0.5480224 0.9416558 0.9782435 0.6247258 1.232148 0.36556685 0.7510178
0.9395059 0.42018282 0.6119462 1.1614878 1.4506221 1.5214028 0.8066098 1.1739277
1.1917012 0.8351904 0.38603327 0.46484295 0.99349195 0.8297217 0.623125 0.54258484
00000000: c64f bd3e c6b1 103f 0409 da3f fd52 333f
00000010: 95b5 353f b635 283f 5b8c 073f 77d3 083f
00000020: 44a0 533f 324b 0c3f 5b10 713f 2b6e 7a3f
00000030: 08ee 1f3f 07b7 9d3f 942b bb3e b442 403f
00000040: 7583 703f 3422 d73e 82a8 1c3f a2ab 943f
00000050: fcad b93f 54bd c23f fb7d 4e3f 4343 963f
00000060: aa89 983f 0acf 553f 27a6 c53e e5ff ed3e
00000070: 7d55 7e3f a468 543f 1f85 1f3f d7e6 0a3f

layers.0.conv2.weight f4 [32, 1, 3, 3]
-0.14215092 0.10898906 0.34365767 0.19806199 0.40298977 0.29134393 -0.03048054 -0.08250229
0.16697717 0.22473328 0.4277106 0.23270409 -0.21890585 -0.1643572 0.030904919 0.13545176
-0.20246352 -0.20532957 0.1260885 -0.30275947 0.09766181 -0.3337815 0.1464452 -0.31907094
-0.080121994 0.19624762 -0.072925866 -0.12278778 -0.257319 -0.19073924 0.15764116 0.16661105
-0.20460093 0.22717641 -0.30094796 -0.29314953 0.23535259 0.06383938 -0.13152564 0.06949191
-0.21927567 -0.03779423 0.42953277 -0.24134208 -0.06069859 0.14580278 -0.26002288 -0.14121965
-0.25122556 -0.093470156 -0.033079144 0.26794416 0.0161006 0.39083406 0.020658288 0.06519282
-0.35904333 0.13687849 0.1915568 -0.19866294 -0.14523068 0.093964435 0.04531141 -0.15465637
0.06846854 0.26693037 0.060563035 0.2570426 -0.07747811 0.30110613 -0.07068022 -0.35750347
0.088624455 0.34268242 0.0699964 0.3476516 0.064123355 -0.0934681 -0.040525742 0.11169541
-0.26867312 -0.14787231 0.31648946 -0.22717668 -0.0755592 0.08183293 -0.0022100015 -0.079900116
0.198354 -0.11381932 -0.26660386 0.14168036 0.0313771 -0.2458349 0.1874292 0.1957611
-0.05011594 0.3571796 -0.17489745 -0.14753947 0.0064023826 -0.038742814 -0.2646627 -0.09216062
0.11719528 0.16792041 0.28181216 0.021803573 0.06125549 -0.12746447 0.15034403 -0.44251013
-0.45565477 -0.26378515 -0.39401093 0.12265 0.104319505 0.082310125 0.030570623 -0.046335913
-0.12965041 -0.10779797 -0.22541934 -0.13857894 -0.2658614 -0.13140759 0.1997105 0.39746973
0.0880524 -0.14197205 -0.31250775 0.1403063 -0.1326494 -0.035045605 -0.21603732 -0.17087898
-0.3000286 -0.11506782 0.009187851 -0.12050078 -0.08045857 0.2872059 0.021379527 0.20493871
0.15794179 -0.2047229 -0.2154595 0.17714277 0.09070158 0.052769072 -0.057856414 0.2888798
0.13222715 -0.21503057 0.059934217 0.28208554 -0.093453325 -0.15027004 0.26810342 0.056971826
-0.14152056 -0.17930496 -0.26748383 -0.27397078 -0.0047915736 -0.30933866 -0.1429059 0.050303042
0.0005570102 -0.033793427 -0.0075099124 -0.16875869 -0.07607585 -0.45920846 -0.12986426 -0.148858
-3.6124322e-06 0.08352789 -0.13571654 0.15776111 -0.16701803 0.25047135 0.32392544 0.106134556
0.24030434 0.02871556 0.19138575 0.0024882574 0.036289774 -0.02105708 0.10499029 -0.19739291
0.08238492 0.14077644 -0.17794485 -0.276289 0.07139664 0.1313098 0.08943811 0.081026554
-0.11904021 0.02907935 0.21384971 0.28292847 0.20588353 0.2087998 0.09661508 0.019388296
0.3332312 0.3030186 0.23682667 0.2877471 -0.09805867 0.37656236 -0.26052305 -0.025204899
0.284535 -0.15099797 0.021815803 0.0018879037 0.34015104 0.24792323 0.16249645 -0.15449512
-0.1682365 -0.0961875 0.09684839 0.20785291 0.4156228 0.26484936 -0.22321616 0.022688922
0.149362 -0.030553965 -0.066094324 -0.11580428 0.17593151 -0.22746247 -0.019159619 -0.43374297
-0.1421293 -0.19450575 0.026616832 0.26224726 -0.015658109 0.27398765 0.17684567 0.17990844
-0.24936135 -0.118342414 -0.3134647 0.04531835 0.08752545 -0.19855517 0.24521849 0.05510662
00000000: 0390 11be a835 df3d e6f3 af3e c3d0 4a3e
00000010: ad54 ce3e 082b 953e 53b2 f9bc f6f6 a8bd
00000020: 10fc 2a3e 7b20 663e e2fc da3e fb49 6e3e
00000030: db28 60be 414d 28be 502c fd3c deb3 0a3e
00000040: 9952 4fbe ea41 52be 581d 013e 4a03 9bbe
00000050: ea02 c83d 69e5 aabe bbf5 153e 445d a3be
00000060: 0017 a4bd 23f5 483e 285a 95bd 2978 fbbd
00000070: 51bf 83be 2651 43be af6c 213e 169c 2a3e
00000080: e882 51be efa0 683e da15 9abe b217 96be
00000090: 4500 713e 39be 823d a8ae 06be c651 8e3d
000000a0: cd89 60be 1fce 1abd b8eb db3e 6122 77be
000000b0: 169f 78bd 534d 153e b821 85be e29b 10be
000000c0: a3a0 80be 486d bfbd ff7d 07bd fa2f 893e
000000d0: 68e5 833c 671b c83e 923b a93c d083 853d
000000e0: 87d4 b7be e029 0c3e 7727 443e 4c6e 4bbe
000000f0: 5ab7 14be 6d70 c03d 7598 393d 3d5e 1ebe
00000100: 3c39 8c3d 19ab 883e f210 783d 169b 833e
00000110: d8ac 9ebd 952a 9a3e cbc0 90bd b20a b7be
00000120: bd80 b53d 1274 af3e 465a 8f3d 64ff b13e
00000130: 1b53 833d 346c bfbd 52fe 25bd 90c0 e43d
00000140: 868f 89be d76b 17be e80a a23e 01a1 68be
00000150: c8be 9abd 0698 a73d acd5 10bb aca2 a3bd
00000160: 501d 4b3e 1b1a e9bd 4d80 88be a814 113e
00000170: 4685 003d 25bc 7bbe 71ed 3f3e 9975 483e
00000180: 5f46 4dbd 3fe0 b63e 5118 33be 9614 17be
00000190: 14cb d13b c9b0 1ebd df81 87be b5be bcbd
000001a0: 1404 f03d 54f3 2b3e af49 903e 689d b23c
000001b0: 09e7 7a3d 0c86 02be c9f3 193e b090 e2be
000001c0: 954b e9be d90e 87be cdbb c9be ec2f fb3d
000001d0: 77a5 d53d 3692 a83d 3e6f fa3c baca 3dbd
000001e0: 14c3 04be 2fc5 dcbd 54d4 66be a3e7 0dbe
000001f0: fc1e 88be b68f 06be e980 4c3e 2781 cb3e
00000200: d154 b43d 1f61 11be 0401 a0be 74ac 0f3e
00000210: 3fd5 07be fb8b 0fbd e338 5dbe e6fa 2ebe
00000220: 599d 99be ada8 ebbd a488 163c 1dc9 f6bd
00000230: 76c7 a4bd a70c 933e 1e24 af3c 74db 513e
00000240: 7ebb 213e e1a2 51be 6aa1 5cbe ea64 353e
00000250: c0c1 b93d 6224 583d d9fa 6cbd 0ee8 933e
00000260: 8e66 073e f930 5cbe 957d 753d 846d 903e
00000270: 7564 bfbd 64e0 19be da44 893e 4a5b 693d
00000280: c4ea 10be b89b 37be a4f3 88be e645 8cbe
00000290: a202 9dbb a361 9ebe ed55 12be 900a 4e3d
000002a0: 5204 123a fa6a 0abd b615 f6bb 14cf 2cbe
000002b0: a8cd 9bbd 5f1d ebbe 23fb 04be 3b6e 18be
000002c0: 1d6d 72b6 ac10 ab3d 47f9 0abe 218c 213e
000002d0: c606 2bbe c83d 803e 8ed9 a53e 135d d93d
000002e0: 5712 763e e53c eb3c a0fa 433e 0812 233b
000002f0: 96a4 143d e67f acbc 2605 d73d 5e21 4abe
00000300: 6db9 a83d b327 103e 2d37 36be c075 8dbe
00000310: 6738 923d 1476 063e 542b b73d 40f1 a53d
00000320: 5bcb f3bd d137 ee3c 6bfb 5a3e 00dc 903e
00000330: 22d3 523e 9dcf 553e 21de c53d 34d4 9e3c
00000340: 489d aa3e 4125 9b3e b182 723e 9753 933e
00000350: fcd2 c8bd c8cc c03e 4763 85be 817a cebc
00000360: 92ae 913e 369f 1abe 0eb7 b23c 8973 f73a
00000370: 4728 ae3e 96df 7d3e 7865 263e f833 1ebe
00000380: 3046 2cbe f4fd c4bd 7358 c63d 65d7 543e
00000390: 83cc d43e 569a 873e c792 64be 1ede b93c
000003a0: 5af2 183e 4f4c fabc 765c 87bd cb2a edbd
000003b0: 6427 343e eceb 68be a2f4 9cbc 8f13 debe
000003c0: 588a 11be 842c 47be 8b0b da3c 4645 863e
000003d0: 6f45 80bc 1c48 8c3e 0817 353e eb39 383e
000003e0: 9558 7fbe 825d f2bd 727e a0be bc9f 393d
000003f0: 8b40 b33d 0c52 4bbe 8e1a 7b3e 7bb7 613d

layers.0.bn2.weight f4 [32]
0.9294673 0.9298429 0.8755346 0.94392926 0.9916775 1.0273595 0.9519625 1.1805079
0.95275056 1.1786292 1.1335504 1.0257297 0.97328687 1.2194518 1.058099 0.9637076
1.2185467 1.0517268 1.0520079 0.96595025 1.0777367 0.8728929 0.8424368 0.88994455
0.918285 0.9020089 0.96743256 1.1428521 0.9956641 1.1949435 0.9232448 1.1177491
00000000: 92f1 6d3f 2f0a 6e3f 0923 603f 59a5 713f
00000010: 94de 7d3f 8480 833f d0b3 733f e21a 973f
00000020: 76e7 733f 52dd 963f 2e18 913f 1c4b 833f
00000030: 5429 793f ff16 9c3f ca6f 873f 8bb5 763f
00000040: 57f9 9b3f fc9e 863f 32a8 863f 8448 773f
00000050: 47f3 893f e975 5f3f f0a9 573f 68d3 633f
00000060: ba14 6b3f 0eea 663f a9a9 773f fa48 923f
00000070: d8e3 7e3f e9f3 983f c559 6c3f 6712 8f3f

layers.0.bn2.bias f4 [32]
-0.14847068 0.13944174 -0.046921685 0.015943257 -0.24246459 -0.091377206 -0.10021773 0.03981161
0.09592541 -0.0062718675 0.16409956 0.023191702 0.08760887 0.097725265 -0.21322954 -0.035564277
0.006317918 -0.19731802 0.15156518 -0.033906452 0.12510328 -0.02002772 0.34813255 0.07465852
-0.0071335533 0.008954545 -0.08293511 -0.03518864 0.02136908 -0.15914512 0.09846601 -0.031807803
00000000: b308 18be d1c9 0e3e f430 40bd 6f9b 823c
00000010: a348 78be f923 bbbd f43e cdbd 8011 233d
00000020: 8b74 c43d 3d84 cdbb b709 283e 86fc bd3c
00000030: 476c b33d 2f24 c83d d858 5abe d9ab 11bd
00000040: 8a06 cf3b bc0d 4abe e733 1b3e 7ee1 0abd
00000050: 131b 003e 2c11 a4bc 6e3e b23e 91e6 983d
00000060: 95c0 e9bb 15b6 123c e2d9 a9bd f721 10bd
00000070: 350e af3c f0f6 22be 8ca8 c93d e648 02bd

layers.0.bn2.running_mean f4 [32]
0.44699943 0.06883069 -0.22832103 -0.34122545 -0.0016257939 0.023942666 -0.03857013 0.13237941
0.24183196 -0.015743723 0.12555651 0.029343178 -0.36728483 -0.16447477 -0.03679945 -0.09893307
0.09670041 -0.05487651 -0.24600022 -0.31720218 0.35092902 -0.05354781 0.3941292 0.4001264
0.23430455 0.30119026 -0.3783872 0.048142273 -0.03903056 -0.020077107 0.2524239 0.026972022
00000000: 1cdd e43e 1bf7 8c3d fdcc 69be 1ab5 aebe
00000010: 9718 d5ba 6923 c43c b6fb 1dbd 788e 073e
00000020: cca2 773e fbf8 80bc e391 003e 1b61 f03c
00000030: c20c bcbe 136c 28be 05bb 16bd 6c9d cabd
00000040: dd0a c63d 31c6 60bd 7be7 7bbe 5368 a2be
00000050: f8ac b33e f354 5bbd 4dcb c93e 5edd cc3e
00000060: 88ed 6f3e 9c35 9a3e f8bb c1be d530 453d
00000070: 82de 1fbd bf78 a4bc b53d 813e 6ef4 dc3c

layers.0.bn2.running_var f4 [32]
0.5134264 0.09667019 0.08130948 0.20177022 0.15215857 0.06661342 0.091475144 0.1369212
0.14982873 0.027563151 0.4079176 0.015412972 0.28063044 0.06744631 0.09996395 0.059825633
0.07000212 0.041153714 0.16244864 0.15787919 0.20985062 0.013624859 0.24185881 0.22225562
0.10545263 0.16853918 0.24435031 0.09808679 0.012277451 0.10473975 0.15946673 0.11659565
00000000: ea6f 033f 05fb c53d 9685 a63d da9c 4e3e
00000010: 75cf 1b3e 9e6c 883d 5257 bb3d 1235 0c3e
00000020: b46c 193e 1ecc e13c 93da d03e b186 7c3c
00000030: cbae 8f3e 4a21 8a3d e6b9 cc3d b90b 753d
00000040: 465d 8f3d cc90 283d f058 263e 15ab 213e
00000050: 15e3 563e cd3a 5f3c d6a9 773e fa96 633e
00000060: 8cf7 d73d 8995 2c3e f836 7a3e bae1 c83d
00000070: 5d27 493c cb81 d63d 3f4b 233e b3c9 ee3d

layers.0.conv3.weight f4 [12, 32, 1, 1]
0.027640523 -0.017180417 -0.07048993 -0.100197054 -0.056333914 0.105105326 -0.16041991 -0.013692952
0.13008519 -0.16741616 -0.03992492 0.17790605 -0.055506315 0.24083287 0.12368618 0.18254362
-0.023569498 0.06315189 0.18745038 0.110097714 -0.10166133 0.09227482 0.03724814 0.15926082
-0.09535207 -0.1631695 0.11683894 0.1003553 0.17124304 -0.09642146 0.11081469 -0.121439874
0.013864468 0.058334734 -0.0360234 -0.18986759 0.0011409066 0.15051469 -0.103041835 -0.07392506
-0.08458352 0.22317654 0.17758748 -0.05935039 0.09332706 0.04035854 0.18959214 0.12776776
-0.19262937 -0.11293093 0.13345055 0.100215465 -0.12980154 0.10524082 0.026937695 -0.025020314
-0.06722992 -0.120816484 0.10929284 1.5104015e-05 -0.064777225 -0.20405315 0.041447785 0.077891
-0.06367708 0.10446815 -0.016101561 -0.09791213 -0.16093862 0.018754052 -0.0842516 -0.19842723
-0.05334298 -0.04523608 -0.05035853 -0.079931475 -0.0691021 0.2084294 0.065917775 0.041296788
0.021605741 -0.038429294 -0.07541056 -0.07601221 0.012348891 0.06434325 0.07927878 -0.23619582
0.08473306 0.13686879 -0.07372348 0.15391473 -0.037032105 -0.33454794 0.10218382 -0.042572703
0.10551071 0.020719247 -0.05093937 -0.020272657 -0.2605921 0.13798553 -0.058866225 0.06799429
0.07549636 -0.24891552 -0.26159602 0.13725094 0.011419849 0.24259444 0.04421724 0.007634762
-0.016468547 0.0066672876 -0.14105913 0.11965396 0.01979239 0.05421458 0.16064562 0.025628146
0.042381268 0.13735874 0.1516014 -0.052185714 0.13467358 -0.1347939 0.069924295 0.16257317
-0.14002116 0.19060892 -0.09131412 -0.09925174 0.0010719734 0.102784954 -0.0815684 0.21448658
0.024379995 -0.0035627317 0.091345325 -0.09831803 0.11034171 0.040173654 0.19230965 -0.09159854
0.11526315 -0.11700154 0.13536443 -0.0050895466 0.049694147 -0.07634536 -0.116422236 -0.06773834
0.0467885 0.026123557 0.0254537 0.09718085 -0.10312706 -0.17958456 0.18581346 -0.04529752
-0.17200932 -0.08283914 0.10450808 0.032503035 -0.07303699 -0.12117768 -0.13430785 -0.088992104
-0.0729023 -0.1588853 -0.2123002 -0.059245907 0.23535328 0.12679924 -0.29094756 0.093015864
-0.027359927 -0.04065591 0.02155572 -0.0059148497 -0.03532942 -0.08265315 -0.14291625 -0.057721317
-0.0014239247 0.10643935 0.11805897 -0.068028904 0.03411763 -0.027029144 0.022339249 -0.13666315
0.09199877 -0.06425814 -0.013333138 0.12280671 0.11338359 0.042043228 0.058781475 -0.1480122
-0.009295255 0.26138216 0.15037036 -0.13405211 0.043801803 -0.27219674 -0.045830704 0.04769645
0.17776418 -0.11714029 0.1654602 0.0072352737 -0.14576152 -0.11293309 -0.06938347 -0.10153764
0.11204745 -0.007468898 0.048654813 0.020670881 0.23030469 0.12244854 0.10054141 -0.13965257
-0.12432878 0.008365922 -0.04446849 -0.1430814 0.048747458 -0.027261656 0.15897195 0.015445358
0.1269258 0.06549313 0.14997879 0.12281055 -0.095730364 -0.049461644 0.14310578 -0.12678953
0.033879317 -0.080234006 -0.16545834 0.010014706 -0.18339957 -0.014735126 0.17039883 -0.0139744505
-0.13790971 0.16939181 0.070146024 0.029487617 -0.1256975 -0.10824384 -0.0039528785 0.18439099
00000000: 616e e23c f2bd 8cbc 065d 90bd 1d34 cdbd
00000010: 64be 66bd 7641 d73d 1e45 24be 6758 60bc
00000020: 0d35 053e 246f 2bbe 5088 23bd 012d 363e
00000030: 975a 63bd e49c 763e 2e4f fd3d b7ec 3a3e
00000040: d214 c1bc c755 813d fef2 3f3e e97a e13d
00000050: d133 d0bd 95fa bc3d 8191 183d 4515 233e
00000060: f247 c3bd e815 27be 4149 ef3d 1487 cd3d
00000070: 565a 2f3e 9d78 c5bd d0f2 e23d 78b5 f8bd
00000080: cb27 633c 67f0 6e3d 468d 13bd a66c 42be
00000090: 798a 953a 8620 1a3e 9907 d3bd 0666 97bd
000000a0: 203a adbd 6488 643e 7ed9 353e 6519 73bd
000000b0: 4222 bf3d ff4e 253d 7124 423e 8dd5 023e
000000c0: a240 45be 5548 e7bd 43a7 083e c43d cd3d
000000d0: b2ea 04be 8088 d73d 71ac dc3c 67f7 ccbc
000000e0: d7af 89bd a26e f7bd edd4 df3d 4067 7d37
000000f0: eca9 84bd 4ff3 50be 27c5 293d 5185 9f3d
00000100: 2169 82bd 66f3 d53d 6ce7 83bc 2886 c8bd
00000110: 18cd 24be 19a2 993c 1a8c acbd 8230 4bbe
00000120: 2b7e 5abd 7849 39bd bf44 4ebd 1db3 a3bd
00000130: 6785 8dbd 846e 553e e6ff 863d d226 293d
00000140: 86fe b03c 0968 1dbd da70 9abd 4aac 9bbd
00000150: 0153 4a3c 65c6 833d ea5c a23d 51dd 71be
00000160: 8788 ad3d 5527 0c3e 56fc 96bd d39b 1d3e
00000170: faae 17bd de49 abbe c045 d13d b760 2ebd
00000180: 0016 d83d 69bb a93c cda5 50bd d812 a6bc
00000190: 546c 85be 144c 0d3e b61d 71bd 9740 8b3d
000001a0: d69d 9a3d b6e3 7ebe eaef 85be 838b 0c3e
000001b0: 511a 3b3c ad6a 783e 231d 353d 072d fa3b
000001c0: 0ce9 86bc 4379 da3b ce71 10be 230d f53d
000001d0: a623 a23c 1c10 5e3d 4980 243e 1ef2 d13c
000001e0: fb97 2d3d c5a7 0c3e 663d 1b3e b0c0 55bd
000001f0: dfe7 093e 6a07 0abe 7834 8f3d 9579 263e
00000200: b561 0fbe fc2e 433e e602 bbbd 7f44 cbbd
00000210: 7581 8c3a eb80 d23d 550d a7bd 5fa2 5b3e
00000220: 8eb8 c73c b87c 69bb 4213 bb3d f75a c9bd
00000230: d6fa e13d 218d 243d d2ec 443e 0498 bbbd
00000240: 160f ec3d 819e efbd f99c 0a3e 36c6 a6bb
00000250: 178c 4b3d f55a 9cbd c86e eebd 66ba 8abd
00000260: 4ca5 3f3d 1201 d63c 4784 d03c c106 c73d
00000270: 4834 d3bd 04e5 37be e245 3e3e e489 39bd
00000280: 3623 30be 91a7 a9bd 5508 d63d e721 053d
00000290: 6b94 95bd 012c f8bd ff87 09be 7e41 b6bd
000002a0: cd4d 95bd d4b2 22be 3965 59be d6ab 72bd
000002b0: 7300 713e a9d7 013e 14f7 94be 1a7f be3d
000002c0: ed21 e0bc d086 26bd 9f95 b03c 5bd1 c1bb
000002d0: 95b5 10bd 0e46 a9bd a358 12be 306d 6cbd
000002e0: fca2 baba e0fc d93d e7c8 f13d bd52 8bbd
000002f0: eebe 0b3d 396c ddbc cd00 b73c 6df1 0bbe
00000300: da69 bc3d c699 83bd 3c73 5abc 1682 fb3d
00000310: a835 e83d 8535 2c3d d8c4 703d 8390 17be
00000320: 204b 18bc e2d3 853e b0fa 193e f544 09be
00000330: 8569 333d 5f5d 8bbe fab8 3bbd 5a5d 433d
00000340: d007 363e 40e7 efbd 666e 293e e015 ed3b
00000350: 8242 15be 7749 e7bd ec18 8ebd f7f2 cfbd
00000360: 2279 e53d a8bd f4bb 454a 473d fb55 a93c
00000370: fed4 6b3e 4dc6 fa3d a8e8 cd3d 1501 0fbe
00000380: 16a0 febd 3811 093c 9724 36bd ee83 12be
00000390: 6aab 473d d653 dfbc 8bc9 223e 870e 7d3c
000003a0: d6f8 013e 4321 863d 0a94 193e 1984 fb3d
000003b0: 480e c4bd 4b98 4abd 528a 123e 1dd5 01be
000003c0: 0ac5 0a3d ba51 a4bd e96d 29be b914 243c
000003d0: 19cd 3bbe 996b 71bc 087d 2e3e 18f5 64bc
000003e0: 3438 0dbe 0c75 2d3e b8a8 8f3d 0490 f13c
000003f0: d8b6 00be f2ae ddbd 2687 81bb fed0 3c3e

layers.0.bn3.weight f4 [12]
0.947394 0.9963608 0.9829241 1.0961496 0.9799926 0.99014944 1.0891296 1.0264097
0.9610242 0.9436377 1.0237476 0.9565917
00000000: 6a88 723f 8011 7f3f eaa0 7b3f a14e 8c3f
00000010: cce0 7a3f 6f7a 7d3f 9968 8b3f 6561 833f
00000020: af05 763f 3e92 713f 290a 833f 32e3 743f

layers.0.bn3.bias f4 [12]
0.017454807 -0.03089696 -0.009368978 0.0363159 -0.044582717 0.024376776 -0.05390645 0.0041100583
-0.026494725 -0.001071573 0.036120366 -0.0064705377
00000000: 62fd 8e3c 9f1b fdbc 5880 19bc fbbf 143d
00000010: 5e9c 36bd ceb1 c73c 02cd 5cbd abad 863b
00000020: 770b d9bc 0674 8cba f3f2 133d ce06 d4bb

layers.0.bn3.running_mean f4 [12]
0.3359022 0.05662906 -0.20381176 0.29744315 0.18120585 -0.33538544 0.14377238 -0.021934854
-0.026493935 -0.27413163 -0.0911389 -0.2244246
00000000: 60fb ab3e e0f3 673d 08b4 50be 784a 983e
00000010: 078e 393e a4b7 abbe 1139 133e b9b0 b3bc
00000020: cf09 d9bc fb5a 8cbe 08a7 babd 90cf 65be

layers.0.bn3.running_var f4 [12]
0.21495913 0.12912248 0.33593768 0.24119116 0.221872 0.2710209 0.20841989 0.18943912
0.17589226 0.18708983 0.2293586 0.20608267
00000000: 3f1e 5c3e af38 043e 0600 ac3e d1fa 763e
00000010: 6a32 633e 40c3 8a3e 066c 553e 54fc 413e
00000020: 1a1d 343e 7a94 3f3e fbdc 6a3e 5607 533e

layers.1.conv1.weight f4 [60, 12, 1, 1]
-0.15390901 -0.09517888 -0.036314327 -0.16950884 -0.1502966 0.26721072 0.07138615 -0.025625432
0.12338158 0.123186864 0.15995847 0.19439436 0.25637242 -0.081675574 -0.18372865 0.003479757
-0.17382616 -0.23593645 -0.30073768 0.21120101 0.16658464 0.19072369 -0.12200482 0.04004596
0.0076700184 0.15175954 -0.19757709 -0.08096644 0.07302233 -0.15108962 -0.41072974 -0.123605214
-0.16808768 -0.30011544 -0.10182943 0.067833014 -0.28497803 -0.14353198 -0.29758942 0.16004448
0.15462418 0.18777874 0.23856027 -0.094692476 0.11623794 -0.2335833 -0.3420588 0.18224369
-0.01220922 -0.027172243 0.11517413 0.100660205 -0.24950357 0.1413579 0.018590087 0.10285209
0.31954038 -0.10326414 0.28240246 0.014256498 -0.048404012 -0.07473818 -0.2310967 -0.0027384425
0.23908831 0.06694319 -0.12294474 0.13450482 0.14499314 0.25121918 -0.06300929 -0.17038783
0.2125022 0.28016722 0.07934601 0.09255144 -0.097765855 0.09391468 -0.10371615 0.21678628
-0.3424271 -0.085102044 0.051322345 -0.0333133 0.03158684 -0.1876228 0.0941673 0.122798845
0.3004474 0.2574889 0.09417449 0.04867804 0.19243512 -0.14757995 -0.0034336296 0.22168723
-0.10432021 -0.06501154 -0.21891281 -0.22662975 -0.0056367484 0.17762907 -0.11552794 -0.17619322
0.12621984 -0.1876389 -0.24278197 0.07652501 -0.31834725 0.16261715 -0.0053966283 -0.047331728
-0.105694175 0.22832844 0.14072134 0.34813738 0.14528269 0.012003091 0.20320165 -0.31493047
0.15152563 -0.074121654 -0.15318836 -0.37070984 -0.22739775 -0.20581956 -0.14645974 0.20216738
-0.10156906 -0.30219504 -0.020398311 -0.17810695 0.095504045 -0.24647398 0.09785289 0.33185908
0.2526321 0.08131161 0.16681306 -0.15405454 -0.3173554 0.29642725 0.19637588 -0.15135632
0.43722937 0.036678635 -0.1952255 -0.038870167 -0.08623499 0.27096704 -0.065381624 0.16671298
0.1820968 -0.0064677354 -0.02326074 0.21958944 -0.11779938 -0.22645031 0.29688284 -0.15928282
-0.23269331 0.08034154 -0.033309314 0.0017233585 0.10715 0.3585928 0.022520283 -0.02389046
-0.077392705 -0.06783245 0.13830969 0.06910083 0.0007449386 0.13307501 -0.26729682 -0.16166367
0.2308307 -0.120715424 0.31409642 0.012461457 -0.22443663 -0.086619884 0.100375 0.008641382
0.26623106 0.21693131 0.011661678 0.0703007 -0.06521575 0.07674196 -0.2416168 0.1066707
-0.17518571 -0.034638237 -0.075622775 -0.076380216 -0.21124224 0.1546621 -0.030135408 -0.33366916
0.21623568 -0.14709844 0.2398036 -0.06672582 0.14223759 0.0390486 -0.44671336 0.017032556
0.029173572 -0.081961915 0.14007394 -0.105171375 0.16762172 -0.053053442 -0.07032441 -0.06147958
-0.2908953 0.027144333 -0.11792936 0.20171574 -0.13849969 0.13914119 -0.3467916 0.19083674
-0.017179303 0.1618579 -0.19510229 -0.10259604 0.0331236 -0.01642465 -0.076936334 0.21589196
-0.0551982 0.13213447 0.16553211 0.019712642 0.21549053 0.012376506 0.134811 -0.15696539
0.13073507 -0.11459107 -0.131763 -0.12189128 0.18278246 -0.12642357 0.21807525 -0.21337703
-0.32812926 -0.09033303 -0.1673007 0.14745256 0.009733072 -0.116140194 0.19263937 0.102250025
00000000: 539a 1dbe 25ed c2bd 55be 14bd ba93 2dbe
00000010: 5ae7 19be d8cf 883e e732 923d 6dec d1bc
00000020: 7baf fc3d 6549 fc3d 27cc 233e 510f 473e
00000030: 3f43 833e 8645 a7bd 5d23 3cbe a30c 643b
00000040: 7cff 31be 5399 71be 4afa 99be 1445 583e
00000050: 2a95 2a3e 124d 433e aadd f9bd 3c07 243d
00000060: c754 fb3b da66 1b3e a651 4abe bcd1 a5bd
00000070: bb8c 953d 3db7 1abe 2b4b d2be bb24 fdbd
00000080: 2d1f 2cbe bba8 99be f38b d0bd 09ec 8a3d
00000090: a4e8 91be 0cfa 12be a45d 98be b3e2 233e
000000a0: cd55 1e3e 1249 403e 2549 743e 21ee c1bd
000000b0: 280e ee3d 7630 6fbe 5522 afbe 179e 3a3e
000000c0: 2e09 48bc 5398 debc 6ae0 eb3d f026 ce3d
000000d0: dd7d 7fbe 20c0 103e 3d4a 983c 1ea4 d23d
000000e0: cc9a a33e 267c d3bd 0e97 903e 1694 693c
000000f0: 4943 46bd 5510 99bd 9da4 6cbe 7177 33bb
00000100: 91d3 743e 8319 893d 74ca fbbd a2bb 093e
00000110: 1579 143e cd9f 803e 040b 81bd 267a 2ebe
00000120: 2d9a 593e 1472 8f3e 2980 a23d 9c8b bd3d
00000130: 7739 c8bd 5756 c03d 2269 d4bd 39fd 5d3e
00000140: 9b52 afbe fb49 aebd 6137 523d 8773 08bd
00000150: 3461 013d 3120 40be c9da c03d f67d fb3d
00000160: 3ed4 993e 96d5 833e 8ede c03d a062 473d
00000170: b60d 453e 331f 17be bf06 61bb fa01 633e
00000180: d6a5 d5bd c524 85bd ae2a 60be a111 68be
00000190: 79b4 b8bb 65e4 353e ea99 ecbd ff6b 34be
000001a0: c63f 013e 6924 40be d69b 78be 25b9 9c3d
000001b0: 69fe a2be 1c85 263e 33d6 b0bb eade 41bd
000001c0: 3076 d8bd eece 693e 4119 103e 103f b23e
000001d0: fcc4 143e 9da8 443c 1814 503e 913e a1be
000001e0: 8929 1b3e 18cd 97bd 69dd 1cbe aecd bdbe
000001f0: f5da 68be 5dc2 52be 8bf9 15be f704 4f3e
00000200: 7003 d0bd 4fb9 9abe 5c1a a7bc ab61 36be
00000210: a097 c33d ad63 7cbe 1967 c83d 6fe9 a93e
00000220: ff58 813e b486 a63d 0bd1 2a3e 79c0 1dbe
00000230: 687c a2be 50c5 973e c216 493e 27fd 1abe
00000240: 87dc df3e 563c 163d 32e9 47be 5336 1fbd
00000250: f89b b0bd 31bc 8a3e cde6 85bd cfb6 2a3e
00000260: 9577 3a3e 4cef d3bb 4f8d bebc 0edc 603e
00000270: cd40 f1bd 97e2 67be 0701 983e 091b 23be
00000280: 2847 6ebe 1b8a a43d 596f 08bd 51e2 e13a
00000290: 7671 db3d 7a99 b73e 757c b83c edb5 c3bc
000002a0: 1180 9ebd bdeb 8abd 0ea1 0d3e bc84 8d3d
000002b0: fc47 433a d144 083e 21db 88be 298b 25be
000002c0: e25e 6c3e a639 f7bd 3fd1 a03e 242b 4c3c
000002d0: b7d2 65be c465 b1bd 6891 cd3d 9594 0d3c
000002e0: 704f 883e 3e23 5e3e 9f10 3f3c d0f9 8f3d
000002f0: d68f 85bd e42a 9d3d 656a 77be 2b76 da3d
00000300: e263 33be d3e0 0dbd 1de0 9abd 3b6d 9cbd
00000310: e34f 58be be5f 1e3e 88de f6bc afd6 aabe
00000320: e36c 5d3e f9a0 16be 138f 753e 8ca7 88bd
00000330: bba6 113e 6df1 1f3d 9db7 e4be dc87 8b3c
00000340: 6afd ee3c a6db a7bd 8b6f 0f3e 1764 d7bd
00000350: 07a5 2b3e 914e 59bd 3f06 90bd 03d2 7bbd
00000360: 3bf0 94be cb5d de3c f384 f1bd 928e 4e3e
00000370: ddd2 0dbe 077b 0e3e ab8e b1be b56a 433e
00000380: 9cbb 8cbc 14be 253e e5c8 47be df1d d2bd
00000390: 9dac 073d fd8c 86bc cc90 9dbd c812 5d3e
000003a0: 8217 62bd 424e 073e 4081 293e 687c a13c
000003b0: 8da9 5c3e d4c6 4a3c e50b 0a3e 89bb 20be
000003c0: 6adf 053e b9ae eabd e1ec 06be 23a2 f9bd
000003d0: 532b 3b3e 2e75 01be 1e4f 5f3e 827f 5abe
000003e0: 8f00 a8be 8600 b9bd e050 2bbe cefd 163e
000003f0: 7677 1f3c e9da edbd 4143 453e 7668 d13d

layers.1.bn1.weight f4 [60]
1.003454 0.88048154 0.8222107 0.83391535 1.0009922 1.3913367 0.89577305 1.2486365
0.984217 0.59389395 0.9460664 1.0446595 1.0686349 0.7733474 1.0618316 0.9569101
1.0245116 1.0411366 0.99227047 1.2074506 1.1102641 0.8469269 1.0412511 0.72822636
1.1466845 1.100705 0.79991823 0.69701684 0.70305884 1.0035561 0.8079357 0.9387575
1.0016216 0.94124806 0.9697206 0.93882406 0.5219772 1.0522194 1.1567968 0.98410326
1.1435746 1.0710051 1.138416 0.8283079 0.8376359 0.72807837 0.81153953 0.98113114
1.0781958 1.1342118 0.848353 1.2433418 1.0442783 0.9404723 1.1903561 1.0673646
1.1943059 0.7634995 0.9197863 1.0899405
00000000: 2e71 803f 3d67 613f 677c 523f 7a7b 553f
00000010: 8320 803f 5217 b23f 6251 653f 52d3 9f3f
00000020: a5f5 7b3f 6f09 183f 6831 723f 67b7 853f
00000030: 07c9 883f 18fa 453f 19ea 873f 0ff8 743f
00000040: 3223 833f f743 853f 7005 7e3f be8d 9a3f
00000050: 221d 8e3f 34d0 583f b747 853f 0b6d 3a3f
00000060: 8fc6 923f e7e3 8c3f 71c7 4c3f b26f 323f
00000070: aafb 333f 8774 803f e0d4 4e3f 6952 703f
00000080: 2335 803f a2f5 703f 9c3f 783f c656 703f
00000090: 4ca0 053f 20af 863f eb11 943f 31ee 7b3f
000000a0: a760 923f b216 893f 9eb7 913f fd0b 543f
000000b0: 4e6f 563f 5863 3a3f 0ec1 4f3f 692b 7b3f
000000c0: 5202 8a3f da2d 913f aa2d 593f d325 9f3f
000000d0: e9aa 853f cbc2 703f 975d 983f 679f 883f
000000e0: 04df 983f b474 433f 1d77 6b3f 2c83 8b3f

layers.1.bn1.bias f4 [60]
0.123170234 0.13429907 -0.1549881 0.14745171 0.032980263 -0.18921041 0.11328232 0.05940835
0.0039186776 0.32682002 -0.13869447 0.02551859 -0.0093992 0.1970259 -0.059032414 -0.043334432
0.023661157 0.2213111 0.034484494 -0.02282795 0.04430508 -0.14165407 -0.07069911 0.27541083
0.05611282 0.14782926 0.14179865 0.24097204 0.25292987 0.061109424 0.030239277 0.070961714
0.08790381 0.10523078 0.06310964 -0.022488588 0.38276756 -0.029697409 0.029005984 -0.042702362
0.18636426 -0.02816608 0.1611085 0.17570265 0.17040679 0.23983774 0.1984068 0.2004182
0.02000682 -0.0047322903 0.14164767 0.07492266 0.041904442 -0.104628645 0.01858591 0.016641663
0.10969133 0.25366345 0.13139917 0.045349147
00000000: ad40 fc3d b285 093e 33b5 1ebe 95fd 163e
00000010: 5016 073d 60c0 41be 9000 e83d 2c56 733d
00000020: 4068 803b f454 a73e ec05 0ebe 5d0c d13c
00000030: 1aff 19bc 28c1 493e f9cb 71bd 727f 31bd
00000040: 0bd5 c13c 619f 623e 9d3f 0d3d ae01 bbbc
00000050: 3e79 353d c40d 11be b2ca 90bd a602 8d3e
00000060: 8ed6 653d 8e60 173e aa33 113e 60c1 763e
00000070: 0680 813e e04d 7a3d 5cb8 f73c 6054 913d
00000080: ea06 b43d 3c83 d73d a03f 813d fd39 b8bc
00000090: 1cfa c33e fb47 f3bc f59d ed3c ace8 2ebd
000000a0: 46d6 3e3e 8dbc e6bc a0f9 243e 65eb 333e
000000b0: 1e7f 2e3e 0698 753e 272b 4b3e 6e3a 4d3e
000000c0: 58e5 a33c 5411 9bbb 160c 113e 0d71 993d
000000d0: fea3 2b3d 8b47 d6bd 7a41 983c 1954 883c
000000e0: d9a5 e03d 2de0 813e 818d 063e 07c0 393d

layers.1.bn1.running_mean f4 [60]
0.005157141 0.01784404 0.009547828 -0.0246974 0.01926844 -0.0038012578 0.021891657 -0.008956321
-0.008657987 -0.0022792607 0.010511419 0.018336654 0.014123156 0.008655592 0.024803467 -0.016667701
0.013284031 -0.012174347 0.024974559 0.0066013075 -0.019210272 0.016303329 0.01711243 0.002667981
-0.025069533 -0.0040156967 0.014056354 0.037990216 -0.034848746 0.022044696 0.0065785144 -0.021120485
-0.033999987 -0.0091204215 0.0327003 -0.026197575 0.013685986 0.0048262696 0.0048895692 0.008081202
0.011547286 0.010898713 -0.028708357 -0.0087124 -0.024405425 -0.008168486 -0.015748927 0.018909458
-0.026964173 -0.002431973 -0.012842427 -0.018724116 -0.0038021018 0.0131337205 -0.027449992 0.013361651
0.013459527 0.031760767 -0.042906906 -0.0038248121
00000000: 3cfd a83b aa2d 923c 7e6e 1c3c 3452 cabc
00000010: d9d8 9d3c 861e 79bb 2256 b33c 88bd 12bc
00000020: 3bda 0dbc a65f 15bb 1638 2c3c c036 963c
00000030: cf64 673c 2fd0 0d3c a430 cb3c b48a 88bc
00000040: 44a5 593c ea76 47bc 7297 cc3c c84f d83b
00000050: dc5e 9dbc 8f8e 853c 5e2f 8c3c 4bd9 2e3b
00000060: 9f5e cdbc 1b96 83bb 9f4c 663c a19b 1b3d
00000070: 8fbd 0ebd 1497 b43c 9490 d73b de04 adbc
00000080: 9243 0bbd d26d 15bc c0f0 053d 4c9c d6bc
00000090: 303b 603c af25 9e3b ae38 a03b 0567 043c
000000a0: d430 3d3c 8490 323c ca2d ebbc 74be 0ebc
000000b0: e3ed c7bc 1dd5 05bc e503 81bc 02e8 9a3c
000000c0: f8e3 dcbc bc61 1fbb 0b69 52bc 5163 99bc
000000d0: af2c 79bb d12e 573c cede e0bc d4ea 5a3c
000000e0: 5985 5c3c 9417 023d 27bf 2fbd b3a9 7abb

layers.1.bn1.running_var f4 [60]
0.35086325 0.4049406 0.23120913 0.6654827 0.3892357 0.21013604 0.5545854 0.23044254
0.35785457 0.39519435 0.41422427 0.65450865 0.34576857 0.22424065 0.37634194 0.38195488
0.4465095 0.35481814 0.4455329 0.18569535 0.5405635 0.40213177 0.41781604 0.23864752
0.382606 0.2781612 0.23694444 0.21235168 0.40596363 0.60007966 0.1446405 0.30019796
0.32364547 0.24960443 0.5669663 0.5609008 0.19715956 0.19297543 0.31965312 0.6542773
0.31232423 0.9237754 0.83282304 0.5755002 0.309544 0.28055277 0.47944897 0.33605567
0.44613647 0.2680122 0.48859838 0.24061945 0.29885983 0.32897773 0.23748967 0.5446655
0.46458295 0.40305498 0.6016008 0.3504448
00000000: 59a4 b33e 6054 cf3e 16c2 6c3e 135d 2a3f
00000010: e749 c73e e72d 573e 4ff9 0d3f 21f9 6b3e
00000020: b738 b73e ea56 ca3e 3415 d43e e18d 273f
00000030: 9408 b13e 579f 653e e4af c03e 978f c33e
00000040: e59c e43e b9aa b53e e31c e43e ec26 3e3e
00000050: 5f62 0a3f 37e4 cd3e fceb d53e 0460 743e
00000060: efe4 c33e 256b 8e3e 90a1 723e b872 593e
00000070: 77da cf3e d29e 193f a41c 143e 8cb3 993e
00000080: dcb4 a53e 4e98 7f3e b424 113f 3297 0f3f
00000090: 32e4 493e 5a9b 453e 93a9 a33e b87e 273f
000000a0: f6e8 9f3e 8b7c 6c3f e433 553f fb53 133f
000000b0: 8d7c 9e3e 9da4 8f3e 567a f53e 7d0f ac3e
000000c0: 006c e43e e538 893e 9129 fa3e f264 763e
000000d0: 2804 993e c56f a83e 7e30 733e 336f 0b3f
000000e0: d1dd ed3e 395d ce3e 8302 1a3f 806d b33e
