Project/Project_files/mobilenetv2_experiments/onnxs/mobilenetv2_14.onnx (onnx, 197484 bytes, 37 tensors)

layers.0.conv4.weight f4 [16, 32, 1, 1]
00000000: da20 e1bd 6bae 1d3e 329b d43d 4cc3 b3be
00000010: 72ac 9d3e 55b6 88be e09e 6dbe 91a6 743e
00000020: c29d b7bd b17e 81bd 8c3b 963e e965 b9be
00000030: ba64 1fbe 6e91 363c b439 69bd 9a7d 98bd
00000040: 4029 633e d816 213d 1118 77be f315 003d
00000050: 05d9 983e cccc f23e f97f 20be 0216 1c3d
00000060: 0cdf b73e 615a 7dbd 734b 303d 1080 233e
00000070: de5d 6fbe 9545 e0be 0325 003e bd32 dbbd
00000080: baac 02be 7553 233e a15e 40be 8d0b 98bd
00000090: 2bf5 8fbd 241b 523e 6942 1d3e cf90 24bc
000000a0: e20b 63be c2ce c53c 66d2 3b3e 590a 2a3d
000000b0: 7f29 1abe 805e adbd 1577 c3be 252d 213e
000000c0: af76 1abd fce6 23bc ede4 823e ee63 65be
000000d0: 86be ecbe 77f1 87be b3bd ddbd 3c13 0abe
000000e0: 094d 56bd e5f7 8f3d 7d2d 14be 2280 303e
000000f0: d4dd 7bbe e58f 92bd 2010 11be c418 b83d
00000100: 0001 98be 234f 81bd 5bfa 553d 4889 c3bd
00000110: 90e0 d1bd bd00 a63d 56b6 61be 1b90 45be
00000120: 78e4 43be f21e 7bbd 1e34 dd3d e199 67be
00000130: aa0c 903e 47c6 b63d 3e2b 9fbe 8d18 7f3e
00000140: cc37 75bd 2165 483e ad3d 943e 59cd 61bd
00000150: 1747 413e f794 03be d4b6 c4bd 557a 083e
00000160: 309b 68bd d8ff 3abe 5fa1 f0bc 8614 1b3e
00000170: 5320 d1be 5b7b c1bc b6d9 c0bd 237a 203e
00000180: 1733 8d39 20f3 ed3d dca8 37bd 5ce1 19bc
00000190: a095 953e b191 2bbd 28e5 90bd a7fb 123e
000001a0: 509d f1bb c1b0 b73e 7046 283e e1be aabd
000001b0: 5edb 9f3c 6582 70bd 91ef 9b3d f344 63be
000001c0: 6c5b 503e 58a9 0dbe 01b5 1d3d 3d43 a03d
000001d0: 8830 b63e 85cb 0bbe c17a 563e 2e7b ae3d
000001e0: 9aa5 57be ff67 053e 8774 acbe c13e 8b3d
000001f0: 9148 bd3d 2474 75bd f850 943d 17ff c9be
00000200: 6193 293d 1c8d ddbd 98c4 42be e64c a4be
00000210: c5bd e73d 7d46 2bbd 6764 70bc 8b6b 7c3e
00000220: 54cf cf3d a739 acbd 568f 7cbe 8e49 be3d
00000230: a6b1 923d 7299 7dbc e3f7 183d 2297 fe3d
00000240: a978 abbe 9fdd 3b3e 595f 78be bb3d a8bd
00000250: eaac 99be 3e18 9f3e f803 3abe 346d 8fbc
00000260: e011 803d 8866 0dbf 21c0 653d 8d91 82be
00000270: b481 ae3c f2dc 5c3e 1783 b63a f1d0 5b3d
00000280: a660 7e3e 8b1e 123d 128f 3c3e d0da 0e3b
00000290: c817 3a3e d41e 603d e70a 8f3d 17cc 2fbe
000002a0: bf7b 8cbd 419c 7f3e 5ac0 2abb da26 f1bc
000002b0: ff63 b13c bfe1 23ba 9348 10be 2c3b 15be
000002c0: 28e2 4abd 8e23 ffbd ca23 b3bd cdfa 76be
000002d0: 8bf7 adbe fe9f 35be 9208 ed3c bcc0 5d3e
000002e0: 3d2d f93d 4054 873e 4bef 29be 48e2 d3bd
000002f0: c736 f4bd 61b8 0fbe 99e0 59be 2a7f 513c
00000300: bb41 c7be ecbf ffbc 6489 84be 5e9a bdbd
00000310: 93bd 10be efb1 b8bc 5976 b9bd 234b 033c
00000320: fdc0 ce3d 05d0 5c3d 6e07 383e 185d 33be
00000330: cbdd dd3d 5f0c b0bd 7eeb df3e 133a 86bd
00000340: bc71 993e f6b5 f0bc 2507 dd3d 9ebe 17be
00000350: ec3d 2a3e c252 953e 3a35 433e c7c8 ab3e
00000360: 0501 8a3d 1106 eb3d 0b86 9abe 5b50 1ebe
00000370: 63da cb3d fb61 973e c5e9 30bd ac49 a63e
00000380: bed0 743d 15f3 d63e 360a f4bd 615c de3d
00000390: 4105 293e 1359 463e 0e7b 7bbc 08d4 c3bd
000003a0: ab42 26be 032c 9dbd 20fb 0abe 9429 bd3c
000003b0: a6be 4a3e 08e6 f93c c5c7 e2bb d5fd 72bd
000003c0: 8e79 00be db71 683e 39c4 f03d 9281 dd3d
000003d0: 6884 1b3d 5a4e 713d 913f 4abe 9222 f73c
000003e0: bede 1c3c 51bc b83e 746f 4dbd 5dd5 0c3e
000003f0: 5023 da3d 2cdf 2abe 2fc2 0abe 10d5 42be
-0.10992594 0.15398566 0.10381164 -0.35109937 0.30795628 -0.26701608 -0.23205137 0.23891665
-0.08965637 -0.063229926 0.29342306 -0.36210564 -0.15565768 0.011143072 -0.056939796 -0.074458316
0.22183704 0.039328426 -0.24130274 0.031270932 0.29853073 0.47421873 -0.15673818 0.038106926
0.3591236 -0.06185377 0.043040704 0.1596682 -0.23375651 -0.43803087 0.12514119 -0.10703037
-0.12761202 0.15949805 -0.18786098 -0.07424078 -0.07029184 0.20518166 0.15357365 -0.010044291
-0.22172502 0.024146441 0.1834198 0.041513775 -0.15054892 -0.0846529 -0.3817679 0.15739878
-0.03771084 -0.010003801 0.25565282 -0.22401401 -0.46239108 -0.2655141 -0.10827198 -0.134839
-0.05231956 0.07029704 -0.14470477 0.17236379 -0.2459634 -0.07156352 -0.14166307 0.08989099
-0.29688263 -0.06313922 0.05224071 -0.09547669 -0.1024791 0.081056096 -0.22042212 -0.19293253
-0.19130123 -0.06130881 0.10800956 -0.22617294 0.28134662 0.08924537 -0.3108768 0.24911709
-0.059867665 0.19569828 0.28953305 -0.055127475 0.18874775 -0.12849794 -0.09605184 0.13327916
-0.056788623 -0.18261659 -0.029373823 0.15144548 -0.40844974 -0.02361839 -0.09416525 0.15671591
0.0002693168 0.11618638 -0.04483877 -0.009392109 0.29215717 -0.04188699 -0.07074958 0.1435381
-0.0073734894 0.3587704 0.1643312 -0.083371885 0.019513782 -0.058718104 0.07614053 -0.22194271
0.20347375 -0.13834131 0.038502697 0.07825325 0.355839 -0.13651855 0.20945264 0.085195884
-0.21059266 0.13027953 -0.33682653 0.06799079 0.092423566 -0.059925213 0.07242006 -0.3945243
0.041400317 -0.1081793 -0.19020307 -0.3208992 0.113154925 -0.04181527 -0.014672375 0.246504
0.101469666 -0.08409434 -0.24664053 0.09291373 0.0716279 -0.015478479 0.03734578 0.1243117
-0.33490494 0.1834626 -0.24255122 -0.08214899 -0.30014735 0.31073183 -0.18165576 -0.017508127
0.062534094 -0.55234575 0.05609143 -0.2550167 0.021302082 0.21568659 0.0013924566 0.05366606
0.24841556 0.03567366 0.18413952 0.0021797903 0.18173134 0.0547169 0.06984501 -0.17167698
-0.0685954 0.2496195 -0.0026054592 -0.029437471 0.021654127 -0.00062515953 -0.14090185 -0.14573354
-0.049532086 -0.124579534 -0.087470606 -0.2411911 -0.33977923 -0.17736813 0.02893475 0.21655554
0.12166832 0.26431465 -0.1659519 -0.10345894 -0.119245104 -0.14035179 -0.21277083 0.012786666
-0.38917336 -0.031219445 -0.2588607 -0.09257959 -0.14134817 -0.022545783 -0.09055776 0.008013519
0.10095403 0.05390932 0.17971584 -0.17515981 0.10833319 -0.085961096 0.43734354 -0.065540455
0.29969585 -0.02938364 0.10792378 -0.14818808 0.16625184 0.29164702 0.19063273 0.33551618
0.06738476 0.114757665 -0.30180392 -0.1546034 0.09953763 0.2956694 -0.04319169 0.32478082
0.059769385 0.41982332 -0.1191601 0.10857464 0.1650591 0.19369917 -0.015349163 -0.09561926
-0.1623637 -0.0767441 -0.13572359 0.023091115 0.19799289 0.030505195 -0.006920787 -0.059324104
-0.1254637 0.22699682 0.117561765 0.10815729 0.03796807 0.058912612 -0.19750811 0.030167852
0.00957459 0.36081174 -0.050155118 0.13753267 0.106512666 -0.16686696 -0.13550638 -0.1902659

layers.2.conv4.weight f4 [24, 24, 1, 1]
00000000: d73a 4fbe ba3c 723e 236c aa3e c9ba 143e
00000010: 0423 5cbe 7402 93be df2a 03be 0dfb 8abe
00000020: bc9f d0bd 1549 243e 733d a8be ea90 14be
00000030: a2b3 a7be d5e5 c9bd 5ca8 02be 54d6 6dbc
00000040: cc2d 86be fab6 11bd fffa 04be 4dd9 563e
00000050: b15b 2a3e 75dd 43bd 9206 aa3c 6241 003d
00000060: 22f7 fe3d c335 293d a580 003e c419 4b3e
00000070: 4374 9cbd a684 bc3e eba7 d43d 8b0c 363e
00000080: 482c 293d c882 93bd 8a13 bebe 808f 353e
00000090: fac4 963e ab86 dd3b bd51 833e 25cb 523c
000000a0: d70b 813e 5838 88bd 1571 6f3d 1ba9 41be
000000b0: 8ab1 b7be b992 8c3c b809 28be 7809 bebc
000000c0: b416 a23d 63c9 17be e195 20be caee ecbb
000000d0: ad59 143d fe9d 783d a5fa 833e ab58 903e
000000e0: b2d7 89be 640a 15be f8e9 ae3d b31f 1cbe
000000f0: 41dc 403c 25b7 483e 9db1 943e 63ab 9cbc
00000100: 409f 003e d54b 823e a644 8fbd dec6 713d
00000110: 3842 a53e 48db 06bd 61f4 203e 8036 653e
00000120: ea9e ba3d 0741 5ebe 7f2c 2f3e 4b62 77bd
00000130: 9e5d 2dbd 0fa7 fa3d c0b3 fcbc 45b7 d83d
00000140: e43f a2be 76a1 dc3e 0756 103e 3101 8c3e
00000150: 72f4 e3bd 018c 0cbe f570 9dbc 2051 9a3d
00000160: 15a2 823e bf39 803d fce4 76bd 9bad 1fbe
00000170: e1d8 6dbe 05e7 173e 6b85 06bd 89a1 54be
00000180: 086a 42be 4fff c23d 5c47 3abe 666d 633e
00000190: 88a4 07bc 01df 98bd 6184 7c3c 86e9 6c3d
000001a0: 8c7e 85bd 19c3 58be 89f7 39bd 5db6 6bbd
000001b0: d4b5 85bd 85f2 ca3c e212 ccbd 33fe 72be
000001c0: 1a70 f23d e6dd 13be c7a1 dabe 71e0 5e3e
000001d0: e91c d9bd 97fc 19be 189c 7fbc c75c 44be
000001e0: 427d 81bb c0c6 6cbe a2a6 0b3e 4d78 15be
000001f0: c7b4 35bd 6147 acbc 30f6 723d 80aa a2bd
00000200: 9c98 0abd 6677 a7bc 3437 85bc dd1e 5b3e
00000210: 0459 223e 9331 d13c bee9 4dbe 650a 8d3e
00000220: ea88 ef3d 11fa 81be a5e6 21be b2a7 1b3e
00000230: 1fbe 54be f26d 0dbe 7af8 6b3d 73d5 04bd
00000240: 5709 c33e 01bb 8f3b f1eb 7dbd 4e67 483e
00000250: fd9d 2ebe 4552 9a3e b428 75be 8d73 c53b
00000260: 9eed 393d 504d 473d 5451 c1bb abfe 213e
00000270: 1bb9 6e3d ab08 9e3e 4cad 1c3e 90a2 803e
00000280: 1d3a 413b 4f57 303e 70b8 703d 2751 d6bd
00000290: 0d2a 4abe 1d25 8a3e 2ac4 d23e 851d bdbd
000002a0: 4184 633e fccf a63e 07b9 793d 9c57 8f3d
000002b0: 23cd 343e da36 bd3d 690e 773e 62e3 f4bc
000002c0: e34f 133e 1b5e febd 4410 773d 81e0 263e
000002d0: bc10 95bd 634f 513e fd33 a0bd 7fad b5be
000002e0: 3208 cc3c 60f4 56bd cff9 1ebe 35c4 b03d
000002f0: 2be7 433e cd4a 17be 6ec8 8a3e dee8 443e
00000300: 90c8 85bd 829e 073e 8d2e 04bd 361a fa3d
00000310: 7c67 2b3c d956 97be a4e2 9dbd 8e90 163e
00000320: 45bc 9ebd 2f6c 8ebe 4e6b f53d 59e5 903d
00000330: 4d6f cb3e f360 123e 34cd c2be 6846 48be
00000340: 3292 b73e b2c9 913e a523 fc3d a728 8e3e
00000350: 0157 db3d ab8b 4a3d be5b a33d 6928 603c
00000360: 4b45 3bbe 040a 95bd bdca 163e 5482 743e
00000370: cf48 12be 5fab 9c3c 3f15 bdbd 9f2a 163e
00000380: b29a e1bc f3e0 023e 7f56 8a3e f0d6 34bd
00000390: dafb 7fbd 8f91 923e 707c 3bbe 3224 ad3d
000003a0: 220e 793e 9cfb b23c b953 133c 62b9 da3c
000003b0: a43d e43d 71e0 2a3e 112d c5be cda8 a8be
000003c0: f221 99be 7d07 a0bc f8fe 88be 0419 fcbd
000003d0: b333 dc3d c8dd 26be 4f7a 8abc 2007 d2bd
000003e0: 6d60 613e 8224 6fbe 493c 553e 5659 323e
000003f0: f35d cc3d 4df0 e93e 5dfb b1bd 4199 2f3e
-0.2023729 0.23655978 0.33285627 0.14524378 -0.21497732 -0.2871281 -0.12809323 -0.27144662
-0.10186717 0.16043504 -0.32859382 -0.14508405 -0.32754236 -0.0985829 -0.12759537 -0.014516432
-0.26206815 -0.03557489 -0.12986372 0.20981331 0.1663654 -0.04781862 0.020755086 0.031312354
0.124494806 0.041311037 0.12549074 0.19834048 -0.07639363 0.36819953 0.1038359 0.17778222
0.041301996 -0.07202679 -0.37124282 0.17730522 0.29447156 0.0067604384 0.256483 0.012865816
0.25204346 -0.06651372 0.058457453 -0.18912165 -0.3587764 0.017159807 -0.16409957 -0.023197874
0.079144865 -0.14822917 -0.15682174 -0.0072306143 0.036218334 0.060697548 0.25777164 0.28192648
-0.26922375 -0.14554745 0.0854072 -0.15246467 0.011771263 0.19601114 0.29041758 -0.019124692
0.12560749 0.2544848 -0.069955155 0.059027545 0.32277083 -0.032923967 0.15718223 0.22384071
0.09112342 -0.21704493 0.17106818 -0.060396474 -0.04232561 0.12238895 -0.03084743 0.10581831
-0.3168937 0.43091935 0.14095317 0.2734466 -0.111306086 -0.13725282 -0.019218901 0.075350046
0.25514284 0.06261014 -0.06027697 -0.15593569 -0.23227264 0.1483422 -0.03284208 -0.20764746
-0.1898576 0.095213525 -0.18191284 0.22209701 -0.008278973 -0.074644096 0.015412421 0.057839893
-0.065182775 -0.21168174 -0.045402084 -0.057546962 -0.065288216 0.024773845 -0.09964539 -0.23729782
0.11837788 -0.14440116 -0.4270155 0.21765305 -0.10601217 -0.15037762 -0.0156011805 -0.19176017
-0.0039516995 -0.23122692 0.13637784 -0.14596672 -0.044361856 -0.02103013 0.059316814 -0.079426765
-0.033836946 -0.020442676 -0.016261674 0.21398492 0.1585427 0.025536334 -0.20108697 0.27546993
0.11696036 -0.25386098 -0.1581064 0.1520069 -0.2077565 -0.13811472 0.057610013 -0.032430124
0.38093063 0.0043863063 -0.06199259 0.19570658 -0.17052455 0.30140892 -0.23941308 0.0060257376
0.045392625 0.048657715 -0.0058995876 0.15819804 0.058282 0.30865988 0.15300483 0.25124025
0.00294841 0.17220806 0.058769643 -0.10464697 -0.19742604 0.2698144 0.41165286 -0.09234146
0.2221842 0.32580554 0.06096747 0.06999132 0.17656378 0.09238978 0.24126591 -0.02989358
0.14385943 -0.12420293 0.060318246 0.16296579 -0.072785825 0.2044044 -0.07822416 -0.3548393
0.024906252 -0.052479148 -0.15524982 0.086311735 0.19131152 -0.14774628 0.2710604 0.19229457
-0.06532395 0.1324406 -0.032270957 0.122120306 0.010461684 -0.29558447 -0.07709244 0.1470358
-0.07750753 -0.27816913 0.11983357 0.070749946 0.39733353 0.14294796 -0.38047183 -0.19558108
0.35853726 0.28474194 0.12311486 0.2776539 0.10709954 0.049449604 0.07976483 0.0136815095
-0.18288152 -0.07277301 0.14725776 0.23877841 -0.14285587 0.019124685 -0.09232568 0.14664696
-0.027539585 0.12781124 0.27019116 -0.044150293 -0.062496044 0.28626677 -0.18309188 0.08454169
0.24321797 0.021848492 0.008992129 0.026699726 0.111445695 0.1668718 -0.38510945 -0.32941285
-0.2990871 -0.01953482 -0.26757026 -0.12309459 0.10752048 -0.1629554 -0.016904024 -0.10255265
0.2200944 -0.2335377 0.20823778 0.17416891 0.09978857 0.45691147 -0.08690522 0.17148305

layers.4.conv4.weight f4 [32, 32, 1, 1]
00000000: 68a3 173e 8708 76bd 8a0d 06be 3a97 103e
00000010: 0807 473e f850 073e 7175 9e3c dd3c 37be
00000020: f8fc d6bb cfd0 d33d 7294 acbc 9152 1c3e
00000030: 0b6b 37be eb27 2d3e faab c23a cf6a 02be
00000040: 63d9 d73c bc81 663e 6523 69be 1867 23be
00000050: 0569 763e 5962 9e3d e411 14bb f74d 66be
00000060: f78d 73be ad11 8e3d 90db 11be 6082 643e
00000070: 66f2 68be 7a8c 18be d0ad a83d dac1 26be
00000080: d070 bdbd 5862 8c3e 8ba0 063e 272e 88bc
00000090: 92b3 cc3d 1ec2 b5bc b2dd ddbd b250 2f3e
000000a0: ffa9 b4be c1a2 683d 28dd 123d 2e01 5c3c
000000b0: c28c fb3e 3a63 a9bb 54ef 3f3e d6d0 99bd
000000c0: 47ec febd 2e6e 10be a2a0 05be f948 953e
000000d0: 6633 cf3d 1d01 e93d 7980 ce3d 717f 60bd
000000e0: e19f eabd 9596 1c3e da20 d83e 5191 893e
000000f0: 1e1f 2ebd c513 b8bd 30ab 62bd 0e65 9fbd
00000100: 64b0 56bd 10a0 073e 066f a539 e194 943e
00000110: bc58 bb3d 65ca d83e 08a0 f7bd 8870 55bd
00000120: f0e4 e33d 2542 11be 0588 7a3e fbfb 90be
00000130: 4a81 85bb fb2c de3d 04d5 3e3d 7330 6e3d
00000140: 7c62 773d 63cd 723e 5082 193e e68c 033d
00000150: b12b 313e 7acd 763e 0608 c7bc b01b 7ebd
00000160: b9d5 903b 2bcd 18be 0ad7 33be 77c8 a1b9
00000170: 0a69 543e b0ff bdbe ea4a 713e c2de 20bd
00000180: 4d0c 63bd 751e ac3d 5de3 873c 634b a33e
00000190: efcd 7a3d 2f8c a3bd 4ffb 393e 1844 c3be
000001a0: eeea 823d 8791 75be 60e0 bb3c 784e c43e
000001b0: 0808 10be 0f95 32bd 14db a33c ef0c 31bd
000001c0: b9c8 0bbe df16 cfbc bc5e 31be 1b80 6cbd
000001d0: 2322 023e 1ad3 8fbe 3a80 b9bc dadf fabd
000001e0: 0940 923d 8bc5 7c3d 90e5 dd3d e9e7 17be
000001f0: 196f 723a f463 b1bd ce06 3c3e 3dc4 8bbd
00000200: 575a 5cbd 8594 f4bd 2e2a c23d 0cf2 563d
00000210: 444c 80bc 6d52 8fbd 8a81 133e d0ba 5d3d
00000220: 29bd 49be 8777 3e3d b035 b53d 50e9 cd3d
00000230: cee8 27be 9c48 e03d 4b36 a2bd 2641 8fbe
00000240: 34f7 5e3d 8b6c 57be b931 f4bd 325d 363e
00000250: 4ace 4fbe 4d28 803e 6771 25be 96cd 76bd
00000260: 79bf 463e b7c1 713e 2040 a23e ee21 7a3e
00000270: 9e4c d53d 2b2d 4a3e a203 9d3e 1543 83be
00000280: 1b2e 35bd 98bb 6c3d c761 5e3d e3ce a1be
00000290: f148 d83d dfc1 34be 2bdd 3b3e 8a70 d6bc
000002a0: da51 9a3e 1018 edbd 6118 16bd 5a79 98bc
000002b0: fcaf a2be 480b abbb d6fd 333e cf8b 0f3e
000002c0: 833e b63d e322 903e 663f c0be 7a37 163e
000002d0: 2d2d 02be 3d0a f53d ad90 853d 62f2 93be
000002e0: 189e c63e a956 1abe f642 2fbd fb67 96be
000002f0: 1521 d03c b50a 04bd 1dd0 413c d3d6 4a3e
00000300: 5c06 013d 7f46 e73b dc62 aebd f1ed 63be
00000310: 2c2d 923e 07d7 fc3d cdfd 983e 7fd5 e9bd
00000320: 4378 3abd 6dfd 3c3e 5303 1a3d afd4 e3bd
00000330: 1c21 24be 0e8a 04be 521c 58be 86d3 4ebd
00000340: 0e71 923e 1736 db3b 42df 9ebe e179 f4bd
00000350: a9ed f63d 5550 f23c 2b29 9dbb 840a 57be
00000360: 9647 d53d 9832 993e a13f 6dbe edee 9d3e
00000370: df6c 80bd b01e b2be bc7c 7a3d 81ea 6dbe
00000380: fefd eebc 0493 acbd bd83 01be fd76 e53c
00000390: 31ee abbc 4bc2 183d 3e48 0abe 1396 b1bc
000003a0: d49e 7bbe c967 b03d 3461 2e3e 48e4 be3d
000003b0: b224 c3bd a55d 2bbd 751f 063d 79b9 06be
000003c0: f074 1b3e 3d5b debd 012b 48be 3803 a23d
000003d0: 7902 8c3e 401a a13d 270f 22bd 52c9 d9bd
000003e0: 3099 69be 7358 b83e df5e dfbd fa10 143e
000003f0: edb0 ca3d d2cf 59bc 3f50 81be 1385 4bbe
0.14808428 -0.060066726 -0.13091102 0.14120188 0.19436276 0.13214481 0.01934311 -0.17894311
-0.006560918 0.103425615 -0.021066878 0.15265872 -0.17911927 0.16909759 0.0014852278 -0.12736057
0.026348775 0.22510427 -0.22767408 -0.15957296 0.240635 0.07733602 -0.0022593671 -0.22490679
-0.23784624 0.06936965 -0.14243913 0.22315359 -0.22748718 -0.14897338 0.08236277 -0.16284886
-0.09250033 0.2741878 0.1314718 -0.01662357 0.09995188 -0.022187289 -0.10833301 0.17120627
-0.35285947 0.05679584 0.035855442 0.013428016 0.49130827 -0.0051692994 0.1874364 -0.075105354
-0.1244741 -0.1410453 -0.13049558 0.29157236 0.10117225 0.113771655 0.10083098 -0.054809038
-0.11456276 0.15291817 0.42212564 0.2686868 -0.042510144 -0.08988146 -0.05533904 -0.077829465
-0.052414313 0.13244653 0.0003155397 0.29019836 0.09147784 0.42341915 -0.120910704 -0.05210927
0.11127651 -0.14185388 0.2446595 -0.28317246 -0.0040742503 0.10848423 0.046589866 0.058151674
0.060396656 0.23711161 0.14991117 0.032116793 0.17301823 0.2410182 -0.024295818 -0.062038124
0.004420009 -0.14922015 -0.175625 -0.0003085767 0.20743194 -0.37109137 0.23563734 -0.03927494
-0.055431653 0.08404247 0.016587907 0.31893453 0.06123155 -0.07985722 0.18162273 -0.3813789
0.063924655 -0.23981296 0.022934139 0.38341117 -0.14065564 -0.043599185 0.020001926 -0.043225225
-0.13650788 -0.02527946 -0.17321295 -0.05773936 0.12708335 -0.28090745 -0.022644151 -0.122497275
0.0714112 0.06171183 0.10834801 -0.1483456 0.0009248122 -0.08661643 0.18361971 -0.06824539
-0.053797092 -0.1194239 0.094807014 0.052476928 -0.015661366 -0.06998143 0.14404884 0.054133236
-0.19701065 0.04650071 0.08848131 0.100542665 -0.16397402 0.10951349 -0.07920512 -0.27979392
0.05443497 -0.210375 -0.11923546 0.17808989 -0.20293537 0.25030747 -0.16156541 -0.060254656
0.19408979 0.23609053 0.31689548 0.24427006 0.10415004 0.19743793 0.30666834 -0.25637117
-0.044233423 0.05779609 0.054292466 -0.31603155 0.105607875 -0.17652081 0.18346088 -0.02617671
0.30140573 -0.11576855 -0.036644343 -0.018612552 -0.3177489 -0.0052198507 0.175773 0.14018176
0.08898642 0.28151616 -0.3754837 0.146696 -0.12712546 0.119648434 0.06521735 -0.2889586
0.3879249 -0.1507212 -0.04278847 -0.29376206 0.0254064 -0.032236774 0.011829403 0.19808511
0.031500205 0.0070579643 -0.0851495 -0.22258736 0.28550088 0.12345701 0.29881135 -0.11417674
-0.045524847 0.1845605 0.037600826 -0.111245506 -0.16028255 -0.12943289 -0.21104553 -0.050494693
0.2860188 0.0066897976 -0.31029707 -0.11937309 0.12057049 0.02957932 -0.0047961674 -0.21000105
0.104140446 0.29921412 -0.23168804 0.30846348 -0.062707655 -0.34789038 0.061154112 -0.23233987
-0.029173847 -0.084264785 -0.1264791 0.02801084 -0.020987602 0.037294667 -0.1350412 -0.021678006
-0.24572307 0.086135454 0.17029268 0.09320885 -0.095284835 -0.041837353 0.032744844 -0.1315669
0.15181327 -0.10857246 -0.19547655 0.0791077 0.27345636 0.07866335 -0.03956523 -0.10634102
-0.22812343 0.3600498 -0.10906767 0.14459601 0.09897027 -0.013294177 -0.25256535 -0.19874983

linear.weight f4 [10, 512]
00000000: 9d80 f03d 3a54 b8bd 2089 eb3c ebe5 5a3d
00000010: ab26 1f3e 0c52 3bbe 6a70 64be b5de c53e
00000020: 321c 8abd d940 203b f472 013e e649 033f
00000030: 1ee7 403d ed02 d23d 67e4 a73e 4093 1c3f
00000040: 5e8f 4abe 43a8 3b3e 6b50 4d3e 0a52 08be
00000050: a8b1 0abe db1e 473e b249 b93d 823f 00bd
00000060: a645 d8bd 78e6 db3d 94c5 e53c bd2c 39bd
00000070: a162 ddbc 95fb da3d 7f23 ccbe 4b18 183e
00000080: c019 923d b042 6d3d 1007 6b3e 26c0 4dbd
00000090: 5568 6a3e e23b c0bb 70e6 b13d f1bf 5fbc
000000a0: 0025 09be 2160 e63e 97a7 63be aded 58be
000000b0: f43b bf3e 38fe 883e 8671 0abf 039c 4bbe
000000c0: 298f cfbd e648 ea3d 1405 debb 80ed 893d
000000d0: faab 68be b540 c3bc 4f2b 303e a3ce 603f
000000e0: 0ce8 98be 6400 d0be 0777 fe3e 8e55 3c3d
000000f0: 9ae7 6cbd cde0 a5be 1948 ab3d 99d2 3ebe
00000100: 7181 3d3e b5e7 a9be 7279 863d 0eeb 82be
00000110: b4e2 a6be b9e3 30be 031c c1be 18fb 62be
00000120: 9960 053e 4ef0 a0be df12 27be 2bf7 a3be
00000130: a6c0 78bd 14ac 9f3d 7dc8 aabe bf9c 69be
00000140: a56e 343e c35e 5d3e 804f 64be 1af4 193e
00000150: 4383 983e bb0c 30bd 6bed 45be 2379 82bb
00000160: f483 473e 15d8 6ebd fda8 babe 7411 083e
00000170: 73e5 33bd 1743 e93e 9259 57bd 6851 723d
00000180: d29b 3a3e 344b 51bd 4644 6cbe 7850 d4bd
00000190: d402 8bbd 2c58 a2be 8a63 b7bd 1cb9 113e
000001a0: 4a75 e1bc 66fb 4ebb ee20 24bd 696f 2cbe
000001b0: 0705 673d 7537 ee3e e1f2 c33d cb8f 6d3e
000001c0: 3de0 22be 1e37 513e 9d06 793e 42d3 28bd
000001d0: 16cb 94be 4dfb 953d 0b0b 943e 81ce 963e
000001e0: 9da8 4ebe 433c 42be a0b7 0ebc c2ce 7abe
000001f0: 939e f43c cf70 b4bd f47a 9bbc 7d3a 3a3e
00000200: 2650 e7be ed66 c43c 258b a13d b74a 10bd
00000210: 28a8 b8bb a5af cebd 395d 853e b6b7 19bd
00000220: 7df4 c7bd 9d7f aabd 4ba3 d9bd f86d 2a3e
00000230: 02e1 873e 16b7 4a3d 0cb7 17be 5440 2ebe
00000240: a27e 053e bc13 0abe 27b5 213e f4f0 b7bc
00000250: 5a51 c83d b4f5 8abe a1c5 323e 64a8 53be
00000260: b0a6 86be 46b3 4bbe 5611 dbbd 3a6c 36be
00000270: d17f 8b3d 902e 81bd 4b2c 9a3c 997d a6bd
00000280: 0f42 6ebc 76ef b63d 150f 88bd 289e 373d
00000290: fee3 173e 710c 803e 54af aa3e f8a8 2d3e
000002a0: bf9b c13c 9301 103e 9efa 57be cd82 d93d
000002b0: e6e1 1d3d dd06 67bc 2b3b 66bc 74b3 863d
000002c0: fdfe d93d 7337 eabd 28eb ae3e c886 c7bc
000002d0: 32b4 0e3e 05ea a63c c74d b63e 903d aebe
000002e0: 9937 8f3e e7bd ec3e 1747 983e f5ec af3e
000002f0: 10e1 6a3d 9c9f 043e 95f0 213e 7e2d e03d
00000300: 20a2 92be c5ce 5fbd 422b 07be 1911 aabe
00000310: 327a b83e bace 383e 4962 073e e3d5 ef3d
00000320: 7b6e 4b3e a0e6 db3e 2cf8 ff3d 0c89 1cbe
00000330: 5938 ffbd a755 913e 1e71 93be cd17 6c3c
00000340: 2393 f1bd cd36 a33d 9baf 18be e9cd bdbe
00000350: 0f4c 033e a4e9 15be 2d7c b6bd 6013 1fbe
00000360: 73fa 9ebe 0145 21be 161c debe f9fe 80be
00000370: 205b cbbe 39d7 8dbe 4869 21be ecdd 7bbd
00000380: a800 d33c fbcd 3bbe 1ffd 6bbe 5310 58bd
00000390: dd2e af3e d870 a7bd 0b11 07bf e79a 1fbd
000003a0: 5041 1d3d 2c7f 60be 0a6f f0bc b66a 1cbc
000003b0: 46ee 82be 79d6 f8bd 6a27 103e 33d8 0abe
000003c0: 310c 2fbe a039 d33e 89a2 febe 774c e13e
000003d0: aa98 983e 2eb3 60bc d64d c03e b937 9ebd
000003e0: a133 3f3e 4700 c13d 7055 98be 9232 ecbe
000003f0: 24f7 493c 270f 12be e882 15bc 0997 00be
0.11743281 -0.0900044 0.02875191 0.053441923 0.15542094 -0.18293017 -0.22308508 0.38646474
-0.06743659 0.0024452715 0.12641507 0.51284635 0.04709541 0.10254464 0.32791445 0.61162186
-0.19781253 0.18325906 0.20050208 -0.13312545 -0.13544333 0.19445364 0.090472594 -0.031310566
-0.105601594 0.10737318 0.028048314 -0.04520868 -0.027024569 0.10692517 -0.3987083 0.14853017
0.07133818 0.057924926 0.22951913 -0.050232075 0.22891362 -0.0058665136 0.086865306 -0.013656602
-0.1339302 0.44995216 -0.22231899 -0.21184416 0.37350428 0.26756454 -0.54079473 -0.19883732
-0.101347275 0.114396855 -0.0067755077 0.06734753 -0.22721854 -0.023834566 0.17204021 0.878153
-0.29864538 -0.40625298 0.49700186 0.04598003 -0.05783806 -0.32398072 0.08363361 -0.18635024
0.18506409 -0.3318459 0.065661326 -0.25569957 -0.32594836 -0.1727437 -0.37716684 -0.22166097
0.1302513 -0.31433338 -0.16315793 -0.32024512 -0.0607306 0.07796493 -0.33356085 -0.228137
0.17620333 0.2161818 -0.22295952 0.15034524 0.29787645 -0.04298089 -0.19328849 -0.003981726
0.1948393 -0.05831154 -0.36457053 0.13287908 -0.04391999 0.45558998 -0.052575655 0.059159666
0.18223503 -0.05109711 -0.23072919 -0.10366911 -0.06787649 -0.31707895 -0.089545324 0.1423077
-0.027521748 -0.003158295 -0.040070467 -0.16839375 0.05640128 0.46526685 0.0956781 0.23199384
-0.15905853 0.20431182 0.24318929 -0.041217096 -0.29061192 0.073233224 0.28914675 0.29454425
-0.20181508 -0.189683 -0.008710772 -0.24492934 0.02986077 -0.08810579 -0.018979527 0.18186374
-0.45178336 0.02397486 0.07887868 -0.035227504 -0.00563528 -0.10092095 0.26047686 -0.037528716
-0.09763429 -0.083251216 -0.10626849 0.16643512 0.26538855 0.04949101 -0.1481592 -0.17016727
0.13036588 -0.1348409 0.1579176 -0.022453763 0.097811416 -0.27140582 0.17458202 -0.20669705
-0.26299047 -0.19892606 -0.10696666 -0.17814723 0.068114884 -0.06307709 0.018819949 -0.081294246
-0.014542117 0.08932392 -0.06643502 0.044828564 0.14833066 0.25009492 0.3333689 0.16958988
0.023633836 0.140631 -0.21091697 0.106206514 0.03854551 -0.014100757 -0.014052193 0.06577197
0.10644338 -0.11436357 0.34163785 -0.02435626 0.13935927 0.020375261 0.35606214 -0.34031343
0.27972105 0.46238634 0.29741737 0.3436047 0.057343543 0.12951511 0.15814431 0.10946177
-0.28639317 -0.05464055 -0.13200095 -0.3321617 0.36030728 0.1804761 0.13221087 0.117107175
0.19866364 0.4294939 0.12498507 -0.15286654 -0.12461919 0.2838566 -0.2879724 0.014409971
-0.11795642 0.07969437 -0.14910738 -0.3707116 0.12821983 -0.14639908 -0.089104034 -0.15534735
-0.31050453 -0.15748979 -0.43380803 -0.2519453 -0.3971796 -0.27703264 -0.15762818 -0.061490938
0.025757149 -0.18340294 -0.23045777 -0.052749943 0.3421544 -0.0817582 -0.5276038 -0.038966086
0.038392365 -0.21923512 -0.029349823 -0.009546926 -0.25572413 -0.121502824 0.14077535 -0.13559036
-0.17094494 0.41254902 -0.4973338 0.4400365 0.29803973 -0.013714595 0.37559384 -0.07725472
0.18672039 0.09423881 -0.29752684 -0.46132332 0.012326989 -0.14263593 -0.009125449 -0.12557615

linear.bias f4 [10]
00000000: a766 f7bc d340 53be 625a 203e 7cca 703e
00000010: f154 4d3d 528b 64bd 9b62 03be 9984 3abd
00000020: 7485 59be d10b 013e
-0.030200316 -0.20630197 0.15659478 0.23514742 0.050129835 -0.05579693 -0.12830584 -0.04553661
-0.21242315 0.12602164

onnx::Conv_184 f4 [32, 3, 3, 3]
00000000: 7d18 10bd 8551 52be 2732 ebbc 94f4 9d3d
00000010: 6d80 52be c627 8fbb 903d 40bd ae23 76be
00000020: 6496 cbbd bb17 0b3e ad99 c33d 8a82 5ebc
00000030: 0e33 88bc 4293 87bc 5ec0 2cbe b29c cb3d
00000040: c21b 0cbd b298 43be 2341 843e 5621 8b3e
00000050: 20a8 753e 09bb 6a3e ba4c 243e 85ab 3c3d
00000060: 66ec e9bc 46a2 1bbe 9a8f e9bd c62f bd3e
00000070: 038e 013e b38f f2bd f9ad 923e 65f7 8dbd
00000080: 8bde 973d 30fb aa3d 17c3 9e3e 7685 08be
00000090: 11dd 333e daf6 173e 42d9 82be a6e9 4fbd
000000a0: 8cef 24be 4810 91bd f60d 14be 0159 873e
000000b0: c1c3 b0be 9003 423d 4549 893d 7846 0abe
000000c0: 8934 673d 29a4 033e 23a7 63bd f273 8abe
000000d0: cdb2 173e 2500 35be 086c 0d3c 9f3f 233c
000000e0: 0864 71bc 76ec ec3d 88af 213e f78e 0fbe
000000f0: 617e 4f3e 2e79 b2bd 5348 bc3d 7d3f e2bc
00000100: 9f8d 15be f5ef 30be 413f a23d 7eb9 81be
00000110: baba 9abe b5bf cb3d 43d9 6fbe 9c1d 13be
00000120: 45cb 613d 87c5 c5bc 1963 8b3d 4c75 e43d
00000130: f205 d2bd b878 9d3c 9451 b43d 7896 6ebe
00000140: cf01 4f3c 0513 903e 90a5 1bbe 2da2 28be
00000150: b449 b23e 50fa b6bd 0d5f b1bd 4b32 543d
00000160: bc25 3ebe 1b8b cfbe 272c aebd 8041 dc3c
00000170: 5af2 793e f57f 9e3d 20a0 263d af1a ae3e
00000180: e4b9 193e bee8 8c3e c3b6 53be a524 5ebd
00000190: 7d70 79be eb6e 273e fd4d 713c 20ef b2be
000001a0: b89b ad3e 39e8 6e3d c881 473e a621 e93d
000001b0: e9e2 123d feb2 d73d e506 073d 0acb a4be
000001c0: 5a01 8fbd 74ba 203e 9951 afbe 8fb2 e5bd
000001d0: 424e 933e 81c6 913e e35c b63c f688 21be
000001e0: f57a 1a3d 58a6 03bd 050b 58bd 6cba d6bd
000001f0: ca02 eebd 81e2 893d 0c9a 3b3d 844f 8a3e
00000200: 1a17 373d a0a2 653e bd49 823e 395f b23d
00000210: 3b4f 4f3e 09e6 ee3d 3322 a1be de4a c7be
00000220: da06 083e e5b9 09be b1bf 6bbe fdce 893d
00000230: bb5f 68bd 817d 4a3d 51c9 90bc b732 a2be
00000240: 9671 30be 6cd7 453e 7901 8c3e ea64 8a3d
00000250: 89b7 243e b0cc 433e 0182 5d3a f840 4cbc
00000260: db78 36be 4a56 30be 719d d63b da9a e43d
00000270: 10f0 a8bd 1562 d13d a615 963d fa82 cf3d
00000280: d596 063e 0ccf debc ddeb 0bbe bc24 eabd
00000290: 0957 753d c105 ce3d d63e 6b3b 4a9f d63d
000002a0: 889c 5d3e 4191 103d e71a dbbd 4376 2ebe
000002b0: 4f86 9ebd 4464 583e 14ae b23d 34a0 24bd
000002c0: dfad 023e aeb0 643e d417 6f3e 522d 9c3d
000002d0: 5f15 413e 5c30 d7bd 1998 23be 35d9 303b
000002e0: f4e6 b5be 762c 97be e9db bf3c e06e 32be
000002f0: a1d9 c0be b842 eabd ab04 afbd 0da7 383d
00000300: 1d46 91be 5f11 a9bd 940c 6bbe 1034 e33c
00000310: 6ce1 67bb 1712 1b3d 3653 e03c efdb 4abe
00000320: a25c 7c3c 3199 6dbe 81f8 6bbd 39ca aebd
00000330: b4be 0a3e 08ec 253e bab0 3b3e 0bfa 2cbd
00000340: 9f49 9c3a 5629 ed3c 04ad 13be 9cb7 223e
00000350: baae ca3c d0aa 333e ddc4 a23e a2fb 933e
00000360: d764 88be d2f8 efbe db36 07bf 319f 73be
00000370: d654 933e dc72 223b 2877 c33e 8c3d 1f3e
00000380: b67a 1f3d 4f8f 963d d2ec 6ebe 5525 c23d
00000390: d435 603d 3ecf 143f 4ac5 ee3e 8497 78be
000003a0: 980f 293e 9037 b33e 9e5b e83e 04f2 c7be
000003b0: 5179 b5be c7ae 373e ff05 383e 8cc2 bbbd
000003c0: f555 d4be 8c5c 4dbe a6cb 083e d0fa e4bd
000003d0: ec07 94be 0dcc 5dbe 9872 f93e ea94 3bbd
000003e0: 3ffb 483e e6d2 483e b799 9a3d ef66 b73d
000003f0: 2bdd f9bd 86ef ea3d ecf1 a53c 73d4 bd3e
-0.035179604 -0.2053891 -0.028710438 0.07712665 -0.20556803 -0.004368755 -0.04693371 -0.24037048
-0.09940794 0.13583271 0.09550796 -0.013580928 -0.016625907 -0.01654971 -0.16870257 0.09941997
-0.03420616 -0.19101217 0.25830945 0.2717387 0.23989916 0.22922911 0.16044894 0.04606201
-0.028555106 -0.15198621 -0.11404343 0.3695051 0.1265183 -0.11843815 0.28648356 -0.069319524
0.074154936 0.083486915 0.31008217 -0.13332161 0.17564799 0.1484026 -0.2555638 -0.050759934
-0.16107005 -0.070831835 -0.1445845 0.26435092 -0.34524348 0.04736668 0.06703428 -0.13503444
0.056446586 0.12855591 -0.055579316 -0.27041584 0.14814301 -0.17675836 0.008631714 0.009963899
-0.014733322 0.11568539 0.15789616 -0.1401938 0.20263053 -0.087145194 0.09193482 -0.027618164
-0.14604805 -0.17279036 0.07922221 -0.25336832 -0.30220586 0.099486746 -0.23422723 -0.14366764
0.055125494 -0.02414204 0.06806011 0.11155185 -0.1025504 0.019222602 0.08804622 -0.23299587
0.012634709 0.2813951 -0.15199876 -0.16468115 0.34821856 -0.08934462 -0.086607076 0.051805776
-0.18569082 -0.40535817 -0.08504515 0.026886702 0.24408856 0.077392496 0.04068005 0.34004733
0.15012318 0.27521318 -0.20675187 -0.054234166 -0.24359317 0.16350906 0.0147280665 -0.34948063
0.33907866 0.058326934 0.19483101 0.11383371 0.03586093 0.10532187 0.03296556 -0.32186157
-0.0698268 0.15696126 -0.34241942 -0.11215698 0.28770643 0.2847176 0.022261089 -0.15774903
0.037714917 -0.03214106 -0.052744884 -0.10484776 -0.11621626 0.06732655 0.045801207 0.2701379
0.044699766 0.22425318 0.25446883 0.087095685 0.20245068 0.116649695 -0.31471404 -0.38924307
0.13283864 -0.1344982 -0.23022343 0.06728933 -0.05673192 0.049436096 -0.01767412 -0.31679317
-0.1723083 0.19320458 0.27344874 0.06757529 0.16085638 0.19121051 0.0008449853 -0.012466662
-0.1781954 -0.17220417 0.00654953 0.11162348 -0.08248913 0.10223786 0.07328348 0.10132404
0.13143475 -0.027198337 -0.13664193 -0.11432788 0.059897456 0.10059691 0.0035895607 0.10479601
0.21641743 0.035294775 -0.106984906 -0.17037301 -0.07740461 0.21131998 0.08724609 -0.040191844
0.12761639 0.22333023 0.23348933 0.07625832 0.18855809 -0.10507271 -0.1597599 0.0026984934
-0.35527766 -0.29526109 0.023420291 -0.17425108 -0.37666038 -0.11438507 -0.08545812 0.045081187
-0.28373805 -0.082552664 -0.22954017 0.027734786 -0.0035382165 0.03785905 0.027383428 -0.1981046
0.015402945 -0.23202969 -0.05761004 -0.08534665 0.1354931 0.1620332 0.18329135 -0.042230647
0.0011923796 0.028950375 -0.14421469 0.15890354 0.02474152 0.17545629 0.3179082 0.28902918
-0.26639435 -0.46869522 -0.5281808 -0.23791195 0.28775662 0.00247877 0.38176847 0.15550822
0.038935386 0.07351553 -0.23332527 0.09479777 0.054738835 0.58128726 0.46634895 -0.24276549
0.16509855 0.35003328 0.45382398 -0.3905183 -0.3544412 0.17937766 0.17971037 -0.09167966
-0.4147183 -0.20054835 0.13358936 -0.11180651 -0.28912294 -0.2165987 0.4872024 -0.045796312
0.19627093 0.19611701 0.0754885 0.0895518 -0.122003876 0.11471467 0.020256959 0.37076148

onnx::Conv_185 f4 [32]
00000000: 7fdf f73d b2d0 1ebe de09 f9bd 2260 603d
00000010: ac41 03bd e397 ec3d 4e0d 723c 6c03 1fbd
00000020: 3cdc 8a3e bae2 0c3e 5243 d7bc 4b66 533e
00000030: 49be 39bd 6d55 00be 14de 4abd fe5c 5abc
00000040: 0115 ec3c af80 7e3d 876b 753c 3c81 893e
00000050: aa47 d43e c15f 1a3f 246b 743d 537e a73d
00000060: c893 aebd b10d af3d 1785 673e 5981 10be
00000070: 604c 743b 743d 023f c6cd 09be 967a b63b
0.12103175 -0.15509298 -0.12160085 0.05477918 -0.03204505 0.115524076 0.01477368 -0.038821623
0.2712115 0.13758364 -0.026277218 0.2064449 -0.045347486 -0.12532587 -0.049528196 -0.013327835
0.02881861 0.06213444 0.01497925 0.2685641 0.41460925 0.6030236 0.05967249 0.08178391
-0.08524281 0.08547533 0.22609363 -0.14111842 0.0037276968 0.5087502 -0.13457403 0.0055688126

onnx::Conv_187 f4 [32, 32, 1, 1]
00000000: 9859 93be 39cb c13e b65c 8f3e 3fa4 9e3e
00000010: bf52 8bbe c591 df3d c269 6e3c a749 f23d
00000020: 48d3 51be 4610 b7be 0534 623e ecbd 1fbe
00000030: ffae 0abe db2d ba3e a371 83bd 9527 ff3e
00000040: 65a4 ac3e bd27 843e 866a 0a3e f28d 41bd
00000050: 29f2 ae3d 4a4a a13e 0cb7 d13d 2ffa c9be
00000060: b134 183e bf37 38be fe65 4a3d 3a01 133f
00000070: 263d 15bd 9027 eabd 768f 533d 6c11 ed3d
00000080: d141 293e b006 90bd 15e0 75bd afb0 1a3e
00000090: 8ee0 cfbd b68f 303e e269 523c 72ea 82be
000000a0: 7415 e53d 4e27 233e 6752 d53d 42e4 9c3e
000000b0: 23ac c93d 7edc a8be 41f1 253e fc1e 853d
000000c0: 287d 9dbe 99e7 8cbe 7b81 f8bc c82a 67be
000000d0: e1e4 47be 1d94 05be 939e 9e3e 4b27 253e
000000e0: e616 16be 9851 073e 68f8 ac3e d558 ab3c
000000f0: 0221 763d 5215 ca3d fe94 25bd 0d15 b23d
00000100: dd3a 64be 3866 12be 2a76 e43e ddac 9cbe
00000110: 8292 c5bd 19b7 f0be 0388 533d 0cf0 c1bd
00000120: b729 9cbe 9c3d f9bc a3e4 04bd ba8c afbd
00000130: f76d 00be 4b47 e5be b7ea 853d 0045 17bf
00000140: b47f 033e cfe8 d6bc ebe3 023f 8296 553e
00000150: c15e ffbd 8649 56be a03a c6bc 02ba 03be
00000160: 355d 56bd 3806 293e 5030 18be 2921 abbe
00000170: f5aa 25be 9b42 1a3e 3c1d 53be b497 3a3e
00000180: 148b 1d3e 7d80 15be 930c 003e b97a 93be
00000190: 95a5 f23d 3796 ad3e 73fc d73c c41d f83d
000001a0: ce52 25bd 969a 263e 8844 573d 55f9 873e
000001b0: 42db 343e 4cc5 db3e db6f 65bd 0e52 fcbd
000001c0: 14f1 aabe d8aa a53d 6b5f cf3d 3c36 70be
000001d0: 0e9f a73d c69d 94be 628c babe 7563 6b3d
000001e0: 7fa9 2dbe 1a5d 48bd ade4 9f3e 7e7c bcbe
000001f0: 8169 f8bd 58da 2cbe c38b 373d 5213 a0bd
00000200: ff8b 4f3e 9942 4f3e 6581 963d da5b 1abe
00000210: b359 473e eea8 99be 539f 65be 0ab2 90be
00000220: d4be 32be 1b70 343e 6445 903e 8734 afbd
00000230: f165 9cbd 3f3a efbd 649f acbd 6e9b 11be
00000240: 95d1 5c3d daf2 a0be 9748 623e f47c a4be
00000250: cf7f 21be f972 1fbe 92f3 e1bd 6a20 6f3e
00000260: 6009 453e 5cad 623d 27b6 6f3d 8b9c 5abe
00000270: 143f e0bd 1330 debd cadb 6f3a 7641 843e
00000280: a80c b5bd dcb3 0c3e 18bb b63d ed55 09be
00000290: 5e46 7bbe 7251 d3bd d00e f3be 5ad1 c03e
000002a0: 933d e3be 20f0 883e 9a6e ec3d 58d5 88be
000002b0: 962e d3be 0318 b2bc add7 e5be ef0c 9dbe
000002c0: 79f2 29be 07a5 ee3c d335 683e ab72 4fbe
000002d0: d330 54bd dec2 a3be bd19 623e 67ad b0bd
000002e0: 211d d7bd 987d 923e 7d1a 17be 6e38 abbd
000002f0: 3a55 3a3e 94a3 a9be a48a 5dbe 0c14 23be
00000300: 166e 363f 3481 8fbb 7733 513d 4349 a33d
00000310: 2113 063f 1b6a edbc 0894 72ba 00e2 2abe
00000320: 11d9 b3bd bd16 53be b489 d63e 1256 98be
00000330: a165 b1be 41b2 1e3e ecd2 a5bc 3872 76be
00000340: 1f7b 36be 9e6b 6dbe db64 083e 1be0 9abd
00000350: 07b9 843e e895 983d 5d23 103f 8712 0d3e
00000360: c5d3 b0be a988 ac3e 838d c03e 79ff 9c3e
00000370: 7f83 a9bd 7e65 dbbe 8abb e83c 2539 17be
00000380: 0cea da3d 7e6c d7be fb34 053e d1d7 26be
00000390: eace afbe 2df3 0e3e 1494 f4bb 93d5 833d
000003a0: c416 84be f543 0d3b 2ea5 a1be bdbe 4f3e
000003b0: ed09 953e a50a f8bd 3a7a 803e be1f 53bd
000003c0: 0151 3fbc 26fb 58be a5ae b1be b991 8c3d
000003d0: a5be 8a3e 0407 5c3e 3ba7 44be 38cb 643e
000003e0: 8c93 07be a2c2 adbd 37db ab3e 6350 b0be
000003f0: 6b7b 0e3d 8f4b a23e 354e f83d cbad cf3e
-0.28779292 0.3785036 0.2800042 0.30984685 -0.27211568 0.10916475 0.014551582 0.11830454
-0.20490754 -0.35754603 0.22090156 -0.15599793 -0.13543318 0.3636311 -0.06418159 0.49834886
0.33719173 0.25811568 0.13517198 -0.04725451 0.08542282 0.3150199 0.102399915 -0.39448687
0.1486385 -0.17990015 0.049413674 0.57423747 -0.03643527 -0.11433327 0.051650487 0.115755886
0.16529013 -0.070325255 -0.060028154 0.15106462 -0.10150252 0.17242321 0.012842627 -0.25569493
0.111857325 0.15932962 0.104161076 0.30642897 0.098472856 -0.32980722 0.16205312 0.065000504
-0.3075955 -0.27520445 -0.030335179 -0.22574914 -0.19520904 -0.13044782 0.30980358 0.1612827
-0.14657173 0.1321472 0.3378327 0.020916382 0.060090072 0.09867348 -0.040425293 0.08695421
-0.2228808 -0.14296806 0.44621402 -0.30600634 -0.09647085 -0.47014692 0.051643383 -0.094696134
-0.30500576 -0.030424885 -0.032444607 -0.08571763 -0.12541948 -0.44780955 0.06538909 -0.5908966
0.12841684 -0.026234059 0.51129025 0.20858195 -0.12469245 -0.20926484 -0.024197876 -0.12863925
-0.052334983 0.16506279 -0.1486218 -0.33423737 -0.16178496 0.1506447 -0.20616621 0.18221933
0.15385085 -0.14599796 0.12504797 -0.28804567 0.118479885 0.33903667 0.026365494 0.12115052
-0.04036217 0.16269907 0.05255559 0.26557413 0.17661765 0.42923963 -0.056014877 -0.12320338
-0.33387053 0.080892265 0.101256214 -0.23458189 0.08184634 -0.29026622 -0.3643523 0.057467896
-0.16959189 -0.048916914 0.31229153 -0.3681373 -0.12129498 -0.16880167 0.04481102 -0.07816185
0.20268248 0.20240249 0.07348899 -0.15074101 0.19467811 -0.30011696 -0.22424059 -0.28260833
-0.17455608 0.1762089 0.2817794 -0.08554941 -0.07636631 -0.116810314 -0.08428839 -0.14219448
0.05391081 -0.3143528 0.22098003 -0.32126582 -0.15771411 -0.15571202 -0.110327855 0.23352209
0.19241858 0.05534111 0.058523323 -0.21348779 -0.10949531 -0.10849013 0.00091498776 0.25831193
-0.088403046 0.13740486 0.08922404 -0.13411684 -0.24538562 -0.10318269 -0.4747224 0.37659723
-0.44382915 0.267457 0.11544533 -0.26725268 -0.4124648 -0.021739965 -0.4489111 -0.3067393
-0.16596402 0.029131426 0.22676782 -0.20258586 -0.051804375 -0.3198461 0.22080131 -0.08626824
-0.10503603 0.28611445 -0.14756198 -0.083603725 0.18196574 -0.33132613 -0.21634918 -0.15925616
0.7126173 -0.004379416 0.05107447 0.07972958 0.5237294 -0.02898126 -0.0009253626 -0.16687775
-0.087816365 -0.20614143 0.41901934 -0.29753166 -0.3464785 0.15497686 -0.020242177 -0.24067008
-0.17820404 -0.23185584 0.13319723 -0.07562276 0.25922415 0.07450467 0.5630396 0.13776599
-0.34536567 0.33698013 0.37607965 0.3066366 -0.08277034 -0.4285087 0.028409738 -0.14767893
0.10689172 -0.4207496 0.13008492 -0.16293265 -0.3433755 0.13959952 -0.0074639414 0.064372204
-0.2579862 0.0021555398 -0.31571335 0.20287605 0.29109135 -0.12111405 0.2509325 -0.051543944
-0.011677028 -0.21189556 -0.34703556 0.06863732 0.27098575 0.21487051 -0.19204418 0.22343147
-0.13239878 -0.08484389 0.33565685 -0.3443633 0.03478567 0.31698272 0.12124292 0.4056228

onnx::Conv_188 f4 [32]
00000000: f995 09bf 603b 103c 8305 863f 18e1 833e
00000010: b084 653f 59d9 c53f 00f2 18bf b0c5 05bd
00000020: 1ad7 b93e 31cc 26bf e406 d13d a3c3 883f
00000030: 5013 68bf 5255 ab3d e1fe 02bf d894 afbe
00000040: 7965 853f 0893 bcbd 28c7 503f d15c ccbd
00000050: 2914 833f ed59 1b3f 38b0 48bf 61a8 4fbd
00000060: 2663 1abf f548 dc3d ce54 873e 4a53 473f
00000070: 3594 b03d 6e1c d6be 1067 c53f 40d6 d03d
-0.53744465 0.008803219 1.0470432 0.2575767 0.8965559 1.5456954 -0.5974426 -0.032659233
0.36296922 -0.6515532 0.102063924 1.0684704 -0.9065447 0.08365883 -0.51170164 -0.34293246
1.0421592 -0.092077315 0.8155389 -0.09978641 1.0240527 0.6068409 -0.7839389 -0.050697688
-0.6030754 0.10756103 0.26431888 0.77861464 0.08622018 -0.41818565 1.5422077 0.10197115

onnx::Conv_190 f4 [32, 1, 3, 3]
00000000: aa81 fcbe 6e8a 013d 94d6 0d3f 2cb3 1a3f
00000010: 7353 a83e 1f37 073f 2f31 fc39 cb6e 87be
00000020: 54bf 453e 1310 053f 0839 9c3f 2922 4b3f
00000030: ef79 81bf e9e1 07bf 5f73 043e fef4 6b3e
00000040: c66b c7be 4ebc 2ebf 3144 1e3f f1f7 88bf
00000050: 4c2f c03d af56 56bf d6ea a63e 9a9f 27bf
00000060: f0bb a7be d024 4f3f bf55 50bd 3c2a 11bf
00000070: 1f90 1dbe 8358 c43d cbf4 723f 8f99 993f
00000080: c2e6 10bf fc0c 873f c8b5 62bf a358 56bf
00000090: dc0a 413f c7bc 893f d727 9abf 7cad 2cbe
000000a0: 9f96 bdbf 67b4 ce3d 79db 0540 faab c8bf
000000b0: e28f 9d3e 83f0 bf3e 1351 89bf 7aee 6cbf
000000c0: 1ebb b5be a6a6 5cbd 195f e03d 41d9 a53f
000000d0: 7e0c f4be 16e4 d93f a545 a53d b701 a1bc
000000e0: ea00 82be 6879 7abe 54fa 37bd 0e53 c3be
000000f0: 538d f8be 464f d5bd aa9f 37bc 5fbf cdbe
00000100: c471 4c3f e6a1 0b3f cbde e1be 744a 703f
00000110: 77eb 26bf 9045 963f 78a4 0abd 0d36 a0bf
00000120: b582 823e e8be ac3f b630 a83e dccd 733f
00000130: 7148 18bf 218c 75bf 10d3 563e fba6 2ebd
00000140: 83bc 84bf d69a 2ebe 6176 ce3e 0e8e f5be
00000150: af9b 003c ff28 0c3e f6bd 6e3e b094 adbe
00000160: ba4b c6be 539b 4dbf 97e8 86bf 9aae c5bd
00000170: b4f4 2a3f ed6c d6be c356 b0ba 0918 7c3f
00000180: e502 ae3d 2f67 893f 5531 b5bf 8d01 1ebf
00000190: b1ae 85be 0c0c 3f3e 8673 e5bf 1eb2 1ebf
000001a0: 5a81 373f faf3 443f 9111 0340 f992 7d3e
000001b0: de7b 923e bf1a 0abf e453 ba3e b9cf 31be
000001c0: 7090 04bf c081 e0be b945 93bf 5707 103f
000001d0: 4433 37be da41 753e 99fa a53f 1f37 bfbf
000001e0: cdef 42bf 04fe ae3e 3763 05bf 685a 183f
000001f0: b0a3 6bbf f335 1a3f 40ab da3e 0209 9f3f
00000200: 9353 3ebe 813a 22bf 2dc4 cbbe 1a9c d53e
00000210: bef7 1abf 88c0 ac3e 69e5 98bf 4d0e 05bf
00000220: a9ed 24bf 0f5c 20be 5678 703c 088e 34bf
00000230: 886a c0be ea79 b53f d4f0 cb3d 2c10 3a3f
00000240: c525 293f f4e5 33be 375e 5abf ddfa cc3f
00000250: 6d12 d6bc ea63 bbbe 151d d23e d69e 353f
00000260: 3f4e 12be be33 82bd 3005 dd3d e95d 853f
00000270: b0e9 d43c 89bf 28bf 82cf a73f 3205 9cbd
00000280: be10 5fbf bcf6 2dbf e2cb babd 0750 0abe
00000290: e06a 483f 6686 7abe 5a8b 40bf 777e 2bbf
000002a0: d038 573f fbb8 f13e 67b4 b4be 9331 6cbf
000002b0: c279 cc3d eb88 2dbf 4a15 62be a5ac fabe
000002c0: 78d9 28be d3f7 6c3f 7c5c 3dbf 4193 843e
000002d0: e12e ecbe f669 0140 b240 783f 5227 d0be
000002e0: 27ed c2be 78cb b0bf 0292 743f 8eaa 093f
000002f0: c081 a33d 7cc5 0ebe 2b35 973e 4110 8ebf
00000300: a125 213f 36ae 693f f691 43bf 2418 23bf
00000310: 5d31 113f e4b1 1d3f d489 0d3f dfaa 8b3e
00000320: 286d 15bf 6e11 99be c47e 823e cac2 a63e
00000330: 0fcb a33e ee62 133f c827 f3bc 98ca f7be
00000340: 1374 633f 4d97 683f 992e d93e c0fe 1e3f
00000350: 1ed1 50bf 0fb9 ed3e 6043 84bf 62cf 25bd
00000360: d337 5e3f 38d0 8bbd c012 bbbb 6c8c 06bf
00000370: 888b 8a3f 9a66 9e3e b59a 393f 18cc f1be
00000380: 6fef 39bf 8447 38bf 64c9 45be ed90 843f
00000390: b798 8d3f 91d8 553f cc77 86bf 0611 1bbe
000003a0: 2dc8 a03e f6c7 eebe d412 98bd 826e 32bf
000003b0: 8202 633f ccf2 4bbf 7b3b 243f c822 d0be
000003c0: ecd5 52bf 889d a3be e7f6 113f 7619 1e3f
000003d0: cceb f8be b9ec ff3e 2649 633f 83d6 b83e
000003e0: dcfd afbf 644e 01be d0e8 e8be e830 5a3f
000003f0: 8195 4cbd 9f9a 01bf 0dca 4b3f 2675 063f
-0.49317676 0.031626157 0.55405545 0.60429645 0.32876167 0.52818483 0.0004810183 -0.26451716
0.19311267 0.5197765 1.2204905 0.79349 -1.0115336 -0.53079087 0.12934636 0.23042676
-0.38949412 -0.6825608 0.618228 -1.0700666 0.09384021 -0.8372602 0.3260104 -0.6547791
-0.32760572 0.80915546 -0.050863024 -0.5670507 -0.15387009 0.09587195 0.94904774 1.1999987
-0.5660211 1.0550838 -0.88558626 -0.83729 0.75407195 1.0760735 -1.2043408 -0.16863054
-1.4811591 0.10093003 2.0915205 -1.5677483 0.30773836 0.37488183 -1.0727867 -0.92551386
-0.35494322 -0.053869866 0.109556384 1.2956926 -0.4766578 1.7022731 0.08069924 -0.019654138
-0.25391322 -0.24460375 -0.044916466 -0.38149303 -0.48545322 -0.10415511 -0.0112075005 -0.40185067
0.7986109 0.5454391 -0.4411529 0.93863606 -0.6520304 1.1739979 -0.033848256 -1.2516495
0.25490347 1.349576 0.32849663 0.9523599 -0.59485537 -0.95916945 0.20978951 -0.042639714
-1.0370029 -0.17051253 0.4032469 -0.47959942 0.007849618 0.13687514 0.23314652 -0.33902502
-0.3872965 -0.8031513 -1.0539731 -0.09652443 0.6677964 -0.4187998 -0.0013453591 0.98474175
0.08496646 1.0734614 -1.415568 -0.61721116 -0.2610984 0.1865694 -1.792588 -0.61990535
0.7168175 0.7693478 2.0479472 0.24763097 0.28610128 -0.5394706 0.36392128 -0.17364396
-0.51782894 -0.4384899 -1.1505653 0.562612 -0.1789065 0.23950902 1.2967101 -1.4938697
-0.76147157 0.34178174 -0.52104515 0.5951295 -0.9204664 0.6023857 0.42708778 1.2424624
-0.18586569 -0.6337052 -0.39798108 0.4172066 -0.60534275 0.3374064 -1.194501 -0.51974946
-0.6442514 -0.15660118 0.014677128 -0.7052922 -0.37581277 1.417783 0.09958044 0.72680926
0.66073257 -0.17568189 -0.8530001 1.6014057 -0.026131833 -0.36599666 0.41037813 0.7094549
-0.14287661 -0.06357525 0.10792005 1.0419284 0.025990337 -0.6591726 1.3110201 -0.076181784
-0.8713492 -0.6795461 -0.09120919 -0.1350709 0.7828808 -0.24465331 -0.75212634 -0.66989845
0.84071064 0.4721144 -0.35293886 -0.92263144 0.09984161 -0.67787045 -0.22078434 -0.48959842
-0.16489208 0.9256565 -0.73969245 0.25893596 -0.46129516 2.0220923 0.9697372 -0.40655
-0.38071558 -1.3812094 0.9553529 0.5377587 0.07983732 -0.13942522 0.2953275 -1.109871
0.6294804 0.9128145 -0.76394594 -0.6370871 0.5671595 0.61599565 0.55288434 0.27278802
-0.58369684 -0.2989611 0.2548734 0.32570487 0.3199086 0.5757283 -0.029682055 -0.48396754
0.8884899 0.90855867 0.42418364 0.6210747 -0.8156909 0.4643025 -1.0333061 -0.04048098
0.8680393 -0.06826824 -0.0057090223 -0.52558017 1.0823832 0.30937654 0.7250169 -0.47226024
-0.7263097 -0.71984124 -0.19315106 1.0356728 1.106223 0.8353358 -1.0505309 -0.15143213
0.31402722 -0.46636933 -0.07425466 -0.6969987 0.886757 -0.79667354 0.6415326 -0.40651536
-0.8235767 -0.31956124 0.5701737 0.617576 -0.486174 0.49985293 0.8878349 0.3610116
-1.3749347 -0.1262756 -0.45490122 0.85230875 -0.049947266 -0.5062656 0.7960518 0.52522504

onnx::Conv_191 f4 [32]
00000000: 2c80 bbbe 378c 9abd b4ff b73e b025 06bd
00000010: 5745 9d3e 3eb9 bfbe 4f71 573f e84e 49bd
00000020: f87e 393d 37c2 6e3f f2e0 873e a7b0 7dbe
00000030: 8c99 e73e 6000 a63e 2a0f e33d 33e3 873d
00000040: 3952 e7be 14d9 d83c 285e 313c 65ff 0c3f
00000050: db48 3cbf 1458 a2be 212d 10bf 424d 93be
00000060: 0348 cbbe 7d71 ccbe 12a0 0a3f 8094 76be
00000070: b226 c3bd 64fe 4d3d 5ef8 52be d86a a1bd
-0.36621225 -0.07546275 0.35937274 -0.032750785 0.30716965 -0.37446016 0.8415727 -0.049147516
0.045287102 0.932651 0.26538807 -0.24774419 0.45234334 0.3242216 0.11086877 0.06635132
-0.45179918 0.026470698 0.010825671 0.550772 -0.7354867 -0.31707823 -0.5631886 -0.2876988
-0.39703378 -0.39930335 0.541505 -0.24080086 -0.09528865 0.050291434 -0.20602557 -0.07881707
