Project/Project_files/mobilenetv2_experiments/onnxs/mobilenetv2_18_int8.onnx (onnx, 27705 bytes, 11 tensors)

onnx::Conv_114_quantized i1 [32, 3, 3, 3]
0	0xfc	-4
1	0xf2	-14
2	0xfa	-6
3	0x06	6
4	0xf1	-15
5	0xf9	-7
6	0xf5	-11
7	0xef	-17
8	0xfb	-5
9	0x17	23
10	0x18	24
11	0x04	4
12	0x0a	10
13	0x0d	13
14	0xf4	-12
15	0x0c	12
16	0xfd	-3
17	0xed	-19
18	0x0d	13
19	0x0a	10
20	0x08	8
21	0x18	24
22	0x0f	15
23	0xfa	-6
24	0xff	-1
25	0xed	-19
26	0xee	-18
27	0x19	25
28	0x13	19
29	0xe8	-24
30	0x26	38
31	0xbf	-65
32	0x34	52
33	0x01	1
34	0x3e	62
35	0xb9	-71
36	0x01	1
37	0x26	38
38	0xed	-19
39	0xd9	-39
40	0x81	-127
41	0x53	83
42	0xe5	-27
43	0x31	49
44	0xbe	-66
45	0xf4	-12
46	0xfe	-2
47	0xdb	-37
48	0x0d	13
49	0xe7	-25
50	0x4a	74
51	0xe2	-30
52	0x36	54
53	0xe7	-25
54	0xfe	-2
55	0xfa	-6
56	0xe5	-27
57	0x12	18
58	0x07	7
59	0xe3	-29
60	0x13	19
61	0x03	3
62	0x15	21
63	0x09	9
64	0x0b	11
65	0xef	-17
66	0x0b	11
67	0xdc	-36
68	0xe2	-30
69	0x11	17
70	0xf5	-11
71	0xf1	-15
72	0x0c	12
73	0x0b	11
74	0xf2	-14
75	0x12	18
76	0xf1	-15
77	0xfd	-3
78	0x15	21
79	0xf7	-9
80	0x0b	11
81	0x2c	44
82	0x0e	14
83	0x10	16
84	0x15	21
85	0x02	2
86	0x04	4
87	0xee	-18
88	0xd7	-41
89	0xaf	-81
90	0xd3	-45
91	0xf9	-7
92	0x11	17
93	0xec	-20
94	0x09	9
95	0x2e	46
96	0x08	8
97	0x1d	29
98	0xe5	-27
99	0xfb	-5
100	0xf2	-14
101	0x01	1
102	0xf1	-15
103	0xe4	-28
104	0x28	40
105	0xfa	-6
106	0x08	8
107	0xff	-1
108	0x34	52
109	0x1d	29
110	0xf8	-8
111	0xbb	-69
112	0xa1	-95
113	0x27	39
114	0xbe	-66
115	0xed	-19
116	0x39	57
117	0x12	18
118	0xf7	-9
119	0xd3	-45
120	0x1c	28
121	0xdb	-37
122	0x25	37
123	0x19	25
124	0xe0	-32
125	0x13	19
126	0xc5	-59
127	0x24	36
128	0xe5	-27
129	0x10	16
130	0xfb	-5
131	0x26	38
132	0x48	72
133	0x17	23
134	0xbc	-68
135	0xf1	-15
136	0x12	18
137	0xfd	-3
138	0xeb	-21
139	0x0a	10
140	0xff	-1
141	0x04	4
142	0xf3	-13
143	0xe9	-23
144	0xf1	-15
145	0xf9	-7
146	0x13	19
147	0x16	22
148	0x1e	30
149	0x23	35
150	0x14	20
151	0xf4	-12
152	0xf2	-14
153	0xf9	-7
154	0xec	-20
155	0x03	3
156	0xfd	-3
157	0x01	1
158	0x1c	28
159	0x0d	13
160	0xed	-19
161	0x01	1
162	0xfa	-6
163	0xfd	-3
164	0x0c	12
165	0x11	17
166	0x0e	14
167	0x04	4
168	0x09	9
169	0xfb	-5
170	0xfb	-5
171	0xf7	-9
172	0xf6	-10
173	0x0e	14
174	0x08	8
175	0x03	3
176	0x04	4
177	0x0b	11
178	0x11	17
179	0x0f	15
180	0x07	7
181	0xec	-20
182	0xe9	-23
183	0x05	5
184	0xf0	-16
185	0xe4	-28
186	0xff	-1
187	0xf1	-15
188	0xee	-18
189	0xf3	-13
190	0x08	8
191	0x02	2
192	0xe7	-25
193	0xfb	-5
194	0xf0	-16
195	0x1a	26
196	0xfd	-3
197	0x08	8
198	0x10	16
199	0xf0	-16
200	0xfa	-6
201	0xd1	-47
202	0xe2	-30
203	0xec	-20
204	0x06	6
205	0xf9	-7
206	0x01	1
207	0x06	6
208	0x10	16
209	0x09	9
210	0xe5	-27
211	0x0e	14
212	0x06	6
213	0x03	3
214	0x18	24
215	0x1c	28
216	0xef	-17
217	0xea	-22
218	0xe9	-23
219	0xf5	-11
220	0x0a	10
221	0x02	2
222	0x1a	26
223	0xff	-1
224	0xfb	-5
225	0x13	19
226	0xfc	-4
227	0xf8	-8
228	0x05	5
229	0x25	37
230	0x12	18
231	0xf3	-13
232	0x2c	44
233	0x2a	42
234	0x1f	31
235	0xe8	-24
236	0xe9	-23
237	0x01	1
238	0xfe	-2
239	0xf8	-8
240	0xcd	-51
241	0xf4	-12
242	0x21	33
243	0xec	-20
244	0xc8	-56
245	0xe4	-28
246	0x10	16
247	0xb5	-75
248	0x0c	12
249	0x21	33
250	0x3c	60
251	0x03	3
252	0x05	5
253	0x40	64
254	0x1a	26
255	0x19	25

onnx::Conv_117_quantized i1 [32, 32, 1, 1]
0	0xce	-50
1	0x3a	58
2	0x20	32
3	0xfc	-4
4	0xc8	-56
5	0xd8	-40
6	0xfa	-6
7	0x1d	29
8	0xc6	-58
9	0xbb	-69
10	0x01	1
11	0xc7	-57
12	0x13	19
13	0xd3	-45
14	0x0f	15
15	0x7f	127
16	0x4f	79
17	0x1d	29
18	0x15	21
19	0xfa	-6
20	0x1c	28
21	0xd1	-47
22	0x27	39
23	0x0b	11
24	0x0b	11
25	0xdf	-33
26	0x15	21
27	0x05	5
28	0x42	66
29	0x03	3
30	0xeb	-21
31	0x2b	43
32	0xfb	-5
33	0xdb	-37
34	0xe8	-24
35	0x04	4
36	0xe5	-27
37	0x17	23
38	0x04	4
39	0xcd	-51
40	0x08	8
41	0xe4	-28
42	0x11	17
43	0x22	34
44	0x18	24
45	0xe4	-28
46	0x11	17
47	0xe7	-25
48	0x05	5
49	0xe1	-31
50	0x15	21
51	0xcb	-53
52	0x2c	44
53	0x22	34
54	0xfc	-4
55	0x11	17
56	0xf8	-8
57	0xd8	-40
58	0x22	34
59	0xf9	-7
60	0x07	7
61	0xff	-1
62	0xfb	-5
63	0x10	16
64	0xe2	-30
65	0xb0	-80
66	0x60	96
67	0x82	-126
68	0xb7	-73
69	0xa6	-90
70	0xff	-1
71	0x5d	93
72	0xf5	-11
73	0xf6	-10
74	0x05	5
75	0xf3	-13
76	0xe2	-30
77	0xe6	-26
78	0xa9	-87
79	0x08	8
80	0xdf	-33
81	0x36	54
82	0x6c	108
83	0x24	36
84	0x07	7
85	0xc5	-59
86	0xde	-34
87	0xc6	-58
88	0x55	85
89	0x0b	11
90	0x30	48
91	0xda	-38
92	0x0a	10
93	0xbe	-66
94	0xed	-19
95	0x19	25
96	0xff	-1
97	0xf9	-7
98	0xf5	-11
99	0x00	0
100	0x0a	10
101	0x23	35
102	0xee	-18
103	0x27	39
104	0x00	0
105	0xfc	-4
106	0xef	-17
107	0x0c	12
108	0x13	19
109	0x12	18
110	0x04	4
111	0xff	-1
112	0xab	-85
113	0x03	3
114	0xf7	-9
115	0xfc	-4
116	0xec	-20
117	0x02	2
118	0xff	-1
119	0x01	1
120	0xe2	-30
121	0xf1	-15
122	0xfd	-3
123	0x0d	13
124	0xf4	-12
125	0xf5	-11
126	0xff	-1
127	0x01	1
128	0x06	6
129	0x00	0
130	0x08	8
131	0xfe	-2
132	0x1d	29
133	0x0a	10
134	0xf9	-7
135	0xf5	-11
136	0xfb	-5
137	0x05	5
138	0x22	34
139	0xe4	-28
140	0xfb	-5
141	0xea	-22
142	0xf9	-7
143	0xf7	-9
144	0x10	16
145	0xcb	-53
146	0x03	3
147	0xed	-19
148	0xef	-17
149	0xf9	-7
150	0x08	8
151	0x41	65
152	0x11	17
153	0xff	-1
154	0xf3	-13
155	0xe8	-24
156	0x0c	12
157	0x02	2
158	0x16	22
159	0x07	7
160	0x07	7
161	0x0b	11
162	0x18	24
163	0xb2	-78
164	0x06	6
165	0x08	8
166	0x02	2
167	0x04	4
168	0x22	34
169	0x46	70
170	0x03	3
171	0xdc	-36
172	0xe2	-30
173	0x0e	14
174	0xd6	-42
175	0xe8	-24
176	0xfa	-6
177	0xec	-20
178	0x09	9
179	0xee	-18
180	0xfd	-3
181	0xd5	-43
182	0x1d	29
183	0x04	4
184	0xf1	-15
185	0x19	25
186	0xfa	-6
187	0x04	4
188	0x07	7
189	0xc5	-59
190	0xfb	-5
191	0xf0	-16
192	0x35	53
193	0x0d	13
194	0x00	0
195	0xee	-18
196	0x1a	26
197	0x15	21
198	0xe2	-30
199	0xe8	-24
200	0xe3	-29
201	0x34	52
202	0xf5	-11
203	0x04	4
204	0xdc	-36
205	0x1a	26
206	0x1f	31
207	0xe8	-24
208	0x13	19
209	0x04	4
210	0x07	7
211	0xd7	-41
212	0x3e	62
213	0xdc	-36
214	0x31	49
215	0xf3	-13
216	0xd0	-48
217	0x02	2
218	0x4f	79
219	0x21	33
220	0x1d	29
221	0xd5	-43
222	0x17	23
223	0xcf	-49
224	0x16	22
225	0xf8	-8
226	0x15	21
227	0xf3	-13
228	0x02	2
229	0xfb	-5
230	0xfe	-2
231	0xff	-1
232	0xea	-22
233	0x04	4
234	0xee	-18
235	0xfe	-2
236	0x06	6
237	0xf8	-8
238	0xfb	-5
239	0x03	3
240	0x10	16
241	0xfe	-2
242	0xfc	-4
243	0x05	5
244	0x0e	14
245	0x0a	10
246	0xf8	-8
247	0x04	4
248	0xfa	-6
249	0x08	8
250	0x14	20
251	0xf7	-9
252	0x00	0
253	0x15	21
254	0x0f	15
255	0x0a	10

onnx::Conv_120_quantized i1 [32, 1, 3, 3]
0	0xf4	-12
1	0x23	35
2	0x16	22
3	0x03	3
4	0x19	25
5	0x2a	42
6	0xe6	-26
7	0xe8	-24
8	0xe8	-24
9	0x05	5
10	0x44	68
11	0x40	64
12	0xe7	-25
13	0xce	-50
14	0xdb	-37
15	0xf5	-11
16	0xfe	-2
17	0xee	-18
18	0x13	19
19	0xdf	-33
20	0xf5	-11
21	0xcc	-52
22	0xfa	-6
23	0x05	5
24	0xe3	-29
25	0x0e	14
26	0x13	19
27	0x01	1
28	0xfe	-2
29	0x01	1
30	0x2f	47
31	0x17	23
32	0xb8	-72
33	0x32	50
34	0xe1	-31
35	0xd0	-48
36	0x14	20
37	0xeb	-21
38	0xf1	-15
39	0x3b	59
40	0xc7	-57
41	0x16	22
42	0x42	66
43	0xb7	-73
44	0x14	20
45	0xef	-17
46	0xe5	-27
47	0xdb	-37
48	0xea	-22
49	0xf0	-16
50	0x14	20
51	0x39	57
52	0x06	6
53	0x27	39
54	0xf2	-14
55	0xe8	-24
56	0xc6	-58
57	0xfc	-4
58	0xeb	-21
59	0xfb	-5
60	0xff	-1
61	0x0c	12
62	0xe6	-26
63	0xc4	-60
64	0x3d	61
65	0x4b	75
66	0xf7	-9
67	0x54	84
68	0x01	1
69	0x7d	125
70	0xb0	-80
71	0xa4	-92
72	0xf3	-13
73	0x40	64
74	0x13	19
75	0x2d	45
76	0x09	9
77	0xe8	-24
78	0x28	40
79	0x1b	27
80	0xd1	-47
81	0xe2	-30
82	0xe1	-31
83	0xe4	-28
84	0xf9	-7
85	0x04	4
86	0x10	16
87	0xe9	-23
88	0x03	3
89	0xe2	-30
90	0x24	36
91	0xb4	-76
92	0x36	54
93	0x0d	13
94	0xdf	-33
95	0x2b	43
96	0xf9	-7
97	0x51	81
98	0x99	-103
99	0xfb	-5
100	0x1b	27
101	0x01	1
102	0x95	-107
103	0xb3	-77
104	0x0c	12
105	0x56	86
106	0x60	96
107	0xee	-18
108	0xd3	-45
109	0xe8	-24
110	0x1f	31
111	0xe9	-23
112	0xfe	-2
113	0xe3	-29
114	0x81	-127
115	0x52	82
116	0xef	-17
117	0x0d	13
118	0x09	9
119	0xef	-17
120	0xe6	-26
121	0xe3	-29
122	0xe2	-30
123	0xea	-22
124	0xfe	-2
125	0x0d	13
126	0x16	22
127	0x32	50
128	0x13	19
129	0xcf	-49
130	0xfc	-4
131	0x27	39
132	0xdf	-33
133	0xcb	-53
134	0xd2	-46
135	0xde	-34
136	0xe3	-29
137	0xdf	-33
138	0xf4	-12
139	0xfc	-4
140	0x0b	11
141	0x1e	30
142	0x06	6
143	0x20	32
144	0x1c	28
145	0xe6	-26
146	0xea	-22
147	0x01	1
148	0x1e	30
149	0xfe	-2
150	0x08	8
151	0x08	8
152	0x15	21
153	0x05	5
154	0x35	53
155	0x0f	15
156	0xd4	-44
157	0xf5	-11
158	0x51	81
159	0x01	1
160	0xc1	-63
161	0xdf	-33
162	0xc7	-57
163	0x02	2
164	0x4e	78
165	0x09	9
166	0xa3	-93
167	0xfb	-5
168	0x44	68
169	0x2c	44
170	0xaa	-86
171	0x17	23
172	0xe2	-30
173	0xf6	-10
174	0x1f	31
175	0xc0	-64
176	0x16	22
177	0x20	32
178	0xff	-1
179	0x07	7
180	0x02	2
181	0x33	51
182	0x11	17
183	0xfb	-5
184	0x07	7
185	0x06	6
186	0x30	48
187	0x04	4
188	0x01	1
189	0xfa	-6
190	0x3a	58
191	0xbf	-65
192	0xe7	-25
193	0x52	82
194	0xbd	-67
195	0xcf	-49
196	0x41	65
197	0xf9	-7
198	0x22	34
199	0xfb	-5
200	0x03	3
201	0x1d	29
202	0x0e	14
203	0x1b	27
204	0x17	23
205	0xf9	-7
206	0x0d	13
207	0x05	5
208	0x0d	13
209	0x16	22
210	0x20	32
211	0x24	36
212	0xe4	-28
213	0x15	21
214	0xff	-1
215	0xe0	-32
216	0xfc	-4
217	0xff	-1
218	0x0e	14
219	0x17	23
220	0x46	70
221	0xfa	-6
222	0x04	4
223	0x0a	10
224	0xd8	-40
225	0x08	8
226	0x09	9
227	0x0e	14
228	0x26	38
229	0x1d	29
230	0xfb	-5
231	0xf2	-14
232	0x0c	12
233	0xfa	-6
234	0xfb	-5
235	0x03	3
236	0x6f	111
237	0xad	-83
238	0x1e	30
239	0xf0	-16
240	0xbc	-68
241	0xa2	-94
242	0x46	70
243	0x0c	12
244	0x09	9
245	0x1f	31
246	0x36	54
247	0x0d	13
248	0xbb	-69
249	0x10	16
250	0xe0	-32
251	0xfd	-3
252	0x31	49
253	0xef	-17
254	0x03	3
255	0x31	49

onnx::Conv_123_quantized i1 [16, 32, 1, 1]
0	0x0d	13
1	0x12	18
2	0xe1	-31
3	0xce	-50
4	0xb0	-80
5	0x24	36
6	0xe1	-31
7	0xf1	-15
8	0x17	23
9	0xc9	-55
10	0x33	51
11	0x14	20
12	0xce	-50
13	0xf6	-10
14	0x1b	27
15	0x1f	31
16	0xeb	-21
17	0x05	5
18	0x37	55
19	0x09	9
20	0xe7	-25
21	0xbd	-67
22	0x16	22
23	0x1c	28
24	0xf1	-15
25	0xe5	-27
26	0xf6	-10
27	0xfa	-6
28	0x0b	11
29	0xc4	-60
30	0x12	18
31	0xc3	-61
32	0x0b	11
33	0x32	50
34	0x02	2
35	0xea	-22
36	0xf5	-11
37	0x29	41
38	0x1d	29
39	0xec	-20
40	0xf6	-10
41	0x20	32
42	0x39	57
43	0x09	9
44	0x24	36
45	0xf1	-15
46	0xc7	-57
47	0x2c	44
48	0x06	6
49	0x17	23
50	0x05	5
51	0x0f	15
52	0xc3	-61
53	0x0b	11
54	0xd0	-48
55	0xfa	-6
56	0x0c	12
57	0xc5	-59
58	0x12	18
59	0xe1	-31
60	0xc8	-56
61	0xe6	-26
62	0xfb	-5
63	0x08	8
64	0x06	6
65	0x0a	10
66	0xa7	-89
67	0xd6	-42
68	0xe3	-29
69	0x1c	28
70	0x06	6
71	0x9f	-97
72	0xf3	-13
73	0xc6	-58
74	0x05	5
75	0xf0	-16
76	0x15	21
77	0xb6	-74
78	0x28	40
79	0x46	70
80	0x23	35
81	0x0d	13
82	0xe4	-28
83	0xdf	-33
84	0xf8	-8
85	0xee	-18
86	0x16	22
87	0xb4	-76
88	0x41	65
89	0x4b	75
90	0x02	2
91	0x16	22
92	0x1a	26
93	0xe8	-24
94	0x22	34
95	0xf1	-15
96	0x28	40
97	0x2d	45
98	0x02	2
99	0xf2	-14
100	0xc3	-61
101	0x13	19
102	0xcc	-52
103	0xf3	-13
104	0x25	37
105	0x05	5
106	0xcf	-49
107	0x4b	75
108	0xeb	-21
109	0xd9	-39
110	0x14	20
111	0xee	-18
112	0xf7	-9
113	0xf6	-10
114	0xd8	-40
115	0xff	-1
116	0xf6	-10
117	0xed	-19
118	0x37	55
119	0xe6	-26
120	0x03	3
121	0x08	8
122	0x2b	43
123	0xef	-17
124	0x11	17
125	0xd0	-48
126	0xf6	-10
127	0x10	16
128	0xd8	-40
129	0x16	22
130	0xf4	-12
131	0x40	64
132	0x92	-110
133	0xe4	-28
134	0x30	48
135	0x20	32
136	0xff	-1
137	0x09	9
138	0xf4	-12
139	0x08	8
140	0xe6	-26
141	0xf3	-13
142	0x1e	30
143	0xca	-54
144	0xfe	-2
145	0xef	-17
146	0xf0	-16
147	0xd6	-42
148	0xe8	-24
149	0xab	-85
150	0xd7	-41
151	0x29	41
152	0x20	32
153	0xe4	-28
154	0xc4	-60
155	0x14	20
156	0xd7	-41
157	0xe7	-25
158	0x29	41
159	0x14	20
160	0xdd	-35
161	0xeb	-21
162	0x40	64
163	0x07	7
164	0xe6	-26
165	0x2c	44
166	0xe2	-30
167	0xf9	-7
168	0x0f	15
169	0xdc	-36
170	0xbc	-68
171	0xf1	-15
172	0x28	40
173	0x15	21
174	0xfc	-4
175	0x0e	14
176	0xc9	-55
177	0xf8	-8
178	0xdd	-35
179	0xc0	-64
180	0xfc	-4
181	0xec	-20
182	0xf0	-16
183	0xea	-22
184	0xe8	-24
185	0x20	32
186	0x38	56
187	0xbf	-65
188	0x09	9
189	0xe1	-31
190	0x1a	26
191	0xd7	-41
192	0x29	41
193	0xe6	-26
194	0x44	68
195	0x34	52
196	0x1e	30
197	0x08	8
198	0xf4	-12
199	0xce	-50
200	0xaf	-81
201	0x0c	12
202	0x12	18
203	0xe0	-32
204	0xac	-84
205	0xf8	-8
206	0xfa	-6
207	0xd4	-44
208	0x11	17
209	0xee	-18
210	0x24	36
211	0xee	-18
212	0xd6	-42
213	0x41	65
214	0x03	3
215	0xf2	-14
216	0x18	24
217	0xeb	-21
218	0x20	32
219	0xfb	-5
220	0x4e	78
221	0xf0	-16
222	0x1c	28
223	0xf0	-16
224	0xfc	-4
225	0x08	8
226	0x02	2
227	0xba	-70
228	0xcc	-52
229	0xd9	-39
230	0xe4	-28
231	0xc9	-55
232	0x05	5
233	0xd2	-46
234	0x39	57
235	0xea	-22
236	0x1b	27
237	0xef	-17
238	0x1b	27
239	0xe2	-30
240	0x30	48
241	0xfa	-6
242	0x0d	13
243	0xef	-17
244	0xe2	-30
245	0xe7	-25
246	0xfe	-2
247	0x03	3
248	0xb8	-72
249	0x2c	44
250	0x05	5
251	0x06	6
252	0xf2	-14
253	0x08	8
254	0xea	-22
255	0x3b	59

onnx::Conv_126_quantized i1 [80, 16, 1, 1]
0	0xcb	-53
1	0xcc	-52
2	0x0e	14
3	0xd1	-47
4	0x01	1
5	0xbd	-67
6	0x10	16
7	0x06	6
8	0x5d	93
9	0x0b	11
10	0x02	2
11	0xea	-22
12	0x39	57
13	0x48	72
14	0x1c	28
15	0x0f	15
16	0x14	20
17	0x19	25
18	0x09	9
19	0xf7	-9
20	0xf9	-7
21	0x0e	14
22	0xf8	-8
23	0xfb	-5
24	0x04	4
25	0x2e	46
26	0xf0	-16
27	0x05	5
28	0xe6	-26
29	0xe4	-28
30	0x00	0
31	0xeb	-21
32	0x03	3
33	0x17	23
34	0x05	5
35	0xf1	-15
36	0x12	18
37	0x1a	26
38	0x0a	10
39	0xed	-19
40	0xf3	-13
41	0x11	17
42	0x10	16
43	0xdc	-36
44	0x13	19
45	0xf5	-11
46	0xd0	-48
47	0x13	19
48	0x2c	44
49	0xd3	-45
50	0x2b	43
51	0x14	20
52	0x1e	30
53	0x0e	14
54	0xf2	-14
55	0x17	23
56	0x12	18
57	0xdc	-36
58	0x0c	12
59	0x1a	26
60	0x1f	31
61	0x19	25
62	0xd5	-43
63	0x05	5
64	0x17	23
65	0x09	9
66	0xe7	-25
67	0x2f	47
68	0xe2	-30
69	0x4a	74
70	0xde	-34
71	0xf4	-12
72	0xde	-34
73	0xdc	-36
74	0x51	81
75	0xe7	-25
76	0x36	54
77	0xdd	-35
78	0xb9	-71
79	0x0a	10
80	0xf6	-10
81	0xf8	-8
82	0xf7	-9
83	0xed	-19
84	0x09	9
85	0xda	-38
86	0xfe	-2
87	0x0e	14
88	0xf6	-10
89	0xf0	-16
90	0xf8	-8
91	0x17	23
92	0x0c	12
93	0x05	5
94	0x02	2
95	0x09	9
96	0xec	-20
97	0x18	24
98	0xf0	-16
99	0xf2	-14
100	0xfc	-4
101	0x00	0
102	0xf5	-11
103	0x01	1
104	0xea	-22
105	0x28	40
106	0x1f	31
107	0x02	2
108	0x07	7
109	0xe6	-26
110	0xe8	-24
111	0xf8	-8
112	0x23	35
113	0x0a	10
114	0xf6	-10
115	0x25	37
116	0x3f	63
117	0xf0	-16
118	0xec	-20
119	0xf5	-11
120	0xef	-17
121	0xd2	-46
122	0xfc	-4
123	0x0b	11
124	0xe7	-25
125	0xd1	-47
126	0x0c	12
127	0xef	-17
128	0x1c	28
129	0x25	37
130	0xc2	-62
131	0xf1	-15
132	0x0c	12
133	0x12	18
134	0x3d	61
135	0x05	5
136	0x11	17
137	0xe9	-23
138	0xc3	-61
139	0xe4	-28
140	0x04	4
141	0x03	3
142	0xf2	-14
143	0xef	-17
144	0xa2	-94
145	0x18	24
146	0xcf	-49
147	0xfd	-3
148	0xef	-17
149	0x0c	12
150	0xfb	-5
151	0x1c	28
152	0x08	8
153	0xe7	-25
154	0xec	-20
155	0xfd	-3
156	0x0c	12
157	0x04	4
158	0xc7	-57
159	0x00	0
160	0xe1	-31
161	0x04	4
162	0x07	7
163	0x03	3
164	0x0b	11
165	0x13	19
166	0x46	70
167	0x0b	11
168	0xdd	-35
169	0x13	19
170	0xe6	-26
171	0xfc	-4
172	0x23	35
173	0x12	18
174	0x1f	31
175	0xe7	-25
176	0xec	-20
177	0xe0	-32
178	0xe0	-32
179	0xfe	-2
180	0xe1	-31
181	0x16	22
182	0xd7	-41
183	0xe8	-24
184	0x12	18
185	0x20	32
186	0xfc	-4
187	0xd8	-40
188	0x09	9
189	0xfc	-4
190	0xde	-34
191	0xf6	-10
192	0x91	-111
193	0x32	50
194	0xe9	-23
195	0x60	96
196	0xc0	-64
197	0x14	20
198	0xe2	-30
199	0x09	9
200	0xe1	-31
201	0x1c	28
202	0xd6	-42
203	0xcc	-52
204	0x81	-127
205	0xd7	-41
206	0x1b	27
207	0xde	-34
208	0x07	7
209	0xf4	-12
210	0x21	33
211	0x0b	11
212	0x05	5
213	0x39	57
214	0xe8	-24
215	0x29	41
216	0x26	38
217	0xdf	-33
218	0xf1	-15
219	0xe7	-25
220	0x0e	14
221	0x10	16
222	0xee	-18
223	0xed	-19
224	0xf8	-8
225	0xfe	-2
226	0xe3	-29
227	0x12	18
228	0x26	38
229	0x0f	15
230	0xee	-18
231	0xf3	-13
232	0x0c	12
233	0x0e	14
234	0xfd	-3
235	0xe1	-31
236	0x07	7
237	0x08	8
238	0x18	24
239	0x03	3
240	0xe3	-29
241	0xfa	-6
242	0xff	-1
243	0xf8	-8
244	0xf2	-14
245	0x08	8
246	0xda	-38
247	0xea	-22
248	0xe2	-30
249	0x04	4
250	0xde	-34
251	0x18	24
252	0xee	-18
253	0xdc	-36
254	0xe1	-31
255	0x06	6

onnx::Conv_129_quantized i1 [80, 1, 3, 3]
0	0xfd	-3
1	0x04	4
2	0xf4	-12
3	0xfe	-2
4	0x06	6
5	0xff	-1
6	0xfa	-6
7	0x13	19
8	0xf0	-16
9	0x05	5
10	0xf1	-15
11	0xd2	-46
12	0xf1	-15
13	0x03	3
14	0xe6	-26
15	0x10	16
16	0x27	39
17	0x28	40
18	0x23	35
19	0x42	66
20	0x17	23
21	0x2d	45
22	0x02	2
23	0xee	-18
24	0xbc	-68
25	0xa5	-91
26	0xe8	-24
27	0xf0	-16
28	0xfa	-6
29	0xf8	-8
30	0x18	24
31	0x0b	11
32	0xf4	-12
33	0x20	32
34	0xfd	-3
35	0xed	-19
36	0x01	1
37	0xf7	-9
38	0xfe	-2
39	0xeb	-21
40	0xe9	-23
41	0xfc	-4
42	0xfc	-4
43	0xf7	-9
44	0xf4	-12
45	0xf5	-11
46	0xfb	-5
47	0x00	0
48	0x18	24
49	0xd2	-46
50	0xee	-18
51	0x23	35
52	0xea	-22
53	0x1e	30
54	0x81	-127
55	0xbb	-69
56	0x07	7
57	0x40	64
58	0xee	-18
59	0x27	39
60	0x33	51
61	0xfb	-5
62	0x2f	47
63	0x01	1
64	0xe5	-27
65	0xfa	-6
66	0xf5	-11
67	0x03	3
68	0xe8	-24
69	0x04	4
70	0xfe	-2
71	0xed	-19
72	0x06	6
73	0x0f	15
74	0x05	5
75	0x1b	27
76	0x14	20
77	0xf4	-12
78	0xf9	-7
79	0xf4	-12
80	0xe9	-23
81	0xfe	-2
82	0xf8	-8
83	0xe6	-26
84	0xf7	-9
85	0x0f	15
86	0x15	21
87	0x15	21
88	0xe7	-25
89	0xfe	-2
90	0x20	32
91	0xda	-38
92	0xe8	-24
93	0xe8	-24
94	0x03	3
95	0xf0	-16
96	0xfd	-3
97	0x1d	29
98	0x04	4
99	0x03	3
100	0x04	4
101	0x16	22
102	0xf8	-8
103	0x15	21
104	0xbc	-68
105	0xf8	-8
106	0xe2	-30
107	0x0f	15
108	0x04	4
109	0x0c	12
110	0x0e	14
111	0x0d	13
112	0x10	16
113	0x02	2
114	0x02	2
115	0x08	8
116	0x06	6
117	0x22	34
118	0xf1	-15
119	0xdf	-33
120	0x09	9
121	0x03	3
122	0xe2	-30
123	0x05	5
124	0xf9	-7
125	0xf4	-12
126	0xff	-1
127	0xff	-1
128	0xf8	-8
129	0x08	8
130	0x16	22
131	0x14	20
132	0x0b	11
133	0x12	18
134	0x22	34
135	0x04	4
136	0xd8	-40
137	0x01	1
138	0x10	16
139	0xe9	-23
140	0x0d	13
141	0xee	-18
142	0x37	55
143	0xf1	-15
144	0x06	6
145	0x03	3
146	0x09	9
147	0x08	8
148	0x1b	27
149	0x07	7
150	0x00	0
151	0xfd	-3
152	0x09	9
153	0x16	22
154	0x13	19
155	0x0a	10
156	0x0b	11
157	0x16	22
158	0x05	5
159	0x0a	10
160	0x06	6
161	0xf3	-13
162	0x00	0
163	0xee	-18
164	0xf1	-15
165	0xf7	-9
166	0xef	-17
167	0xf7	-9
168	0xea	-22
169	0xf4	-12
170	0x01	1
171	0xfd	-3
172	0x0e	14
173	0x15	21
174	0x0a	10
175	0x1d	29
176	0x0d	13
177	0x06	6
178	0x0e	14
179	0x03	3
180	0x06	6
181	0xf6	-10
182	0xf1	-15
183	0x1c	28
184	0x07	7
185	0xeb	-21
186	0x0f	15
187	0x14	20
188	0xff	-1
189	0xe1	-31
190	0xf3	-13
191	0xfe	-2
192	0xef	-17
193	0xe5	-27
194	0xf6	-10
195	0xf8	-8
196	0xf5	-11
197	0x06	6
198	0xdd	-35
199	0xf5	-11
200	0xfc	-4
201	0xf7	-9
202	0xf0	-16
203	0xef	-17
204	0x06	6
205	0xfa	-6
206	0xfe	-2
207	0xfc	-4
208	0x0b	11
209	0x12	18
210	0x1d	29
211	0xf4	-12
212	0x13	19
213	0xf7	-9
214	0x18	24
215	0x14	20
216	0x06	6
217	0x0b	11
218	0x0d	13
219	0x08	8
220	0xfd	-3
221	0xf8	-8
222	0xef	-17
223	0xe3	-29
224	0xe4	-28
225	0xfa	-6
226	0x10	16
227	0x11	17
228	0xea	-22
229	0x10	16
230	0x1e	30
231	0xf4	-12
232	0x04	4
233	0x12	18
234	0x26	38
235	0x03	3
236	0xf4	-12
237	0x19	25
238	0x0e	14
239	0xed	-19
240	0x16	22
241	0xfc	-4
242	0xc1	-63
243	0x01	1
244	0x14	20
245	0x20	32
246	0xda	-38
247	0xe1	-31
248	0xf3	-13
249	0x0b	11
250	0xfb	-5
251	0xec	-20
252	0x25	37
253	0x1e	30
254	0x04	4
255	0x10	16

onnx::Conv_132_quantized i1 [16, 80, 1, 1]
0	0xcc	-52
1	0xfc	-4
2	0xd4	-44
3	0x2e	46
4	0x06	6
5	0xea	-22
6	0xdd	-35
7	0x32	50
8	0x10	16
9	0xed	-19
10	0xeb	-21
11	0x0c	12
12	0x0c	12
13	0x11	17
14	0x42	66
15	0xd9	-39
16	0xdf	-33
17	0xb6	-74
18	0xc4	-60
19	0x26	38
20	0xf2	-14
21	0x04	4
22	0x0c	12
23	0xfb	-5
24	0x70	112
25	0xf1	-15
26	0x17	23
27	0x03	3
28	0x0f	15
29	0x2d	45
30	0xc9	-55
31	0xba	-70
32	0xea	-22
33	0xda	-38
34	0x22	34
35	0x10	16
36	0x19	25
37	0xde	-34
38	0x19	25
39	0xfb	-5
40	0xf9	-7
41	0xe3	-29
42	0x2a	42
43	0xb5	-75
44	0x06	6
45	0x11	17
46	0x1d	29
47	0x24	36
48	0xfd	-3
49	0xec	-20
50	0x0f	15
51	0xe9	-23
52	0xeb	-21
53	0x00	0
54	0xc5	-59
55	0xfb	-5
56	0x0d	13
57	0xef	-17
58	0xef	-17
59	0xfe	-2
60	0xf9	-7
61	0xdb	-37
62	0x22	34
63	0x15	21
64	0xdf	-33
65	0x28	40
66	0x17	23
67	0xed	-19
68	0xfb	-5
69	0xd1	-47
70	0xc6	-58
71	0x3f	63
72	0xd9	-39
73	0x19	25
74	0xf2	-14
75	0x31	49
76	0x1b	27
77	0x1c	28
78	0x28	40
79	0xe4	-28
80	0xfc	-4
81	0xf9	-7
82	0x1d	29
83	0xee	-18
84	0xf6	-10
85	0x05	5
86	0xf7	-9
87	0xc9	-55
88	0xef	-17
89	0x11	17
90	0xef	-17
91	0xee	-18
92	0xef	-17
93	0x30	48
94	0x1d	29
95	0x15	21
96	0xca	-54
97	0x24	36
98	0xf8	-8
99	0x2e	46
100	0xfa	-6
101	0xaf	-81
102	0xbe	-66
103	0xe2	-30
104	0xd9	-39
105	0x34	52
106	0x2e	46
107	0xe7	-25
108	0xfe	-2
109	0x2f	47
110	0x04	4
111	0x28	40
112	0x0c	12
113	0x01	1
114	0x30	48
115	0xd9	-39
116	0x10	16
117	0xbc	-68
118	0xf9	-7
119	0x14	20
120	0x09	9
121	0x0f	15
122	0x43	67
123	0xf1	-15
124	0x19	25
125	0x23	35
126	0x9f	-97
127	0x00	0
128	0xcd	-51
129	0x06	6
130	0x3e	62
131	0x02	2
132	0x14	20
133	0xf7	-9
134	0x20	32
135	0x21	33
136	0x2a	42
137	0x0e	14
138	0x02	2
139	0x18	24
140	0xf6	-10
141	0xf9	-7
142	0x3b	59
143	0x73	115
144	0x1f	31
145	0x14	20
146	0xf2	-14
147	0xfc	-4
148	0x08	8
149	0x48	72
150	0xfe	-2
151	0x1d	29
152	0xd7	-41
153	0xca	-54
154	0xef	-17
155	0x1a	26
156	0xf9	-7
157	0xfb	-5
158	0xef	-17
159	0xcd	-51
160	0x15	21
161	0x28	40
162	0xf3	-13
163	0x02	2
164	0x28	40
165	0x04	4
166	0x32	50
167	0x0a	10
168	0xf3	-13
169	0xf4	-12
170	0xe4	-28
171	0xe9	-23
172	0xff	-1
173	0xfa	-6
174	0x15	21
175	0x16	22
176	0x46	70
177	0x0b	11
178	0x17	23
179	0x03	3
180	0xbd	-67
181	0xed	-19
182	0x17	23
183	0xf7	-9
184	0x1c	28
185	0x23	35
186	0x06	6
187	0xef	-17
188	0x2f	47
189	0xcd	-51
190	0xee	-18
191	0x0a	10
192	0x29	41
193	0xe6	-26
194	0xe6	-26
195	0xf3	-13
196	0x0e	14
197	0xe1	-31
198	0x02	2
199	0xe7	-25
200	0xfc	-4
201	0xe6	-26
202	0x06	6
203	0xf9	-7
204	0xee	-18
205	0x13	19
206	0xfe	-2
207	0xff	-1
208	0xff	-1
209	0x4e	78
210	0xe8	-24
211	0xe1	-31
212	0xfd	-3
213	0x07	7
214	0x1f	31
215	0x1c	28
216	0x1e	30
217	0xfe	-2
218	0x11	17
219	0x47	71
220	0xde	-34
221	0xda	-38
222	0x04	4
223	0x20	32
224	0xf8	-8
225	0xd8	-40
226	0x14	20
227	0xdd	-35
228	0x2d	45
229	0x0e	14
230	0xf8	-8
231	0x11	17
232	0xfa	-6
233	0xbd	-67
234	0xf7	-9
235	0xe0	-32
236	0xe9	-23
237	0xd0	-48
238	0x0e	14
239	0x02	2
240	0xf9	-7
241	0x0c	12
242	0x25	37
243	0xe8	-24
244	0xd6	-42
245	0x1f	31
246	0x48	72
247	0xb0	-80
248	0xfe	-2
249	0xc9	-55
250	0x00	0
251	0xc7	-57
252	0x22	34
253	0xcc	-52
254	0x01	1
255	0xcd	-51

onnx::Conv_135_quantized i1 [80, 16, 1, 1]
0	0x1d	29
1	0x09	9
2	0xf3	-13
3	0x24	36
4	0xd1	-47
5	0xde	-34
6	0xec	-20
7	0x1b	27
8	0x12	18
9	0xf6	-10
10	0xed	-19
11	0x0f	15
12	0x1c	28
13	0xe2	-30
14	0x19	25
15	0x37	55
16	0x21	33
17	0xde	-34
18	0x22	34
19	0xfd	-3
20	0xff	-1
21	0xfe	-2
22	0x08	8
23	0xeb	-21
24	0x00	0
25	0xed	-19
26	0xee	-18
27	0xfb	-5
28	0x17	23
29	0x08	8
30	0x14	20
31	0xf0	-16
32	0xf2	-14
33	0x28	40
34	0xdb	-37
35	0x35	53
36	0x14	20
37	0x03	3
38	0xe6	-26
39	0x23	35
40	0x09	9
41	0xeb	-21
42	0xed	-19
43	0x13	19
44	0xef	-17
45	0xf3	-13
46	0x05	5
47	0xdf	-33
48	0x04	4
49	0x26	38
50	0x2d	45
51	0xd2	-46
52	0x19	25
53	0xdf	-33
54	0xf1	-15
55	0x0b	11
56	0xe4	-28
57	0xd0	-48
58	0x10	16
59	0x0d	13
60	0x13	19
61	0xe2	-30
62	0xf5	-11
63	0xeb	-21
64	0xfd	-3
65	0x19	25
66	0x0c	12
67	0xf9	-7
68	0xd8	-40
69	0x4b	75
70	0x05	5
71	0x2e	46
72	0x50	80
73	0xd5	-43
74	0xf7	-9
75	0x18	24
76	0x25	37
77	0x2f	47
78	0x1b	27
79	0xfa	-6
80	0xef	-17
81	0xfe	-2
82	0x04	4
83	0xf2	-14
84	0x03	3
85	0x0c	12
86	0x09	9
87	0xfa	-6
88	0xf5	-11
89	0x0e	14
90	0xf5	-11
91	0x13	19
92	0x09	9
93	0xf5	-11
94	0x13	19
95	0x06	6
96	0x1d	29
97	0x14	20
98	0xeb	-21
99	0xef	-17
100	0xe9	-23
101	0xec	-20
102	0x16	22
103	0x00	0
104	0x3b	59
105	0x17	23
106	0xf8	-8
107	0x00	0
108	0xed	-19
109	0xee	-18
110	0xf9	-7
111	0x10	16
112	0xf2	-14
113	0xdd	-35
114	0x04	4
115	0xf1	-15
116	0xf6	-10
117	0xfe	-2
118	0x05	5
119	0x06	6
120	0x08	8
121	0x02	2
122	0xff	-1
123	0x19	25
124	0xe5	-27
125	0x07	7
126	0x08	8
127	0xd2	-46
128	0x1e	30
129	0xf0	-16
130	0x20	32
131	0xf8	-8
132	0x11	17
133	0x0f	15
134	0x09	9
135	0x1c	28
136	0xe1	-31
137	0x0d	13
138	0x13	19
139	0xf1	-15
140	0xe1	-31
141	0x04	4
142	0x0e	14
143	0xfc	-4
144	0xec	-20
145	0xee	-18
146	0x2c	44
147	0x2e	46
148	0xe0	-32
149	0xd7	-41
150	0xf5	-11
151	0x31	49
152	0x06	6
153	0xee	-18
154	0xec	-20
155	0x0b	11
156	0x12	18
157	0x0c	12
158	0xf7	-9
159	0x21	33
160	0x03	3
161	0x0f	15
162	0xff	-1
163	0x1f	31
164	0x07	7
165	0xf1	-15
166	0x14	20
167	0xf9	-7
168	0x0c	12
169	0xeb	-21
170	0xf8	-8
171	0xf9	-7
172	0xff	-1
173	0xec	-20
174	0xfc	-4
175	0x03	3
176	0x08	8
177	0x0a	10
178	0x17	23
179	0x05	5
180	0x18	24
181	0xf1	-15
182	0x15	21
183	0x04	4
184	0xeb	-21
185	0xdc	-36
186	0x0e	14
187	0x0d	13
188	0x04	4
189	0xf4	-12
190	0xe4	-28
191	0xe3	-29
192	0x10	16
193	0xf5	-11
194	0xea	-22
195	0xf6	-10
196	0x03	3
197	0xfd	-3
198	0x00	0
199	0xfc	-4
200	0xfe	-2
201	0x11	17
202	0xf3	-13
203	0x16	22
204	0xf2	-14
205	0x07	7
206	0x06	6
207	0xfe	-2
208	0xfe	-2
209	0xe3	-29
210	0xf7	-9
211	0x21	33
212	0x19	25
213	0xf4	-12
214	0xf8	-8
215	0x05	5
216	0x01	1
217	0xdf	-33
218	0xf4	-12
219	0x0a	10
220	0x06	6
221	0xf6	-10
222	0x02	2
223	0x0f	15
224	0xea	-22
225	0xfe	-2
226	0xe3	-29
227	0x16	22
228	0x01	1
229	0x0c	12
230	0x00	0
231	0xf4	-12
232	0x19	25
233	0xf2	-14
234	0xff	-1
235	0x0a	10
236	0xe9	-23
237	0x0b	11
238	0xe3	-29
239	0x34	52
240	0x1c	28
241	0x25	37
242	0xcb	-53
243	0x25	37
244	0x0d	13
245	0x41	65
246	0x02	2
247	0xf5	-11
248	0xe9	-23
249	0x25	37
250	0xfa	-6
251	0x17	23
252	0x10	16
253	0xf1	-15
254	0x1d	29
255	0xf2	-14

onnx::Conv_138_quantized i1 [80, 1, 3, 3]
0	0xf7	-9
1	0x1b	27
2	0x03	3
3	0x11	17
4	0x1f	31
5	0x0c	12
6	0x1e	30
7	0x19	25
8	0xf2	-14
9	0x65	101
10	0xec	-20
11	0xa8	-88
12	0x43	67
13	0xf1	-15
14	0xf4	-12
15	0xb8	-72
16	0x2f	47
17	0xef	-17
18	0xe5	-27
19	0xf4	-12
20	0xfb	-5
21	0xe8	-24
22	0xde	-34
23	0xde	-34
24	0xf7	-9
25	0xde	-34
26	0xfe	-2
27	0x00	0
28	0xe4	-28
29	0xf0	-16
30	0xf2	-14
31	0xc4	-60
32	0xf0	-16
33	0xfb	-5
34	0xf9	-7
35	0xf5	-11
36	0x15	21
37	0x0d	13
38	0x0c	12
39	0x0f	15
40	0x16	22
41	0x15	21
42	0xd3	-45
43	0x0c	12
44	0x15	21
45	0xea	-22
46	0xf0	-16
47	0x06	6
48	0x09	9
49	0xb9	-71
50	0x53	83
51	0x0e	14
52	0x89	-119
53	0x3d	61
54	0xe6	-26
55	0xe3	-29
56	0xfb	-5
57	0x25	37
58	0xec	-20
59	0xad	-83
60	0x1d	29
61	0x30	48
62	0x26	38
63	0xff	-1
64	0x34	52
65	0x06	6
66	0xa2	-94
67	0xfd	-3
68	0x56	86
69	0xc0	-64
70	0xf2	-14
71	0x1b	27
72	0x16	22
73	0x1d	29
74	0x14	20
75	0x3a	58
76	0x13	19
77	0xdf	-33
78	0x38	56
79	0xfd	-3
80	0xb9	-71
81	0xe8	-24
82	0x00	0
83	0x00	0
84	0xdc	-36
85	0x22	34
86	0x2f	47
87	0xce	-50
88	0x28	40
89	0x4a	74
90	0xee	-18
91	0xea	-22
92	0xec	-20
93	0xcb	-53
94	0x51	81
95	0x17	23
96	0x91	-111
97	0x4c	76
98	0x2e	46
99	0x0e	14
100	0x3a	58
101	0x3a	58
102	0xe4	-28
103	0xfc	-4
104	0x18	24
105	0xf4	-12
106	0xca	-54
107	0xdc	-36
108	0xe9	-23
109	0x14	20
110	0x4e	78
111	0xbd	-67
112	0xef	-17
113	0x16	22
114	0xdb	-37
115	0xbe	-66
116	0xea	-22
117	0xf4	-12
118	0xf7	-9
119	0xfb	-5
120	0x19	25
121	0x18	24
122	0x1b	27
123	0x57	87
124	0x26	38
125	0x03	3
126	0xff	-1
127	0xd8	-40
128	0xec	-20
129	0xe9	-23
130	0xe4	-28
131	0xdb	-37
132	0xfe	-2
133	0xed	-19
134	0xe8	-24
135	0xf2	-14
136	0xb8	-72
137	0xe4	-28
138	0x0f	15
139	0x04	4
140	0xee	-18
141	0x18	24
142	0x2d	45
143	0x15	21
144	0x2d	45
145	0x0c	12
146	0xea	-22
147	0x0b	11
148	0xd3	-45
149	0xf4	-12
150	0xa4	-92
151	0xd8	-40
152	0xe0	-32
153	0x13	19
154	0x19	25
155	0x01	1
156	0x11	17
157	0x1c	28
158	0x15	21
159	0x01	1
160	0x10	16
161	0x12	18
162	0xf4	-12
163	0xe8	-24
164	0xff	-1
165	0xee	-18
166	0xe1	-31
167	0xf5	-11
168	0xda	-38
169	0xf1	-15
170	0xec	-20
171	0x2b	43
172	0x1b	27
173	0x10	16
174	0x3b	59
175	0x2c	44
176	0x0c	12
177	0xee	-18
178	0x15	21
179	0x1f	31
180	0x15	21
181	0xee	-18
182	0xc4	-60
183	0xa2	-94
184	0xca	-54
185	0x18	24
186	0x30	48
187	0x2c	44
188	0x16	22
189	0x39	57
190	0x22	34
191	0xfa	-6
192	0x51	81
193	0x09	9
194	0xc1	-63
195	0xf9	-7
196	0xe7	-25
197	0xd1	-47
198	0xa0	-96
199	0x6d	109
200	0x26	38
201	0x30	48
202	0x16	22
203	0x2b	43
204	0x72	114
205	0x1c	28
206	0xcd	-51
207	0xe5	-27
208	0xda	-38
209	0xf3	-13
210	0xd8	-40
211	0xd9	-39
212	0xed	-19
213	0x09	9
214	0xf5	-11
215	0xef	-17
216	0x22	34
217	0x23	35
218	0x03	3
219	0xf6	-10
220	0x0d	13
221	0x2c	44
222	0x03	3
223	0xc0	-64
224	0xcf	-49
225	0x13	19
226	0x14	20
227	0x07	7
228	0x16	22
229	0x2e	46
230	0x1a	26
231	0x04	4
232	0x1e	30
233	0x13	19
234	0xe2	-30
235	0xf0	-16
236	0x16	22
237	0x1c	28
238	0x29	41
239	0x0c	12
240	0x20	32
241	0x2d	45
242	0xf6	-10
243	0xef	-17
244	0x0a	10
245	0xfa	-6
246	0xd5	-43
247	0x0c	12
248	0x0a	10
249	0xdd	-35
250	0x08	8
251	0x18	24
252	0x49	73
253	0x3e	62
254	0xc5	-59
255	0x40	64

onnx::Conv_141_quantized i1 [16, 80, 1, 1]
0	0x21	33
1	0x03	3
2	0x4a	74
3	0x21	33
4	0x1f	31
5	0xfa	-6
6	0x2b	43
7	0xf9	-7
8	0xdc	-36
9	0xe2	-30
10	0xf6	-10
11	0xef	-17
12	0x39	57
13	0x59	89
14	0x01	1
15	0xa6	-90
16	0x00	0
17	0x1e	30
18	0x31	49
19	0x2c	44
20	0x63	99
21	0x12	18
22	0x0e	14
23	0xec	-20
24	0x03	3
25	0x31	49
26	0x0b	11
27	0x49	73
28	0x18	24
29	0x15	21
30	0xf9	-7
31	0x38	56
32	0x1b	27
33	0x0c	12
34	0x04	4
35	0xe2	-30
36	0xe5	-27
37	0x18	24
38	0x07	7
39	0xe0	-32
40	0xb6	-74
41	0xda	-38
42	0x62	98
43	0x2a	42
44	0x08	8
45	0x3c	60
46	0x0e	14
47	0xe9	-23
48	0xde	-34
49	0x08	8
50	0xdf	-33
51	0x14	20
52	0x1e	30
53	0x02	2
54	0xfc	-4
55	0x00	0
56	0x05	5
57	0x1d	29
58	0x29	41
59	0x03	3
60	0xec	-20
61	0x09	9
62	0xdf	-33
63	0xd0	-48
64	0x2a	42
65	0x1d	29
66	0x3e	62
67	0xf0	-16
68	0x2a	42
69	0xaf	-81
70	0x24	36
71	0xa0	-96
72	0x25	37
73	0x1b	27
74	0x2d	45
75	0xd4	-44
76	0xe4	-28
77	0xe5	-27
78	0x05	5
79	0x05	5
80	0x1a	26
81	0xd5	-43
82	0xed	-19
83	0xe8	-24
84	0xcc	-52
85	0x51	81
86	0x2d	45
87	0x2c	44
88	0x0b	11
89	0x12	18
90	0x0a	10
91	0xcd	-51
92	0x26	38
93	0x07	7
94	0x34	52
95	0xff	-1
96	0xa1	-95
97	0x38	56
98	0x36	54
99	0x35	53
100	0x56	86
101	0x43	67
102	0xd4	-44
103	0xd3	-45
104	0x23	35
105	0x18	24
106	0xee	-18
107	0xf7	-9
108	0x0a	10
109	0x06	6
110	0xbd	-67
111	0xda	-38
112	0xee	-18
113	0x46	70
114	0x14	20
115	0x33	51
116	0x1f	31
117	0x04	4
118	0x42	66
119	0x48	72
120	0xd6	-42
121	0xe6	-26
122	0xed	-19
123	0xf2	-14
124	0x1f	31
125	0x24	36
126	0x17	23
127	0x28	40
128	0x06	6
129	0x13	19
130	0xfa	-6
131	0xf3	-13
132	0x47	71
133	0xe2	-30
134	0x36	54
135	0x4a	74
136	0x96	-106
137	0xc0	-64
138	0x5d	93
139	0x2d	45
140	0x1a	26
141	0x46	70
142	0x2f	47
143	0x1c	28
144	0xda	-38
145	0xd3	-45
146	0x11	17
147	0xf5	-11
148	0xe7	-25
149	0x0c	12
150	0xd8	-40
151	0xd4	-44
152	0xa8	-88
153	0xf8	-8
154	0xd9	-39
155	0x65	101
156	0xef	-17
157	0x17	23
158	0x32	50
159	0xa3	-93
160	0x16	22
161	0x19	25
162	0xec	-20
163	0x04	4
164	0x0f	15
165	0xfe	-2
166	0x23	35
167	0xb7	-73
168	0xcb	-53
169	0xf4	-12
170	0xd2	-46
171	0x07	7
172	0xf5	-11
173	0x07	7
174	0x40	64
175	0xd0	-48
176	0x0e	14
177	0x02	2
178	0x1d	29
179	0xf6	-10
180	0x1c	28
181	0x0b	11
182	0x0b	11
183	0xa7	-89
184	0x16	22
185	0x1d	29
186	0x12	18
187	0xda	-38
188	0xf1	-15
189	0x1a	26
190	0xd0	-48
191	0x0a	10
192	0x4a	74
193	0xff	-1
194	0xe1	-31
195	0x55	85
196	0x13	19
197	0x3e	62
198	0x04	4
199	0xf0	-16
200	0xe4	-28
201	0xab	-85
202	0x29	41
203	0xe4	-28
204	0xfb	-5
205	0xe6	-26
206	0x24	36
207	0x1e	30
208	0x09	9
209	0xe6	-26
210	0xf4	-12
211	0xf6	-10
212	0xca	-54
213	0xed	-19
214	0x0d	13
215	0xcb	-53
216	0xfd	-3
217	0xfa	-6
218	0xeb	-21
219	0xad	-83
220	0xfe	-2
221	0xde	-34
222	0x14	20
223	0x04	4
224	0x0a	10
225	0x01	1
226	0xde	-34
227	0xc8	-56
228	0x5f	95
229	0x06	6
230	0xeb	-21
231	0x1b	27
232	0x1d	29
233	0x1d	29
234	0x25	37
235	0xf3	-13
236	0xd0	-48
237	0x09	9
238	0xcb	-53
239	0x2c	44
240	0xed	-19
241	0xcb	-53
242	0xe5	-27
243	0x73	115
244	0xeb	-21
245	0xf5	-11
246	0xdb	-37
247	0xfe	-2
248	0x0c	12
249	0xee	-18
250	0x0b	11
251	0x47	71
252	0x2d	45
253	0x2a	42
254	0x0c	12
255	0xff	-1

linear.weight_quantized i1 [10, 64]
0	0x4f	79
1	0x2d	45
2	0x34	52
3	0x12	18
4	0x12	18
5	0xde	-34
6	0x08	8
7	0xdf	-33
8	0xc0	-64
9	0x0d	13
10	0x0d	13
11	0x2e	46
12	0x18	24
13	0xf0	-16
14	0x31	49
15	0x13	19
16	0xda	-38
17	0xec	-20
18	0xcc	-52
19	0xfb	-5
20	0x0a	10
21	0xd8	-40
22	0xc3	-61
23	0xa9	-87
24	0xff	-1
25	0x07	7
26	0xfc	-4
27	0xdc	-36
28	0x0a	10
29	0x0b	11
30	0xe9	-23
31	0x16	22
32	0xcf	-49
33	0x17	23
34	0xfd	-3
35	0xb7	-73
36	0x25	37
37	0x24	36
38	0xcd	-51
39	0x00	0
40	0xf5	-11
41	0x0a	10
42	0x25	37
43	0xfa	-6
44	0xee	-18
45	0xbf	-65
46	0xed	-19
47	0x0b	11
48	0x27	39
49	0xfb	-5
50	0x3c	60
51	0xfd	-3
52	0xf2	-14
53	0xc5	-59
54	0xc9	-55
55	0xee	-18
56	0x08	8
57	0xce	-50
58	0x10	16
59	0xe0	-32
60	0xd1	-47
61	0xfe	-2
62	0x05	5
63	0xff	-1
64	0xd2	-46
65	0x00	0
66	0x09	9
67	0x52	82
68	0xe0	-32
69	0x23	35
70	0x06	6
71	0x5e	94
72	0x37	55
73	0x22	34
74	0x1c	28
75	0x3f	63
76	0xe1	-31
77	0x07	7
78	0xd5	-43
79	0xe1	-31
80	0xcf	-49
81	0x0b	11
82	0x0d	13
83	0x3b	59
84	0x10	16
85	0x1a	26
86	0x2e	46
87	0x06	6
88	0xd3	-45
89	0xee	-18
90	0xf8	-8
91	0x42	66
92	0x26	38
93	0x14	20
94	0x6e	110
95	0x5f	95
96	0xdc	-36
97	0xd1	-47
98	0xbb	-69
99	0x28	40
100	0xfc	-4
101	0xc4	-60
102	0x12	18
103	0xf0	-16
104	0x0b	11
105	0xdf	-33
106	0x14	20
107	0x4c	76
108	0xfa	-6
109	0x42	66
110	0x1f	31
111	0x21	33
112	0xed	-19
113	0xe2	-30
114	0x4a	74
115	0x3f	63
116	0xbb	-69
117	0xe8	-24
118	0xd2	-46
119	0xde	-34
120	0xf5	-11
121	0xf6	-10
122	0x06	6
123	0xd5	-43
124	0xef	-17
125	0xfc	-4
126	0x81	-127
127	0xef	-17
128	0xf2	-14
129	0x07	7
130	0x3e	62
131	0xf0	-16
132	0xda	-38
133	0xe1	-31
134	0xe7	-25
135	0xc1	-63
136	0xef	-17
137	0xe8	-24
138	0x14	20
139	0x0b	11
140	0xf4	-12
141	0xee	-18
142	0x2b	43
143	0x35	53
144	0x0c	12
145	0x2e	46
146	0xfc	-4
147	0x19	25
148	0xef	-17
149	0xd5	-43
150	0xf1	-15
151	0xc0	-64
152	0x26	38
153	0x13	19
154	0x46	70
155	0x32	50
156	0x06	6
157	0x23	35
158	0xc1	-63
159	0xed	-19
160	0x15	21
161	0xf7	-9
162	0x14	20
163	0x0d	13
164	0x10	16
165	0x3d	61
166	0x09	9
167	0x04	4
168	0xf3	-13
169	0xe4	-28
170	0x0a	10
171	0xdf	-33
172	0x07	7
173	0x1e	30
174	0x1e	30
175	0x17	23
176	0xe3	-29
177	0xd8	-40
178	0xd9	-39
179	0xd1	-47
180	0xf4	-12
181	0x29	41
182	0x0d	13
183	0x00	0
184	0xfa	-6
185	0xe2	-30
186	0x22	34
187	0x18	24
188	0x17	23
189	0xfb	-5
190	0x13	19
191	0xbc	-68
192	0x04	4
193	0x04	4
194	0x02	2
195	0x04	4
196	0x07	7
197	0xf1	-15
198	0x01	1
199	0xfa	-6
200	0xd3	-45
201	0xe2	-30
202	0xfd	-3
203	0x0b	11
204	0xeb	-21
205	0xe9	-23
206	0xf6	-10
207	0xa9	-87
208	0x14	20
209	0x26	38
210	0x28	40
211	0xd6	-42
212	0x25	37
213	0x11	17
214	0xf2	-14
215	0x05	5
216	0x0a	10
217	0xe4	-28
218	0xfd	-3
219	0x1f	31
220	0xe4	-28
221	0xe6	-26
222	0xef	-17
223	0xf3	-13
224	0x14	20
225	0x16	22
226	0x04	4
227	0xf4	-12
228	0xce	-50
229	0xf3	-13
230	0xef	-17
231	0x15	21
232	0xed	-19
233	0xf7	-9
234	0xda	-38
235	0xd7	-41
236	0xf8	-8
237	0xd8	-40
238	0xc4	-60
239	0xdb	-37
240	0x09	9
241	0xeb	-21
242	0xdb	-37
243	0xda	-38
244	0xdf	-33
245	0xcc	-52
246	0x14	20
247	0x1a	26
248	0x00	0
249	0x02	2
250	0x04	4
251	0x2e	46
252	0xfa	-6
253	0xec	-20
254	0x0b	11
255	0x29	41
