Project/Project_files/mobilenetv2_experiments/onnxs/mobilenetv2_16_infer.onnx (onnx, 120119 bytes, 30 tensors)

layers.0.conv4.weight f4 [16, 32, 1, 1]
-0.098052 0.082808964 0.13651682 -0.11668452 -0.045082826 -0.24392524 -0.22013271 0.14634216
0.006342599 -0.075426504 0.16086856 -0.09755556 -0.12587169 0.18770863 0.09461186 0.023352066
0.2989134 0.007905865 -0.10205784 -0.036739357 0.14970252 0.2513007 -0.118759595 0.2605275
0.12783134 0.20209333 0.16989034 0.029755928 0.05472365 -0.15276477 -0.095125064 -0.18179843
-0.055090394 0.04385057 0.029967267 0.02487099 -0.2056151 0.22668839 0.16710037 -0.116356805
0.06724956 0.15670164 0.037978828 0.18050252 -0.01805523 0.009574347 -0.2021668 0.081888914
-0.008706984 0.13229889 0.09234959 -0.0700706 -0.26393467 -0.17131348 -0.015978025 -0.19423595
0.25898114 0.11426488 -0.08540733 0.12268089 0.089163385 -0.0074502155 0.006052617 0.23277918
0.09573019 -0.027221179 0.11537864 -0.14889698 -0.081745766 -0.07583298 -0.14224689 -0.2730216
-0.010237037 -0.33816588 0.069495335 -0.18077317 0.13957639 -0.27104267 -0.22906813 0.19620669
0.18253647 0.22816189 0.10403708 -0.18009414 0.013933763 0.22251762 -0.09852995 -0.047498208
-0.11045184 -0.11681099 0.029074151 -0.04031909 -0.2221506 0.06414804 0.022889258 0.25655547
0.07988466 0.15810584 -0.16802025 0.1322027 0.042056914 0.15745108 0.05262706 -0.115428336
0.15839647 0.5499544 0.15193757 0.20881696 0.015673662 0.033597138 0.038571473 -0.34066302
0.24657455 -0.044742625 -0.15582804 0.0774574 0.22146393 -0.007889761 0.180145 -0.16011721
-0.13759886 -0.16926438 -0.30148536 -0.11704484 0.039553493 -0.12354969 0.17895441 -0.0605557
0.25901812 0.24007303 -0.027163537 -0.49209386 -0.052490197 0.04300227 -0.098060034 0.08807645
0.259103 0.012473112 -0.055674665 -0.11550566 -0.004431183 -0.28805855 0.06437702 0.021870771
-0.23852928 0.1447759 -0.16128615 -0.22273257 -0.14142175 0.2841294 -0.010520066 -0.23939857
-0.07965469 -0.15169549 -0.0418597 -0.008264302 -0.1404939 -0.09935713 -0.11291478 -0.1054142
0.050660577 -0.086115666 0.07993346 -0.14844236 -0.036383066 0.026190173 -0.070663005 0.34812033
-0.16620389 0.0814603 0.11064772 -0.26619768 0.18835105 0.0059501515 0.083358906 -9.028747e-05
-0.15654682 0.011430116 0.045004226 -0.012064688 -0.10999372 -0.11276577 0.24333891 0.23512012
-0.14773229 0.043352325 0.011996301 -0.037873108 0.08139818 -0.001096636 -0.17970665 -0.18314067
-0.29901242 0.025422312 -0.005769767 -0.0022760255 -0.10181188 -0.06675803 -0.041232876 -0.09083867
-0.18884782 -0.075442016 -0.12374096 0.081437476 -0.08824715 -0.3399136 0.124299884 -0.037145354
-0.04429201 -0.06683633 0.17167085 -0.1574488 0.040147927 0.23878253 0.10080271 0.09630173
0.23693188 -0.0017901516 -0.14666326 -0.15794055 0.09377306 0.16443235 -0.032311514 0.3562006
-0.127962 0.07089298 -0.18590103 0.1438219 0.05917073 0.232541 -0.08351745 0.16799697
-0.43873143 0.004086896 -0.24309461 0.14838395 0.20082468 -0.011431677 0.115044065 0.09228437
-0.3503525 0.04829481 0.20681028 0.08808216 0.069658384 -0.042292878 -0.006592998 0.06447255
-0.0015341586 0.20022453 0.09761296 0.25693893 -0.04593654 0.012449357 -0.19683601 0.107247815
00000000: 7dcf c8bd bf97 a93d 11cb 0b3e 4bf8 eebd
00000010: c5a8 38bd 8ac7 79be 786a 61be b8da 153e
00000020: 94d5 cf3b 3679 9abd baba 243e 36cb c7bd
00000030: 82e4 00be b136 403e ddc3 c13d d54c bf3c
00000040: 2d0b 993e 9a87 013c b303 d1bd 027c 16bd
00000050: 9e4b 193e 7caa 803e 3b38 f3bd dc63 853e
00000060: 38e6 023e 8ef1 4e3e bcf7 2d3e b4c2 f33c
00000070: e825 603d 5e6e 1cbe eed0 c2bd 5e29 3abe
00000080: 77a6 61bd a89c 333d ea7d f53c 3fbe cb3c
00000090: c48c 52be 0021 683e 5c1c 2b3e 7a4c eebd
000000a0: 23ba 893d 6576 203e b08f 1b3d a7d5 383e
000000b0: 90e8 93bc b9dd 1c3c d004 4fbe 60b5 a73d
000000c0: bda7 0ebc 5c79 073e c821 bd3d 2d81 8fbd
000000d0: 7222 87be cd6c 2fbe 59e4 82bc cae5 46be
000000e0: 2d99 843e b503 ea3d 0aea aebd 1e40 fb3d
000000f0: 4b9b b63d f020 f4bb 0855 c63b aa5d 6e3e
00000100: 310e c43d f3fe debc a34b ec3d 7378 18be
00000110: 536a a7bd 524e 9bbd 2ba9 11be 7dc9 8bbe
00000120: 3fb9 27bc 1424 adbe 9253 8e3d 9a1c 39be
00000130: 1ded 0e3e 1bc6 8abe d690 6abe 68ea 483e
00000140: d7ea 3a3e 45a3 693e 6511 d53d 996a 38be
00000150: 704a 643c a9db 633e 12ca c9bd 7b8d 42bd
00000160: 9334 e2bd 9a3a efbd ea2c ee3c a125 25bd
00000170: 727b 63be 0c60 833d 4182 bb3c 3d5b 833e
00000180: 929a a33d 7fe6 213e 800d 2cbe 2560 073e
00000190: df43 2c3d db3a 213e 798f 573d b165 ecbd
000001a0: af32 223e d0c9 0c3f 8695 1b3e 1dd4 553e
000001b0: 0d66 803c 279d 093d 1ffd 1d3d 626b aebe
000001c0: 0a7e 7c3e 0b44 37bd 6391 1fbe fca1 9e3d
000001d0: 71c7 623e 0e44 01bc ee77 383e c4f5 23be
000001e0: b7e6 0cbe a453 2dbe 4a5c 9abe 34b5 efbd
000001f0: d802 223d 9f07 fdbd d33f 373e 4109 78bd
00000200: 069e 843e b4d5 753e 1186 debc baf3 fbbe
00000210: f6ff 56bd 2623 303d b3d3 c8bd 6d61 b43d
00000220: 26a9 843e 065c 4c3c 1e0b 64bd 3b8e ecbd
00000230: 7533 91bb 697c 93be 19d8 833d 552a b33c
00000240: 0541 74be 2240 143e 3228 25be 0214 64be
00000250: ddd0 10be 6979 913e 5b5c 2cbc e624 75be
00000260: 0022 a3bd 1056 1bbe 1475 2bbd ff66 07bc
00000270: a2dd 0fbe c07b cbbd dd3f e7bd 66e3 d7bd
00000280: 7781 4f3d 695d b0bd 27b4 a33d 4601 18be
00000290: 6906 15bd c68c d63c c4b7 90bd d43c b23e
000002a0: 5a31 2abe a8d4 a63d 469b e23d 104b 88be
000002b0: 19df 403e 7df9 c23b 13b8 aa3d b758 bdb8
000002c0: cf4d 20be 6245 3b3c 5a56 383d f8aa 45bc
000002d0: 6344 e1bd bdf1 e6bd d62d 793e 54c3 703e
000002e0: 2247 17be 3592 313d 228c 443c d520 1bbd
000002f0: 17b4 a63d 00bd 8fba 0505 38be 3a89 3bbe
00000300: 2818 99be 7442 d03c 5010 bdbb 5f29 15bb
00000310: bf82 d0bd 6fb8 88bd cee3 28bd a009 babd
00000320: 5361 41be 5881 9abd e76b fdbd b1c8 a63d
00000330: ecba b4bd 2809 aebe f090 fe3d ba25 18bd
00000340: 8a6b 35bd 7ce1 88bd 7cca 2f3e 423a 21be
00000350: 2772 243d 6883 743e a771 ce3d d739 c53d
00000360: 459e 723e 85a3 eaba e52e 16be 2bbb 21be
00000370: 170c c03d f460 283e 1459 04bd ed5f b63e
00000380: 7808 03be 5730 913d d75c 3ebe 0c46 133e
00000390: 025d 723d 3a1f 6e3e 320b abbd 6607 2c3e
000003a0: 68a1 e0be 5eeb 853b cbed 78be f6f1 173e
000003b0: fca4 4d3e ee4b 3bbc 399c eb3d 96ff bc3d
000003c0: 6761 b3be c7d0 453d 13c6 533e 6b64 b43d
000003d0: 0ea9 8e3d 4c3b 2dbd 130a d8bb 2f0a 843d
000003e0: d215 c9ba a907 4d3e 4ee9 c73d 808d 833e
000003f0: f427 3cbd 63f8 4b3c 618f 49be bea4 db3d

layers.2.conv4.weight f4 [24, 24, 1, 1]
0.13351797 0.3125475 -0.2305456 0.1788924 0.13194318 0.2545427 0.012541716 -0.08323747
0.20215094 -0.06867 -0.05987086 0.19961786 0.138127 0.27886346 -0.04830505 -0.13459964
0.24333537 -0.13941354 0.07337067 0.23458405 0.22842032 -0.113704555 -0.17272319 -0.10812803
-0.09409187 0.039826717 -0.25159934 -0.030761955 -0.045652058 -0.14614926 0.3954482 -0.24869822
0.22766578 -0.04742584 -0.23969723 0.07457049 0.04878727 -0.053836618 0.0011582469 0.005916495
-0.011863477 -0.15694235 -0.16809218 0.06122608 0.15147376 0.2544691 -0.16233024 0.18261401
-0.12597272 -0.1306746 0.06002556 -0.017218057 0.42706424 0.43871242 0.20804828 -0.027679192
0.2964682 -0.13084337 -0.14742903 0.13610859 -0.14415008 -0.1126608 0.00038155456 -0.22301008
-0.11897631 0.059841327 -0.102602325 -0.25384316 -0.11688274 -0.038980447 0.045465797 0.25310907
-0.14345747 0.09382443 0.39290318 -0.08435104 0.08296547 0.15265632 0.16166715 -0.09569286
0.0797521 -0.20599774 -0.00026602924 0.099321924 0.12174534 -0.12835488 -0.07030558 0.24642654
0.16508655 0.11838286 -0.019787354 -0.08083953 0.10926032 0.008603794 -0.052075516 0.11180712
0.09337743 0.009505127 -0.27189976 -0.11105161 0.06943355 -0.09597245 0.03685656 0.035214365
0.02842989 0.10130648 0.025138963 -0.11329925 -0.097354256 -0.031896655 0.19255915 0.22532983
0.016538955 0.44680533 0.32620946 0.02315653 -0.06589072 0.18628709 0.16453613 -0.23984765
-0.050568625 0.21950647 0.11041173 0.09685551 0.31416523 -0.079545885 0.17276952 0.20199744
0.14653707 -0.11644364 0.12048151 -0.18744831 -0.10035497 0.18520708 -0.3023111 0.14699069
-0.2663341 -0.14182834 -0.07817741 -0.29994515 -0.33420706 0.025658987 0.10233465 0.17639841
0.15463606 -0.08261951 -0.026425442 -0.13054892 0.06878732 -0.18676795 -0.26254678 0.01912671
-0.3203589 -0.02778306 -0.09556601 0.053302996 0.2194917 0.018278105 -0.086536825 0.16446844
0.016522577 0.10563019 0.17463039 -0.09451613 0.23730266 0.18107216 0.03472642 -0.0860518
-0.1638093 -0.20525998 0.11603551 0.04912569 -0.08227082 0.07040899 0.014006656 -0.29533935
0.09636659 -0.15854153 0.12998088 0.05181214 -0.33729744 -0.072633736 0.1832644 -0.26368922
0.08401039 -0.12111444 -0.037885223 0.06434759 0.44119558 -0.0027913204 0.24350324 -0.10537717
-0.15313113 0.059200425 -0.13463464 -0.08724634 -0.12037423 -0.1265196 0.009925764 0.010627278
-0.05042206 -0.13526136 -0.2878079 0.017048245 -0.08710813 -0.0055425735 -0.066718064 0.2547777
-0.04703064 0.24769387 -0.08622425 -0.1654347 -0.062846445 -0.31134027 -0.05828837 -0.10680101
-0.0013932063 0.0303468 0.21196032 -0.095784254 -0.035050392 0.37002206 0.06926239 -0.065057345
-0.12659776 0.11372489 0.17390922 0.116315484 0.20908438 0.07629218 -0.01481998 0.028577296
-0.12245202 0.28446263 -0.18987015 0.028319322 0.18195073 0.23772132 -0.06457627 -0.20271936
-0.055638444 -0.17678133 0.1267187 -0.07753786 0.08150342 -0.18647823 0.24632359 -0.034166086
-0.1072003 0.045033127 0.09418869 -0.16796637 0.04818637 -0.15437296 0.2781011 0.114747405
00000000: efb8 083e 3a06 a03e 2514 6cbe 922f 373e
00000010: 1d1c 073e 6c53 823e c57b 4d3c 6878 aabd
00000020: a800 4f3e dba2 8cbd 263b 75bd a068 4c3e
00000030: 2a71 0d3e 31c7 8e3e 84db 45bd 7dd4 09be
00000040: e82c 793e 6cc2 0ebe 5d43 963d cd36 703e
00000050: 04e7 693e efdd e8bd 59de 30be 3b72 ddbd
00000060: 3db3 c0bd 5721 233d a1d1 80be 7f00 fcbc
00000070: a7fd 3abd 27a8 15be 3078 ca3e bfaa 7ebe
00000080: 3821 693e 9941 42bd 3173 75be 6ab8 983d
00000090: 29d5 473d c983 5cbd 51d0 973a 28df c13b
000000a0: 075f 42bc 7fb5 20be 5b20 2cbe 33c8 7a3d
000000b0: f01b 1b3e c649 823e e639 26be 2bff 3a3e
000000c0: fefe 00be 90cf 05be 5ddd 753d e20c 8dbc
000000d0: 2aa8 da3e ea9e e03e 9c0a 553e 79bf e2bc
000000e0: aeca 973e cefb 05be a3f7 16be 0d60 0b3e
000000f0: 149c 13be b5ba e6bd 630b c839 c15c 64be
00000100: daa9 f3bd 2e1c 753d 2b21 d2bd bbf7 81be
00000110: 3860 efbd f6a9 1fbd 583a 3a3d 8397 813e
00000120: 84e6 12be 0627 c03d 9b2a c93e 3dc0 acbd
00000130: cde9 a93d f051 1c3e 138c 253e 9efa c3bd
00000140: 1255 a33d 12f1 52be d779 8bb9 4b69 cb3d
00000150: 9f55 f93d 766f 03be 5ffc 8fbd 3d57 7c3e
00000160: 730c 293e b772 f23d 1719 a2bc 328f a5bd
00000170: e0c3 df3d edf6 0c3c 234d 55bd 22fb e43d
00000180: ab3c bf3d 64bb 1b3c 7236 8bbe 076f e3bd
00000190: 2d33 8e3d 348d c4bd e7f6 163d f03c 103d
000001a0: cde5 e83c c679 cf3d 3af0 cd3c 7009 e8bd
000001b0: ab61 c7bd 11a6 02bd 3a2e 453e ddbc 663e
000001c0: b47c 873c abc3 e43e ed04 a73e c3b2 bd3c
000001d0: b7f1 86bd 0bc2 3e3e 297c 283e 9f9a 75be
000001e0: 0c21 4fbd 4ec6 603e 8c1f e23d 2e5c c63d
000001f0: 44da a03e f4e8 a2bd 7eea 303e 6bd8 4e3e
00000200: d00d 163e 017a eebd 03bf f63d 73f2 3fbe
00000210: e886 cdbd eda6 3d3e 85c8 9abe ba84 163e
00000220: f15c 88be 733b 11be 7a1b a0bd 6992 99be
00000230: 301d abbe cc32 d23c d494 d13d c9a1 343e
00000240: ea58 1e3e 6b34 a9bd 2b7a d8bc 9eae 05be
00000250: 5ee0 8c3d 1940 3fbe 886c 86be 9eaf 9c3c
00000260: 1506 a4be 4d99 e3bc 1db8 c3bd 3e54 5a3d
00000270: 6fc2 603e f7bb 953c 383a b1bd 6a6a 283e
00000280: 5b5a 873c a454 d83d 4fd2 323e ac91 c1bd
00000290: 78ff 723e fb6a 393e 4a3d 0e3d ed3b b0bd
000002a0: a0bd 27be ac2f 52be 07a4 ed3d 0538 493d
000002b0: 9b7d a8bd 9732 903d 2c7c 653c b836 97be
000002c0: d95b c53d b658 22be b519 053e f738 543d
000002d0: 40b2 acbe ffc0 94bd aaa9 3b3e 4602 87be
000002e0: a40d ac3d d90a f8bd 892d 1bbd abc8 833d
000002f0: 63e4 e13e 96ee 36bb ea58 793e fccf d7bd
00000300: 68ce 1cbe 257c 723d aadd 09be 36ae b2bd
00000310: c486 f6bd 5b8e 01be ac9f 223c 091e 2e3c
00000320: 5d87 4ebd f481 0abe 8f5b 93be c3a8 8b3c
00000330: bf65 b2bd 7a9e b5bb 7ba3 88bd 3972 823e
00000340: 33a3 40bd 76a3 7d3e 5796 b0bd b767 29be
00000350: a3b5 80bd fe67 9fbe c9bf 6ebd 7dba dabd
00000360: 3f9c b6ba da99 f83c 200c 593e 892a c4bd
00000370: 0091 0fbd 8873 bd3e 71d9 8d3d c93c 85bd
00000380: d8a2 01be 98e8 e83d 4215 323e d036 ee3d
00000390: 371a 563e 133f 9c3d 80cf 72bc ef1a ea3c
000003a0: 20c8 fabd 16a5 913e 526d 42be ecfd e73c
000003b0: 4b51 3a3e 386d 733e 9040 84bd aa95 4fbe
000003c0: 23e5 63bd 2a06 35be 8cc2 013e 2bcc 9ebd
000003d0: 44eb a63d 26f4 3ebe 403c 7c3e bdf1 0bbd
000003e0: d58b dbbd a874 383d 00e6 c03d 60ff 2bbe
000003f0: 125f 453d f213 1ebe 4463 8e3e b000 eb3d

linear.weight f4 [10, 512]
0.026219973 0.38646388 0.1168754 0.2438897 -0.14404903 0.010550933 0.09321101 0.20040016
-0.41569456 -0.09337565 0.10739031 -0.26737586 0.09676845 -0.053848494 0.06544233 0.025439927
0.03104469 -0.076502845 0.09392231 0.21000719 0.23406458 -0.23482138 -0.23665375 -0.0102603
0.12994902 -0.17804992 0.1698087 -0.025984274 -0.055778127 0.24155113 0.047251668 0.01901811
0.15564068 -0.48040542 -0.40749764 0.18325607 -0.15796174 0.08666302 -0.29757616 0.19569136
0.36572388 -0.15869686 -0.091173716 -0.18765096 -0.43303186 -0.36812118 -0.40262035 -0.22191156
-0.14256926 0.35642 0.42690653 0.34064096 0.047263604 0.21734476 0.076002784 -0.07351146
0.12836042 0.32284078 0.22642712 0.33669746 0.13942769 0.36944267 -0.087616675 0.18925165
-0.34739944 0.12170151 -0.0008837576 -0.22851968 0.42798084 0.049542632 -0.045664813 -0.31844813
0.09065393 0.3821851 -0.26904935 -0.27530795 0.19282307 0.18003784 -0.17975992 -0.14225903
-0.20734833 0.061565544 -0.18451001 0.24787182 0.19920687 0.021430079 0.13617451 -0.33449668
0.3895575 0.18308587 -0.05543268 -0.07025776 0.22783816 0.109987915 -0.048542455 0.13289425
-0.076668665 -0.04628123 -0.32977483 -0.1590078 -0.36354965 -0.046551306 0.12102451 -0.21976699
0.114754304 0.26327267 -0.038178254 -0.17267372 0.22823669 0.31696263 0.29499063 0.19772735
-0.0105404 0.096236035 -0.0393579 0.0034406646 0.17634094 -0.3425716 0.06578711 0.03306624
0.1367536 0.15863535 -0.097635604 -0.1773422 0.15455219 0.062026102 0.11837472 -0.168489
0.24118666 0.31628877 -0.031608645 0.07869493 -0.0773653 0.17485106 -0.2613733 -0.18479514
0.077734515 -0.13339238 -0.31370798 -0.13747047 0.052034102 0.13428228 0.05999498 -0.27657267
-0.19318512 0.3856927 -0.2651185 -0.20594566 0.3948954 0.12283 -0.14704214 -0.0952225
-0.41979933 -0.1674553 -0.27037615 -0.28925008 -0.10468901 0.02186861 -0.089438625 -0.3025306
-0.070520505 0.14170253 -0.1049463 0.13140377 -0.15718037 0.20058817 -0.50775063 -0.22690076
-0.34287882 0.15411928 -0.04676047 0.0065718833 -0.11249634 0.37144902 0.11123712 0.52776873
-0.012205749 -0.21771944 -0.2258019 -0.049685232 0.46572784 0.11346335 -0.17183624 -0.3025584
-0.0050646034 0.0798853 0.004251578 -0.454839 -0.18523228 -0.32668874 -0.053926673 -0.1527676
0.21283853 0.26926377 -0.057885718 -0.024223896 0.33278257 0.49260536 0.35998714 0.30278727
-0.0342111 0.26388448 0.045968533 0.022565182 -0.42308307 -0.036283605 -0.25883406 0.039093904
-0.07232272 -0.2260081 0.09339355 0.106689125 -0.14826493 0.04759699 0.07174302 -0.19741075
0.22847375 0.11108532 0.15610492 -0.13217379 0.05606272 -0.042963535 -0.018126158 0.11061319
0.16977474 0.07936611 0.18763585 0.11577488 -0.3081942 0.08411721 0.12098681 -0.37687472
-0.09784879 -0.0101717375 -0.26152265 0.2708915 -0.1741721 0.0042425497 -0.043899864 -0.019939078
0.11817669 0.4341259 0.39167193 0.016235663 0.088468514 0.4051331 -0.26740846 -0.20776051
0.40094048 0.25557432 -0.67933416 -0.16369013 -0.08325956 -0.13418877 -0.34733674 -0.010442205
00000000: 45cb d63c 98de c53e 5f5c ef3d 39be 793e
00000010: 9781 13be d2dd 2c3c 6ae5 be3d b335 4d3e
00000020: ebd5 d4be bc3b bfbd 73ef db3d 7de5 88be
00000030: 8a2e c63d 3d90 5cbd a106 863d 6567 d03c
00000040: 6f51 fe3c 86ad 9cbd 575a c03d 200c 573e
00000050: a0ae 6f3e 0475 70be 5c55 72be d11a 28bc
00000060: 5b11 053e b852 36be 55e2 2d3e f9dc d4bc
00000070: 9b77 64bd 2e59 773e f78a 413d decb 9b3c
00000080: 4560 1f3e b3f7 f5be 88a3 d0be 7ba7 3b3e
00000090: b9c0 21be 627c b13d e75b 98be 5163 483e
000000a0: 2940 bb3e 6e81 22be 49b9 babd 9327 40be
000000b0: 5ab6 ddbe 617a bcbe 4124 cebe c93c 63be
000000c0: adfd 11be af7c b63e 7e93 da3e 7e68 ae3e
000000d0: 7b97 413d a08f 5e3e 59a7 9b3d 2d8d 96bd
000000e0: ea70 033e 634b a53e 83dc 673e 9c63 ac3e
000000f0: 22c6 0e3e 9727 bd3e 5f70 b3bd 2fcb 413e
00000100: 57de b1be a43e f93d f8ab 67ba 1001 6abe
00000110: 4e20 db3e 37ed 4a3d 070b 3bbd a20b a3be
00000120: c5a8 b93d c4ad c33e d6c0 89be 2af5 8cbe
00000130: 6973 453e d75b 383e fc12 38be 5aac 11be
00000140: 1f53 54be 272c 7c3d 31f0 3cbe 1cd2 7d3e
00000150: e3fc 4b3e 228e af3c 5571 0b3e 2643 abbe
00000160: 1574 c73e dd7a 3b3e 610d 63bd 4de3 8fbd
00000170: 684e 693e 5841 e13d 74d4 46bd 6e15 083e
00000180: 7604 9dbd 6391 3dbd 3fd8 a8be f1d2 22be
00000190: 2e23 babe 95ac 3ebd b3db f73d 990a 61be
000001a0: 4e04 eb3d adcb 863e cd60 1cbd 61d1 30be
000001b0: e1b6 693e ed48 a23e 0309 973e 0a79 4a3e
000001c0: a4b1 2cbc 6617 c53d c035 21bd c67c 613b
000001d0: b892 343e 8b65 afbe 64bb 863d 7770 073d
000001e0: 2309 0c3e 4e71 223e 2df5 c7bd 3299 35be
000001f0: ee42 1e3e 150f 7e3d 726e f23d 6188 2cbe
00000200: a3f9 763e 9af0 a13e 1178 01bd cf2a a13d
00000210: b371 9ebd 280c 333e b9d2 85be f03a 3dbe
00000220: 4633 9f3d 0398 08be 559e a0be 0fc5 0cbe
00000230: b621 553d 4b81 093e 4cbd 753d ef9a 8dbe
00000240: 52d2 45be 8379 c53e 9dbd 87be 6be3 52be
00000250: bb2f ca3e 4c8e fb3d 3792 16be 0404 c3bd
00000260: f0ef d6be 6779 2bbe be6e 8abe 9618 94be
00000270: 3167 d6bd cd25 b33c 992b b7bd 4ae5 9abe
00000280: 0e6d 90bd 781a 113e 16ee d6bd b68e 063e
00000290: e4f3 20be fc66 4d3e f2fb 01bf ac58 68be
000002a0: d08d afbe 72d1 1d3e e887 3fbd f458 d73b
000002b0: 7b64 e6bd 912e be3e 4ad0 e33d da1b 073f
000002c0: 9ffa 47bc d8f1 5ebe 9d38 67be be82 4bbd
000002d0: e173 ee3e 795f e83d d7f5 2fbe efe8 9abe
000002e0: f9f4 a5bb e79a a33d d250 8b3b a8e0 e8be
000002f0: 88ad 3dbe bf43 a7be 37e2 5cbd 1c6f 1cbe
00000300: 58f2 593e f1dc 893e 9319 6dbd 3171 c6bc
00000310: 7a62 aa3e c536 fc3e 3c50 b83e ef06 9b3e
00000320: f020 0cbd de1b 873e 8049 3c3d 9eda b83c
00000330: 589e d8be 1e9e 14bd e685 84be ee20 203d
00000340: ef1d 94bd ab6e 67be 1e45 bf3d d47f da3d
00000350: c3d2 17be 10f5 423d 01ee 923d 0b26 4abe
00000360: 06f5 693e b380 e33d f8d9 1f3e 9158 07be
00000370: 06a2 653d 88fa 2fbd 4f7d 94bc 2b89 e23d
00000380: 6ed9 2d3e b38a a23d 9d23 403e 611b ed3d
00000390: a1cb 9dbe a545 ac3d efc7 f73d b9f5 c0be
000003a0: f264 c8bd 5ca7 26bc 4ce6 85be 4ab2 8a3e
000003b0: 2c5a 32be 1605 8b3b 58d0 33bd 4757 a3bc
000003c0: 9f06 f23d c045 de3e 3989 c83e a700 853c
000003d0: fb2e b53d 9b6d cf3e c3e9 88be 2cbf 54be
000003e0: 1248 cd3e a3da 823e d8e8 2dbf 639e 27be
000003f0: fd83 aabd c868 09be 1fd6 b1be c815 2bbc

linear.bias f4 [10]
0.040561475 -0.27485302 0.027811188 0.1548428 0.14328083 0.052092303 -0.115391 -0.13408124
-0.16485491 -0.004185998
00000000: ca23 263d 89b9 8cbe 4ad4 e33c 1c8f 1e3e
00000010: 36b8 123e bd5e 553d 1e52 ecbd 984c 09be
00000020: bacf 28be b22a 89bb

onnx::Conv_150 f4 [32, 3, 3, 3]
-0.08781566 -0.13620411 -0.0148228435 0.058518253 -0.14038071 0.053684983 -0.03936291 -0.1914239
-0.095454544 0.18958378 0.1897774 -0.026524683 0.088761024 0.08113238 -0.11166355 0.06478932
-0.02771482 -0.13727626 0.28049874 0.22508575 0.08180497 0.2436707 0.092991024 -0.015061474
-0.013160241 -0.14367709 -0.032925237 0.49691373 -0.15606713 -0.5822107 0.4496325 -0.43719497
0.34845796 0.1798696 0.6007373 -0.44404054 0.20962808 0.52764964 -0.4647908 -0.30845833
-0.25298068 0.5476809 -0.5167477 0.58175826 -0.5716412 0.0015044665 -0.17338312 -0.57243747
-0.11711905 0.3115228 0.4860408 -0.81591916 0.6339596 -0.1310349 -0.042810857 0.064034045
-0.22438645 0.10320171 0.15979198 -0.22793065 0.17475533 -0.08504625 0.120941445 -0.01730695
0.014350592 -0.30505016 0.08377385 -0.29784068 -0.29944512 0.17709865 -0.15133332 -0.03803596
0.06304691 0.06407434 -0.05118631 0.12079246 -0.16530877 0.009235622 0.21654388 -0.11789131
0.19580628 1.0380114 0.07077551 0.3039377 0.31885245 -0.15454574 -0.15656252 -0.23122664
-0.5449945 -0.6437276 -0.3862914 -0.24606885 0.44481766 -0.2843428 0.21071264 0.39835927
0.3441645 0.61381125 -0.2973107 -0.14318152 -0.46745 0.15353398 -0.23886284 -0.2274428
0.41615278 -0.18786453 0.5200663 0.1025272 0.053670716 0.05517119 0.23857006 -0.61065245
-0.41624975 0.36801714 -0.46159878 -0.5121159 0.49925616 0.45789924 -0.024560425 -0.29329124
0.24295852 0.15744747 0.17390628 0.06571473 -0.09893148 0.33338127 -0.24340108 0.18923067
-0.20391531 0.2233228 0.36979315 -0.091885366 0.474663 0.21581364 -0.57711214 -0.17535388
0.08987388 -0.18208107 -0.15475859 -0.111682765 -0.1525065 0.1548481 0.029947354 -0.12770098
-0.009876064 0.3107714 0.23091649 0.14175187 0.23512992 0.24996696 0.04483859 0.09488071
0.021475678 -0.06794382 -0.010375532 -0.0038584208 -0.17590742 -0.13143744 -0.056773767 0.033181693
0.0014320764 0.029850546 -0.24223125 -0.07984163 0.017388461 0.13902046 0.061022922 -0.063481756
0.328304 0.080596186 -0.19048929 -0.09497042 -0.03242118 0.14894314 0.118078224 0.09058455
0.19515453 0.23779774 0.2961784 0.33230996 0.29001322 -0.24381216 -0.36147413 0.09253198
-0.2520433 -0.2873245 0.107990675 -0.19860473 -0.24395604 -0.12924197 0.014344098 0.09014249
-0.18805182 -0.01400568 -0.24405055 0.21816486 0.023933288 0.09051627 -0.01456089 -0.102644295
0.08439581 -0.28351256 -0.17337799 -0.1709686 0.22484772 0.092544965 0.17944157 -0.12382055
0.15370764 0.06855543 -0.25607958 0.072290145 -0.038736966 0.1768724 0.30641717 0.41119304
-0.18767789 -0.4074446 -0.23555104 -0.2088085 0.34116992 -0.03928493 0.36265844 0.20538385
-0.094595656 0.2108137 -0.07180601 -0.019170715 0.05720085 0.64496833 0.18668889 -0.14719023
0.22256167 0.19089341 0.3357639 -0.21410291 -0.15871565 0.14409254 0.2203973 -0.2378679
-0.35043573 -0.20869376 0.032652877 -0.16665252 -0.63779247 -0.38545296 0.5278902 -0.73159105
0.28056696 0.6963738 0.29409567 0.058617484 -0.2928136 0.5137876 0.31312606 0.40298185
00000000: b2d8 b3bd 1779 0bbe 83db 72bc d6b0 6f3d
00000010: f6bf 0fbe c9e4 5b3d 013b 21bd a004 44be
00000020: ac7d c3bd 4022 423e 0255 423e 4b4a d9bc
00000030: 57c8 b53d bc28 a63d dcaf e4bd 43b0 843d
00000040: 310a e3bc 2692 0cbe 889d 8f3e e17c 663e
00000050: 5d89 a73d d084 793e 1472 be3d 67c4 76bc
00000060: 0d9e 57bc 1620 13be 9ddc 06bd 7a6b fe3e
00000070: 10d0 1fbe c30b 15bf 3b36 e63e 05d8 dfbe
00000080: 1569 b23e bd2f 383e ebc9 193f 4859 e3be
00000090: bea8 563e 0c14 073f 0ff9 edbe 40ee 9dbe
000000a0: af86 81be d134 0c3f 9449 04bf 1cee 143f
000000b0: 1457 12bf 8531 c53a 588b 31be 438b 12bf
000000c0: 1ddc efbd eb7f 9f3e 57da f83e 14e0 50bf
000000d0: 2d4b 223f 032e 06be 705a 2fbd 4824 833d
000000e0: 90c5 65be 6b5b d33d 82a0 233e a766 69be
000000f0: 10f3 323e ba2c aebd 26b0 f73d 4ec7 8dbc
00000100: bf1e 6b3c 892f 9cbe a091 ab3d 937e 98be
00000110: df50 99be 5959 353e 1ff7 1abe 98cb 1bbd
00000120: bd1e 813d 6839 833d bca8 51bd 0a62 f73d
00000130: b446 29be 0251 173c aebd 5d3e 0071 f1bd
00000140: 7181 483e 8fdd 843f c0f2 903d b99d 9b3e
00000150: a140 a33e 3d41 1ebe ed51 20be adc6 6cbe
00000160: c284 0bbf 55cb 24bf fdc7 c5be 79f9 7bbe
00000170: 24bf e33e 6195 91be 0ec5 573e bff5 cb3e
00000180: 5436 b03e bc22 1d3f 1c39 98be 2d9e 12be
00000190: 9b55 efbe 0338 1d3e 7698 74be c4e6 68be
000001a0: fa11 d53e 8f5f 40be 1123 053f c8f9 d13d
000001b0: d3d5 5b3d 30fb 613d b64b 743e b853 1cbf
000001c0: b01e d5be be6c bc3e ad56 ecbe 071a 03bf
000001d0: 819e ff3e c571 ea3e f232 c9bc 452a 96be
000001e0: 1eca 783e e939 213e 7d14 323e 7295 863d
000001f0: 969c cabd f3b0 aa3e 223e 79be afc5 413e
00000200: 2dcf 50be bbae 643e 8755 bd3e 652e bcbd
00000210: 0707 f33e 40fe 5c3e 9fbd 13bf f88f 33be
00000220: cc0f b83d 7673 3abe 0979 1ebe efb9 e4bd
00000230: aa2a 1cbe 8090 1e3e 2754 f53c 0cc4 02be
00000240: 37cf 21bc 6e1d 9f3e 5f75 6c3e 6727 113e
00000250: e6c5 703e 57f7 7f3e aba8 373d d150 c23d
00000260: c3ed af3c 2126 8bbd 23fe 29bc 8fdd 7cbb
00000270: 1321 34be 8997 06be 9c8b 68bd 87e9 073d
00000280: 83b4 bb3a 2289 f43c 780b 78be 0284 a3bd
00000290: 3f72 8e3c 615b 0e3e 2cf3 793d b902 82bd
000002a0: 7617 a83e 9d0f a53d a00f 43be da7f c2bd
000002b0: 12cc 04bd 8d84 183e ffd2 f13d 6484 b93d
000002c0: 97d6 473e 4081 733e b2a4 973e 8824 aa3e
000002d0: 9d7c 943e e5a9 79be 2313 b9be 6881 bd3d
000002e0: d20b 81be 321c 93be 372a dd3d 0a5f 4bbe
000002f0: 9dcf 79be 0258 04be 8203 6b3c a09c b83d
00000300: a890 40be 1478 65bc 63e8 79be 9c66 5f3e
00000310: be0f c43c 9860 b93d cd90 6ebc 2c37 d2bd
00000320: b6d7 ac3d 8f28 91be 008a 31be 6512 2fbe
00000330: 7b3e 663e 3788 bd3d 88bf 373e a195 fdbd
00000340: 8965 1d3e ca66 8c3d dd1c 83be db0c 943d
00000350: a7aa 1ebd 0a1e 353e b6e2 9c3e e587 d23e
00000360: a22e 40be 949c d0be 4b34 71be e5d1 55be
00000370: d3ad ae3e 3ce9 20bd 5eae b93e 2550 523e
00000380: 5ebb c1bd 8cdf 573e 080f 93bd e70b 9dbc
00000390: 704b 6a3d a51c 253f 5f2b 3f3e 09b9 16be
000003a0: 35e7 633e 9079 433e 3fe9 ab3e cb3d 5bbe
000003b0: 5b86 22be ff8c 133e d4af 613e a593 73be
000003c0: 506c b3be d1b3 55be 06bf 053d f5a6 2abe
000003d0: 5e46 23bf 175a c5be d023 073f 8d49 3bbf
000003e0: 79a6 8f3e 8e45 323f b593 963e e318 703d
000003f0: aaeb 95be 9687 033f 0f52 a03e a353 ce3e

onnx::Conv_151 f4 [32]
-0.078521684 -0.056973733 0.18779981 0.026768748 -0.08126559 -0.22132759 -0.12869878 0.13887627
-0.029374925 -0.111920685 0.09085715 -0.33150387 0.23644662 -0.0101858135 -0.026823528 0.16309027
0.085829906 -0.024171004 -0.070759416 0.12541525 0.057296336 0.0157791 0.033275537 0.20074183
-0.017968502 -0.058269 0.07848133 0.009616129 -0.03292774 -0.10324543 -0.0872468 0.0065413397
00000000: facf a0bd 4a5d 69bd 984e 403e 224a db3c
00000010: 936e a6bd b3a3 62be 9dc9 03be 9535 0e3e
00000020: afa3 f0bc ac36 e5bd 5013 ba3d e0ba a9be
00000030: 101f 723e 66e2 26bc 04bd dbbc 2301 273e
00000040: 97c7 af3d 4502 c6bc 50ea 90bd db6c 003e
00000050: 90af 6a3d 2c43 813c ee4b 083d 448f 4d3e
00000060: ae32 93bc 7aab 6ebd d2ba a03d f88c 1d3c
00000070: 3ddf 06bd 5772 d3bd 73ae b2bd bc58 d63b

onnx::Conv_153 f4 [32, 32, 1, 1]
-0.032124866 0.09698519 0.21497394 0.21937521 -0.28304544 -0.19734228 -0.088140614 0.25808975
-0.24916118 -0.24262908 0.02968569 -0.27050585 0.024332004 -0.11888349 -0.124265656 0.34224626
0.083947465 0.207497 0.2439156 0.26017517 -0.3334868 -0.048256684 0.28288195 -0.25919852
0.040658217 -0.0090539465 -0.016304772 0.18319634 -0.14281628 0.42320138 -0.049561687 0.29012588
0.06313998 -0.1526101 -0.017491307 0.07033883 -0.077501476 -0.0810611 -0.027006108 -0.055918552
0.006542097 0.1244005 0.13542774 0.14375134 -0.087486655 -0.14411734 0.08873265 -0.22560363
-0.31040487 -0.64830244 0.1692687 -0.30554762 -0.098149136 -0.1898994 -0.16872123 0.1310636
-0.00032540067 0.15181197 0.13807048 -0.005491476 -0.03847887 0.016814183 -0.071673706 -0.05674371
-0.18291852 -0.06477374 0.10322886 -0.12594436 -0.15362665 -0.19853517 -0.05454913 0.09836688
-0.20889355 -0.03217888 -0.05380456 -0.15121515 0.11050782 -0.15557846 -0.07441699 0.10183638
0.08456291 0.15446906 0.25727558 0.10288408 -0.04565681 -0.10660999 0.115573846 0.021715198
0.05861901 0.0013046191 0.074630715 -0.12325005 -0.09903791 -0.027772274 -0.16815144 0.12602662
0.12316273 -0.0026660084 0.10641257 -0.05726195 -0.06350581 0.20521282 0.089899965 0.21557462
0.06981039 0.20276621 0.09504301 0.0714845 -0.0012579683 0.08256309 -0.045301583 -0.11601042
-0.06529336 -0.08076139 0.07720481 -0.18107226 -0.00027628953 -0.11843647 -0.07801838 0.049294773
-0.14717937 0.098359734 0.21610205 -0.14263825 0.039398003 -0.031768687 -0.013103538 -0.10810365
0.10666024 0.1645206 0.041520957 -0.011981657 0.02752734 -0.050996114 -0.23037751 -0.027032766
-0.16925496 0.13240731 0.09658617 -0.11339006 -0.032186273 -0.11560434 -0.064041145 -0.06907962
-0.011998007 -0.20873134 0.21723115 -0.24729851 -0.18061912 -0.10586511 0.08899611 0.14283107
0.02415589 0.01025497 0.07118741 0.03521789 -0.12681319 0.07254491 0.10994637 -0.04477627
-0.18638138 0.10593701 0.0853538 -0.13687277 -0.17678225 -0.08621538 0.0800226 0.055195298
-0.08686464 0.054641392 -0.087679096 -0.1660003 -0.0056945896 -0.078775786 -0.16792433 -0.018782826
-0.11810531 0.07614374 0.20776911 0.032224365 -0.034373138 -0.13250059 0.11946038 0.09009258
0.18476987 0.060345568 -0.09878986 0.016756503 0.117848694 0.0027124148 -0.089980334 0.11675285
0.1057912 0.09883984 0.11261553 -0.0014049455 0.20044848 -0.13313413 -0.30206132 0.10502589
-0.09476054 -0.21819998 0.1007242 -0.23765546 -0.20541058 0.20100182 0.19824217 -0.17404075
0.03877199 -0.35529476 -0.20561445 0.005159096 0.17939891 0.05748023 -0.036425605 0.2528142
-0.1447527 0.21310209 0.17276357 0.16634595 0.118162885 -0.04402519 -0.012441919 -0.40314272
0.12584169 -0.4200682 0.26526004 -0.044977628 -0.09129305 0.1965353 0.0032923277 0.10901692
-0.20831119 0.011238206 -0.13600409 0.14050743 -0.02392234 -0.071697526 0.0776512 -0.010288068
0.14117603 -0.13489579 0.020770613 -0.14041996 0.19275683 0.13945252 -0.038100276 0.045071285
-0.13019817 -0.02329697 0.26306462 -0.34928706 0.19111103 0.24403222 0.053736456 0.22546643
00000000: 5d95 03bd 2ca0 c63d 2122 5c3e e5a3 603e
00000010: 55eb 90be 1814 4abe 1183 b4bd 5724 843e
00000020: 1c24 7fbe c273 78be 672f f33c be7f 8abe
00000030: e953 c73c 3079 f3bd fe7e febd e73a af3e
00000040: a6ec ab3d 187a 543e 03c5 793e ae35 853e
00000050: c8be aabe cda8 45bd e7d5 903e abb5 84be
00000060: 3b89 263d 0157 14bc 9691 85bc d297 3b3e
00000070: 6e3e 12be daad d83e 3201 4bbd 618b 943e
00000080: 894f 813d d245 1cbe ee49 8fbc ce0d 903d
00000090: 18b9 9ebd 5d03 a6bd ea3b ddbc da0a 65bd
000000a0: 165f d63b b0c5 fe3d 92ad 0a3e 8d33 133e
000000b0: 342c b3bd 7f93 13be 77b9 b53d a304 67be
000000c0: 63ed 9ebe 26f7 25bf c654 2d3e bd70 9cbe
000000d0: 6a02 c9bd fd74 42be 42c5 2cbe 8935 063e
000000e0: 8a9a aab9 9974 1b3e 5962 0d3e d7f1 b3bb
000000f0: 059c 1dbd e6bd 893c aac9 92bd 186c 68bd
00000100: fe4e 3bbe 18a8 84bd a769 d33d 8ff7 00be
00000110: 4e50 1dbe ce4c 4bbe e96e 5fbd 9374 c93d
00000120: 31e8 55be 00ce 03bd 2c62 5cbd 25d8 1abe
00000130: ed51 e23d f64f 1fbe ef67 98bd 988f d03d
00000140: 522f ad3d 232d 1e3e a0b9 833e e3b4 d23d
00000150: a302 3bbd 5756 dabd fbb1 ec3d 12e4 b13c
00000160: 7d1a 703d c1ff aa3a fdd7 983d 866a fcbd
00000170: 63d4 cabd ae82 e3bc e42f 2cbe 1f0d 013e
00000180: be3c fc3d 33b8 2ebb d5ee d93d 828b 6abd
00000190: 560f 82bd 4f23 523e 791d b83d 98bf 5c3e
000001a0: c0f8 8e3d f2a1 4f3e e9a5 c23d 7766 923d
000001b0: 69e2 a4ba d616 a93d 278e 39bd df96 edbd
000001c0: 86b8 85bd 3a66 a5bd 8e1d 9e3d 026b 39be
000001d0: f4da 90b9 d28e f2bd 1ac8 9fbd 51e9 493d
000001e0: 30b6 16be d470 c93d db49 5d3e c30f 12be
000001f0: cd5f 213d e21f 02bd 39b0 56bc 7265 ddbd
00000200: af70 da3d 1778 283e e111 2a3d b64e 44bc
00000210: 0481 e13c 4de1 50bd 15e8 6bbe d273 ddbc
00000220: 2c51 2dbe c895 073e f8ce c53d 0c39 e8bd
00000230: c1d5 03bd f8c1 ecbd 0128 83bd 9e79 8dbd
00000240: 4a93 44bc abbd 55be d871 5e3e d23b 7dbe
00000250: 38f4 38be cfcf d8bd 9843 b63d 4f42 123e
00000260: 93e2 c53c 7604 283c b4ca 913d a240 103d
00000270: 51db 01be 6d92 943d 902b e13d 5267 37bd
00000280: c3da 3ebe 81f5 d83d f9cd ae3d 6028 0cbe
00000290: 6806 35be b091 b0bd e4e2 a33d 7714 623d
000002a0: 17e6 b1bd a7cf 5f3d 1991 b3bd fcfb 29be
000002b0: ae99 babb 3355 a1bd 5bf4 2bbe 71de 99bc
000002c0: 32e1 f1bd 40f1 9b3d 6dc1 543e b2fd 033d
000002d0: d9ca 0cbd 3cae 07be a5a7 f43d 7582 b83d
000002e0: 5034 3d3e ea2c 773d 5752 cabd ef44 893c
000002f0: a85a f13d c5c2 313b 9c47 b8bd 1e1c ef3d
00000300: 0fa9 d83d 8b6c ca3d f9a2 e63d 2626 b8ba
00000310: 5e42 4d3e 5054 08be c8a7 9abe d017 d73d
00000320: d011 c2bd d16f 5fbe 7d48 ce3d f45b 73be
00000330: 2757 52be 6cd3 4d3e ffff 4a3e bd37 32be
00000340: 61cf 1e3d 32e9 b5be 988c 52be a20d a93b
00000350: 59b4 373e 6470 6b3d 0433 15bd dd70 813e
00000360: 0d3a 14be 6f37 5a3e efe8 303e 9856 2a3e
00000370: 62ff f13d c253 34bd 31d9 4bbc b968 cebe
00000380: a5dc 003e 2e13 d7be 2ad0 873e 763a 38bd
00000390: daf7 babd 8d40 493e 18c4 573b 4344 df3d
000003a0: 874f 55be 7420 383c a844 0bbe 2ee1 0f3e
000003b0: c8f8 c3bc 27d6 92bd 9807 9f3d 498f 28bc
000003c0: 7390 103e 1f22 0abe 2227 aa3c 40ca 0fbe
000003d0: 0c62 453e a4cc 0e3e 090f 1cbd ab9c 383d
000003e0: ab52 05be 4ad9 bebc 68b0 863e c1d5 b2be
000003f0: 9cb2 433e 95e3 793e c21a 5c3d ace0 663e

onnx::Conv_154 f4 [32]
-0.24888228 0.15544371 0.057349265 0.26957142 0.14500146 -0.0371083 -0.20151198 0.264416
0.052887574 0.35335854 0.26289132 0.17327552 0.12218538 0.2172135 0.22244729 0.21200857
-0.04127653 0.36993155 0.44729108 0.43681765 -0.23901802 -0.184057 0.13142312 -0.04607687
0.18170893 0.19335362 -0.10167189 -0.022226848 0.23725641 -0.055295423 0.050335824 -0.012903944
00000000: ffda 7ebe a32c 1f3e 10e7 6a3d 4405 8a3e
00000010: 437b 143e dffe 17bd 2859 4ebe 8961 873e
00000020: a4a0 583d 69eb b43e b199 863e 236f 313e
00000030: 543c fa3d 376d 5e3e 39c9 633e c618 593e
00000040: 9411 29bd ab67 bd3e 5603 e53e 90a6 df3e
00000050: 24c1 74be 7079 3cbe c893 063e 1abb 3cbd
00000060: e811 3a3e 7efe 453e 5a39 d0bd 1415 b6bc
00000070: 58f3 723e 747d 62bd f02c 4e3d 106b 53bc

onnx::Conv_156 f4 [32, 1, 3, 3]
-0.2410091 0.2328838 0.3141368 0.49033755 0.59084255 0.20114213 -0.6374157 -0.5002733
0.5124472 0.54795927 0.836142 0.48398143 -0.61216146 -0.84517694 0.15455928 0.2739057
-0.48201478 -0.4402872 -0.14364578 -0.37255532 -0.56326365 -0.43204415 -0.09848765 -0.29367355
-0.39013195 -0.122612074 0.29230455 -0.89372724 -0.7231279 -0.25691783 0.82208514 1.2535547
-0.56398964 1.4544477 -0.9885174 -1.1675075 -0.14092775 1.0723056 -0.16688421 0.37331292
-1.4517388 -0.154285 1.354928 -0.97888625 0.3591764 0.29614383 -1.4487287 -0.7425965
-0.504678 0.053508256 0.35885215 1.1086475 0.09317233 0.98951006 -0.1796343 -0.013300537
-0.8054131 0.72960925 -0.28055874 -0.5932412 -0.471151 0.05299545 0.7374882 -0.7321717
0.9568608 0.206487 0.10778625 0.9595481 -0.8927198 0.3438119 -0.22520104 -0.61013454
-0.337302 1.1218705 0.38391963 0.4470568 -0.06403467 -0.39863107 -0.050360993 -0.2394253
-0.68841094 -0.86975807 0.97695327 -0.59048337 -0.17918363 0.5911576 -0.13346685 -0.75404644
0.32203808 -1.2839274 -1.4110001 -0.1796175 1.1371067 -0.6727129 0.15844247 1.1781431
0.4438495 1.0121347 -1.9464798 -0.2727255 0.66492826 -0.28023928 -1.7471563 -0.93523085
0.82738906 0.9215996 1.980963 0.174031 0.44357696 -0.13833207 0.746911 -0.30008128
-0.7216169 -0.71205044 -1.1302794 0.781956 -0.26287606 -0.4054937 1.0702822 -1.2166497
-0.34430015 -0.3282045 -0.46010938 0.30744871 -1.0986156 1.0918776 0.23834594 0.55636704
0.73265946 -0.8868167 -0.84463555 1.1104369 -1.2087952 -0.07372835 -0.7549577 -0.36527452
-0.8658101 -0.5259918 0.47639838 -0.089224674 -0.6899364 1.1745148 0.36085582 0.8915849
0.6170031 -0.22655347 -0.42340901 0.7870607 0.27494472 0.16951083 0.3909418 0.036184154
0.14846252 -0.44851926 0.41929412 0.74150497 -0.26568684 -0.29241702 0.7691305 -0.119167894
-0.76854867 -0.6898285 -0.56742495 0.07595387 0.33892044 -0.28995538 -0.26875323 -0.11541192
0.4596508 -0.44193232 -0.3382298 -0.5030981 -0.581375 -1.2176502 -0.37748992 -0.4677808
0.19779795 0.5182987 -0.6837988 0.11168728 -1.0685271 1.8382163 1.0270517 -0.27324218
0.19248672 -1.7571028 0.96209913 0.4774494 0.52359015 -0.12989494 0.074449696 -0.85101956
-0.45228925 0.24038161 -0.09095565 -0.6370992 0.25589404 -0.11470404 0.5180226 0.112534545
-0.14227207 -0.340365 0.7017532 0.040346406 0.31126943 0.5647058 0.08063759 -0.19832452
1.1085062 0.6917861 0.44540858 0.47298646 -0.82570106 0.7735896 -0.75712824 0.12969297
1.1357062 -0.37917653 0.0932631 0.54123235 1.0413011 0.22916672 0.5205484 -0.48825848
-0.5048778 -0.20545365 -0.38201597 0.5925623 1.59412 0.33713433 -1.3629026 -0.3782281
1.1064941 -0.74059266 -0.607893 -0.7604304 1.6946037 -0.8942347 0.7597398 -0.6305214
-0.6017068 -0.8286836 0.9021404 0.7533391 -0.21729174 0.411669 0.6790443 0.5045968
-1.2963613 -0.09610375 -0.1507951 0.27391884 0.25342923 -0.3467012 0.6183998 0.48366094
00000000: 17cb 76be 1779 6e3e 8ad6 a03e 860d fb3e
00000010: 7541 173f 34f8 4d3e ad2d 23bf e911 00bf
00000020: bd2f 033f 0f47 0c3f 670d 563f 6acc f73e
00000030: 9db6 1cbf 845d 58bf ca44 1e3e 5e3d 8c3e
00000040: a4ca f6be 536d e1be e117 13be 92bf bebe
00000050: 0c32 10bf e434 ddbe e5b3 c9bd 615c 96be
00000060: 60bf c7be 0a1c fbbd f1a8 953e 4fcb 64bf
00000070: e91e 39bf bc8a 83be 2c74 523f 7b74 a03f
00000080: a061 10bf 582b ba3f 7a0f 7dbf e370 95bf
00000090: 5d4f 10be 4f41 893f b2e3 2abe df22 bf3e
000000a0: 94d2 b9bf e3fc 1dbe 486e ad3f 4a98 7abf
000000b0: f8e5 b73e 2aa0 973e f16f b9bf ce1a 3ebf
000000c0: 9432 01bf 792b 5b3d 78bb b73e 29e8 8d3f
000000d0: 22d1 be3d 8850 7d3f 0ef2 37be 7fea 59bc
000000e0: 8e2f 4ebf acc7 3a3f 65a5 8fbe a8de 17bf
000000f0: b43a f1be c211 593d 07cc 3c3f 9b6f 3bbf
00000100: d4f4 743f 5471 533e 0abf dc3d f2a4 753f
00000110: 4989 64bf 1d08 b03e 1a9b 66be c731 1cbf
00000120: d9b2 acbe 7499 8f3f 1d91 c43e a1e4 e43e
00000130: 9c24 83bd 5f19 ccbe 5447 4ebd e82b 75be
00000140: b33b 30bf 77a8 5ebf 9c19 7a3f eb29 17bf
00000150: ea7b 37be 1b56 173f 89ab 08be 3009 41bf
00000160: 2de2 a43e bc57 a4bf a79b b4bf a6ed 37be
00000170: b68c 913f ea36 2cbf be3e 223e 65cd 963f
00000180: 3e40 e33e a18d 813f 4026 f9bf ada2 8bbe
00000190: bd38 2a3f 867b 8fbe d1a2 dfbf 4a6b 6fbf
000001a0: c5cf 533f f4ed 6b3f 3290 fd3f 2f35 323e
000001b0: 851c e33e eca6 0dbe 8f35 3f3f 41a4 99be
000001c0: e3bb 38bf f048 36bf ffac 90bf 452e 483f
000001d0: b197 86be df9c cfbe 02ff 883f 2dbb 9bbf
000001e0: 1c48 b0be 6c0a a8be 7593 ebbe eb69 9d3e
000001f0: 709f 8cbf a5c2 8b3f f510 743e 126e 0e3f
00000200: 928f 3b3f 6b06 63bf 093a 58bf cc22 8e3f
00000210: cdb9 9abf e4fe 96bd e844 41bf 4305 bbbe
00000220: bba5 5dbf 66a7 06bf 7dea f33e 6dbb b6bd
00000230: ac9f 30bf 8056 963f 18c2 b83e e83e 643f
00000240: eaf3 1d3f a2fd 67be 11c9 d8be cf7c 493f
00000250: 8ec5 8c3e 3f94 2d3e 8629 c83e d635 143d
00000260: 8f06 183e 51a4 e5be b8ad d63e 45d3 3d3f
00000270: 1b08 88be afb7 95be bde5 443f 4c0e f4bd
00000280: 9bbf 44bf 9a98 30bf c342 11bf b48d 9b3d
00000290: fb86 ad3e 0875 94be 069a 89be 165d ecbd
000002a0: 5a57 eb3e f444 e2be 752c adbe 09cb 00bf
000002b0: fed4 14bf f6db 9bbf 5c46 c1be f780 efbe
000002c0: 8c8b 4a3e 39af 043f 700d 2fbf 4dbc e43d
000002d0: 7fc5 88bf ac4a eb3f 6e76 833f 66e6 8bbe
000002e0: 3d1b 453e bfe8 e0bf 214c 763f 3f74 f43e
000002f0: 010a 063f 2e03 05be 1579 983d 6bdc 59bf
00000300: 7592 e7be 9926 763e f546 babd ef18 23bf
00000310: 8b04 833e f4e9 eabd 219d 043f 8378 e63d
00000320: c5af 11be 5244 aebe 19a6 333f 4642 253d
00000330: b55e 9f3e 8f90 103f 5225 a53d 9515 4bbe
00000340: 88e3 8d3f e518 313f 980c e43e 482b f23e
00000350: 2561 53bf f809 463f 28d3 41bf 3cce 043e
00000360: d25e 913f 6d23 c2be b900 bf3d 348e 0a3f
00000370: 5b49 853f aeaa 6a3e a942 053f 04fd f9be
00000380: ac3f 01bf 7162 52be 9997 c3be 2ab2 173f
00000390: 200c cc3f df9c ac3e 9873 aebf 1da7 c1be
000003a0: 99a1 8d3f 7b97 3dbf e09e 1bbf 91ab 42bf
000003b0: c6e8 d83f 91ec 64bf 4f7e 423f da69 21bf
000003c0: 7509 1abf 9c24 54bf acf2 663f d5da 403f
000003d0: ba81 5ebe 47c6 d23e d9d5 2d3f 422d 013f
000003e0: 2bef a5bf 0bd2 c4bd 086a 1abe 173f 8c3e
000003f0: 7ac1 813e d282 b1be 734f 1e3f 68a2 f73e

onnx::Conv_157 f4 [32]
-0.46833462 0.10815209 0.92936116 0.61052716 0.20484684 -0.008090153 0.48527104 0.33360708
-0.13353801 1.1698842 0.15583582 -0.5172245 0.528691 0.59860104 0.70467466 -0.039860792
-0.21720442 0.2056433 0.46444613 1.707992 -0.44949067 0.8433205 -0.78400075 -0.40672737
-0.4705357 -0.1070137 0.41326725 -0.41818386 0.23070931 -0.21837743 0.08947003 -0.111057445
00000000: 8ec9 efbe d87e dd3d 9dea 6d3f 824b 1c3f
00000010: 5fc3 513e 908c 04bc 7275 f83e 8cce aa3e
00000020: 30be 08be c4be 953f 6d93 1f3e d368 04bf
00000030: 4b58 073f eb3d 193f 8f65 343f 1245 23bd
00000040: d66a 5ebe 2894 523e e2cb ed3e 7b9f da3f
00000050: a423 e6be dae3 573f 46b4 48bf 923e d0be
00000060: 0eea f0be 002a dbbd c497 d33e 321c d6be
00000070: 103f 6c3e 559e 5fbe 103c b73d 1672 e3bd

onnx::Conv_159 f4 [16, 32, 1, 1]
-0.23113118 0.23785312 -0.09398229 0.2846079 0.23437549 0.12534396 -0.077365756 -0.02303771
0.49936184 -0.40640897 0.018470148 0.5253278 0.17926508 0.3288335 0.1524826 0.6015917
-0.30899772 -0.25788838 0.046497464 0.07826708 -0.65766746 0.4799799 0.027567094 0.43012318
-0.10877691 -0.59261525 0.019914668 -0.1403341 0.068064235 -0.4521636 0.16306789 -0.52046496
-0.004005036 0.03268492 -0.28453064 -0.24478224 0.034059934 0.5352291 0.14677353 -0.032252815
-0.12163472 0.25160927 0.5914196 -0.15494137 0.20644766 0.37912342 0.07098079 -0.00529133
-0.51592916 -0.2498135 0.1728904 0.21454647 -0.3822375 0.3979981 -0.06310413 -0.009336675
-0.24907444 -0.5640412 -0.15019652 -0.28479034 -0.21491118 -0.8292153 0.32699144 0.23151705
-0.08996518 0.54040366 -0.091076456 -0.29765153 -0.49214807 -0.30200034 0.5633723 -0.2762001
-0.039947517 -0.16596329 -0.1192822 -0.28037634 -0.15981027 -0.35838073 -0.30366737 0.311073
-0.0951046 0.5283327 0.2203553 -0.50001657 0.05174855 0.5707933 0.08678628 -0.2264425
0.056938797 0.08381608 0.38562956 0.31757352 -0.4710407 -0.50055933 0.13454129 -0.20225137
0.2185777 -0.17652422 0.21699952 -0.13875067 -0.19372478 0.3240856 0.13542496 -0.058621075
-0.35133195 -0.12788591 -0.77788454 0.49611145 -0.45636615 -0.33329812 0.32721457 0.06721223
-0.16768478 -0.671154 -0.6458035 0.46578336 0.14966576 0.2894288 0.32114682 0.26164147
0.35312778 0.09505868 0.34648988 -0.64313996 -0.10421586 -0.522397 0.12223199 0.29358605
-0.5612253 0.52913994 -0.25699347 0.40075862 -0.21217369 0.45536298 -0.2112694 0.3702116
-0.063600294 -0.21011375 -0.13773412 -0.17882252 0.5290962 0.0019463901 0.37775812 -0.33804318
0.12897357 0.014182579 -0.055498004 -0.6372735 0.031379953 0.024689902 -0.1334455 0.22741115
-0.03638582 0.18554904 -0.3308668 -0.14625491 -0.283578 0.24446979 0.23542976 0.14537533
-0.5231536 0.17535968 -0.17068444 0.3692367 0.25513646 -0.15336724 -0.4062916 -0.33614543
0.19566435 0.21015458 -0.4543744 -0.7635212 0.037446875 0.2278811 -0.042453434 -0.6635042
0.061533432 -0.063489825 -0.2792433 -0.2752257 -0.44943434 -0.1734156 -0.4564951 -0.16319902
0.045650184 0.31702247 0.21790785 -0.37903443 -0.11745841 -0.3939133 -0.2366958 -0.4369753
0.21505949 -0.28973207 -0.23545232 0.18662232 -0.2139663 0.4270121 -0.10024735 -0.03236387
-0.25213784 -0.14094953 -0.029823404 -0.48675966 -0.44989938 -0.10972437 -0.77266806 -0.5139948
0.33830512 -0.043029115 0.008658 0.27791202 0.013628505 -0.2364844 -0.062334094 -0.2020346
0.4047537 -0.28465277 0.5034623 0.26722878 0.53130656 0.46150017 0.4615755 -0.26796126
-0.1638283 -0.24761122 -0.44069487 -0.74780655 -0.31410158 0.009804186 0.13598366 0.10689943
-0.1553952 -0.9590455 0.17094769 0.027466992 0.112380035 -0.37204036 -0.10237291 -0.053350233
0.22210145 -0.3676034 0.21343367 0.4606903 -0.44582596 -0.25320643 0.62230927 0.103777364
-0.5837585 -0.015301589 0.21619017 -0.16477188 0.008342612 0.064685114 0.13860808 0.18279056
00000000: a7ad 6cbe c58f 733e c979 c0bd 20b8 913e
00000010: 2100 703e 2b5a 003e f071 9ebd 94b9 bcbc
00000020: 5bac ff3e d614 d0be b54e 973c e27b 063f
00000030: 4491 373e dd5c a83e 6624 1c3e ea01 1a3f
00000040: f334 9ebe f209 84be 2074 3e3d 7e4a a03d
00000050: e55c 28bf edbf f53e 63d4 e13c 1b39 dc3e
00000060: 6ec6 debd a2b5 17bf 1624 a33c beb3 0fbe
00000070: 4365 8b3d fd81 e7be 45fb 263e 313d 05bf
00000080: ad3c 83bb 9fe0 053d 00ae 91be 32a8 7abe
00000090: 6e82 0b3d c604 093f cd4b 163e 871b 04bd
000000a0: a01b f9bd eed2 803e 4667 173f f3a8 1ebe
000000b0: 0467 533e 771c c23e 605e 913d e562 adbb
000000c0: ef13 04bf 1ccf 7fbe 2e0a 313e 12b2 5b3e
000000d0: a2b4 c3be 68c6 cb3e bd3c 81bd daf8 18bc
000000e0: 5f0d 7fbe 0165 10bf 1ecd 19be 0ad0 91be
000000f0: ad11 5cbe 7447 54bf 6c6b a73e ce12 6d3e
00000100: aa3f b8bd e557 0a3f 4b86 babd c865 98be
00000110: d5fa fbbe ca9f 9abe 2b39 103f 196a 8dbe
00000120: 02a0 23bd 48f2 29be 3a4a f4bd 7d8d 8fbe
00000130: 4ea5 23be ae7d b7be 4a7a 9bbe f644 9f3e
00000140: 33c6 c2bd d040 073f d2a4 613e 1601 00bf
00000150: 4af6 533d 821f 123f 01bd b13d 8be0 67be
00000160: a838 693d c4a7 ab3d 3d71 c53e ff98 a23e
00000170: 3f2c f1be a824 00bf 31c5 093e fc1a 4fbe
00000180: d5d2 5f3e c4c2 34be 1f35 5e3e a814 0ebe
00000190: ca5f 46be 8cee a53e d7ac 0a3e a71c 70bd
000001a0: c8e1 b3be 86f4 02be 7123 47bf 5202 fe3e
000001b0: d3a8 e9be 0da6 aabe ab88 a73e 91a6 893d
000001c0: 8fb5 2bbe c0d0 2bbf 6153 25bf 287b ee3e
000001d0: fb41 193e 0330 943e 5b6d a43e dff5 853e
000001e0: 2acd b43e 20ae c23d 1f67 b13e d2a4 24bf
000001f0: 206f d5bd cfbb 05bf c454 fa3d e950 963e
00000200: 76ac 0fbf b775 073f a694 83be 3c30 cd3e
00000210: 0f44 59be 5625 e93e 0157 58be 608c bd3e
00000220: df40 82bd 0f28 57be 2c0a 0dbe 401d 37be
00000230: d972 073f 041e ff3a 8369 c13e ff13 adbe
00000240: a611 043e 0c5e 683c e051 63bd 5b24 23bf
00000250: 4488 003d 7a42 ca3c f0a5 08be 78de 683e
00000260: 4c09 15bd 9100 3e3e 6067 a9be d9c3 15be
00000270: 2331 91be 4a56 7a3e 8014 713e 45dd 143e
00000280: 65ed 05bf 7d91 333e e7c7 2ebe 980c bd3e
00000290: 3fa1 823e 4d0c 1dbe 7405 d0be 411b acbe
000002a0: 3c5c 483e c332 573e c3a3 e8be 2076 43bf
000002b0: e561 193d aa59 693e a7e3 2dbd 69db 29bf
000002c0: 7b0a 7c3d f406 82bd faf8 8ebe 62ea 8cbe
000002d0: 421c e6be dc93 31be bab9 e9be a51d 27be
000002e0: b0fb 3a3d c550 a23e 3c23 5f3e cd10 c2be
000002f0: 098e f0bd 01af c9be 6260 72be 3abb dfbe
00000300: 8e38 5c3e c357 94be 6a1a 71be ec19 3f3e
00000310: fb19 5bbe 54a1 da3e 7c4e cdbd fa8f 04bd
00000320: 3618 81be 1355 10be 3650 f4bc 9038 f9be
00000330: 3659 e6be 2cb7 e0bd 93cd 45bf 2a95 03bf
00000340: 5436 ad3e 4c3f 30bd 49da 0d3c 7c4a 8e3e
00000350: 184a 5f3c f728 72be 0952 7fbd 28e2 4ebe
00000360: e13b cf3e 02be 91be e8e2 003f 36d2 883e
00000370: b503 083f c049 ec3e a053 ec3e 3832 89be
00000380: 9bc2 27be cc8d 7dbe c2a2 e1be 4070 3fbf
00000390: ecd1 a0be bda1 203c 4d3f 0b3e 17ee da3d
000003a0: eb1f 1fbe 0284 75bf e90c 2f3e 7502 e13c
000003b0: 8127 e63d 137c bebe e3a8 d1bd c685 5abd
000003c0: 906e 633e 8336 bcbe 5b8e 5a3e 99df eb3e
000003d0: 4d43 e4be 46a4 81be a94f 1f3f 3a89 d43d
000003e0: 3271 15bf 84b3 7abc f560 5d3e f6b9 28be
000003f0: 73af 083c a179 843d 47ef 0d3e 732d 3b3e

onnx::Conv_160 f4 [16]
0.123073995 0.36123297 1.1119932 -0.3095485 0.10855763 2.1516366 0.017246239 1.1319218
0.42977408 0.48491758 -0.36566603 -0.7987138 0.60468775 -0.43057153 -0.9873947 0.52365065
00000000: 380e fc3d 87f3 b83e cb55 8e3f 247d 9ebe
00000010: 7653 de3d 6ab4 0940 fc47 8d3c d0e2 903f
00000020: 590b dc3e 1e47 f83e 9438 bbbe 8278 4cbf
00000030: d1cc 1a3f df73 dcbe e6c5 7cbf f80d 063f
