Project/Project_files/mobilenetv2_experiments/onnxs/mobilenetv2_19_2_stem.onnx (onnx, 20101 bytes, 22 tensors)

linear.weight f4 [10, 48]
000000 35 d4 ce 3d 0c 2f 89 3c fe 75 e0 3e 55 76 31 3d
       0.10099069 0.016746067 0.4384002 0.04332574
000010 fd 19 1d bf 60 21 07 be 7c e3 50 3d 27 e9 1a be
       -0.6136778 -0.13196325 0.050998196 -0.15128003
000020 ad 0f 89 be c7 e7 08 3e 79 c6 04 3e ff 26 1b be
       -0.26769772 0.13369666 0.12966336 -0.15151595
000030 66 f6 db bd 1d 7b 94 be 60 14 76 be b1 44 80 3e
       -0.10740356 -0.29000178 -0.2403121 0.25052407
000040 5b 3f 79 3e 9f 21 ec be 46 07 c8 be 64 58 04 bf
       0.24340574 -0.461194 -0.3906805 -0.51697373
000050 d7 e3 5d 3e ee 87 36 3e d7 fc 53 3e d1 80 41 3e
       0.21668945 0.1782529 0.2070192 0.18896796
000060 b9 5d bd be d8 17 30 bc 3a 3c cb 39 cd a5 3a 3e
       -0.36985567 -0.010747872 0.0003876405 0.1822731
000070 ba 6f 99 3e ac 42 7a be 22 62 0d be ff 92 d1 bd
       0.29968053 -0.24439496 -0.13806966 -0.102331154
000080 2a c4 c4 3d 03 79 e0 bd 08 b7 c4 3e 9b 45 43 3e
       0.09607728 -0.10960581 0.38420892 0.19069521
000090 e4 be 7f 3e 10 56 61 3e 94 6f 63 3b 1d 7b 48 3e
       0.24975163 0.22005486 0.0034703957 0.19578214
0000a0 31 2a 18 3e d2 f0 9d 3d 30 ae a9 3c f4 93 ff bd
       0.14859845 0.077119485 0.020712942 -0.12479392
0000b0 e0 96 43 bd 3a a6 9d 3e 48 e5 41 bf c1 74 01 bf
       -0.047751307 0.30790883 -0.7574048 -0.5056878
0000c0 eb 4b c5 3d 62 8b a7 bd 83 dd af be 2e d7 77 bd
       0.09633621 -0.08180882 -0.34348688 -0.060507946
0000d0 80 66 bf 3e 2f 22 9d 3e 4e 59 31 be 07 14 7f be
       0.3738289 0.30690143 -0.17319223 -0.24909984
0000e0 61 30 9c 3e 41 fa a7 3e 1f 84 05 3f e0 74 03 3f
       0.3050566 0.32808116 0.52154726 0.5135021
0000f0 71 b9 ba bd b6 72 27 3e a7 a3 bc 3e a2 98 c2 3e
       -0.091174014 0.16352352 0.36843607 0.38007075
000100 d5 a8 e4 bc 12 dd d3 3e 82 e1 d6 3d 48 a9 94 be
       -0.027912537 0.413796 0.10492231 -0.290354
000110 f9 5a d8 3d 45 44 a6 3e 62 b4 d3 3e 48 ea fe 3e
       0.10564227 0.3247396 0.4134856 0.49788117
000120 13 2d 7d bd 9f 3d 14 bf cd 71 02 bf 95 3e 20 bf
       -0.061810564 -0.57906526 -0.50954896 -0.6259549
000130 e2 2a f5 bd c1 e2 f1 bd 97 1e 26 3e 0f cd f0 be
       -0.1197107 -0.11810828 0.16222607 -0.47031447
000140 3c 06 8c be 8e 0e ae 3e cd 7b 39 3e 1f e1 e9 3d
       -0.27348506 0.3399548 0.18113633 0.114198916
000150 df c2 6f 3d 0c 5f 16 be 7f 60 17 3f 27 35 87 3e
       0.058535453 -0.14684695 0.59131616 0.2640774
000160 db dc be 3d 46 24 e2 3d 9f e9 5e 3e 08 1e 51 3e
       0.093194686 0.11042075 0.21768807 0.20421612
000170 f2 a4 82 be c0 a4 a1 be e4 b4 b0 be 02 b7 a8 3e
       -0.25516468 -0.31571007 -0.3451301 0.32952124
000180 7b 8f 27 3e 4a 1e b1 3a 32 c2 23 3f 70 0a 2e 3f
       0.16363327 0.0013513055 0.63968194 0.67984676
000190 21 55 df 3e d7 7f 84 3e 21 37 fe be cd d9 3c bd
       0.43619636 0.25878784 -0.49651435 -0.04610615
0001a0 20 69 84 be 81 8a 77 be 4e 03 34 be c7 c5 b8 be
       -0.25861454 -0.24173929 -0.17579386 -0.36088392
0001b0 2a 2b b4 3d 98 fa ac 3d 74 c5 cf bd f0 4d 4e 3e
       0.087972954 0.084462345 -0.10145083 0.20146918
0001c0 f7 44 16 3d be 3a 2f 3e 32 bf 37 3e 37 f9 1b 3e
       0.036686864 0.17112252 0.17944029 0.15231787
0001d0 ec 13 a0 3c 9a 5b 1d bd bc 63 30 be 00 f9 5a 3b
       0.01954075 -0.038417436 -0.17225546 0.0033412576
0001e0 e8 76 bb 3d a8 32 4b 3d e2 e6 85 3e 82 64 fd 3e
       0.09153539 0.049608856 0.26152712 0.49490744
0001f0 29 5d 0d be cc 89 cf bd c6 d2 89 be 96 f7 88 3d
       -0.13805069 -0.101337045 -0.2691862 0.06687848
000200 30 0e ee 3d b8 39 a5 3d a3 1b bb 3e 59 d2 6f 3d
       0.116238 0.080676496 0.36544523 0.058550213
000210 f6 df 96 3e 0f 5b 11 3f 07 4b ab bd 1e 46 27 3e
       0.29467744 0.5677957 -0.0836392 0.16335341
000220 9d 50 2b bd 8f 45 2d be 66 dc 4c bc 73 5f e8 be
       -0.041824926 -0.16921066 -0.012503719 -0.45385322
000230 83 7c cb 3e 07 d7 ad 3e 55 a1 42 3e 80 70 f9 3d
       0.39743432 0.33953115 0.19006856 0.12179661
000240 45 34 cf bd 6c e6 71 be 8f 72 0c be 3d e5 bc be
       -0.101173915 -0.23623055 -0.13715576 -0.36893645
000250 a5 e1 2d 3d d5 81 a4 3d 90 b4 08 be 3a c7 24 3d
       0.04245152 0.08032576 -0.13350129 0.04022906
000260 55 b0 a8 3d eb 87 8e 3d ed 16 0f 3e b1 74 19 3e
       0.08236758 0.06959518 0.13973589 0.1498592
000270 48 b5 4e bd ce 44 45 3d 1e 14 90 bd ed 16 32 be
       -0.050465852 0.04816132 -0.07035087 -0.17391558
000280 5c 42 c9 bd 59 44 83 bd 8b 1b 1b 3e b3 78 46 3e
       -0.0982711 -0.06409521 0.15147226 0.1938198
000290 fc 7d 0d bd 85 c0 43 be 87 f3 9c be 9b 39 b3 be
       -0.034543976 -0.19116409 -0.30654547 -0.35004887
0002a0 2e bd a6 be c8 e4 af 3c 74 8e 35 3e 0f bb 12 3f
       -0.32566208 0.021471396 0.17730123 0.5731668
0002b0 f6 e5 68 3e b2 7e e5 3d a3 13 50 3d 61 0b 1e 3e
       0.22743973 0.11205806 0.050799977 0.15434028
0002c0 c3 8e 9b bc 1e b8 0b be d8 c0 0e bd d8 b1 be 3e
       -0.018988973 -0.13644454 -0.03485188 0.3724506
0002d0 5f f6 9a 3d b8 bd 7d 3d 2c 8d aa bd a8 8d 95 be
       0.07566523 0.061948508 -0.08327708 -0.29209638
0002e0 ab 5c 0b be cc 73 33 3e 02 a1 7e be 12 01 2b 3d
       -0.13609569 0.17524642 -0.24866107 0.041749068
0002f0 11 dc 2d 3e 9f 06 97 3e 29 95 3c 3e 05 52 d6 3e
       0.1697848 0.2949724 0.18416275 0.4185945
000300 b3 82 c5 bd 1e 5f 9d 3e 0f 47 87 3e 84 b4 c4 3e
       -0.096440695 0.3073663 0.264214 0.38418972
000310 29 7f 13 bd 43 16 84 3b 9d 90 7d 3e 8d 41 d3 3e
       -0.03600994 0.004030974 0.24762197 0.4126095
000320 1c 6c 9d bb 10 27 84 3e 0f 66 e2 be 4d 09 4d bf
       -0.0048041474 0.25811052 -0.4421849 -0.80092317
000330 7b 06 20 3e 0a 46 34 be 48 2c 3f be c5 3a c7 bd
       0.15627472 -0.17604843 -0.18669236 -0.09728006
000340 47 df de 3e fa 50 a0 3d 6c 57 68 3d 6b a9 39 3e
       0.43529722 0.07827945 0.056723997 0.18131034
000350 74 54 65 3e 7a 18 0b 3e 6a 6b 8f be ce e2 e6 be
       0.22395498 0.13583556 -0.28011638 -0.45094913
000360 b9 ec e6 3d 62 77 7f 3e 2d 84 67 bd 2a 05 9d 3d
       0.1127562 0.24947885 -0.056522537 0.076670006
000370 2e 26 8c 3e 5d 49 cb 3c e8 ed fd bd f0 b0 8f 3e
       0.2737288 0.024815256 -0.12398893 0.2806468
000380 0b ba e4 3e a4 0a 09 be 11 54 b0 3e 16 97 ac be
       0.4467319 -0.13382965 0.34439138 -0.3370902
000390 5e c8 07 bf 87 59 3d bf 89 5a 9d be d7 86 30 bd
       -0.5304011 -0.7396473 -0.30733135 -0.043097343
0003a0 96 da 07 be c5 f4 a5 3d 13 96 60 3e 81 67 83 3e
       -0.13266978 0.08103327 0.21932249 0.25664905
0003b0 da d7 01 3d 37 fe e2 3e 5f 9b 2e 3e 85 50 75 3e
       0.031699993 0.44334576 0.17051457 0.23956497
0003c0 e7 4d 16 be b9 47 64 be 69 ba a7 be db 7e c1 be
       -0.14678155 -0.22292985 -0.32759407 -0.37792096
0003d0 3b 72 d0 3e 06 50 e7 3d 53 5f b3 3d 99 03 bb 3e
       0.4071215 0.1129456 0.08758416 0.36526182
0003e0 6f 95 35 3d 98 2c 99 be 41 a6 03 be ea 4f 01 be
       0.044331964 -0.29916835 -0.1285639 -0.12628141
0003f0 55 ac 9c 3e f4 19 e3 3e df 16 f5 bd 2b be 5a be
       0.3060023 0.44355738 -0.11967253 -0.21361606

linear.bias f4 [10]
000000 49 80 57 3e 9b 5d e2 be dd 5c 7f 3e 35 27 13 3f
       0.2104503 -0.4421204 0.24937768 0.574817
000010 4d 06 4a 3e 77 30 43 bd fc e3 e1 be b4 c8 21 be
       0.19728966 -0.04765364 -0.4411925 -0.15799218
000020 6b bf 2a bf f8 2e db 3e
       -0.6669833 0.42809272

onnx::Conv_114 f4 [24, 3, 3, 3]
000000 38 4f 6b be 74 16 0d be 45 3e b1 3c e2 39 59 bd
       -0.22979438 -0.13778096 0.021636138 -0.053033717
000010 31 25 b1 bd 49 d4 5d 3d 14 66 92 bd 08 90 66 be
       -0.08649672 0.05415753 -0.07148376 -0.22515881
000020 8b 9f f6 bd f6 fb bb 3d d3 27 bf 3d 49 80 e7 bd
       -0.12042149 0.09178917 0.09333768 -0.11303765
000030 08 46 a4 bc d7 ec 86 3d 14 52 23 be ab ef 2d 3e
       -0.020052925 0.06588142 -0.15949279 0.16985957
000040 f0 62 11 3d d0 ea 16 be 5d 6f 01 3e e1 ce a8 3e
       0.035494745 -0.14738011 0.12640138 0.32970336
000050 67 96 91 3e f5 2f 85 3d d0 ac 6a 3e f6 8a 4a 3e
       0.2843506 0.06503288 0.22917485 0.19779572
000060 6f 6b 11 be 42 9e 91 bd 79 f4 b6 3d 29 76 c6 3e
       -0.14201139 -0.071102634 0.08933348 0.38762024
000070 1b fd 89 3a 60 ad 91 be 4b d6 99 3e 1a 2f 24 bf
       0.0010527702 -0.28452587 0.30046305 -0.6413437
000080 4e 1a ca ba 5f 25 d2 3d 19 bb 1e 3f e3 7f 82 be
       -0.0015419216 0.10261034 0.6200424 -0.25488195
000090 05 4d 04 3e c5 8e e9 3e cf 5b 17 bc 73 5c a4 be
       0.12920006 0.45616737 -0.0092381975 -0.32101783
0000a0 99 3a 1a bf df 90 a5 3e 64 a7 5e bf bb fa 10 3f
       -0.6024566 0.3233709 -0.8697417 0.56632584
0000b0 5c 9e b8 be 5f 38 6e b9 46 f5 6b be 0b aa 37 be
       -0.3605832 -0.00022718449 -0.23042783 -0.1793596
0000c0 e6 22 d1 3b d0 fb 14 be 08 9e 9f 3e 3b 2c 1c bf
       0.006382334 -0.14549184 0.31175256 -0.6100499
0000d0 8e a5 01 3f 97 94 61 3e 09 08 11 be 1b 6d 93 be
       0.5064324 0.22029339 -0.14163221 -0.28794178
0000e0 13 0a 55 be c9 ca a4 bd 1b a6 db bd 6e d6 96 be
       -0.20804624 -0.08046491 -0.107250415 -0.29460472
0000f0 ef 7a b3 3e 26 b6 dd 3d 80 e1 e9 3e db a0 df 3e
       0.35054728 0.10825758 0.45679855 0.4367741
000100 67 d1 b9 3e 67 b9 16 be 4b ea 9c 3e fa 09 c1 be
       0.36292574 -0.14719163 0.306475 -0.37702924
000110 9e 24 e9 be db bc a6 3e b0 a8 2d be 75 e1 f7 be
       -0.4553575 0.3256596 -0.1695888 -0.48414198
000120 81 cf 47 3d 28 c2 91 bd 58 34 46 bd 7f c0 f6 3d
       0.048781876 -0.071171105 -0.048389763 0.120484345
000130 db 4d 82 be 20 70 53 3e 3f 5f 7c 3e 1e 6b 05 bd
       -0.25450024 0.20648241 0.24645709 -0.032572858
000140 e7 4f 82 3e 7d f9 3d 3f 37 6c 76 3e 92 a0 be be
       0.25451586 0.74208814 0.24064718 -0.3723188
000150 c0 b4 a2 3f 75 8e 0c bf dd 79 a3 be 4f b3 0a 3e
       1.271141 -0.5490487 -0.31928912 0.13544963
000160 6b 6a 6d be 59 e2 22 bf 62 3a 47 bf 18 b8 0a 3e
       -0.23185126 -0.6362663 -0.7782346 0.13546789
000170 f7 3d b0 3e 26 d1 2e be c6 f7 53 bf cf 32 6b 3f
       0.34422275 -0.17071971 -0.8279995 0.918744
000180 da b0 e6 3c ac 50 23 3f 3d 32 3e 3e 30 d9 37 bd
       0.028160501 0.6379497 0.18573852 -0.04488486
000190 65 ba 64 3e 14 9f 9f 3c 02 25 1d 3d 8d a5 73 bf
       0.22336729 0.019485034 0.03836537 -0.95174485
0001a0 9e 76 41 3f 95 aa 50 be 6f 7e b4 3e 07 32 87 3d
       0.7557162 -0.20377572 0.3525271 0.06601339
0001b0 fa ac 2f 3e 3c ed cb 3c 90 0a a3 3d 1d 5c 33 bd
       0.17155829 0.024893396 0.07960999 -0.043789018
0001c0 65 7a 85 be 0b cd 95 3e 82 cf 02 bf 73 9b 1c be
       -0.26069942 0.29257998 -0.5109788 -0.15293674
0001d0 30 0e ce bd a5 af d8 3d 7e 28 c1 be cc 59 52 be
       -0.100613 0.105803765 -0.37726206 -0.20542067
0001e0 02 9f 15 3d 90 a4 c0 be 11 82 98 3e 5e bb 90 be
       0.036528595 -0.3762555 0.29786733 -0.2826795
0001f0 94 86 a4 bd 58 0e 06 3e ac 85 82 3d d3 d2 31 3d
       -0.08033481 0.13091409 0.06373152 0.04341395
000200 37 33 2f bc 14 51 70 3d 99 c2 18 be a4 81 d2 3e
       -0.010693363 0.058671072 -0.14917983 0.41114533
000210 63 88 59 3c 14 b4 86 3e 0f 05 5f bb 84 db f0 be
       0.013277146 0.26309264 -0.0034030115 -0.47042477
000220 d7 d2 52 3c 12 95 be be c4 df 0a bf 4b 29 b6 bd
       0.012867651 -0.37223107 -0.5424769 -0.08894595
000230 ee 05 46 be e6 f1 a2 3e 62 53 ab 3e b2 24 89 bd
       -0.193382 0.3182518 0.33462054 -0.06696452
000240 6b 3d 82 bc dc 1e 4e 3f 22 e1 c9 3e ff 66 68 be
       -0.015898427 0.8051584 0.39429575 -0.2269554
000250 e6 47 b8 3e 15 8c c6 3d 25 db e0 be ab 54 e6 3b
       0.35992354 0.09694687 -0.43917194 0.007029136
000260 34 83 bd be d9 d8 d0 bd c9 92 61 be df 5c 82 be
       -0.37014163 -0.101976104 -0.2202865 -0.2546148
000270 93 14 ed bc ff 1c 22 bd fb 74 85 be ac e1 d9 3e
       -0.028940475 -0.039578434 -0.26065812 0.42554986
000280 9a 2f 6a 3e 7e 6c b6 bd 93 68 c9 bd 85 f0 5c be
       0.22869721 -0.08907412 -0.09834399 -0.21576126
000290 bc cb 96 be 21 03 a7 3e dd ea 11 3e 23 f2 12 3e
       -0.29452312 0.32619575 0.1424975 0.1435018
0002a0 15 18 97 3e ea 2f 51 bd b4 27 4e be 67 c9 dd be
       0.2951056 -0.051071085 -0.20132333 -0.4331772
0002b0 78 85 7b be 4c be 50 3e 70 44 49 be 92 39 b1 ba
       -0.24562633 0.20385092 -0.19655013 -0.0013521186
0002c0 86 e3 87 3e f5 f7 72 3d a0 8f 09 3f b9 a5 f5 3e
       0.26540774 0.0593185 0.5373478 0.47978
0002d0 2f 17 d5 3e 78 a4 29 3e ef 6b 84 3e 84 78 78 be
       0.4161925 0.16566646 0.25863597 -0.24264723
0002e0 7f fb f2 be 27 92 da be f7 cc 24 be 95 39 6c be
       -0.474575 -0.4268963 -0.16093813 -0.23068841
0002f0 f3 c0 19 bf 3b 0c c2 bd a4 a3 bf 3b e6 0e 1f 3e
       -0.6006004 -0.09474989 0.005848365 0.15533027
000300 4f 89 79 be 65 75 9d bc 36 e1 ee bd c8 66 b3 3d
       -0.24368785 -0.019221017 -0.11664049 0.08759838
000310 7e e0 d4 3d 43 6c cb bc 44 48 b6 bd c0 b9 9c be
       0.10394381 -0.024831897 -0.08900502 -0.30610466
000320 82 a6 9d bd 02 a7 cb be 08 d8 40 be f2 f2 cd bd
       -0.076977745 -0.39775854 -0.1883241 -0.10056104
000330 da b3 08 3e d4 5d 8b 3e 50 d3 21 3e f3 8c 90 3d
       0.13349858 0.27220023 0.15803266 0.07058134
000340 b6 a9 83 bd ed 6b 3a be 13 ba f8 bc 6b 51 2d 3d
       -0.06428854 -0.18205233 -0.030362165 0.042313974
000350 c0 b4 92 bd 7a ad b7 3e 99 9d cb 3e e8 91 85 3e
       -0.071633816 0.3587454 0.39768675 0.2608788
000360 55 18 39 bd 02 3c cb be 07 33 ee be b1 4c 91 be
       -0.04518922 -0.3969422 -0.46523306 -0.28378823
000370 a4 0d 2b 3e df 79 f6 bd 28 6f bc 3e 90 b0 10 ba
       0.16704422 -0.12034964 0.36803555 -0.0005519474
000380 9a 8a a8 3d 5e f9 2e 3e ae 32 91 be 4f fc 9a 3e
       0.08229561 0.17087314 -0.28358978 0.3027062
000390 13 a3 88 bc 87 56 bd 3e 33 f8 36 3f 2f 31 cd be
       -0.016679322 0.36980078 0.7147247 -0.40076587
0003a0 10 4f 19 be f3 0d 46 3f e3 01 ee 3e d1 32 2a bf
       -0.14971566 0.77365035 0.46485814 -0.6648379
0003b0 fa 78 24 be bb 9c 29 3f 39 fb 8a ba 90 7e ec bd
       -0.16061774 0.66254777 -0.0010603435 -0.115475774
0003c0 66 d6 90 3d a7 aa ee be 8e 6a 6b 3a 26 de f3 bd
       0.07072143 -0.46614572 0.00089804165 -0.11907606
0003d0 bc 48 45 bf 45 8f 9a be e8 37 bb 3e fb e0 a4 be
       -0.7706411 -0.3018743 0.3656609 -0.32202896
0003e0 22 55 ff 3e 7a 75 3d be fa 04 19 3f 8f 99 a9 3e
       0.4986964 -0.18501845 0.5977322 0.33124968
0003f0 dc 36 84 3e 86 8d 8f 3e 98 ec 71 3e 55 33 bf 3e
       0.25823104 0.2803766 0.2362541 0.3734385

onnx::Conv_115 f4 [24]
000000 57 1a 4f 3e 88 d8 26 bd ff f1 22 be 70 7c 05 bd
       0.20224892 -0.040733844 -0.15912627 -0.032589376
000010 50 a2 b1 bd ca 8e cf 3c 95 3f 6b 3e f0 e6 8f bd
       -0.08673537 0.025336642 0.22973473 -0.0702647
000020 c8 ab 00 3e d2 9d 7a 3d 68 5a 1f be 8d 6f d2 bd
       0.1256553 0.061185665 -0.15561831 -0.10275183
000030 77 04 97 3e 22 c3 7b 3c 49 6e 31 3e 2c df 9b 3e
       0.29495594 0.0153663475 0.17327227 0.30443704
000040 22 3f 66 be 28 f3 3e 3c 46 6f 4c be 97 92 fd bd
       -0.22485021 0.011654653 -0.19964322 -0.123814754
000050 58 e1 18 3d 43 06 69 3e 96 d9 5b be f0 c4 6d be
       0.03732428 0.22756295 -0.21469721 -0.23219657

onnx::Conv_117 f4 [24, 24, 1, 1]
000000 59 e3 f9 bc 3b d6 96 3d be 7d 86 be 7e 54 bf 3d
       -0.030503916 0.0736508 -0.2626781 0.093422875
000010 12 81 32 3e f1 a7 8c bd d9 b3 eb bd 20 03 1d be
       0.17432049 -0.0686797 -0.115089126 -0.15333223
000020 cb ad 02 be c6 7f 67 bd 14 be c1 bd 35 21 09 be
       -0.1276161 -0.05651834 -0.09460083 -0.13391574
000030 45 09 00 be 08 78 a6 3c 12 49 84 3d 04 e7 d1 3d
       -0.12503536 0.020320907 0.064592496 0.10249141
000040 ff f7 ee ba 42 d7 d2 3c 7d be 19 3d fa d5 4d bd
       -0.0018231868 0.025737409 0.03753518 -0.050252892
000050 a3 07 94 3d 07 33 f7 3d f8 ac 6a be 08 0d 11 3e
       0.07228019 0.120702796 -0.22917545 0.14165127
000060 89 0e ad bd f1 90 d4 bd e4 b2 16 be 60 59 3c bd
       -0.08450038 -0.10379208 -0.14716679 -0.045983672
000070 81 89 11 bd 10 2b f4 3d a4 3d 5c 3e 72 4c 99 bd
       -0.035531525 0.11922276 0.21507889 -0.07485284
000080 96 8a 0e 3e f4 9d 3c 3d 2f c5 7a bd 7d be 88 bc
       0.13920054 0.046049073 -0.061223205 -0.016692394
000090 b3 9c 86 3c fc 47 a1 b9 c3 2f 2e 3e bc 03 6b bd
       0.016432142 -0.00030761946 0.17010407 -0.05737661
0000a0 65 13 e7 bc 62 2e 35 3e 8d c7 7d bd 4d 02 da 3d
       -0.02820749 0.17693475 -0.061957885 0.1064497
0000b0 08 fe 23 3d 55 86 1f 3e 8b d2 a2 bd 08 8c a6 bd
       0.040037185 0.15578587 -0.07950314 -0.081321776
0000c0 3a eb 39 3d e6 c5 10 3d 89 63 33 bd 45 5f 7b 3d
       0.045390345 0.03534498 -0.043796096 0.061370153
0000d0 46 5d 34 3d 1a d7 37 bc dc 7b 02 bc 96 24 47 bd
       0.044034265 -0.011220718 -0.007964101 -0.048618875
0000e0 bf a4 ff bd cc db 0e bb a0 f3 c7 bd 5e 1c c3 bc
       -0.12482595 -0.002179849 -0.09763265 -0.023817237
0000f0 f4 4f 2e 3c cc 71 ba bd cf e3 0a bd 13 2c 8d bb
       0.0106391795 -0.09103736 -0.03390866 -0.0043082326
000100 97 c1 f0 bc 64 de ee 3c 18 66 87 3d 11 cf 2c bd
       -0.029389186 0.029158778 0.0661127 -0.04218966
000110 22 4c 69 bd da 8b 29 bd 2a 38 50 bc 2b 0e 1b 3c
       -0.05695737 -0.04139314 -0.012708703 0.009463827
000120 fe 60 2c be 51 c4 7a 3e 4b 13 07 bc ca df e2 3d
       -0.16833875 0.24488951 -0.008244346 0.110778406
000130 51 66 13 3e 2c 77 a6 3c 58 97 66 bd a1 fd e2 3b
       0.143945 0.020320497 -0.056296676 0.0069272076
000140 ad 90 32 be 73 a1 43 3e cc 33 83 bd 8d 97 0b 3e
       -0.17438002 0.19104557 -0.06406364 0.13632031
000150 3f 48 5b be fb 9b 8a bd c7 e7 70 3d ec 13 84 3a
       -0.21414278 -0.06768032 0.05881479 0.0010076738
000160 0e 6b 1f 3c 5e 24 19 3e ba 2b 30 3e 1a 50 2a 3e
       0.009730114 0.14955279 0.1720418 0.16632119
000170 aa 15 6f bd 7d 7c 9d bd 73 ef 83 3c 04 a4 0f 3d
       -0.05837027 -0.0768976 0.01610539 0.035068527
000180 36 a5 b7 bd 81 9c 18 be e1 55 18 be 61 1b 0d 3e
       -0.08967058 -0.14903452 -0.1487651 0.13779975
000190 5f d0 8f 3d ea 3e d1 be ca 1e db 3d 8b 6d a9 3d
       0.070221655 -0.40868312 0.10699232 0.08272847
0001a0 45 30 f5 3c c1 a2 c0 be dc 0b 8a 3e 91 60 5e be
       0.029930243 -0.3762417 0.26962173 -0.21716525
0001b0 56 dd d3 bd 24 6c ab be ff 08 2c be 09 36 0d be
       -0.10344951 -0.33480942 -0.16800307 -0.13790144
0001c0 39 d0 0e 3e 54 18 bb bd 25 7c fe 3e 16 80 b1 3d
       0.13946618 -0.091354996 0.4970409 0.086670086
0001d0 3f 75 10 be 36 5d f7 3b 45 08 25 be 3f 57 e8 3d
       -0.14107226 0.0075489534 -0.16116436 0.11344766
0001e0 4b 5d 51 3d ac e3 64 bd 69 f5 04 be 92 61 6b be
       0.05111436 -0.055881187 -0.12984242 -0.22986439
0001f0 63 d1 bc bd b3 fb cc 3d d4 2d 65 bc d8 46 9a 3d
       -0.09219625 0.10008945 -0.013987977 0.075330436
000200 64 bc d9 bd d5 bf b6 bd 05 f5 03 3d 42 68 64 3e
       -0.10631636 -0.08923308 0.03221609 0.22305396
000210 73 29 3b 3e 62 82 94 3c de f2 44 bd b6 41 3b 3e
       0.1827753 0.018128578 -0.04808318 0.18286785
000220 31 08 07 bb 04 44 0d 3e 34 74 75 3c fa e8 ea bb
       -0.0020604248 0.13795477 0.014981318 -0.0071688863
000230 f6 67 6b 3d 7e 5a 7d 3e 7f 64 c7 bd eb 2b 4d be
       0.05747219 0.24741551 -0.09735965 -0.20036285
000240 53 27 d6 3c d5 90 a4 bd 8b 42 10 be 3a 7e d1 bd
       0.026141798 -0.08035437 -0.14087884 -0.10229154
000250 b2 f4 95 3c 9d b1 f3 bd 54 45 dd bd 70 75 1b be
       0.018305156 -0.118991114 -0.10804239 -0.15181518
000260 4a 19 df 3d e4 0e 3c bd 9b c3 d6 bd c9 af 64 bb
       0.108934954 -0.04591264 -0.104865275 -0.0034894815
000270 88 1f e3 bc c0 69 1d bd 4e 1e 8f 3c 1f 5a b6 bc
       -0.027724996 -0.03843093 0.017470505 -0.02225977
000280 50 67 02 3e 4b e3 b2 bd 36 ca 56 3d f7 0d 0c be
       0.12734723 -0.08734759 0.052438937 -0.13677202
000290 4e d6 c6 3d d9 26 9c 3b d0 cc c3 3c e5 fa 86 3c
       0.09708844 0.004765373 0.023901373 0.016477058
0002a0 e1 d1 95 be 1a a2 02 3e 6d ab 52 be da f1 5b 3e
       -0.29261687 0.1275715 -0.20573206 0.21478978
0002b0 fc 9c f1 bd e3 8d 5d bd 79 d2 3a 3e b2 2d 27 3c
       -0.117975205 -0.05409039 0.18244351 0.010203766
0002c0 d0 a4 a6 bd 9d b8 00 be a5 79 6b 3d 65 be 92 bd
       -0.08136904 -0.12570424 0.057489056 -0.07165221
0002d0 d0 ee 84 3c 34 cc d0 3d d0 1b 74 3d 05 f2 ae bd
       0.016227156 0.10195199 0.059596837 -0.08542255
0002e0 83 85 7a 3e 7b 65 db bd 89 44 1d bd f4 ce ff bc
       0.24464993 -0.10712715 -0.03839544 -0.031226613
0002f0 02 63 95 3d 2f 37 0e 3e 5f c0 d6 3d 6a 62 a6 bc
       0.07294275 0.13888238 0.104859106 -0.0203106
000300 ec 15 26 3e b0 25 5a bd 92 c3 42 3b d7 e4 bd be
       0.162193 -0.053258598 0.002971862 -0.37088653
000310 35 06 ed 3c 08 27 11 3e 3c b0 bb be 31 1f be bd
       0.028933624 0.14175045 -0.36657894 -0.09283293
000320 53 da 9d 3d 32 2e 82 be 24 c8 ae bd d9 47 c3 be
       0.07707658 -0.2542587 -0.085342675 -0.38140753
000330 a8 36 29 be b5 08 4c 3e 80 7f 33 3d 4a 09 6f 3e
       -0.16524756 0.19925196 0.043822765 0.23343387
000340 1b 8b 32 be a6 77 98 bc ea 41 57 be 86 b4 05 be
       -0.17435877 -0.01861174 -0.21021238 -0.13057145
000350 57 5a f3 bd a0 ac 7f 3e 9c 29 0d be 4e a4 f7 3b
       -0.11882465 0.24968195 -0.13785404 0.0075574284
000360 64 ce 87 3a b2 6d 27 3c da 2e 3a 3e cb 54 5c bd
       0.0010361192 0.0102190245 0.18181935 -0.053791802
000370 74 26 c2 bd c8 97 37 3d ce b8 5e bd de 60 0e 3e
       -0.094799906 0.044822484 -0.054375462 0.1390414
000380 2c d2 60 bd 5f e7 f4 bd c2 f1 de 3d a4 20 cd bd
       -0.054887936 -0.11958193 0.108859554 -0.10015991
000390 db e9 1a be f1 f8 8f 3d a7 4f 36 3d bf 4b 3a 3e
       -0.15128271 0.07029904 0.044509556 0.18192957
0003a0 35 87 54 3b 73 19 60 3d 80 fa a4 bb f6 1f 50 3d
       0.0032429222 0.05471177 -0.0050347447 0.05081173
0003b0 1d f0 1a be 24 0c 7b 3d 49 d0 48 3d 62 b1 77 be
       -0.15130658 0.061290875 0.04902676 -0.2418876
0003c0 b0 58 17 3d d0 62 d6 bd 9d 85 50 3c d5 49 8e bd
       0.036949813 -0.10468066 0.012727168 -0.06947676
0003d0 6b 24 eb 3c 3c 5b 4a bd 19 27 dc bc 7c c1 96 3c
       0.028703889 -0.049403414 -0.026874112 0.018402807
0003e0 35 26 d9 bc 29 19 56 bc de 78 ec bc aa bc da bb
       -0.026507476 -0.013067522 -0.028866228 -0.0066753225
0003f0 f2 c0 e5 bd a7 10 27 bd 2c 27 41 bd 2b 90 0a be
       -0.11218442 -0.040787365 -0.047156498 -0.13531558

onnx::Conv_118 f4 [24]
000000 32 69 b5 be 66 5d 8d 3e 95 53 0c 3f f6 a3 42 3f
       -0.3543182 0.2761032 0.54815036 0.76031435
000010 20 f9 19 bd 65 22 b5 be e2 d5 f2 3e 0e 41 b0 3e
       -0.0375911 -0.35377803 0.47428805 0.34424633
000020 1a bb 95 bd 10 41 39 3f 22 5f 4b 3f 0a 4f f0 bd
       -0.073110774 0.723649 0.79442036 -0.117338255
000030 15 a8 61 3f 7b 01 4f 3e 16 a8 25 bc 6c 24 23 bd
       0.881471 0.20215409 -0.010110876 -0.039829656
000040 32 26 02 3d 90 01 fd 3e 48 18 05 3c d4 6d 1b 3f
       0.031774707 0.49415255 0.008123465 0.6071446
000050 95 53 26 bf 2c 8d a7 3d 89 07 90 be 52 ef da 3e
       -0.64971286 0.08181223 -0.2813075 0.42760712

onnx::Conv_120 f4 [24, 1, 3, 3]
000000 ec 83 d4 3e 3e f3 4e 3f 40 0f 9f bd 90 b2 51 3f
       0.41506898 0.8083991 -0.077665806 0.8191309
000010 0f 16 8b be 42 85 56 3f 98 d1 d5 3e 9a 9f 36 3d
       -0.27165267 0.83797085 0.4176147 0.0445858
000020 b5 bb 0e bd cc f0 c1 bf 5f bf b8 bf 55 a3 00 3f
       -0.03484698 -1.515161 -1.4433402 0.50249225
000030 ff 20 8c 3e d3 b1 48 be 35 b4 1f bf 1b 11 94 3f
       0.27368924 -0.19599085 -0.6238435 1.156772
000040 9b d5 c7 3f 69 25 b0 be 7e 31 14 40 bf 4f 13 bf
       1.5612062 -0.34403542 2.3155208 -0.5754356
000050 1c 3a 1b c0 93 be 86 3d 52 86 e6 3f a5 87 00 c0
       -2.4254217 0.06579318 1.8009741 -2.008279
000060 be 0d 66 3f 6d 5a 29 c0 8a d7 c8 3f 1b 00 38 3e
       0.8986472 -2.6461442 1.5690777 0.1796879
000070 15 b8 4d 3f d3 06 7f bf db 81 1f 3f 8e 27 24 c0
       0.8035901 -0.9961979 0.6230752 -2.5649142
000080 79 58 7e 3f f0 bd af be 7b 07 0f 3f f4 2f 2e 3f
       0.9935375 -0.34324598 0.5587079 0.6804192
000090 17 e4 03 3f ba c4 3c 3f ad 85 5b be 4d 5e b1 bd
       0.5151991 0.7373768 -0.21437712 -0.086605646
0000a0 1c c4 1e 3e 81 ad 49 3f 0f 37 fb bc 7e e0 4c 3e
       0.15504497 0.7878037 -0.030665902 0.20007512
0000b0 f2 87 df 3e fe 0d 28 bd ee a6 69 be 07 8c cc bd
       0.43658406 -0.04102897 -0.22817585 -0.099876456
0000c0 e6 0c 30 bf 39 78 71 bf 28 c2 af be 4c ee 46 be
       -0.6876968 -0.9432407 -0.34327817 -0.1942684
0000d0 08 d3 06 bf 3d 2f 09 bf 6e cf 5f 3e 0f 5b d2 bf
       -0.5266576 -0.53587705 0.21856472 -1.6434039
0000e0 b9 f9 e0 be b1 2f 26 3d 8d 61 14 40 8a 27 cf 3f
       -0.43940523 0.040572826 2.318454 1.6183941
0000f0 9b 91 ab 3d 66 39 d2 bf b9 c6 90 bf 0e 04 a7 bf
       0.083773814 -1.6423767 -1.1310645 -1.3048112
000100 54 70 ea be af 69 64 3f 67 6b 95 bf 23 6e 00 3f
       -0.45788825 0.8922376 -1.1673402 0.50168055
000110 1f 6a 58 3f ed c8 cb bf 05 ba 0c 3f 04 0b 83 3f
       0.8453693 -1.5920693 0.54971343 1.0237737
000120 91 50 c2 3e d4 59 33 3d 04 5c a8 be d5 40 02 3e
       0.37952092 0.04378684 -0.32882702 0.12720044
000130 6d e5 c1 3c 51 ee 60 be 63 7e b2 be b2 ac 40 bf
       0.023668969 -0.2196591 -0.3486205 -0.7526351
000140 1a a6 27 bf b6 0e 13 3e 33 d2 99 bf 40 0f a8 bf
       -0.65487826 0.1436108 -1.2017273 -1.3129654
000150 56 34 0d be ca da 61 3f 3e 00 d5 3f 1d 1f 29 bc
       -0.13789496 0.8822447 1.6640699 -0.010322359
000160 56 7f ab 3e b7 bf a9 be 3a 12 c3 3e 15 08 55 bf
       0.33495587 -0.3315408 0.38099843 -0.8321546
000170 c1 66 e6 3e 8e 0c 99 3f 60 cf 33 c0 1c f5 06 40
       0.4500027 1.1956956 -2.8095322 2.1087103
000180 41 1f 8c be 8f 65 82 bf 47 b6 b4 3f 6b 6d ee 3e
       -0.27367595 -1.0187243 1.4118127 0.46567854
000190 94 79 bb bf 04 3a 3a bf 48 c7 96 bf e9 49 0e 3f
       -1.4646478 -0.72744775 -1.1779566 0.5558153
0001a0 f2 28 7c 3f f1 59 14 3f 7f 00 57 3e e8 af 0e 3f
       0.9849998 0.5794974 0.20996283 0.5573716
0001b0 07 b6 c3 bf d7 4f 87 3f a7 e2 cd 3e 1e ed ee bf
       -1.5289925 1.057124 0.40211985 -1.8666112
0001c0 1e 79 e2 3f 20 a6 43 bf 04 c1 8f bf 2a 87 2d 40
       1.7693212 -0.7642536 -1.1230779 2.7113748
0001d0 4a ab 55 bf 4a b1 84 bf a5 cf 4b bd b7 4a 34 3e
       -0.8346449 -1.0366604 -0.049758572 0.17606626
0001e0 8d 80 90 bf 8b 02 bf 3d ab 47 48 3f 5e 62 2c bf
       -1.128923 0.09326657 0.78234357 -0.67337596
0001f0 dd 79 01 bf d1 6a ac 3f 8f b3 09 3f 1e ee 4a 3c
       -0.50576574 1.3470098 0.5378961 0.012385873
000200 fd a3 64 3d a1 73 34 3e ca 43 26 3f c3 41 b5 bc
       0.055820454 0.17622234 0.6494719 -0.022126084
000210 53 3a 1b 3e 2a fd 09 3f 19 f9 39 3d db d1 cf 3e
       0.15158968 0.5390192 0.045403574 0.40589795
000220 43 66 ea 3e 21 1f 39 be 8c b1 1d 3f c1 ea ce 3e
       0.45781144 -0.18078281 0.6159904 0.40413478
000230 cd ac 8c 3d 2e ad 69 be 0f 23 51 3f c0 93 cd 3e
       0.06868897 -0.22819969 0.8169412 0.40151787
000240 de 2b e7 be ee 1b 85 3e 9a 0e 0a 3f 01 20 c2 be
       -0.45150656 0.2599787 0.5392853 -0.37915042
000250 18 25 a3 be 50 e5 eb 3c 20 ae e9 be fe 81 77 bf
       -0.31864238 0.028795868 -0.4564066 -0.9668273
000260 ca 8a e0 be 8e 5c 84 be 5a 6b 0a 3f 09 68 ad 3e
       -0.43855888 -0.25851864 0.54070055 0.33868435
000270 dd 5c 9a 3f b6 a9 b7 3f 26 e2 b5 bf ed 38 9a 3f
       1.205959 1.4348667 -1.420964 1.2048622
000280 8c ba bb bf f8 3c 90 bf 77 71 4a be ba 9a 17 bf
       -1.4666305 -1.1268606 -0.19769846 -0.5922047
000290 39 e0 50 bd 82 53 97 be 6e e8 bc 3d 84 44 cb bd
       -0.050995085 -0.295559 0.0922402 -0.09925178
0002a0 97 49 a0 bd 07 dc 23 bf 05 01 44 bf b4 21 2a bf
       -0.07826536 -0.6400761 -0.76564056 -0.66457677
0002b0 cf 90 ba bf d9 f4 b6 bf 64 38 37 bd 2d ad 2f be
       -1.4575442 -1.4293472 -0.044731513 -0.17155905
0002c0 ac 22 6d 3f d3 1f 9d 3e ff 85 0d be 74 8f d1 3f
       0.9263103 0.30688342 -0.13820647 1.6371903
0002d0 39 78 3f bc 15 fb 10 bd 00 8f 63 be c6 ad 13 3e
       -0.011686378 -0.0353957 -0.22222519 0.14421758
0002e0 19 c0 c0 3e 41 ce 39 3e ae ff 94 3e 12 ff 88 3e
       0.3764656 0.18145086 0.29101318 0.26757103
0002f0 c7 f8 87 3e 52 78 5f be 13 85 e4 3e 79 1c 52 be
       0.2655699 -0.21823242 0.44632778 -0.20518674
000300 38 fb 02 bc 6c 5a 64 3e ba ed d4 3d 6c fd c1 3d
       -0.0079944655 0.22300118 0.10396905 0.094721645
000310 49 d8 b0 3e 47 84 c5 3d 72 7a 14 bf 7c 1d a0 3f
       0.34540012 0.096443705 -0.57999337 1.2508998
000320 b0 46 12 bf 6e b3 98 bf 1b 39 33 3f d1 f8 7e 3f
       -0.5713911 -1.1929758 0.7000901 0.99598414
000330 3b 65 53 bf dd a5 08 bf 86 55 4a 3f 0a 2b 07 bf
       -0.8257634 -0.5337809 0.7903675 -0.5280005
000340 8d 97 80 bf a3 d5 be be de d0 4e bf 85 eb 79 3d
       -1.004625 -0.37272367 -0.80787456 0.061015625
000350 42 c5 8c 3f ef 7d 00 3f 1d b3 4f 3f a1 46 31 3f
       1.0997698 0.5019216 0.8113268 0.69248396

onnx::Conv_121 f4 [24]
000000 3c e5 dc bd 4d 37 94 3e cc 46 fd 3e 0f 10 29 be
       -0.107859105 0.2894844 0.49468076 -0.16510032
000010 0f d9 f9 be 35 ac 8d 3f b2 a9 3b 3e df a6 e5 3d
       -0.48798415 1.1068178 0.18326452 0.11213469
000020 60 d0 2f 3f 08 45 5a bc e6 66 dd be 9d 6f 2e bd
       0.6867733 -0.013322122 -0.43242568 -0.04258691
000030 01 4a 3e 3e cd 2b 79 3e 7c e1 cd bd 90 59 fa bc
       0.18582918 0.24333115 -0.10052773 -0.030560285
000040 fe 2d 68 3f 5b 25 7c be e4 51 92 3f 6a cf 29 3f
       0.9069518 -0.24623625 1.1431241 0.66332114
000050 d0 93 86 bc 60 ab b9 3c 4f c2 46 be 28 3e 8b be
       -0.016427904 0.022664726 -0.1941006 -0.2719586

onnx::Conv_123 f4 [12, 24, 1, 1]
000000 d0 c6 be bd 8d 1f 22 3e 54 1a 4b bd 6d 88 58 3e
       -0.09315264 0.15832348 -0.049585655 0.21145792
000010 e3 ea 73 bd 15 87 92 3e bb 60 6c 3e 24 9a da be
       -0.059550177 0.28618684 0.23083775 -0.42695725
000020 b1 51 8a be 3b 34 83 3e b6 67 3b bd 8a b8 af 3d
       -0.2701545 0.25625786 -0.045753203 0.0858012
000030 f7 73 3f 3c b9 87 08 bf 75 05 09 be 60 4e 0e bf
       0.011685363 -0.53332096 -0.13380988 -0.5558834
000040 94 63 01 bf 17 a0 c9 be 40 01 e6 3d 24 68 14 3e
       -0.5054257 -0.3937995 0.11230707 0.14492851
000050 b2 3d 71 bd 61 1d e0 bd 5c d9 64 3e 29 31 d6 3e
       -0.058896728 -0.109431036 0.22348541 0.4183438
000060 13 c3 35 3c d9 e8 98 be 2e 14 04 bf 10 5a ab be
       0.011093873 -0.2986515 -0.5159329 -0.3346715
000070 67 f1 68 3d 25 12 a4 bd c4 fd 0e 3e d3 0d 86 3e
       0.056870844 -0.08011273 0.13963991 0.26182422
000080 6a fc 8b 3d 9d fe 55 3e 8e 96 e9 3e 03 f4 1d 3f
       0.068352535 0.20897909 0.45622677 0.6170046
000090 83 98 fc 3e 87 28 9d 3d f5 3f 7f be a8 b1 1b bf
       0.49335107 0.076737456 -0.24926741 -0.60817957
0000a0 1a a7 08 3e fb 22 51 3e 32 8c c0 3d 8f e6 18 3e
       0.13344994 0.204235 0.0940174 0.14931701
0000b0 d4 23 b2 be df 59 52 3e 2a 75 8b 3c 3f 05 93 3e
       -0.3479296 0.20542096 0.017023642 0.2871494
0000c0 44 0a ad 3e 7e 6b a1 3e 09 25 62 be e0 18 ba be
       0.33796895 0.31527323 -0.2208444 -0.36347103
0000d0 92 dd e9 be a8 7d f2 3d f6 65 e2 3e de 56 89 bd
       -0.45676857 0.11840373 0.44218415 -0.06706022
0000e0 94 ce 1a be 7d 04 0a 3f 92 ca 96 3e ef ef c2 bd
       -0.15117866 0.539131 0.29451424 -0.0951842
0000f0 e1 d7 cb 3e 44 9c 22 3e 36 de bb 3e 91 41 9b 3e
       0.3981314 0.15879923 0.3669297 0.3032346
000100 c9 8a 3f bd df 5b f3 be 42 08 da be a4 04 f5 bd
       -0.046763215 -0.4753103 -0.42584425 -0.11963776
000110 bf 8e 2c 3e 57 25 76 be 7e 92 03 bd 49 33 26 3d
       0.16851328 -0.24037682 -0.032122128 0.040576253
000120 01 98 60 bd 63 91 9f be 56 67 2b be c0 45 8d be
       -0.054832462 -0.3116561 -0.16738638 -0.27592278
000130 f3 38 7d 3e d2 35 37 3e 3e 86 d2 3e 71 df 83 3d
       0.24728756 0.17891625 0.41118044 0.064391024
000140 7a 78 a0 3d 55 83 65 3e 99 1f 2c 3f 1a 6f f7 be
       0.07835479 0.2241338 0.67235714 -0.4832695
000150 32 af 1d 3f 29 1a a2 be ba 5d 2b bf 12 5c 4c bb
       0.6159545 -0.31660584 -0.6693989 -0.0031182808
000160 89 e7 b5 3e 50 ae ea bd ca f9 2e 3f 74 fe d1 3e
       0.3552821 -0.11459029 0.683499 0.41014445
000170 1a 00 2e 3f 47 77 7d 3e a9 19 90 3e 19 a5 21 3e
       0.67968905 0.24752532 0.28144577 0.15785636
000180 a6 f5 1e 3d 4b ee 99 be e1 ea d0 bd a6 ec 82 be
       0.038808487 -0.30064616 -0.102010496 -0.25571173
000190 ef 30 7a 3e f8 74 49 3e 0e 47 18 be 08 62 aa 3e
       0.24432729 0.19673526 -0.14870855 0.33277917
0001a0 cc 31 6a bb f8 29 a2 be 34 d5 6e 3e 1e b9 a0 3e
       -0.0035735248 -0.31672645 0.23323518 0.31391233
0001b0 82 0a 50 3e 5e 08 32 3e ae 8d 14 3f b9 fb 2c 3e
       0.20316508 0.17386004 0.58028686 0.168929
0001c0 ad be c6 bd 79 7c f4 bb 9d 73 6a be 53 b3 56 be
       -0.09704337 -0.0074611274 -0.22895665 -0.20966844
0001d0 5f 70 ce be 3f a8 23 bc f2 ee 83 3e 8f e3 f9 3e
       -0.40320107 -0.009988843 0.25768238 0.48806426
0001e0 63 d3 bd be 13 87 43 3d 0d 3c f7 bd 91 22 33 3d
       -0.37075338 0.04773624 -0.12072001 0.043734137
0001f0 f7 48 05 be dc ea 35 bd 53 42 91 be 3a ed bf bd
       -0.13016115 -0.044413432 -0.28370914 -0.09371419
000200 2c 21 de 3e bc 25 4c be 66 ee 2d 3e 17 db 29 bd
       0.43384683 -0.1993627 0.16985473 -0.041468706
000210 3e 89 3d 3e 35 e2 bc 3e 2d 4a b6 3d f7 54 96 3e
       0.18509385 0.36891332 0.08900867 0.29361698
000220 0c bf 28 3e 2c c5 44 bd 28 bc 8e 3d 05 bc b0 3e
       0.16479129 -0.0480396 0.06969482 0.34518448
000230 be 18 c0 bd e3 56 2b bf 4b 83 9b 3e fe e4 b4 be
       -0.09379719 -0.66929454 0.30373606 -0.35330957
000240 36 a3 b6 bd f4 11 bf 3e 9f fc c5 3d 48 9d d1 3e
       -0.08917849 0.37318385 0.09667324 0.4094031
000250 bd ac 30 3e 5b da eb be bd 7d 8a bd 66 9c 72 be
       0.17253394 -0.4606503 -0.06762264 -0.23692474
000260 cf 8a d7 3c 6c aa b5 3c cb e4 1f 3f c3 6d a0 be
       0.026311306 0.02217599 0.62458485 -0.31333742
000270 4b 82 22 3f 55 57 d3 3e 67 a0 e5 be bb 3b c9 be
       0.6348006 0.41277567 -0.4484894 -0.39303383
000280 9f 13 de bd bb 75 b2 be 61 08 80 be e8 3f c4 be
       -0.10843586 -0.34855446 -0.25006393 -0.38330007
000290 24 9d 9e bc e2 c4 02 3e 89 b8 8c 3e b0 74 29 bd
       -0.01936204 0.12770417 0.2748454 -0.041371047
0002a0 37 2c d0 3e 6e 85 fc bc 02 0b 34 bf a6 f7 0c bf
       0.40658733 -0.030825343 -0.70329297 -0.5506538
0002b0 6d 17 87 3e d7 47 af 3e 08 ad 26 3d 92 2d a6 bd
       0.2638506 0.34234497 0.04069236 -0.081141606
0002c0 74 84 ff 3e 0b 38 53 3d 88 b7 5a be 5b 1e 6c be
       0.4990574 0.05156712 -0.21359074 -0.23058455
0002d0 58 9c 20 be 76 73 74 bd d8 e1 e2 3d 96 e3 61 be
       -0.1568464 -0.059680425 0.110782325 -0.22059473
0002e0 04 a3 7d 3e d4 92 d6 be c1 53 36 be f7 0e 92 bc
       0.24769217 -0.41908896 -0.17805387 -0.017829401
0002f0 a8 b5 09 3e 9d ad 6c bd d7 0e 03 bf ef 90 0e be
       0.13448203 -0.057782758 -0.5119452 -0.13922475
000300 5d fb 38 3e 27 62 79 be 92 97 ee 3e b9 a3 0a 3f
       0.18064637 -0.24353848 0.46600014 0.5415607
000310 61 f8 7a be e0 26 96 3e da 72 e4 3d 78 ed c8 3c
       -0.24508812 0.29326534 0.11154719 0.024527296
000320 2a 1b 0e 3e 61 f4 41 bd 50 ea 46 be f7 74 b5 be
       0.1387755 -0.0473522 -0.1942532 -0.354408
000330 1c 48 6c bd 78 34 4e 3e e0 2d 16 3d 5a f1 cf be
       -0.057685956 0.20137203 0.036664844 -0.40613824
000340 a7 b1 66 3e 80 55 b4 3d 79 33 18 be b4 21 c7 3e
       0.22528706 0.0880537 -0.14863385 0.388929
000350 63 10 05 bf d2 1b 70 bd 64 c5 bb be 24 ea 11 3f
       -0.5197813 -0.05862028 -0.36674035 0.56997895
000360 b7 23 79 3d 40 aa fe 3e 3e f5 cc 3e 37 ba c9 3e
       0.060825076 0.49739265 0.40030855 0.39399883
000370 ec e2 cf 3c f4 3b 6a 3f 6e 1a 07 3e 2d 79 56 be
       0.02537676 0.9149773 0.13193676 -0.20944662
000380 f6 11 b1 3e 24 40 0d 3e 4d 2c 2a bf 64 22 e3 3e
       0.34584016 0.13793999 -0.6647385 0.44362175
000390 8c 20 07 bf 92 b4 32 3e db 1b 15 3c d2 46 bc bd
       -0.5278404 0.17451695 0.00910088 -0.091931954
0003a0 38 13 22 3f 31 25 8a bd 31 55 0f 3f c4 9f 26 3e
       0.63310575 -0.06745375 0.55989367 0.16271883
0003b0 c6 b4 50 3e 17 25 bb 3e 0f c4 54 3e 37 69 72 3e
       0.2038146 0.36551735 0.20777915 0.23672949
0003c0 c6 a1 80 be 0e 16 96 be 55 2a 32 be ee e0 6e be
       -0.25123423 -0.293137 -0.17398961 -0.23327991
0003d0 50 80 7f be 34 21 e2 3e d0 1b 71 3d bc a4 a0 be
       -0.24951291 0.44165957 0.058864415 -0.31375682
0003e0 34 cc e4 3c 7e 39 ca bc ad 0a 7a 3e 7f 28 b8 be
       0.027929403 -0.024685618 0.24418135 -0.35968396
0003f0 89 b7 94 3e 74 83 9e be 9a 73 c5 3e 30 05 18 3e
       0.29046276 -0.30959666 0.3856476 0.14845729

onnx::Conv_124 f4 [12]
000000 ed 92 63 3e 4d a9 0e bf 36 b3 03 bf 67 76 df bf
       0.22224016 -0.5572708 -0.5144533 -1.7458009
000010 aa 40 f0 be 1e 9e 6e 3e f4 c9 e1 3e 42 fd 78 3e
       -0.46924335 0.23302504 0.4409939 0.2431536
000020 7e 5d ae be ba 6d 00 c0 80 ec 07 bf 6e af ca 3d
       -0.34055704 -2.0066972 -0.53095245 0.09896742

onnx::Conv_126 f4 [24, 12, 1, 1]
000000 c2 b9 df bd e3 ac 8c be 9c 53 f5 3d 0d 90 81 3e
       -0.10924102 -0.27475652 0.11978838 0.25305215
000010 37 f0 fd 3e 0c 6f 02 bf 20 dc 5d bf 0d 94 42 be
       0.49597332 -0.50950694 -0.8666401 -0.1900179
000020 f8 4c 75 be 8f 2f 67 3d 5d 1b e3 3e 1f 8d 06 3d
       -0.23955142 0.05644184 0.44356814 0.032849427
000030 4b 3a 01 bf 4b b1 93 3e 50 a5 aa 3c 59 52 3b 3d
       -0.50479573 0.288462 0.02083078 0.04573283
000040 9e e6 28 bf f5 51 e0 be ef 51 f5 3e de a4 15 3e
       -0.65976894 -0.43812528 0.47914073 0.14613673
000050 96 99 95 3e 97 84 27 3e bc 0b d8 be e4 15 af 3e
       0.2921874 0.16359173 -0.42196453 0.3419639
000060 1b 5a 9a bd b8 1d 91 bd 2a ca 17 be 7a 2a 9b 3e
       -0.075367175 -0.070857465 -0.14823213 0.30305845
000070 e8 e1 99 bb b5 fb 68 3d 6b e6 72 be 9c b9 78 be
       -0.0046961196 0.05688067 -0.2372071 -0.24289554
000080 1a 0a 43 3e 29 9a 5f 3e 33 eb 09 bf 9c 68 bc bc
       0.19046822 0.21836151 -0.5387451 -0.0229991
000090 af e3 73 3e 59 16 92 3d c1 e7 b0 3e 8b 4d 88 be
       0.23817323 0.07133169 0.34551814 -0.2662166
0000a0 dd 36 83 3c 40 2b e5 3e d4 17 91 be 98 8d 7a be
       0.016017372 0.4475956 -0.28338492 -0.24468076
0000b0 d4 42 c0 3e b6 2d 41 be e1 29 62 bd 3b 0b 38 be
       0.37550986 -0.18865094 -0.05521572 -0.17973034
0000c0 0d e3 8a 3d 8c 0a 34 3e 97 0e 89 bb a4 06 15 3e
       0.06781588 0.17582148 -0.0041826474 0.14553314
0000d0 cb 2f 3c 3d 25 f4 a4 3d 83 25 42 3e bf 5e 1f be
       0.045944016 0.080543794 0.18959622 -0.15563487
0000e0 39 80 b2 bd 83 85 91 3c b6 25 07 bd 27 77 a4 bd
       -0.08715863 0.017763859 -0.03299495 -0.08030539
0000f0 70 d9 87 be ac 27 bb be 7f 56 46 bf c6 cc 45 3e
       -0.2653308 -0.36553705 -0.7747573 0.19316396
000100 56 0c 39 3e f1 63 e7 bd 3d 52 e4 3e bd 93 14 3f
       0.18071112 -0.11298359 0.44593993 0.5803793
000110 c2 f6 40 bf 00 67 97 bd 44 c3 f0 be 98 15 20 3f
       -0.7537652 -0.073926926 -0.47023976 0.6253295
000120 bd a1 32 3f ac c9 d3 3e fa 68 33 bf ef 39 9f bf
       0.69778043 0.413648 -0.70082057 -1.2439555
000130 62 e9 26 3f 28 4d c3 be 64 5c ff 3d d3 6a 8f be
       0.65199864 -0.38144803 0.12468794 -0.28011188
000140 41 96 6e 3f db bd ac 3e df fa a6 be 87 af 04 3d
       0.9319802 0.33738598 -0.32613274 0.03239396
000150 92 b6 d2 3d d5 fe 5c bb ce 5e c9 bc b3 cb 4a bc
       0.10288729 -0.0033721228 -0.02458134 -0.012377667
000160 7b fb 4f 3c 93 4b 2f bd dc 98 4c bd 26 91 1d 3e
       0.012694235 -0.042796683 -0.049950466 0.15387401
000170 b6 fe 8f 3d b0 4b 81 3d 6b a0 59 3c 20 2e 5e bc
       0.07031004 0.06313264 0.0132828755 -0.013560802
000180 c2 a8 58 3d e0 bf cf be 63 50 f9 3e 2d 83 e8 be
       0.052895315 -0.40576077 0.48694143 -0.4541258
000190 b8 31 b9 be 69 5d ba bd 31 62 39 3e 94 e0 e6 be
       -0.36170745 -0.09099848 0.18103863 -0.45093215
0001a0 df 81 17 3e d0 eb c9 3a 45 7c f5 3e ef ac 36 bd
       0.14795636 0.0015405361 0.47946373 -0.044598516
0001b0 ba 28 11 3e 50 9b 2d bd 22 de c1 bd ba 4f 14 3e
       0.14175692 -0.042384446 -0.094661966 0.14483538
0001c0 11 42 d1 bd 4c 53 5c 3d 7f f1 02 3e ea 7b cc bd
       -0.10217679 0.053790376 0.12787436 -0.09984572
0001d0 3d b9 91 3d 3a 00 19 be 16 f9 e8 3d 7d 43 2b 3e
       0.071154095 -0.14941493 0.11375634 0.16724963
0001e0 6d 47 1a be 4f fa 00 3e 59 9f 30 3e 0f d4 00 be
       -0.1506631 0.12595485 0.17248286 -0.12580894
0001f0 e4 06 2b 3e 5f 3a 54 bc 3c ec 89 3d 68 85 69 be
       0.16701847 -0.01295337 0.06734511 -0.22804797
000200 94 39 eb be c9 9e 17 3f 12 26 3f 3e 97 83 09 3f
       -0.45942366 0.5922666 0.18666866 0.53716415
000210 0b 72 be bd bb 2e 48 3d ae 47 41 3d 2f db 10 bd
       -0.09299096 0.04887269 0.0471875 -0.03536528
000220 29 b5 c3 3d d1 6f d6 bd f4 c3 4c 3d 28 e8 15 be
       0.09556038 -0.10470546 0.049991563 -0.14639342
000230 2f 40 c9 bd 6b 2e 6b be 43 14 e9 bd 6a d0 cd 3d
       -0.09826695 -0.22966926 -0.11380818 0.100495175
000240 d9 40 04 bd 5d 62 4f be f5 69 36 3e 67 7e de 3d
       -0.032288406 -0.20252366 0.17813857 0.10863953
000250 c3 2c 4c be f5 d2 5f bc 32 95 9e 3b 79 21 d9 3d
       -0.1993895 -0.013661136 0.004839563 0.106020875
000260 d5 54 7e 3d db b0 a1 3e e1 b0 b8 be 19 2b 93 be
       0.06209262 0.31580243 -0.36072448 -0.28743818
000270 e2 b7 fa be c1 3c a9 be dc 40 70 be 19 07 07 3d
       -0.48968416 -0.33054164 -0.23462242 0.032965753
000280 d2 98 a5 3e 7d 7d 3a 3d ab d7 02 3f 7e c3 86 3e
       0.32343155 0.04552983 0.51110333 0.26321024
000290 ae 99 6a 3e e6 3c be bc a3 b1 ca bd 5c 7b 48 bf
       0.22910187 -0.023222398 -0.09897163 -0.7831323
0002a0 8f 97 a1 3d 06 9b dd 3d e5 d8 20 3e 36 ff a1 3d
       0.07890236 0.10820584 0.15707739 0.07910006
0002b0 21 19 9f 3c 9b 60 82 bd 5e 67 ad 3d 9b 45 9e 3d
       0.019421162 -0.06366082 0.08466981 0.0772812
0002c0 f0 41 98 3b 7a ca a3 bd 89 b9 5b 3c 21 08 81 bd
       0.0046465322 -0.07997604 0.013410934 -0.063003786
0002d0 9d ef 88 bb ee fa b9 be ef 75 6e 3e 14 eb 9e be
       -0.0041789548 -0.36324257 0.23287176 -0.31038725
0002e0 f9 f2 ba 3e 0d ab 03 3f 14 92 84 3d cb fc f1 3c
       0.36513498 0.5143288 0.06473175 0.029539486
0002f0 cd 4d 6a be f1 67 12 bc ab dc 27 3e a4 13 8a 3e
       -0.22881241 -0.008935914 0.16392772 0.2696811
000300 9a e5 26 be 2b f0 1e 3e e6 9a 1f be 71 c3 a9 bd
       -0.16298524 0.15521304 -0.15586433 -0.082892306
000310 36 6a 0c 3e d5 58 36 3e 2a 88 50 3c 80 05 09 bd
       0.13712391 0.17807324 0.012727777 -0.03345251
000320 08 79 a8 bc e1 a0 5d be bb 88 5c 3e 83 83 c5 bd
       -0.020565525 -0.21643402 0.21536534 -0.096442245
000330 d5 78 ce 3e 10 d6 09 3e 82 4d 54 be 66 91 87 bc
       0.40326563 0.13460565 -0.20732692 -0.016548824
000340 76 a9 f2 be 27 62 40 be 35 57 59 bd dd e0 16 3e
       -0.47394913 -0.18787442 -0.053061683 0.14734216
000350 66 05 8d 3d a4 3b a1 3e 02 33 78 bd 25 fe dc bc
       0.06885795 0.31490815 -0.06059552 -0.026976654
000360 a8 b8 90 bd 52 e0 85 3f e0 55 df bd 95 fd 40 bf
       -0.070664704 1.0459082 -0.10905051 -0.75386935
000370 87 d0 81 3f 8d 4c 28 bf 94 2a 73 bd 71 a0 2d bf
       1.0141762 -0.6574181 -0.059366778 -0.6782294
000380 4e 63 ea 3e 59 9f c7 3e 56 34 9f bd 78 cd 80 3f
       0.45778888 0.3898876 -0.07773654 1.0062704
000390 ae b1 22 bc 85 c8 08 3d 04 6c 67 3c 0f 83 1d bf
       -0.009930057 0.033394355 0.014124874 -0.61528105
0003a0 d6 88 d3 3d d2 db bd 3d a9 ff 2b bd 5e 64 8e 3e
       0.10328834 0.09270443 -0.041991863 0.2781095
0003b0 9f 6e 11 bc 99 af cb be 5b 43 b7 be 6b e6 d6 3c
       -0.008876472 -0.39782408 -0.35793576 0.026232919
0003c0 f9 b0 34 bd 82 84 b0 be f4 c4 c7 3e ae 1f a7 be
       -0.044114087 -0.34476095 0.3901745 -0.32641357
0003d0 11 51 e9 bc e8 eb 66 3e 87 5e c2 bd 03 f5 f1 bc
       -0.028481038 0.22550929 -0.09490686 -0.029535776
0003e0 14 50 86 3d ff d9 59 be 12 33 8c be 97 fc c8 3e
       0.065582424 -0.21274565 -0.27382714 0.3925521
0003f0 63 97 ca 3d 87 92 c0 3d b0 ae b9 bc 40 66 81 3e
       0.09892156 0.09402948 -0.022666305 0.25273323

onnx::Conv_127 f4 [24]
000000 0e ac 85 3e e8 65 15 be cc 6f fa 3d cf e3 e6 3e
       0.2610783 -0.14589655 0.12228355 0.4509568
000010 90 6e e8 3e 1f 06 a7 be a6 85 24 3f 2e 88 33 3f
       0.45396852 -0.32621858 0.6426643 0.7012967
000020 ca fc 19 be b5 bf 13 3f dd 17 62 3d f1 c8 10 3f
       -0.15037838 0.57714397 0.05519854 0.5655661
000030 76 f6 5c 3e 24 88 58 be 23 4c 45 3f e7 bd 16 3e
       0.21578392 -0.21145684 0.770693 0.1472088
000040 c2 ab 27 3e 8e ce 18 3e 6f e4 0d 40 61 34 1a be
       0.16374114 0.14922544 2.2170675 -0.15059043
000050 72 0f 19 3e cd e0 f3 3e 46 5c b6 3d b0 ca ad 3e
       0.14947298 0.47632447 0.089043185 0.339437

onnx::Conv_129 f4 [24, 1, 3, 3]
000000 41 da 32 3c 5f 37 2c 3c 86 43 34 3d fe d8 94 be
       0.010916294 0.010511248 0.044009708 -0.29071802
000010 9b 91 6a be a9 fe 5a be 09 a6 ad be 25 9c 03 bf
       -0.22907107 -0.21386208 -0.33915737 -0.5141013
000020 fa 09 99 be bd d0 a3 be 2a e5 6f 3d 82 ed 13 be
       -0.29890424 -0.31995192 0.058568157 -0.14446071
000030 ea 06 99 3e c1 18 a5 3e 05 8a b0 3d 4c 6b 3e 3f
       0.29888088 0.32245448 0.08620075 0.7438247
000040 c1 88 ca 3e 5d 6d 12 be 48 b3 24 bf 69 9b c3 bd
       0.3955746 -0.14299531 -0.6433606 -0.095511265
000050 45 10 b0 3e 7a 7e 34 3e d5 ce 3b 3f 8b 7a d6 3e
       0.34387413 0.17626372 0.73362476 0.41890368
000060 a2 94 d0 be 8d 0d c5 be c9 32 96 bf da ef b9 3e
       -0.40738398 -0.384869 -1.1734248 0.36315805
000070 67 f0 e7 3e 96 7b a1 3e 82 f1 a0 3f 27 98 19 3f
       0.453006 0.315396 1.2573702 0.5999779
000080 c2 c8 41 bf bb 89 ef 3e b9 38 12 be d6 d3 5f be
       -0.7569696 0.46784768 -0.1427945 -0.21858153
000090 52 2c 6a be aa e7 85 be 55 6f 55 be eb 0d e4 be
       -0.2286847 -0.26153308 -0.20843251 -0.4454187
0000a0 35 bb 32 bf 42 66 ce be 8d bd 20 bf 4b ce 9d bf
       -0.69816905 -0.40312392 -0.6278923 -1.2328581
0000b0 44 18 c6 be 69 12 a9 be ff 98 aa be cd c6 ef be
       -0.38690388 -0.33021858 -0.33319852 -0.4683136
0000c0 12 2e 87 3e 93 c4 3d 3e ea 2f 6f be 34 25 af 3e
       0.26402336 0.18532018 -0.23358122 0.3420807
0000d0 dd ea e3 3e 2b 0e 82 3e 18 01 01 3e b1 ab 58 3e
       0.44515124 0.25401434 0.12598073 0.21159245
0000e0 b5 7d b0 3d d3 29 87 3e 31 8d 8e 3e 47 3f 16 3e
       0.08617727 0.26399097 0.27842095 0.14672576
0000f0 60 65 ea 3d 1a 84 09 3e 1b f3 b4 3d 2a 92 85 bf
       0.11445117 0.13429299 0.08835431 -1.0435231
000100 1d ce 88 bf 0b 59 d4 3e fb 89 50 bf 1b 8a f4 3d
       -1.0687901 0.41474184 -0.8146054 0.11940404
000110 ef 46 d4 3f f7 f6 01 3f aa eb 05 40 37 45 a5 3f
       1.6584147 0.50767463 2.0925088 1.2911748
000120 9b 7f 5c 3e 45 cd f2 3e 73 9a c3 3e cd 6e df 3e
       0.21533053 0.47422233 0.38203773 0.43639222
000130 f0 23 27 3f de f7 ca 3e a5 30 71 3e da 84 10 3e
       0.6528921 0.39642233 0.23553713 0.14113179
000140 06 05 1d bd 63 34 ba 3e 07 ef 10 3f 41 57 9a 3e
       -0.03833487 0.36368093 0.56614727 0.30144694
000150 9d f0 1d 3f 68 c2 a8 3f 84 c0 49 3f 22 7b c9 3e
       0.6169527 1.3184328 0.7880938 0.39351755
000160 b7 40 0a 3f 78 0d af 3e 82 19 6a 3e 53 7a eb 3e
       0.54004997 0.34189963 0.22861293 0.45991763
000170 30 5b c3 3e 6f c9 54 3e 3c a6 cb 3e b5 3d 32 3e
       0.38155508 0.20779966 0.39775264 0.17406352
000180 58 32 1d be 9f e8 e1 be 7f f5 b9 be 67 ff 82 3f
       -0.15351236 -0.44122788 -0.3632011 1.0234193
000190 70 1f 67 3f 86 13 2e 3f 82 f4 26 3e ba 9f 0c 3f
       0.90282345 0.6799854 0.1630421 0.54931223
0001a0 cf b0 2a 3f 65 fb 7c bf 18 db b3 bf 35 19 93 bf
       0.6667604 -0.988211 -1.4051237 -1.1492068
0001b0 12 fe 21 be e3 63 7d bd 75 f9 8c be 63 4d 0d bf
       -0.15819576 -0.061862838 -0.2753407 -0.5519621
0001c0 74 56 7b be aa 11 05 bf 07 6d 39 3d 97 b5 1a 3f
       -0.24544698 -0.5198008 0.045269992 0.60433334
0001d0 e7 ef 24 3f a1 c4 94 3d 46 92 23 3e a7 2b 99 3d
       0.6442856 0.072640665 0.15973768 0.07479029
0001e0 9d c8 eb be d6 f7 13 3f 44 c6 fe 3e 3b e2 d9 be
       -0.46051493 0.5780004 0.4976064 -0.42555413
0001f0 eb 81 a0 3e 02 1e fe 3e 63 c2 9d 3e 22 57 0f 3f
       0.3134912 0.4963227 0.30812368 0.5599233
000200 1f 3f 96 3e b4 1c 29 3f c2 fa 91 3f 1e 2a 1d 3f
       0.29345033 0.6605942 1.140465 0.6139239
000210 9b 3b 37 3e ea 52 54 3f df 26 0d 3f e5 45 c3 3e
       0.17893831 0.82939017 0.5513744 0.38139263
000220 b2 00 07 3e bb 26 68 be 21 b4 cb be 36 ca e2 be
       0.13183859 -0.22671025 -0.39785865 -0.442949
000230 f8 7e 33 be b0 35 78 bf ce e6 20 bf 36 1d 07 be
       -0.17528903 -0.9695692 -0.6285218 -0.13194737
000240 95 43 43 3e 29 43 c8 3e 1b 5e ed 3e 68 a5 98 3e
       0.19068749 0.3911374 0.4636086 0.29813695
000250 74 1b 31 3f d5 fb 0d 3f 3a b6 00 3f 66 b6 3a 3f
       0.69182515 0.5546239 0.50278056 0.7293457
000260 9a f6 a4 3e 84 28 82 3d 00 c3 9d be c7 ae 8e be
       0.32219392 0.06355384 -0.30812836 -0.2786772
000270 72 fd 6b be 41 62 bb be 80 dc c7 be 05 8a d2 be
       -0.230459 -0.365984 -0.39035416 -0.41120926
000280 d3 48 b8 be b1 f7 25 bd 2f 3b 3f bd 30 d7 0a 3e
       -0.3599306 -0.04051942 -0.0466873 0.1355865
000290 72 97 24 3e 7a 08 07 3d b1 78 2e 3e c5 28 3c 3e
       0.16073397 0.03296707 0.17038228 0.18374927
0002a0 5e 3c 8d 3d 9d b2 b1 3d 55 48 50 3d 60 d6 b6 3e
       0.0689628 0.08676646 0.05085023 0.3571043
0002b0 ad 38 a2 3e 97 f2 b5 3d 46 8c d8 3e f1 82 08 3f
       0.31683865 0.08884161 0.4229452 0.533248
0002c0 be 94 a6 3e c4 6f 82 3e 10 f7 01 3f 39 76 b7 3d
       0.32535356 0.25475895 0.5076761 0.08958096
0002d0 95 1b b2 3e 20 cc d5 3e 86 8c 14 3e 1b 8f b0 3e
       0.34786668 0.41757298 0.1450673 0.3448418
0002e0 e1 7b 37 3f f9 3a e5 3e 1e 16 13 3e d2 45 0b 3e
       0.716734 0.44771555 0.14363906 0.13600853
0002f0 b4 01 bf 3d 1c a0 5b bf f6 a0 ef 3d e6 b6 62 3f
       0.09326497 -0.8579118 0.11700623 0.8856033
000300 c4 fb af bf b4 ba 01 3d e6 41 97 3f 37 c0 8c bf
       -1.3748708 0.031672195 1.1816986 -1.0996159
000310 f2 69 4d 3e cc a4 9d 3f 9e 96 cc be c9 70 a3 be
       0.20059946 1.2315917 -0.39958662 -0.31921986
000320 76 32 81 3c c8 81 e8 3d bf 85 df 3e d8 f3 8c 3e
       0.015771132 0.11352879 0.43656728 0.27529788
000330 06 35 d9 3e 16 1b 37 3f 88 11 83 3e cb eb b4 3e
       0.42423266 0.71525705 0.25599313 0.35336146
000340 c7 7b ae 3d 4e e2 9d bd fa 3a c2 3e 11 00 d4 3e
       0.085197024 -0.0770918 0.3793562 0.414063
000350 32 45 30 3e d9 76 7c 3e 2f 2f 0a 3f 9e d0 ca 3e
       0.17213896 0.24654712 0.53978246 0.39612287

onnx::Conv_130 f4 [24]
000000 e9 97 96 3f a5 b4 29 be 79 11 57 bf f0 d3 a8 bf
       1.1765109 -0.16572817 -0.84011036 -1.3189678
000010 c5 ec eb 3f 83 64 2e bd cb d4 b9 bf d3 e8 1e c0
       1.8431631 -0.042576324 -1.4518064 -2.4829605
000020 b4 eb 7c be a4 71 26 c0 00 6a 49 3b 60 5f e3 bb
       -0.24699289 -2.600686 0.0030733347 -0.00693886
000030 c4 26 2f be 41 24 ea be 9d f5 2f c0 aa 65 84 3f
       -0.17104632 -0.45730785 -2.749366 1.0343525
000040 80 5b 18 bf fd 25 08 40 e4 d3 57 bf f1 6d f9 be
       -0.5951462 2.1273186 -0.84307694 -0.4871669
000050 57 d7 6c bf e8 ee ba be 36 48 86 3f 1e ce a1 bf
       -0.9251608 -0.36510396 1.0490787 -1.2641027
