Project/Project_files/mobilenetv2_experiments/onnxs/mobilenetv2_19_2_stem_int8.onnx (onnx, 20544 bytes, 11 tensors)

onnx::Conv_114_quantized i1 [24, 3, 3, 3]
00000000: e9f2 02fb f705 f9ea f409 09f5 fe07 f011
00000010: 04f1 0d21 1c06 1714 f2f9 0927 00e4 1ec0
00000020: 000a 3ee7 0d2e ffe0 c420 a939 dc00 e9ee
00000030: 01f1 1fc3 3316 f2e3 ebf8 f5e3 230b 2e2c
00000040: 24f1 1fda d321 efd0 05f9 fb0c e715 19fd
00000050: 194a 18db 7fc9 e00e e9c0 b20e 22ef ad5c
00000060: 0340 13fc 1602 04a1 4cec 2307 1102 08fc
00000070: e61d cdf1 f60b daeb 04da 1ee4 f80d 0604
00000080: ff06 f129 011a 00d1 01db caf7 ed20 21f9
00000090: fe50 27e9 240a d401 dbf6 eae7 fdfc e62b
000000a0: 17f7 f6ea e321 0e0e 1dfb ecd5 e714 ec00
000000b0: 1b06 3630 2a11 1ae8 d1d5 f0e9 c4f7 0110
000000c0: e8fe f409 0afe f7e1 f8d8 edf6 0d1b 1007
000000d0: faee fd04 f924 281a fbd8 d2e4 11f4 2500
000000e0: 0811 e41e fe25 47d8 f14d 2ebe f042 00f4
000000f0: 07d1 00f4 b3e2 25e0 32ee 3c21 1a1c 1825
-23 -14 2 -5 -9 5 -7 -22
-12 9 9 -11 -2 7 -16 17
4 -15 13 33 28 6 23 20
-14 -7 9 39 0 -28 30 -64
0 10 62 -25 13 46 -1 -32
-60 32 -87 57 -36 0 -23 -18
1 -15 31 -61 51 22 -14 -29
-21 -8 -11 -29 35 11 46 44
36 -15 31 -38 -45 33 -17 -48
5 -7 -5 12 -25 21 25 -3
25 74 24 -37 127 -55 -32 14
-23 -64 -78 14 34 -17 -83 92
3 64 19 -4 22 2 4 -95
76 -20 35 7 17 2 8 -4
-26 29 -51 -15 -10 11 -38 -21
4 -38 30 -28 -8 13 6 4
-1 6 -15 41 1 26 0 -47
1 -37 -54 -9 -19 32 33 -7
-2 80 39 -23 36 10 -44 1
-37 -10 -22 -25 -3 -4 -26 43
23 -9 -10 -22 -29 33 14 14
29 -5 -20 -43 -25 20 -20 0
27 6 54 48 42 17 26 -24
-47 -43 -16 -23 -60 -9 1 16
-24 -2 -12 9 10 -2 -9 -31
-8 -40 -19 -10 13 27 16 7
-6 -18 -3 4 -7 36 40 26
-5 -40 -46 -28 17 -12 37 0
8 17 -28 30 -2 37 71 -40
-15 77 46 -66 -16 66 0 -12
7 -47 0 -12 -77 -30 37 -32
50 -18 60 33 26 28 24 37

onnx::Conv_117_quantized i1 [24, 24, 1, 1]
00000000: fa0e ce12 21f3 eae3 e8f5 eee7 e804 0c13
00000010: 0005 07f6 0e17 d51b f0ec e4f7 f917 29f2
00000020: 1a09 f4fd 0300 20f5 fb22 f414 081e f1f1
00000030: 0907 f80c 08fe fef7 e800 edfb 02ef faff
00000040: fa06 0df8 f5f8 fe02 e02e fe15 1b04 f501
00000050: df24 f41a d7f3 0b00 021c 2120 f5f1 0307
00000060: efe4 e41a 0db2 1410 06b9 33d7 ecc1 e0e6
00000070: 1aef 5e10 e501 e116 0af5 e7d4 ef13 fd0e
00000080: ecef 062a 2303 f723 001a 03ff 0b2f eeda
00000090: 05f1 e5ed 03e9 ece3 15f7 ecff fbf9 03fc
000000a0: 18ef 0ae6 1201 0503 c918 d929 eaf6 2302
000000b0: f1e8 0bf2 0313 0bf0 2eec f9fa 0e1a 14fc
000000c0: 1ff6 01ba 051b baee 0fd0 f0b8 e126 082c
000000d0: dffc d8e7 e92f e601 0002 22f6 ee09 f61a
000000e0: f6e9 15ed e30d 0823 010a ff0a e30c 09d2
000000f0: 07ec 02f3 05f7 fb03 fbfe fbff ebf8 f7e6
-6 14 -50 18 33 -13 -22 -29
-24 -11 -18 -25 -24 4 12 19
0 5 7 -10 14 23 -43 27
-16 -20 -28 -9 -7 23 41 -14
26 9 -12 -3 3 0 32 -11
-5 34 -12 20 8 30 -15 -15
9 7 -8 12 8 -2 -2 -9
-24 0 -19 -5 2 -17 -6 -1
-6 6 13 -8 -11 -8 -2 2
-32 46 -2 21 27 4 -11 1
-33 36 -12 26 -41 -13 11 0
2 28 33 32 -11 -15 3 7
-17 -28 -28 26 13 -78 20 16
6 -71 51 -41 -20 -63 -32 -26
26 -17 94 16 -27 1 -31 22
10 -11 -25 -44 -17 19 -3 14
-20 -17 6 42 35 3 -9 35
0 26 3 -1 11 47 -18 -38
5 -15 -27 -19 3 -23 -20 -29
21 -9 -20 -1 -5 -7 3 -4
24 -17 10 -26 18 1 5 3
-55 24 -39 41 -22 -10 35 2
-15 -24 11 -14 3 19 11 -16
46 -20 -7 -6 14 26 20 -4
31 -10 1 -70 5 27 -70 -18
15 -48 -16 -72 -31 38 8 44
-33 -4 -40 -25 -23 47 -26 1
0 2 34 -10 -18 9 -10 26
-10 -23 21 -19 -29 13 8 35
1 10 -1 10 -29 12 9 -46
7 -20 2 -13 5 -9 -5 3
-5 -2 -5 -1 -21 -8 -9 -26

onnx::Conv_120_quantized i1 [24, 1, 3, 3]
00000000: 1325 fc25 f426 1302 febc bf17 0cf7 e434
00000010: 47f0 69e6 9203 51a5 2988 4708 24d3 1c8c
00000020: 2df0 191f 1721 f6fc 0724 ff09 14fe f6fb
00000030: e1d5 f0f7 e8e8 0ab6 ec02 6949 04b6 cdc5
00000040: eb28 cb17 26b8 192e 1102 f106 01f6 f0de
00000050: e206 cac5 fa28 4b00 0ff1 11da 1436 815f
00000060: f4d2 4015 bedf cb19 2d1a 0919 bb30 12ac
00000070: 50dd cd7b dad1 fe08 cd04 23e2 e93d 1801
00000080: 0308 1dff 0718 0212 15f8 1c12 03f6 2512
00000090: ec0c 18ef f201 ebd4 ecf4 180f 3741 c036
000000a0: becd f7e5 fef3 04fc fce3 dde2 bebf fef8
000000b0: 2a0e fa4a fffe f607 1108 0d0c 0cf6 14f7
000000c0: 000a 0504 1004 e639 e6ca 202d dbe8 24e8
000000d0: d3ef db03 3217 251f
19 37 -4 37 -12 38 19 2
-2 -68 -65 23 12 -9 -28 52
71 -16 105 -26 -110 3 81 -91
41 -120 71 8 36 -45 28 -116
45 -16 25 31 23 33 -10 -4
7 36 -1 9 20 -2 -10 -5
-31 -43 -16 -9 -24 -24 10 -74
-20 2 105 73 4 -74 -51 -59
-21 40 -53 23 38 -72 25 46
17 2 -15 6 1 -10 -16 -34
-30 6 -54 -59 -6 40 75 0
15 -15 17 -38 20 54 -127 95
-12 -46 64 21 -66 -33 -53 25
45 26 9 25 -69 48 18 -84
80 -35 -51 123 -38 -47 -2 8
-51 4 35 -30 -23 61 24 1
3 8 29 -1 7 24 2 18
21 -8 28 18 3 -10 37 18
-20 12 24 -17 -14 1 -21 -44
-20 -12 24 15 55 65 -64 54
-66 -51 -9 -27 -2 -13 4 -4
-4 -29 -35 -30 -66 -65 -2 -8
42 14 -6 74 -1 -2 -10 7
17 8 13 12 12 -10 20 -9
0 10 5 4 16 4 -26 57
-26 -54 32 45 -37 -24 36 -24
-45 -17 -37 3 50 23 37 31

onnx::Conv_123_quantized i1 [12, 24, 1, 1]
00000000: f316 f91d f828 20c5 db24 fa0c 02b6 edb3
00000010: bac9 1014 f8f1 1f3a 02d7 b8d2 08f5 1324
00000020: 091d 3f56 440b ddac 131c 0d15 d01d 0228
00000030: 2f2c e1ce c110 3df7 eb4b 29f3 3716 332a
00000040: fabe c5ef 17df fc06 f8d5 e9da 2219 3909
00000050: 0b1f 5dbd 55d4 a300 31f0 5f39 5e22 2716
00000060: 05d6 f2dd 221b eb2e 00d4 202c 1c18 5117
00000070: f3ff e0e3 c8ff 2444 cd07 ef06 eefa d9f3
00000080: 3ce4 18fa 1a33 0c29 17f9 0a30 f3a3 2acf
00000090: f434 0d39 18c0 f7df 0403 57d5 5839 c2c9
000000a0: f1d0 ddcb fd12 26fa 38fc 9eb4 2530 06f5
000000b0: 4507 e2e0 eaf8 0fe1 22c6 e7fe 13f8 b9ed
000000c0: 19de 414b de29 0f03 13f9 e5cf f81c 05c8
000000d0: 1f0c eb36 b8f8 cd4f 0845 3837 047f 12e3
000000e0: 3013 a43e b718 01f3 58f7 4e17 1c33 1d21
000000f0: ddd7 e8e0 dd3d 08d4 04fd 22ce 28d5 3615
-13 22 -7 29 -8 40 32 -59
-37 36 -6 12 2 -74 -19 -77
-70 -55 16 20 -8 -15 31 58
2 -41 -72 -46 8 -11 19 36
9 29 63 86 68 11 -35 -84
19 28 13 21 -48 29 2 40
47 44 -31 -50 -63 16 61 -9
-21 75 41 -13 55 22 51 42
-6 -66 -59 -17 23 -33 -4 6
-8 -43 -23 -38 34 25 57 9
11 31 93 -67 85 -44 -93 0
49 -16 95 57 94 34 39 22
5 -42 -14 -35 34 27 -21 46
0 -44 32 44 28 24 81 23
-13 -1 -32 -29 -56 -1 36 68
-51 7 -17 6 -18 -6 -39 -13
60 -28 24 -6 26 51 12 41
23 -7 10 48 -13 -93 42 -49
-12 52 13 57 24 -64 -9 -33
4 3 87 -43 88 57 -62 -55
-15 -48 -35 -53 -3 18 38 -6
56 -4 -98 -76 37 48 6 -11
69 7 -30 -32 -22 -8 15 -31
34 -58 -25 -2 19 -8 -71 -19
25 -34 65 75 -34 41 15 3
19 -7 -27 -49 -8 28 5 -56
31 12 -21 54 -72 -8 -51 79
8 69 56 55 4 127 18 -29
48 19 -92 62 -73 24 1 -13
88 -9 78 23 28 51 29 33
-35 -41 -24 -32 -35 61 8 -44
4 -3 34 -50 40 -43 54 21

onnx::Conv_126_quantized i1 [24, 12, 1, 1]
00000000: f5e4 0c1a 33cc a8ed e806 2d03 cc1d 0205
00000010: bdd3 310f 1e11 d523 f8f9 f11f 0006 e8e7
00000020: 1316 c9fe 1807 23e5 022e e3e7 26ed faee
00000030: 0712 000f 0508 13f0 f702 fdf8 e5db b114
00000040: 12f4 2e3b b3f8 d040 472a b881 43d9 0de3
00000050: 5f22 df03 0b00 fdff 01fc fb10 0706 01ff
00000060: 05d7 32d2 dbf7 12d2 0f00 31fb 0efc f60f
00000070: f605 0df6 07f1 0c11 f10d 12f3 11ff 07e9
00000080: d13c 1337 f705 05fc 0af5 05f1 f6e9 f40a
00000090: fdeb 120b ecff 000b 0620 dbe3 cede e803
000000a0: 2105 341b 17fe f6b0 080b 1008 02fa 0908
000000b0: 00f8 01fa 00db 18e0 2535 0703 e9ff 111c
000000c0: ef10 f0f8 0e12 01fd feea 16f6 290e ebfe
000000d0: d0ed fb0f 0720 fafd f96b f5b3 68bd fabb
000000e0: 2f28 f867 ff03 01c1 0b09 fc1c ffd7 db03
000000f0: fbdd 28df fd17 f6fd 07ea e428 0a0a fe1a
-11 -28 12 26 51 -52 -88 -19
-24 6 45 3 -52 29 2 5
-67 -45 49 15 30 17 -43 35
-8 -7 -15 31 0 6 -24 -25
19 22 -55 -2 24 7 35 -27
2 46 -29 -25 38 -19 -6 -18
7 18 0 15 5 8 19 -16
-9 2 -3 -8 -27 -37 -79 20
18 -12 46 59 -77 -8 -48 64
71 42 -72 -127 67 -39 13 -29
95 34 -33 3 11 0 -3 -1
1 -4 -5 16 7 6 1 -1
5 -41 50 -46 -37 -9 18 -46
15 0 49 -5 14 -4 -10 15
-10 5 13 -10 7 -15 12 17
-15 13 18 -13 17 -1 7 -23
-47 60 19 55 -9 5 5 -4
10 -11 5 -15 -10 -23 -12 10
-3 -21 18 11 -20 -1 0 11
6 32 -37 -29 -50 -34 -24 3
33 5 52 27 23 -2 -10 -80
8 11 16 8 2 -6 9 8
0 -8 1 -6 0 -37 24 -32
37 53 7 3 -23 -1 17 28
-17 16 -16 -8 14 18 1 -3
-2 -22 22 -10 41 14 -21 -2
-48 -19 -5 15 7 32 -6 -3
-7 107 -11 -77 104 -67 -6 -69
47 40 -8 103 -1 3 1 -63
11 9 -4 28 -1 -41 -37 3
-5 -35 40 -33 -3 23 -10 -3
7 -22 -28 40 10 10 -2 26

onnx::Conv_129_quantized i1 [24, 1, 3, 3]
00000000: 0101 03ee f2f3 ebe1 eeed 04f7 1214 052d
00000010: 18f7 d9fa 150b 2d19 e7e9 b916 1b13 4c24
00000020: d21c f7f3 f2f0 f3e5 d6e8 dab5 e9ec ece4
00000030: 100b f215 1b0f 080d 0510 1109 0708 05c1
00000040: bf19 cf07 651f 7f4e 0d1d 171a 2818 0e09
00000050: fe16 2212 2550 3018 2115 0e1c 170d 180b
00000060: f7e5 ea3e 3729 0a21 28c4 abba f6fc efde
00000070: f1e0 0325 2704 0a05 e423 1ee6 131e 1322
00000080: 1228 4525 0b32 2117 08f2 e8e5 f5c5 daf8
00000090: 0c18 1c12 2a22 1f2c 1404 edef f2ea e8e7
000000a0: eafe fd08 0a02 0a0b 0405 0316 1305 1a20
000000b0: 140f 1f05 1519 0915 2c1b 0908 06cc 0736
000000c0: ad02 48bd 0c4b e8ed 0107 1a11 1a2b 1015
000000d0: 05fb 1719 0a0f 2118
1 1 3 -18 -14 -13 -21 -31
-18 -19 4 -9 18 20 5 45
24 -9 -39 -6 21 11 45 25
-25 -23 -71 22 27 19 76 36
-46 28 -9 -13 -14 -16 -13 -27
-42 -24 -38 -75 -23 -20 -20 -28
16 11 -14 21 27 15 8 13
5 16 17 9 7 8 5 -63
-65 25 -49 7 101 31 127 78
13 29 23 26 40 24 14 9
-2 22 34 18 37 80 48 24
33 21 14 28 23 13 24 11
-9 -27 -22 62 55 41 10 33
40 -60 -85 -70 -10 -4 -17 -34
-15 -32 3 37 39 4 10 5
-28 35 30 -26 19 30 19 34
18 40 69 37 11 50 33 23
8 -14 -24 -27 -11 -59 -38 -8
12 24 28 18 42 34 31 44
20 4 -19 -17 -14 -22 -24 -25
-22 -2 -3 8 10 2 10 11
4 5 3 22 19 5 26 32
20 15 31 5 21 25 9 21
44 27 9 8 6 -52 7 54
-83 2 72 -67 12 75 -24 -19
1 7 26 17 26 43 16 21
5 -5 23 25 10 15 33 24

onnx::Conv_132_quantized i1 [12, 24, 1, 1]
00000000: 22e8 19de ddf6 6059 1853 da07 c10f e048
00000010: 0516 bed0 1de3 e115 1422 e1d8 2644 0de8
00000020: ffee 48f6 e2d1 223f 622c 150c f341 d3ec
00000030: eff0 d1f1 c0f9 391d 14e0 fb2b fc1b 23be
00000040: c76c ee0a d3d7 43eb 14f8 ba07 0b11 551d
00000050: 1feb f508 16ec 2b21 ebc6 43ef 10e0 e3bf
00000060: 06d2 0ede e9c5 f9e5 02f7 132f 12e5 dad4
00000070: e3fe 1ae3 4b53 13fe 4611 36ff d6d6 14fd
00000080: f446 d9b6 42d7 0fb2 2ece f549 3814 1af4
00000090: f402 bd18 d3de f110 03d4 db0b 0421 cdfa
000000a0: 47fa edca 031f 36cb f204 0b21 2709 3bfb
000000b0: 44da 2a01 b407 b53a 13ab d933 ad4c 5f34
000000c0: ceeb e63a c3cb de5e 3b0e be19 03ce 40eb
000000d0: 12d6 2923 c933 f308 03f6 35b5 d70c e2ad
000000e0: 4af2 02e6 110f 4be8 ebcf bef2 002c 00c8
000000f0: ad42 c3ff 7ff2 16eb 212a e8b2 2c34 e5f9
34 -24 25 -34 -35 -10 96 89
24 83 -38 7 -63 15 -32 72
5 22 -66 -48 29 -29 -31 21
20 34 -31 -40 38 68 13 -24
-1 -18 72 -10 -30 -47 34 63
98 44 21 12 -13 65 -45 -20
-17 -16 -47 -15 -64 -7 57 29
20 -32 -5 43 -4 27 35 -66
-57 108 -18 10 -45 -41 67 -21
20 -8 -70 7 11 17 85 29
31 -21 -11 8 22 -20 43 33
-21 -58 67 -17 16 -32 -29 -65
6 -46 14 -34 -23 -59 -7 -27
2 -9 19 47 18 -27 -38 -44
-29 -2 26 -29 75 83 19 -2
70 17 54 -1 -42 -42 20 -3
-12 70 -39 -74 66 -41 15 -78
46 -50 -11 73 56 20 26 -12
-12 2 -67 24 -45 -34 -15 16
3 -44 -37 11 4 33 -51 -6
71 -6 -19 -54 3 31 54 -53
-14 4 11 33 39 9 59 -5
68 -38 42 1 -76 7 -75 58
19 -85 -39 51 -83 76 95 52
-50 -21 -26 58 -61 -53 -34 94
59 14 -66 25 3 -50 64 -21
18 -42 41 35 -55 51 -13 8
3 -10 53 -75 -41 12 -30 -83
74 -14 2 -26 17 15 75 -24
-21 -49 -66 -14 0 44 0 -56
-83 66 -61 -1 127 -14 22 -21
33 42 -24 -78 44 52 -27 -7

onnx::Conv_135_quantized i1 [24, 12, 1, 1]
00000000: e4d4 38f5 2501 0007 1cfe fee9 01e6 1104
00000010: 5f1f 1e0b 0822 cdf1 fef1 01dc fef3 fc08
00000020: f514 04f9 08f6 f116 f8f0 e6f7 0b03 e20f
00000030: d6e9 0028 2d4c 81f1 e2dd ce1c 3901 f403
00000040: 1713 0dc0 381a a6cc b1d5 4a28 f83b 08e1
00000050: e826 32d5 05f2 f705 fdf8 fc06 f505 0102
00000060: 1efc 0709 13fb fc19 291d 021d 0914 1efa
00000070: fa0a 1c0d ee04 07f1 f0e5 1206 fcd1 0221
00000080: 0c10 e00a 230b 1d31 ffe0 ab02 0c03 18c8
00000090: 17c2 efff 0824 0be6 1412 1502 03fa 21e8
000000a0: 2200 ebe1 f5de ec15 ed2e f5fe f901 fd29
000000b0: 10f5 1ada cbf3 321e 00ed fe20 01f2 fe27
000000c0: 0118 f41e 1db3 3ece e2fe 13ee 1102 e6fa
000000d0: d106 3a0e 20b9 10e7 040b 2919 ebf5 04e8
000000e0: 16f8 e80a f0f9 e6fd c316 0314 e914 a3d7
000000f0: 27f0 1409 09fe fc23 e9e8 0fff 69ed 0beb
-28 -44 56 -11 37 1 0 7
28 -2 -2 -23 1 -26 17 4
95 31 30 11 8 34 -51 -15
-2 -15 1 -36 -2 -13 -4 8
-11 20 4 -7 8 -10 -15 22
-8 -16 -26 -9 11 3 -30 15
-42 -23 0 40 45 76 -127 -15
-30 -35 -50 28 57 1 -12 3
23 19 13 -64 56 26 -90 -52
-79 -43 74 40 -8 59 8 -31
-24 38 50 -43 5 -14 -9 5
-3 -8 -4 6 -11 5 1 2
30 -4 7 9 19 -5 -4 25
41 29 2 29 9 20 30 -6
-6 10 28 13 -18 4 7 -15
-16 -27 18 6 -4 -47 2 33
12 16 -32 10 35 11 29 49
-1 -32 -85 2 12 3 24 -56
23 -62 -17 -1 8 36 11 -26
20 18 21 2 3 -6 33 -24
34 0 -21 -31 -11 -34 -20 21
-19 46 -11 -2 -7 1 -3 41
16 -11 26 -38 -53 -13 50 30
0 -19 -2 32 1 -14 -2 39
1 24 -12 30 29 -77 62 -50
-30 -2 19 -18 17 2 -26 -6
-47 6 58 14 32 -71 16 -25
4 11 41 25 -21 -11 4 -24
22 -8 -24 10 -16 -7 -26 -3
-61 22 3 20 -23 20 -93 -41
39 -16 20 9 9 -2 -4 35
-23 -24 15 -1 105 -19 11 -21

onnx::Conv_138_quantized i1 [24, 1, 3, 3]
00000000: e8f8 1722 300c 3d40 0bef 0417 111a 0b24
00000010: 21fe 11fe fa29 321d 1f38 27fb f918 d4f3
00000020: 22cb f510 e9e1 04ea 0a13 f613 1703 050c
00000030: 1221 1607 1f1e 1c1d f904 1208 ebdb f93b
00000040: 6127 e723 23ae c0f8 c8d5 ecf9 e9db 1208
00000050: e62c 2e03 f418 20ad cd1e 1a1f 1329 2f07
00000060: 090b fa0e 0d00 1617 070e 1102 2e23 fa2a
00000070: 26fe 060a 021f 06e7 2c27 ef14 21fc 190b
00000080: f1ff f9e9 eedb e125 1af5 1c07 ed08 f2ee
00000090: 0612 fa28 2a03 3122 f8f4 0509 0a21 1821
000000a0: 1e0f 2523 1018 2910 f213 0917 1a0f 2016
000000b0: 050e fee7 f3e3 e9df daf2 eff6 080c fdfc
000000c0: 1817 0e0e 160f f5e4 00d7 0426 e71d 36ea
000000d0: fbe1 137d 6b11 7f6f
-24 -8 23 34 48 12 61 64
11 -17 4 23 17 26 11 36
33 -2 17 -2 -6 41 50 29
31 56 39 -5 -7 24 -44 -13
34 -53 -11 16 -23 -31 4 -22
10 19 -10 19 23 3 5 12
18 33 22 7 31 30 28 29
-7 4 18 8 -21 -37 -7 59
97 39 -25 35 35 -82 -64 -8
-56 -43 -20 -7 -23 -37 18 8
-26 44 46 3 -12 24 32 -83
-51 30 26 31 19 41 47 7
9 11 -6 14 13 0 22 23
7 14 17 2 46 35 -6 42
38 -2 6 10 2 31 6 -25
44 39 -17 20 33 -4 25 11
-15 -1 -7 -23 -18 -37 -31 37
26 -11 28 7 -19 8 -14 -18
6 18 -6 40 42 3 49 34
-8 -12 5 9 10 33 24 33
30 15 37 35 16 24 41 16
-14 19 9 23 26 15 32 22
5 14 -2 -25 -13 -29 -23 -33
-38 -14 -17 -10 8 12 -3 -4
24 23 14 14 22 15 -11 -28
0 -41 4 38 -25 29 54 -22
-5 -31 19 125 107 17 127 111

onnx::Conv_141_quantized i1 [12, 24, 1, 1]
00000000: 9363 3cc4 5a20 ed54 050c 081d c52c 6426
00000010: 9e55 f70e c8f7 ece1 fe08 aabb e039 7a10
00000020: 49ed 17c7 e653 f4fb 0a16 df99 d5f0 dbc6
00000030: 2023 d5d0 16c2 f0a8 4017 3e21 22ef 06d1
00000040: f80e 3300 ac22 073e 3007 eec8 4418 031e
00000050: d1ce 3b81 1bcc e068 f6c6 fcb4 abd6 2d54
00000060: eaeb 45cb d5c8 fc05 5137 dde6 3828 5cd3
00000070: e2e8 0bcd f0ef 13f2 277c 2500 c4e0 ba2f
00000080: f65d 2306 08a2 d92d b720 25ba 6956 cc12
00000090: 01eb f120 ecf4 ddd1 d7a5 d8d8 2e4b 310b
000000a0: 1e3a b90e 9f15 c2f1 c662 fe66 a337 14a0
000000b0: 05f2 1305 990c ede1 38c7 8bea a7dd 5ae7
000000c0: e1fc 0cc7 df05 1567 191e 6229 37e6 17ef
000000d0: 381f c7f6 dabb e1fa 19e6 2415 0503 034c
000000e0: 2bb7 23c5 e0cb e534 fe20 26c0 e031 5102
000000f0: 59ee c9f6 001b 2e00 2b08 27b2 cfe6 2fb7
-109 99 60 -60 90 32 -19 84
5 12 8 29 -59 44 100 38
-98 85 -9 14 -56 -9 -20 -31
-2 8 -86 -69 -32 57 122 16
73 -19 23 -57 -26 83 -12 -5
10 22 -33 -103 -43 -16 -37 -58
32 35 -43 -48 22 -62 -16 -88
64 23 62 33 34 -17 6 -47
-8 14 51 0 -84 34 7 62
48 7 -18 -56 68 24 3 30
-47 -50 59 -127 27 -52 -32 104
-10 -58 -4 -76 -85 -42 45 84
-22 -21 69 -53 -43 -56 -4 5
81 55 -35 -26 56 40 92 -45
-30 -24 11 -51 -16 -17 19 -14
39 124 37 0 -60 -32 -70 47
-10 93 35 6 8 -94 -39 45
-73 32 37 -70 105 86 -52 18
1 -21 -15 32 -20 -12 -35 -47
-41 -91 -40 -40 46 75 49 11
30 58 -71 14 -97 21 -62 -15
-58 98 -2 102 -93 55 20 -96
5 -14 19 5 -103 12 -19 -31
56 -57 -117 -22 -89 -35 90 -25
-31 -4 12 -57 -33 5 21 103
25 30 98 41 55 -26 23 -17
56 31 -57 -10 -38 -69 -31 -6
25 -26 36 21 5 3 3 76
43 -73 35 -59 -32 -53 -27 52
-2 32 38 -64 -32 49 81 2
89 -18 -55 -10 0 27 46 0
43 8 39 -78 -49 -26 47 -73

linear.weight_quantized i1 [10, 48]
00000000: 0e02 3c06 acee 07eb db12 12eb f1d8 df22
00000010: 21c1 cbb9 1e18 1c1a ceff 0019 29df edf2
00000020: 0df1 341a 221e 001b 140b 03ef f92a 99bb
00000030: 0df5 d1f8 332a e8de 2a2d 4746 f416 3234
00000040: fc38 0ed8 0e2c 3844 f8b1 baab f0f0 16c0
00000050: db2e 1910 08ec 5124 0d0f 1e1c ddd5 d12d
00000060: 1600 575d 3c23 bcfa dddf e8cf 0c0c f21c
00000070: 0517 1915 03fb e800 0c07 2444 edf2 db09
00000080: 100b 3208 284e f516 fae9 fec2 362e 1a11
00000090: f2e0 edce 060b ee05 0b0a 1314 f907 f6e8
000000a0: f3f7 151a fbe6 d6d0 d403 184e 1f0f 0715
000000b0: fded fb33 0a08 f5d8 ed18 de06 1728 1939
000000c0: f32a 2434 fb01 2238 ff23 c493 15e8 e7f3
000000d0: 3b0b 0819 1f13 dac2 0f22 f80a 2503 ef26
000000e0: 3dee 2fd2 b89b d6fa ee0b 1e23 043d 1721
000000f0: ece2 d3cc 380f 0c32 06d7 eeef 2a3d f0e3
14 2 60 6 -84 -18 7 -21
-37 18 18 -21 -15 -40 -33 34
33 -63 -53 -71 30 24 28 26
-50 -1 0 25 41 -33 -19 -14
13 -15 52 26 34 30 0 27
20 11 3 -17 -7 42 -103 -69
13 -11 -47 -8 51 42 -24 -34
42 45 71 70 -12 22 50 52
-4 56 14 -40 14 44 56 68
-8 -79 -70 -85 -16 -16 22 -64
-37 46 25 16 8 -20 81 36
13 15 30 28 -35 -43 -47 45
22 0 87 93 60 35 -68 -6
-35 -33 -24 -49 12 12 -14 28
5 23 25 21 3 -5 -24 0
12 7 36 68 -19 -14 -37 9
16 11 50 8 40 78 -11 22
-6 -23 -2 -62 54 46 26 17
-14 -32 -19 -50 6 11 -18 5
11 10 19 20 -7 7 -10 -24
-13 -9 21 26 -5 -26 -42 -48
-44 3 24 78 31 15 7 21
-3 -19 -5 51 10 8 -11 -40
-19 24 -34 6 23 40 25 57
-13 42 36 52 -5 1 34 56
-1 35 -60 -109 21 -24 -25 -13
59 11 8 25 31 19 -38 -62
15 34 -8 10 37 3 -17 38
61 -18 47 -46 -72 -101 -42 -6
-18 11 30 35 4 61 23 33
-20 -30 -45 -52 56 15 12 50
6 -41 -18 -17 42 61 -16 -29
