Project/Project_files/mobilenetv2_experiments/onnxs/mobilenetv2_12_int8.onnx (onnx, 238645 bytes, 28 tensors)

onnx::Conv_250_quantized i1 [32, 3, 3, 3]
00000000: fdf8 0209 f002 feee fe06 0dfc 01ff f107
00000010: fef4 0324 0f16 1a09 fdfe fe0a fce6 0bf6
00000020: fe0a 0ef9 0009 e0f6 fcfa f10a e1fe 0704
00000030: ff10 08ea 03ed 02fc ea1b 0dd9 18f3 1df4
00000040: f9f5 03d0 d70c f504 09fa fb16 dff7 17fb
00000050: 2c38 e201 11ee 14f9 dfce 05f8 2a13 1e50
00000060: 2d18 c108 d6ff e8d7 28fd 17fa f6f8 0cdf
00000070: dc25 e3c8 1e0e fdfc 09f6 1a08 e621 ee17
00000080: e818 2b17 2f1b e3d9 09e9 dafa f218 fddd
00000090: f208 10fb 0c16 1102 f1f2 0317 eb12 2619
000000a0: 100b f6eb 030e 050a 0cfe e6fb e114 0fff
000000b0: 1814 2211 1bc7 e3fb cfdd fd02 eeeb e5fe
000000c0: ecf2 e513 051a 07e0 01f6 f8f9 1b11 20fc
000000d0: fa01 fa08 fd13 121f f0d3 c1e9 2cff 2110
000000e0: 0816 e100 1042 2cf0 1e2f 25cc dc08 05ec
000000f0: cfe7 12f4 f4e5 1af6 1123 0e04 f51f f805
-3 -8 2 9 -16 2 -2 -18
-2 6 13 -4 1 -1 -15 7
-2 -12 3 36 15 22 26 9
-3 -2 -2 10 -4 -26 11 -10
-2 10 14 -7 0 9 -32 -10
-4 -6 -15 10 -31 -2 7 4
-1 16 8 -22 3 -19 2 -4
-22 27 13 -39 24 -13 29 -12
-7 -11 3 -48 -41 12 -11 4
9 -6 -5 22 -33 -9 23 -5
44 56 -30 1 17 -18 20 -7
-33 -50 5 -8 42 19 30 80
45 24 -63 8 -42 -1 -24 -41
40 -3 23 -6 -10 -8 12 -33
-36 37 -29 -56 30 14 -3 -4
9 -10 26 8 -26 33 -18 23
-24 24 43 23 47 27 -29 -39
9 -23 -38 -6 -14 24 -3 -35
-14 8 16 -5 12 22 17 2
-15 -14 3 23 -21 18 38 25
16 11 -10 -21 3 14 5 10
12 -2 -26 -5 -31 20 15 -1
24 20 34 17 27 -57 -29 -5
-49 -35 -3 2 -18 -21 -27 -2
-20 -14 -27 19 5 26 7 -32
1 -10 -8 -7 27 17 32 -4
-6 1 -6 8 -3 19 18 31
-16 -45 -63 -23 44 -1 33 16
8 22 -31 0 16 66 44 -16
30 47 37 -52 -36 8 5 -20
-49 -25 18 -12 -12 -27 26 -10
17 35 14 4 -11 31 -8 5

layers.0.conv4.weight_quantized i1 [16, 32, 1, 1]
00000000: 30f5 1ddb 5bf2 f52d 470a 4495 e304 0510
00000010: 002a eaf8 250b 0c1e 3800 2f2d f6b7 44b3
00000020: e1ec 0e2f 380d 3525 d2f4 2ba4 e7d4 e63f
00000030: e0be 3bf2 8b93 2609 d04f c423 3701 f43b
00000040: e0f5 f0f6 cb13 fdbf fce4 0fec 2407 0025
00000050: 2304 1818 fad1 041f daf2 e34c d72e df5d
00000060: 0720 d830 0d26 2809 091b 5847 fe1b 02e1
00000070: 4107 f331 7cd2 01fe fbc1 d3d0 d3bb 0a8c
00000080: 1a20 d39a de01 085e 5e0e f803 1b0d 43fa
00000090: ab0f 22eb c012 0510 25d3 20e6 0909 db14
000000a0: 3005 f1eb 2727 21f5 de25 fcfb 191f eae6
000000b0: dcf9 f1e2 e4fa f8ea 220a cc11 1204 f705
000000c0: cacd 3ae7 18e9 103d d708 fe04 e32c 04e1
000000d0: 29ef 28ff 4537 ee23 03ed ddd4 f339 e52a
000000e0: e4fd ca20 1732 05fc d809 0048 4903 2609
000000f0: c945 0b09 28ef 0008 1353 181b edc9 c8d0
48 -11 29 -37 91 -14 -11 45
71 10 68 -107 -29 4 5 16
0 42 -22 -8 37 11 12 30
56 0 47 45 -10 -73 68 -77
-31 -20 14 47 56 13 53 37
-46 -12 43 -92 -25 -44 -26 63
-32 -66 59 -14 -117 -109 38 9
-48 79 -60 35 55 1 -12 59
-32 -11 -16 -10 -53 19 -3 -65
-4 -28 15 -20 36 7 0 37
35 4 24 24 -6 -47 4 31
-38 -14 -29 76 -41 46 -33 93
7 32 -40 48 13 38 40 9
9 27 88 71 -2 27 2 -31
65 7 -13 49 124 -46 1 -2
-5 -63 -45 -48 -45 -69 10 -116
26 32 -45 -102 -34 1 8 94
94 14 -8 3 27 13 67 -6
-85 15 34 -21 -64 18 5 16
37 -45 32 -26 9 9 -37 20
48 5 -15 -21 39 39 33 -11
-34 37 -4 -5 25 31 -22 -26
-36 -7 -15 -30 -28 -6 -8 -22
34 10 -52 17 18 4 -9 5
-54 -51 58 -25 24 -23 16 61
-41 8 -2 4 -29 44 4 -31
41 -17 40 -1 69 55 -18 35
3 -19 -35 -44 -13 57 -27 42
-28 -3 -54 32 23 50 5 -4
-40 9 0 72 73 3 38 9
-55 69 11 9 40 -17 0 8
19 83 24 27 -19 -55 -56 -48

onnx::Conv_253_quantized i1 [32, 32, 1, 1]
00000000: e64f 391e b4df f4ef c3d4 fcdc eef3 021a
00000010: 2d09 eb09 0430 27ef 2fff f550 f70d 0423
00000020: 0f08 edfb faf8 f1e3 ef01 d916 f0f4 fcf2
00000030: d1e0 f3ea ddd8 000f fd1a 2218 fe13 f402
00000040: c8e9 1be2 f6cf ba00 e4de f8a3 1fb7 e6ed
00000050: 4313 0b20 2bec 0ce0 12de 1ad3 dae4 c957
00000060: 1ce5 f6be 015f f431 1427 ec11 2851 04f2
00000070: 00ed 1fe4 f2e7 c60a bed2 25fe eae8 00fb
00000080: 2366 dff6 62f2 9ad9 cf02 2b22 e508 d801
00000090: f7d1 00db 1039 eb29 3ffd 23e8 edd8 0bfd
000000a0: ee25 1cb8 d615 962a d916 f1e4 af21 c4f5
000000b0: bf12 13da fdf3 1cc6 13f7 23ff fdb9 dfd6
000000c0: 161a 01f9 250a 0612 e9f6 07f2 ebfe 2506
000000d0: f7de fdf5 08fa 1917 ff23 0722 1d0a 130e
000000e0: 16e4 1bf2 f119 2521 f3ea e11b 04f6 fbf7
000000f0: f9d3 f42c 2b34 ddfe f9fa 14d7 2138 1b1b
-26 79 57 30 -76 -33 -12 -17
-61 -44 -4 -36 -18 -13 2 26
45 9 -21 9 4 48 39 -17
47 -1 -11 80 -9 13 4 35
15 8 -19 -5 -6 -8 -15 -29
-17 1 -39 22 -16 -12 -4 -14
-47 -32 -13 -22 -35 -40 0 15
-3 26 34 24 -2 19 -12 2
-56 -23 27 -30 -10 -49 -70 0
-28 -34 -8 -93 31 -73 -26 -19
67 19 11 32 43 -20 12 -32
18 -34 26 -45 -38 -28 -55 87
28 -27 -10 -66 1 95 -12 49
20 39 -20 17 40 81 4 -14
0 -19 31 -28 -14 -25 -58 10
-66 -46 37 -2 -22 -24 0 -5
35 102 -33 -10 98 -14 -102 -39
-49 2 43 34 -27 8 -40 1
-9 -47 0 -37 16 57 -21 41
63 -3 35 -24 -19 -40 11 -3
-18 37 28 -72 -42 21 -106 42
-39 22 -15 -28 -81 33 -60 -11
-65 18 19 -38 -3 -13 28 -58
19 -9 35 -1 -3 -71 -33 -42
22 26 1 -7 37 10 6 18
-23 -10 7 -14 -21 -2 37 6
-9 -34 -3 -11 8 -6 25 23
-1 35 7 34 29 10 19 14
22 -28 27 -14 -15 25 37 33
-13 -22 -31 27 4 -10 -5 -9
-7 -45 -12 44 43 52 -35 -2
-7 -6 20 -41 33 56 27 27

onnx::Conv_256_quantized i1 [32, 1, 3, 3]
00000000: efee 141a 1a13 02e8 0807 4d1b dcef 0d0e
00000010: d7d8 0add 0dd9 24e8 e31a e6ed f7fa 2734
00000020: ec1b e0df 3021 dd0f ccfb 36d3 fefb d5e9
00000030: ddf5 0e39 0447 f811 e601 f9b2 ebf6 0fe7
00000040: 282c 0a2d d825 efc0 051e 042d 02e6 1306
00000050: c1e9 2de3 f302 00f8 eec4 dbfb 12e9 fd4b
00000060: 0a0e e10c fdfc bde0 1e43 38ec 05ee 0aef
00000070: f3f7 f307 04ec 7fa3 fa21 d917 ab47 132c
00000080: 0ff3 e318 d70a d1f5 e9f3 06ec f928 0218
00000090: 33dc e61d fbe4 1d1e 05f3 fb22 12d0 4408
000000a0: e2df effc 0feb fdfd 0702 ec06 01de fff3
000000b0: 0309 f6ff ed36 13f5 10cc 23f3 03f3 09df
000000c0: 171d e2d7 1413 0701 fe0d 1308 0e02 01d7
000000d0: 392d 0b30 c12b c5e1 1802 f8fe 2402 1def
000000e0: d8ef f41f 321a cffb 1ef0 f9eb fcf0 10e5
000000f0: f2f3 0432 ec1d 30fd cbf2 ea08 0deb 2712
-17 -18 20 26 26 19 2 -24
8 7 77 27 -36 -17 13 14
-41 -40 10 -35 13 -39 36 -24
-29 26 -26 -19 -9 -6 39 52
-20 27 -32 -33 48 33 -35 15
-52 -5 54 -45 -2 -5 -43 -23
-35 -11 14 57 4 71 -8 17
-26 1 -7 -78 -21 -10 15 -25
40 44 10 45 -40 37 -17 -64
5 30 4 45 2 -26 19 6
-63 -23 45 -29 -13 2 0 -8
-18 -60 -37 -5 18 -23 -3 75
10 14 -31 12 -3 -4 -67 -32
30 67 56 -20 5 -18 10 -17
-13 -9 -13 7 4 -20 127 -93
-6 33 -39 23 -85 71 19 44
15 -13 -29 24 -41 10 -47 -11
-23 -13 6 -20 -7 40 2 24
51 -36 -26 29 -5 -28 29 30
5 -13 -5 34 18 -48 68 8
-30 -33 -17 -4 15 -21 -3 -3
7 2 -20 6 1 -34 -1 -13
3 9 -10 -1 -19 54 19 -11
16 -52 35 -13 3 -13 9 -33
23 29 -30 -41 20 19 7 1
-2 13 19 8 14 2 1 -41
57 45 11 48 -63 43 -59 -31
24 2 -8 -2 36 2 29 -17
-40 -17 -12 31 50 26 -49 -5
30 -16 -7 -21 -4 -16 16 -27
-14 -13 4 50 -20 29 48 -3
-53 -14 -22 8 13 -21 39 18

onnx::Conv_259_quantized i1 [16, 32, 1, 1]
00000000: 2ee8 2b15 fd43 f212 36b3 03f1 c2e7 2f6f
00000010: f7f9 0423 bc35 0e30 e5c2 1e02 1fa9 2fd4
00000020: 2129 dede 0a37 1804 2a16 49c7 0412 f113
00000030: 999e 1803 ce2f f8ec fcf9 36a0 d6e1 1e43
00000040: f71d dabf baea f9b6 dfe8 c9db 0ebf d10c
00000050: f3fa ebe7 ed0c f5d4 f421 202e f8a8 3cf6
00000060: 03fd e30b 8123 fbf6 dbd6 ad31 0d1e 2cf2
00000070: 9aea ae1b 1a10 29fe e227 fec9 24d0 ea2e
00000080: c132 fa23 a1ec 0c31 c602 eef1 1e1c 58ec
00000090: 21e7 0c11 11d6 bc19 0912 e9fc b2e0 472b
000000a0: d417 333c 0c04 c7fa e713 e5a1 44e4 e032
000000b0: 071e 0633 afc9 bef4 f35b 1fc2 fefc f0a1
000000c0: 56f7 e74a f701 edb2 e8db 5baf ce8b b4b6
000000d0: 1fec 1825 dcca f7f9 29f4 1c0b 3d2f 34cf
000000e0: f9f5 e8e0 06f5 1aef 38c2 5016 b9d7 14cf
000000f0: 33b5 b501 f21a 1407 c93a c508 b6f7 d559
46 -24 43 21 -3 67 -14 18
54 -77 3 -15 -62 -25 47 111
-9 -7 4 35 -68 53 14 48
-27 -62 30 2 31 -87 47 -44
33 41 -34 -34 10 55 24 4
42 22 73 -57 4 18 -15 19
-103 -98 24 3 -50 47 -8 -20
-4 -7 54 -96 -42 -31 30 67
-9 29 -38 -65 -70 -22 -7 -74
-33 -24 -55 -37 14 -65 -47 12
-13 -6 -21 -25 -19 12 -11 -44
-12 33 32 46 -8 -88 60 -10
3 -3 -29 11 -127 35 -5 -10
-37 -42 -83 49 13 30 44 -14
-102 -22 -82 27 26 16 41 -2
-30 39 -2 -55 36 -48 -22 46
-63 50 -6 35 -95 -20 12 49
-58 2 -18 -15 30 28 88 -20
33 -25 12 17 17 -42 -68 25
9 18 -23 -4 -78 -32 71 43
-44 23 51 60 12 4 -57 -6
-25 19 -27 -95 68 -28 -32 50
7 30 6 51 -81 -55 -66 -12
-13 91 31 -62 -2 -4 -16 -95
86 -9 -25 74 -9 1 -19 -78
-24 -37 91 -81 -50 -117 -76 -74
31 -20 24 37 -36 -54 -9 -7
41 -12 28 11 61 47 52 -49
-7 -11 -24 -32 6 -11 26 -17
56 -62 80 22 -71 -41 20 -49
51 -75 -75 1 -14 26 20 7
-55 58 -59 8 -74 -9 -43 89

onnx::Conv_262_quantized i1 [96, 16, 1, 1]
00000000: de03 d5be 0ce2 de36 14f6 2bd7 1ceb 1721
00000010: 5614 c2f7 2d4b ef2f 14a7 121d fabb e594
00000020: 030d 1122 ccd2 f817 2709 fe3d b3ff e52c
00000030: f009 f70d 0003 1ff4 2908 35d5 f7f5 1a07
00000040: 03ca 0239 fb33 2d24 eaff eecb e1db e007
00000050: e4cb 2bf8 f6d3 230a 3306 d7fd 201a 16d9
00000060: 2924 04df face fc33 ec93 db1b da01 b5fc
00000070: fa17 0bd3 e510 f209 eb1e ed09 1ae7 01ee
00000080: 13f9 05e2 0b1d d422 cb04 1d05 efff d00d
00000090: 0f13 2f0a 1c04 f518 f810 c90b 0cfa 050e
000000a0: 0f0a e828 2818 f40d d5e2 23d8 0bf3 1d06
000000b0: fdf2 1c16 f017 1ad7 fde1 04ce ee11 0ccd
000000c0: 0926 07f2 e4e5 fbf4 f4ed 16f4 e801 0e00
000000d0: d30a 1025 092a f11a d5ff 03e1 0002 deee
000000e0: e024 0111 02ef eff2 ec05 00fd 0ed4 1615
000000f0: 22dc d0fe fb25 d7cf 12fa 03d2 f954 381e
-34 3 -43 -66 12 -30 -34 54
20 -10 43 -41 28 -21 23 33
86 20 -62 -9 45 75 -17 47
20 -89 18 29 -6 -69 -27 -108
3 13 17 34 -52 -46 -8 23
39 9 -2 61 -77 -1 -27 44
-16 9 -9 13 0 3 31 -12
41 8 53 -43 -9 -11 26 7
3 -54 2 57 -5 51 45 36
-22 -1 -18 -53 -31 -37 -32 7
-28 -53 43 -8 -10 -45 35 10
51 6 -41 -3 32 26 22 -39
41 36 4 -33 -6 -50 -4 51
-20 -109 -37 27 -38 1 -75 -4
-6 23 11 -45 -27 16 -14 9
-21 30 -19 9 26 -25 1 -18
19 -7 5 -30 11 29 -44 34
-53 4 29 5 -17 -1 -48 13
15 19 47 10 28 4 -11 24
-8 16 -55 11 12 -6 5 14
15 10 -24 40 40 24 -12 13
-43 -30 35 -40 11 -13 29 6
-3 -14 28 22 -16 23 26 -41
-3 -31 4 -50 -18 17 12 -51
9 38 7 -14 -28 -27 -5 -12
-12 -19 22 -12 -24 1 14 0
-45 10 16 37 9 42 -15 26
-43 -1 3 -31 0 2 -34 -18
-32 36 1 17 2 -17 -17 -14
-20 5 0 -3 14 -44 22 21
34 -36 -48 -2 -5 37 -41 -49
18 -6 3 -46 -7 84 56 30

onnx::Conv_265_quantized i1 [96, 1, 3, 3]
00000000: 1924 e0e0 e714 c2ef 07ee 0713 effc 1518
00000010: 100b 2214 14e7 041e d7d2 e9fd 09d2 3f1c
00000020: 00d3 fc1e ef22 13d6 dad3 12e9 070c 3114
00000030: 0b03 e5f3 cbf0 0c14 cd2d 15ee d62b f523
00000040: 1c1f f406 46e3 b9dd fdba bf09 12f4 2232
00000050: 27af 1513 08c3 4515 c608 c3d9 06f9 3221
00000060: 2029 f224 e716 fed3 f6ad f948 2ac0 0d2a
00000070: 904a 2ebf 2122 00d3 d2ab f8e1 1056 fec9
00000080: 3ad3 f437 ce3e f70e 060e 2313 0518 09f9
00000090: ea10 fedc d2d0 1910 f9e1 e1ef ec0a 00f1
000000a0: 1d15 f505 1901 d71f 1fcb 1830 f203 f450
000000b0: 38d8 abb5 0ef7 de24 efec 26de f3ed 27fb
000000c0: c911 1dfc e0fe eddb 07f5 fbc2 133b 3aeb
000000d0: d401 c904 26da 2832 f942 1504 0808 19fc
000000e0: 1825 29e8 e607 34d5 df00 0622 d205 26c4
000000f0: 181f cbef a04e 40de 8106 161e 0efb 24e3
25 36 -32 -32 -25 20 -62 -17
7 -18 7 19 -17 -4 21 24
16 11 34 20 20 -25 4 30
-41 -46 -23 -3 9 -46 63 28
0 -45 -4 30 -17 34 19 -42
-38 -45 18 -23 7 12 49 20
11 3 -27 -13 -53 -16 12 20
-51 45 21 -18 -42 43 -11 35
28 31 -12 6 70 -29 -71 -35
-3 -70 -65 9 18 -12 34 50
39 -81 21 19 8 -61 69 21
-58 8 -61 -39 6 -7 50 33
32 41 -14 36 -25 22 -2 -45
-10 -83 -7 72 42 -64 13 42
-112 74 46 -65 33 34 0 -45
-46 -85 -8 -31 16 86 -2 -55
58 -45 -12 55 -50 62 -9 14
6 14 35 19 5 24 9 -7
-22 16 -2 -36 -46 -48 25 16
-7 -31 -31 -17 -20 10 0 -15
29 21 -11 5 25 1 -41 31
31 -53 24 48 -14 3 -12 80
56 -40 -85 -75 14 -9 -34 36
-17 -20 38 -34 -13 -19 39 -5
-55 17 29 -4 -32 -2 -19 -37
7 -11 -5 -62 19 59 58 -21
-44 1 -55 4 38 -38 40 50
-7 66 21 4 8 8 25 -4
24 37 41 -24 -26 7 52 -43
-33 0 6 34 -46 5 38 -60
24 31 -53 -17 -96 78 64 -34
-127 6 22 30 14 -5 36 -29

onnx::Conv_268_quantized i1 [24, 96, 1, 1]
00000000: d2fb e2ec 0ed0 fd26 0719 f3f5 3ae4 00d8
00000010: d8d7 ec0c ef31 43f3 da16 1004 0832 032f
00000020: 0aee 32d9 bbe0 e7f4 f226 d30c ced4 f653
00000030: e9ff f321 1f10 2617 371b 15c7 f912 3fee
00000040: f916 dce4 0edd 36f0 fdff 210d e3fc e646
00000050: dce8 22f8 22e7 04fb f9fb 24cf eace d10f
00000060: e62d f012 1b03 e721 e714 1f03 160d 2eeb
00000070: f809 34fb f6d0 fd0e eede 34f3 0301 1503
00000080: ea0c e50e 0cfa 1330 0202 2133 2c0e f5d7
00000090: eaef 0ecf 3eeb de2d d4d0 f50e 4625 fb19
000000a0: 19fb f803 190d f429 04d7 07c3 3ceb 09df
000000b0: 06f7 f8fc 1728 e9d9 f9d5 c901 d331 0104
000000c0: 190d 15fd c42b 141f 11d6 18f6 4f0b 3cd5
000000d0: 33df f221 071d 64d8 b7ea 0415 33ec 1255
000000e0: 1858 040a 1323 d348 1f2c f5e5 003f e6d9
000000f0: e2d7 12e6 e0ec 167f 1af3 04f0 093a f3bd
-46 -5 -30 -20 14 -48 -3 38
7 25 -13 -11 58 -28 0 -40
-40 -41 -20 12 -17 49 67 -13
-38 22 16 4 8 50 3 47
10 -18 50 -39 -69 -32 -25 -12
-14 38 -45 12 -50 -44 -10 83
-23 -1 -13 33 31 16 38 23
55 27 21 -57 -7 18 63 -18
-7 22 -36 -28 14 -35 54 -16
-3 -1 33 13 -29 -4 -26 70
-36 -24 34 -8 34 -25 4 -5
-7 -5 36 -49 -22 -50 -47 15
-26 45 -16 18 27 3 -25 33
-25 20 31 3 22 13 46 -21
-8 9 52 -5 -10 -48 -3 14
-18 -34 52 -13 3 1 21 3
-22 12 -27 14 12 -6 19 48
2 2 33 51 44 14 -11 -41
-22 -17 14 -49 62 -21 -34 45
-44 -48 -11 14 70 37 -5 25
25 -5 -8 3 25 13 -12 41
4 -41 7 -61 60 -21 9 -33
6 -9 -8 -4 23 40 -23 -39
-7 -43 -55 1 -45 49 1 4
25 13 21 -3 -60 43 20 31
17 -42 24 -10 79 11 60 -43
51 -33 -14 33 7 29 100 -40
-73 -22 4 21 51 -20 18 85
24 88 4 10 19 35 -45 72
31 44 -11 -27 0 63 -26 -39
-30 -41 18 -26 -32 -20 22 127
26 -13 4 -16 9 58 -13 -67

layers.2.conv4.weight_quantized i1 [24, 24, 1, 1]
00000000: e144 1b27 f5d5 b7d8 d30d d7e5 c0a9 c5fa
00000010: e9e4 e316 2b03 f213 190c 3420 fd60 3e27
00000020: 26fb b120 171c 3935 4814 13f1 bff8 e6f4
00000030: 0be8 f8f9 fcf3 3536 d1d1 01e5 cf1b 20ee
00000040: 1654 ed09 ff11 3f49 67db 0ff5 f608 0c43
00000050: dc31 fe19 8ee9 3137 1cff dddc eef6 d9d9
00000060: feef d529 d1e5 20ac ecde c8fd edff fcc4
00000070: 2311 cf2e f3dc b4e4 0ae7 f8f1 f6da 2c1f
00000080: 0dee ed28 13f0 ee25 1cc0 051b 07e3 0417
00000090: 2ed3 ea20 ba1a 03ca 0cfd 001a f543 5028
000000a0: 0214 f302 bb1c 30f6 1c48 e805 0031 62e7
000000b0: 7619 ec5e c222 f499 d5c6 fd05 f5d7 1922
000000c0: f2f3 164c e9cf e930 a9a9 1c31 3720 8700
000000d0: 4f21 3010 0726 242d f3fc 0d07 d22b ecfa
000000e0: 0429 28f0 cc0f e445 451e 22f1 f649 96d0
000000f0: ebea a30b 34ed 35d6 32d3 3620 1755 2d00
-31 68 27 39 -11 -43 -73 -40
-45 13 -41 -27 -64 -87 -59 -6
-23 -28 -29 22 43 3 -14 19
25 12 52 32 -3 96 62 39
38 -5 -79 32 23 28 57 53
72 20 19 -15 -65 -8 -26 -12
11 -24 -8 -7 -4 -13 53 54
-47 -47 1 -27 -49 27 32 -18
22 84 -19 9 -1 17 63 73
103 -37 15 -11 -10 8 12 67
-36 49 -2 25 -114 -23 49 55
28 -1 -35 -36 -18 -10 -39 -39
-2 -17 -43 41 -47 -27 32 -84
-20 -34 -56 -3 -19 -1 -4 -60
35 17 -49 46 -13 -36 -76 -28
10 -25 -8 -15 -10 -38 44 31
13 -18 -19 40 19 -16 -18 37
28 -64 5 27 7 -29 4 23
46 -45 -22 32 -70 26 3 -54
12 -3 0 26 -11 67 80 40
2 20 -13 2 -69 28 48 -10
28 72 -24 5 0 49 98 -25
118 25 -20 94 -62 34 -12 -103
-43 -58 -3 5 -11 -41 25 34
-14 -13 22 76 -23 -49 -23 48
-87 -87 28 49 55 32 -121 0
79 33 48 16 7 38 36 45
-13 -4 13 7 -46 43 -20 -6
4 41 40 -16 -52 15 -28 69
69 30 34 -15 -10 73 -106 -48
-21 -22 -93 11 52 -19 53 -42
50 -45 54 32 23 85 45 0

onnx::Conv_271_quantized i1 [144, 24, 1, 1]
00000000: f2f4 0ef4 1109 eef7 1ef1 06fa 0a3c 2de4
00000010: d62f 22e4 cf18 06e0 f60e 39f0 1afe 0cf9
00000020: e8f8 d5dc 31f3 ddf4 ee07 12ee f716 f7ef
00000030: 05f9 00db 06eb 0e24 e215 2edb 151e eafc
00000040: 0607 ec2a efe5 08ed fae9 eb1d 2327 fee1
00000050: f21d 110f 10fd 021a 251a e33e 2ef3 ff1c
00000060: ed03 0913 ef15 171d ec0c 1a15 f61b e21b
00000070: f6f8 17f5 110b 2234 d34b d91b f0f6 00db
00000080: 1109 ffe1 e6fc 1bf1 cce2 f8f1 f238 f82f
00000090: 08e7 cff7 d50c feed 05e5 061d 363c 0d03
000000a0: e6e5 f3e8 feea fce7 0e07 f6f3 d725 fc10
000000b0: ea2f 1026 11f9 0314 2c0f edeb e5ee 042b
000000c0: 04f9 e114 f8f7 2709 f7f3 4424 f504 def7
000000d0: fd23 100d cdf9 dbf4 10e0 b911 d10e 3be8
000000e0: 2b0a d8e2 c913 15db d61f fd15 020c 1a01
000000f0: 2517 28e7 f7e1 0dfa 09f1 f0eb dafe e314
-14 -12 14 -12 17 9 -18 -9
30 -15 6 -6 10 60 45 -28
-42 47 34 -28 -49 24 6 -32
-10 14 57 -16 26 -2 12 -7
-24 -8 -43 -36 49 -13 -35 -12
-18 7 18 -18 -9 22 -9 -17
5 -7 0 -37 6 -21 14 36
-30 21 46 -37 21 30 -22 -4
6 7 -20 42 -17 -27 8 -19
-6 -23 -21 29 35 39 -2 -31
-14 29 17 15 16 -3 2 26
37 26 -29 62 46 -13 -1 28
-19 3 9 19 -17 21 23 29
-20 12 26 21 -10 27 -30 27
-10 -8 23 -11 17 11 34 52
-45 75 -39 27 -16 -10 0 -37
17 9 -1 -31 -26 -4 27 -15
-52 -30 -8 -15 -14 56 -8 47
8 -25 -49 -9 -43 12 -2 -19
5 -27 6 29 54 60 13 3
-26 -27 -13 -24 -2 -22 -4 -25
14 7 -10 -13 -41 37 -4 16
-22 47 16 38 17 -7 3 20
44 15 -19 -21 -27 -18 4 43
4 -7 -31 20 -8 -9 39 9
-9 -13 68 36 -11 4 -34 -9
-3 35 16 13 -51 -7 -37 -12
16 -32 -71 17 -47 14 59 -24
43 10 -40 -30 -55 19 21 -37
-42 31 -3 21 2 12 26 1
37 23 40 -25 -9 -31 13 -6
9 -15 -16 -21 -38 -2 -29 20

onnx::Conv_274_quantized i1 [144, 1, 3, 3]
00000000: dbf5 ff19 ecf3 e109 f6f0 1c01 1914 0cdf
00000010: e8ed 02d0 f0d0 2c05 db24 d4f5 0f10 0adc
00000020: 02cf 3607 f108 e5fa 28cd 310d 000d fb0a
00000030: 03ff 190f 05ef e81d 06ea 1528 04ed 0ff5
00000040: f1f4 e821 1913 f3ef e224 f7e0 16fe 1cec
00000050: fe12 08ec 0b05 0b0e 1b07 0602 0e1d 02f9
00000060: 181a eef6 06fe 1d07 0f05 310d c714 2f06
00000070: 01fe 0600 2a05 e6de 1b14 16f8 fc1f dad9
00000080: fbe0 ee19 003b ff08 07f1 d412 fdff 190e
00000090: ffef f9e1 df0d f140 f502 eff9 fcf4 16ea
000000a0: f3f3 1428 0dec 1d0d 13f0 e814 dc0f ee1b
000000b0: e5ff f413 f50a eb1f f8fc 1af8 ecee 20db
000000c0: f411 06ea 1d22 2324 13f1 e6dd caf5 f137
000000d0: 05e1 0e05 1b02 fe21 c24e d1d5 fbca 0454
000000e0: 1df6 1cec dfe6 2815 29d9 f4ec 18e9 0614
000000f0: 0e0f 02f8 00e5 f0f0 e8db f0fa fee2 d513
-37 -11 -1 25 -20 -13 -31 9
-10 -16 28 1 25 20 12 -33
-24 -19 2 -48 -16 -48 44 5
-37 36 -44 -11 15 16 10 -36
2 -49 54 7 -15 8 -27 -6
40 -51 49 13 0 13 -5 10
3 -1 25 15 5 -17 -24 29
6 -22 21 40 4 -19 15 -11
-15 -12 -24 33 25 19 -13 -17
-30 36 -9 -32 22 -2 28 -20
-2 18 8 -20 11 5 11 14
27 7 6 2 14 29 2 -7
24 26 -18 -10 6 -2 29 7
15 5 49 13 -57 20 47 6
1 -2 6 0 42 5 -26 -34
27 20 22 -8 -4 31 -38 -39
-5 -32 -18 25 0 59 -1 8
7 -15 -44 18 -3 -1 25 14
-1 -17 -7 -31 -33 13 -15 64
-11 2 -17 -7 -4 -12 22 -22
-13 -13 20 40 13 -20 29 13
19 -16 -24 20 -36 15 -18 27
-27 -1 -12 19 -11 10 -21 31
-8 -4 26 -8 -20 -18 32 -37
-12 17 6 -22 29 34 35 36
19 -15 -26 -35 -54 -11 -15 55
5 -31 14 5 27 2 -2 33
-62 78 -47 -43 -5 -54 4 84
29 -10 28 -20 -33 -26 40 21
41 -39 -12 -20 24 -23 6 20
14 15 2 -8 0 -27 -16 -16
-24 -37 -16 -6 -2 -30 -43 19

onnx::Conv_277_quantized i1 [24, 144, 1, 1]
00000000: eb0f e71d 421a f90c ce1e 5be8 d262 f2c8
00000010: ef2c 31fc 2b44 fdff 4ae4 3126 2eff faf4
00000020: d3c9 eb1f 33ec 0528 a548 f8f6 1cc3 fefb
00000030: ffec cc1b fa2b dbf5 15ac 3d05 602e f2ef
00000040: 08e8 30f4 d028 4702 c31d 08d0 d424 18c4
00000050: 54fa 17f3 02c0 3e67 f9c7 28cb fb3e e438
00000060: c715 1e1e de45 e9f7 d2dd ea02 0306 2d36
00000070: 1412 edeb f2d1 2ce8 f4c8 fb30 0c27 bec4
00000080: 04ef f11c b3e3 dbdd f3df 0201 331d 1000
00000090: 3a1f 14fd cd30 020c 12cb ddfc f115 1e16
000000a0: 261a dd1f f2a6 ca26 2a6c e7dd 0ced 0039
000000b0: e203 22db e928 210c 1d30 1b0f e7e7 1f1f
000000c0: 0ccd 2fef 2753 d51f dcf2 16c8 f7d0 232d
000000d0: e936 e0bb d6c5 08dc f1c2 d8c0 d64f f01c
000000e0: 023a eccd 10f8 33d4 4329 dda5 ff02 eff3
000000f0: 31c0 29e3 c8e0 23ed cf1b cc16 f309 e943
-21 15 -25 29 66 26 -7 12
-50 30 91 -24 -46 98 -14 -56
-17 44 49 -4 43 68 -3 -1
74 -28 49 38 46 -1 -6 -12
-45 -55 -21 31 51 -20 5 40
-91 72 -8 -10 28 -61 -2 -5
-1 -20 -52 27 -6 43 -37 -11
21 -84 61 5 96 46 -14 -17
8 -24 48 -12 -48 40 71 2
-61 29 8 -48 -44 36 24 -60
84 -6 23 -13 2 -64 62 103
-7 -57 40 -53 -5 62 -28 56
-57 21 30 30 -34 69 -23 -9
-46 -35 -22 2 3 6 45 54
20 18 -19 -21 -14 -47 44 -24
-12 -56 -5 48 12 39 -66 -60
4 -17 -15 28 -77 -29 -37 -35
-13 -33 2 1 51 29 16 0
58 31 20 -3 -51 48 2 12
18 -53 -35 -4 -15 21 30 22
38 26 -35 31 -14 -90 -54 38
42 108 -25 -35 12 -19 0 57
-30 3 34 -37 -23 40 33 12
29 48 27 15 -25 -25 31 31
12 -51 47 -17 39 83 -43 31
-36 -14 22 -56 -9 -48 35 45
-23 54 -32 -69 -42 -59 8 -36
-15 -62 -40 -64 -42 79 -16 28
2 58 -20 -51 16 -8 51 -44
67 41 -35 -91 -1 2 -17 -13
49 -64 41 -29 -56 -32 35 -19
-49 27 -52 22 -13 9 -23 67

onnx::Conv_280_quantized i1 [144, 24, 1, 1]
00000000: 311f 0017 e8fa e620 2fe2 c61f f310 53c8
00000010: 0ae1 130f d52e 01b2 c716 e513 0ce5 c51a
00000020: 24fd 01e2 f8cf 1eee e1e8 2420 e5ee fcd7
00000030: 12f5 dde2 f10b c8eb 1701 0b19 dd08 eb07
00000040: 29d1 d5f4 ef0c 19de e6ee 00ce cc17 e7fb
00000050: 0331 0ae5 e800 451f 0c03 32fb da06 4637
00000060: 4dd4 fbe9 db19 fd13 23fc f4d4 1cf4 f417
00000070: cbe6 fbf8 0e18 05c3 39e4 0eeb e706 c829
00000080: e8f7 ff05 d931 e13b 3214 20fd 24f4 1511
00000090: e809 de10 e7eb 08f7 f3f4 e62d f815 e6fa
000000a0: f219 30f1 c5fb 111a 2404 33ed efff 09e0
000000b0: ff2a f3b8 e10a 0c35 31ce 4610 08eb eaf7
000000c0: 39e5 1efe e646 eefe f4e2 1a0d 1211 18ef
000000d0: fbbf 4bc3 e504 51d2 f7f3 f528 f4fa ef40
000000e0: 09f3 e82d e4fc f10b fad3 f7ed e0fa 20cd
000000f0: e9e9 1302 310c cf40 1ae3 d3fe e818 00e4
49 31 0 23 -24 -6 -26 32
47 -30 -58 31 -13 16 83 -56
10 -31 19 15 -43 46 1 -78
-57 22 -27 19 12 -27 -59 26
36 -3 1 -30 -8 -49 30 -18
-31 -24 36 32 -27 -18 -4 -41
18 -11 -35 -30 -15 11 -56 -21
23 1 11 25 -35 8 -21 7
41 -47 -43 -12 -17 12 25 -34
-26 -18 0 -50 -52 23 -25 -5
3 49 10 -27 -24 0 69 31
12 3 50 -5 -38 6 70 55
77 -44 -5 -23 -37 25 -3 19
35 -4 -12 -44 28 -12 -12 23
-53 -26 -5 -8 14 24 5 -61
57 -28 14 -21 -25 6 -56 41
-24 -9 -1 5 -39 49 -31 59
50 20 32 -3 36 -12 21 17
-24 9 -34 16 -25 -21 8 -9
-13 -12 -26 45 -8 21 -26 -6
-14 25 48 -15 -59 -5 17 26
36 4 51 -19 -17 -1 9 -32
-1 42 -13 -72 -31 10 12 53
49 -50 70 16 8 -21 -22 -9
57 -27 30 -2 -26 70 -18 -2
-12 -30 26 13 18 17 24 -17
-5 -65 75 -61 -27 4 81 -46
-9 -13 -11 40 -12 -6 -17 64
9 -13 -24 45 -28 -4 -15 11
-6 -45 -9 -19 -32 -6 32 -51
-23 -23 19 2 49 12 -49 64
26 -29 -45 -2 -24 24 0 -28

onnx::Conv_283_quantized i1 [144, 1, 3, 3]
00000000: ebe3 0000 0919 d118 4fd1 d7b4 0501 d933
00000010: 3d2a 0d19 0f34 3b14 eef5 f7e7 e4f2 d4f1
00000020: 14f6 ff21 0af6 05ef 14c2 c3dc 04ee cc06
00000030: d816 0bf7 023c f4f7 09e1 d2e7 e9e7 dae1
00000040: dbe8 0d0b 30eb 38fd 2cf0 f815 2ade fc15
00000050: 361b eff6 0ae3 d5da cdf3 1207 e114 240c
00000060: f632 1b26 2008 1bfc 1aec 02ca e6e2 2729
00000070: d113 1035 def1 1912 150a f54f 1c0d dee2
00000080: fbf3 fe04 002b 1dc5 cc07 eb09 5fed 33e5
00000090: d603 05f1 d8eb d3f6 04e0 1f1c ff2a 0f17
000000a0: 330c 0d25 c723 00d6 18b4 f901 09d3 071b
000000b0: c044 ee0f 132f 1605 1b2b d3f6 e7fc d901
000000c0: e1df f4ea e8ea 30e1 c143 11cc 3e3d f907
000000d0: e4f7 f540 e6dd e239 050e e7f0 471c d6f8
000000e0: 25cd e104 e7c7 26de 1425 1f37 17fd 1302
000000f0: d6c9 e717 dcdb 342c 37e9 e5d9 2ee8 f1e9
-21 -29 0 0 9 25 -47 24
79 -47 -41 -76 5 1 -39 51
61 42 13 25 15 52 59 20
-18 -11 -9 -25 -28 -14 -44 -15
20 -10 -1 33 10 -10 5 -17
20 -62 -61 -36 4 -18 -52 6
-40 22 11 -9 2 60 -12 -9
9 -31 -46 -25 -23 -25 -38 -31
-37 -24 13 11 48 -21 56 -3
44 -16 -8 21 42 -34 -4 21
54 27 -17 -10 10 -29 -43 -38
-51 -13 18 7 -31 20 36 12
-10 50 27 38 32 8 27 -4
26 -20 2 -54 -26 -30 39 41
-47 19 16 53 -34 -15 25 18
21 10 -11 79 28 13 -34 -30
-5 -13 -2 4 0 43 29 -59
-52 7 -21 9 95 -19 51 -27
-42 3 5 -15 -40 -21 -45 -10
4 -32 31 28 -1 42 15 23
51 12 13 37 -57 35 0 -42
24 -76 -7 1 9 -45 7 27
-64 68 -18 15 19 47 22 5
27 43 -45 -10 -25 -4 -39 1
-31 -33 -12 -22 -24 -22 48 -31
-63 67 17 -52 62 61 -7 7
-28 -9 -11 64 -26 -35 -30 57
5 14 -25 -16 71 28 -42 -8
37 -51 -31 4 -25 -57 38 -34
20 37 31 55 23 -3 19 2
-42 -55 -25 23 -36 -37 52 44
55 -23 -27 -39 46 -24 -15 -23

onnx::Conv_286_quantized i1 [32, 144, 1, 1]
00000000: 0016 9f22 14e6 ec46 ee25 c515 39fc f0e5
00000010: cf1d d620 c5fc 0f17 fe16 0628 dce0 16e7
00000020: 0d15 fc0e e904 3ffe d1d9 de0a 5a25 00fc
00000030: ff32 19c5 18de 09fb e904 e8fa eded e912
00000040: 0f0f 02cd eb18 ece1 ed01 d809 00cc 44fb
00000050: 0106 13fd e9fb 20d3 ec07 0307 f918 d811
00000060: 1935 1be7 d8a6 d1d6 df14 f70d eb0c 32c7
00000070: 1322 0c03 360d 2b25 bf34 39ca 1135 fdfe
00000080: 0728 f1d8 0002 191e 2edc 15ff 11c9 ed16
00000090: 0c0d 0df2 e8e7 0a15 02f8 e5f8 fa21 d7d0
000000a0: ebcc e212 2dcc caea f1ee 4223 e62a f31b
000000b0: eeec fbfd d8de f3d4 e603 0e1c cf10 0e22
000000c0: 18db 09fa 0806 e9f8 fd32 3dee e8f9 0209
000000d0: 19c2 e1ef f6f9 d20b 10f9 fc38 ecef 03e3
000000e0: 0409 3a20 c720 1ae8 38ee 1428 cd08 e1e2
000000f0: 15eb d1ed f416 0f1c daf5 e507 24ea def4
0 22 -97 34 20 -26 -20 70
-18 37 -59 21 57 -4 -16 -27
-49 29 -42 32 -59 -4 15 23
-2 22 6 40 -36 -32 22 -25
13 21 -4 14 -23 4 63 -2
-47 -39 -34 10 90 37 0 -4
-1 50 25 -59 24 -34 9 -5
-23 4 -24 -6 -19 -19 -23 18
15 15 2 -51 -21 24 -20 -31
-19 1 -40 9 0 -52 68 -5
1 6 19 -3 -23 -5 32 -45
-20 7 3 7 -7 24 -40 17
25 53 27 -25 -40 -90 -47 -42
-33 20 -9 13 -21 12 50 -57
19 34 12 3 54 13 43 37
-65 52 57 -54 17 53 -3 -2
7 40 -15 -40 0 2 25 30
46 -36 21 -1 17 -55 -19 22
12 13 13 -14 -24 -25 10 21
2 -8 -27 -8 -6 33 -41 -48
-21 -52 -30 18 45 -52 -54 -22
-15 -18 66 35 -26 42 -13 27
-18 -20 -5 -3 -40 -34 -13 -44
-26 3 14 28 -49 16 14 34
24 -37 9 -6 8 6 -23 -8
-3 50 61 -18 -24 -7 2 9
25 -62 -31 -17 -10 -7 -46 11
16 -7 -4 56 -20 -17 3 -29
4 9 58 32 -57 32 26 -24
56 -18 20 40 -51 8 -31 -30
21 -21 -47 -19 -12 22 15 28
-38 -11 -27 7 36 -22 -34 -12

layers.4.conv4.weight_quantized i1 [32, 32, 1, 1]
00000000: 1d02 ea2c 2dc9 0518 13fd f242 c133 fcd5
00000010: 1803 04ef 14f8 3cf4 e70b 0832 d0c0 eac1
00000020: f011 2df7 cced d73e bee9 d32c 42a9 32ef
00000030: d635 dc4c fa4d cfff d732 543b f8f0 b9ea
00000040: 1bdb 0527 0317 fd30 1ecc 18b9 ff15 d9f0
00000050: 2a43 fa25 0ff7 cddc 02f3 fced 56c1 2801
00000060: d123 de4b fccd 0ab2 1b06 0f2c efec e2d6
00000070: f0ea fe16 3fee 0dcf f1f8 1cbd d5ce 2d01
00000080: e0c9 2c0a e31d 293a fed5 4819 411c fdc7
00000090: 51d1 3611 ff2b a0dc 2811 200b 1317 4203
000000a0: ee04 22fe 1fe7 fa03 36ce cc20 f71b ed19
000000b0: f32b e0fc f520 13a3 1ed8 c502 e9ea 0a48
000000c0: bdeb adca 291d f295 e5ee fcd2 eba6 f2e4
000000d0: 1ced c4dc 25f0 bfde df31 cb25 a3c9 f7bc
000000e0: e3a5 c5b8 1deb 080d e408 052e f3ed feff
000000f0: 212a 061a 1d36 10e0 010a 1a23 200e c7f9
29 2 -22 44 45 -55 5 24
19 -3 -14 66 -63 51 -4 -43
24 3 4 -17 20 -8 60 -12
-25 11 8 50 -48 -64 -22 -63
-16 17 45 -9 -52 -19 -41 62
-66 -23 -45 44 66 -87 50 -17
-42 53 -36 76 -6 77 -49 -1
-41 50 84 59 -8 -16 -71 -22
27 -37 5 39 3 23 -3 48
30 -52 24 -71 -1 21 -39 -16
42 67 -6 37 15 -9 -51 -36
2 -13 -4 -19 86 -63 40 1
-47 35 -34 75 -4 -51 10 -78
27 6 15 44 -17 -20 -30 -42
-16 -22 -2 22 63 -18 13 -49
-15 -8 28 -67 -43 -50 45 1
-32 -55 44 10 -29 29 41 58
-2 -43 72 25 65 28 -3 -57
81 -47 54 17 -1 43 -96 -36
40 17 32 11 19 23 66 3
-18 4 34 -2 31 -25 -6 3
54 -50 -52 32 -9 27 -19 25
-13 43 -32 -4 -11 32 19 -93
30 -40 -59 2 -23 -22 10 72
-67 -21 -83 -54 41 29 -14 -107
-27 -18 -4 -46 -21 -90 -14 -28
28 -19 -60 -36 37 -16 -65 -34
-33 49 -53 37 -93 -55 -9 -68
-29 -91 -59 -72 29 -21 8 13
-28 8 5 46 -13 -19 -2 -1
33 42 6 26 29 54 16 -32
1 10 26 35 32 14 -57 -7

onnx::Conv_289_quantized i1 [192, 32, 1, 1]
00000000: e52a 06ee 3c08 12dd f4fa 1300 f545 dbfe
00000010: 06e0 1e1c f5df e9d1 efc8 fff8 0301 19fe
00000020: 0205 eb09 f1df 1214 21e2 1904 c70b e213
00000030: 20f0 edf1 ed1c f404 da0c f414 15fe 03e6
00000040: cdfd 0312 2904 0cd9 02f3 25f4 0928 1115
00000050: d7c2 e9e4 3306 1cde e322 dcda 0a00 09f7
00000060: 090d e1d8 22f7 090b 2134 10e2 d04d 080f
00000070: 06f9 dc0e 36e6 cfd7 16ce c5f4 d9be e5d4
00000080: e007 fd2c e14a 0e17 ea05 fae2 f634 ea20
00000090: dd10 fa3e 4bf3 d732 26ed 2254 2419 e033
000000a0: 9f1a 2019 3f0b fcdd 3a47 f5e7 c0e1 11ff
000000b0: 1102 01f0 0938 fdf6 f9f2 2fd9 d508 022e
000000c0: 2743 26ff f2f5 10f9 340c fd0b fa0e 1629
000000d0: 1d1e d726 d2f8 30f3 eecd de29 e9df e801
000000e0: f8fd 3104 df0b c0e8 18fb cffe 0205 d103
000000f0: b4e6 0dd5 2827 c510 f9fc ed1d f6c6 fb2a
-27 42 6 -18 60 8 18 -35
-12 -6 19 0 -11 69 -37 -2
6 -32 30 28 -11 -33 -23 -47
-17 -56 -1 -8 3 1 25 -2
2 5 -21 9 -15 -33 18 20
33 -30 25 4 -57 11 -30 19
32 -16 -19 -15 -19 28 -12 4
-38 12 -12 20 21 -2 3 -26
-51 -3 3 18 41 4 12 -39
2 -13 37 -12 9 40 17 21
-41 -62 -23 -28 51 6 28 -34
-29 34 -36 -38 10 0 9 -9
9 13 -31 -40 34 -9 9 11
33 52 16 -30 -48 77 8 15
6 -7 -36 14 54 -26 -49 -41
22 -50 -59 -12 -39 -66 -27 -44
-32 7 -3 44 -31 74 14 23
-22 5 -6 -30 -10 52 -22 32
-35 16 -6 62 75 -13 -41 50
38 -19 34 84 36 25 -32 51
-97 26 32 25 63 11 -4 -35
58 71 -11 -25 -64 -31 17 -1
17 2 1 -16 9 56 -3 -10
-7 -14 47 -39 -43 8 2 46
39 67 38 -1 -14 -11 16 -7
52 12 -3 11 -6 14 22 41
29 30 -41 38 -46 -8 48 -13
-18 -51 -34 41 -23 -33 -24 1
-8 -3 49 4 -33 11 -64 -24
24 -5 -49 -2 2 5 -47 3
-76 -26 13 -43 40 39 -59 16
-7 -4 -19 29 -10 -58 -5 42

onnx::Conv_292_quantized i1 [192, 1, 3, 3]
00000000: ddf6 f0ef 07cc d0fc e763 3dd4 c9a4 c3cb
00000010: 7d47 d6f6 e820 db0c 342e edee feee 1b14
00000020: d313 39fa 10c8 f4f4 d7e8 2816 0b16 f2f6
00000030: 13fc 1f1d fa2d eb05 f241 df5e b00c 18e0
00000040: 4301 2e0c c812 18c1 e31e 06e0 12d6 e0f4
00000050: e015 0ce5 fbd9 16d0 f141 fdff 1e1e d6f1
00000060: c0e6 0b1c 1af0 6517 efbf 0df2 d60a 39ca
00000070: 1fd0 09e0 28f9 ec42 0b0d 30dc c810 3af3
00000080: 164d ead5 020c d821 0c06 ac1b 43bc db0b
00000090: 1a29 360a f8fa fae7 ef48 222b 30e6 d423
000000a0: 0207 d322 23db c527 17cf e5de 1927 e3f2
000000b0: f2c3 1a2d e2ea cfe5 fb02 b7fc 1c0b 59f4
000000c0: eb1e d5f9 be1b 5801 d54f f8b0 d8dc 35cd
000000d0: 1b14 f9e8 46e0 f60c ec3d b6f6 e418 34e5
000000e0: dc07 eb20 1ce3 2ada e917 29b5 1edc 1ef5
000000f0: 02fb efc1 e1ea d124 caed cedd 0e1f fb13
-35 -10 -16 -17 7 -52 -48 -4
-25 99 61 -44 -55 -92 -61 -53
125 71 -42 -10 -24 32 -37 12
52 46 -19 -18 -2 -18 27 20
-45 19 57 -6 16 -56 -12 -12
-41 -24 40 22 11 22 -14 -10
19 -4 31 29 -6 45 -21 5
-14 65 -33 94 -80 12 24 -32
67 1 46 12 -56 18 24 -63
-29 30 6 -32 18 -42 -32 -12
-32 21 12 -27 -5 -39 22 -48
-15 65 -3 -1 30 30 -42 -15
-64 -26 11 28 26 -16 101 23
-17 -65 13 -14 -42 10 57 -54
31 -48 9 -32 40 -7 -20 66
11 13 48 -36 -56 16 58 -13
22 77 -22 -43 2 12 -40 33
12 6 -84 27 67 -68 -37 11
26 41 54 10 -8 -6 -6 -25
-17 72 34 43 48 -26 -44 35
2 7 -45 34 35 -37 -59 39
23 -49 -27 -34 25 39 -29 -14
-14 -61 26 45 -30 -22 -49 -27
-5 2 -73 -4 28 11 89 -12
-21 30 -43 -7 -66 27 88 1
-43 79 -8 -80 -40 -36 53 -51
27 20 -7 -24 70 -32 -10 12
-20 61 -74 -10 -28 24 52 -27
-36 7 -21 32 28 -29 42 -38
-23 23 41 -75 30 -36 30 -11
2 -5 -17 -63 -31 -22 -47 36
-54 -19 -50 -35 14 31 -5 19

onnx::Conv_295_quantized i1 [32, 192, 1, 1]
00000000: f8f2 e321 1dde 0bfd dc32 000e 0fe3 19bf
00000010: 20f0 d720 3ce3 ca23 00fe 123e 0842 3936
00000020: 29c8 fdf8 3e0f 0663 0008 f316 1a1c f927
00000030: 0b24 2cf2 d1e3 0be0 08ba fdff 0606 ea07
00000040: 03bd efe4 30ff ca10 22ed d012 f53b 3115
00000050: 221c 0808 3408 f153 1d02 fe02 fa31 44ea
00000060: c9f3 ecdc 007f 29c1 e024 e2d2 1b1e d405
00000070: f8fc 271a 2450 0d28 0b31 25f4 403c e0f2
00000080: cb17 f006 5118 25cc 2212 1bee 3915 14ef
00000090: 291b 472f 1304 e712 c9eb bd18 2134 b9fe
000000a0: e6f9 0d08 06f2 0ab7 c65b facc b22b 3404
000000b0: e92a 47f7 163e ee41 13f8 c728 281c 28c2
000000c0: fe3d 2bc8 f20f abf5 c45a 14e1 dde6 e40a
000000d0: 020f 03fd 0357 1bf2 0ed2 fb04 fbfe e906
000000e0: d641 d70c d9ef e30d ed1e 480b 2d38 1b04
000000f0: edfd ebed e518 02dc 35fc 0bf6 edcb e82a
-8 -14 -29 33 29 -34 11 -3
-36 50 0 14 15 -29 25 -65
32 -16 -41 32 60 -29 -54 35
0 -2 18 62 8 66 57 54
41 -56 -3 -8 62 15 6 99
0 8 -13 22 26 28 -7 39
11 36 44 -14 -47 -29 11 -32
8 -70 -3 -1 6 6 -22 7
3 -67 -17 -28 48 -1 -54 16
34 -19 -48 18 -11 59 49 21
34 28 8 8 52 8 -15 83
29 2 -2 2 -6 49 68 -22
-55 -13 -20 -36 0 127 41 -63
-32 36 -30 -46 27 30 -44 5
-8 -4 39 26 36 80 13 40
11 49 37 -12 64 60 -32 -14
-53 23 -16 6 81 24 37 -52
34 18 27 -18 57 21 20 -17
41 27 71 47 19 4 -25 18
-55 -21 -67 24 33 52 -71 -2
-26 -7 13 8 6 -14 10 -73
-58 91 -6 -52 -78 43 52 4
-23 42 71 -9 22 62 -18 65
19 -8 -57 40 40 28 40 -62
-2 61 43 -56 -14 15 -85 -11
-60 90 20 -31 -35 -26 -28 10
2 15 3 -3 3 87 27 -14
14 -46 -5 4 -5 -2 -23 6
-42 65 -41 12 -39 -17 -29 13
-19 30 72 11 45 56 27 4
-19 -3 -21 -19 -27 24 2 -36
53 -4 11 -10 -19 -53 -24 42

layers.5.conv4.weight_quantized i1 [64, 32, 1, 1]
00000000: 5e43 f911 b7f4 f60d e7f4 f513 30e0 e9d6
00000010: c217 e6ef c718 fccf f0cf 0eca 23d8 2fe0
00000020: f711 15d9 4400 daf2 e0e5 3e07 16e7 2327
00000030: ee31 2ec6 180c de1c 01f2 e5fa f10e 3a3b
00000040: f543 d62d cc57 3814 0312 f718 47cd 57e0
00000050: 2513 28c6 08dd e5da 32d1 07e4 1321 ade4
00000060: d1e0 2e23 f11f bde4 c2f0 ec0f c2a2 4129
00000070: 07fa dd47 1216 c501 c220 ee0e cd25 022d
00000080: 12d8 d8ce cb2b f62a e3fd df07 0614 f8f5
00000090: 0be0 c1ca d920 2af7 df30 3c13 2d0e c511
000000a0: 0beb d449 c9c8 dc11 f9ec 1fc6 b9b3 f212
000000b0: c6fc 33de dbcf 35de cac7 beb8 09e4 2cf1
000000c0: 2821 3bea 20f4 e212 e21a 06ed fe1b 39d9
000000d0: adef f600 d314 5c42 c033 d439 bfde b0cb
000000e0: de09 b343 1e21 2000 e7fc e2f6 bc01 3dfc
000000f0: a42b 3fca 2434 1d03 0c0e fef1 1e35 d527
94 67 -7 17 -73 -12 -10 13
-25 -12 -11 19 48 -32 -23 -42
-62 23 -26 -17 -57 24 -4 -49
-16 -49 14 -54 35 -40 47 -32
-9 17 21 -39 68 0 -38 -14
-32 -27 62 7 22 -25 35 39
-18 49 46 -58 24 12 -34 28
1 -14 -27 -6 -15 14 58 59
-11 67 -42 45 -52 87 56 20
3 18 -9 24 71 -51 87 -32
37 19 40 -58 8 -35 -27 -38
50 -47 7 -28 19 33 -83 -28
-47 -32 46 35 -15 31 -67 -28
-62 -16 -20 15 -62 -94 65 41
7 -6 -35 71 18 22 -59 1
-62 32 -18 14 -51 37 2 45
18 -40 -40 -50 -53 43 -10 42
-29 -3 -33 7 6 20 -8 -11
11 -32 -63 -54 -39 32 42 -9
-33 48 60 19 45 14 -59 17
11 -21 -44 73 -55 -56 -36 17
-7 -20 31 -58 -71 -77 -14 18
-58 -4 51 -34 -37 -49 53 -34
-54 -57 -66 -72 9 -28 44 -15
40 33 59 -22 32 -12 -30 18
-30 26 6 -19 -2 27 57 -39
-83 -17 -10 0 -45 20 92 66
-64 51 -44 57 -65 -34 -80 -53
-34 9 -77 67 30 33 32 0
-25 -4 -30 -10 -68 1 61 -4
-92 43 63 -54 36 52 29 3
12 14 -2 -15 30 53 -43 39

onnx::Conv_298_quantized i1 [192, 32, 1, 1]
00000000: 05fc faf1 f6e4 fc09 da2b 4611 2bf6 1b1c
00000010: eada 35f0 0af6 fa0d f529 18ee fbee d80a
00000020: 34c7 da2b 5609 eb01 ecd8 342b 3b20 09fc
00000030: cae1 b652 ec38 3930 e31f 3903 d721 f409
00000040: 0002 01ee e3fb f0f0 0311 e1f6 05fe 041f
00000050: 1cf9 f907 0009 1d03 06e2 ee0a f010 1afc
00000060: 0417 ec0c 2fed ed29 10e4 2816 e822 0ff7
00000070: 0b15 0afc f0fc 0c0e e4eb f1da 0c0b f5fc
00000080: e0fd fdd3 21e3 041a 1a15 0e0f 0a23 0b04
00000090: eed7 10d9 e4cb 22e9 ee26 fad5 2018 1f12
000000a0: d3ff 2622 0fed e0f6 100e e027 0e03 38da
000000b0: ec02 0302 e315 24db fdfc 0226 0a0f ffeb
000000c0: f4e5 16fc ff01 0908 f500 14ed dd18 13eb
000000d0: fa08 0dd3 eeed eff7 e80e f31c edfe 21eb
000000e0: fd0e ddfe f10f fc23 dbed e609 f002 e218
000000f0: 020c e9d5 0901 1617 1205 f2eb f3e9 1bdb
5 -4 -6 -15 -10 -28 -4 9
-38 43 70 17 43 -10 27 28
-22 -38 53 -16 10 -10 -6 13
-11 41 24 -18 -5 -18 -40 10
52 -57 -38 43 86 9 -21 1
-20 -40 52 43 59 32 9 -4
-54 -31 -74 82 -20 56 57 48
-29 31 57 3 -41 33 -12 9
0 2 1 -18 -29 -5 -16 -16
3 17 -31 -10 5 -2 4 31
28 -7 -7 7 0 9 29 3
6 -30 -18 10 -16 16 26 -4
4 23 -20 12 47 -19 -19 41
16 -28 40 22 -24 34 15 -9
11 21 10 -4 -16 -4 12 14
-28 -21 -15 -38 12 11 -11 -4
-32 -3 -3 -45 33 -29 4 26
26 21 14 15 10 35 11 4
-18 -41 16 -39 -28 -53 34 -23
-18 38 -6 -43 32 24 31 18
-45 -1 38 34 15 -19 -32 -10
16 14 -32 39 14 3 56 -38
-20 2 3 2 -29 21 36 -37
-3 -4 2 38 10 15 -1 -21
-12 -27 22 -4 -1 1 9 8
-11 0 20 -19 -35 24 19 -21
-6 8 13 -45 -18 -19 -17 -9
-24 14 -13 28 -19 -2 33 -21
-3 14 -35 -2 -15 15 -4 35
-37 -19 -26 9 -16 2 -30 24
2 12 -23 -43 9 1 22 23
18 5 -14 -21 -13 -23 27 -37

onnx::Conv_301_quantized i1 [192, 1, 3, 3]
00000000: 09de f2dd 1103 072a fef0 ecfb 0603 f313
00000010: f6f7 3de4 d511 0aaf f37f 14f0 e411 1d03
00000020: e20e 15df e8e5 13f5 1711 fc10 ef1e e7e9
00000030: 2113 e5f9 0de6 d40d e6fb 1f1f 0716 cdd1
00000040: 170a c935 ddee 0e42 07e3 1c07 15d7 dc1a
00000050: ed38 ce1e d9fa 1fd8 37dd 09f6 ed23 2e02
00000060: d319 250c 1901 1dfc 0f1d e3df f0f4 f7fa
00000070: 0ef4 1237 edfb effa e9f8 eeec 01f1 1604
00000080: 13ea e9ea 0811 f9e6 1511 0006 1227 e70e
00000090: 0310 170e 040f f901 100b 1118 0e08 1907
000000a0: f9f9 1126 d100 0026 14d9 fb15 1bdc 11ef
000000b0: eef1 da07 e8de df2a f01f ba22 1200 090b
000000c0: f50d f6d6 1513 0918 f9fe ebe8 14f6 f1e6
000000d0: f8df 00ed 1d28 e200 2008 0a0c 0afa 2c00
000000e0: ee13 1c0c 16fb 12e1 fb0d d919 07fc df2d
000000f0: 12f3 0dec 20da 0910 0b18 edf4 31be 0d0c
9 -34 -14 -35 17 3 7 42
-2 -16 -20 -5 6 3 -13 19
-10 -9 61 -28 -43 17 10 -81
-13 127 20 -16 -28 17 29 3
-30 14 21 -33 -24 -27 19 -11
23 17 -4 16 -17 30 -25 -23
33 19 -27 -7 13 -26 -44 13
-26 -5 31 31 7 22 -51 -47
23 10 -55 53 -35 -18 14 66
7 -29 28 7 21 -41 -36 26
-19 56 -50 30 -39 -6 31 -40
55 -35 9 -10 -19 35 46 2
-45 25 37 12 25 1 29 -4
15 29 -29 -33 -16 -12 -9 -6
14 -12 18 55 -19 -5 -17 -6
-23 -8 -18 -20 1 -15 22 4
19 -22 -23 -22 8 17 -7 -26
21 17 0 6 18 39 -25 14
3 16 23 14 4 15 -7 1
16 11 17 24 14 8 25 7
-7 -7 17 38 -47 0 0 38
20 -39 -5 21 27 -36 17 -17
-18 -15 -38 7 -24 -34 -33 42
-16 31 -70 34 18 0 9 11
-11 13 -10 -42 21 19 9 24
-7 -2 -21 -24 20 -10 -15 -26
-8 -33 0 -19 29 40 -30 0
32 8 10 12 10 -6 44 0
-18 19 28 12 22 -5 18 -31
-5 13 -39 25 7 -4 -33 45
18 -13 13 -20 32 -38 9 16
11 24 -19 -12 49 -66 13 12

onnx::Conv_304_quantized i1 [64, 192, 1, 1]
00000000: 2efd f52e fe06 21ed 0812 e2f1 0224 f5ee
00000010: fcdb 0918 0cf6 25e3 f2d1 121a 21f8 ea01
00000020: 22f5 330f 39da d9ed db22 22fc 0cfd e5e8
00000030: e8ff caf4 c6fa 2ee0 f2d9 140f fb0b 2c33
00000040: d7f6 013b 6509 06e6 d2db f52c 0117 3f16
00000050: dd2a 1330 2230 0efe eb04 32f1 1627 e2f0
00000060: 0fde 04ec df06 13f5 0305 f7e7 38fc 16e0
00000070: 43d3 1424 ed26 17e2 ebf6 0d0f 5341 3a1f
00000080: ebfb 06dc d9f8 2f05 0b0a e81b 221e 0efb
00000090: 2805 f6f5 e7d3 e129 0a13 02f6 f1fe f802
000000a0: 1829 db09 1be8 0a4b d110 f903 f3f7 0a12
000000b0: fcd1 23fa 1ed8 153f 18ec ec24 0a18 5412
000000c0: 0815 0e0a 4af4 30f2 11f1 2507 0a32 fddb
000000d0: 13ee fcf4 fee2 15f0 fc16 03f0 d914 f80f
000000e0: f2f1 e821 ce10 d40d dd11 d5f4 1aea 1ecd
000000f0: 1902 1adc 17e2 16db 4202 1df5 0cc4 0cdb
46 -3 -11 46 -2 6 33 -19
8 18 -30 -15 2 36 -11 -18
-4 -37 9 24 12 -10 37 -29
-14 -47 18 26 33 -8 -22 1
34 -11 51 15 57 -38 -39 -19
-37 34 34 -4 12 -3 -27 -24
-24 -1 -54 -12 -58 -6 46 -32
-14 -39 20 15 -5 11 44 51
-41 -10 1 59 101 9 6 -26
-46 -37 -11 44 1 23 63 22
-35 42 19 48 34 48 14 -2
-21 4 50 -15 22 39 -30 -16
15 -34 4 -20 -33 6 19 -11
3 5 -9 -25 56 -4 22 -32
67 -45 20 36 -19 38 23 -30
-21 -10 13 15 83 65 58 31
-21 -5 6 -36 -39 -8 47 5
11 10 -24 27 34 30 14 -5
40 5 -10 -11 -25 -45 -31 41
10 19 2 -10 -15 -2 -8 2
24 41 -37 9 27 -24 10 75
-47 16 -7 3 -13 -9 10 18
-4 -47 35 -6 30 -40 21 63
24 -20 -20 36 10 24 84 18
8 21 14 10 74 -12 48 -14
17 -15 37 7 10 50 -3 -37
19 -18 -4 -12 -2 -30 21 -16
-4 22 3 -16 -39 20 -8 15
-14 -15 -24 33 -50 16 -44 13
-35 17 -43 -12 26 -22 30 -51
25 2 26 -36 23 -30 22 -37
66 2 29 -11 12 -60 12 -37

layers.6.conv4.weight_quantized i1 [160, 64, 1, 1]
00000000: d73b d6de dfe1 3b0e e600 a6f3 fa12 0320
00000010: d0ac eebc 1f24 f0f0 0eed 193a f1c9 26fb
00000020: d601 353a 2614 d4e5 20bc 13d9 0cd2 dadc
00000030: e80b 1c00 b747 05d2 e918 f607 daee f930
00000040: 0bf4 1bcf fbfa e836 170e d926 df0c fd50
00000050: 1ed8 e528 14e0 0d17 e207 f915 fdf5 05e9
00000060: 11e9 dd43 b619 e3da dd0e 1ff3 3df0 ebff
00000070: 4a2d 1809 d005 e613 e818 e6a1 030b 0f14
00000080: 4cf2 c612 1fe2 0ed4 8140 f4ce c9ce f90a
00000090: 5200 11cf 29e4 283c d9f2 191b f33d 44fc
000000a0: c924 3304 17cf 17f9 d607 2ac2 c4bd 16fe
000000b0: b8f6 2eff 054b c106 0abc 0928 13ff 4a04
000000c0: e3eb 082d fedd e3fe f6d6 f1e4 e521 f903
000000d0: 1bf8 e723 5ce2 e916 fb1d f8c0 ca30 32f5
000000e0: 0a06 132d 10d5 391d 0231 0410 22eb 1e14
000000f0: 47bc 220a f3cf 3f23 0128 f7ea 1bbd ed46
-41 59 -42 -34 -33 -31 59 14
-26 0 -90 -13 -6 18 3 32
-48 -84 -18 -68 31 36 -16 -16
14 -19 25 58 -15 -55 38 -5
-42 1 53 58 38 20 -44 -27
32 -68 19 -39 12 -46 -38 -36
-24 11 28 0 -73 71 5 -46
-23 24 -10 7 -38 -18 -7 48
11 -12 27 -49 -5 -6 -24 54
23 14 -39 38 -33 12 -3 80
30 -40 -27 40 20 -32 13 23
-30 7 -7 21 -3 -11 5 -23
17 -23 -35 67 -74 25 -29 -38
-35 14 31 -13 61 -16 -21 -1
74 45 24 9 -48 5 -26 19
-24 24 -26 -95 3 11 15 20
76 -14 -58 18 31 -30 14 -44
-127 64 -12 -50 -55 -50 -7 10
82 0 17 -49 41 -28 40 60
-39 -14 25 27 -13 61 68 -4
-55 36 51 4 23 -49 23 -7
-42 7 42 -62 -60 -67 22 -2
-72 -10 46 -1 5 75 -63 6
10 -68 9 40 19 -1 74 4
-29 -21 8 45 -2 -35 -29 -2
-10 -42 -15 -28 -27 33 -7 3
27 -8 -25 35 92 -30 -23 22
-5 29 -8 -64 -54 48 50 -11
10 6 19 45 16 -43 57 29
2 49 4 16 34 -21 30 20
71 -68 34 10 -13 -49 63 35
1 40 -9 -22 27 -67 -19 70

onnx::Conv_307_quantized i1 [384, 64, 1, 1]
00000000: 0e16 f30d 06fd 0620 f1ef 020a dad9 ff1f
00000010: 0105 2af7 f11d f600 ebdd f7ec 2105 ed12
00000020: de0d 0ffd 26d8 1c29 1204 3203 e3fe 02e9
00000030: 18ec edf6 ebf9 0617 fa32 fb04 e41f 25fe
00000040: 1ff0 cce0 3636 09e5 d8e1 e27f bfdc 15e7
00000050: f7fa c3fd f92e e0cd f6cc 31cc f9db 08ed
00000060: f006 47e2 b1e7 f748 ff07 0415 0d2f fab4
00000070: 2fe5 0ce1 17dd 14ff f4d7 df32 dcfb f214
00000080: ed1e 19f8 fde8 0ef5 fcfc 050b f501 f713
00000090: 0d01 1c11 f8f9 0b1a 04f4 fdf5 0801 10f2
000000a0: f4f9 fb00 1006 1711 f500 3aec e709 050e
000000b0: 25f6 01ed 090f e6ef 1422 f0fb 17ef f0f4
000000c0: fafe 10ff e8fa 0b02 0f1a fff0 0ff0 e926
000000d0: ff19 ea00 e708 ece3 dbd9 fc05 fcec 070b
000000e0: 0f17 fbe1 18fd 0c05 0213 feff 0706 0df5
000000f0: 0e16 15f0 13ff 06ec fcf5 19e0 00f7 00fc
14 22 -13 13 6 -3 6 32
-15 -17 2 10 -38 -39 -1 31
1 5 42 -9 -15 29 -10 0
-21 -35 -9 -20 33 5 -19 18
-34 13 15 -3 38 -40 28 41
18 4 50 3 -29 -2 2 -23
24 -20 -19 -10 -21 -7 6 23
-6 50 -5 4 -28 31 37 -2
31 -16 -52 -32 54 54 9 -27
-40 -31 -30 127 -65 -36 21 -25
-9 -6 -61 -3 -7 46 -32 -51
-10 -52 49 -52 -7 -37 8 -19
-16 6 71 -30 -79 -25 -9 72
-1 7 4 21 13 47 -6 -76
47 -27 12 -31 23 -35 20 -1
-12 -41 -33 50 -36 -5 -14 20
-19 30 25 -8 -3 -24 14 -11
-4 -4 5 11 -11 1 -9 19
13 1 28 17 -8 -7 11 26
4 -12 -3 -11 8 1 16 -14
-12 -7 -5 0 16 6 23 17
-11 0 58 -20 -25 9 5 14
37 -10 1 -19 9 15 -26 -17
20 34 -16 -5 23 -17 -16 -12
-6 -2 16 -1 -24 -6 11 2
15 26 -1 -16 15 -16 -23 38
-1 25 -22 0 -25 8 -20 -29
-37 -39 -4 5 -4 -20 7 11
15 23 -5 -31 24 -3 12 5
2 19 -2 -1 7 6 13 -11
14 22 21 -16 19 -1 6 -20
-4 -11 25 -32 0 -9 0 -4

onnx::Conv_310_quantized i1 [384, 1, 3, 3]
00000000: ed0c 0ff2 e6fc 1102 da06 fcf1 08ed 0fff
00000010: f50b 19f6 072f 0f0f 1f0e f3ec d10a 071a
00000020: 111b 1d11 1bef 2b2e 18e3 1f3d 0ef8 eeeb
00000030: f60c 1c04 201c dc07 08f0 f1ec 021d fcf0
00000040: 070a edfb 1b06 f1f0 110a f3f5 f40e f202
00000050: 102b f211 f3f4 ed06 f90b 0d0b 0415 0be7
00000060: f8ec e40f 05fa f011 ef03 ea0e 03f8 04ed
00000070: 0a0b 120d ed16 08d8 0b23 f2e2 e3f7 0506
00000080: e4f7 17f2 eef7 170a fe0d 05f5 f308 e613
00000090: 011e e6f3 fff4 f0e9 1303 edef 0510 f8e8
000000a0: f60c f600 00f3 f7f9 0a0c 0f26 12dc 170e
000000b0: 1704 1409 1113 2a09 031b 01f2 1422 1afd
000000c0: 0b1c fbdd 1de0 f41e ef1e e3ff e3f1 0a16
000000d0: e204 f2f9 0ff1 1fe0 3c0c e50f ef3e d410
000000e0: 1b0c 0f17 f411 03e3 dfe1 fbf9 f5ef fbfa
000000f0: eff7 f5f1 f212 f414 030e fde7 efe7 fbfc
-19 12 15 -14 -26 -4 17 2
-38 6 -4 -15 8 -19 15 -1
-11 11 25 -10 7 47 15 15
31 14 -13 -20 -47 10 7 26
17 27 29 17 27 -17 43 46
24 -29 31 61 14 -8 -18 -21
-10 12 28 4 32 28 -36 7
8 -16 -15 -20 2 29 -4 -16
7 10 -19 -5 27 6 -15 -16
17 10 -13 -11 -12 14 -14 2
16 43 -14 17 -13 -12 -19 6
-7 11 13 11 4 21 11 -25
-8 -20 -28 15 5 -6 -16 17
-17 3 -22 14 3 -8 4 -19
10 11 18 13 -19 22 8 -40
11 35 -14 -30 -29 -9 5 6
-28 -9 23 -14 -18 -9 23 10
-2 13 5 -11 -13 8 -26 19
1 30 -26 -13 -1 -12 -16 -23
19 3 -19 -17 5 16 -8 -24
-10 12 -10 0 0 -13 -9 -7
10 12 15 38 18 -36 23 14
23 4 20 9 17 19 42 9
3 27 1 -14 20 34 26 -3
11 28 -5 -35 29 -32 -12 30
-17 30 -29 -1 -29 -15 10 22
-30 4 -14 -7 15 -15 31 -32
60 12 -27 15 -17 62 -44 16
27 12 15 23 -12 17 3 -29
-33 -31 -5 -7 -11 -17 -5 -6
-17 -9 -11 -15 -14 18 -12 20
3 14 -3 -25 -17 -25 -5 -4

onnx::Conv_313_quantized i1 [160, 384, 1, 1]
00000000: 3120 040a e3f1 19e8 0e0f 23e2 e72d e1d9
00000010: f013 ff0d f611 e0f6 f8f2 0edd f5ff f6f7
00000020: dbef f9fd f70a 1611 13f9 42fc 0bc3 01e0
00000030: f614 e741 160a 0cec 100a 08dd 0f08 f4e1
00000040: e413 08bf ea07 f3ff e7ea 0a24 fb18 07ee
00000050: 1afb 07c7 f4f1 09ff 0dfc fa2e fdfc f7e3
00000060: eff7 0e41 fbe4 181b 2703 06e5 09f9 ffdb
00000070: e006 f7f0 0414 0d17 f31b e91d 1029 d624
00000080: 1fff 021b 0b0c 13df d8e8 f5e5 fd25 320c
00000090: e608 f3eb e73d f604 f2f4 fdf8 1211 0317
000000a0: 3bff e7ff f0dd 27f1 12ce ff18 1d06 f614
000000b0: 0410 d223 c41a 21ef fb0d f5f1 1947 1422
000000c0: 1aeb e3d8 d811 1322 0e0d f4fe 3ae5 2a07
000000d0: f5f0 ed1b f0e1 09fb f9ff e500 e9fa 0510
000000e0: 0c0f 0730 d91a f508 ff0b 2006 f209 0b0d
000000f0: 3bf0 18d7 060e 0c2a 071a e0fa 07ec 0ce2
49 32 4 10 -29 -15 25 -24
14 15 35 -30 -25 45 -31 -39
-16 19 -1 13 -10 17 -32 -10
-8 -14 14 -35 -11 -1 -10 -9
-37 -17 -7 -3 -9 10 22 17
19 -7 66 -4 11 -61 1 -32
-10 20 -25 65 22 10 12 -20
16 10 8 -35 15 8 -12 -31
-28 19 8 -65 -22 7 -13 -1
-25 -22 10 36 -5 24 7 -18
26 -5 7 -57 -12 -15 9 -1
13 -4 -6 46 -3 -4 -9 -29
-17 -9 14 65 -5 -28 24 27
39 3 6 -27 9 -7 -1 -37
-32 6 -9 -16 4 20 13 23
-13 27 -23 29 16 41 -42 36
31 -1 2 27 11 12 19 -33
-40 -24 -11 -27 -3 37 50 12
-26 8 -13 -21 -25 61 -10 4
-14 -12 -3 -8 18 17 3 23
59 -1 -25 -1 -16 -35 39 -15
18 -50 -1 24 29 6 -10 20
4 16 -46 35 -60 26 33 -17
-5 13 -11 -15 25 71 20 34
26 -21 -29 -40 -40 17 19 34
14 13 -12 -2 58 -27 42 7
-11 -16 -19 27 -16 -31 9 -5
-7 -1 -27 0 -23 -6 5 16
12 15 7 48 -39 26 -11 8
-1 11 32 6 -14 9 11 13
59 -16 24 -41 6 14 12 42
7 26 -32 -6 7 -20 12 -30

linear.weight_quantized i1 [10, 2560]
00000000: 0f2b 2a32 2226 f342 29fa 1618 e9e7 df08
00000010: 09d8 0c02 0add f81b 170c 0928 3512 0ef8
00000020: db38 0be4 f9b3 0505 1fda ca1f ecf4 37c7
00000030: 2e14 05f3 02f0 251a 0d01 df37 1235 c9ff
00000040: 4218 f200 1ce6 fb07 f4e5 0ade f211 f801
00000050: 1ce6 f602 d0fd 141e 0b07 e333 fff6 f50a
00000060: e701 36f6 e4d6 2c07 1af3 ef22 090b 03e1
00000070: e6d7 f7f1 ccd3 ebe5 05e8 0ad2 291a 1409
00000080: dbf5 20e5 11f3 f205 ec27 06fa 0f3f f4f7
00000090: 0ff1 fa11 1bdd 1dfa f4e5 d916 09df dee8
000000a0: 2dea e0f6 ea03 12f6 e207 0726 05b0 ef35
000000b0: eaee e40f e2e6 e3ff fddc 2edd 1822 1811
000000c0: 0be2 0ee2 9ef2 010b fc05 ff00 1724 dbec
000000d0: efee 062b f90e 18fa 0c22 d8f7 2efc 06cf
000000e0: dff5 3df6 ff0d e2dc 18f3 03f9 32f1 f905
000000f0: 340d e114 fb01 f426 b524 fb03 ff0a 2804
15 43 42 50 34 38 -13 66
41 -6 22 24 -23 -25 -33 8
9 -40 12 2 10 -35 -8 27
23 12 9 40 53 18 14 -8
-37 56 11 -28 -7 -77 5 5
31 -38 -54 31 -20 -12 55 -57
46 20 5 -13 2 -16 37 26
13 1 -33 55 18 53 -55 -1
66 24 -14 0 28 -26 -5 7
-12 -27 10 -34 -14 17 -8 1
28 -26 -10 2 -48 -3 20 30
11 7 -29 51 -1 -10 -11 10
-25 1 54 -10 -28 -42 44 7
26 -13 -17 34 9 11 3 -31
-26 -41 -9 -15 -52 -45 -21 -27
5 -24 10 -46 41 26 20 9
-37 -11 32 -27 17 -13 -14 5
-20 39 6 -6 15 63 -12 -9
15 -15 -6 17 27 -35 29 -6
-12 -27 -39 22 9 -33 -34 -24
45 -22 -32 -10 -22 3 18 -10
-30 7 7 38 5 -80 -17 53
-22 -18 -28 15 -30 -26 -29 -1
-3 -36 46 -35 24 34 24 17
11 -30 14 -30 -98 -14 1 11
-4 5 -1 0 23 36 -37 -20
-17 -18 6 43 -7 14 24 -6
12 34 -40 -9 46 -4 6 -49
-33 -11 61 -10 -1 13 -30 -36
24 -13 3 -7 50 -15 -7 5
52 13 -31 20 -5 1 -12 38
-75 36 -5 3 -1 10 40 4
