Project/Project_files/mobilenetv2_experiments/onnxs/mobilenetv2_19_4_stem.onnx (onnx, 26829 bytes, 22 tensors)

linear.weight f4 [10, 48]
0	0x3ec00a2a	0.37507755
1	0xbde8a587	-0.11359697
2	0xbe02e648	-0.12783158
3	0xbe945c0b	-0.28976473
4	0x3e6b1e21	0.22960712
5	0x3d1336c2	0.035940893
6	0x3c09558e	0.008382214
7	0x3ebaeeff	0.36510465
8	0x3e882fcd	0.2659897
9	0xbdac20bd	-0.08404682
10	0x3ee98324	0.45607865
11	0x3ea833b5	0.3285195
12	0x3e9a4e0f	0.3013768
13	0x3d124206	0.035707496
14	0x3ec5ca2a	0.386308
15	0x3edb2df1	0.42808488
16	0xbda49893	-0.08036914
17	0x3e59adba	0.21257678
18	0x3c88f483	0.016718155
19	0x3d99549e	0.074868426
20	0xbeb3b2ad	-0.35097256
21	0xbe79a33c	-0.24378675
22	0x3e4c825d	0.19971605
23	0x3ec40d9c	0.38291633
24	0x3e9c3153	0.3050638
25	0x3b9488bb	0.004532901
26	0x3d4af787	0.049552467
27	0xbd79e453	-0.061008763
28	0xbe032ed2	-0.1281083
29	0xbee04767	-0.43804476
30	0xbd8dfc0a	-0.06932838
31	0xbe2408dc	-0.16019005
32	0xbecb40ec	-0.3969797
33	0x3e332eb3	0.17498283
34	0x3c9771c3	0.018486863
35	0xbe99d8a7	-0.30048105
36	0xbe33f6e1	-0.17574646
37	0xbf0721f6	-0.52786195
38	0xbf0e41d1	-0.5556918
39	0xbef65e5b	-0.48118863
40	0x3e937a15	0.2880408
41	0xbe84500f	-0.2584233
42	0xbe334d2d	-0.17509909
43	0xbe4262c1	-0.18982984
44	0x3e82034c	0.2539314
45	0x3e008f2c	0.12554616
46	0x3e1f8d33	0.15581207
47	0xbd18aa9d	-0.037272085
48	0xbeb9720b	-0.3621982
49	0x3d3fc64d	0.046819974
50	0xbf0c3d79	-0.547813
51	0xbde5ff56	-0.11230342
52	0xbe0fb02c	-0.14032048
53	0xbe8e912c	-0.27845132
54	0x3dc7e97b	0.0976133
55	0x3d3164a4	0.04330887
56	0x3df81022	0.12112452
57	0x3ebb8fc1	0.36633113
58	0x3e1392ca	0.14411464
59	0x3e6b0631	0.2295158
60	0xbda32442	-0.079659
61	0xbd084684	-0.033270374
62	0xbdfbc04f	-0.12292539
63	0xbf5e9a42	-0.8695413
64	0x3e7f306a	0.24920812
65	0x3ec0f1a4	0.37684357
66	0x3ee58e13	0.44834957
67	0x3f102989	0.5631338
68	0x3ebb3084	0.36560452
69	0x3f01c47f	0.50690454
70	0x3e284ac5	0.16434772
71	0x3e0dbca4	0.13841492
72	0x3d894d0d	0.067041494
73	0x3e980a61	0.29695418
74	0x3e907d46	0.28220576
75	0xbe82eec4	-0.2557279
76	0xbe866553	-0.2624918
77	0xbde246e3	-0.11048677
78	0xbeec7f73	-0.46190986
79	0xbf2f3c29	-0.6845117
80	0x3df66847	0.12031608
81	0xbdc10c53	-0.09426179
82	0xbf37dad5	-0.71818286
83	0xbec8bd74	-0.3920704
84	0x3c558389	0.013031849
85	0x3ea4d07e	0.32190317
86	0x3dc5ad08	0.09652144
87	0xbeb93e61	-0.36180404
88	0xbe26342b	-0.16230838
89	0x3ebf287b	0.37335572
90	0x3ed63f7e	0.41845316
91	0x3dfdcd50	0.12392676
92	0xbe6ac22f	-0.22925638
93	0xbe9064a2	-0.28201777
94	0x3eab8060	0.3349638
95	0x3f2c21c1	0.67239004
96	0xbd9c4da3	-0.076319955
97	0x3d58bd37	0.052914824
98	0x3ef325d2	0.47489792
99	0x3eb904f9	0.36136606
100	0x3eabf024	0.3358165
101	0x3ee5cf2f	0.4488463
102	0x3ece83b6	0.40334862
103	0x3f68650e	0.907792
104	0x3dc219f2	0.09477605
105	0x3d5fab82	0.054606922
106	0xbe217f67	-0.15771256
107	0xbe24ea78	-0.16105068
108	0x3d103941	0.03521085
109	0x3d161511	0.036641184
110	0x3ddece4a	0.1087919
111	0x3e5bed97	0.21477352
112	0x3d5b5617	0.0535489
113	0xbdd7aff6	-0.10531609
114	0xbe73744d	-0.23774834
115	0xbec53510	-0.38517046
116	0xbde5ccc9	-0.112207
117	0xbe25bff0	-0.161865
118	0x3dec7be5	0.115470685
119	0x3e0555b0	0.13020968
120	0xbebd04ee	-0.36917824
121	0xbeac2280	-0.3362007
122	0xbe9da828	-0.30792356
123	0xbe9e5843	-0.30926713
124	0xbe28578d	-0.16439648
125	0xbd7a384b	-0.06108884
126	0x3e8488a7	0.25885507
127	0xbe5b7ee8	-0.2143513
128	0x3e4ab3cf	0.19795154
129	0xbdf319e3	-0.11870172
130	0x3e00114c	0.12506598
131	0x3e89f422	0.2694407
132	0xbda58a01	-0.08082963
133	0x3dde1ce1	0.10845352
134	0xbe5153fa	-0.20442191
135	0xbe6a0fae	-0.22857544
136	0x3e4f3491	0.20234896
137	0x3d76b030	0.06022662
138	0xbe1ff62d	-0.15621252
139	0x3e63a76e	0.22231838
140	0xbe944259	-0.2895687
141	0xbe83286f	-0.25616786
142	0x3e3d9ad1	0.18516089
143	0xbdae83f5	-0.085212626
144	0x3e881b9f	0.26583573
145	0xbda94de0	-0.082668066
146	0x3e70eae3	0.23527102
147	0xbd26cb76	-0.04072138
148	0xbe8d0cd0	-0.27548838
149	0xbe897951	-0.2685037
150	0xbdcf4a28	-0.10121566
151	0xbe8c115f	-0.27357003
152	0xbe1d468b	-0.15358941
153	0xbe2f91e0	-0.1714549
154	0xbec00c5a	-0.37509423
155	0xbea7acfb	-0.3274916
156	0xbe04fb91	-0.1298659
157	0xbd92f4c9	-0.07175595
158	0x3e2e97b3	0.17050056
159	0x3e8087c9	0.25103596
160	0x3d135fee	0.035980158
161	0xbe73020b	-0.23731248
162	0xbe885df4	-0.2663418
163	0xbe80d7bd	-0.25164595
164	0xbdb30ff6	-0.08743279
165	0xbe36eef5	-0.17864592
166	0xbe8892e1	-0.2667456
167	0xbe951f69	-0.29125527
168	0x3d9d2be9	0.07674391
169	0x3e85777d	0.26067725
170	0x3cb0abaf	0.02156624
171	0xbe7bd4a1	-0.2459283
172	0x3df30107	0.1186543
173	0xbe54cdb8	-0.207816
174	0xbe09f3b6	-0.13471875
175	0xbda2589b	-0.079270564
176	0x3e895655	0.2682368
177	0x3e847d81	0.25877002
178	0x3d891d38	0.06695026
179	0x3d07b02f	0.033127006
180	0xbe33595a	-0.17514554
181	0xbec83213	-0.39100704
182	0x3d10b909	0.035332713
183	0x3edfb542	0.43692976
184	0x3eb89c82	0.36056906
185	0x3e627f25	0.22118814
186	0x3c0bb3ff	0.008526801
187	0xbec1f389	-0.37881115
188	0xbe591847	-0.21200667
189	0xbe9f0cc6	-0.31064433
190	0xbe6b277d	-0.22964282
191	0xbe6d768a	-0.2318975
192	0x3e89410a	0.26807433
193	0x3e8eb45b	0.27871975
194	0xbd4d20a5	-0.05007996
195	0xbdcf6127	-0.10125952
196	0x3d844faa	0.06460507
197	0x3d1a354a	0.037648477
198	0x3e585b88	0.21128666
199	0x3eea4e15	0.45762697
200	0x3ece531d	0.40297785
201	0xbe3c9e7f	-0.18419836
202	0x3e54ba2c	0.20774144
203	0x3e3f352f	0.18672632
204	0x3ca6e797	0.020374103
205	0xbe0fa66c	-0.14028329
206	0xbe596a43	-0.21231942
207	0xbe4f8e4a	-0.20269123
208	0xbe07c340	-0.13258076
209	0x3eacb0bc	0.33728588
210	0xbea1b31f	-0.3158197
211	0xbee52b4d	-0.44759598
212	0x3de9f18f	0.11423027
213	0x3db5d494	0.08878437
214	0xbe840e95	-0.25792375
215	0xbe67e844	-0.22647196
216	0x3ecb18f6	0.3966748
217	0x3e2572c3	0.1615706
218	0x3e20c174	0.15698797
219	0x3e9a8d34	0.30185854
220	0x3c21052b	0.009827892
221	0x3e0b3f01	0.13598253
222	0x3f202b4b	0.6256606
223	0x3eefd0e4	0.46839058
224	0xbdb7b142	-0.08969356
225	0x3f0009b9	0.50014836
226	0x3ee27c53	0.44235477
227	0x3ef63636	0.48088235
228	0x3efebfdc	0.49755752
229	0xbbd8af4d	-0.0066126944
230	0x3d979d1e	0.074030146
231	0x3e279488	0.16365254
232	0xbe6b3590	-0.22969651
233	0xbf112bcb	-0.5670745
234	0xbe95f77c	-0.29290378
235	0x3c5e3072	0.013561355
236	0xbcb6ca41	-0.022313239
237	0x3d8526a8	0.06501514
238	0x3e288f6a	0.16460958
239	0xbebd858f	-0.3701596
240	0x3d6a1e8a	0.05715803
241	0x3e036b71	0.12833954
242	0x3eaa3525	0.3324367
243	0xbe899801	-0.26873782
244	0xbd9063d0	-0.07050288
245	0x3d6d22ee	0.05789464
246	0xbd474142	-0.04864622
247	0xbc8eadd3	-0.01741687
248	0x3d1fbb0d	0.038996745
249	0xbd3be2e6	-0.045870684
250	0xbe572855	-0.21011479
251	0xbea70c97	-0.32626793
252	0xbf0d7b51	-0.5526629
253	0xbe6877ae	-0.22701904
254	0xbd4b105b	-0.049576145
255	0x3eaa80b9	0.33301333

linear.bias f4 [10]
0	0x3e9e7e85	0.30955902
1	0xbe6906a0	-0.22756433
2	0x3eb58780	0.3545494
3	0x3f0b30dd	0.54371434
4	0x3ec8b935	0.39203802
5	0x3d21c625	0.039495606
6	0xbec19410	-0.37808275
7	0xbe2c8534	-0.16847688
8	0xbf109cf1	-0.56489474
9	0xbceebb4a	-0.02914204

onnx::Conv_114 f4 [24, 3, 3, 3]
0	0xbe18b0e3	-0.14911227
1	0xbdba8d41	-0.09108973
2	0x3e0fed6c	0.14055413
3	0xbd447532	-0.04796333
4	0x3deeedd3	0.11666455
5	0x3e0daaa6	0.13834628
6	0xbe3835b7	-0.1798924
7	0xbeb951ca	-0.36195213
8	0x3c88a4ff	0.016680239
9	0x3d75f5e5	0.060048956
10	0x3ddead27	0.1087287
11	0xbe2cd002	-0.16876224
12	0xbd3eafb8	-0.046554297
13	0x3f0751b1	0.52859026
14	0xbdeb001c	-0.1147463
15	0x3c3dbc25	0.011580502
16	0xbde01400	-0.10941315
17	0xbe491ebc	-0.1964063
18	0x3e5b240e	0.21400473
19	0x3d944c10	0.0724107
20	0xbc1198fe	-0.008886574
21	0x3e2df2d8	0.16987169
22	0x3f111f7c	0.56688666
23	0xbd7c6b2a	-0.061625637
24	0xbe090cce	-0.13383791
25	0xbe62aabd	-0.22135444
26	0xbdc01172	-0.093783274
27	0x3eb13c4b	0.34616312
28	0xbe0b3e7b	-0.13598053
29	0xbdec6d0e	-0.11544238
30	0x3e9f5520	0.31119633
31	0xbe86c716	-0.26323766
32	0x3dfb1ea9	0.12261707
33	0x3e2629a1	0.16226818
34	0xbe0eede0	-0.1395793
35	0xbf29e767	-0.66368717
36	0x3e18be71	0.14916398
37	0x3df2ec8a	0.118615225
38	0xbadbe266	-0.0016775846
39	0x3d124302	0.035708435
40	0xbe3f4fdd	-0.18682809
41	0x3eca8fa4	0.39562714
42	0xbe1c4d5c	-0.15263885
43	0xbd072316	-0.032992445
44	0xbebac499	-0.36478117
45	0xbd906238	-0.07049984
46	0xbee484eb	-0.44632658
47	0x3be72f86	0.007055226
48	0xbe3ed035	-0.18634112
49	0xbe2b73b3	-0.16743354
50	0x3ef5d105	0.48011032
51	0xbebe3a4b	-0.3715385
52	0x3b957ac8	0.004561756
53	0x3f0839e4	0.53213334
54	0x3e008fe9	0.12554897
55	0xbf035ce4	-0.51313615
56	0xbec93c85	-0.39303985
57	0x3e933f1c	0.28759086
58	0xbe66c832	-0.22537306
59	0xbe9dedf8	-0.30845618
60	0x3e623182	0.22089198
61	0xbdbfab35	-0.09358827
62	0x3ed36a87	0.4129221
63	0x3ad7191e	0.0016410684
64	0x3eb19a9e	0.34688276
65	0x3e791191	0.24323107
66	0x3e3e3d28	0.18578017
67	0xbe1a3a36	-0.15061268
68	0xbb78e885	-0.003798039
69	0xbdde9f64	-0.10870245
70	0xbd73d08a	-0.05952505
71	0xbd45e495	-0.048313696
72	0xbdbc0c0c	-0.09181985
73	0xbe159b01	-0.1460991
74	0xbdb6be89	-0.089230604
75	0x3d620bc0	0.055186987
76	0xbede6db5	-0.43443075
77	0xbd8a292c	-0.06746134
78	0x3d28ba48	0.041193277
79	0xbd98d940	-0.07463312
80	0x3ec7d6f5	0.39031187
81	0x3e99eb0b	0.30062136
82	0xbdd13103	-0.10214426
83	0x3e1eff71	0.1552713
84	0x3e485472	0.19563463
85	0xbe0530e9	-0.13006939
86	0xbd9416c9	-0.072309084
87	0x3e797fb4	0.24365121
88	0xbedef2f2	-0.43544728
89	0xbecc8f6c	-0.39953172
90	0x3d0adcc3	0.03390194
91	0x3df7ba0a	0.12096031
92	0x3e9063d7	0.28201172
93	0xbc0d001d	-0.008605984
94	0xbc057c32	-0.008147286
95	0x3e13a49e	0.14418265
96	0x3ed5cc09	0.4175723
97	0xbd4e81e3	-0.05041684
98	0xbe80c15e	-0.25147527
99	0x3d4de2c0	0.050265074
100	0xbcc0a2d4	-0.023515143
101	0x3e9af16b	0.30262312
102	0xbd424f4b	-0.0474389
103	0xbe8b746f	-0.2723727
104	0x3e553eea	0.20824781
105	0x3e2761b0	0.16345859
106	0xbe1b9fa0	-0.15197611
107	0xbd8f8647	-0.07008033
108	0x3d64808f	0.055786666
109	0x3da08e28	0.07839614
110	0xbba937de	-0.0051641306
111	0xbec84da9	-0.3912175
112	0xbede5d5f	-0.43430611
113	0x3e94509a	0.28967744
114	0xbd71a719	-0.058997247
115	0xbede3616	-0.4340064
116	0x3e07ffec	0.1328122
117	0x3e0fd4f8	0.14046085
118	0xbd15a50d	-0.036534358
119	0xbd404f8f	-0.046950873
120	0x3c270c54	0.01019581
121	0xbe114a90	-0.141886
122	0x3f46dd8e	0.77681816
123	0x3e229b62	0.15879586
124	0xbe5bc4ca	-0.21461788
125	0x3edf6891	0.43634465
126	0xbcc0f79c	-0.02355557
127	0x3dca37ad	0.098739006
128	0xbe1ca354	-0.1529668
129	0x3c33df3a	0.010978514
130	0xbe2839c7	-0.1642829
131	0x3f0140f5	0.5048974
132	0x3e9958bd	0.29950514
133	0xbe07bcf5	-0.13255675
134	0xbea70eef	-0.3262858
135	0xbe9fd854	-0.31219733
136	0x3e8a9001	0.2706299
137	0x3d16f97f	0.03685903
138	0xbf273d72	-0.65328133
139	0x3ece8ad9	0.40340307
140	0xbcf974c1	-0.03045118
141	0x3e8cc894	0.2749678
142	0x3da3df98	0.080016315
143	0xbe9fd39d	-0.31216136
144	0xbe4983b5	-0.19679148
145	0x3d6077a7	0.05480161
146	0x3e2b16b4	0.1670788
147	0xbea75092	-0.32678658
148	0x3f6dd672	0.9290534
149	0x3eacfdc4	0.33787358
150	0xbea7ad24	-0.32749283
151	0x3c71841b	0.014740969
152	0xbe9210c1	-0.28528407
153	0x3e940279	0.28908136
154	0xbe8d3bbc	-0.27584636
155	0xbe93f49b	-0.28897557
156	0xbe4a738c	-0.1977064
157	0x3f33c63d	0.7022436
158	0xbe584f5c	-0.21124023
159	0x3d3fefe2	0.04685963
160	0x3e69381c	0.2277531
161	0xbd2cf802	-0.042228706
162	0xbeb425f4	-0.35185206
163	0xbe051e35	-0.12999804
164	0xbd7c8a0c	-0.06165509
165	0x3e6e1263	0.23249201
166	0x3deb02b1	0.11475123
167	0x3e362ad4	0.17789775
168	0x3dba8610	0.09107602
169	0x3de35491	0.11100114
170	0xbce2d057	-0.027687235
171	0xbdb49e31	-0.08819235
172	0xbe3b7c93	-0.1830924
173	0x3e593476	0.21211419
174	0x3e74c34c	0.23902625
175	0xbe273956	-0.16330466
176	0x3e21d6ec	0.15804642
177	0x3d97fb5c	0.0742099
178	0x3e2d6451	0.16932799
179	0x3e30a6f1	0.17251183
180	0x3d625054	0.055252388
181	0xbde78e0e	-0.11306392
182	0x3e06521f	0.13117264
183	0xbcad01ba	-0.021118987
184	0xbef774ca	-0.4833129
185	0xbdc98528	-0.09839851
186	0xbe4c89d1	-0.19974448
187	0xbe97cf83	-0.29650506
188	0xbe853d95	-0.26023546
189	0xbdc5e45b	-0.09662696
190	0xbd85d0d3	-0.06533971
191	0x3d7ef265	0.062242884
192	0xbca2334e	-0.019799855
193	0xbe384971	-0.17996766
194	0xbe92fa80	-0.2870674
195	0x3da74bf9	0.081687875
196	0x3da3a8c9	0.079911776
197	0x3e01552d	0.12630148
198	0xbe12328f	-0.14277099
199	0xbe7ba03d	-0.24572845
200	0xbdb0d4d3	-0.08634343
201	0xbda48f34	-0.08035126
202	0xbd7cee8c	-0.061750934
203	0xbe265fc2	-0.16247466
204	0x3da0c1c7	0.0784946
205	0x3ebb0ab8	0.36531615
206	0x3e636702	0.22207263
207	0xbe233580	-0.15938377
208	0x3db01cc3	0.08599236
209	0xbd62fc06	-0.05541613
210	0x3c38d379	0.011280888
211	0x3e3c868b	0.18410699
212	0xbe2802bd	-0.16407295
213	0xbd80d428	-0.062904656
214	0x3ef5fd0b	0.4804462
215	0x3e804d36	0.25058907
216	0xbe5533c5	-0.2082053
217	0xbe8bb7b9	-0.27288607
218	0xbe8a0cde	-0.26962942
219	0x3dc06514	0.09394279
220	0xbe9df691	-0.30852178
221	0x3cf94f77	0.0304334
222	0x3eaf188f	0.34198424
223	0x3eead68c	0.4586681
224	0x3ebe1c58	0.37131
225	0xbc852abd	-0.01625573
226	0xbecde3fe	-0.40213007
227	0x3e3e521f	0.18586014
228	0x3e60ea4f	0.21964382
229	0xbeec91c7	-0.4620497
230	0x3e728fe6	0.23687705
231	0xbf17719a	-0.5915772
232	0x3e2196df	0.15780209
233	0x3eba4a3e	0.36384767
234	0x3eee0d5c	0.46494567
235	0xbdb9aadf	-0.09065794
236	0x3dae5223	0.0851176
237	0x3f5a9a77	0.85391945
238	0xbe8bc8bb	-0.27301583
239	0xbe0ce2c7	-0.13758384
240	0xbea1d5b9	-0.3160837
241	0x3d9cd0c7	0.076570086
242	0x3d347351	0.044055287
243	0xbdbccbe0	-0.092185736
244	0xbf6c670a	-0.92344725
245	0xbec1d02e	-0.3785414
246	0x3e55bdbb	0.20873158
247	0xbecfbf93	-0.40575847
248	0x3e9fdb8d	0.3122219
249	0x3ec73e3d	0.38914672
250	0x3ee3f6c8	0.44524217
251	0x3ea63a59	0.3246639
252	0x3d9e25e4	0.07722071
253	0x3eb82bf3	0.3597103
254	0x3ea4aa32	0.321611
255	0xbe2bb3d6	-0.1676782

onnx::Conv_115 f4 [24]
0	0x3cb7bb06	0.022428047
1	0xbd2aa994	-0.04166563
2	0x3db7edd4	0.08980909
3	0xbd47b819	-0.048759554
4	0xbd0e87c6	-0.034797452
5	0xbdf44eb0	-0.11929071
6	0x3cec1609	0.0288191
7	0xbd631c76	-0.055447064
8	0x3d3aec9d	0.04563581
9	0xbce5884e	-0.028019097
10	0xbc238788	-0.009981044
11	0xbc846492	-0.016161237
12	0xbe7ccf47	-0.24688445
13	0x3d635d7f	0.055509087
14	0xbe1ebd42	-0.15501884
15	0x3df7954e	0.120890245
16	0x3e4168f0	0.18887687
17	0x3d7233cc	0.05913143
18	0x3d944597	0.07239836
19	0x3d5b6b4f	0.053569134
20	0x3e14464d	0.14479943
21	0xbe589ef3	-0.21154384
22	0x3d3f6c9b	0.046734434
23	0x3cdc467f	0.026889084

onnx::Conv_117 f4 [24, 24, 1, 1]
0	0xbc9d82c5	-0.019227395
1	0x3d733b5d	0.059382785
2	0x3c9b2d08	0.018942371
3	0x3e489d40	0.19591236
4	0x3c4ce537	0.012505821
5	0xbd783175	-0.06059404
6	0xbdb5454b	-0.08851107
7	0xbe15321f	-0.14569901
8	0xbcea2f79	-0.02858709
9	0xbd85eb88	-0.06539065
10	0xbc973cac	-0.018461548
11	0xbe3abdf6	-0.18236527
12	0xbda663c0	-0.081244946
13	0xbcffe9f4	-0.031239487
14	0x3c776508	0.015099771
15	0x3e5787bf	0.21047877
16	0x3ae79da2	0.001767088
17	0x3e8ac372	0.27102238
18	0x3e47e67e	0.1952152
19	0x39dad775	0.00041740728
20	0xbe4d4b80	-0.20048332
21	0x3db12bd1	0.086509354
22	0xbe1e2bab	-0.15446346
23	0xbdeed73d	-0.11662147
24	0xbe120cdc	-0.14262718
25	0xbb92f4f2	-0.004484766
26	0x3c9dd942	0.019268636
27	0xbdc29593	-0.09501185
28	0xbe56614e	-0.20935556
29	0xbe17c438	-0.14820945
30	0x3e811c3d	0.25216857
31	0xbe1732e3	-0.14765505
32	0xbcb169ff	-0.021656988
33	0x3dcce4dc	0.10004589
34	0xbb77541e	-0.0037739347
35	0xbd5f43e1	-0.054508094
36	0x3d05f7ae	0.03270691
37	0xbd6167c1	-0.055030588
38	0x3d9d5041	0.07681323
39	0x3d7ce5b0	0.061742485
40	0x3d371da6	0.04470601
41	0x3e3e09c9	0.1855842
42	0x3d76c5dd	0.06024729
43	0x3e009f36	0.12560734
44	0xbb977c52	-0.0046229744
45	0xbd928157	-0.07153576
46	0x3d9199ed	0.07109437
47	0x3bc14ed6	0.0058992906
48	0xbdd2235f	-0.10260653
49	0x3e0649e0	0.13114119
50	0x3d37c06d	0.044861246
51	0x3ca3a882	0.019977812
52	0xbbc39703	-0.0059689297
53	0xbd46178e	-0.048362307
54	0xbda1cc73	-0.07900324
55	0x3cb2301e	0.02175146
56	0xbe0be33a	-0.13660899
57	0xbe020b25	-0.12699564
58	0xbe0379ae	-0.12839386
59	0xbd1eabd9	-0.038738105
60	0xbd627b54	-0.055293396
61	0xbbda9265	-0.0066702836
62	0xbba31de1	-0.004977927
63	0x3cbbb8e6	0.022915315
64	0xbe0b017b	-0.13574784
65	0x3c2276d2	0.009916024
66	0x3d19cea6	0.03755059
67	0xbd98230d	-0.074285604
68	0xbdd41d48	-0.103571475
69	0x3d529720	0.051413655
70	0xbddb0f07	-0.106962256
71	0x3d3d7fd7	0.046264496
72	0x3c92cd24	0.017920084
73	0x3e2dd0d8	0.16974199
74	0x3e0f22ac	0.1397807
75	0x3d4dea34	0.05027218
76	0x3dcb0de4	0.09914759
77	0x3e070842	0.13186744
78	0x3de8c3f2	0.113654986
79	0xbdf09b97	-0.117484264
80	0x3e138400	0.14405823
81	0x3ec28c64	0.37997735
82	0xbc08b8d8	-0.008344851
83	0x3f09419a	0.53615725
84	0xbe94d6bd	-0.29070082
85	0xbca903e1	-0.020631732
86	0x3e1a708a	0.15081993
87	0xbce5b67b	-0.028041115
88	0x3df69624	0.12040356
89	0x3d74bf5e	0.059752814
90	0xbdf144e3	-0.11780717
91	0x3dea99cc	0.11455116
92	0x3da75600	0.081707
93	0xbe325878	-0.1741656
94	0xbd87d8a5	-0.066331185
95	0xbf006200	-0.50149536
96	0x3dd4a7a8	0.103835404
97	0xbe4be8af	-0.1991298
98	0xbf2dead5	-0.6793645
99	0xbd7c60f7	-0.06161591
100	0x3ba07fb6	0.004898037
101	0xbe6c6978	-0.23087108
102	0x3db2e2cb	0.087346636
103	0xbd295136	-0.041337214
104	0xbd939db0	-0.07207811
105	0xbf3980a0	-0.7246189
106	0x3e3a1e4c	0.1817562
107	0xbe27195e	-0.1631827
108	0x3cf67e60	0.030089557
109	0xbf3dba02	-0.7411195
110	0xbe8e1da4	-0.2775699
111	0xbdb7f1b7	-0.0898165
112	0x3e38b12a	0.18036333
113	0xbea91945	-0.33027092
114	0x3f220399	0.6328674
115	0x3e911623	0.283372
116	0xbd1a1825	-0.037620682
117	0xbd871917	-0.065965824
118	0xbebe5509	-0.37174252
119	0x3f0e5140	0.5559273
120	0x3d36f34d	0.044665623
121	0xbe11b736	-0.14230046
122	0xbdc046c5	-0.09388498
123	0xbe059bb5	-0.13047679
124	0xbe159d1b	-0.14610712
125	0x3e2cfa59	0.16892375
126	0xbdcdeb8d	-0.10054693
127	0x3d8b9268	0.06815034
128	0xbe0ee24b	-0.13953511
129	0x3d4e00a9	0.0502936
130	0xbded5763	-0.11588933
131	0x3e45af6d	0.19305201
132	0x3e3e6c4a	0.18595996
133	0xbce491bd	-0.027901525
134	0xbe05ad8b	-0.13054483
135	0x3dc44df4	0.09585181
136	0x3d8e8371	0.06958664
137	0x3e43db92	0.19126728
138	0x3d0f174b	0.034934323
139	0xbcabef76	-0.020988207
140	0x3c85c709	0.016330259
141	0x3e83f23f	0.25770757
142	0xbdf693a2	-0.120398775
143	0xbe49e52f	-0.19716333
144	0x3dab07c6	0.08351092
145	0xbe1d0949	-0.15335573
146	0x3b1c7816	0.0023875288
147	0xbe422b5c	-0.18961853
148	0xbe02fe13	-0.12792234
149	0xbd58e427	-0.052951958
150	0xbe948730	-0.2900939
151	0xbcf45545	-0.029825816
152	0x3d926530	0.07148206
153	0xbe3a5f37	-0.18200384
154	0xbd5354d4	-0.05159457
155	0xbd812628	-0.06306106
156	0xbe2120f9	-0.15735234
157	0xbdddb187	-0.10824876
158	0xbe18c909	-0.14920439
159	0xbd9c4c62	-0.07631756
160	0x3e64f09f	0.22357415
161	0x3da5d822	0.08097865
162	0x3e3fa65e	0.18715808
163	0xbe01900e	-0.12652609
164	0x3e2a39c1	0.16623594
165	0x3d444dad	0.04792564
166	0xbc8a11b1	-0.016854139
167	0x3db58998	0.088641346
168	0x3c894415	0.016756097
169	0x3d504625	0.050848145
170	0xbdac525f	-0.084141485
171	0x3d4ad531	0.04951972
172	0xbd094cb3	-0.03352041
173	0x3d434a01	0.047677997
174	0xbd13773e	-0.03600239
175	0x3d079ec3	0.03311039
176	0xbcb73621	-0.022364678
177	0xbd4e7cf6	-0.05041214
178	0x3c6550d5	0.013996323
179	0xbd3fcca5	-0.046826024
180	0x3d5bcf8f	0.05366474
181	0x3ca14348	0.019685403
182	0x3cc9569b	0.02457743
183	0xbdb57104	-0.08859447
184	0x3da9d87a	0.08293243
185	0x3c176499	0.009240293
186	0xbb30696f	-0.0026918312
187	0x3b325e7f	0.0027216969
188	0x3da81a0d	0.08208094
189	0x3cd7d667	0.026347352
190	0x3cae72a4	0.0212949
191	0x3e03eca8	0.12883246
192	0x3e992714	0.29912627
193	0xbdf439b8	-0.119250715
194	0xbdbb605a	-0.09149237
195	0xbe4e818b	-0.20166604
196	0x3e7e1d47	0.24815856
197	0x3e5c2471	0.21498276
198	0xbf22bc2c	-0.6356838
199	0x3d5311a5	0.0515305
200	0x3e02a35e	0.12757632
201	0xbd036435	-0.032077987
202	0xbe8d83a9	-0.2763951
203	0xbea06330	-0.31325674
204	0xbe263681	-0.16231729
205	0x3e1b4c72	0.1516588
206	0xbe7a7664	-0.24459225
207	0x3dc70be2	0.09719063
208	0xbde28573	-0.1106061
209	0xbec593b1	-0.38589242
210	0xbe7fe61a	-0.2499012
211	0xbe9eda14	-0.31025755
212	0x3e3725a7	0.17885457
213	0x3dc0835b	0.09400054
214	0xbe0ee502	-0.13954547
215	0xbde6a8a3	-0.11262634
216	0xbd28d3eb	-0.041217726
217	0x3ebd66e1	0.36992553
218	0x3e94519e	0.2896852
219	0x3eaedc41	0.34152415
220	0xbe733112	-0.23749188
221	0xbe9b09e9	-0.30280998
222	0xbe8e9262	-0.27846056
223	0x3e0a8143	0.13525872
224	0xbe41128f	-0.18854736
225	0xbe52b7bf	-0.20577906
226	0x3df00599	0.11719818
227	0x3cde784b	0.02715697
228	0x3d2e60c8	0.042572767
229	0x3e88a098	0.26685023
230	0x3d6f7c79	0.058468316
231	0xbe0c773e	-0.13717362
232	0x3e4b0019	0.19824256
233	0xbe12eb12	-0.14347485
234	0xbdbaa3ca	-0.091132715
235	0xbe4f5af3	-0.20249538
236	0xbbf14f4d	-0.0073641897
237	0x3e5ceb89	0.21574225
238	0x3c7b37c5	0.015333121
239	0xbce511a4	-0.027962513
240	0x3d856c24	0.06514767
241	0xbddf9717	-0.1091749
242	0x3c9ac687	0.018893493
243	0x3e09e72c	0.13467091
244	0xbe2b357b	-0.1671962
245	0xbce490d2	-0.027901087
246	0x3c4e80c7	0.012603945
247	0xbb877619	-0.0041339514
248	0x3c90fdc7	0.017699135
249	0xbbd7fa5b	-0.006591124
250	0xbdba752b	-0.09104379
251	0x3e5ba9a3	0.2145143
252	0xbdb1f015	-0.0868837
253	0x3e1b70f0	0.15179801
254	0xbe95bd04	-0.2924577
255	0xbe00dd5d	-0.12584443

onnx::Conv_118 f4 [24]
0	0x3e910177	0.2832143
1	0x3eaf277f	0.3420982
2	0x3edc107c	0.42981327
3	0xbe953870	-0.2914462
4	0xbeabd87e	-0.33563608
5	0x3c8d3f4c	0.017242096
6	0x3dceb52a	0.10093148
7	0x3f1e38f5	0.6180566
8	0x3e115d31	0.14195706
9	0x3e901338	0.28139663
10	0xbe1ad5f8	-0.15120685
11	0x3e9d1f60	0.30688
12	0xbeb7af7f	-0.3587608
13	0x3e9a8e92	0.30186898
14	0x3e97a795	0.29620042
15	0x3d4ec72a	0.050482906
16	0xbe0677d2	-0.13131645
17	0xbe5e1070	-0.21685958
18	0xbe1da906	-0.15396509
19	0xbe85b677	-0.26115772
20	0x3e8c8507	0.27445242
21	0xbf223faa	-0.63378394
22	0x3ed14e16	0.40879887
23	0xbeb9dcb1	-0.36301187

onnx::Conv_120 f4 [24, 1, 3, 3]
0	0x3f5052fe	0.81376636
1	0x3f9cfeab	1.2265218
2	0xbf39fb64	-0.72649217
3	0xbff9be58	-1.9511213
4	0xbf81b297	-1.0132626
5	0x3f6e93df	0.93194383
6	0x3f50be71	0.8154059
7	0xbdf3025c	-0.118656844
8	0xbe1b7630	-0.15181804
9	0xbf9b3177	-1.212447
10	0xbf5f4fa8	-0.8723092
11	0xbe4e9869	-0.20175327
12	0xbe1dd77d	-0.15414234
13	0xbf5146fa	-0.81748927
14	0xbeefdb60	-0.46847057
15	0x3f9842ab	1.1895345
16	0x3f4fe23c	0.8120458
17	0x3efc7dcd	0.49314728
18	0x3fc06228	1.5029955
19	0x3e374e73	0.1790102
20	0xbfe5cb83	-1.7952732
21	0x3fe45528	1.7838488
22	0x3e218af4	0.15775663
23	0xbfd77180	-1.6831512
24	0x3f56ece4	0.83955216
25	0xbe1fb707	-0.15597163
26	0xbf4b3653	-0.7937977
27	0xbc06330d	-0.008190882
28	0xbdba3bbb	-0.09093424
29	0xbccc8905	-0.02496768
30	0xbed4ed83	-0.41587457
31	0xbf248519	-0.6426559
32	0xbe248704	-0.1606713
33	0xbecbaa86	-0.39778537
34	0xbe25033d	-0.16114517
35	0xbd8d8b92	-0.069113865
36	0x3cda8fc9	0.02667989
37	0x3cb52b26	0.022115301
38	0x3dc88590	0.097911
39	0x3e7ccc27	0.24687253
40	0x3ef622b5	0.48073354
41	0x3e6779ba	0.22605029
42	0x3dd1d9fd	0.10246656
43	0x3dee450b	0.11634263
44	0xbd32dded	-0.043668676
45	0xbcfef0b2	-0.031120632
46	0x3c744161	0.014908166
47	0xbdcbeded	-0.0995749
48	0xbea9f4d1	-0.33194593
49	0xbf695721	-0.91148573
50	0xbe998fdb	-0.29992566
51	0xbe14ce18	-0.14531744
52	0xbf43f23d	-0.765415
53	0xbea9406c	-0.33056962
54	0xbf820137	-1.0156621
55	0x3e1c48a1	0.1526208
56	0xbe32e45d	-0.17469926
57	0xbee46e43	-0.44615373
58	0x3f21c60b	0.63192815
59	0x3f76fac3	0.9647638
60	0xbf9bf11d	-1.2182957
61	0x3edd421e	0.43214506
62	0x3e370a1f	0.17874955
63	0xbe17cbab	-0.14823787
64	0xbf4adde9	-0.7924486
65	0x3f02ec50	0.51141834
66	0xbf57cf2b	-0.8430049
67	0xbea042ec	-0.31301057
68	0x3fccdaec	1.600431
69	0xbf8b1484	-1.0865636
70	0x3f76a5c5	0.96346694
71	0x3faa9d3f	1.3329238
72	0x3e398753	0.18118028
73	0x3ecbafc6	0.39782542
74	0xbe11f925	-0.14255197
75	0xbda7c0b8	-0.08191055
76	0x3d3ff397	0.046863165
77	0xbe4aafd8	-0.19793642
78	0xbf0c7927	-0.54872364
79	0xbe8796d9	-0.26482275
80	0xbf0d0fd4	-0.55102277
81	0xbf4b6611	-0.79452616
82	0x3f20d6bf	0.62827677
83	0x3f2eee5f	0.68332475
84	0x3e3b8240	0.18311405
85	0x3ecd1623	0.4005595
86	0x3e41dd2e	0.1893203
87	0x3f9b1228	1.2114916
88	0x3e140658	0.14455545
89	0xbf8bdb32	-1.0926268
90	0x3f389ad7	0.72111267
91	0x3f42db59	0.7611595
92	0x3ef8a49f	0.48563096
93	0x3e83ebd4	0.2576586
94	0x3f13a877	0.5767893
95	0x3e2449d7	0.16043793
96	0xbe128934	-0.14310151
97	0x3dab198b	0.08354481
98	0x3b48ae39	0.0030621423
99	0xbe92b97e	-0.28657144
100	0xbed20a75	-0.41023603
101	0xbe8a6647	-0.27031156
102	0xbf16d42b	-0.5891749
103	0xbf263915	-0.6493085
104	0xbf508c6c	-0.81464267
105	0x3f3ada8c	0.72989726
106	0x3e18cd23	0.14922003
107	0xbe1f9ba2	-0.15586713
108	0x3f22ac3d	0.63544065
109	0x3ec6fc6d	0.3886446
110	0xbdb7abc0	-0.089683056
111	0x3f4ef6e7	0.80845493
112	0x3d402d97	0.046918478
113	0x3e20ddb3	0.15709572
114	0x3cd1827f	0.02557492
115	0x3f0b3fe2	0.5439435
116	0x3f3c1840	0.734745
117	0xbef54009	-0.47900417
118	0xbe43319d	-0.19061895
119	0x3e0966cc	0.1341812
120	0xbda17bd0	-0.078849435
121	0xbeeb1e8b	-0.4592174
122	0x3da4468f	0.080212705
123	0xbf5186ad	-0.81846124
124	0xbf4ef03c	-0.8083532
125	0xbe3e6eed	-0.18597002
126	0xbf08e730	-0.53477764
127	0xbf9277d8	-1.1442823
128	0xbf797fed	-0.97460824
129	0x3fac9928	1.348424
130	0x3f38538c	0.7200248
131	0x3ec03e1a	0.3754738
132	0x3c59c1d5	0.013290842
133	0x3d4390a1	0.04774535
134	0xbd9ba1f5	-0.0759925
135	0x3f1123be	0.56695163
136	0x3edf7e46	0.43651026
137	0x3e5dfa73	0.2167757
138	0x3eca5907	0.39521047
139	0x3ead40be	0.33838457
140	0x3e0b124d	0.135812
141	0xbc9414a1	-0.018076243
142	0x3e30fea3	0.17284636
143	0xbe288e7a	-0.164606
144	0xbe8ec8df	-0.27887627
145	0x3e556cbd	0.20842262
146	0xbe7bd108	-0.24591458
147	0xbf4adef2	-0.7924644
148	0xbc5763db	-0.013146366
149	0xbde4627c	-0.11151597
150	0xbe1f42cd	-0.15552826
151	0xbe011ffe	-0.1260986
152	0xbeeb4f0a	-0.4595874
153	0x3f09922d	0.5373867
154	0x3f2a838a	0.6660696
155	0x3ea2440c	0.3169254
156	0x3e13dbef	0.14439367
157	0x3f0d6aff	0.5524139
158	0x3efce515	0.49393526
159	0x3e980a4a	0.2969535
160	0xbe51c9c3	-0.20487122
161	0xbeb98357	-0.36233017
162	0x3e3d2bc4	0.18473727
163	0xbc2715f9	-0.01019811
164	0xbe237fdf	-0.15966748
165	0xbeaed1c2	-0.34144408
166	0xbf5eff0a	-0.8710791
167	0xbe5af9d8	-0.2138437
168	0xbeee0344	-0.46486866
169	0xbf5b8026	-0.85742414
170	0xbf06ebde	-0.52703655
171	0xbefdda54	-0.49580634
172	0xbf08a234	-0.533725
173	0xbeed0878	-0.46295524
174	0xbc0c89ef	-0.008577808
175	0xbd2548de	-0.040352695
176	0xbc658aa1	-0.0140101025
177	0xbd81387f	-0.06309604
178	0x3d60c016	0.054870687
179	0x3ded1f71	0.115782626
180	0xbe868909	-0.26276425
181	0xbe97e0ff	-0.29663846
182	0xbf669462	-0.90070164
183	0x3ef22706	0.47295398
184	0x3f7f2ec7	0.9968075
185	0x3df71e01	0.1206627
186	0xbed6383b	-0.41839775
187	0x3f2951c0	0.66140366
188	0x3f376c6f	0.7164983
189	0x3e54ca0c	0.207802
190	0xbd909461	-0.07059551
191	0xbe6d6b24	-0.23185402
192	0x3e71e5b7	0.23622786
193	0x3e3d14ee	0.18465015
194	0x3e6582d4	0.22413188
195	0x3e90df4e	0.28295368
196	0x3e49b0b5	0.19696315
197	0x3e920bbd	0.2852458
198	0xbf9d362a	-1.2282155
199	0x3e69fe08	0.22850811
200	0xbe0725ff	-0.13198088
201	0xbf4e10f0	-0.80494595
202	0x3eca556e	0.39518303
203	0x3f484963	0.7823698
204	0xbf10e3ea	-0.5659777
205	0x3e944bf6	0.28964204
206	0x3eabe786	0.33575076
207	0xbf27d2bd	-0.65555936
208	0xbf07b190	-0.53005314
209	0x3f197333	0.59941405
210	0xbf62418d	-0.8838127
211	0x3f801223	1.0005535
212	0x3e6a9da6	0.229117
213	0x3f4d1a4b	0.80118245
214	0x3f6c91b9	0.92409855
215	0xbeeb4449	-0.45950535

onnx::Conv_121 f4 [24]
0	0x3c424330	0.011856839
1	0x3f9d5758	1.229228
2	0xbd521740	-0.051291704
3	0x3f92f3ce	1.1480653
4	0xbd964790	-0.07337868
5	0x3fb29bc9	1.3953792
6	0xbd8d6681	-0.06904317
7	0xbf942046	-1.1572349
8	0x3f81175c	1.0085254
9	0xbf21df1b	-0.63231057
10	0xbe357544	-0.17720515
11	0x3f41d194	0.75710416
12	0xbe7b9e6c	-0.24572152
13	0x3fba8594	1.4572015
14	0x3d13b42b	0.036060493
15	0x3de39628	0.111126244
16	0x3f729014	0.94751096
17	0xbc2e1900	-0.010626078
18	0x3fc1cadc	1.5140033
19	0x3f9036a4	1.1266675
20	0xbecce78e	-0.40020412
21	0xbae29400	-0.0017286539
22	0x3e85a998	0.26105952
23	0xbeab8ba8	-0.33504987

onnx::Conv_123 f4 [12, 24, 1, 1]
0	0xbe679cc5	-0.22618397
1	0x3e9d552c	0.30729043
2	0xbe08bf11	-0.13354136
3	0xbcb6ef41	-0.022330882
4	0xbd0224ce	-0.03177338
5	0x3eaba242	0.3352223
6	0x3ed4582c	0.4147352
7	0xbc936302	-0.017991547
8	0xbf33f1fc	-0.70291114
9	0x3f190e1d	0.5978716
10	0xbd61810b	-0.055054706
11	0x3ee6be71	0.4506717
12	0xbd9f76cc	-0.077863306
13	0x3ee4c10e	0.4467854
14	0xbcb38b34	-0.021916963
15	0x3c187e1d	0.0093074115
16	0xbe0331ff	-0.12812041
17	0x3e460974	0.19339544
18	0x3eff4c53	0.49862918
19	0x3d960f2a	0.07327111
20	0xbccb347f	-0.024805306
21	0xbedfae46	-0.43687648
22	0x3e39cfdc	0.18145698
23	0x3ee2af56	0.44274396
24	0x3f0e30ba	0.555431
25	0x3ca1a05e	0.01972979
26	0xbe2bad58	-0.16765344
27	0xbe0e0d27	-0.13872205
28	0x3c7af278	0.015316598
29	0xbf505c4a	-0.8139082
30	0x3e8d8d12	0.2764669
31	0x3ec9a080	0.39380264
32	0x3daaf352	0.08347191
33	0x3e3eb6d3	0.1862443
34	0xbed31842	-0.41229445
35	0x3e65fe1e	0.2246022
36	0xbe97cf88	-0.2965052
37	0x3d8f2dc1	0.06991149
38	0x3ef2056b	0.4726976
39	0xbe77013a	-0.24121562
40	0xbe660a26	-0.22464809
41	0x3f2976a4	0.66196656
42	0xbf5be116	-0.8589033
43	0x3f07521e	0.52859676
44	0xbe121cc0	-0.1426878
45	0xbef3d434	-0.47622836
46	0x3eaec3c2	0.34133726
47	0x3ebb6aa0	0.36604786
48	0x3de16722	0.11005999
49	0xbedb6224	-0.42848313
50	0xbe968546	-0.29398555
51	0xbdc477cb	-0.09593161
52	0xbeff2b97	-0.49837944
53	0x3ede11e2	0.43373019
54	0xbe1de148	-0.15417969
55	0xbe6e3420	-0.23262072
56	0xbe6b45e1	-0.22975875
57	0x3ca01ac8	0.01954402
58	0xbd1ad1d2	-0.037797756
59	0x3eb19d91	0.34690526
60	0x3eba5c52	0.3639856
61	0xbedd3250	-0.43202448
62	0x3e15857c	0.14601701
63	0x3c36d070	0.011158094
64	0xbdb750f7	-0.0895099
65	0x3e888f5b	0.26671872
66	0x3e5ddd85	0.21666534
67	0xbe93ac63	-0.28842458
68	0xbf430a67	-0.7618775
69	0x3ea1a69d	0.31572428
70	0xbe995e53	-0.29954776
71	0xbe00ceaf	-0.12578844
72	0xbf729059	-0.9475151
73	0xbedea478	-0.43484855
74	0xbddd809a	-0.108155444
75	0xbf299ece	-0.6625794
76	0x3d9c2692	0.07624544
77	0xbf0c701c	-0.54858565
78	0x3e47206a	0.19445959
79	0x3e9c7e9b	0.30565342
80	0x3d5a3c37	0.05328008
81	0x3db5f4ed	0.088846065
82	0xbbde0f3d	-0.006776719
83	0xbe9d7f00	-0.30760956
84	0xbe471d75	-0.1944483
85	0xbe6f05fc	-0.23342127
86	0xbf0ac36f	-0.5420446
87	0xbec684ef	-0.38773295
88	0x3eaef52c	0.34171426
89	0xbe4fb75d	-0.20284791
90	0xbd46f720	-0.04857552
91	0x3eb91b3d	0.36153594
92	0x3dff4259	0.12463827
93	0x3da0348d	0.07822523
94	0x3e31a0b4	0.1734646
95	0x3e9296d3	0.28630695
96	0xbea02aa2	-0.31282526
97	0x3ee7a6c4	0.4524442
98	0xbda73d9f	-0.0816605
99	0x3e812d66	0.2522995
100	0x3dcadf1c	0.09905836
101	0xbd470d75	-0.048596818
102	0x3e163ffc	0.14672846
103	0x3ede2eaf	0.43394992
104	0x3e99f40c	0.30069005
105	0xbe1eeb6c	-0.15519494
106	0x3ea23555	0.31681314
107	0xbf18ea96	-0.5973295
108	0x3e00779f	0.12545632
109	0xbeab33d2	-0.33437973
110	0xbecdaf85	-0.40172973
111	0x3e84a7ce	0.25909275
112	0x3b1b3015	0.0023679782
113	0x3e809647	0.25114653
114	0x3dd83941	0.10557795
115	0xbe3d2895	-0.18472512
116	0xbf01878b	-0.5059745
117	0xbec308f9	-0.38092783
118	0x3d2c0ab4	0.042002395
119	0x3e05eea1	0.13079311
120	0xbdda18fe	-0.10649298
121	0xbf289dad	-0.65865594
122	0x3e7dc218	0.24781072
123	0x3edfd144	0.43714345
124	0xbeb151ce	-0.34632725
125	0x3eb60f72	0.3555866
126	0x3ebbea77	0.3670232
127	0x3ea1d2ee	0.3160624
128	0x3f086d78	0.53292036
129	0xbe24cf54	-0.16094714
130	0x3d275524	0.04085268
131	0x3e9da1d8	0.3078754
132	0xbe98eb77	-0.29867145
133	0x3f0b7f80	0.54491425
134	0x3b552fa0	0.0032529607
135	0x3e6f37e0	0.23361158
136	0xbeb68918	-0.3565147
137	0x3e4b9643	0.19881539
138	0x3ee3a463	0.44461355
139	0x3d3debae	0.04636734
140	0xbe347e08	-0.17626202
141	0xbed6876f	-0.41900203
142	0x3eaf1ce1	0.3420172
143	0x3c8d9a12	0.01728538
144	0x3e518b3a	0.20463267
145	0xbe636491	-0.22206332
146	0x3f1f1e27	0.62155384
147	0x3e504145	0.20337398
148	0x3db19de2	0.08672692
149	0x3ed88069	0.4228547
150	0xbef1a494	-0.47195876
151	0x3dcb817b	0.09936806
152	0x3d279aa1	0.04091895
153	0x3de2e5b9	0.11078972
154	0x3ea21813	0.31658992
155	0xbf38190c	-0.7191322
156	0x3e0f326d	0.1398408
157	0xbdec0bbf	-0.11525678
158	0xbeddf915	-0.43354097
159	0xbed7530c	-0.42055547
160	0xbede1397	-0.4337432
161	0xbe246a7e	-0.16056249
162	0x3d1880d3	0.03723223
163	0xbf3ad4e4	-0.72981095
164	0xbda08271	-0.0783738
165	0xbe8ec750	-0.27886438
166	0xbe194b64	-0.14970165
167	0x3ee1cd60	0.44102
168	0x3f198f99	0.5998474
169	0x3d31c2c8	0.04339865
170	0xbef1030e	-0.47072643
171	0xbf18c72b	-0.59678906
172	0x3e72163d	0.23641296
173	0x3ef4f559	0.47843435
174	0xbd9f6359	-0.07782621
175	0xbead79e8	-0.3388207
176	0x3e8e4191	0.27784398
177	0xbd536c12	-0.051616736
178	0xbe3a4283	-0.18189435
179	0xbe528c3c	-0.20561308
180	0x3e55177f	0.20809744
181	0x3ca33dcd	0.01992693
182	0x3e9bdb7d	0.30440894
183	0x3db8f12b	0.09030374
184	0x3ee04406	0.43801898
185	0x3e87bf0f	0.26512954
186	0x3f291cca	0.66059554
187	0x3e92bfd8	0.2866199
188	0x3d440900	0.047860146
189	0xbe4261fa	-0.18982688
190	0xbeb84b4f	-0.35994956
191	0xbe640bfb	-0.22270195
192	0x3deb53a1	0.1149056
193	0x3e5fc820	0.21853685
194	0x3e059ce7	0.13048135
195	0x3e43e8a9	0.19131722
196	0xbed3609a	-0.4128464
197	0xbc57afea	-0.0131645
198	0x3e94caf6	0.29061097
199	0x3c28678f	0.010278597
200	0x3e2a5f2c	0.16637868
201	0xbe794453	-0.2434247
202	0x3f0912b0	0.5354414
203	0xbd464422	-0.04840482
204	0x3d962fbe	0.07333325
205	0x3eeac686	0.45854586
206	0x3c554a0d	0.013018143
207	0xbf3e7d4d	-0.74409944
208	0x3e8c3a06	0.27388018
209	0xbc526ed9	-0.012843811
210	0xbe3db200	-0.18524933
211	0x3ed4c3ec	0.41555727
212	0xbd00431e	-0.031314008
213	0x3e078007	0.13232432
214	0x3e3efc81	0.1865101
215	0xbe7994e1	-0.24373199
216	0xbe145f20	-0.14489412
217	0x3e2ffab2	0.17185476
218	0x3c1b0335	0.009461214
219	0x3cb2d782	0.021831278
220	0xbe3fab92	-0.18717793
221	0x3f5efeff	0.87107843
222	0xbf0d043d	-0.5508459
223	0x3f4074b4	0.75178075
224	0xbcaa2b6b	-0.020772656
225	0xbc0dda08	-0.00865794
226	0x3df28b43	0.11842968
227	0x3c95c245	0.018281111
228	0xbf14770d	-0.5799416
229	0x3e3afee9	0.18261303
230	0xbdb100b3	-0.086427115
231	0x3dee666b	0.116406284
232	0xbd6a3b8d	-0.0571857
233	0x3e85aa97	0.26106712
234	0x3f4de352	0.8042499
235	0xbe21f2f1	-0.15815331
236	0x3d587664	0.05284728
237	0x3e53abed	0.20671053
238	0xbe8f07e2	-0.27935702
239	0x3ed05a5b	0.40693936
240	0x3e7eaabc	0.24869817
241	0x3c9fa6fe	0.019488808
242	0x3f1c9f1c	0.6118028
243	0xbe38bfc7	-0.18041907
244	0xbebbcf78	-0.36681724
245	0xbe83fcab	-0.25778708
246	0x3d142a84	0.03617336
247	0x3e122a73	0.14274006
248	0xbe520184	-0.2050839
249	0x3dcea65a	0.10090323
250	0x3e4da40f	0.20082115
251	0xbe8001c3	-0.25001344
252	0xbe642022	-0.22277883
253	0xbce5bba7	-0.028043581
254	0xbe16c335	-0.14722903
255	0x3ed30f47	0.41222593

onnx::Conv_124 f4 [12]
0	0xbf772f76	-0.96556795
1	0x3f623e79	0.88376576
2	0x3f2d49af	0.6769056
3	0x3feb263e	1.8371046
4	0xbf0c85f6	-0.5489191
5	0xbf7bb0c9	-0.9831663
6	0x3f8676eb	1.0505041
7	0xbfb1268a	-1.3839886
8	0xbf093922	-0.536028
9	0xbfe4c500	-1.787262
10	0x3f9870fc	1.190948
11	0xbf3d9f60	-0.7407131

onnx::Conv_126 f4 [48, 12, 1, 1]
0	0xbd7178b3	-0.058953
1	0x3df65fa4	0.12029961
2	0x3cfd3cd8	0.030912802
3	0x3cc10c04	0.0235653
4	0xbc8110d5	-0.015755096
5	0xbde47889	-0.11155803
6	0xbc41a922	-0.01182011
7	0xbdcfcea3	-0.10146835
8	0xbdf6122b	-0.12015184
9	0xbc9eaf64	-0.019370742
10	0x3e066ebf	0.13128184
11	0x3e30541f	0.1721959
12	0xbf06520a	-0.5246893
13	0xbee30040	-0.44336128
14	0x3da7b339	0.08188481
15	0x3eab093c	0.33405483
16	0x3c5dd82f	0.013540312
17	0xbebbb11e	-0.36658567
18	0xbd9414c6	-0.07230525
19	0xbe01b44c	-0.12666434
20	0xbd2d6e98	-0.0423418
21	0xbd2e3766	-0.0425333
22	0x3d5e8815	0.054328997
23	0xbcba288f	-0.022724418
24	0x3e1031c3	0.14081483
25	0xbdb740dd	-0.089479186
26	0x3cdff6a4	0.027339287
27	0x3ee66cc4	0.45004857
28	0xbee3224d	-0.44362107
29	0xbe2d7187	-0.16937838
30	0xbccaca83	-0.024754768
31	0xbee6db2e	-0.45089096
32	0x3dc2a0ac	0.09503302
33	0x3dfb055a	0.1225688
34	0xbef11a5d	-0.47090426
35	0xbe4a236e	-0.19740078
36	0x3e7cb8ca	0.24679866
37	0x3e355b90	0.1771071
38	0x3dd677a2	0.10472037
39	0x3de13fed	0.10998521
40	0x3ea0177a	0.3126791
41	0x3d7c89d2	0.061654873
42	0x3de40c75	0.111351885
43	0xbe45791a	-0.19284478
44	0x3e1a3041	0.1505747
45	0xbeba0574	-0.36332285
46	0x3e37e8f1	0.17959954
47	0xbdd9d009	-0.10635383
48	0x3de8cbb4	0.11366978
49	0x3d1976c9	0.037466798
50	0xbd899d0a	-0.06719406
51	0x3d49fd04	0.04931356
52	0xbdad68bd	-0.08467243
53	0xbdaa323e	-0.08310364
54	0x3e0247bc	0.12722677
55	0x3b866b9d	0.004102184
56	0x3cf982a0	0.030457795
57	0x3df539dc	0.119739264
58	0xbec13ca8	-0.3774159
59	0xbea9ad02	-0.33139807
60	0x3e1a7fb1	0.15087773
61	0x3ebfea89	0.37483624
62	0x3dbd814a	0.092531756
63	0xbea956f2	-0.33074147
64	0x3dde2ce0	0.10848403
65	0x3df0b1f3	0.11752691
66	0x3e988adc	0.2979344
67	0x3cb1a718	0.021686122
68	0xbe23b991	-0.15988757
69	0x3e203eb5	0.15648921
70	0x3e560a6b	0.20902412
71	0x3e810ccc	0.25205076
72	0x3e92baf8	0.2865827
73	0x3d96509a	0.07339592
74	0xbe33553e	-0.17512986
75	0xbe232fd4	-0.15936214
76	0x3d979098	0.07400626
77	0xbe23c2b0	-0.15992236
78	0xbdaa5c6e	-0.08318411
79	0xbd948a30	-0.0725292
80	0xbd8cbdf6	-0.0687217
81	0x3d36eb62	0.044658072
82	0x3e1dcaf4	0.15409452
83	0x3d2cb14e	0.04216128
84	0x3db7f964	0.08983114
85	0x3f2d0751	0.6758929
86	0x3d8e6fca	0.06954916
87	0x3edccedb	0.43126568
88	0x3e69f529	0.22847427
89	0x3eda54c9	0.4264281
90	0x3e162cbd	0.14665504
91	0xbdad8e13	-0.08474364
92	0xbd708699	-0.058722112
93	0x3e8693c2	0.26284605
94	0x3e987f83	0.29784784
95	0xbeeb7d6d	-0.4599413
96	0xbcf398b5	-0.029735902
97	0xbeb76505	-0.3581926
98	0xbe439fbe	-0.19103906
99	0x3e63a522	0.22230962
100	0x3d2d0d95	0.04224928
101	0xbcdd623b	-0.027024379
102	0x3e3618b4	0.17782861
103	0xbe97eb52	-0.29671723
104	0xbd6d3309	-0.05791
105	0x3e02d44b	0.12776296
106	0x3da9fd7c	0.083003014
107	0xbd5603cf	-0.052249726
108	0x3ed012bc	0.40639293
109	0x3de10f68	0.10989267
110	0xbc5bd672	-0.013417827
111	0x3d42814c	0.04748659
112	0xbebf16d8	-0.37322116
113	0x3e56430b	0.20924012
114	0xbdcc22f6	-0.09967606
115	0xbe026de7	-0.12737237
116	0x3e12356b	0.1427819
117	0xbe5411c2	-0.20709899
118	0xbe63ed4a	-0.22258487
119	0x3d778405	0.060428638
120	0x3e864ed3	0.26232013
121	0x3d206e81	0.039167885
122	0x3d660ee3	0.05616654
123	0xbd7b2da9	-0.06132284
124	0xbe569f96	-0.20959315
125	0x3e99f62e	0.30070633
126	0xbf3277f0	-0.6971426
127	0x3e1ef16f	0.15521787
128	0xbf15599a	-0.58339846
129	0x3df9db1f	0.12199997
130	0xbe2443d6	-0.16041502
131	0xbd1b7ae8	-0.03795901
132	0xbd7f19ec	-0.06228058
133	0xbe5893b0	-0.21150088
134	0xbea819fb	-0.32832322
135	0xbe80a346	-0.25124568
136	0x3f0f714f	0.5603227
137	0xbe8750b5	-0.26428762
138	0xbe1bd90e	-0.15219519
139	0x3efbc801	0.49176028
140	0xbe8396fb	-0.25701126
141	0xbeac99b3	-0.33711013
142	0xbee83e3a	-0.45359975
143	0x3e2c188a	0.16806236
144	0x3c947032	0.018119905
145	0xbe714293	-0.23560552
146	0xbdb6a605	-0.089183845
147	0xbb5ec0c4	-0.003398941
148	0xbe2c2406	-0.16810617
149	0x3e38873f	0.18020342
150	0xbdafa2a1	-0.08575941
151	0x3ea8534e	0.32876056
152	0xbdf255fc	-0.118328065
153	0x3ea772f3	0.32704887
154	0xbc36d2d7	-0.011158667
155	0xbda8ad40	-0.0823617
156	0x3dc123dd	0.094306685
157	0x3d5e2b7e	0.054240696
158	0x3d8aa2b4	0.067693144
159	0xbe3f3b48	-0.18674958
160	0xbe53e8e6	-0.20694312
161	0xbd9d8b14	-0.07692543
162	0x3e83ea2c	0.25764596
163	0x3ea0c010	0.31396532
164	0x3e02303c	0.12713712
165	0xbda619f8	-0.08110422
166	0x3d447f63	0.047973048
167	0x3d8bedd9	0.06832475
168	0x3dd603fd	0.104499795
169	0x3e2d381a	0.16915932
170	0x3ef98ab8	0.48738647
171	0x3e993970	0.29926634
172	0x3b2f8138	0.0026779901
173	0xbea87368	-0.32900548
174	0x3d9a3e50	0.075314164
175	0x3e00b3f5	0.12568648
176	0x3d5b7558	0.053578705
177	0xbe74853c	-0.2387895
178	0x3e03e94a	0.12881961
179	0xbe8819b5	-0.26582113
180	0xbd692af7	-0.05692574
181	0xbf2f8b5e	-0.6857203
182	0x3f2f3cb9	0.6845203
183	0xbe878739	-0.26470354
184	0xbf6116c8	-0.87925386
185	0xbd002ddf	-0.031293746
186	0x3d94ca46	0.07265143
187	0xbe98d82e	-0.29852432
188	0xbe6eef93	-0.23333578
189	0xbe8ca06a	-0.27466136
190	0x3f11745c	0.56818175
191	0x3dc81594	0.09769741
192	0xbcf88d1b	-0.030340722
193	0xbd13fd7a	-0.036130406
194	0x3d9e2ab0	0.07722986
195	0xbe03b04e	-0.12860224
196	0x3ec910dd	0.39270678
197	0x3d535b5e	0.051600806
198	0xbebef302	-0.37294775
199	0x3e3ede14	0.18639404
200	0xbeaef46b	-0.3417085
201	0x3dabb3cb	0.08383902
202	0x3e94113d	0.28919402
203	0x3cffb864	0.031215854
204	0x3e4306a1	0.19045497
205	0xbc8c3631	-0.017115684
206	0xbe1ae2f5	-0.1512564
207	0x3d856352	0.065130845
208	0xbdd93d04	-0.10607341
209	0x3e0e00e9	0.13867535
210	0x3c985aa1	0.018597903
211	0x3e740b7e	0.23832509
212	0xbd7eaf35	-0.06217881
213	0x3e56d4d4	0.20979625
214	0xbe4c29a1	-0.19937755
215	0x3d847b97	0.064688854
216	0xbec6bbf0	-0.3881526
217	0xbc7d4d4f	-0.015460326
218	0xbcbc0030	-0.022949308
219	0xbe5037fa	-0.20333853
220	0xbecef08c	-0.40417898
221	0x3dda58b7	0.10661452
222	0x3dfc6dd0	0.123256326
223	0xbe79966a	-0.24373785
224	0x3eb246d9	0.34819677
225	0x3e0858a1	0.13315059
226	0xbdedf6b5	-0.11619321
227	0x3e0b3b0e	0.13596746
228	0xbd6c3bcf	-0.057674225
229	0x3d81f57d	0.06345651
230	0x3db65ede	0.08904813
231	0xbe6ba66b	-0.23012702
232	0xbda28d6b	-0.079371296
233	0xbd86e3ab	-0.06586393
234	0x3e5e6327	0.21717511
235	0xbce9d7e7	-0.028545333
236	0x3cbb69f1	0.022877665
237	0xbdb3b119	-0.08774013
238	0xbcac5832	-0.021038149
239	0xbdec9f78	-0.11553854
240	0xbdbf8996	-0.09352414
241	0x3d7b9c43	0.06142832
242	0x3e0400ca	0.12890926
243	0xbeba5df5	-0.3639981
244	0xbe02ca78	-0.12772548
245	0xbccdb69a	-0.025111485
246	0xbcd378eb	-0.025814494
247	0x3e12e330	0.14344478
248	0x3c089959	0.008337342
249	0xbdddd151	-0.108309396
250	0x3d86e16e	0.06585966
251	0x3cfcc4de	0.030855592
252	0x3e7eb14f	0.24872325
253	0xbdf36e18	-0.11886233
254	0xbe17edf7	-0.1483687
255	0x3e1b6db3	0.15178566

onnx::Conv_127 f4 [48]
0	0x3f19e4ba	0.60114634
1	0xbec6b155	-0.3880717
2	0x3dd61a7c	0.1045427
3	0x3e0a4a59	0.13504924
4	0x3efbc55c	0.4917401
5	0x3e8ef9f9	0.2792509
6	0x3f099be5	0.537535
7	0xbcad24c6	-0.021135699
8	0x3ebca912	0.3684774
9	0x3e306e71	0.1722963
10	0xbe1c090b	-0.15237825
11	0x3d42e608	0.047582656
12	0x3e89f39d	0.26943675
13	0x3f0a76ac	0.5408733
14	0x3e992997	0.29914543
15	0x3ce9e440	0.02855122
16	0x3e82dcdb	0.25559124
17	0x3effb82a	0.49945194
18	0xbeea3622	-0.45744425
19	0x3f206e17	0.62667984
20	0x3ef03e26	0.46922415
21	0x3eca897d	0.3955802
22	0x3eaaf6e2	0.33391482
23	0x3e05f941	0.13083364
24	0x3f1d0563	0.61336344
25	0xbed9d311	-0.42543843
26	0x3eff8f88	0.49914193
27	0xbea10222	-0.3144694
28	0x3ecfb350	0.40566492
29	0x3e85b14f	0.26111838
30	0x3effe162	0.4997664
31	0x3e5d1e62	0.21593621
32	0x3f270e5f	0.65256304
33	0x3ec20f80	0.3790245
34	0xbeb328f5	-0.34992185
35	0x3eb0dea4	0.3454486
36	0xbe101382	-0.14069942
37	0xbeabc544	-0.3354894
38	0xbebdf8f4	-0.37104
39	0xbca416f6	-0.02003048
40	0x3eebf302	0.46083838
41	0xbec42659	-0.38310507
42	0x3f2ed9e9	0.68301255
43	0x3ed8d934	0.42353213
44	0xbd64f672	-0.05589909
45	0xbe6bb90d	-0.2301981
46	0x3f1dccab	0.61640424
47	0x3e5b725c	0.21430343

onnx::Conv_129 f4 [48, 1, 3, 3]
0	0xbff60f46	-1.9223411
1	0xbf49c03a	-0.7880894
2	0xbe0aca7c	-0.13553804
3	0xbdc6e93e	-0.09712456
4	0xbebde13d	-0.37085906
5	0xbf39994f	-0.72499555
6	0x3fb0e9b2	1.3821318
7	0x3f7cb33e	0.98711
8	0x3e9ee1eb	0.31031737
9	0x3e2d33e5	0.16914327
10	0x3e9d5982	0.30732352
11	0x3ecd1405	0.40054336
12	0x3e4bfe00	0.19921112
13	0x3f80b420	1.005497
14	0x3f27c354	0.6553242
15	0x3f37fa6f	0.71866506
16	0x3f22b7f4	0.6356194
17	0xbdc08275	-0.09399883
18	0xbe7b6d48	-0.24553406
19	0xbeb118ce	-0.34589237
20	0xbe1ca956	-0.15298972
21	0xbea7ab81	-0.32748035
22	0xbf0e7783	-0.5565111
23	0xbe61ebe3	-0.2206264
24	0x3e1f3c1c	0.15550274
25	0xbe019f88	-0.12658513
26	0xbeb4f8da	-0.3534611
27	0xbe989bb7	-0.298063
28	0xbf998117	-1.199252
29	0xbf513f64	-0.8173735
30	0x3f40eff9	0.7536617
31	0x3e261a68	0.1622101
32	0xbf7a61e3	-0.97805613
33	0x3f299403	0.6624147
34	0x3fabed3d	1.3431774
35	0xba01fc50	-0.0004958557
36	0x3f8f867f	1.121292
37	0x3f40ca3d	0.7530859
38	0xbecf8b1b	-0.40535817
39	0x3f060825	0.5235618
40	0xbebea856	-0.37237805
41	0xbfb2c184	-1.3965306
42	0xbe38ad56	-0.18034872
43	0xbf9c3052	-1.2202246
44	0x3ebb1d67	0.3654587
45	0xbf1cd1cc	-0.61257625
46	0xbe55250e	-0.20814916
47	0xbddc7d59	-0.10766096
48	0xbebe450f	-0.37162063
49	0xbf098ed9	-0.53733593
50	0xbe10b339	-0.14130868
51	0x3df4212b	0.11920389
52	0xbeec91e2	-0.4620505
53	0xbea4cda6	-0.32188147
54	0x3f5584fa	0.8340603
55	0xbe1b2167	-0.1514946
56	0xbf9e776c	-1.2380195
57	0x3fa542e4	1.2911038
58	0x3ef6a9a5	0.48176304
59	0xbfc4e715	-1.5383021
60	0x3fa4c6b7	1.2873143
61	0xbe8c5107	-0.2740557
62	0xbf223370	-0.6335974
63	0xbe1a3757	-0.15060173
64	0x3e84fc80	0.25973892
65	0x3cbdc338	0.023164377
66	0x3f20928b	0.62723607
67	0x3f20764d	0.6268051
68	0xbd53264c	-0.051550195
69	0x3f3d019b	0.73830575
70	0x3ef112e8	0.47084737
71	0xbce719b6	-0.028210502
72	0xbe9192fb	-0.2843245
73	0xbe259400	-0.16169739
74	0xbe856000	-0.26049805
75	0xbed38c52	-0.41317993
76	0xbf25dff4	-0.6479485
77	0xbf00f173	-0.5036842
78	0xbf02a97e	-0.51039875
79	0xbf3fbc85	-0.7489703
80	0xbecfffb4	-0.40624774
81	0xbd00f75e	-0.031485908
82	0xbf3f5a8a	-0.74747527
83	0xbeb289f9	-0.3487089
84	0xbed88902	-0.4229203
85	0xbf5b28fd	-0.8560942
86	0xbeff537b	-0.49868378
87	0xbec3a0be	-0.38208574
88	0xbcd08fc0	-0.02545917
89	0xbea334ff	-0.3187637
90	0x3f4f0936	0.8087343
91	0x3f0870e7	0.53297275
92	0x3f0a820b	0.5410468
93	0x3ebdf3d7	0.37100098
94	0x3f1cf17e	0.6130599
95	0x3db83493	0.08994403
96	0xbe0200de	-0.12695643
97	0xbf699ffb	-0.91259736
98	0xbf49606e	-0.78662765
99	0xbe8760ea	-0.26441127
100	0xbd574af9	-0.052561734
101	0x3a7c6b92	0.00096290663
102	0xbe9e4269	-0.30910042
103	0x3ed4a1b7	0.4152963
104	0x3f0b774d	0.54478914
105	0xbdba9bea	-0.091117695
106	0x3ee6be1d	0.4506692
107	0x3ef72c9c	0.48276222
108	0xbe927f6a	-0.28612834
109	0xbf0592c8	-0.52177095
110	0xbebff6a2	-0.37492853
111	0xbe239b56	-0.15977225
112	0xbef7544d	-0.48306504
113	0xbf723cf0	-0.94624233
114	0xbea2e1b8	-0.31812835
115	0xbdd51269	-0.10403902
116	0xbec65c96	-0.38742512
117	0x3ed76bc8	0.42074418
118	0xbe9eb8d2	-0.31000382
119	0xbc507efa	-0.012725586
120	0xbfe37a44	-1.7771688
121	0x3f92e077	1.1474751
122	0x3ca37ef9	0.019958006
123	0x3f1fc528	0.6241021
124	0xbf561d27	-0.8363823
125	0x3c821515	0.015879193
126	0x3e5e4859	0.21707286
127	0x3f2ed674	0.6829598
128	0x3f250802	0.64465344
129	0x3f5522fd	0.8325651
130	0x3f00a12d	0.50245935
131	0xbee2af1f	-0.44274232
132	0xbf389159	-0.7209678
133	0xbf5f7499	-0.8728729
134	0x3d8534ec	0.06504235
135	0x3e931fca	0.2873519
136	0x3df1ee91	0.11813081
137	0xbd2f1c17	-0.042751398
138	0x3da3083a	0.079605535
139	0x3e9bdb73	0.30440864
140	0x3ea4ffc9	0.322264
141	0xbebb566b	-0.3658937
142	0x3e4138f5	0.18869384
143	0x3efc48be	0.49274248
144	0xbee99550	-0.4562173
145	0xbedc2695	-0.42998186
146	0xbe1023eb	-0.14076202
147	0xbd107fb4	-0.035278037
148	0xbef8fcb7	-0.48630306
149	0xbe96dd55	-0.29465738
150	0x3cc1c71d	0.023654515
151	0xbe9da18f	-0.30787322
152	0xbf32270d	-0.69590837
153	0xbf099453	-0.5374195
154	0xbf2a17d0	-0.66442585
155	0x3e72dba0	0.23716593
156	0x3f579187	0.8420643
157	0x3fcc6251	1.5967504
158	0x3f3e8ec5	0.744366
159	0xbd6d2064	-0.05789222
160	0xbf235710	-0.6380472
161	0xbf9b60c3	-1.2138904
162	0x3f41dfca	0.757321
163	0x3f1ee4ff	0.6206817
164	0x3e8659b4	0.26240313
165	0x3ebff533	0.3749176
166	0x3f6fa16f	0.93605703
167	0x3ee5891d	0.44831172
168	0xbe6fd9b4	-0.23422891
169	0x3eb5dd12	0.35520226
170	0x3e8ee48e	0.27908748
171	0xbfb1eeb2	-1.3900969
172	0x3f3de70b	0.7418067
173	0x3ee61a32	0.4494186
174	0x3f43658f	0.7632684
175	0xbfdd5b83	-1.7293552
176	0x3f7245ed	0.9463795
177	0x3e4c538e	0.19953749
178	0x3f2bab6e	0.67058456
179	0xbe9f733e	-0.3114261
180	0xbcc01ade	-0.023450311
181	0xbf03233f	-0.51225656
182	0xbeb0c2c1	-0.34523585
183	0xbe836e5c	-0.25670135
184	0xbf538975	-0.8263162
185	0xbe8e2105	-0.27759567
186	0xbf711610	-0.9417429
187	0xbf4ccc55	-0.79999286
188	0x3d3803cb	0.044925492
189	0x3d64c374	0.05585046
190	0xbd2d7dd4	-0.042356327
191	0xbedc3df6	-0.43016022
192	0x3cf8ee22	0.030386988
193	0x3f902914	1.1262536
194	0x3e566174	0.20935613
195	0x3f8bc7a1	1.0920297
196	0xbc9140dd	-0.017731125
197	0xbdba723a	-0.09103818
198	0x3e83f8d8	0.2577579
199	0x3e8a11af	0.26966617
200	0x3df7524e	0.12076245
201	0x3eb1b92b	0.34711584
202	0x3f04b2d7	0.5183539
203	0x3e8b2e8e	0.27183956
204	0x3edb3fbf	0.42822072
205	0x3d546e4e	0.051863007
206	0x3cb4f02f	0.022087185
207	0x3f7b93de	0.982725
208	0xbf3ff502	-0.7498323
209	0xbe8b800d	-0.27246132
210	0x3f67a9df	0.9049358
211	0x3f568508	0.8379674
212	0xbf80b0fb	-1.005401
213	0xbf3608aa	-0.7110697
214	0x3f17600c	0.5913093
215	0x3f104e31	0.5636931
216	0x3dba590c	0.090990156
217	0x3f10cb87	0.5656056
218	0xbeef1282	-0.46693808
219	0xbf8b69ee	-1.0891702
220	0x3dd87514	0.10569206
221	0x3f6194f8	0.88117933
222	0xc01fe01e	-2.498054
223	0x3ec4c22f	0.384294
224	0x3febe8ce	1.8430421
225	0x3ee59425	0.44839588
226	0x3f2a235a	0.6646019
227	0x3f435a57	0.7630972
228	0x3eb7815d	0.35840884
229	0x3f6ecd4e	0.9328202
230	0x3f95717e	1.167526
231	0x3eae1914	0.34003508
232	0x3f6f5a40	0.93497086
233	0x3f5129aa	0.817042
234	0x3d7b8ec0	0.061415434
235	0xbe304b50	-0.1721623
236	0x3dee0d94	0.116236836
237	0x3da2b808	0.079452574
238	0xbec5926f	-0.38588282
239	0x3e9afee5	0.30272594
240	0x3e0ea4ab	0.13930003
241	0xbf03940c	-0.51397777
242	0x3e55aef5	0.20867522
243	0x3eef125f	0.46693704
244	0x3dccdbf2	0.10002889
245	0x3e0c7f84	0.13720518
246	0x3e9781ce	0.2959122
247	0x3f30e9ac	0.69106555
248	0x3d5844b4	0.052799895
249	0x3e1cc8c2	0.15310958
250	0x3f3b5487	0.73175853
251	0xbce77d62	-0.02825803
252	0xbea052ee	-0.3131327
253	0x3bf1ece0	0.007382974
254	0xbc81d79a	-0.015849877
255	0xbf43d922	-0.76503193
