Project/Project_files/mobilenetv2_experiments/onnxs/mobilenetv2_15_int8.onnx (onnx, 57987 bytes, 16 tensors)

onnx::Conv_151_quantized i1 [32, 3, 3, 3]
00000000: f7f8 f305 f0f5 f7e5 f41d 22fc 0a08 ea16
00000010: faee 0720 0d16 11fe 05f2 f426 1bc1 1bf5
00000020: fc16 22da 0937 c2da f0ff e234 e1ec 09d4
00000030: e815 17cd 1c05 0000 f813 1cea 2302 18f3
00000040: f5df ffda c612 f2e6 fbf6 f709 fd08 11f6
00000050: 0f3d e800 12dd ffff e8d2 07f8 310c 0847
00000060: 1f27 e71d e104 f6c8 22ed 04fe ff09 02e6
00000070: f303 dce2 1018 11f3 0c0a fbfb f90f f213
00000080: e621 36fd 191c e2db fef1 e2ff 0009 01f1
00000090: f2fa fc08 0e14 0c09 fb11 04fe 140d fd22
000000a0: 13f7 e5e7 0e1e 140b 1c04 e4eb df18 170c
000000b0: 1025 2f17 26e1 eff4 d1ce f9e2 dbf8 e906
000000c0: daf2 ee19 0a16 10d9 f1de eef3 1418 1e01
000000d0: faf1 e10e 0f11 222e eee4 d5e2 240c 281b
000000e0: 05fe e710 f420 34f8 1228 30f6 e414 09ec
000000f0: e0d8 10d5 dae5 43f4 1522 1001 e037 ff24
-9 -8 -13 5 -16 -11 -9 -27
-12 29 34 -4 10 8 -22 22
-6 -18 7 32 13 22 17 -2
5 -14 -12 38 27 -63 27 -11
-4 22 34 -38 9 55 -62 -38
-16 -1 -30 52 -31 -20 9 -44
-24 21 23 -51 28 5 0 0
-8 19 28 -22 35 2 24 -13
-11 -33 -1 -38 -58 18 -14 -26
-5 -10 -9 9 -3 8 17 -10
15 61 -24 0 18 -35 -1 -1
-24 -46 7 -8 49 12 8 71
31 39 -25 29 -31 4 -10 -56
34 -19 4 -2 -1 9 2 -26
-13 3 -36 -30 16 24 17 -13
12 10 -5 -5 -7 15 -14 19
-26 33 54 -3 25 28 -30 -37
-2 -15 -30 -1 0 9 1 -15
-14 -6 -4 8 14 20 12 9
-5 17 4 -2 20 13 -3 34
19 -9 -27 -25 14 30 20 11
28 4 -28 -21 -33 24 23 12
16 37 47 23 38 -31 -17 -12
-47 -50 -7 -30 -37 -8 -23 6
-38 -14 -18 25 10 22 16 -39
-15 -34 -18 -13 20 24 30 1
-6 -15 -31 14 15 17 34 46
-18 -28 -43 -30 36 12 40 27
5 -2 -25 16 -12 32 52 -8
18 40 48 -10 -28 20 9 -20
-32 -40 16 -43 -38 -27 67 -12
21 34 16 1 -32 55 -1 36

layers.0.conv4.weight_quantized i1 [16, 32, 1, 1]
00000000: bac1 2b05 fae7 c34b ff11 2ecf ec09 fb2e
00000010: 1605 e1cf 4443 c72d 2c2f f8f5 efb8 388b
00000020: f304 ecf4 287f 0d32 f5f1 4c25 f4f9 889a
00000030: efed 4601 eef0 07a2 eb1c cb30 1314 01e8
00000040: cbd2 0c0d 0311 36d2 2bcd 16cb 5c02 c434
00000050: 1027 1cfc 40a3 b957 c5dc eb37 fadb c67c
00000060: 0de6 f4f8 051e c751 f647 240a 1a13 cbd1
00000070: 2717 c31e 26d5 39f6 bdde fd1b ea0f 0819
00000080: fe3e d89b ffc7 1134 f00e c800 fbee 1b15
00000090: 952f d5ee d074 b6e3 04fb 23c6 ec23 f4fe
000000a0: 0818 16cb 2b23 18f5 e117 e98f 2300 eaf9
000000b0: 81ff f0e4 efdb 2a2d 3f1b 12ef 2514 eafb
000000c0: d4d2 f00a ecee f128 f10e 52c9 c1f2 5818
000000d0: 4d08 2fd4 163e 2a3d 1412 bece fa20 fb63
000000e0: 0717 e20f 7827 05f1 ccc5 3b00 1a01 2c1d
000000f0: 08fb 53e5 2b1c b3c4 2d08 1820 13fd 27e6
-70 -63 43 5 -6 -25 -61 75
-1 17 46 -49 -20 9 -5 46
22 5 -31 -49 68 67 -57 45
44 47 -8 -11 -17 -72 56 -117
-13 4 -20 -12 40 127 13 50
-11 -15 76 37 -12 -7 -120 -102
-17 -19 70 1 -18 -16 7 -94
-21 28 -53 48 19 20 1 -24
-53 -46 12 13 3 17 54 -46
43 -51 22 -53 92 2 -60 52
16 39 28 -4 64 -93 -71 87
-59 -36 -21 55 -6 -37 -58 124
13 -26 -12 -8 5 30 -57 81
-10 71 36 10 26 19 -53 -47
39 23 -61 30 38 -43 57 -10
-67 -34 -3 27 -22 15 8 25
-2 62 -40 -101 -1 -57 17 52
-16 14 -56 0 -5 -18 27 21
-107 47 -43 -18 -48 116 -74 -29
4 -5 35 -58 -20 35 -12 -2
8 24 22 -53 43 35 24 -11
-31 23 -23 -113 35 0 -22 -7
-127 -1 -16 -28 -17 -37 42 45
63 27 18 -17 37 20 -22 -5
-44 -46 -16 10 -20 -18 -15 40
-15 14 82 -55 -63 -14 88 24
77 8 47 -44 22 62 42 61
20 18 -66 -50 -6 32 -5 99
7 23 -30 15 120 39 5 -15
-52 -59 59 0 26 1 44 29
8 -5 83 -27 43 28 -77 -60
45 8 24 32 19 -3 39 -26

onnx::Conv_154_quantized i1 [32, 32, 1, 1]
00000000: fa24 1fe7 c414 dc28 fcd5 0fec c820 0f31
00000010: 2312 fd06 f516 f2d5 2001 0655 f8fd e1ff
00000020: 0ee9 e623 f2f6 03eb 0f01 fd14 0ade 05ed
00000030: ebf8 01ca facb 1208 05f0 17ee 20fd 06ed
00000040: cce5 04df dff4 f308 f7f5 e5d8 1c05 0c0e
00000050: 12f7 1306 edcd 0ef7 0412 e6d8 cce1 d724
00000060: 1c0a 1bd9 0319 02ff e234 f725 242c c8ee
00000070: e400 13e8 0f0a d5ef f7fa 35fd d7fc 0df5
00000080: 111f 05ef 2d1a dcdf de07 3f09 fe00 d9ee
00000090: f7e4 02ef f00e e906 1ffd 0ce0 eeec f70d
000000a0: e428 19e8 e006 d504 d406 f0e6 e9f6 e6f0
000000b0: e819 ede2 f5f8 15e3 2313 12f9 08e2 e9fa
000000c0: 5123 291d 1821 1215 ca1d ed01 ce30 30e9
000000d0: 28b3 0104 2f05 1813 2030 4041 60df 4ec0
000000e0: 22d6 29f3 0f11 0f24 e5f5 d51e 0411 15f9
000000f0: efda 0131 3803 eb01 f0e5 1bd4 2943 140f
-6 36 31 -25 -60 20 -36 40
-4 -43 15 -20 -56 32 15 49
35 18 -3 6 -11 22 -14 -43
32 1 6 85 -8 -3 -31 -1
14 -23 -26 35 -14 -10 3 -21
15 1 -3 20 10 -34 5 -19
-21 -8 1 -54 -6 -53 18 8
5 -16 23 -18 32 -3 6 -19
-52 -27 4 -33 -33 -12 -13 8
-9 -11 -27 -40 28 5 12 14
18 -9 19 6 -19 -51 14 -9
4 18 -26 -40 -52 -31 -41 36
28 10 27 -39 3 25 2 -1
-30 52 -9 37 36 44 -56 -18
-28 0 19 -24 15 10 -43 -17
-9 -6 53 -3 -41 -4 13 -11
17 31 5 -17 45 26 -36 -33
-34 7 63 9 -2 0 -39 -18
-9 -28 2 -17 -16 14 -23 6
31 -3 12 -32 -18 -20 -9 13
-28 40 25 -24 -32 6 -43 4
-44 6 -16 -26 -23 -10 -26 -16
-24 25 -19 -30 -11 -8 21 -29
35 19 18 -7 8 -30 -23 -6
81 35 41 29 24 33 18 21
-54 29 -19 1 -50 48 48 -23
40 -77 1 4 47 5 24 19
32 48 64 65 96 -33 78 -64
34 -42 41 -13 15 17 15 36
-27 -11 -43 30 4 17 21 -7
-17 -38 1 49 56 3 -21 1
-16 -27 27 -44 41 67 20 15

onnx::Conv_157_quantized i1 [32, 1, 3, 3]
00000000: ed03 151b 142c 01e5 0527 4731 cac5 0b16
00000010: c4e2 1a9f 04ae 41e0 f539 f8e1 f902 4d15
00000020: f22e c3eb 3d17 c916 e3d9 39cd 0714 c8df
00000030: d0f8 ea60 0942 f60c e21a 03db d40d fbec
00000040: 2908 ff3e d036 efc9 0226 ff31 0fe1 00e9
00000050: dbf1 0de9 f615 f0ed 10e9 ccd8 2ddc fc4a
00000060: 1c5b 9ce3 240d 81ff 2408 6df6 ffdc 1ef9
00000070: d8eb cd36 fc2f 44b7 f2f0 f31b bf10 1352
00000080: 20c7 d718 e608 dcd0 c5e3 11f1 ed4e 073b
00000090: 2adb d346 11e6 072a 02f1 0a3c 07cd 5c03
000000a0: e0d2 ff11 19e1 e808 0af0 e902 06cb f3dc
000000b0: 0724 e802 e04b 1b0b 04d6 34fb 00e9 17b9
000000c0: fe04 f0c8 110c 121b 0801 01f8 0a14 0aaf
000000d0: 3d47 256c b740 a6e1 2df8 f3d5 5919 26cf
000000e0: b8e5 fb33 4120 b1f9 2df6 f2e2 42d5 44c3
000000f0: 07d1 f14c b915 5230 a005 b72d 05ee 1a0f
-19 3 21 27 20 44 1 -27
5 39 71 49 -54 -59 11 22
-60 -30 26 -97 4 -82 65 -32
-11 57 -8 -31 -7 2 77 21
-14 46 -61 -21 61 23 -55 22
-29 -39 57 -51 7 20 -56 -33
-48 -8 -22 96 9 66 -10 12
-30 26 3 -37 -44 13 -5 -20
41 8 -1 62 -48 54 -17 -55
2 38 -1 49 15 -31 0 -23
-37 -15 13 -23 -10 21 -16 -19
16 -23 -52 -40 45 -36 -4 74
28 91 -100 -29 36 13 -127 -1
36 8 109 -10 -1 -36 30 -7
-40 -21 -51 54 -4 47 68 -73
-14 -16 -13 27 -65 16 19 82
32 -57 -41 24 -26 8 -36 -48
-59 -29 17 -15 -19 78 7 59
42 -37 -45 70 17 -26 7 42
2 -15 10 60 7 -51 92 3
-32 -46 -1 17 25 -31 -24 8
10 -16 -23 2 6 -53 -13 -36
7 36 -24 2 -32 75 27 11
4 -42 52 -5 0 -23 23 -71
-2 4 -16 -56 17 12 18 27
8 1 1 -8 10 20 10 -81
61 71 37 108 -73 64 -90 -31
45 -8 -13 -43 89 25 38 -49
-72 -27 -5 51 65 32 -79 -7
45 -10 -14 -30 66 -43 68 -61
7 -47 -15 76 -71 21 82 48
-96 5 -73 45 5 -18 26 15

onnx::Conv_160_quantized i1 [16, 32, 1, 1]
00000000: 04e6 15d8 b5f1 adf5 21e5 ed31 f75a 3d4a
00000010: c2c5 dd3a b615 ec32 e1a9 f338 0be2 18a9
00000020: e80c 18bd fc33 04d9 1827 37ab 2b31 11fe
00000030: 9ae8 3125 dc10 dbf9 21d1 36d0 c8b9 0d42
00000040: f939 00b3 c0e5 fccc c0df f6d1 ecf8 ded3
00000050: c0f6 e7e7 1846 1af3 292a 1330 eec2 3824
00000060: 37e5 0b08 963f 0c06 12bd 8f30 fbe7 612e
00000070: ede2 db11 f8f4 44ec c638 1abe 2bc1 ee38
00000080: af50 d329 a407 212a f4ee 0ff5 1fe6 56da
00000090: 2cf3 13ef e4d0 c2e9 2aff e625 e4d6 3a3a
000000a0: cd21 50e4 1801 d504 daf9 f7ce 340e 15eb
000000b0: 18f5 deef bfed c718 ee3b f9c9 eecd 02c8
000000c0: 2adf 1428 0232 fda0 a209 1ec1 e9dd cfbc
000000d0: 44e1 fc3f cae6 eb0a 38f8 043f 3a3c 22db
000000e0: e6ff d4c1 440a 2308 28cc 1727 daed 0cec
000000f0: 26af f40d dbdb 3af2 bb27 111e b105 061d
4 -26 21 -40 -75 -15 -83 -11
33 -27 -19 49 -9 90 61 74
-62 -59 -35 58 -74 21 -20 50
-31 -87 -13 56 11 -30 24 -87
-24 12 24 -67 -4 51 4 -39
24 39 55 -85 43 49 17 -2
-102 -24 49 37 -36 16 -37 -7
33 -47 54 -48 -56 -71 13 66
-7 57 0 -77 -64 -27 -4 -52
-64 -33 -10 -47 -20 -8 -34 -45
-64 -10 -25 -25 24 70 26 -13
41 42 19 48 -18 -62 56 36
55 -27 11 8 -106 63 12 6
18 -67 -113 48 -5 -25 97 46
-19 -30 -37 17 -8 -12 68 -20
-58 56 26 -66 43 -63 -18 56
-81 80 -45 41 -92 7 33 42
-12 -18 15 -11 31 -26 86 -38
44 -13 19 -17 -28 -48 -62 -23
42 -1 -26 37 -28 -42 58 58
-51 33 80 -28 24 1 -43 4
-38 -7 -9 -50 52 14 21 -21
24 -11 -34 -17 -65 -19 -57 24
-18 59 -7 -55 -18 -51 2 -56
42 -33 20 40 2 50 -3 -96
-94 9 30 -63 -23 -35 -49 -68
68 -31 -4 63 -54 -26 -21 10
56 -8 4 63 58 60 34 -37
-26 -1 -44 -63 68 10 35 8
40 -52 23 39 -38 -19 12 -20
38 -81 -12 13 -37 -37 58 -14
-69 39 17 30 -79 5 6 29

onnx::Conv_163_quantized i1 [96, 16, 1, 1]
00000000: 0315 ede9 d0f0 e813 1003 1be5 2507 170e
00000010: 432a d0e5 4666 d94b 21d5 24fb 1c0f e981
00000020: 1d08 f61c f2f8 e50b 2007 191a e6e7 f30f
00000030: e606 fc07 070e 12fc 061e 00f2 14e1 0df9
00000040: 07e1 fb35 1025 1f03 eb04 02d2 f8f8 e1e7
00000050: f7fb 0f06 f2dd 1615 f603 fe07 051d 34e4
00000060: 2621 fe05 13f0 01f1 f2bd 0ce6 c7fa cff8
00000070: 011d 0ac9 ed0f e413 ee08 d80f 1c02 000a
00000080: 04fb 1be9 1f28 f021 e4fe 1225 e900 d50a
00000090: fd0d 2cf6 3407 c924 f50f c81b 07cb 0738
000000a0: 0802 f522 3915 eb09 e2fe 19e0 f223 1af9
000000b0: 0b28 5a0d f6fc 47e3 f3a8 d0f5 ca0a e4e4
000000c0: 0f1c 1ae9 e7e0 04ff e7fe 0ad9 defc fcf9
000000d0: ea18 1e2a 1708 eefb db03 16e9 fcfa f6f2
000000e0: ea24 100a 0bfa d80f efea 1114 10f6 fd1a
000000f0: 16f8 c30a 021c c7db 131b cefd 0b38 3315
3 21 -19 -23 -48 -16 -24 19
16 3 27 -27 37 7 23 14
67 42 -48 -27 70 102 -39 75
33 -43 36 -5 28 15 -23 -127
29 8 -10 28 -14 -8 -27 11
32 7 25 26 -26 -25 -13 15
-26 6 -4 7 7 14 18 -4
6 30 0 -14 20 -31 13 -7
7 -31 -5 53 16 37 31 3
-21 4 2 -46 -8 -8 -31 -25
-9 -5 15 6 -14 -35 22 21
-10 3 -2 7 5 29 52 -28
38 33 -2 5 19 -16 1 -15
-14 -67 12 -26 -57 -6 -49 -8
1 29 10 -55 -19 15 -28 19
-18 8 -40 15 28 2 0 10
4 -5 27 -23 31 40 -16 33
-28 -2 18 37 -23 0 -43 10
-3 13 44 -10 52 7 -55 36
-11 15 -56 27 7 -53 7 56
8 2 -11 34 57 21 -21 9
-30 -2 25 -32 -14 35 26 -7
11 40 90 13 -10 -4 71 -29
-13 -88 -48 -11 -54 10 -28 -28
15 28 26 -23 -25 -32 4 -1
-25 -2 10 -39 -34 -4 -4 -7
-22 24 30 42 23 8 -18 -5
-37 3 22 -23 -4 -6 -10 -14
-22 36 16 10 11 -6 -40 15
-17 -22 17 20 16 -10 -3 26
22 -8 -61 10 2 28 -57 -37
19 27 -50 -3 11 56 51 21

onnx::Conv_166_quantized i1 [96, 1, 3, 3]
00000000: f30f cffe b515 e2f4 13f6 09f9 fbf6 1a0e
00000010: 0a12 1304 06d1 f634 f9c0 eb09 2ee0 3b30
00000020: fffd 040a f602 16eb e1d4 0afe 0e06 2408
00000030: 0cf9 e003 c5de 0101 f026 09fb f91a fb48
00000040: 332d 15c8 31e8 d8e5 f3cc ea15 19e4 1821
00000050: 29dc 1eee 02e8 210b c303 ead1 fd0f 162a
00000060: 160d f605 e314 e7fb f6ed f01a 37c7 f409
00000070: d733 0bc8 2c1f f3d0 e6bd 06e0 c622 ffe0
00000080: 3ced f530 d32c 13fd 0e08 0215 080d 080a
00000090: df0f e1f1 decc 1c18 0bc7 c9f5 ff2d e81b
000000a0: 2b24 ddec f7ec e804 fff6 0428 d8d0 093d
000000b0: 4ae9 dccf 1ffa cd47 cbdd 4dcb e5e9 2d11
000000c0: cd1f 1ce6 eefe f8d5 1c07 f1cd 1a25 1eeb
000000d0: dc01 f3f7 06df 0f33 db31 3632 0581 fcbb
000000e0: 5e10 1b12 f901 1bfa f405 ec49 d502 2da5
000000f0: 191a dada ea17 1cd8 c112 1a31 fac1 fef0
-13 15 -49 -2 -75 21 -30 -12
19 -10 9 -7 -5 -10 26 14
10 18 19 4 6 -47 -10 52
-7 -64 -21 9 46 -32 59 48
-1 -3 4 10 -10 2 22 -21
-31 -44 10 -2 14 6 36 8
12 -7 -32 3 -59 -34 1 1
-16 38 9 -5 -7 26 -5 72
51 45 21 -56 49 -24 -40 -27
-13 -52 -22 21 25 -28 24 33
41 -36 30 -18 2 -24 33 11
-61 3 -22 -47 -3 15 22 42
22 13 -10 5 -29 20 -25 -5
-10 -19 -16 26 55 -57 -12 9
-41 51 11 -56 44 31 -13 -48
-26 -67 6 -32 -58 34 -1 -32
60 -19 -11 48 -45 44 19 -3
14 8 2 21 8 13 8 10
-33 15 -31 -15 -34 -52 28 24
11 -57 -55 -11 -1 45 -24 27
43 36 -35 -20 -9 -20 -24 4
-1 -10 4 40 -40 -48 9 61
74 -23 -36 -49 31 -6 -51 71
-53 -35 77 -53 -27 -23 45 17
-51 31 28 -26 -18 -2 -8 -43
28 7 -15 -51 26 37 30 -21
-36 1 -13 -9 6 -33 15 51
-37 49 54 50 5 -127 -4 -69
94 16 27 18 -7 1 27 -6
-12 5 -20 73 -43 2 45 -91
25 26 -38 -38 -22 23 28 -40
-63 18 26 49 -6 -63 -2 -16

onnx::Conv_169_quantized i1 [24, 96, 1, 1]
00000000: e209 19f2 08f9 15e5 0b12 c11d 0ce2 e9c1
00000010: b503 c904 f5e1 174c 012c 0714 d638 ee1b
00000020: 2132 110b a8f5 e717 2c3b ee32 0ad7 f0d5
00000030: fcdc 07ea 0137 0ecd b918 27b6 f43f 18ef
00000040: f4f5 e3ef 37f8 051c 3503 5c12 3bf5 df0f
00000050: ce0d 25f1 36f6 ffe1 ec1e 2407 18db d10d
00000060: 09e1 dcf7 ebe8 fe4b c7f0 19d9 010c 3806
00000070: ba04 2cd3 ded9 e61b dae1 44ba e5bf 23ea
00000080: 2bf9 1702 032d 28ff d225 2019 1832 01f5
00000090: f31e f51e 6842 18ef ddc1 23f0 32fc 01e5
000000a0: f706 3aba 15e0 2023 1ff1 ccf1 ddd0 3ad4
000000b0: 180f 121d fc09 e9c3 1514 c300 c826 cffe
000000c0: 1c15 11df 0d47 181e d7db 2c00 0f1b f4c2
000000d0: e9f0 261d f03d f5ec f5d6 4611 fef4 f844
000000e0: 343d 271a 15ee 202e 1f35 f8d6 0247 1d04
000000f0: 45f2 20f5 c500 34eb 01fc 0a1b f201 43e0
-30 9 25 -14 8 -7 21 -27
11 18 -63 29 12 -30 -23 -63
-75 3 -55 4 -11 -31 23 76
1 44 7 20 -42 56 -18 27
33 50 17 11 -88 -11 -25 23
44 59 -18 50 10 -41 -16 -43
-4 -36 7 -22 1 55 14 -51
-71 24 39 -74 -12 63 24 -17
-12 -11 -29 -17 55 -8 5 28
53 3 92 18 59 -11 -33 15
-50 13 37 -15 54 -10 -1 -31
-20 30 36 7 24 -37 -47 13
9 -31 -36 -9 -21 -24 -2 75
-57 -16 25 -39 1 12 56 6
-70 4 44 -45 -34 -39 -26 27
-38 -31 68 -70 -27 -65 35 -22
43 -7 23 2 3 45 40 -1
-46 37 32 25 24 50 1 -11
-13 30 -11 30 104 66 24 -17
-35 -63 35 -16 50 -4 1 -27
-9 6 58 -70 21 -32 32 35
31 -15 -52 -15 -35 -48 58 -44
24 15 18 29 -4 9 -23 -61
21 20 -61 0 -56 38 -49 -2
28 21 17 -33 13 71 24 30
-41 -37 44 0 15 27 -12 -62
-23 -16 38 29 -16 61 -11 -20
-11 -42 70 17 -2 -12 -8 68
52 61 39 26 21 -18 32 46
31 53 -8 -42 2 71 29 4
69 -14 32 -11 -59 0 52 -21
1 -4 10 27 -14 1 67 -32

layers.2.conv4.weight_quantized i1 [24, 24, 1, 1]
00000000: a524 f310 03ee f8ec 12fa c9cd e8e8 d619
00000010: b1f2 f1ff e903 23ee 2c3c 31ef ee30 f41d
00000020: 1be6 cc41 3b08 1632 460c 23ee daec c5d9
00000030: e3f5 f018 45f8 294f dd01 0ae9 e716 22c8
00000040: 1a4f dcef 04de 5833 f508 010e bb00 ee06
00000050: ee14 1400 03f5 2ff0 2aed ea01 ecd6 b50d
00000060: b72b 0328 dc04 2d07 e0d0 c805 1307 fadd
00000070: f122 d557 2c9d ce30 f63d 042b 12fe 1e0f
00000080: eaf6 f33f 330f 0035 23c7 bf23 fdc9 ec74
00000090: 28c0 fa40 cb03 f0fb ec2a 0332 0524 20fe
000000a0: 2e16 f1ff e247 eb1e 533a 1a0c ff32 02cf
000000b0: 5ebf dcfd 0f3b f3a4 e9f0 ee27 f1f8 2b24
000000c0: 18e9 093e 09ad e2e7 dfae 04f3 541c c1fc
000000d0: 3f6a 0b31 e601 25ef e60e f73d eb2e e4c9
000000e0: 1c2c 40e6 d51b 044c 3c06 11cf 1c1b adf1
000000f0: 8131 a0e7 38f1 5dfb f7c4 152a 2225 0711
-91 36 -13 16 3 -18 -8 -20
18 -6 -55 -51 -24 -24 -42 25
-79 -14 -15 -1 -23 3 35 -18
44 60 49 -17 -18 48 -12 29
27 -26 -52 65 59 8 22 50
70 12 35 -18 -38 -20 -59 -39
-29 -11 -16 24 69 -8 41 79
-35 1 10 -23 -25 22 34 -56
26 79 -36 -17 4 -34 88 51
-11 8 1 14 -69 0 -18 6
-18 20 20 0 3 -11 47 -16
42 -19 -22 1 -20 -42 -75 13
-73 43 3 40 -36 4 45 7
-32 -48 -56 5 19 7 -6 -35
-15 34 -43 87 44 -99 -50 48
-10 61 4 43 18 -2 30 15
-22 -10 -13 63 51 15 0 53
35 -57 -65 35 -3 -55 -20 116
40 -64 -6 64 -53 3 -16 -5
-20 42 3 50 5 36 32 -2
46 22 -15 -1 -30 71 -21 30
83 58 26 12 -1 50 2 -49
94 -65 -36 -3 15 59 -13 -92
-23 -16 -18 39 -15 -8 43 36
24 -23 9 62 9 -83 -30 -25
-33 -82 4 -13 84 28 -63 -4
63 106 11 49 -26 1 37 -17
-26 14 -9 61 -21 46 -28 -55
28 44 64 -26 -43 27 4 76
60 6 17 -49 28 27 -83 -15
-127 49 -96 -25 56 -15 93 -5
-9 -60 21 42 34 37 7 17

onnx::Conv_172_quantized i1 [144, 24, 1, 1]
00000000: fdf5 29f6 0800 06f5 20f4 fa16 1622 0d0e
00000010: f30d 04ec 1e1d 22ed ea28 0df6 281a faff
00000020: fbf4 f4eb 1c11 e9f5 d2dc 1514 ff12 faed
00000030: 14fb f0e3 f803 08fc cf04 fcf4 06f2 ec12
00000040: f611 de16 e4f9 0400 f7f4 fff7 2213 24f9
00000050: f507 100b fef7 1213 0dfc f723 3113 ec1a
00000060: fc13 f718 fc05 2809 f90e 0f13 fa05 f22f
00000070: fff0 0b0b 13f3 0c22 f927 f324 0818 efd7
00000080: e5e5 f1f1 fed7 20fe ddee 1df8 2833 f81a
00000090: 1d09 f5ff e019 060b f8dc 111a 2526 09fe
000000a0: fee6 ef02 0206 e4f1 f817 e80a ffcc ecd8
000000b0: f40a 06f8 f40a 0a01 040a 19f0 f623 0c28
000000c0: ed03 e501 0df5 1313 13f2 0c11 0700 dced
000000d0: f511 0113 f002 0c02 10e9 d10c f619 18ec
000000e0: 1112 fe03 dd0e 19c5 ed14 07f7 eaf6 0104
000000f0: e118 e31a eef3 07f3 11e4 18d9 ff08 f62b
-3 -11 41 -10 8 0 6 -11
32 -12 -6 22 22 34 13 14
-13 13 4 -20 30 29 34 -19
-22 40 13 -10 40 26 -6 -1
-5 -12 -12 -21 28 17 -23 -11
-46 -36 21 20 -1 18 -6 -19
20 -5 -16 -29 -8 3 8 -4
-49 4 -4 -12 6 -14 -20 18
-10 17 -34 22 -28 -7 4 0
-9 -12 -1 -9 34 19 36 -7
-11 7 16 11 -2 -9 18 19
13 -4 -9 35 49 19 -20 26
-4 19 -9 24 -4 5 40 9
-7 14 15 19 -6 5 -14 47
-1 -16 11 11 19 -13 12 34
-7 39 -13 36 8 24 -17 -41
-27 -27 -15 -15 -2 -41 32 -2
-35 -18 29 -8 40 51 -8 26
29 9 -11 -1 -32 25 6 11
-8 -36 17 26 37 38 9 -2
-2 -26 -17 2 2 6 -28 -15
-8 23 -24 10 -1 -52 -20 -40
-12 10 6 -8 -12 10 10 1
4 10 25 -16 -10 35 12 40
-19 3 -27 1 13 -11 19 19
19 -14 12 17 7 0 -36 -19
-11 17 1 19 -16 2 12 2
16 -23 -47 12 -10 25 24 -20
17 18 -2 3 -35 14 25 -59
-19 20 7 -9 -22 -10 1 4
-31 24 -29 26 -18 -13 7 -13
17 -28 24 -39 -1 8 -10 43

onnx::Conv_175_quantized i1 [144, 1, 3, 3]
00000000: d2f4 db26 f4ee d6ee d7e9 1fde 240d 09c2
00000010: f7cf fa00 eaca 08e1 e701 d6ef f805 fe1a
00000020: 12c1 2318 0451 f5fb 16de 1f15 e209 f10f
00000030: 14f7 1c23 07f0 eb11 1bcf fa30 f4f0 13f0
00000040: fe01 f51e 2525 ffef e729 e3d5 12e0 fbdf
00000050: d722 f3e6 11fc 0021 15f6 05ea 0a21 0ad5
00000060: 1217 cf32 090d 2315 0eff 180b 0333 26ec
00000070: e9f3 e9e0 1012 e9d7 1524 16f0 e11b 05d4
00000080: 2aff d527 e22c d712 1c0d e816 0e12 1734
00000090: f8d1 0ed7 eef8 0d3f 35f3 e8f5 e0f3 1cf6
000000a0: e9e6 3238 05da 131a f3fb e037 f8e1 c417
000000b0: fab9 e052 071a f429 11f3 16dd e6d4 08e0
000000c0: f513 f9e4 121e 0f14 fe00 e3e6 e6f3 ec0b
000000d0: d5cf 110a 0d08 150b db08 c8f6 22d7 fe38
000000e0: 2fee 0f0e f1f6 1918 08ea c3f0 2be1 eb3f
000000f0: 15f6 0005 f8d3 dcee f0f0 fee6 f4e7 df20
-46 -12 -37 38 -12 -18 -42 -18
-41 -23 31 -34 36 13 9 -62
-9 -49 -6 0 -22 -54 8 -31
-25 1 -42 -17 -8 5 -2 26
18 -63 35 24 4 81 -11 -5
22 -34 31 21 -30 9 -15 15
20 -9 28 35 7 -16 -21 17
27 -49 -6 48 -12 -16 19 -16
-2 1 -11 30 37 37 -1 -17
-25 41 -29 -43 18 -32 -5 -33
-41 34 -13 -26 17 -4 0 33
21 -10 5 -22 10 33 10 -43
18 23 -49 50 9 13 35 21
14 -1 24 11 3 51 38 -20
-23 -13 -23 -32 16 18 -23 -41
21 36 22 -16 -31 27 5 -44
42 -1 -43 39 -30 44 -41 18
28 13 -24 22 14 18 23 52
-8 -47 14 -41 -18 -8 13 63
53 -13 -24 -11 -32 -13 28 -10
-23 -26 50 56 5 -38 19 26
-13 -5 -32 55 -8 -31 -60 23
-6 -71 -32 82 7 26 -12 41
17 -13 22 -35 -26 -44 8 -32
-11 19 -7 -28 18 30 15 20
-2 0 -29 -26 -26 -13 -20 11
-43 -49 17 10 13 8 21 11
-37 8 -56 -10 34 -41 -2 56
47 -18 15 14 -15 -10 25 24
8 -22 -61 -16 43 -31 -21 63
21 -10 0 5 -8 -45 -36 -18
-16 -16 -2 -26 -12 -25 -33 32

onnx::Conv_178_quantized i1 [24, 144, 1, 1]
00000000: 3406 d805 0a16 1016 d302 330d bc19 250c
00000010: bb04 2b18 084c efe5 f1e8 d019 33b7 e9fd
00000020: d80a f600 ee01 1ee1 c2ff 1b21 1ac7 fb0b
00000030: 48cd fc1b 1c00 eedb 3ad7 2305 093b ee17
00000040: 3c30 2027 f623 2bd5 d3e7 c6c2 dc30 22fb
00000050: f333 1bf2 36f5 2c26 2ec6 19f3 04be 0511
00000060: 15ea 230e e445 e4c2 20e7 c429 08ef db3c
00000070: 14e9 050c 5916 f0ec be2b e842 28db cd05
00000080: 1aec f145 fe2f eb3a 98fe 195c f337 103c
00000090: 06ea 3ded e20b 1836 e1fb ec09 e6f7 100c
000000a0: cce5 d616 c9e5 0333 162a f5d7 17fa f82f
000000b0: 10e1 1d01 ec01 1dde 0e0b 14e4 d80c 0830
000000c0: f5ee fc1a 1e5d 1f30 153d 0fe4 ec15 f92c
000000d0: ca0f 1abe b8e5 f6f0 fdfd e2ff d406 14ff
000000e0: 1d27 b814 dde8 2eda 2834 21cf 0f07 fc05
000000f0: 26c6 2ef3 01dc 48c7 dc28 cae4 0b33 f40b
52 6 -40 5 10 22 16 22
-45 2 51 13 -68 25 37 12
-69 4 43 24 8 76 -17 -27
-15 -24 -48 25 51 -73 -23 -3
-40 10 -10 0 -18 1 30 -31
-62 -1 27 33 26 -57 -5 11
72 -51 -4 27 28 0 -18 -37
58 -41 35 5 9 59 -18 23
60 48 32 39 -10 35 43 -43
-45 -25 -58 -62 -36 48 34 -5
-13 51 27 -14 54 -11 44 38
46 -58 25 -13 4 -66 5 17
21 -22 35 14 -28 69 -28 -62
32 -25 -60 41 8 -17 -37 60
20 -23 5 12 89 22 -16 -20
-66 43 -24 66 40 -37 -51 5
26 -20 -15 69 -2 47 -21 58
-104 -2 25 92 -13 55 16 60
6 -22 61 -19 -30 11 24 54
-31 -5 -20 9 -26 -9 16 12
-52 -27 -42 22 -55 -27 3 51
22 42 -11 -41 23 -6 -8 47
16 -31 29 1 -20 1 29 -34
14 11 20 -28 -40 12 8 48
-11 -18 -4 26 30 93 31 48
21 61 15 -28 -20 21 -7 44
-54 15 26 -66 -72 -27 -10 -16
-3 -3 -30 -1 -44 6 20 -1
29 39 -72 20 -35 -24 46 -38
40 52 33 -49 15 7 -4 5
38 -58 46 -13 1 -36 72 -57
-36 40 -54 -28 11 51 -12 11

onnx::Conv_181_quantized i1 [144, 24, 1, 1]
00000000: 1021 ea13 dbe1 e91c 1bf9 fbde c420 1cfd
00000010: 09c5 2511 fe1c ee06 11fe f7f4 1de8 e348
00000020: 0a0d e2d9 15cf 0cf1 d807 2b2c f2f6 e301
00000030: 13fa f9f9 072f ddf9 f505 0e11 d507 f7ef
00000040: 21c7 f73b f912 fbe2 e114 2500 eaec 0a25
00000050: d9fd 18ed e9f0 fd1b 0c23 1cff fe28 12f8
00000060: 0ccc f8f0 0c12 d0f7 1c01 f4d4 23e4 0616
00000070: ced9 f7e2 220e 23f5 4de2 fefb 09fd e3ff
00000080: 0cee c0f2 ea31 210e 4cf7 041a df0d 0506
00000090: e008 0d12 c0c8 3aee d30f f323 014b aefd
000000a0: 1814 edfb 0b1f c522 f200 29ef d0f9 14c9
000000b0: ea20 24d4 f7f2 0300 24d1 05e6 dce3 0e02
000000c0: e7fb 36fb d5e7 4de4 e7de 2f44 01eb 1fcc
000000d0: daf1 510c ff14 26d3 02f2 131a b609 031b
000000e0: f523 da31 131e fd09 26e1 1ee0 cadb 44ee
000000f0: e4fa 2df3 17fc e914 0ff9 dfee d509 f6f8
16 33 -22 19 -37 -31 -23 28
27 -7 -5 -34 -60 32 28 -3
9 -59 37 17 -2 28 -18 6
17 -2 -9 -12 29 -24 -29 72
10 13 -30 -39 21 -49 12 -15
-40 7 43 44 -14 -10 -29 1
19 -6 -7 -7 7 47 -35 -7
-11 5 14 17 -43 7 -9 -17
33 -57 -9 59 -7 18 -5 -30
-31 20 37 0 -22 -20 10 37
-39 -3 24 -19 -23 -16 -3 27
12 35 28 -1 -2 40 18 -8
12 -52 -8 -16 12 18 -48 -9
28 1 -12 -44 35 -28 6 22
-50 -39 -9 -30 34 14 35 -11
77 -30 -2 -5 9 -3 -29 -1
12 -18 -64 -14 -22 49 33 14
76 -9 4 26 -33 13 5 6
-32 8 13 18 -64 -56 58 -18
-45 15 -13 35 1 75 -82 -3
24 20 -19 -5 11 31 -59 34
-14 0 41 -17 -48 -7 20 -55
-22 32 36 -44 -9 -14 3 0
36 -47 5 -26 -36 -29 14 2
-25 -5 54 -5 -43 -25 77 -28
-25 -34 47 68 1 -21 31 -52
-38 -15 81 12 -1 20 38 -45
2 -14 19 26 -74 9 3 27
-11 35 -38 49 19 30 -3 9
38 -31 30 -32 -54 -37 68 -18
-28 -6 45 -13 23 -4 -23 20
15 -7 -33 -18 -43 9 -10 -8

onnx::Conv_184_quantized i1 [144, 1, 3, 3]
00000000: 08c9 d20f fb14 ec24 36eb e6d3 f207 fb2f
00000010: 1b11 2106 2229 41fc daea d8ac e1fd d7f8
00000020: 2912 2622 fef3 dc0e 06d2 d9e8 00d2 1235
00000030: d1fd 1bfa d31e ebf5 1bfd 0210 d8f7 ef12
00000040: dcd1 0917 15c9 3815 1aff 1909 1808 f903
00000050: 0412 0518 f8fc e7e4 ebe8 1e09 0c18 301a
00000060: ef38 2229 131e 02ff 19cb eedd b31c 5bf4
00000070: 067f 1e22 0105 1118 fa0d 0c24 1612 f3eb
00000080: ffdf f6ef e60e 27c5 0525 ef0f 26e4 f70e
00000090: ecf8 f402 ef08 e4fa f8fd 1606 0d10 020d
000000a0: 1b11 100e dc1a 07d2 2cec fa23 efdd 2001
000000b0: ca1d f401 0d18 1920 170d 0306 0013 e40d
000000c0: ffdb fbd6 eff1 20e2 b94f 16aa 1530 01f9
000000d0: d9f8 e6f0 e7e9 e507 3e3e 061a 502c d0f6
000000e0: 28df fd06 ccf3 2ad3 1c18 082d 04f8 0215
000000f0: dfdb e508 fbed fe06 24ee f3f4 37f1 f6e9
8 -55 -46 15 -5 20 -20 36
54 -21 -26 -45 -14 7 -5 47
27 17 33 6 34 41 65 -4
-38 -22 -40 -84 -31 -3 -41 -8
41 18 38 34 -2 -13 -36 14
6 -46 -39 -24 0 -46 18 53
-47 -3 27 -6 -45 30 -21 -11
27 -3 2 16 -40 -9 -17 18
-36 -47 9 23 21 -55 56 21
26 -1 25 9 24 8 -7 3
4 18 5 24 -8 -4 -25 -28
-21 -24 30 9 12 24 48 26
-17 56 34 41 19 30 2 -1
25 -53 -18 -35 -77 28 91 -12
6 127 30 34 1 5 17 24
-6 13 12 36 22 18 -13 -21
-1 -33 -10 -17 -26 14 39 -59
5 37 -17 15 38 -28 -9 14
-20 -8 -12 2 -17 8 -28 -6
-8 -3 22 6 13 16 2 13
27 17 16 14 -36 26 7 -46
44 -20 -6 35 -17 -35 32 1
-54 29 -12 1 13 24 25 32
23 13 3 6 0 19 -28 13
-1 -37 -5 -42 -17 -15 32 -30
-71 79 22 -86 21 48 1 -7
-39 -8 -26 -16 -25 -23 -27 7
62 62 6 26 80 44 -48 -10
40 -33 -3 6 -52 -13 42 -45
28 24 8 45 4 -8 2 21
-33 -37 -27 8 -5 -19 -2 6
36 -18 -13 -12 55 -15 -10 -23

onnx::Conv_187_quantized i1 [32, 144, 1, 1]
00000000: f7ef c9d5 17fb d6ea e2be cc15 4bd3 f220
00000010: 18e1 3500 e4d3 2add 2910 c832 e42e f7bd
00000020: 54d1 e713 d409 2cf8 fa21 ef68 041b bde8
00000030: 230d 0bf6 e522 aa17 c2c5 cfc1 37de 1720
00000040: 3ff8 3784 e912 faf2 ca0b de3b ecfc 08e7
00000050: 0705 f0fd ecd2 39e3 243f 1dd4 f12d fee7
00000060: 2827 3be5 e8d7 f31e f30a ba06 07f7 28fa
00000070: fe24 ec11 03dd e808 c530 ca08 09f4 0acc
00000080: dd0a db28 fd24 0829 0eef eb0c 01c4 faf4
00000090: 0fef 01d5 0dd7 e926 e0ca d836 15e8 24a2
000000a0: 32d4 d11d 120b a709 e910 ec23 f213 f708
000000b0: 07d6 0010 d5eb e9d9 ffec 1608 fbcf 0def
000000c0: 05e2 4e21 e134 02fc 292d 174d fc43 ee1b
000000d0: f2dd dd0a 1c1d ef01 07f6 f612 25db fc3c
000000e0: e50c 16f8 051d fc00 21ee f833 24fb b6ed
000000f0: d515 1b0d 0dec f410 1810 e416 fc06 c4f0
-9 -17 -55 -43 23 -5 -42 -22
-30 -66 -52 21 75 -45 -14 32
24 -31 53 0 -28 -45 42 -35
41 16 -56 50 -28 46 -9 -67
84 -47 -25 19 -44 9 44 -8
-6 33 -17 104 4 27 -67 -24
35 13 11 -10 -27 34 -86 23
-62 -59 -49 -63 55 -34 23 32
63 -8 55 -124 -23 18 -6 -14
-54 11 -34 59 -20 -4 8 -25
7 5 -16 -3 -20 -46 57 -29
36 63 29 -44 -15 45 -2 -25
40 39 59 -27 -24 -41 -13 30
-13 10 -70 6 7 -9 40 -6
-2 36 -20 17 3 -35 -24 8
-59 48 -54 8 9 -12 10 -52
-35 10 -37 40 -3 36 8 41
14 -17 -21 12 1 -60 -6 -12
15 -17 1 -43 13 -41 -23 38
-32 -54 -40 54 21 -24 36 -94
50 -44 -47 29 18 11 -89 9
-23 16 -20 35 -14 19 -9 8
7 -42 0 16 -43 -21 -23 -39
-1 -20 22 8 -5 -49 13 -17
5 -30 78 33 -31 52 2 -4
41 45 23 77 -4 67 -18 27
-14 -35 -35 10 28 29 -17 1
7 -10 -10 18 37 -37 -4 60
-27 12 22 -8 5 29 -4 0
33 -18 -8 51 36 -5 -74 -19
-43 21 27 13 13 -20 -12 16
24 16 -28 22 -4 6 -60 -16

linear.weight_quantized i1 [10, 512]
00000000: e627 1bda 4918 050f f9d6 e8fc eeec 0e1b
00000010: c805 e900 e1f8 04b3 1217 ee18 1bf5 f3d2
00000020: e3d9 0ad8 f3c6 375c 290b 2d32 4cf6 1efe
00000030: faf3 00f7 023d e239 f1f8 162a 00d7 250b
00000040: fb25 0ff7 08f6 dac5 bceb ebdd e914 091d
00000050: d21e 07d6 071c f7fc 6530 0115 4621 f2ce
00000060: ece4 00fa e2bc db11 1a03 d0f0 d927 18d8
00000070: d5e1 c5c5 e5d0 fae2 c1cf d789 be05 e9cb
00000080: ff48 ef38 d8ec ec33 f0df eef0 1821 08eb
00000090: fcd7 4cff f0fb 2908 bcea 3b32 fb04 143e
000000a0: f4e6 1bf6 0c4b 21ca 2827 08e5 08f2 22fb
000000b0: df4a 30e4 2032 e7f4 22c5 11d2 f6e8 211f
000000c0: 3024 1604 0303 0be9 fcf3 3301 c9d2 f60a
000000d0: f2e7 0212 f2ea 022c eec0 de46 20f4 ef0a
000000e0: c9e4 1314 c9d6 20de fbfa 0c07 1e06 f72c
000000f0: ea46 d1fb 09f7 0302 edf1 2601 272e 072f
-26 39 27 -38 73 24 5 15
-7 -42 -24 -4 -18 -20 14 27
-56 5 -23 0 -31 -8 4 -77
18 23 -18 24 27 -11 -13 -46
-29 -39 10 -40 -13 -58 55 92
41 11 45 50 76 -10 30 -2
-6 -13 0 -9 2 61 -30 57
-15 -8 22 42 0 -41 37 11
-5 37 15 -9 8 -10 -38 -59
-68 -21 -21 -35 -23 20 9 29
-46 30 7 -42 7 28 -9 -4
101 48 1 21 70 33 -14 -50
-20 -28 0 -6 -30 -68 -37 17
26 3 -48 -16 -39 39 24 -40
-43 -31 -59 -59 -27 -48 -6 -30
-63 -49 -41 -119 -66 5 -23 -53
-1 72 -17 56 -40 -20 -20 51
-16 -33 -18 -16 24 33 8 -21
-4 -41 76 -1 -16 -5 41 8
-68 -22 59 50 -5 4 20 62
-12 -26 27 -10 12 75 33 -54
40 39 8 -27 8 -14 34 -5
-33 74 48 -28 32 50 -25 -12
34 -59 17 -46 -10 -24 33 31
48 36 22 4 3 3 11 -23
-4 -13 51 1 -55 -46 -10 10
-14 -25 2 18 -14 -22 2 44
-18 -64 -34 70 32 -12 -17 10
-55 -28 19 20 -55 -42 32 -34
-5 -6 12 7 30 6 -9 44
-22 70 -47 -5 9 -9 3 2
-19 -15 38 1 39 46 7 47
