Project/Project_files/mobilenetv2_experiments/onnxs/mobilenetv2_17.onnx (onnx, 77840 bytes, 23 tensors)

layers.0.conv4.weight f4 [16, 32, 1, 1]
0	0xbdb13d81	-0.08654309
1	0x3db7ae3c	0.089687794
2	0x3d70337e	0.058642857
3	0xbe390264	-0.18067318
4	0x3e621c01	0.22080995
5	0xbeadec47	-0.33969328
6	0xbd9f420b	-0.077762686
7	0x3e3f4ae2	0.1868091
8	0xbd0fab64	-0.03507556
9	0xbe58fd1e	-0.21190307
10	0x3e4c2a0a	0.19937912
11	0xbe9dc937	-0.30817577
12	0xbe9b1266	-0.30287474
13	0x3e783262	0.2423797
14	0xbe5925cc	-0.21205825
15	0x3ca00724	0.019534655
16	0x3ed00a1e	0.4063272
17	0xbd0584ca	-0.03259734
18	0xbd1bc3d0	-0.03802854
19	0x3db6b83b	0.08921858
20	0x3e821408	0.25405908
21	0x3e07978e	0.13241407
22	0xbe58a853	-0.2115796
23	0xbdf57d9a	-0.11986847
24	0x3ecdc7dd	0.40191546
25	0x3e075e42	0.1321955
26	0x3d3f55c6	0.04671266
27	0x3bf4d019	0.0074710962
28	0x3d1fb66f	0.03899234
29	0xbe83692d	-0.2566618
30	0x3e7681ee	0.24073002
31	0xbdf644a5	-0.12024812
32	0xbe60339d	-0.21894689
33	0x3cb58a98	0.022160813
34	0x3e202aa2	0.15641263
35	0xbc298d57	-0.010348639
36	0x3e2b927a	0.16755095
37	0x3e7979ee	0.24362919
38	0x3e550a2f	0.20804666
39	0x3e6b9b03	0.23008351
40	0xbdcb2f8b	-0.099211775
41	0x3c7dd92a	0.0154936705
42	0x3e868caf	0.26279208
43	0xbdbd64d2	-0.092477456
44	0xbd6cd0ca	-0.057816304
45	0x3e7a6183	0.2445126
46	0xbc5a74b6	-0.01333349
47	0xbdc489c5	-0.0959659
48	0xbd4f415e	-0.05059945
49	0xbe3a6579	-0.18202771
50	0x3e650080	0.22363472
51	0xbd40240f	-0.04690939
52	0xbd1387b7	-0.0360181
53	0xbe2e466f	-0.17019056
54	0xbdb63561	-0.088969
55	0x3e317e47	0.17333327
56	0xbd0db2e7	-0.034594443
57	0x3e1f4272	0.1555269
58	0xbe22089a	-0.15823594
59	0x3e345cd3	0.17613535
60	0x3e19b2f5	0.15009673
61	0x3e4ad726	0.19808635
62	0xbd5b2909	-0.05350593
63	0xbd5e62d7	-0.05429348
64	0xbd8fbfd1	-0.07019008
65	0x3e297fd3	0.16552667
66	0xbdcf170a	-0.10111816
67	0xbb1bb78e	-0.002376053
68	0xbe5be14d	-0.21472664
69	0x3e3c3142	0.18378165
70	0xbdad42a4	-0.08459976
71	0xbdaaa249	-0.08331735
72	0x3e324cd3	0.17412119
73	0xbe29e37f	-0.16590689
74	0x3e667c0a	0.22508255
75	0x3d99ac74	0.07503596
76	0x3e57687d	0.21035953
77	0x3df6b2db	0.12045833
78	0xbe3e5257	-0.18586098
79	0x3ea220fb	0.31665787
80	0xbc793332	-0.01520996
81	0x3e594a1d	0.21219678
82	0x3eb9e469	0.36307076
83	0x3e600c19	0.21879615
84	0x3d0a1608	0.033712417
85	0xbd41664e	-0.047216706
86	0xbc9a8cd7	-0.018865986
87	0xbddc2f2c	-0.10751185
88	0xbcd93063	-0.02651233
89	0xbdeceb66	-0.11568336
90	0xbcdc6b74	-0.026906706
91	0x3edf51bd	0.4361705
92	0xbe063a85	-0.13108261
93	0xbe7fbd1d	-0.24974485
94	0xbe4261b8	-0.18982589
95	0x3d77d900	0.06050968
96	0x3de69a0d	0.112598516
97	0x3cbe3b5d	0.023221666
98	0xbdcee7ee	-0.10102831
99	0xbd66e5ce	-0.056371503
100	0x3c3aa087	0.011390812
101	0x3dd88d2c	0.105738014
102	0xbcd98f87	-0.026557697
103	0xbc6dc3b1	-0.0145119885
104	0xbcb158f9	-0.02164887
105	0x3e97ede1	0.29673675
106	0x3e290d3a	0.16508952
107	0xb95c9449	-0.00021036075
108	0xbd5e9343	-0.05433966
109	0xbe517445	-0.2045451
110	0x3d9b08ee	0.075700626
111	0xbdd29365	-0.102820195
112	0x3d7e9a95	0.06215914
113	0xbc8e4c9a	-0.01737051
114	0xbd02c3d0	-0.031925023
115	0x3e2899d3	0.1646493
116	0x3d92d916	0.07170312
117	0xbd13a6e1	-0.03604782
118	0x3e8857e9	0.2662957
119	0xbdf795db	-0.120891295
120	0xbe29bc0f	-0.16575645
121	0xbe3c6e9a	-0.18401566
122	0xbdf18f7d	-0.11794946
123	0xbdb724df	-0.089425795
124	0xbc06081d	-0.008180645
125	0xbdaeb11e	-0.08529876
126	0xbd154514	-0.03644283
127	0x3c66164a	0.0140434
128	0x3de240c1	0.11047507
129	0x3e599a83	0.21250348
130	0xbe6d9ef6	-0.2320517
131	0xbd586fee	-0.05284112
132	0x3de363f3	0.11103048
133	0x3dd12164	0.10211447
134	0x3dd3970d	0.10331545
135	0x3ce24f3b	0.02762567
136	0x3ed1488a	0.40875655
137	0x3da2d586	0.079508826
138	0xbe2f8847	-0.1714183
139	0xbdd30cfe	-0.103052124
140	0xbdba03c8	-0.090827525
141	0x3c28324b	0.010265897
142	0x3dae7ab9	0.08519501
143	0xbe13ae4a	-0.14421955
144	0xbe6739c5	-0.22580631
145	0x3dac3a7d	0.08409593
146	0xbe4f5ef6	-0.20251068
147	0xbe418999	-0.18900146
148	0xbeadd4e2	-0.3395148
149	0xbbea0be7	-0.007142532
150	0xbd609ec2	-0.054838903
151	0xbdd23225	-0.102634706
152	0x3b4b405c	0.0031013703
153	0x3c2b3137	0.010448745
154	0xbe23a504	-0.15980917
155	0xbdd044a3	-0.101693414
156	0xbcbfef00	-0.023429394
157	0xbcd18ec3	-0.02558077
158	0xbdb25d20	-0.087091684
159	0xbe53b36f	-0.20673917
160	0xbc8204fc	-0.015871517
161	0xbd6865f5	-0.05673786
162	0x3a97a94a	0.0011570838
163	0xbef39fb3	-0.47582778
164	0x3b77739f	0.0037758125
165	0xbc8c7b77	-0.017148716
166	0x3dd72d5c	0.105066985
167	0x3dfa799d	0.12230227
168	0xbb9a5cec	-0.004710784
169	0x3d96532d	0.07340083
170	0x3d190e24	0.037367
171	0xbdee0bfb	-0.11623379
172	0x3dd5f2f3	0.104467295
173	0xbdf12c97	-0.11776083
174	0xbddc682c	-0.10762057
175	0x3e1e88b7	0.1548184
176	0xbdd5c643	-0.10438206
177	0x3d7cdb0d	0.06173234
178	0x3d06ab77	0.032878365
179	0x3ddbffd9	0.107421584
180	0xbdbe3806	-0.092880294
181	0xbdaf7482	-0.08567144
182	0x3dd4fc89	0.1039973
183	0x3cd2b772	0.02572224
184	0x3d0aabc4	0.033855215
185	0x3d429689	0.047506843
186	0xbdc2a8b8	-0.09504837
187	0xbd95c738	-0.073133886
188	0x3e30a5ba	0.1725072
189	0xbdaee8ee	-0.085405216
190	0xbe7cd787	-0.24691592
191	0xbca8d743	-0.020610457
192	0xbef58c7c	-0.47958744
193	0xbe15931f	-0.14606903
194	0xbe022211	-0.12708308
195	0xbd878253	-0.06616654
196	0xbcf04ce1	-0.029333534
197	0x3cbd88e7	0.02313657
198	0x3e533600	0.20626068
199	0x3daa5a1b	0.083179675
200	0xbc9b5a7f	-0.01896405
201	0xbdeb07b3	-0.11476078
202	0xbdbfb9a8	-0.09361583
203	0x3d23b241	0.039964918
204	0xbdc9584a	-0.09831293
205	0x3e4fe5b4	0.20302469
206	0x3e8de9d6	0.27717465
207	0x3c00a4b2	0.007851766
208	0xbd8ad8f1	-0.067796595
209	0x3e46eb54	0.19425708
210	0x3db0414e	0.08606206
211	0xbdf7dd53	-0.12102761
212	0x3cf3f51b	0.029779961
213	0x3e003f76	0.12524208
214	0xbd7af450	-0.06126815
215	0xbca93498	-0.020654961
216	0x3e4b33af	0.19843934
217	0xbd9891b8	-0.07449669
218	0xbe39aea4	-0.18133026
219	0xbe035e13	-0.12828855
220	0x3e444fac	0.19171017
221	0x3e3522dc	0.17689079
222	0xbdead3c2	-0.11466171
223	0x3e8b5476	0.27212876
224	0xbc76ef92	-0.015071766
225	0x3b8fb9a3	0.0043861433
226	0xbe404483	-0.18776135
227	0xbe40aa61	-0.18814994
228	0x3e50d1bf	0.20392512
229	0xbd32fcb9	-0.043698046
230	0xbe1c11ce	-0.15241167
231	0x3dc03f92	0.09387125
232	0xbedf4c18	-0.43612742
233	0xbd99d97e	-0.075121865
234	0xbe08e7f3	-0.13369732
235	0xbd85532e	-0.06510006
236	0x3dc87bf7	0.097892694
237	0x3d926e9b	0.071500026
238	0xbe018803	-0.1264954
239	0x3daeed21	0.085413225
240	0xbe92fe62	-0.28709704
241	0x3d8247f2	0.06361379
242	0x3d45c073	0.048279237
243	0xbc17925c	-0.009251203
244	0x3deaee9d	0.11471293
245	0xbd8d453f	-0.06897973
246	0xbe9b9837	-0.30389568
247	0xbc802472	-0.015642378
248	0x3e9647ee	0.29351753
249	0x3e8a515a	0.2701519
250	0x3e25ed34	0.16203767
251	0x3ecac1c2	0.3960095
252	0xbe24b9f8	-0.16086566
253	0xbe349e49	-0.17638506
254	0xbe2bed63	-0.16789775
255	0x3d822337	0.06354373

linear.weight f4 [10, 384]
0	0x3cd45a6b	0.02592202
1	0xbe925d7e	-0.28586954
2	0xbe07ec75	-0.13273795
3	0x3db3078e	0.08741675
4	0x3e7e3377	0.2482432
5	0x3c2714fa	0.010197872
6	0xbd777fe6	-0.060424708
7	0x3e1cb037	0.15301596
8	0x3e8c861f	0.27446076
9	0xbce069b5	-0.027394155
10	0x3de92b19	0.11385173
11	0x3efb654b	0.49100718
12	0x3d628346	0.055300973
13	0x3ee7fe81	0.4531136
14	0x3e32609f	0.1741967
15	0x3e01c136	0.1267136
16	0xbe4a59a8	-0.19760764
17	0xbd84f654	-0.06492296
18	0x3d8f3b3e	0.069937214
19	0xbe23e1ac	-0.16004056
20	0x3e39b532	0.18135527
21	0x3dd27e21	0.102779634
22	0x3e79e6cc	0.24404448
23	0x3db420f3	0.08795347
24	0xbe0fa6fd	-0.14028545
25	0xbe4d29c9	-0.20035471
26	0x3e9197a7	0.28436014
27	0xbe53166d	-0.20614024
28	0xbdc385ec	-0.09547028
29	0xbd91c11f	-0.07116913
30	0x3edbed71	0.4295459
31	0x3c498566	0.012299871
32	0x3d2c411d	0.042054284
33	0xbc86b8a7	-0.016445471
34	0xbd14f119	-0.03636274
35	0x3e6d6ee5	0.23186834
36	0xbe7062c5	-0.23475178
37	0xbe99c3ca	-0.30032188
38	0x3dbbb9c3	0.091662906
39	0x3d9905dc	0.07471821
40	0x3d50aceb	0.050946157
41	0xbb913b20	-0.004432097
42	0xbdcbbe25	-0.099483766
43	0x3e11de5c	0.1424498
44	0x3d0a69aa	0.033792175
45	0xbe1b68da	-0.15176716
46	0xbe8aa560	-0.27079296
47	0xbd9bef58	-0.076140106
48	0xbe87df87	-0.26537725
49	0x3d951578	0.072794855
50	0x3d567903	0.0523615
51	0xbe0a2018	-0.13488805
52	0xbdfb49a1	-0.12269903
53	0x3e2c93b1	0.16853215
54	0x3e2ddfb9	0.16979875
55	0x3cbb18b9	0.022838937
56	0x3e13de82	0.14440349
57	0x3ead699c	0.33869636
58	0xbc804363	-0.015657132
59	0x3f0b9dbd	0.54537565
60	0xbd095be9	-0.033534918
61	0xbd63bcd0	-0.055599988
62	0x3db33823	0.087509416
63	0x3e85e044	0.26147664
64	0xbd5ef30f	-0.054431017
65	0x3e85f7e7	0.26165697
66	0x3ee38f27	0.44445154
67	0xbd4dd222	-0.050249226
68	0xbeb38b0e	-0.35067028
69	0xbe8e446e	-0.27786583
70	0xbcc287ff	-0.023746489
71	0x3d7a80c7	0.061157968
72	0xbf4127be	-0.75451267
73	0xbdf551c1	-0.11978484
74	0x3d087059	0.033310268
75	0xbea2833f	-0.31740758
76	0xbed4e1a8	-0.41578412
77	0xbe19d54d	-0.15022774
78	0x3c98eba6	0.018667053
79	0xbef0c78e	-0.47027248
80	0xbe92fd2a	-0.28708774
81	0xbf080709	-0.53135735
82	0xbe55e990	-0.20889878
83	0x3dcecefd	0.10098074
84	0xbe861ac5	-0.261923
85	0xbeded13e	-0.43519014
86	0x3c1b38da	0.009474004
87	0x3e85717a	0.26063138
88	0xbe2fb367	-0.1715828
89	0xbed77e15	-0.4208838
90	0xbd8e82ab	-0.06958517
91	0xbe3bf3d5	-0.18354733
92	0xbddf0037	-0.10888713
93	0xbd6e85c2	-0.05823303
94	0xbda12d32	-0.078699484
95	0xbed71f68	-0.4201615
96	0x3e0dc7e5	0.13845785
97	0xbdb06e3e	-0.08614777
98	0x3dcbff97	0.09960859
99	0xbd9d3865	-0.07676772
100	0x3e7f6be7	0.24943505
101	0xbd9ed719	-0.0775587
102	0xbe712aee	-0.23551533
103	0x3e916cec	0.28403413
104	0x3ed6b6f5	0.4193646
105	0x3e1581d7	0.14600311
106	0x3d9b46cc	0.07581863
107	0xbe807f00	-0.25096893
108	0xbeb25cfc	-0.34836566
109	0xbd733e88	-0.059385806
110	0xbc81bdbc	-0.015837543
111	0x3ccb95aa	0.024851639
112	0xbdc91800	-0.09819031
113	0xbe6fc82a	-0.234162
114	0xbe146321	-0.1449094
115	0x3b980473	0.0046392023
116	0x3e64bb4a	0.2233707
117	0xbdee26c7	-0.1162849
118	0x3e6dc875	0.23221
119	0x3e0613d4	0.13093501
120	0xbe871e16	-0.2639014
121	0x3e44d2f3	0.19221096
122	0x3e51951b	0.20467035
123	0xbd80b9eb	-0.06285461
124	0xbdf7a547	-0.12092071
125	0x3d49e143	0.049287092
126	0x3e87269e	0.2639665
127	0x3e8f85a8	0.2803166
128	0xbd303fe2	-0.043029673
129	0xbda008e2	-0.07814194
130	0x3e1d7361	0.15376045
131	0xbe339216	-0.17536196
132	0xbd6c77f4	-0.057731584
133	0xbecac659	-0.39604452
134	0xbe4681dd	-0.19385476
135	0x3e9b9c39	0.30392626
136	0xbd57ed57	-0.05271658
137	0xbe96b1d3	-0.29432544
138	0xbe2b8d7c	-0.16753191
139	0x3d05124c	0.032488152
140	0x3e06491a	0.13113824
141	0x3dc90a9d	0.098164774
142	0x3ec06749	0.375788
143	0x3dd5510c	0.10415849
144	0x3db6fdb9	0.089351125
145	0x3e70831b	0.23487513
146	0xbe0d891b	-0.13821833
147	0x3e8e4bfb	0.27792343
148	0xbe028c23	-0.1274877
149	0xbe5f7341	-0.2182131
150	0xbe206436	-0.15663227
151	0x3ec9b302	0.39394385
152	0x3b8143d6	0.0039448543
153	0x3e1cf260	0.15326834
154	0xbe525552	-0.2054036
155	0xbe844b2b	-0.258386
156	0x3e90f240	0.28309822
157	0x3e2e9014	0.17047149
158	0xbda21053	-0.0791327
159	0xbc0a3449	-0.008435317
160	0xbe004cb2	-0.12529257
161	0x3d372a71	0.04471821
162	0x3d9a6c6e	0.075402126
163	0x3ed73723	0.42034253
164	0xbcbb5aef	-0.022870509
165	0x3e50add6	0.20378813
166	0x3ec26c48	0.37973237
167	0xbe27714f	-0.16351818
168	0xbd4f7565	-0.050649066
169	0x3e369ddb	0.17833655
170	0x3d387852	0.04503662
171	0xbdf788c4	-0.12086633
172	0x3db778b6	0.08958571
173	0x3ebbd17a	0.36683255
174	0x3e9bf08f	0.3045697
175	0xbe7e0755	-0.24807484
176	0x3eac7284	0.33681118
177	0xbd93abe1	-0.07210518
178	0x3dcc35e7	0.099712186
179	0xbc079446	-0.008275097
180	0x3d9899bc	0.074511975
181	0x3e25641f	0.16151474
182	0x3d986bc4	0.0744243
183	0xbd5f5e19	-0.054533098
184	0xbd4226fc	-0.04740046
185	0x3d81b998	0.06334227
186	0x3ea0d8fd	0.3141555
187	0x3dfc1ec9	0.12310559
188	0xbdcc4fc9	-0.09976155
189	0x3e3de202	0.18543246
190	0x3e92a416	0.28640813
191	0xbc308cbc	-0.010775741
192	0xbcc4e30e	-0.02403405
193	0x3e1104c7	0.14161979
194	0x3d9d985a	0.076950744
195	0xbc482211	-0.012215153
196	0x3d685baf	0.05672806
197	0xbe42038a	-0.18946663
198	0xbea41f6b	-0.3205522
199	0xbeb8a054	-0.3605982
200	0xbda8e483	-0.0824671
201	0x3d7bb537	0.061452117
202	0xbe951def	-0.291244
203	0xbe1ed243	-0.15509896
204	0xbe8c931a	-0.2745598
205	0xbe8f63bd	-0.28005782
206	0xbe9005f2	-0.28129536
207	0xbdb2b67f	-0.087262146
208	0xbe86e2ec	-0.26345003
209	0x3de1a6d7	0.1101815
210	0x3e0c3fba	0.13696185
211	0xbcd38645	-0.02582086
212	0x3e512558	0.20424402
213	0xbc0ad536	-0.008473685
214	0x3e5d0974	0.21585637
215	0x3ee79bba	0.45235997
216	0x3e2138ff	0.15744399
217	0x3d5f603b	0.054535132
218	0x3e96a85f	0.29425332
219	0x3de0bf8c	0.10974035
220	0xbe54839e	-0.20753333
221	0x3dea5e0c	0.11443719
222	0x3db5e5b8	0.08881706
223	0x3e3a8b2d	0.18217154
224	0xbddc78c2	-0.1076522
225	0x3d93230b	0.07184418
226	0xbea71c64	-0.32638848
227	0x3e0d4fd9	0.1379999
228	0xbdec9352	-0.115515366
229	0xbe9478ad	-0.28998318
230	0xbe327138	-0.17426002
231	0x3e0fbda9	0.14037193
232	0xbe3978de	-0.18112513
233	0x3da043c4	0.07825425
234	0xbebf7377	-0.3739278
235	0x3e3b1ade	0.18271968
236	0xbe1cc491	-0.15309359
237	0xbe0f8719	-0.1401638
238	0xbed15214	-0.40882933
239	0xbdb14197	-0.086550884
240	0x3e01619b	0.1263489
241	0xbe35bd19	-0.17747916
242	0xbe34d27c	-0.17658418
243	0xbe1c392d	-0.15256186
244	0xbdd4c3de	-0.10388921
245	0xbd235fb9	-0.03988621
246	0x3e875b45	0.2643682
247	0x3e852b20	0.26009464
248	0x3eae3596	0.34025258
249	0x3ea7f07f	0.3280067
250	0x3ebc2f59	0.36754873
251	0x3eab6fe3	0.334838
252	0x3d122335	0.035678107
253	0xbde81fba	-0.11334176
254	0xbdd8b603	-0.10581591
255	0xbd13847f	-0.03601503

linear.bias f4 [10]
0	0x3eb9723a	0.3621996
1	0xbec0e298	-0.37672877
2	0x3e64febe	0.22362801
3	0x3de07d0c	0.10961351
4	0x3d706340	0.058688402
5	0x3c73126d	0.014835936
6	0xbe922e3e	-0.28550905
7	0xbd97d681	-0.0741396
8	0xbec582d6	-0.38576382
9	0x3e2f4363	0.1711555

onnx::Conv_117 f4 [32, 3, 3, 3]
0	0xbca77218	-0.020440146
1	0xbe037c9f	-0.12840508
2	0xbc8080df	-0.01568645
3	0x3d6d0b52	0.057872124
4	0xbe0c64a8	-0.13710272
5	0x3d4079e3	0.04699124
6	0xbce96ab7	-0.028493268
7	0xbe33d0ed	-0.17560168
8	0xbd609895	-0.054833014
9	0x3d9c9b24	0.07646778
10	0x3e16b664	0.14718014
11	0xbb2a678c	-0.002600166
12	0xbc323fc6	-0.010879463
13	0x3d47d828	0.048790127
14	0xbd24386e	-0.040092878
15	0x3d59c6b1	0.053168003
16	0xbd58685b	-0.052833896
17	0xbe1ca000	-0.1529541
18	0x3e19eefa	0.15032569
19	0x3e57b237	0.21064077
20	0x3d6cf02f	0.057846244
21	0x3e22d8f3	0.15903072
22	0x3e17618f	0.1478331
23	0x3da25d01	0.07927895
24	0xbc13ca5f	-0.009020417
25	0xbe01f333	-0.1269043
26	0xbd9a2c35	-0.07527963
27	0x3e9bd366	0.30434722
28	0xbd188607	-0.037237193
29	0xbec24cf7	-0.37949345
30	0x3e08d23d	0.1336145
31	0xbe28d08a	-0.16485801
32	0xbc498636	-0.012300065
33	0x3e4f552f	0.20247339
34	0x3e941529	0.28922394
35	0xbe293a9c	-0.16526264
36	0x3e3a44d0	0.18190312
37	0x3e2755af	0.1634128
38	0xbe92f195	-0.28699937
39	0xbe1534f9	-0.14570989
40	0xbdb30163	-0.08740499
41	0x3e561b85	0.20908935
42	0xbe74d092	-0.23907688
43	0x3e6e0d93	0.23247366
44	0xbe39e237	-0.181527
45	0x3dcd5988	0.10026842
46	0xbcb520c9	-0.02211036
47	0xbeb56ab2	-0.35432965
48	0x3d8055e8	0.06266385
49	0x3de550b4	0.111970335
50	0x3e082fd6	0.13299498
51	0xbea8f182	-0.32996756
52	0x3e0b2f1b	0.13592188
53	0xbda58dde	-0.080837
54	0xbd77f9a8	-0.060540825
55	0xbe39613e	-0.18103501
56	0x3d5e4897	0.054268446
57	0x3d69b69d	0.05705892
58	0x3e5e1b76	0.21690163
59	0x3db579f7	0.088611536
60	0x3e14d1f9	0.14533223
61	0x3bfc7a0e	0.0077049797
62	0x3e15d567	0.14632188
63	0x3da28bd4	0.07936826
64	0xbe9d7dae	-0.30759948
65	0xbd965e8d	-0.07342253
66	0x3e0bf951	0.13669325
67	0xbebfa052	-0.37427002
68	0xbe57e329	-0.21082748
69	0x3e356131	0.17712857
70	0xbe08a281	-0.1334324
71	0xbe51fcf4	-0.2050665
72	0x3d6990fd	0.057023037
73	0xbe2bf85a	-0.16793957
74	0x3c6dd06d	0.014515025
75	0x3d3a0b31	0.04542083
76	0xbe3fec78	-0.1874255
77	0x3e26b1c5	0.16278751
78	0x3e1c132f	0.15241693
79	0xbd46e7f1	-0.04856104
80	0x3e772d41	0.24138357
81	0x3f80a38b	1.0049909
82	0xbb20a53e	-0.0024512555
83	0x3e1db9c2	0.15402892
84	0x3ecdef93	0.40221843
85	0xbe95c0bf	-0.29248616
86	0xbe474073	-0.19458179
87	0xbe816569	-0.25272682
88	0xbf23b743	-0.6395151
89	0xbf879162	-1.0591242
90	0xbe6ab409	-0.2292024
91	0xbd669f6e	-0.056304388
92	0x3e724aaf	0.23661302
93	0xbd82979e	-0.06376575
94	0x3e5427b1	0.20718266
95	0x3f21bdb7	0.63180107
96	0x3e8d9761	0.27654555
97	0x3f608753	0.8770649
98	0xbeeb5a54	-0.45967352
99	0xbd8acfae	-0.06777893
100	0xbe93d865	-0.28876033
101	0xbd894800	-0.06703186
102	0xbd069f06	-0.0328665
103	0xbf1e5d21	-0.61860853
104	0x3eeabd26	0.45847434
105	0xbe96b5a7	-0.29435465
106	0x3e5f239d	0.21790929
107	0x3da4d884	0.080491096
108	0x3ea93771	0.3305011
109	0x3e237ca8	0.15965521
110	0x3e56048d	0.20900173
111	0xbeb5ccc4	-0.35507786
112	0xbefb8599	-0.49125364
113	0x3dd806b3	0.10548153
114	0xbec762c1	-0.3894253
115	0xbf080b2a	-0.53142035
116	0x3f16b184	0.5886462
117	0x3e6d16ea	0.23153272
118	0xbdbdfd65	-0.09276847
119	0xbec00751	-0.37505582
120	0x3cbf8461	0.023378553
121	0xbe4769f7	-0.19474016
122	0x3d525db5	0.051358897
123	0x3df8c690	0.12147248
124	0xbe270452	-0.16310242
125	0x3f3c39b4	0.7352555
126	0xbeb24c2a	-0.34823734
127	0x3e8c71b1	0.2743049
128	0xbecc97ab	-0.39959463
129	0x3e826f37	0.25475475
130	0x3f3b5c57	0.73187774
131	0x3cb25d51	0.021773012
132	0x3f01ea85	0.50748473
133	0x3eba3165	0.3636581
134	0xbf3b8ecc	-0.73264766
135	0xbdff5947	-0.124682
136	0xbd0cce23	-0.034376275
137	0xbd99483e	-0.07484482
138	0xbd931ef7	-0.071836405
139	0xbd54529b	-0.05183659
140	0xbb977b0d	-0.004622823
141	0x3d24b06c	0.04020731
142	0x3da7cf5b	0.08193847
143	0xbd724af2	-0.059153505
144	0xbddd399d	-0.108020045
145	0x3d848a57	0.06471699
146	0x3dbb5503	0.09147074
147	0x3d266b00	0.040629387
148	0x3e6578bc	0.22409338
149	0x3e4ab0ca	0.19794002
150	0x3ccbed10	0.024893314
151	0x3e3cc684	0.18435103
152	0xbcdcd102	-0.026955131
153	0xbd7467ef	-0.05966943
154	0xbd13db18	-0.036097616
155	0x3cdac33c	0.026704423
156	0xbb37f2b7	-0.0028068253
157	0xbbd6c3d4	-0.0065541063
158	0x3d5a39db	0.05327783
159	0xbc18e9af	-0.009333058
160	0xbcb9d011	-0.022682222
161	0xbca29ddb	-0.019850662
162	0xbe68da10	-0.22739434
163	0xbdf5d1fd	-0.12002943
164	0xbc56b6db	-0.01310512
165	0x3da51844	0.08061269
166	0x3d9af824	0.0756686
167	0x3d925614	0.07145324
168	0x3e2e02dd	0.1699328
169	0x3ccf8d47	0.025335921
170	0xbd523960	-0.05132425
171	0xbd2fc754	-0.042914703
172	0xbd94f385	-0.0727301
173	0x3da47b89	0.08031375
174	0x3e34231e	0.17591521
175	0x3daea218	0.08527011
176	0x3dbe251c	0.09284422
177	0x3e998ac4	0.29988682
178	0x3e4df898	0.20114362
179	0x3e05d257	0.1306852
180	0xbca7e93b	-0.020496955
181	0xbd9621b3	-0.07330646
182	0xbd0ce6c2	-0.034399755
183	0xbdeb4c4a	-0.1148916
184	0xbe4ba74e	-0.1988804
185	0xbe0cd037	-0.13751303
186	0x3cece7ac	0.028919064
187	0xbd7e983a	-0.062156893
188	0xbcd4c193	-0.02597121
189	0xbe5c54b0	-0.2151668
190	0xbdc264c0	-0.09491873
191	0x3e4baab2	0.19889334
192	0xbe5e9d43	-0.21739678
193	0xbe577f0b	-0.21044557
194	0xbea08638	-0.313524
195	0x3e4a216a	0.19739309
196	0xbd02a3a3	-0.031894337
197	0x3e8688bf	0.26276204
198	0xbca71a81	-0.02039838
199	0xbe32cdbe	-0.17461297
200	0xbd971b4a	-0.07378252
201	0xbe57083e	-0.20999238
202	0xbdb8b86e	-0.09019552
203	0xbe55c30a	-0.20875183
204	0x3e69687f	0.22793768
205	0x3dfb5d9a	0.122737125
206	0x3ea547d6	0.3228137
207	0x3cfcf60d	0.030879045
208	0x3df88941	0.12135554
209	0x3d7c5830	0.06160754
210	0xbe3e3544	-0.18575007
211	0x3e575d81	0.21031763
212	0xbcb9ad55	-0.022665659
213	0x3da5d131	0.08096541
214	0x3e3f4f87	0.18682681
215	0x3e6f5935	0.23373874
216	0xbe22e35a	-0.1590704
217	0xbecac5e5	-0.39604107
218	0xbec2138b	-0.37905535
219	0xbe8f2dfb	-0.27964768
220	0x3ec330c0	0.3812313
221	0x3e704941	0.23465444
222	0x3e189b52	0.14903
223	0x3de7ac00	0.11312103
224	0xbe50e9be	-0.20401666
225	0x3e99126d	0.2989687
226	0xbdfed239	-0.124424405
227	0xbdff58f6	-0.1246814
228	0x3dd5255a	0.10407515
229	0x3f20ff03	0.62889117
230	0x3ecda4ea	0.40164882
231	0xbe164b37	-0.1467713
232	0x3e9b3915	0.30316988
233	0x3e192792	0.14956501
234	0x3e855ec8	0.26048875
235	0xbe48bda5	-0.19603594
236	0xbd732e9d	-0.059370626
237	0xbdc9dc6e	-0.09856497
238	0xbd686459	-0.056736324
239	0xbcca788f	-0.02471569
240	0xbeb5a85d	-0.35480013
241	0xbe7a3534	-0.24434358
242	0x3e329bd0	0.1744225
243	0xbe4202e1	-0.1894641
244	0xbeb7e6e9	-0.35918358
245	0xbe5a0df2	-0.21294382
246	0x3eb1f708	0.34758782
247	0xbf0a4f82	-0.5402757
248	0x3d89783a	0.067123845
249	0x3ed760dc	0.42066085
250	0x3e0e7e5c	0.1391539
251	0x3d248ab7	0.04017135
252	0xbe772826	-0.24136409
253	0x3ee6712d	0.4500822
254	0x3e98055e	0.29691595
255	0x3e411ae3	0.18857913

onnx::Conv_118 f4 [32]
0	0xbe4da439	-0.20082177
1	0x3d39dedd	0.045378555
2	0x3d8ecb42	0.06972362
3	0xbefc04f7	-0.49222538
4	0x3e81231e	0.25222105
5	0xbe12f8fe	-0.14352795
6	0xbea48067	-0.32129213
7	0x3ee07302	0.43837744
8	0xbe75d63e	-0.24007508
9	0xbe3584a6	-0.17726383
10	0x3dd55771	0.10417069
11	0xbe0f856c	-0.1401574
12	0xbe0894ea	-0.13338056
13	0xbd140674	-0.036138967
14	0x3c8cff15	0.017211476
15	0x3e97eedd	0.29674426
16	0xbe8e3fff	-0.277832
17	0x3ac8184c	0.001526603
18	0x3e6e40ac	0.23266858
19	0xbdeb6cdc	-0.11495373
20	0x3e1721be	0.14758965
21	0x3e03aa3e	0.12857911
22	0xbe1318c1	-0.14364912
23	0xbe310818	-0.17288244
24	0xbc75791c	-0.014982488
25	0xbe062955	-0.13101704
26	0x3d9365f2	0.07197179
27	0xbe0b88c4	-0.1362639
28	0xbd32480f	-0.04352575
29	0xbe0da935	-0.13834079
30	0xbe8d6153	-0.27613315
31	0x3e1e19c6	0.1543952

onnx::Conv_120 f4 [32, 32, 1, 1]
0	0xbd63615d	-0.055512775
1	0x3e14935f	0.14509343
2	0x3dda84b1	0.1066984
3	0x3e198985	0.14993866
4	0xbe4f86e2	-0.20266297
5	0xbe0ac45d	-0.13551469
6	0xbdb98586	-0.09058671
7	0x3d4e8768	0.050422102
8	0xbba17312	-0.0049270475
9	0xbe3a95cf	-0.1822121
10	0x3d052991	0.032510344
11	0xbe1724d7	-0.14760147
12	0x3d20a96b	0.03922407
13	0x3b85d75a	0.00408451
14	0x3c2a0cfa	0.01037907
15	0x3e8da208	0.27662683
16	0x3e1cfc8e	0.15330717
17	0xbd97c9c7	-0.07411533
18	0x3d92ef73	0.071745776
19	0x3de101db	0.10986682
20	0xbe1f1f71	-0.15539338
21	0xbd05bb0a	-0.032649077
22	0x3dbb6497	0.09150045
23	0xbe22f502	-0.15913776
24	0xbd167da8	-0.03674093
25	0xbe0661cb	-0.13123243
26	0xbd678b4a	-0.05652932
27	0x3e54024f	0.20704006
28	0xbd26b2c4	-0.040697828
29	0x3e74091b	0.23831598
30	0x3d97b656	0.07407825
31	0x3e21b280	0.15790749
32	0xbd014b46	-0.031565927
33	0x3e7fb507	0.249714
34	0x3ce9aefb	0.02852582
35	0x3e772641	0.24135686
36	0xbdf9a1c6	-0.12189059
37	0xbd0d6669	-0.034521494
38	0xbd5d2e26	-0.05399909
39	0xbead2451	-0.3381677
40	0xbc158f76	-0.009128442
41	0xbd35a7a5	-0.04434933
42	0xbe4e560b	-0.2015001
43	0x3e4afe22	0.19823506
44	0xbd2634aa	-0.040577568
45	0xbe679020	-0.22613573
46	0xba06ea59	-0.0005146615
47	0x3d8f9c7f	0.07012271
48	0x3ba1be29	0.004935999
49	0xbe5df2c5	-0.2167464
50	0x3d05fd41	0.032712225
51	0xbe8440d0	-0.25830698
52	0xbdd1ca35	-0.10243646
53	0xbe225cae	-0.15855667
54	0x39e28f2d	0.00043212753
55	0x3d62e162	0.055390723
56	0x3e45ef2e	0.19329521
57	0x3e133528	0.14375746
58	0x3dfab6b4	0.12241879
59	0xbd1bcd3e	-0.03803753
60	0x3e2c7fef	0.16845678
61	0xbbde3c5f	-0.006782099
62	0xbe1374fb	-0.14400093
63	0x3cd9dc00	0.026594162
64	0xbdb4fd08	-0.088373244
65	0xbe686bc0	-0.22697353
66	0x3e0cd136	0.13751683
67	0xbe5f189b	-0.2178673
68	0x3df50347	0.11963516
69	0xbdbb526e	-0.091465816
70	0xbc06fdb8	-0.008239202
71	0x3e616d2a	0.22014299
72	0xbe221633	-0.15828781
73	0xbe342a73	-0.17594318
74	0xbcc76b78	-0.024343237
75	0xbe4ab1d8	-0.19794405
76	0xbdcbd982	-0.09953596
77	0xbb6bf4d2	-0.0036004079
78	0xbd9a6279	-0.075383134
79	0xbd126477	-0.035740342
80	0xbb67aafb	-0.0035349715
81	0x3d14b39d	0.036304105
82	0x3d3377b3	0.043815326
83	0x3e86d596	0.26334828
84	0xba1d3720	-0.0005997289
85	0xbe03ad72	-0.12859133
86	0x3d93e5f3	0.07221594
87	0xbd0a0119	-0.033692453
88	0x3d8b42c1	0.06799842
89	0x3d7eca1a	0.062204458
90	0x3da0204d	0.07818661
91	0xbe25492b	-0.16141193
92	0xbbe35fcd	-0.0069389106
93	0xbce0e944	-0.02745498
94	0xbddee632	-0.1088375
95	0x3daee6d0	0.08540118
96	0x3deaca49	0.11464364
97	0xbdf9c5d8	-0.12195939
98	0x3d3add03	0.04562093
99	0xbe12d582	-0.1433926
100	0x3dada3c6	0.08478503
101	0x3ea8f986	0.3300287
102	0x3d77558d	0.060384322
103	0x3ee78931	0.45221856
104	0x3e49611a	0.19665948
105	0x3df325b4	0.11872426
106	0x3b45d79e	0.0030188332
107	0x3de2098c	0.11036977
108	0xbdc33815	-0.09532181
109	0x3e0438d4	0.12912303
110	0xbca4784b	-0.020076891
111	0xbe88abbb	-0.2669352
112	0xbea8d015	-0.32971254
113	0xbe8a9d07	-0.27072927
114	0x3dcea121	0.10089327
115	0xbe8a4620	-0.27006626
116	0xbe0c6b8f	-0.13712905
117	0xbe3aa127	-0.18225537
118	0xbe8cb8d4	-0.27484763
119	0x3d1f2955	0.038857777
120	0xbea9be5c	-0.33153045
121	0xbd6f1c0e	-0.058376364
122	0x3e2916aa	0.16512552
123	0xbd52bfa0	-0.05145228
124	0xbd8a216c	-0.06744656
125	0xbdc29ecb	-0.095029436
126	0x3dd6eed9	0.10494775
127	0xbe8a16c4	-0.26970494
128	0x3dcab05e	0.098969206
129	0x3e17676e	0.14785549
130	0xbda066b9	-0.07832093
131	0xbe13451a	-0.14381829
132	0x3e5fc587	0.21852694
133	0xbc98e4c1	-0.018663766
134	0xbe32988c	-0.17441005
135	0xbe389925	-0.1802717
136	0xbda961b8	-0.082705915
137	0xbb76fd4d	-0.00376876
138	0x3dc38976	0.09547703
139	0xbddaa66e	-0.10676275
140	0xbda63941	-0.08116389
141	0xbdc4533c	-0.09586188
142	0xbcd117af	-0.025523989
143	0x3da04f88	0.078276694
144	0x3e4ba7e3	0.19888262
145	0xbe13fb1d	-0.14451261
146	0x3dbd9b40	0.09258127
147	0xbe5b547c	-0.21418947
148	0xbdb5fedc	-0.08886501
149	0xbdf2877b	-0.11842247
150	0xbd949f79	-0.072569795
151	0x3d228cc7	0.039685037
152	0x3e261059	0.16217174
153	0xbce74711	-0.02823213
154	0x3e62ddd2	0.2215493
155	0x3b0ce649	0.0021499565
156	0xbd12413b	-0.03570674
157	0xbe1f33d6	-0.15547118
158	0x3d0c926a	0.03431932
159	0xbdb43d2f	-0.08800732
160	0xbe6fc1ca	-0.23413768
161	0x3de03ed0	0.109494805
162	0x3e1178bf	0.14206217
163	0xbe83c600	-0.25737
164	0xbe33203b	-0.17492764
165	0x3d2ff586	0.04295876
166	0x3d980c5a	0.07424231
167	0x3e38f650	0.18062711
168	0xbb71c95a	-0.0036893697
169	0x3e26b1e7	0.16278802
170	0xbb8d20d9	-0.0043068943
171	0xbdb7a1b5	-0.0896639
172	0xbe014906	-0.12625512
173	0x3e158df1	0.14604928
174	0xbe36f180	-0.17865562
175	0x3dae9d12	0.085260525
176	0xbd199a94	-0.037500933
177	0xbc296f2d	-0.010341448
178	0x3e65a21b	0.2242512
179	0xbcef18e2	-0.02918667
180	0xbd033935	-0.03203698
181	0xbe9d0880	-0.30670547
182	0x3dd2c2da	0.10291071
183	0x3cb8e34c	0.022569321
184	0xbd012a95	-0.03153475
185	0x3e0f4bea	0.13993803
186	0xbdaaed80	-0.08346081
187	0x3c54c96e	0.012987478
188	0x3e6c9219	0.23102607
189	0xbd629076	-0.05531355
190	0xbe12340a	-0.14277664
191	0xbd4384d3	-0.047734093
192	0x3e6beb3a	0.2303895
193	0x3e1ba5d6	0.1519998
194	0x3e27c570	0.1638391
195	0x3eb5ed53	0.35532627
196	0xba92da11	-0.0011203905
197	0xbd623a57	-0.05523142
198	0xbc88fbb8	-0.016721591
199	0xbd8f4b94	-0.06996837
200	0xbef1fe49	-0.47264317
201	0x3d3693d0	0.04457456
202	0xbce53631	-0.027979942
203	0x3b884d7d	0.004159628
204	0xbeaa466c	-0.33256853
205	0x3dd53d9e	0.10412143
206	0x3da3f4a9	0.080056496
207	0xbe892691	-0.26787236
208	0x3e7b8b70	0.2456491
209	0x3d46e84a	0.048561372
210	0xbc879354	-0.016549744
211	0x3de46af9	0.11153216
212	0x3ebe2ae3	0.37142095
213	0xbe08fcfa	-0.13377753
214	0x3d233849	0.0398486
215	0x3c072a56	0.00824984
216	0x3d555196	0.05207976
217	0x3e472ef4	0.19451505
218	0x3ea0253d	0.3127841
219	0xbd548dfe	-0.051893227
220	0x3e6e05b7	0.23244368
221	0x3dc4dbce	0.09612237
222	0x3e809e2e	0.25120682
223	0xbe0ccbcc	-0.13749617
224	0x3da286b3	0.07935848
225	0xbe4490a0	-0.19195795
226	0x3e034bc9	0.12821878
227	0xbd9ec6ea	-0.077527836
228	0xbd34a5d7	-0.04410347
229	0x3c264bee	0.010149939
230	0x3ced3661	0.028956594
231	0x3e0117da	0.12606755
232	0xbe85fede	-0.2617101
233	0x3e1aeba6	0.15128955
234	0xbda0220e	-0.078189954
235	0x3d5ebfa5	0.054381985
236	0xbc812e9f	-0.015769301
237	0x3bf8edc7	0.0075967046
238	0x3d925050	0.07144225
239	0xbdc6757a	-0.096903756
240	0x3c8906f2	0.016726945
241	0xbe26522f	-0.16242288
242	0x3d5efcfe	0.05444049
243	0xbde792ad	-0.11307273
244	0x3e074255	0.13208897
245	0xbd644eab	-0.055739086
246	0xbdc1fd78	-0.094721735
247	0x3e386201	0.18006136
248	0xbd668150	-0.056275666
249	0x3d8f4075	0.06994716
250	0x3e3a3818	0.1818546
251	0xbc5bb6a0	-0.01341024
252	0x3db096a0	0.086224794
253	0x3dcf8ee3	0.10134675
254	0x3e4bfcd8	0.19920671
255	0x3d96d135	0.07364122

onnx::Conv_121 f4 [32]
0	0x3df636c7	0.12022167
1	0x3e9293dd	0.28628436
2	0xbe1055a0	-0.14095163
3	0xbe8930c2	-0.26795012
4	0x3e104838	0.1409005
5	0x3d98c446	0.07459311
6	0x3ecfa984	0.40559018
7	0x3eafe9ac	0.34357965
8	0xbcc97860	-0.024593532
9	0x3ed7fc06	0.42184466
10	0x3ea7ec65	0.32797542
11	0xbdfced48	-0.12349945
12	0x3db0f208	0.08639914
13	0x3e4dae2c	0.20085973
14	0x3e186a32	0.1488426
15	0x3de412c0	0.11136389
16	0xbe79cbae	-0.24394104
17	0x3ea0b7fc	0.3139037
18	0x3e846921	0.25861457
19	0x3e557853	0.20846681
20	0xbe84b5e9	-0.25920036
21	0xbe32c992	-0.17459705
22	0xbdbeb0b3	-0.093110465
23	0x3bc1b2c0	0.0059112012
24	0x3f7fbf3a	0.99901164
25	0x3e09540f	0.13410972
26	0x3ec78d3f	0.3897495
27	0x3d3722d8	0.044710964
28	0x3e5e87be	0.21731469
29	0x3e6bdea1	0.23034145
30	0x3eb21b82	0.34786612
31	0x3e92f785	0.28704467

onnx::Conv_123 f4 [32, 1, 3, 3]
0	0xbedb7ff1	-0.4287105
1	0xbec3e1d3	-0.38258228
2	0x3f0cc27b	0.54984254
3	0x3eee2a2e	0.46516556
4	0x3f8901b8	1.070365
5	0x3f740e9c	0.9533479
6	0xbf01e014	-0.5073254
7	0xbf9ed7d2	-1.2409613
8	0x3eb2cde7	0.34922716
9	0x3eb8ef59	0.36120108
10	0x3f7b316d	0.9812229
11	0x3f3d7704	0.7400973
12	0xbf0b261d	-0.5435503
13	0xbf4cf338	-0.8005862
14	0x3e957e8d	0.29198113
15	0x3e694657	0.22780739
16	0xbebf256d	-0.3733324
17	0xbf63769e	-0.8885287
18	0x3f94abdb	1.1614946
19	0xbf9052c6	-1.127526
20	0x3f41726a	0.75565207
21	0xbff12583	-1.8839573
22	0x3fc9a1b3	1.5752472
23	0xbfcdf301	-1.6089784
24	0xbf3fbafa	-0.7489468
25	0x3f5bf476	0.8591989
26	0x3d521a2c	0.05129449
27	0xbeac710f	-0.33680007
28	0xbe9848ca	-0.29743034
29	0xbe8d650f	-0.27616164
30	0x3f32df63	0.6987211
31	0x3f14e18b	0.5815665
32	0xbe966d5f	-0.2938032
33	0x3ec0f2bf	0.376852
34	0xbe4ed491	-0.20198275
35	0xbf541616	-0.828462
36	0x3f7d497f	0.9894027
37	0x3f21339d	0.6296938
38	0xbf3251a4	-0.69655824
39	0x3e8a04f5	0.26956907
40	0xbf958bda	-1.1683304
41	0xbe83089b	-0.25592503
42	0x3f5905be	0.84774387
43	0xbf1a3bd7	-0.6024756
44	0xbe5b20bd	-0.21399207
45	0xbeb7318c	-0.3577999
46	0xbf10a773	-0.5650551
47	0xbf10fde9	-0.56637436
48	0xbea42652	-0.32060486
49	0xbea4fb05	-0.32222763
50	0x3e378d77	0.17925058
51	0x3f563624	0.8367636
52	0x3e1dc421	0.15406848
53	0x3f3ba751	0.7330218
54	0xbe3817c3	-0.17977814
55	0x3db765f6	0.089549944
56	0xbe9aa93a	-0.30207235
57	0x3eb7ed63	0.359233
58	0xbe38046e	-0.1797044
59	0xbef3dbd6	-0.4762866
60	0xbe8d671b	-0.27617726
61	0x3ed99648	0.42497468
62	0xbeffbe2f	-0.49949786
63	0xbdb12234	-0.08649102
64	0x3f783f05	0.9697116
65	0x3f22bbed	0.63568
66	0xbecf6189	-0.405041
67	0x3f18ed21	0.5973683
68	0xbf855f6a	-1.0419743
69	0x3e5285f3	0.2055891
70	0x3ef30a7c	0.47468936
71	0xbf81dd77	-1.0145711
72	0xbe8b06e0	-0.27153683
73	0x3f31d1bb	0.6946065
74	0x3f0b95e5	0.54525596
75	0x3ff42ea7	1.9076737
76	0xbf46cc40	-0.7765541
77	0xbeb768c3	-0.35822114
78	0xbddba5ea	-0.10725005
79	0xbe4a8eca	-0.19781032
80	0xbfad2c94	-1.3529229
81	0xbe897a34	-0.26851046
82	0x3f4912a0	0.78544044
83	0xbf51a5f5	-0.81893855
84	0x3eaf05e0	0.3418417
85	0xbe265ab4	-0.16245538
86	0xbf6c530a	-0.9231421
87	0xbf089523	-0.53352565
88	0x3d8b3a50	0.067982316
89	0xbf5ae4c5	-0.85505325
90	0xbf791d70	-0.97310543
91	0xbe282e53	-0.16423921
92	0x3f15ae55	0.58469135
93	0xbf22f1eb	-0.6365039
94	0x3e70868d	0.23488827
95	0x3f956f4e	1.1674592
96	0x3f51535a	0.8176781
97	0x3f162974	0.58657
98	0xbf4f9431	-0.810855
99	0xbf25ab53	-0.64714545
100	0x3eba0e16	0.36338872
101	0xbd33e15c	-0.04391609
102	0xbfc421d2	-1.5322821
103	0xbe96a0dc	-0.294196
104	0x3f196840	0.599247
105	0x3f1be83b	0.6090123
106	0x3fea6602	1.831238
107	0xbe3ab6f1	-0.18233849
108	0x3ee377d3	0.44427356
109	0xbe5f1c52	-0.21788147
110	0x3eeb3222	0.45936686
111	0xbf2d5a2c	-0.67715716
112	0xbec297d5	-0.38006464
113	0xbed713e4	-0.42007363
114	0xbf21d8a1	-0.63221174
115	0x3cbfb970	0.023403853
116	0xbe326586	-0.1742154
117	0x3e54026b	0.20704047
118	0x3f702771	0.9381018
119	0xbf6f9f59	-0.9360252
120	0xbe40b72b	-0.18819873
121	0x3e06c38d	0.13160534
122	0xbf13f540	-0.57796097
123	0x3e72db33	0.2371643
124	0xbeeb7e54	-0.45994818
125	0xbe9563df	-0.29177758
126	0x3e2c6d35	0.16838534
127	0x3f90af61	1.1303521
128	0x3ede4b08	0.4341662
129	0xbf9195c1	-1.1373826
130	0xbec92f86	-0.3929407
131	0xbe3fa883	-0.18716626
132	0xbeb7d210	-0.35902452
133	0x3e8105f9	0.2519987
134	0xbf2641ad	-0.64943963
135	0xbf316d02	-0.6930696
136	0xbf1c70d4	-0.6110966
137	0xbe78d10e	-0.24298498
138	0x3f446340	0.76713943
139	0xbf073c01	-0.52825934
140	0xbe68f8a5	-0.227511
141	0x3fae81e2	1.3633387
142	0xbce619a4	-0.028088398
143	0x3f807802	1.0036623
144	0x3ea6a085	0.32544342
145	0xbe6bb345	-0.23017605
146	0xbf680f58	-0.9064841
147	0x3f418806	0.7559818
148	0x3dd6dd99	0.10491485
149	0x3db92f67	0.090422444
150	0x3e878e11	0.26475576
151	0x3f0e331c	0.55546737
152	0x3eec46b3	0.4614769
153	0xbe1b3b88	-0.15159428
154	0x3e0b006f	0.13574384
155	0x3f3772e6	0.71659696
156	0xbe98c6da	-0.29839212
157	0xbeeae6da	-0.4587925
158	0x3f92072a	1.1408436
159	0xbdfed9ea	-0.124439076
160	0xbe90a86e	-0.28253502
161	0xbf6377a5	-0.8885444
162	0xbf81bf71	-1.0136548
163	0xbdc31648	-0.09525734
164	0x3e82adf1	0.25523332
165	0xbdaa6fda	-0.08322115
166	0xbe9f0f70	-0.31066465
167	0xbee08f84	-0.43859494
168	0x3f08a974	0.53383565
169	0x3e142f23	0.14471106
170	0xbe5300bc	-0.20605749
171	0xbec75259	-0.38930014
172	0xbf82cacf	-1.0218142
173	0xbf53a6b2	-0.8267623
174	0xbc3cbb05	-0.011519198
175	0xbd704800	-0.058662415
176	0xbc555093	-0.013019699
177	0x3e952bbf	0.29134938
178	0xbccbe5c6	-0.024889838
179	0x3ec28d89	0.37998608
180	0x3d2eb964	0.04265727
181	0x3f6f1853	0.9339649
182	0x3e9af87b	0.302677
183	0x3b0cec8f	0.0021503305
184	0x3ea79c4f	0.32736441
185	0xbeca3020	-0.3948984
186	0x3de51875	0.111863054
187	0x3c208efc	0.009799715
188	0x3dcc771f	0.09983658
189	0x3e1bb982	0.15207484
190	0x3f895706	1.0729682
191	0xbfb05565	-1.377606
192	0x3faba08d	1.3408371
193	0x3f9a2e93	1.2045463
194	0xbf866705	-1.0500189
195	0xc014ae2b	-2.3231304
196	0xbc1985df	-0.009370296
197	0x3f9afa4f	1.2107638
198	0xbe3692d6	-0.17829451
199	0x3eddcfb1	0.43322518
200	0x3be9d10f	0.0071355174
201	0x3e596e7b	0.21233551
202	0x3f230529	0.6367975
203	0xbcd39ee8	-0.025832608
204	0x3ede632b	0.43435034
205	0x3f3d0dbb	0.73849076
206	0x3d6aedc9	0.057355676
207	0xbf50a88e	-0.81507194
208	0x3fb3e8d9	1.4055434
209	0x3f2da342	0.67827237
210	0x3eda7b8a	0.42672378
211	0x3f81a0ce	1.0127199
212	0xbfb8c588	-1.4435282
213	0x3f2eecd3	0.68330115
214	0xbf2a5829	-0.6654077
215	0xbf1fa873	-0.6236641
216	0x3ecb55da	0.39713937
217	0xbfd3eefb	-1.6557306
218	0x3f22602d	0.63428
219	0xbfde6fe7	-1.73779
220	0x40198acd	2.3990967
221	0xbe0e2316	-0.13880572
222	0x3f97ca02	1.1858523
223	0xbf8c6680	-1.096878
224	0xbeb5a246	-0.35475367
225	0xbec8628f	-0.39137694
226	0xbe388ced	-0.18022509
227	0x3f22dd1b	0.6361863
228	0x3f436a88	0.7633443
229	0x3f338601	0.7012635
230	0xbf52e429	-0.82379395
231	0xbe6cab00	-0.23112106
232	0x3f58d3e9	0.8469835
233	0x3e18dd59	0.14928187
234	0x3d704230	0.05865687
235	0xbf12b224	-0.5730307
236	0xbee1fffd	-0.44140616
237	0xbc933e13	-0.017973935
238	0x3f321600	0.6956482
239	0xbf2905f8	-0.6602473
240	0xbf22e82d	-0.6363552
241	0xbd2a5669	-0.041586313
242	0xbf1f28b5	-0.6217149
243	0x3edefd02	0.43552405
244	0x3cee0aa9	0.029057818
245	0x3ea2658e	0.31718105
246	0x3f0eb2a2	0.5574132
247	0x3f1c9dd7	0.61178344
248	0xbf4e9ff9	-0.8071285
249	0xbe746fe7	-0.23870812
250	0xbebdb24a	-0.37050086
251	0x3e3baef0	0.18328452
252	0x3f3f82d1	0.74808985
253	0xbdf04935	-0.11732713
254	0x3f28154f	0.65657514
255	0x3f705e6b	0.9389407

onnx::Conv_124 f4 [32]
0	0xbea858be	-0.32880205
1	0x3aec1cd0	0.0018013958
2	0x3f661abc	0.89884543
3	0x3f31c896	0.69446695
4	0xbd82aae6	-0.063802525
5	0x3e383198	0.17987669
6	0x3ee25a5a	0.44209558
7	0x3ec761be	0.3894176
8	0x3e740b09	0.23832335
9	0x3fa078c9	1.2536861
10	0xbe95c603	-0.29252633
11	0xbcbdf6c0	-0.023188949
12	0x3f1c465c	0.6104486
13	0x3ee03663	0.43791494
14	0x3e18a556	0.1490682
15	0xbe2db9f6	-0.1696547
16	0xbe6371b0	-0.22211337
17	0xbe37d8bc	-0.17953771
18	0x3f042444	0.51617837
19	0x3f5c4ddc	0.86056304
20	0xbf29834a	-0.66215956
21	0xbefa05f4	-0.48832667
22	0xbd9cecf4	-0.07662383
23	0xbe9f1fea	-0.31079036
24	0x3efcd5a2	0.4938174
25	0xbf398342	-0.7246591
26	0x3f839168	1.027875
27	0xbe2636a6	-0.16231784
28	0xbd61c260	-0.05511701
29	0x3c0e6a84	0.0086923875
30	0xbdb03e1e	-0.08605598
31	0xbeb9e8cf	-0.3631043

onnx::Conv_126 f4 [16, 32, 1, 1]
0	0x3de0cbbc	0.10976359
1	0x3d67b145	0.05656554
2	0x3eaf6019	0.34253004
3	0x3f42869e	0.7598666
4	0xbe76aae0	-0.24088621
5	0x3ed71e3c	0.42015254
6	0xbed78187	-0.4209101
7	0xbe7f0fe7	-0.2490841
8	0x3e652bfc	0.2238006
9	0xbec46d3b	-0.38364586
10	0x3ebf22e6	0.37331313
11	0x3e8f11c2	0.27943236
12	0x3f25a701	0.6470795
13	0x3ecd8fb0	0.40148687
14	0x3eb7fd77	0.35935566
15	0x3ebe82af	0.3720908
16	0xbf15b7c3	-0.58483523
17	0xbf494382	-0.78618634
18	0x3e438d35	0.19096835
19	0x3d2e2685	0.042517204
20	0xbe8a8f86	-0.27062625
21	0x3e7bb84e	0.24582025
22	0x3ca51033	0.020149326
23	0xbe8e4fd2	-0.27795273
24	0xbea682bf	-0.32521626
25	0xbf2380f7	-0.6386866
26	0xbed59207	-0.41712973
27	0x3ec5d5af	0.3863959
28	0xbc0a601d	-0.008445767
29	0xbd1444c3	-0.03619839
30	0x3b9c5233	0.004770541
31	0xbef2c09e	-0.4741258
32	0xbb3d4aa5	-0.0028883603
33	0x3db3d761	0.08781315
34	0xbcc0211d	-0.02345329
35	0x3d08781a	0.033317663
36	0x3f3fb507	0.748856
37	0x3eb47745	0.35247245
38	0x3ce000a4	0.027344055
39	0xbe5c6145	-0.2152148
40	0xbe023fd5	-0.12719662
41	0x3ee7ede6	0.4529869
42	0x3f2ef9a6	0.68349683
43	0x3d0d01fc	0.03442572
44	0x3ec6572d	0.38738385
45	0x3d8bfc05	0.06835178
46	0xbe895f2e	-0.2683043
47	0xbd0c1cc0	-0.034207106
48	0xbeb06ab4	-0.34456408
49	0xbd150242	-0.036379106
50	0xbeadca78	-0.33943534
51	0x3e4b5926	0.19858226
52	0xbf12f44a	-0.57404006
53	0x3dc81172	0.097689524
54	0xbe945d7d	-0.28977576
55	0xbd57ccd1	-0.052685563
56	0x3eea8f81	0.4581261
57	0xbee3a165	-0.44459072
58	0x3ec9bee6	0.39403456
59	0xbe90f634	-0.28312838
60	0xbe973c92	-0.295384
61	0xbf062b6f	-0.52410024
62	0x3f059802	0.5218507
63	0x3e8b3b4d	0.2719368
64	0xbe2ff7a7	-0.17184316
65	0x3eb69274	0.3565861
66	0xbed8b3b8	-0.42324615
67	0x3e843f06	0.25829333
68	0xbe7b0a0d	-0.24515553
69	0xbe18a80d	-0.14907856
70	0xbe760e9a	-0.24029008
71	0x3e331197	0.17487179
72	0xbe9d86e3	-0.30766973
73	0xbf39cd83	-0.7257921
74	0xbe2552f6	-0.16144928
75	0xbf1f4325	-0.6221183
76	0xbdbb6a37	-0.09151118
77	0xbea1d475	-0.31607404
78	0xbe386353	-0.18006639
79	0x3d78dbd1	0.06075651
80	0x3d59b415	0.053150255
81	0x3e1315de	0.1436381
82	0xbdd16bd8	-0.10225648
83	0xbf44fdab	-0.76949567
84	0xbbaa3697	-0.005194496
85	0x3ebd038c	0.3691677
86	0xbd57487e	-0.05255937
87	0xbea7ac5e	-0.32748693
88	0x3f22db02	0.6361543
89	0x3eb064bd	0.34451857
90	0x3ece73fe	0.4032287
91	0x3ebcc79b	0.36871037
92	0xbec8ddc9	-0.3923171
93	0xbea20eaa	-0.31651813
94	0x3e322147	0.17395507
95	0xbee981ae	-0.4560675
96	0x3e84cce1	0.2593756
97	0x3e637c53	0.22215395
98	0x3e724319	0.23658408
99	0x3c73d212	0.014881628
100	0xbf166dc3	-0.58761233
101	0x3f3c46b6	0.73545396
102	0xbe36ceaf	-0.17852281
103	0x3e7aba7d	0.24485202
104	0x3e350ace	0.17679903
105	0xbf026059	-0.50928265
106	0xbeb3aea5	-0.3509418
107	0x3efc265a	0.4924801
108	0xbde71e2b	-0.11285051
109	0xbec6a99a	-0.3880127
110	0x3ea9393a	0.33051473
111	0x3e2e590e	0.17026159
112	0xbea8efc6	-0.32995433
113	0xbe26a61c	-0.16274303
114	0xbf31473d	-0.69249326
115	0x3e18c0d6	0.14917311
116	0x3dd9414c	0.106081575
117	0x3ea2602a	0.31713992
118	0x3f6ff12c	0.93727374
119	0xbdc3330a	-0.09531219
120	0x3dba220b	0.090885244
121	0x3ea00312	0.31252342
122	0x3e9a43cb	0.30129847
123	0xbe80ef62	-0.25182635
124	0x3db33f87	0.08752351
125	0xbe0d8f63	-0.13824229
126	0xbcf6379b	-0.030055812
127	0x3e5bfad0	0.21482396
128	0xbf124658	-0.57138586
129	0x3ebfe16a	0.37476665
130	0xbe8a3912	-0.26996666
131	0x3c00527a	0.007832164
132	0xbe5b0bab	-0.2139117
133	0x3db9ee63	0.09078672
134	0x3eec6af2	0.46175343
135	0x3f2360df	0.6381969
136	0xbd8336f3	-0.06406965
137	0xbdc4505b	-0.09585639
138	0x3eb16103	0.34644327
139	0x3c142d4c	0.009044003
140	0x3e2c7fc2	0.1684561
141	0xbdd04cf0	-0.10170925
142	0x3f8746cc	1.056848
143	0xbe2c0531	-0.16798855
144	0xbe17d5c6	-0.14827642
145	0xbe77bade	-0.24192378
146	0x3efb13a6	0.49038428
147	0x3e907b8d	0.28219262
148	0xbee6a1ef	-0.4504542
149	0xbf1100c5	-0.566418
150	0xbe37cca5	-0.1794916
151	0xbe923647	-0.28557035
152	0xbcd19cb7	-0.025587423
153	0x3e93e3a8	0.28884625
154	0xbde10767	-0.1098774
155	0x3f18d890	0.5970545
156	0xbf01e48e	-0.5073937
157	0xbf36e2f9	-0.7144008
158	0x3e68ab3e	0.22721574
159	0x3f015206	0.5051578
160	0xbe5a1819	-0.21298255
161	0xbe81ea2a	-0.25373966
162	0x3e2b44f1	0.16725518
163	0xbe149d20	-0.14513063
164	0x3dc893a3	0.097937845
165	0xbee9b147	-0.45643064
166	0xbe083d0b	-0.13304536
167	0x3d4fb13f	0.050706144
168	0x3e122f71	0.1427591
169	0xbe41335a	-0.18867245
170	0xbf09a03c	-0.53760123
171	0xbea9e872	-0.33185154
172	0x3d9be265	0.07611541
173	0xbc4fb0a8	-0.0126763955
174	0x3e51e2cc	0.20496672
175	0x3de8fb4c	0.11376056
176	0xbdf3ebf2	-0.11910237
177	0x3dbf3b77	0.09337514
178	0xbe95c355	-0.2925059
179	0x3eb9c701	0.3628464
180	0xbf106f81	-0.5642014
181	0xbece0bd4	-0.402434
182	0xbf2f5ab6	-0.6849779
183	0xbea71658	-0.32634234
184	0xbea28522	-0.31742197
185	0xbe70c2b0	-0.23511767
186	0x3e9004c5	0.2812864
187	0xbeeb3ce6	-0.459449
188	0x3d23333c	0.039843783
189	0xbe54c90d	-0.2077982
190	0xbe160a7c	-0.14652437
191	0x3d82dd8f	0.06389915
192	0x3e9e6833	0.30938873
193	0xbe1838aa	-0.14865366
194	0x3e141963	0.1446281
195	0x3e58565e	0.21126696
196	0x3c76b926	0.015058791
197	0xbcc3b228	-0.023888662
198	0x3d6ebb7d	0.05828427
199	0xbede456d	-0.43412343
200	0xbea29a38	-0.31758285
201	0x3d185a99	0.037195776
202	0x3e11b012	0.14227322
203	0xbde1d1e4	-0.110263616
204	0xbcd5ae91	-0.026084216
205	0xbf5896b2	-0.8460494
206	0xbe4ec093	-0.20190649
207	0xbf0c1753	-0.5472309
208	0x3d6003df	0.05469119
209	0xbe391ac0	-0.1807661
210	0x3c3d12d0	0.01154013
211	0x3e41ec28	0.18937743
212	0xbe770214	-0.24121886
213	0xbe866c34	-0.26254427
214	0xbda54a28	-0.08070785
215	0xbd1c0a65	-0.03809585
216	0x3e833941	0.2562962
217	0x3e25850f	0.16164039
218	0xbe5e21b4	-0.21692544
219	0x3eca3921	0.3949671
220	0x3eff1d8f	0.4982724
221	0x3f05f939	0.5233341
222	0x3ed5a617	0.4172828
223	0xbe73c389	-0.2380506
224	0xbe22d9b5	-0.15903361
225	0xbd93d0fc	-0.07217595
226	0xbe91a2d7	-0.2844455
227	0xbe437d98	-0.19090879
228	0x3c223aea	0.0099017415
229	0x3e9d34a1	0.30704215
230	0x3f2abb57	0.6669211
231	0x3e29de9c	0.16588825
232	0x3f2fa95d	0.686178
233	0xbf387ab9	-0.7206226
234	0x3f101095	0.562753
235	0x3e1b6952	0.15176895
236	0xbf216f7b	-0.6306073
237	0xbec1ea11	-0.3787389
238	0x3e8038e8	0.25043416
239	0xbd567c34	-0.052364543
240	0x3eb545d0	0.35404825
241	0xbecb6125	-0.39722553
242	0xbf46baeb	-0.77628964
243	0xbf300da4	-0.68770814
244	0x3e1e65d1	0.15468527
245	0xbee36032	-0.4440933
246	0x3ef4281a	0.47686845
247	0xbdbcaec3	-0.09213021
248	0xbf1f4e80	-0.62229156
249	0x3e7dcc98	0.24785078
250	0xbed9c7b0	-0.42535162
251	0xbeb55575	-0.3541676
252	0x3db80e8a	0.08987148
253	0x3cbb1c13	0.022840535
254	0x3c15d0e7	0.0091440445
255	0x3e9646db	0.29350933

onnx::Conv_127 f4 [16]
0	0xbe8a9b39	-0.2707155
1	0xbec0e558	-0.37674975
2	0x3fa347e1	1.2756311
3	0xbf1bb973	-0.6082985
4	0xbf085d94	-0.5326779
5	0x3fc6ebf1	1.5540754
6	0x3cb52dfe	0.022116657
7	0x3f85a732	1.0441649
8	0xbe672e49	-0.2257625
9	0xbe241b6c	-0.16026086
10	0x3e857511	0.26065877
11	0xbf3d33a8	-0.73906946
12	0xbcee56a5	-0.02909405
13	0xbe12e80c	-0.14346331
14	0xbf162f5a	-0.58666
15	0x3f1190ae	0.5686139

onnx::Conv_129 f4 [80, 16, 1, 1]
0	0xbd712738	-0.058875293
1	0x3d94b6aa	0.07261403
2	0xbe42b914	-0.19015914
3	0xbdb303ba	-0.08740945
4	0xbdea8da4	-0.11452797
5	0xbd3e3462	-0.046436675
6	0xbdcd6d78	-0.10030645
7	0x3dc1df4b	0.09466418
8	0x3dee33b9	0.11630959
9	0xbde9e8a9	-0.114213295
10	0xbcada2a8	-0.021195725
11	0xbe0ebac0	-0.13938427
12	0x3e515029	0.20440735
13	0xbbdb2809	-0.006688122
14	0x3dff5967	0.12468224
15	0x3e120445	0.14259441
16	0x3ef40cdf	0.4766607
17	0xbe316167	-0.17322312
18	0xbd1192c3	-0.035540354
19	0xbe08b8aa	-0.13351694
20	0x3ec95fb5	0.3933083
21	0x3db0d6f0	0.08634746
22	0x3de64a43	0.11244633
23	0x3d3961a7	0.045259144
24	0x3e52f343	0.2060061
25	0xbe8ba691	-0.27275518
26	0xbeacf9ef	-0.33784434
27	0x3e84555e	0.2584638
28	0xbed5882f	-0.41705462
29	0x3c8fd2d1	0.01755658
30	0xbd79430e	-0.060854964
31	0xbe35f77e	-0.17770192
32	0x3e2f6d24	0.17131478
33	0x3db58043	0.088623546
34	0xbdf692eb	-0.12039741
35	0x3d7235a5	0.05913319
36	0xbe9730ab	-0.29529318
37	0xbe54e7c4	-0.20791537
38	0xbdd35808	-0.10319525
39	0xbd8362c1	-0.0641532
40	0x3d42a421	0.047519807
41	0xbd2504ee	-0.040287904
42	0x3d2285a7	0.039678242
43	0x3e330631	0.1748283
44	0xbe17905f	-0.14801167
45	0xbdeec713	-0.11659064
46	0xbde72cc8	-0.11287838
47	0x3d4f29da	0.050577022
48	0xbd3bb7f1	-0.045829717
49	0x3dbc4ff6	0.09194939
50	0x3d281186	0.041032337
51	0x3cf08c74	0.029363848
52	0xbda23dd0	-0.07921946
53	0x3e089c68	0.13340914
54	0x3e89d9b1	0.26923898
55	0xbcc4a4ef	-0.024004428
56	0x3e5aba6a	0.21360174
57	0xb7ca2bc1	-2.4100651e-05
58	0x3ccbce4c	0.024878643
59	0x3cf39fdf	0.029739318
60	0x3d0b65ba	0.03403256
61	0xbd16cf23	-0.036818635
62	0x3d8f0eaa	0.06985219
63	0x3ba7cbc1	0.005120725
64	0x3dd7da99	0.10539741
65	0xbd58671b	-0.052832704
66	0xbdd53e72	-0.10412301
67	0x3e35466f	0.1770265
68	0x3df37701	0.118879326
69	0x3d6766e5	0.056494612
70	0x3d58f207	0.05296519
71	0x3c058113	0.0081484495
72	0x3ca9b4ac	0.020716034
73	0x3e291172	0.16510561
74	0xbe1d528b	-0.15363519
75	0xbe52ffcb	-0.2060539
76	0xbd72b04e	-0.05925017
77	0xbe05e58d	-0.13075848
78	0xbe095f68	-0.13415301
79	0xbdcd2390	-0.10016549
80	0x3b88e8c5	0.004178139
81	0xbda2880b	-0.079361044
82	0xbd13c793	-0.036079
83	0xbda9fee1	-0.083005674
84	0xbd74a250	-0.059725106
85	0x3d838802	0.06422426
86	0x3d35bd36	0.0443699
87	0x3dbffa6c	0.09373936
88	0x3e3f28ed	0.18667956
89	0x3d68b7c7	0.05681589
90	0x3d2e7154	0.042588547
91	0x3d30361a	0.043020345
92	0x3db13d18	0.08654231
93	0x3e800218	0.25001597
94	0xbdbce43e	-0.09223221
95	0xbe31cd54	-0.17363483
96	0xbd17995e	-0.037011497
97	0x3e7d8e54	0.24761325
98	0x3da5535f	0.080725424
99	0xbe13d75d	-0.14437623
100	0x3d05f566	0.032704733
101	0x3cfd92f9	0.030953871
102	0x3e90948f	0.2823834
103	0x3e345bee	0.17613193
104	0x3d5d6a1c	0.054056272
105	0xbe9c7a4d	-0.30562058
106	0x3d8dcc8c	0.0692378
107	0xbdbf71e0	-0.09347892
108	0x3c05aa8b	0.008158336
109	0xbdd7ca68	-0.10536653
110	0xbcf1148c	-0.029428743
111	0x3e965f04	0.29369366
112	0x3c56b004	0.013103489
113	0x3e6356fc	0.2220115
114	0x3c4f730b	0.012661706
115	0xbec5ae5f	-0.38609597
116	0xbdeca47f	-0.11554813
117	0x3edbae7c	0.4290656
118	0x3c2d45d2	0.0105757285
119	0xbdbfd01c	-0.093658656
120	0xbe3c8a43	-0.18412118
121	0x3ea19723	0.3156062
122	0xb99609c1	-0.00028617497
123	0x3d79f362	0.061023124
124	0x3dd2e827	0.10298186
125	0xbd6292e7	-0.05531588
126	0x3d0fcf26	0.03510966
127	0xbdfecf59	-0.12441892
128	0x3d76d13c	0.060258135
129	0xbcf43c4d	-0.02981391
130	0x3c037b13	0.008024949
131	0xbea94093	-0.3305708
132	0x3dee0d86	0.11623673
133	0x3e1f3263	0.15546565
134	0xbe638424	-0.22218376
135	0x3e19038d	0.14942761
136	0xbe88201b	-0.26586995
137	0xbc83e6f0	-0.01610133
138	0x3b8efa95	0.004363368
139	0xbd46e5bb	-0.04855893
140	0xbe3441c7	-0.17603217
141	0x3df3993a	0.1189446
142	0xbe50b031	-0.20379712
143	0x3e07f2c5	0.13276203
144	0x3e13189c	0.14364856
145	0x3e6e40ef	0.23266958
146	0xbced7c6c	-0.028989993
147	0x3d0ffced	0.03515332
148	0x3edea8a6	0.43488044
149	0x3d8e0ff8	0.069366395
150	0xbe819e5a	-0.25316125
151	0x3d8818a7	0.06645327
152	0xbd7aba81	-0.06121302
153	0x3eb48081	0.3525429
154	0xbd813682	-0.06309225
155	0xbcf32162	-0.029679004
156	0x3e610201	0.2197342
157	0xbdfebea9	-0.12438709
158	0x3e3d533e	0.18488786
159	0x3e7ffe9a	0.24999467
160	0x3d9836ff	0.07432365
161	0x3e25589f	0.16147088
162	0xbe14d6f1	-0.14535119
163	0x3dc3a61e	0.09553169
164	0x3dda7dc5	0.1066852
165	0x3da6f716	0.08152597
166	0x3ca5eff9	0.02025603
167	0x3d5d698f	0.054055747
168	0xba5db3c8	-0.00084572705
169	0xbdc8cacb	-0.09804305
170	0x3e9c2ae7	0.30501482
171	0xbd30ec3e	-0.043194048
172	0xbda6e18b	-0.08148488
173	0x3ddb0a3f	0.10695314
174	0x3e5dd0dc	0.21661705
175	0xbceaf879	-0.028682934
176	0x3e26c840	0.16287327
177	0x3d56d835	0.052452285
178	0x3dc5dc4b	0.09661158
179	0xbd9104fe	-0.0708103
180	0xbdb8e36d	-0.09027753
181	0x3de6d5ad	0.11271224
182	0x3da06937	0.07832568
183	0xbdbf40ae	-0.093385085
184	0xbccc1b2f	-0.024915306
185	0xbe9d28b6	-0.30695122
186	0xbd8b387f	-0.06797885
187	0xbe2bc3d4	-0.16773921
188	0xbe29ad98	-0.16570127
189	0x3e645fdc	0.22302192
190	0xbd182ab2	-0.037150092
191	0xbd1b5b5c	-0.037928924
192	0x3e192066	0.14953765
193	0x3e8c3921	0.27387336
194	0x3c740ade	0.014895169
195	0xbe8494ee	-0.25894874
196	0xbd9034c4	-0.07041314
197	0xbe65f15e	-0.22455356
198	0x3c90b7e1	0.017665805
199	0xbe672d06	-0.22575769
200	0xbd9f7338	-0.07785648
201	0xbd5ecdb8	-0.054395407
202	0x3d4dd7fa	0.0502548
203	0xbd4d123e	-0.050066225
204	0xbd852339	-0.06500859
205	0xbd72bfd0	-0.059264958
206	0x3dd4cab4	0.10390225
207	0x3d937765	0.07200507
208	0xbe20d3d8	-0.15705812
209	0x3e4a2766	0.19741592
210	0x3dc1ebd3	0.09468808
211	0x3d8ce054	0.06878725
212	0x3e0d96f3	0.13827114
213	0x3e822a2f	0.2542281
214	0xbe4dd53f	-0.20100878
215	0x3d8be0c8	0.06829983
216	0xbe7b028b	-0.24512689
217	0xbc0505f9	-0.0081191
218	0x3e020265	0.12696226
219	0xbe3396b2	-0.17537954
220	0xbd8eb771	-0.069685824
221	0x3dbeadb3	0.09310474
222	0xbd95214d	-0.07281742
223	0xbcd38250	-0.025818974
224	0xbdf53ce0	-0.119745016
225	0x3ccdcfac	0.02512344
226	0xbdac297a	-0.084063485
227	0x3d6d8c6d	0.05799525
228	0x3d2c9d75	0.04214235
229	0x3cfe763b	0.031062236
230	0xbe429a28	-0.19004118
231	0xbc4b0cdf	-0.012393205
232	0xbe26522f	-0.16242288
233	0x3ca7043c	0.020387761
234	0xbddbf916	-0.10740869
235	0xbd50d7ee	-0.050987177
236	0x3de51f63	0.11187627
237	0xbdef9ed3	-0.11700215
238	0xbd13a87f	-0.036049362
239	0xbaec39c5	-0.0018022588
240	0x3d12a787	0.035804298
241	0xbd9745e7	-0.0738638
242	0xbe344383	-0.17603879
243	0xbc9c614d	-0.019089365
244	0xbd0130a3	-0.031540524
245	0x3e21808d	0.15771694
246	0xbe27d535	-0.16389926
247	0x3bcebb21	0.0063089286
248	0x3dfb2fbf	0.12264966
249	0xbd1b4a15	-0.037912447
250	0xbd3accb0	-0.04560536
251	0x3b604f91	0.0034227113
252	0x3d083366	0.033252142
253	0x3dce2945	0.10066465
254	0x3e3317cc	0.17489547
255	0x3e03710c	0.12836093
