Project/Project_files/ckpt/mobilenetv2_19_6/mobilenetv2_19_6_0.pt (torch, 56491 bytes, 52 tensors)

conv1.weight f4 [32, 3, 3, 3]
00000000: cb52 dcbd 7ca6 2bbe 1f73 3bbd d6e7 a23d
00000010: 3e4c b3bd 3097 213e 07c9 90bd 5231 24be
00000020: fc0c adbd 0d4e 123e 1c9b 203e 4909 50bd
00000030: e970 f6bd 78e3 3b3d 9d45 10be 8ddd 093e
00000040: f243 a13d fa88 42be 9a88 383e 94eb 023e
00000050: 72a5 033e 049e 3c3e ae88 043e 829f a63d
00000060: 6c9b 163c f957 abbd b438 84bb 0a29 163e
00000070: 62bc e53c dc4b e0bd f528 d33d ac1e 0dbe
00000080: c2b6 b53d d1be 973d 7735 9e3d 26ee 09be
00000090: 28bb aa3c 1cdd 193e a683 17be 106f ddbd
000000a0: bf8d 02be f7ea b73d c85b 9cbd 7e39 083e
000000b0: 5e5e 4cbe 3637 a7bd 549c debd 99e6 cebd
000000c0: 1d47 883d 2b11 0b3e eb90 373c 7ba5 1bbe
000000d0: c5ec 053d 70f2 05be 3ea0 27bd 6e7d 22be
000000e0: 50b3 a0bd 5130 083c 8d3c 263e e5c4 d8bd
000000f0: f37e e63d 70ee 02be 9edf 423e 72b1 6bbd
00000100: 2b91 2ebd f881 11be 7e6c d63b a755 61be
00000110: 92ca 35be 3e06 bf3d e607 7abd fe0b 15be
00000120: bf02 2f3d 1329 e5bd 9177 06be a0fd 213c
00000130: 5fcc 53be c631 033d 9eb8 863d ef69 ecbd
00000140: 90db 333e 28de 443e fa2e 9dbd 5268 7c3d
00000150: cff8 d13d 0551 edbc 8107 66bb adaa 53bd
00000160: 1fc9 2fbe 928c cfbd 362e fcbd 0533 00bd
00000170: cdd3 b43d eae6 9cbc 1d0c b83d cdbc 233e
00000180: a97d 143e 89ba 123e e436 19be 3a3b 423c
00000190: b8d1 39bd 4346 c43d c334 36bd efe9 22be
000001a0: 7523 c43d cc96 76bd aa19 533d 8e64 08bd
000001b0: cf94 473d 5747 1fbc f932 36bd 2647 0abe
000001c0: 06a5 e9bd 5cad 1b3d 7af5 a9bd 7dcb e1bd
000001d0: eb14 0e3e 602f 093e 9d1f c5bd 2e94 89bd
000001e0: c7ce 793d 4262 76bd 0fbc 453d 21ed d03c
000001f0: 93be 06bd 76ca 5e3e 7662 5abd 2d15 433d
00000200: fa83 b23b bf5d 833d 7276 b93c 2e6d a53d
00000210: d0a7 513e 3ca3 183e 775f 07be 1b43 24be
00000220: b3b3 133e b2ee c6bd dedf 08be 60d0 163d
00000230: f4a9 863c 6a9f 213e 8139 a83d 0a53 15be
00000240: 64e9 26bc fd67 643d f0ac 053e f8af bb3d
00000250: 4fe2 b33d 2a63 343e b012 54bb 04d5 5f3d
00000260: 8ff6 61bd c8f8 563d e810 62bd c63a 623d
00000270: 4f75 21bd 1636 493c f1db 943d 44ec c43d
00000280: adbe ee3d 24aa 663d d388 26be bae2 96bc
00000290: fdfb 8d3d 955f bb3d be05 773d 1912 b23d
000002a0: 7d24 203e b689 64bb 6189 86bd 04b2 e1bd
000002b0: dfbc d7bd 8395 c93d ab81 873d 1d03 9abc
000002c0: bcd4 8e3d 3265 fc3d 96d5 543e caeb f33d
000002d0: 6c75 f53d 4fe6 61bd 7068 06be cfec b2bd
000002e0: 698d 22be 06fd 1fbe 9c16 a0bd 6d19 78bd
000002f0: a1f6 1bbe 7645 17be bf46 44bd 3df2 b43d
00000300: a51e 12be 23f7 0bbd 6220 45be 9aa1 093e
00000310: 28ba 583c 214f 873d d0f0 fe3c af68 3dbe
00000320: 33d1 2f3c 11c7 3ebe 5e0d c7bd 5a53 cabd
00000330: 4bd5 143e 2692 d63d 636a 203e 9dff 133d
00000340: 85b5 ee3d 2412 d43c a391 b0bd 5817 a53d
00000350: f4f8 75bd 5009 cf3d 5193 053e 0765 313e
00000360: f5b8 d3bd 56aa c1bd 4b8b 28be 2fc0 0abe
00000370: 0c4a 0c3e a4b7 373d 6f07 423e 0232 24bc
00000380: 150e 06bd 87d0 b13d 4b47 afbd a226 843d
00000390: 34cd 2b3d efb4 1c3e cf7b 0f3e 93dd 3abd
000003a0: 5d28 013e 16ef 2a3e 7e59 f63d 632e 28be
000003b0: 7c55 d5bd 43ba d43d c4bc 053d 3098 95bd
000003c0: 8106 3dbe af5a c8bd d244 863d 255d cebc
000003d0: d9a4 42be a66c febc 8e64 323e d4c9 1bbe
000003e0: dde5 383e 1c33 093e 0d68 ae3d 8e65 92bd
000003f0: 74ca 32bc a46c 2f3e 94b6 003e 857c a63d
-0.10757979 -0.16762727 -0.045764085 0.079543754 -0.087547764 0.1578033 -0.07069593 -0.16034439
-0.08449742 0.14287587 0.1568417 -0.050790105 -0.12033255 0.045871228 -0.14089055 0.13463421
0.07874288 -0.18997565 0.1802086 0.12785178 0.12856081 0.18419653 0.12942764 0.081358925
0.009192329 -0.08366389 -0.00403508 0.14664093 0.02804393 -0.10951969 0.10310546 -0.13781232
0.08872749 0.07409442 0.07725041 -0.13469753 0.020841196 0.15025753 -0.14796314 -0.10812199
-0.12749384 0.08980363 -0.076346934 0.13303182 -0.19957873 -0.081648275 -0.10869661 -0.10102577
0.06654189 0.13580768 0.011203985 -0.15199845 0.032696504 -0.13080764 -0.040924303 -0.1586816
-0.07846701 0.008312301 0.16234036 -0.1058443 0.112546824 -0.12786269 0.19030616 -0.057542272
-0.04261891 -0.14209735 0.006543695 -0.2200533 -0.17753056 0.093273625 -0.06104269 -0.14555356
0.04272723 -0.11189475 -0.13131548 0.009887129 -0.2068343 0.03202989 0.06578182 -0.11543643
0.17564225 0.19225371 -0.07674976 0.061622925 0.102525346 -0.028969297 -0.0035099688 -0.05167644
-0.17166565 -0.101342335 -0.123135015 -0.031298656 0.0882946 -0.019153077 0.089866854 0.1598999
0.1450106 0.1432897 -0.14962345 0.011854941 -0.04536602 0.09583714 -0.04448391 -0.15909551
0.095770754 -0.060202405 0.051538147 -0.03329902 0.0487259 -0.009721599 -0.044482205 -0.13503703
-0.11408429 0.038007125 -0.08298774 -0.110251404 0.13875167 0.13396978 -0.096251704 -0.06717716
0.060988214 -0.0601523 0.04827505 0.025503697 -0.03289659 0.2175692 -0.053316556 0.047627617
0.0054478617 0.06414365 0.022639487 0.08077465 0.20474172 0.14906019 -0.1322001 -0.16041224
0.14424019 -0.09713496 -0.13366649 0.036819816 0.016438462 0.15783468 0.08214093 -0.14582458
-0.010187481 0.055763233 0.13054252 0.09164423 0.08783399 0.17615953 -0.0032359771 0.054646507
-0.055166777 0.05248335 -0.055191904 0.055231832 -0.039418515 0.0122809615 0.07268513 0.096153766
0.11657462 0.056314602 -0.16263132 -0.018418659 0.069328286 0.0914909 0.06030821 0.08694858
0.15638919 -0.0034872121 -0.06569172 -0.11020282 -0.10534071 0.0984297 0.06616529 -0.018800313
0.069741696 0.12323989 0.20784602 0.119102076 0.11985287 -0.05515128 -0.13125777 -0.08736574
-0.15874256 -0.15623865 -0.078168124 -0.060571123 -0.152308 -0.14772591 -0.04791903 0.08835266
-0.14269502 -0.034171235 -0.19250634 0.13440552 0.013227977 0.066068895 0.031120688 -0.18496965
0.010731029 -0.18630625 -0.097193465 -0.09879179 0.1453449 0.10477094 0.15665583 0.036132444
0.11655716 0.025887556 -0.08621528 0.08061093 -0.060051873 0.10109198 0.13044478 0.17323695
-0.10338012 -0.09456317 -0.16459386 -0.13549875 0.13700122 0.044852868 0.18948148 -0.010021688
-0.032728273 0.086823516 -0.0855852 0.06452681 0.041943744 0.15303396 0.14012073 -0.045621466
0.12613054 0.16692767 0.12028788 -0.16423945 -0.104166955 0.10387089 0.032650724 -0.07304418
-0.18459512 -0.097829215 0.06556095 -0.0251909 -0.19008197 -0.031057667 0.17421171 -0.1521371
0.18056436 0.13398403 0.0851594 -0.07148276 -0.010912526 0.17131287 0.12569648 0.08129219

bn1.weight f4 [32]
00000000: ea1f 823f 2ad8 783f 4483 803f 666e 843f
00000010: c75c 823f 3cde 773f c5d9 843f b201 7c3f
00000020: 310e 7b3f 421e 7e3f d56f 803f fbda 803f
00000030: 4806 793f d14e 7c3f 4d0a 813f 5e91 7e3f
00000040: 2b71 7b3f 20c1 783f 949e 7e3f 93a2 823f
00000050: 7738 813f 59a0 7d3f 048e 813f 8ef2 7e3f
00000060: f053 7e3f 5d26 7c3f dcfc 7e3f 89e2 803f
00000070: 4053 803f 08d8 7f3f 8de6 813f 58c3 813f
1.0165989 0.9720484 1.0040059 1.0346191 1.0184563 0.9682348 1.0378958 0.98440087
0.9806853 0.9926492 1.0034128 1.0066828 0.9727521 0.98557764 1.0081269 0.9944056
0.98219556 0.97169685 0.9946072 1.0205864 1.0095357 0.99072796 1.0121465 0.9958886
0.9934683 0.9849604 0.9960458 1.0069133 1.0025406 0.9993901 1.0148484 1.0137739

bn1.bias f4 [32]
00000000: 91f5 2abc 1aa7 283c 5fc2 0dbc fcfd 9c39
00000010: 20fc 093d a4d4 7dba a846 9fbc a954 173b
00000020: 1f09 b83a c013 b23b d3ec 553c 0c51 9f39
00000030: f754 1dbc 0ff4 d93b 765b 123d 9de7 833c
00000040: 81df 603c 8e42 86bc 5f98 2b3c f1d7 7abc
00000050: d678 393b fb2c cfbc 4398 b8bb 8ae6 a43b
00000060: acde 8b3b 2a74 8a3b f052 2a3c b93c a7bc
00000070: 6fd0 6abc 2766 5fbc b6b6 873c 6961 0fbc
-0.010434524 0.010293746 -0.008652299 0.00029943872 0.03368771 -0.000968287 -0.019442871 0.0023091233
0.0014040804 0.0054344833 0.013056952 0.00030387228 -0.009602777 0.0066514085 0.035731755 0.016101653
0.0137251625 -0.016389158 0.01047334 -0.0153102735 0.0028300784 -0.025290003 -0.0056333854 0.005032365
0.004268488 0.0042252736 0.01039575 -0.020414697 -0.014331921 -0.013635195 0.016566616 -0.008751252

bn1.running_mean f4 [32]
00000000: 96c2 e8bb 8169 593c 673a 453c a783 9a38
00000010: f9be 4dbc f5b4 83bc 6315 d23b 87ce 80bc
00000020: 0b8b 3fba b401 94bb 4065 a5bc a480 6d39
00000030: 8dae 90bc 298c fabb e983 0ebc d5ee 18bc
00000040: 63de ba3a 5d5a cdbb 3653 1fbb 841a 193a
00000050: 63dc 1d39 b236 d537 b64c 273b 8466 02bc
00000060: 50be 8a3c a8d1 163c 3fda e63a 2459 2a3b
00000070: 62a0 bc3b 9e67 2d3c 849b 873b 0630 fc3b
-0.0071032746 0.013269783 0.01203785 7.3678144e-05 -0.012557738 -0.016077498 0.006411241 -0.01572348
-0.0007306791 -0.0045168046 -0.020189881 0.00022650004 -0.017661357 -0.007646103 -0.008698442 -0.009334286
0.001425695 -0.0062668757 -0.0024311072 0.0005840438 0.00015054787 2.5417048e-05 0.00255279 -0.007959012
0.016936451 0.009205259 0.001761265 0.0025993073 0.005756424 0.010583786 0.004138412 0.0076961545

bn1.running_var f4 [32]
00000000: 8112 f83e 772d af3e 7d23 c73f 3642 713d
00000010: c748 883e 54a3 5f3f 5b2a 813e 5790 ac3e
00000020: e4fa 2e3e 845d ee3e 8574 5b3f 1865 e93d
00000030: 4b7a 1440 d7ba d43e 9215 1f3f 87b4 a53e
00000040: 6514 423e 1100 a03e a318 013d 5805 513d
00000050: 4457 813e ed4a dc3d 1fca 5e3e 94d8 b23e
00000060: 64ae 483f 77be 3f3f 5ffb 773e c5ed b63d
00000070: 3ac3 e43e 9c5c 493f d6d6 ec3d 888d 8a3e
0.48451617 0.34214374 1.5557705 0.058901034 0.26618025 0.87358594 0.25227627 0.33703873
0.17087895 0.46555722 0.8572467 0.11396235 2.3199642 0.41548797 0.6214229 0.32364294
0.18953092 0.3125005 0.031517636 0.051030487 0.2526189 0.107564785 0.2175679 0.3493086
0.783911 0.749 0.24216984 0.0893207 0.44680196 0.78656936 0.11564414 0.27061105

layers.0.conv1.weight f4 [32, 32, 1, 1]
00000000: 821a 81bd f205 1b3e 8063 f63d 894c 3d3e
00000010: 6d17 02be 35c0 bbbc efc0 78bd 8732 ea3d
00000020: 4ac9 01be a9b4 0fbe 60d7 963d 7c94 b2bd
00000030: 01ba 94bc 3019 aa3d a269 b63c 5c6a 0f3e
00000040: 1009 fa3d 9991 b03d 8466 ec3c 9173 6e3b
00000050: 4459 b0bc 8ee5 c23c e160 da3d 8c5d d4bd
00000060: 1f3c e83c d601 d5bc 4848 3ebc b4bb 4a3e
00000070: b770 29bd af0a ab3b ee5c 943b 5b27 ae3d
00000080: ba82 be3d 6669 b0bc 9e9e 63bd ad94 ca3d
00000090: cec9 b6bd ec0a 793d 7ab3 b2bd 6eb7 33be
000000a0: 5fe7 813b 8396 373c 4d87 3b3d 4705 0c3e
000000b0: 73e0 753d 9499 e4bd 847f 9e3d 3085 133c
000000c0: 51e9 22be 2486 2abe 895c bf3d a801 09be
000000d0: 3d45 52bd b36b 06bd 13b4 523b a5ab 4e3d
000000e0: 500c 9bbc 5d2f f23c f9d1 273e 7dd1 593c
000000f0: 6087 1d3d faa4 983d 39a5 96bd 972b 02bd
00000100: de54 18be 0c20 1bbe d498 db3d 1555 92bd
00000110: b3d6 38bd f6d7 86bd d52a 2abd 1de2 d83c
00000120: 6ae5 08be 6148 c8bd 5cb0 7dbd 14f8 bebc
00000130: 8b6a 11bb 3302 20be 2564 15be c31b abbd
00000140: 6d3c cd3d 6957 3c3d fdc2 943d 6ed2 143e
00000150: 68bd ce3b 524a cdbd 691d bdbd 92cd 26be
00000160: 5701 e53d 6366 9b3d d531 ca3d 6768 4abe
00000170: 04e9 46bd 57cf 2dbe 6cc0 0dbe 4cb9 e53d
00000180: d66d b83d 1145 a73d 4d9c f33c 88fd 12be
00000190: fd7a 2e3d 08f4 0f3e 1dec de3b afdc 273e
000001a0: 9e91 a13d 8621 1f3e 2a6a 91bd 6d4d 9e3d
000001b0: 5116 df3d 93f2 0f3e 3660 f1bb 7fe7 7cbd
000001c0: 791a a3bd f8e5 babd 01fc fe3d c418 27be
000001d0: 5a6d 50bc 74b6 dabd 3964 2dbe 547c 4a3c
000001e0: 4565 04be 11b4 c2bd 0e56 353e 2d44 97bd
000001f0: 43e0 eebd 3560 a0bd 84bd c33c ae84 d6ba
00000200: a52c f13d 3408 353e 4809 11bd 3642 80bd
00000210: 48dd ef3d 080a a93d a731 36be 0b73 7dbd
00000220: b9db 16be 28ef 2f3d 8479 323e 17ac f03b
00000230: ec0f 54bd 166f 69bc 90bb 13be 1f8c 56bd
00000240: 10a2 863d 2fe9 eebd cfe7 e33d 9ca9 12be
00000250: 960a 9cbd 16c8 debc 9f3d 34bd 29c1 0f3e
00000260: b9be 0f3e 7fca 19bd 95c5 043d f444 8abd
00000270: 9b07 89bd 1e87 9bbd ab17 393c ef2f f8bc
00000280: cbf9 76bd bf97 cf3d bbf1 7cbc 91a9 48be
00000290: c3bb 0dbe 87a3 ff3c 53dd 09be d4c5 e13d
000002a0: 45a0 c1bd 5611 073e 78f9 03bd 7bd1 f0bd
000002b0: e2cb d4bd 416d c93d d671 06be 12b0 97bd
000002c0: 9342 1bbe 6e33 853d 05a7 cb3d fa95 65bd
000002d0: 31d9 1cbd d06c 93bd 1d3a 463d 2dce c1bc
000002e0: a749 433c e5e8 503d 0454 46bc 430c 183d
000002f0: 67ac 913d 8358 e8bd b595 35bd c842 0c3d
00000300: edcb 0e3e b539 903d f0d2 703d 47f6 653d
00000310: e015 61bc 8217 853c 1544 ae3c a292 16bd
00000320: 599b a1bd 3659 3b3b 749b 30bd 0332 57bd
00000330: 233e dcbd 3c0c 323e 89aa 413e efdd abbd
00000340: 3b6e 9f3d 43a5 9dbc 4ea0 3fbd c80f fbbd
00000350: 3528 233e 9412 05be 161e fd3d db73 933d
00000360: 3c51 e8bd a6fb 0c3e 8743 963d 4116 a53d
00000370: 7da6 0e3e e62b eebd 2063 013e ccb0 c7bd
00000380: 466b 0a3e 3a0d 1fbe c3ec 1f3e d479 24be
00000390: d4ef a0bd 16e9 733d e65e 003e 171e 373e
000003a0: c2e3 bebd 00b4 7e3b e9ad 18be 8558 c23d
000003b0: 4d33 a23d 4d03 94bd b205 853d 1f76 c43d
000003c0: 50fe f73d 06aa 98bd 53c1 743d c0f4 363e
000003d0: bd6b 473e 7d85 6c3d fec3 07be 5dcd bd3c
000003e0: a374 4ebc c497 c2bd 1e3e 133e 315b dabd
000003f0: 568f a43d ae31 e83d 27b1 1d3e b767 273e
-0.06303884 0.15138987 0.12030697 0.18486227 -0.12704249 -0.0229188 -0.06073087 0.114354186
-0.12674442 -0.1403376 0.07365298 -0.087197274 -0.0181551 0.083055854 0.022267167 0.14005417
0.1220876 0.086215205 0.028857477 0.00363848 -0.02152694 0.0237911 0.106630094 -0.10369405
0.02834898 -0.026001852 -0.011613913 0.19798166 -0.04136726 0.0052197794 0.0045276796 0.085036
0.09302278 -0.021534633 -0.05557119 0.09891639 -0.0892521 0.06080143 -0.08725639 -0.17550442
0.003964349 0.011205318 0.04578333 0.13673888 0.060028505 -0.11162105 0.077391654 0.009003922
-0.15909316 -0.16652733 0.093438216 -0.13379538 -0.051335562 -0.032817554 0.003215079 0.05045666
-0.01892677 0.0295636 0.16388692 0.013294575 0.03845918 0.07453342 -0.073557325 -0.03177985
-0.14876124 -0.15148944 0.10722509 -0.07145134 -0.045126628 -0.0658416 -0.041544754 0.026475007
-0.13368765 -0.0977943 -0.061935768 -0.023311652 -0.0022188749 -0.15625839 -0.14588983 -0.083549045
0.10021291 0.0459818 0.072637536 0.14533398 0.0063092 -0.10023941 -0.09234125 -0.16289356
0.11181896 0.07587888 0.09872786 -0.19766389 -0.048562065 -0.16973625 -0.13842934 0.11216983
0.090053245 0.0816747 0.029737616 -0.14354527 0.04259776 0.14057934 0.0068030492 0.16392778
0.078891024 0.15540132 -0.07100327 0.077296115 0.108929284 0.14057378 -0.0073662056 -0.06174421
-0.07964034 -0.09125894 0.1245041 -0.16318041 -0.012721384 -0.106793314 -0.16932763 0.012358744
-0.12929256 -0.09507001 0.17708609 -0.073860504 -0.11663868 -0.0783085 0.023894079 -0.0016366446
0.117760934 0.1767891 -0.035409242 -0.06262629 0.11712128 0.082538664 -0.17792378 -0.06187729
-0.14732255 0.042952687 0.17429167 0.0073447335 -0.051772997 -0.014247676 -0.14427018 -0.052379724
0.0657388 -0.1166557 0.11128198 -0.14322513 -0.076192066 -0.027195018 -0.04400408 0.14038529
0.14037599 -0.03754663 0.03241499 -0.06751433 -0.06690904 -0.07594131 0.011297147 -0.030296294
-0.060296815 0.10136365 -0.015438492 -0.19595934 -0.13841157 0.031205906 -0.13463335 0.11024061
-0.09454397 0.13190207 -0.032220334 -0.11758705 -0.1039045 0.09835292 -0.13129362 -0.074066296
-0.15162115 0.0650395 0.09943966 -0.056051232 -0.038293067 -0.07198489 0.048395265 -0.023657883
0.011919416 0.051003356 -0.012104992 0.03712107 0.07112961 -0.11345007 -0.044332225 0.034243375
0.13944979 0.07042257 0.058794916 0.05614307 -0.013738126 0.016246561 0.021272698 -0.036760934
-0.07890958 0.002858711 -0.043117 -0.05253793 -0.10754039 0.1738748 0.1891271 -0.0839194
0.07784697 -0.019243842 -0.046783738 -0.122588694 0.15933307 -0.12995368 0.12359254 0.07199832
-0.11343619 0.13767871 0.073370986 0.08060885 0.13930698 -0.11629467 0.1263547 -0.09750518
0.13517484 -0.1553239 0.15617661 -0.16062099 -0.078582436 0.05954846 0.12536201 0.17882572
-0.09320785 0.0038864613 -0.14910091 0.0948954 0.07919941 -0.07227192 0.06495227 0.09592842
0.12109053 -0.074543044 0.05975468 0.17866802 0.19474693 0.05774449 -0.13258359 0.023169214
-0.012601051 -0.09501603 0.14379165 -0.10661925 0.08035152 0.11337601 0.1539961 0.16348158

layers.0.bn1.weight f4 [32]
00000000: 9661 7c3f b7ed 603f 3a32 843f 8802 803f
00000010: 85e3 823f 46d9 883f 1aea 7d3f 40a0 813f
00000020: b854 763f 1508 823f 4d4a 803f 5b62 823f
00000030: 7f45 803f a117 823f cf2d 773f 48a2 883f
00000040: 0008 803f 0872 763f c39f 7e3f 6192 7e3f
00000050: 6ada 693f b811 853f 32b9 783f ad10 6d3f
00000060: 96cd 773f 2bd1 823f 54f7 693f 95f8 7a3f
00000070: 6eb9 733f c2ad 653f 2513 7a3f 958b 833f
0.98586404 0.87862724 1.0327828 1.0000772 1.0225683 1.0691307 0.99185336 1.012703
0.9622302 1.0158716 1.0022675 1.0186266 1.0021209 1.0163461 0.96554273 1.0674524
1.0002441 0.9626775 0.9946253 0.99442106 0.913489 1.0396032 0.97157586 0.9260357
0.96798074 1.0220083 0.9139302 0.98035556 0.9520482 0.8971826 0.9768546 1.0276972

layers.0.bn1.bias f4 [32]
00000000: 3d25 c1bc 7e0f a93d 247f 623c 75e6 2bbb
00000010: cab3 8a3c 163e 3ebb 3079 0bbd b978 1d3c
00000020: 4e20 0cbd e7a6 61bc f31c 063d 364c 08bc
00000030: b2f8 963c 1246 923b 8a6d 05bd f6b9 2e3b
00000040: cb0c 033d 2300 2a3d 7925 323c 1d74 c4bc
00000050: 5545 86bd fb0c 3abb 97fc 043d c6a6 6e3d
00000060: 4be9 08bd 4516 a4bc d63d a43d c9b6 fd3c
00000070: 2637 653d 4467 a13d 0aa4 083d aa34 4b3c
-0.023577327 0.08254908 0.013824258 -0.0026229892 0.016931433 -0.0029028705 -0.03405112 0.009611302
-0.034210496 -0.013772703 0.032742452 -0.008318951 0.018429134 0.0044639194 -0.032575168 0.0026661134
0.031994622 0.041504037 0.010873192 -0.023981148 -0.06556193 -0.0028389085 0.03246745 0.058264516
-0.03342561 -0.02003015 0.08019607 0.030970948 0.055960797 0.078810245 0.033359565 0.012402693

layers.0.bn1.running_mean f4 [32]
00000000: 7edf 3fbb 024a 543b 6f42 8fbb 0e4a 453c
00000010: dd95 833c e945 b9bb fa56 523c 2702 dabb
00000020: 68f0 b73b 2db9 53ba d25d f0bc 1fda 393c
00000030: 3347 243c 573a 073c 6a02 d4bb ef52 86b9
00000040: 0dbd f23b fd61 02bc 9cdb 29bb 7480 7e3c
00000050: 4f25 0939 c5ef 403c 7ab8 1c3b bc39 74bc
00000060: e73a d9bc cec9 193c edad 1e3b b549 833b
00000070: 55da d4bb 9e46 0ebc dd36 d6ba b186 d8ba
-0.0029277499 0.0032392745 -0.004371933 0.012041582 0.016062671 -0.005654086 0.01283812 -0.0066530886
0.0056133755 -0.00080766046 -0.029341612 0.011343508 0.010026741 0.008253655 -0.0064700143 -0.00025620262
0.0074077905 -0.007957933 -0.002591825 0.015533555 0.00013079237 0.0117759155 0.0023913668 -0.014906343
-0.026517345 0.009386493 0.0024212555 0.0040065893 -0.006495754 -0.008683829 -0.0016343255 -0.0016519633

layers.0.bn1.running_var f4 [32]
00000000: 28ac a53e ebd4 833e 13b1 633f b194 5a3f
00000010: 6e30 e73e 1478 a23e 0556 593e ad76 9b3e
00000020: b4ca cd3e cd49 523f 340c 793e 4bd0 ed3e
00000030: 064e ce3e dfee 123f c364 833e 53df c33e
00000040: 1bea b33e 4c35 b73e dc1b 0e3f 9ce5 af3e
00000050: e575 753f 8fe0 a73f f225 043f 9d39 2a3f
00000060: f5e0 ba3e 4c91 5f3f d36b 553e 7585 863e
00000070: fb45 a73e 28df 643f 352f 4f3f 5edd 163e
0.32357907 0.2574838 0.8894207 0.85383135 0.45154136 0.31732237 0.2122422 0.3036398
0.40193713 0.8214386 0.24321061 0.46447977 0.40293902 0.5739574 0.25662813 0.3825632
0.35139546 0.3578285 0.5551126 0.34354866 0.9588302 1.3115405 0.516204 0.6649416
0.36499754 0.8733108 0.20841913 0.26273695 0.32670578 0.8940301 0.8093141 0.14732882

layers.0.conv2.weight f4 [32, 1, 3, 3]
00000000: 1f57 01be e34e c7b8 24d5 b13e 2e82 7d3e
00000010: 686d 653e 4d95 983e 7bdf 54bd 3430 59be
00000020: c7fd 3a3e ffdb 433e 3592 9c3e 0475 963e
00000030: d871 89be 3bb7 65be b455 f7bc 8df8 5c3d
00000040: cb3a 59be be9e 71be 5c4b 1b3e 46ae 97be
00000050: 3d9b 9c3d 1373 9dbe 0358 123e 4823 6fbe
00000060: 1542 e1bd 772a 653e dd60 89bc 5173 19be
00000070: a59a c7bd 36d6 66bd ce58 7d3e 2b9e 8d3e
00000080: 2096 53be bdce 7f3e a6b0 6dbe 7614 51be
00000090: 0f2a 093e 61cf 303e cd85 82be b461 f9bd
000000a0: fb8f 80be 8d32 0ebe 63e9 9e3e 543a 8fbe
000000b0: da5c 88bd 455b ef3d de4d 8ebe 670f 3abe
000000c0: 4c16 47be 1963 56bd 3bff 22bc 6ce0 a23e
000000d0: bdd8 1dbd 7072 b03e 13c4 0abe 511d c8bb
000000e0: f9a0 bdbe 2f23 3b3e 4365 2ebd 3265 78be
000000f0: 3c43 a8bd a49b 9ebc ffca ae3c a148 07bd
00000100: c694 a23e 9638 1f3e 9832 42bd 85f1 663e
00000110: ea6d 18be 5846 ac3e df1b b43d 2538 6cbe
00000120: 7d5a 8f3d 7865 9a3e da4f 113e 2e57 9c3e
00000130: 3b9b 2ebd 40ec fabd 2c46 853d 69c2 a13d
00000140: 3b78 96be 4be5 29be d82b 873e 8a45 88be
00000150: 057f e5bc edb9 f3b9 4738 353d 6347 87bd
00000160: 18c8 633d 8987 89be 6cd9 49be 26d2 913d
00000170: 3be4 2b3e 2a0a eabd 378b 343c 11dd 973e
00000180: 37ae 1abc 4555 5b3e dfbf 8ebe 9a69 54bd
00000190: a469 ab3d b230 6bbb 91f6 8cbe 81ab 00be
000001a0: 4543 723d 1d47 4e3e 21b2 563e 4d83 bcbb
000001b0: 2f06 5c3d 1726 26be 46c1 773e 814b 8fbe
000001c0: 6400 44be 8273 b0be e6b1 b0be df07 873e
000001d0: 8808 01bd 3808 c33c 7f62 173e e243 97be
000001e0: 46a7 0bbe 4827 803d 6483 fcbd 0e55 823c
000001f0: 254c 38be 8689 3f3d a9f7 e83d 7998 8e3e
00000200: 3761 5f3d 346f 94be a07b 88be 564b 2d3e
00000210: ebda 54be 0e46 b2bc 4c70 9bbe f99e 3abe
00000220: d47d 72be 1cb2 f8bd 7657 2c3c e4fa 1abe
00000230: ba8a 1dbe 0ec0 953e 4351 7bbd 1d10 f83d
00000240: d3a7 6a3e a7f7 9bbd 9ad9 e4bd ea71 0a3e
00000250: 7030 1d3e c3e7 d53d 91c3 633e 409b 813e
00000260: d852 893d 0952 2cbe a935 90bd 93a2 833e
00000270: 490c 92b9 3414 d1bd 80f8 873e f917 9f3d
00000280: 45c4 e7bd 3f3d 80be 543d 27be 5324 90bd
00000290: 8130 353e 51c3 4cbe 0f71 dabd cffb 06be
000002a0: 7582 f93d c2e1 c6bd 4a0a 4fbd 6f46 74bd
000002b0: 88e0 02be e0df a6be 971a 01be 14f6 8ebe
000002c0: d443 d6bc fc48 163e aa22 31be bf36 a33d
000002d0: bd21 8bbd 2f7e 973e 896d 573e d5a2 21bc
000002e0: 37ca 4f3d f9e7 56be aed8 803e 53e5 493d
000002f0: dbc4 233d 2a5d 69bd 8eee bd3d 1fcc 2bbe
00000300: f0ab 213d b05f 063e 132a 46be 9e3d 91be
00000310: 2323 873d 540c 503d cc61 543d 7812 963d
00000320: b9bb 8ebd 2616 12bd 6a12 023e eb62 c63d
00000330: 13b8 a73e f5c0 913e 07ee f13d be53 c6bd
00000340: a7d3 bb3e 3cff 793e cbab 253e 5861 993e
00000350: 6ae5 94be 1e68 913e e6c0 6fbe 1913 d7bd
00000360: a8fd 823e d75e 22be e3d4 363d d7bc f5bd
00000370: e375 8d3e cbe3 1d3e 9939 713e 900d 11be
00000380: c974 4fbe 429d c6bd c571 c1bc 3c3d 563e
00000390: 58ab b03e 8fad 603e d659 7abe 970c 3e3c
000003a0: a09d 6f3e a1ae 77bd 30c5 babd 9f6f cdbd
000003b0: 121f 543e ce78 83be addb 393e d147 9cbe
000003c0: 8284 33be 6808 41be c484 b43d 73d0 5d3e
000003d0: 317b a3bc c03b 933e 039c 493e bac8 283e
000003e0: a87d 9fbe 3fd9 1e3d 1178 43be 28fb 073e
000003f0: 541e 6c3d 9bf3 44be 0a5a 933e dd65 95bc
-0.1263089 -9.503753e-05 0.34732926 0.24756691 0.22405016 0.29801407 -0.05197094 -0.21209794
0.18260871 0.1912689 0.30580297 0.2938615 -0.26844668 -0.22433178 -0.030192234 0.053947974
-0.21213834 -0.23595712 0.15165466 -0.29625148 0.07646797 -0.30751857 0.14291386 -0.23353302
-0.10998932 0.2237948 -0.01676982 -0.14985396 -0.09746293 -0.05635663 0.24740908 0.27659735
-0.20662737 0.24981208 -0.23211917 -0.20417961 0.1339495 0.17266609 -0.25492707 -0.121768385
-0.25109848 -0.13886471 0.31037435 -0.27974188 -0.06658335 0.1168733 -0.27793783 -0.18169938
-0.194421 -0.0523406 -0.009948547 0.31811845 -0.038536776 0.3446231 -0.13551359 -0.0061070104
-0.37036875 0.1827514 -0.04257704 -0.24257353 -0.08215949 -0.019361325 0.02133703 -0.03302825
0.3175413 0.1554893 -0.04741153 0.2255307 -0.14885679 0.33647418 0.087943785 -0.23068292
0.06999681 0.3015554 0.14190617 0.30535263 -0.042628508 -0.12252092 0.06507525 0.07898409
-0.29388604 -0.16591375 0.26400638 -0.26615554 -0.02801467 -0.00046487097 0.044243123 -0.06605413
0.055610746 -0.26861218 -0.19711846 0.07120161 0.16786282 -0.1142772 0.0110195195 0.29660848
-0.00944095 0.21419246 -0.2788076 -0.051858522 0.08369759 -0.003588718 -0.27531865 -0.12565424
0.059146184 0.20144315 0.20966388 -0.005752957 0.053716835 -0.16225468 0.24194822 -0.27987292
-0.19140774 -0.34463125 -0.34510726 0.26373193 -0.031502277 0.02380763 0.14783667 -0.29543978
-0.13638029 0.06257492 -0.12329748 0.015909698 -0.17997797 0.046762012 0.113753624 0.27850702
0.05453607 -0.2899109 -0.26656818 0.1692327 -0.20786636 -0.02176192 -0.30359113 -0.18224706
-0.23680812 -0.12143347 0.010518899 -0.1513477 -0.15384951 0.2924809 -0.061356794 0.12112448
0.22915582 -0.07615595 -0.11174317 0.13520017 0.15350509 0.10444596 0.22242571 0.2531376
0.06705254 -0.16828169 -0.07041485 0.25709972 -0.00027856443 -0.102089316 0.26556778 0.07768244
-0.11316732 -0.25046727 -0.16331989 -0.07038178 0.17694284 -0.19996382 -0.106660955 -0.13181995
0.12183086 -0.09711029 -0.05054692 -0.059637483 -0.12780964 -0.32592678 -0.126078 -0.27922118
-0.02615539 0.14676279 -0.1729838 0.07969426 -0.067935444 0.29588458 0.21037878 -0.009865482
0.050729956 -0.20986928 0.25165313 0.049290966 0.039982658 -0.056973614 0.09274016 -0.16777085
0.039470613 0.1312244 -0.19351988 -0.28367323 0.06598499 0.050793007 0.05185108 0.073277414
-0.06969399 -0.035665654 0.12702337 0.09686836 0.32757625 0.28467527 0.11812978 -0.09683941
0.36684915 0.2441377 0.16178815 0.2995708 -0.2908128 0.28399748 -0.23413429 -0.105016895
0.2558415 -0.15856491 0.04463662 -0.11998909 0.27629003 0.15418927 0.23557128 -0.1416533
-0.20259394 -0.09697963 -0.02361382 0.20921797 0.34505725 0.21941207 -0.24448332 0.011599681
0.23399973 -0.060469273 -0.09119642 -0.10031056 0.20714977 -0.25678104 0.18150206 -0.30523542
-0.17531016 -0.18850863 0.088143855 0.21661548 -0.019956203 0.28756523 0.1968842 0.16482821
-0.31150556 0.0387814 -0.1908877 0.13279402 0.05764611 -0.19233553 0.28779632 -0.018237049

layers.0.bn2.weight f4 [32]
00000000: 93a6 813f e450 813f a02a 803f f10c 753f
00000010: c950 833f 1dfc 853f 230a 793f 4c8e 883f
00000020: 233c 853f 5df4 753f a4b0 813f a670 8a3f
00000030: 713a 7e3f 4661 803f 5da7 7e3f ddaa 833f
00000040: 1e96 843f 6780 823f 1cf2 753f 9c98 753f
00000050: fd29 7d3f 284f 803f 4389 7f3f f081 7a3f
00000060: a7cc 763f 6b6f 7a3f 6aef 803f bf83 723f
00000070: f19d 763f 450f 823f 44da 813f 717a 833f
1.012896 1.0102811 1.0013008 0.9572287 1.0259029 1.0467564 0.9728109 1.0668426
1.0408977 0.96075994 1.0132031 1.0815628 0.99307925 1.0029685 0.99474126 1.0286518
1.0358312 1.0195435 0.96072555 0.9593599 0.98892194 1.0024157 0.9981882 0.9785452
0.96406025 0.9782626 1.0073063 0.9473228 0.9633475 1.016091 1.0144734 1.0271741

layers.0.bn2.bias f4 [32]
00000000: 9e2f abbb 42ba 0d3d 244b e4bc cb12 91bd
00000010: 5f02 2b3d 2fe1 9dbb 797e 2b3c c495 e83b
00000020: f8e9 c2ba 49f2 9fbc a439 993d 494a 833d
00000030: 70d0 3b3c 584a bbbb 6ccd fb3c 1060 743d
00000040: 4889 1b3d 805c f6bc 4876 c2bc 6a38 9fbc
00000050: 3adf 85bd 3342 a03c 9961 ad3c f6c3 103d
00000060: f845 2fbd 6825 b3bc 086e ec3b 2d13 5dba
00000070: 3308 e33c 9a7b 05bc 955b 43bc 6ed8 5d3d
-0.0052241823 0.034601457 -0.027867861 -0.070836626 0.041750308 -0.0048181037 0.010467165 0.0070979316
-0.0014870754 -0.01952471 0.07481697 0.06410653 0.01146327 -0.0057156496 0.030737601 0.059661925
0.03797272 -0.030073404 -0.023738042 -0.01943608 -0.06536718 0.019562816 0.021164702 0.035343133
-0.042791337 -0.021868423 0.007215265 -0.00084333384 0.02771387 -0.008147145 -0.01192369 0.05416148

layers.0.bn2.running_mean f4 [32]
00000000: c3ef a83e 0719 95bd 9c10 1abe 4a25 a6bd
00000010: 5673 53be eebb ae3c 6745 6fbe 9881 5e3e
00000020: b820 253e 9b55 27be 0fd2 8d3d df76 ed3c
00000030: 5dd6 a4be f1e7 1ebe ff6f 2cbe 42da 48be
00000040: 696f 9f3e 5c56 27bd 9715 57be 24b1 98be
00000050: f29a 403e 74ff 05be 23be af3e f223 653e
00000060: 1f93 f73d a40b 733e e5cc 5dbe 7768 3e3e
00000070: 238c 1cbe 61c5 993c 9559 823d f32d 583e
0.32995424 -0.07280164 -0.15045398 -0.08112581 -0.20649466 0.021329846 -0.23366319 0.21729124
0.16125762 -0.1634125 0.06924831 0.028987346 -0.32194796 -0.15518166 -0.16839598 -0.19614509
0.31139687 -0.040853843 -0.2100433 -0.29822648 0.18809107 -0.13085729 0.3432475 0.22376993
0.12088608 0.2373491 -0.21660192 0.18594538 -0.15287833 0.018770875 0.06364743 0.21111278

layers.0.bn2.running_var f4 [32]
00000000: 6b44 853e 816a 043e abf6 403d 825c 173d
00000010: f723 ec3d bd16 9f3d 4248 d43d b423 3e3e
00000020: bdea e63d f377 593d 84ac 923d 6a5a ff3c
00000030: 0437 7e3e 3c13 563d 40c9 bf3d 0666 ea3d
00000040: 86b6 593e fb78 7a3d 11c9 a43d 76dd 583e
00000050: d914 8f3d 100f 283d eef4 693e af05 f93d
00000060: 8386 103d 42ef 003e 9b17 093e 81cd b23d
00000070: 9305 bb3d 29df d13c 8763 2c3d dd96 4d3e
0.2602876 0.12931253 0.04711024 0.036953457 0.11530297 0.07768009 0.103653446 0.18568307
0.112752415 0.053092908 0.07161811 0.031171042 0.24825674 0.052264437 0.09364557 0.11445241
0.21261033 0.061150532 0.08046163 0.2117823 0.06986398 0.04102999 0.2284734 0.12159287
0.03528453 0.1259127 0.13387911 0.08730603 0.091319226 0.025619106 0.042087104 0.20077081

layers.0.conv3.weight f4 [12, 32, 1, 1]
00000000: 3566 d3bc 6012 7c3a 6f81 84bd 7c9e c63c
00000010: f365 8fbd 4a39 e33d bd75 13be 2c38 b53d
00000020: 56b6 1a3e a12b ecbd 16c8 c73c d60b 8a3d
00000030: 352f 90bd caec e53d 32d1 a2bc 1d93 783e
00000040: cb03 71bd c661 1a3c 3dea c43d 1179 22bb
00000050: 4b6e 21be ddae 253e 93ad 4b3c 54c1 0c3e
00000060: f9ea 9ebd f54e 4ebe 6fd3 823d be25 42bb
00000070: bced 8b3d d3bb f4bd 10c9 193d 557a 0dbe
00000080: 8f68 d5bc d781 e13d 9985 6ebd 1632 2dbe
00000090: 5521 423d 1ec5 223e e073 88bd e1ea 7fbb
000000a0: 625b a2bb b1ca e43d 76ef 673e 2125 bfbd
000000b0: a857 0a3e fd7d e83c d771 c63d 00c0 c2bc
000000c0: 6918 28be c374 8fbc 59bd 853d 118f 273d
000000d0: 9f4d 08bd 3fc0 153e 3525 41bd 29cd e33c
000000e0: 9e33 453c 9833 0cbe b74c 333d bbca 9abd
000000f0: dc34 9bbd 86d4 bbbd 389a eb3d 55a4 733d
00000100: ea6f a4bd 0b5a 3c3e 962d ddbd ef49 a6bd
00000110: 4f5c dabd 4fcb 493c c423 fdbc ac38 99bd
00000120: 8880 82bd a37d 00be 8db8 e63b 39a3 89bd
00000130: 46a7 e03c 3853 e1ba 3979 12be 34e7 483c
00000140: 0d00 a6bd fded 513d b773 c7bd d3f2 1abe
00000150: dd1c c93c b68d db3d 224f c43c e0c8 30be
00000160: 90cf 943d 845d f53d 5e41 0b3e 54ce 163e
00000170: 9105 fbbd 1988 40be 2186 093e c50a 85bd
00000180: 36fa 0c3e d240 f7bb 51a0 063d 1c3b 45bc
00000190: 2a8c 26be d850 3b3e 3e11 45bd c415 abbc
000001a0: 8720 d63c 7797 e1bd 0444 10be 440c 783e
000001b0: 5cb2 bfbd 60d2 143c f0b8 f23d b263 d53c
000001c0: 3e3d 17be aa02 adbd d044 30be efff be3d
000001d0: f24f c23c 50fa 8d3d 0c22 f93d 6116 57bd
000001e0: 1225 37bd 0758 013e 8fa3 063e c129 04bd
000001f0: d177 e63c b293 26be a827 1c3c 77bf 8d3d
00000200: 3b65 3cbe 67f4 083e 0b81 d5bd 41c5 8d3d
00000210: 19c7 1fbe 7440 69bc c036 143e d750 fe3d
00000220: 3ed0 6abd a89f ccbc f85c 893d 30a3 e7bd
00000230: 3546 1b3c 5593 0f3d 39b4 613e 0ca0 f6bd
00000240: d057 c43d 1856 4abd e2f4 dc3d 9819 053d
00000250: 5123 ebbd 5e79 04be a9eb 71bd 3656 89bc
00000260: 4340 873d 21be 313c 3e4e f53c 7f36 0c3e
00000270: cc7d 09be 8068 a5bd 8bc0 b93d be18 5d3d
00000280: 0573 20be 79ac 18bc a42c 273e 6b5d a93d
00000290: 0d9b fe3d 2868 70bd c76e fcbd c386 abbc
000002a0: f223 803c 5079 c93c 256a 81bd a774 57be
000002b0: e44f 4f3e 70f9 e33d 1a24 37bd 4d07 c2bd
000002c0: 9903 aebb 50aa 5d3b 3ec7 34bd 0236 25bd
000002d0: 1756 d9bd dec5 a5bd 566f acbd 197d 27bd
000002e0: 22f3 0bbd 39bf 063e adad cd3d 948a 01be
000002f0: 98c9 7f3d 8a5b 8fbd 85a5 64bd bd7a e5bd
00000300: cfa2 063e f9ec ed3c 1c16 cc3c e2bc 053e
00000310: 2f53 debc 8ace ce3d 096c 0a3d fef9 30be
00000320: c37c 0fbe 78c0 093d 8d6d cb3d c6e7 a9bd
00000330: 7834 16bd 90e3 1fbe f0ea 20be f80b 08bd
00000340: 01af da3d c9ce a0bd a9c9 17bd 88e0 80bd
00000350: b178 25bd ece0 d4bd 8673 a9bd fb8e b6bc
00000360: 5979 063e ad2a c4bd 9e5b 643d a3b1 123d
00000370: 0fa3 133e 776a f93d 1ec8 2d3e c306 0cbe
00000380: cdc8 8abd d0f0 dd3c b52f 9fbd fb48 3dbe
00000390: a0f0 02bd bc50 1cba 1895 253e 3664 03bc
000003a0: 90c6 ec3d 2aa8 aebd 95ff 973d 8b70 573d
000003b0: 4d6d 25be 9802 d1bd b9b7 143d 472d 89bc
000003c0: 489d d23d 6764 4cbe 8277 34bd 292f f13c
000003d0: 4311 7fbd 9f28 fd3b 2b96 2e3e 2ad9 1a3c
000003e0: 4a2c 0fbe 0465 1a3e 0575 463d ea0c df3c
000003f0: 7bbf 08be f1ea 17bd d20d c33c 7424 613d
-0.025805572 0.0009615775 -0.0647 0.024245493 -0.07001867 0.110949114 -0.14400382 0.088486046
0.15108618 -0.11531759 0.0243874 0.06740539 -0.07040254 0.112268046 -0.019875143 0.2427487
-0.058841508 0.009422725 0.0961499 -0.00247914 -0.1576473 0.16179986 0.01243152 0.13745624
-0.07759661 -0.20147307 0.06387984 -0.0029624547 0.068324536 -0.11949887 0.037545264 -0.13816197
-0.026050834 0.11011093 -0.058232877 -0.16913638 0.04739507 0.15895507 -0.066627264 -0.003904991
-0.0049547413 0.11171473 0.22649941 -0.09333254 0.1351 0.028380388 0.09689682 -0.023773193
-0.16415562 -0.017511731 0.06530256 0.040907923 -0.03327715 0.14624117 -0.047154624 0.027807789
0.012036232 -0.13691556 0.043774333 -0.07558199 -0.075784415 -0.09171395 0.11504024 0.05948289
-0.080291584 0.18393724 -0.107997105 -0.081195705 -0.10662138 0.012316539 -0.030900843 -0.074815124
-0.06372172 -0.12547927 0.007041043 -0.067205854 0.027423512 -0.0017190939 -0.14304055 0.012262154
-0.081054784 0.051252354 -0.09738868 -0.15131693 0.024549896 0.107203886 0.023963515 -0.17264128
0.07266152 0.11980727 0.13599154 0.14727145 -0.12256921 -0.18801917 0.13430072 -0.06496195
0.13767323 -0.007545569 0.032867733 -0.012038019 -0.16264406 0.18292558 -0.048112147 -0.020884402
0.026138557 -0.11015218 -0.14088446 0.24223429 -0.09360191 0.00908336 0.1185168 0.026048515
-0.14769456 -0.08447774 -0.1721375 0.09326159 0.023719762 0.06932509 0.12164697 -0.052511577
-0.044713087 0.12631236 0.1314833 -0.032266382 0.028133305 -0.16267279 0.009530939 0.06921285
-0.18397991 0.13374482 -0.104250036 0.06922389 -0.15603293 -0.014236558 0.1447401 0.12417763
-0.0573275 -0.024978474 0.067071855 -0.113104224 0.009477188 0.035052616 0.22041406 -0.12042245
0.095870614 -0.04939851 0.10788895 0.03249511 -0.114813454 -0.12936923 -0.059062634 -0.016764741
0.06604054 0.010848553 0.029944535 0.13692664 -0.13426894 -0.080765724 0.09069928 0.053978674
-0.15668876 -0.009318464 0.16325623 0.08269771 0.12431917 -0.05869308 -0.123258166 -0.020938283
0.01564214 0.02459398 -0.063190736 -0.21040593 0.2024532 0.11131561 -0.044712164 -0.09474049
-0.0053104875 0.0033823438 -0.044135325 -0.04033471 -0.106121235 -0.08094381 -0.08419673 -0.040890787
-0.034167416 0.13158883 0.10042892 -0.1265052 0.062448114 -0.069998816 -0.055821914 -0.11205051
0.13148044 0.029043661 0.024912886 0.13060334 -0.027139274 0.10097988 0.033794437 -0.17282864
-0.14012437 0.033630818 0.099330045 -0.082961604 -0.03667113 -0.15614152 -0.15714622 -0.03321454
0.106779106 -0.07851941 -0.037057552 -0.06292826 -0.040398303 -0.10394463 -0.082739875 -0.022284975
0.13132228 -0.09578452 0.055751435 0.03581394 0.1441767 0.1217851 0.1697087 -0.13674454
-0.06776581 0.027092367 -0.07772771 -0.18484871 -0.03196776 -0.0005962958 0.16170156 -0.008019498
0.1156131 -0.085281685 0.07421795 0.052597564 -0.16154976 -0.10205573 0.036308024 -0.016745223
0.10283905 -0.19960175 -0.044059284 0.029441433 -0.06227232 0.0077257897 0.17049472 0.00945119
-0.13981739 0.15077597 0.048451442 0.027227838 -0.13354294 -0.037089292 0.023810301 0.054966405

layers.0.bn3.weight f4 [12]
00000000: 9109 803f 0f52 813f a301 823f ad53 873f
00000010: c72e 723f f7bc 7e3f 9015 6c3f 00d9 793f
00000020: 77af 753f 1a2b 803f ee6c 883f dca8 853f
1.000292 1.0103167 1.015675 1.0572411 0.94602627 0.9950709 0.922204 0.9759674
0.95970863 1.0013154 1.0658243 1.0442157

layers.0.bn3.bias f4 [12]
00000000: 256e ac3c 05e5 16bc 3010 293c 98de 243c
00000010: 6e2d ac3c cc39 f63b dc61 083c 46c2 76bc
00000020: 3be2 72b9 d8d2 8b3b a7e4 95b9 4d9f 93bc
0.021048615 -0.009209876 0.010318801 0.010062836 0.021017756 0.007514214 0.008324113 -0.015060967
-0.00023163196 0.004267078 -0.00028589854 -0.018020296

layers.0.bn3.running_mean f4 [12]
00000000: ec58 713d f928 083e 3bd8 80be df4b 2f3d
00000010: d602 943b b54d 48be 2cc1 a4bd c16e 9cbd
00000020: 2a6e 593e b764 39be b56c 3c3e 4fec 323e
0.058922693 0.1329688 -0.2516497 0.042796966 0.0045169396 -0.19560893 -0.08044657 -0.07638312
0.2123343 -0.18104826 0.18400843 0.17472957

layers.0.bn3.running_var f4 [12]
00000000: 3e51 f93d f211 d23d 21fa 1d3e d3e8 323e
00000010: 480a 003e 87a8 cf3d 25ab 083e 3a0f 1c3e
00000020: 27f2 c13d 5024 d43d 6479 2b3e 0bf7 163e
0.12173699 0.10257329 0.15427448 0.17471628 0.12503922 0.10139566 0.13346536 0.15240183
0.09470015 0.103584886 0.16745526 0.14742677

layers.1.conv1.weight f4 [72, 12, 1, 1]
00000000: bbe9 f3bd 2aab 49be a543 33be 1b3b e53a
00000010: c64c 2ebe 7408 333e a665 e3bc ad39 673c
00000020: 5830 8a3e 9edb 4c3d 74ed 2b3e fdc7 0c3e
00000030: 3de1 5e3e fe7e 7fbd cc4b 15be 6715 f8bd
00000040: 1860 f3bd b33a 49be c107 8cbe 805c 5b3e
00000050: e8c0 6c3e 1cf5 293e 8c24 61be 20ae a53d
00000060: 2103 88bc 6f41 443e 5f95 02be dd3a 84be
00000070: cf6a 1c3e 7adb 823c 56ff 96be 1c17 31be
00000080: e613 7ebe 39f7 3ebe a241 cdbd ab7f 723d
00000090: c459 75be a460 bdbd a63f 58be a080 7f3e
000000a0: 2abd 903e 3778 823e c9a0 133e 36ac d03d
000000b0: ae02 0f3c 5793 96be 4ee9 73be 2150 123e
000000c0: d5f9 72bd a613 aa3d eed6 9d3d 8a08 2b3d
000000d0: ab4a 75be c092 693d 752c f5bc d071 563e
000000e0: e2aa 703e 6790 d3bd a9ac 5d3e 56e4 1b3e
000000f0: 91c9 cf3c 421b 15be bc15 0dbe 59c0 6fbd
00000100: 2d0d 783e aad7 7b3d 13e6 b0bc c5b8 0d3e
00000110: 7117 93bd 3f46 a33e 0439 403d 2b6d 053d
00000120: 00e4 acbc 299d b13d 1a49 333e 5f52 9c3d
00000130: 560e 12bd ec2f 603e c274 073d b9a5 9c3e
00000140: 942f 3ebe 4fb9 96be 5fde d8bc 80f8 113e
00000150: d00d b33d 2185 6ebe 7b29 a33d 16a5 6a3e
00000160: abe3 823e 8f12 813e e134 f93c f4cd dc3c
00000170: 7731 da3d d632 14bd 7c7c 893d 3a68 d13d
00000180: edfd ebbd 5bbe 0ebd ae3b 93be 6105 43be
00000190: 4ba3 a03c 2f91 3b3d 121d d1bd d9d1 a4bd
000001a0: b571 f63d 5905 57be fc79 5fbe 12df e33d
000001b0: fc9b 5dbe a4d7 553e c674 af3d a845 05b9
000001c0: ead4 27bd 185d 8c3e 1ff3 273e 1b58 913e
000001d0: 8737 613e cf41 86bd 4ed2 383e 029e 8dbe
000001e0: 8c7d 533e e3ff 88be de67 98be 427f 8ebe
000001f0: d43e 16be da59 6ebe f796 26be 12bb fb3d
00000200: 5a6d 22be 52e9 54be e3cd 8abb b533 8abd
00000210: a54d fa3d e594 5bbe 995f 04bd 330c 723e
00000220: 8844 5b3e 741d 803d 2289 353e 0018 36be
00000230: 11fe 7dbe ad02 833e 54d5 b13e 6b78 0abe
00000240: 2a9d 773e 436d 113e e1ea 60be 0053 3ebd
00000250: 4198 4ebc 2e8d 483e b384 303d 55f2 623e
00000260: 967c 6e3e 706c 473e 15c9 03be 1eb6 f63d
00000270: d3ff 1fbd 0046 84be 01c3 823e b966 32be
00000280: 6f86 13be d133 113d 189e 123d fa39 cdbd
00000290: b898 373e b2d7 913e 582c 8c3d 93a5 42bc
000002a0: 68ea 2abe d777 3dbd d33b 743e 2061 ca3b
000002b0: 8e5d 513d 4b97 493d 22cf 85be fb4f bb3c
000002c0: 9186 283e 07ca fcbd 7990 7d3e b01d 22bc
000002d0: e0f9 6cbe 399f d7bd 9a47 c23a 4504 0ebd
000002e0: 9224 613e 35b2 1c3e ec14 1b3c ecca 223e
000002f0: 59b8 a63d a0aa f73c d5b5 34be b39a 2c3e
00000300: b1c8 2dbe cbad 24bd ed2d 8b3c 83c3 e2bb
00000310: 2420 f5bd 5b1f 423e 4e00 58be 9365 83be
00000320: f85e 143e df0a 47be ce99 813e 1f4c 16be
00000330: 8326 383e b808 333d e931 72be e5ee 233e
00000340: 567b 49bd cafa 1a3d f0d7 f43d 0e89 89bd
00000350: b83b 623e e563 66be 357c 9ebd 7686 be3c
00000360: b800 70be 9dc9 543b 0898 2ebe 543d a53e
00000370: 0526 0fbe a68a 0ebe c897 28be a210 1e3e
00000380: f151 593b 96da 3a3e 70e5 98be f564 0fbd
00000390: 8526 2cbd e6cd 0dbc b9e2 ceba 05ac 5f3e
000003a0: 4625 49bd 6c69 4f3e 7fed 513e 2560 813d
000003b0: 590a 353d b1d0 99bc f0f3 14bd c01f 8fbd
000003c0: 1a99 913e 7e5b 6abd 44c9 72bd 7aee 423e
000003d0: b6d4 7e3d 8006 4bbe 98dd 1e3d 8644 6fbe
000003e0: a6af f8bd d607 00be 6acf 8ebe ad42 853d
000003f0: 9c2c 9c3c a4c0 73bd c9cd d63d 17ce 78bd
-0.11909815 -0.196942 -0.17506273 0.0017488928 -0.17021474 0.17483693 -0.02775843 0.014112872
0.26990008 0.05001413 0.167898 0.13748164 0.21765609 -0.06237697 -0.14579695 -0.12113457
-0.11883563 -0.19651298 -0.27349666 0.21422005 0.23120463 0.16597408 -0.21986598 0.08089852
-0.016603054 0.19165586 -0.12752293 -0.2582616 0.15275119 0.015973795 -0.2949168 -0.17293972
-0.24812278 -0.18648995 -0.10022284 0.059203785 -0.23960024 -0.09246948 -0.2111803 0.2495141
0.2826932 0.25482342 0.14416803 0.10189097 0.008728666 -0.29409286 -0.23819467 0.14288379
-0.05932029 0.08304529 0.0770701 0.04175619 -0.23954265 0.057024717 -0.029928425 0.20941854
0.23502687 -0.10330277 0.21647896 0.15223822 0.025364669 -0.1456118 -0.13777822 -0.058533046
0.24223776 0.06148497 -0.021594083 0.13840015 -0.071822055 0.3188953 0.046929374 0.032574814
-0.021104813 0.08672554 0.17508355 0.076328985 -0.035658203 0.2189328 0.033070333 0.30595186
-0.18572837 -0.29438254 -0.026473222 0.14254951 0.08742869 -0.23292972 0.07966896 0.22914538
0.25564322 0.25209472 0.030420722 0.026953675 0.10653966 -0.036181293 0.06713197 0.10224958
-0.11523042 -0.034849506 -0.2875647 -0.1904502 0.019609114 0.045792755 -0.10210623 -0.08047838
0.12033407 -0.20998134 -0.21823877 0.11126532 -0.21641535 0.20883042 0.08567195 -0.00012709817
-0.040974535 0.27414775 0.16401337 0.28387532 0.21993838 -0.06555521 0.18048975 -0.27659613
0.20653361 -0.26757726 -0.29766744 -0.27831465 -0.14672405 -0.23276463 -0.16268526 0.1229154
-0.15862027 -0.2079213 -0.0042359694 -0.067481436 0.12221841 -0.21443518 -0.03231773 0.23637466
0.21412861 0.06255618 0.17728093 -0.17782593 -0.2480395 0.2558798 0.3473307 -0.13522498
0.24181047 0.14201836 -0.21964599 -0.046465874 -0.012609542 0.19585106 0.0430953 0.22162755
0.23289713 0.1947496 -0.12869675 0.12046455 -0.039062332 -0.25834656 0.255394 -0.17421998
-0.14406751 0.035449807 0.0357953 -0.10020824 0.17929351 0.28484875 0.068443954 -0.011880296
-0.16690981 -0.046256866 0.23850946 0.006176129 0.05111461 0.04921655 -0.26134592 0.022865286
0.16457583 -0.12343221 0.24762143 -0.009894773 -0.23142195 -0.10528416 0.0014822364 -0.03467204
0.21986607 0.15302356 0.009465437 0.15897721 0.0814063 0.030232728 -0.17647488 0.16855888
-0.16971089 -0.040204804 0.016989673 -0.0069202795 -0.11969021 0.18957274 -0.21093866 -0.25663432
0.14489353 -0.1943774 0.25312656 -0.14677475 0.17983441 0.043709487 -0.23651852 0.160091
-0.049189888 0.037836827 0.11955249 -0.06715594 0.22093093 -0.22499044 -0.07738534 0.023257475
-0.23437774 0.0032468804 -0.17050183 0.32273352 -0.13979347 -0.13920078 -0.1646415 0.15436032
0.0033160413 0.18247446 -0.29862547 -0.03500839 -0.042028923 -0.008655047 -0.0015784121 0.21842964
-0.049107812 0.20255059 0.20500754 0.06317166 0.04419932 -0.01877627 -0.03636545 -0.06988478
0.2843712 -0.05721616 -0.059273973 0.19036284 0.062214576 -0.19826698 0.038785547 -0.23365983
-0.12142877 -0.12502989 -0.2789262 0.06506858 0.01906424 -0.05950989 0.10488469 -0.060743418

layers.1.bn1.weight f4 [72]
00000000: 4add 7e3f f88f 843f 9de7 703f c0f6 7f3f
00000010: 6d5e 853f ce6e 823f 830b 7d3f beac 793f
00000020: 2634 7e3f e769 793f df7c 7d3f f6db 7e3f
00000030: f7a6 783f 8a69 803f 5f66 7b3f 7813 803f
00000040: 57a1 7b3f 4b83 843f c574 853f 031b 6e3f
00000050: 8b12 8b3f 7e76 7c3f 55b3 7e3f 2905 7f3f
00000060: 1392 803f 3d3b 7f3f 6e1a 803f b565 793f
00000070: 6c05 713f d9bb 803f 9ed6 803f 4cf6 723f
00000080: dbe9 833f f984 713f 1809 833f 99ea 743f
00000090: fe08 6c3f c9e5 863f f271 743f aaa3 7f3f
000000a0: a764 7d3f 37f9 813f bdbf 783f d337 7c3f
000000b0: ae60 7a3f daf9 713f 23b2 7a3f d0a9 7d3f
000000c0: c208 813f cd55 803f ce86 803f 06b1 7e3f
000000d0: 6088 7d3f 3292 803f 604c 7a3f f860 7e3f
000000e0: 4aab 853f 395b 823f 3696 7c3f dd31 7b3f
000000f0: 9576 803f a4f1 873f 23a1 7b3f dd7c 793f
00000100: ebdc 803f d06e 803f cc13 7d3f d4f8 763f
00000110: 3ac6 813f 14bb 5e3f 3a35 7d3f 01ca 6e3f
0.9955641 1.0356436 0.94103414 0.99985886 1.0419441 1.0190065 0.9884569 0.9752921
0.9929832 0.9742722 0.99018663 0.99554384 0.9712977 1.0032208 0.9820308 1.0005941
0.9829306 1.0352567 1.042626 0.93009967 1.0865034 0.98618305 0.9949239 0.9961725
1.0044578 0.99699765 1.0008066 0.9742082 0.941489 1.0057327 1.0065496 0.9490707
1.0305742 0.94343525 1.023715 0.9567047 0.9220122 1.0538875 0.95486367 0.99859107
0.9898171 1.0154179 0.9716757 0.9852268 0.9780377 0.9452187 0.97928065 0.9908724
1.0080798 1.0026184 1.0041139 0.99488866 0.99036217 1.0044615 0.9777279 0.9936671
1.0442898 1.0184089 0.98666704 0.9812296 1.0036188 1.0620618 0.9829275 0.9745615
1.0067419 1.0033817 0.9885833 0.9647343 1.0138619 0.8700421 0.9890934 0.93276983

layers.1.bn1.bias f4 [72]
00000000: 6f38 433c a07d 9c3c 2988 963d ce5c debc
00000010: f384 633d 2a69 c43c 226e eb3c 0875 efbc
00000020: 96e8 8cbc 998b 6a3d d72d 01bd 3eda 443d
00000030: 8848 d0bb fa87 88bc c07c 473d 445d 97bc
00000040: dbee 0bbd 3430 203d 31e4 27bd 1ecf 853d
00000050: d6d7 61bd 6e4f e23c 9f13 c43c 61b6 4f3c
00000060: 0f42 98bc c016 2dbb 8edf 063d 9dab dd3c
00000070: dcd7 783d 621f 0fbc 496d 893c e848 8b3d
00000080: 0c93 3dbc b327 48bd d881 223b 8839 683d
00000090: 10d9 72bd 2ea6 533d f417 a53d bee6 19bb
000000a0: 8c3b c1bd 9e9e 83bc 4644 f9bc 790d 213d
000000b0: 388f 093d e4ea 19bd d7c3 3f3b d574 c93c
000000c0: 51d2 b23a c279 19bd 1f8d 1abc 5305 0fbd
000000d0: bdfa 4a3d 2f44 f13c 1ae5 263d 6b64 9c3b
000000e0: f332 da3b 2515 993a e6fc 453c c04a c6bc
000000f0: 60fb dc3c f924 da3c e1b9 fbbc f0d8 423d
00000100: 0ea6 5abc 96b9 b03c 5dbd 5ebc 804e 4f3d
00000110: 6aed 893b b1d0 c23d 0f41 f33c 82b9 5f3d
0.01191531 0.019102871 0.07350189 -0.027143862 0.055546712 0.023975927 0.028739039 -0.02923061
-0.01720075 0.057262037 -0.031537857 0.048059694 -0.0063563026 -0.016666401 0.048702955 -0.01847709
-0.034163337 0.03910847 -0.040989105 0.06533645 -0.055137478 0.027625766 0.023935137 0.01267776
-0.018586187 -0.0026411265 0.032928042 0.02705937 0.060752735 -0.00873551 0.016775744 0.06801015
-0.011570703 -0.048865985 0.0024796631 0.05669549 -0.05928904 0.051672153 0.08061209 -0.002348348
-0.09435186 -0.016066846 -0.030428063 0.03931949 0.03358385 -0.037577525 0.0029261017 0.024591843
0.0013643001 -0.037469633 -0.00943306 -0.034917187 0.04955553 0.029451458 0.040745832 0.004772713
0.0066589057 0.0011679275 0.0120842215 -0.024205565 0.026975334 0.026628958 -0.030728282 0.04757017
-0.013345255 0.02157287 -0.013594952 0.050611973 0.00420921 0.09512461 0.029694108 0.054620273

layers.1.bn1.running_mean f4 [72]
00000000: 46da 00bc 6906 fbbb 3d18 71bb 4270 0eb9
00000010: ec85 48bc 2019 853b d5b4 b8bb 405b 463c
00000020: 95c2 0ebc ca2f 42bb ae11 cfbb cc52 9c3c
00000030: 76f4 1dbb 16bc 2c3b 2dee 03bb a8f1 60bb
00000040: 4dc9 05ba ea90 063b af68 18bc cc19 623b
00000050: d01c 223c 803f af3b f1f5 2f3c a5e7 2dbb
00000060: 5dfc 0c3c 5503 51ba 44d6 033a 6197 8e3b
00000070: f509 173c 14d5 03bb a4d6 7d3b 4c02 6dba
00000080: f980 c63b de26 9ebb 5f3c 0e3b 6424 f63a
00000090: bbad 2bbc 214b d83b 0d9d 233c dad8 d5bb
000000a0: c4c6 2abc bfe3 d03b 8a95 2c3a cb86 56bb
000000b0: 890c 22bc 3cf7 1f3b 689d 09bc 287f ca3b
000000c0: 03a3 c4ba 5ce3 133c a906 83bb 1650 3cba
000000d0: 2f99 3fbc 9374 faba ad89 d63b 556e af3b
000000e0: 4809 16bc 8e38 6ebb 4901 b239 7a52 b63b
000000f0: f1a7 59bb 700b bfba 6764 af3b a750 fabb
00000100: c6ee b03a 9307 7ebb 8ed7 b3bb f20f b33a
00000110: e119 d53b c612 0e3b d4c6 65bc 6d6a 9239
-0.00786454 -0.0076606763 -0.0036788129 -0.00013583995 -0.012238961 0.004061833 -0.0056367912 0.012106717
-0.008713384 -0.0029630535 -0.0063192463 0.01908245 -0.002410201 0.0026357225 -0.0020130978 -0.0034323726
-0.00051035435 0.0020533153 -0.009302302 0.003450024 0.009894565 0.005348146 0.010739789 -0.0026535776
0.00860509 -0.0007973214 0.00050291815 0.004351542 0.009218683 -0.0020116018 0.0038732672 -0.0009041175
0.006057855 -0.0048264107 0.0021703464 0.0018779156 -0.010478432 0.006600753 0.009986174 -0.006526095
-0.010423366 0.0063748057 0.00065835624 -0.0032734151 -0.009890684 0.0024408838 -0.008399345 0.006179709
-0.0015002195 0.009026375 -0.0039985967 -0.00071835646 -0.011694237 -0.0019108228 0.006547174 0.005353729
-0.009157486 -0.0036349627 0.00033951763 0.005564031 -0.0033211673 -0.0014575552 0.005352545 -0.007639009
0.0013498894 -0.0038761839 -0.0054883426 0.0013661368 0.006503329 0.002167867 -0.014024455 0.00027926583

layers.1.bn1.running_var f4 [72]
00000000: da55 423e 77f6 9b3e 70d7 b43e 5e64 0f3f
00000010: 8535 563e f7c9 023e e343 143f c798 ca3e
00000020: 811a 863e 5de3 9a3e 0b97 c93e f346 bc3e
00000030: f701 f43d 3e93 773e 9bc8 953e e30f be3e
00000040: 18ed 6f3e 4956 083e a465 fd3e d9c5 a33d
00000050: c346 823e d39f a43e 3480 d13e 8c91 9c3e
00000060: 8a4f 833e c2d9 2f3e b0dd a23e e579 4f3e
00000070: dcda 8e3e 9531 5b3e ffc4 403e 1eb1 5d3e
00000080: 2d0f 303e 7e1c e93e 5306 353f eafd cb3e
00000090: 079c 7d3e 8288 2f3e 4c4f 363e 288b cf3e
000000a0: d923 973e 3318 c13e 53e1 113f 18ca c33e
000000b0: ba9e 143e b28f 333e f14a 7c3e 9fd4 a03e
000000c0: e45b c63e 7c21 863e 5489 e43e 0f43 843e
000000d0: 45f6 cc3e 6e79 0f3e 9421 443e 0e99 a83e
000000e0: b560 b73e d65d 713e a888 9b3e d8c0 433e
000000f0: b956 d63e 35c3 f03e ba49 b23e 44d7 023e
00000100: 2649 623f d5a1 c73e db84 183e 9b97 e73e
00000110: da79 953e 600a 593f 8db1 f33e 9f87 dd3e
0.18978062 0.30461475 0.35320616 0.56012523 0.20918854 0.12772356 0.57916087 0.39569685
0.26192096 0.3025159 0.3937305 0.3677288 0.11914437 0.24177262 0.29254612 0.37121496
0.23430288 0.13314165 0.49491608 0.07996721 0.25444612 0.32153186 0.40918124 0.30579793
0.2564662 0.17172912 0.3180976 0.20261343 0.2790135 0.21405633 0.18825148 0.21649596
0.17193289 0.4552955 0.70712775 0.3984216 0.24766551 0.17141917 0.17803687 0.40535855
0.29519537 0.37713775 0.5698444 0.38240123 0.14513674 0.17535284 0.24637963 0.31412217
0.38741982 0.26197422 0.44636023 0.25832412 0.4003164 0.14011165 0.19153434 0.3292927
0.3581597 0.23570952 0.30377698 0.19116533 0.4186304 0.4702393 0.34821874 0.1277743
0.88392866 0.38990656 0.1489443 0.45232853 0.29194528 0.84781456 0.47596398 0.43267533
