Project/Project_files/ckpt/mobilenetv2_19_4/mobilenetv2_19_4_15.pt (torch, 49131 bytes, 52 tensors)

conv1.weight f4 [32, 3, 3, 3]
-0.20636258 -0.2500678 -0.064815536 0.11816757 0.024152972 0.16279039 -0.09006663 -0.15240501
-0.061951533 -0.04352661 0.04520578 -0.045329582 -0.09852269 0.23378609 -0.106146544 0.054679498
0.084646285 -0.15866144 0.08366791 0.06891129 0.17545709 0.2738143 0.41940933 0.10056404
-0.09693493 -0.058977623 0.0458841 0.19872797 0.03786228 -0.0955377 0.1379903 -0.24145812
0.13003185 -0.017445793 0.05151232 -0.088342644 0.050352544 0.1326092 -0.11966938 -0.09980879
-0.36381605 0.14106308 -0.12141096 0.19774148 -0.09191552 0.011943741 -0.07159649 -0.15354928
0.13323578 -0.04462694 0.0009726019 -0.16139054 0.13122606 -0.077417836 -0.12398623 -0.20345587
-0.13188076 -0.015993007 0.24763723 -0.15622076 0.077019416 -0.097704686 0.23616421 -0.041881748
-0.059947602 -0.10360817 0.13107364 -0.065594114 -0.1208696 0.21187206 -0.025490034 0.013540268
-0.011548525 -0.19173002 -0.14726728 0.064638354 -0.1681497 -0.030022597 0.08309828 -0.2154221
0.19211316 0.27696157 -0.021344667 0.042519953 0.11681835 -0.042756364 0.013990344 -0.16024946
-0.20754743 -0.102956 -0.111298434 0.029283551 0.10120691 -0.018953705 0.11535765 0.20086426
0.17814097 0.21132636 -0.1154099 0.039621234 -0.048984855 -0.0615338 0.00024286256 -0.18980306
-0.06578066 0.052355643 0.10615151 -0.12850551 0.116443075 0.04351145 0.006766887 -0.09595654
-0.1270458 0.011859763 -0.010305086 -0.16596663 0.20774713 0.06368012 -0.08868798 -0.080607444
-0.025044242 -0.07837466 -0.05853334 -0.0979098 -0.14729401 0.17894788 -0.018127523 0.17874661
0.03259021 0.1121377 0.2869008 0.12753178 0.18591999 0.22413066 -0.0963949 -0.200281
0.065076075 -0.12143973 -0.22115847 -0.06666098 -0.016067127 0.18359908 0.037047338 -0.14803776
0.018280517 0.10195775 0.2755627 0.12087094 0.06135645 0.2180801 0.07093353 -0.06059335
-0.14716856 -0.027009057 -0.12679872 0.037573762 -0.06981209 -0.08771614 0.047866188 0.15316911
-0.041496973 -0.048244324 -0.24324764 -0.006871989 0.11770343 0.06405122 0.10381963 0.08364223
0.104858704 0.05185947 -0.031415712 -0.14893627 -0.07694438 0.14993483 0.11007991 0.07003432
0.08971502 0.14323139 0.26940897 0.19672109 0.083420046 -0.056441993 -0.08960714 -0.058045935
-0.14323615 -0.16091064 -0.13923925 -0.14234008 -0.16099046 -0.15088308 -0.10387113 0.04132721
-0.1685939 -0.10219377 -0.2221951 0.20943697 -0.008511622 -0.01611711 0.03524116 -0.19236985
0.018632252 -0.17096922 -0.11773191 -0.06806521 0.23158017 0.11495761 0.094326556 0.030729096
0.118204966 0.013112863 -0.06938727 0.0840947 -0.021951446 0.22521438 0.2071868 0.17195435
-0.08212518 -0.15568559 -0.22092696 -0.14342344 0.10020426 -0.0033012775 0.17108047 0.05011053
-0.08175199 0.11082543 -0.10475685 -0.016004175 -0.011702745 0.17084275 0.08746353 -0.20519651
0.15520161 0.049861107 0.28567296 -0.06551656 -0.04756761 0.11276312 0.079897106 -0.054787844
-0.31270203 -0.02831001 0.040043026 -0.026016973 -0.24173574 -0.12659419 0.1926375 -0.28680623
0.12759878 0.18210292 0.13356085 0.0030355714 -0.071115635 0.18394499 0.15167409 0.010986269
00000000: b650 53be e308 80be 02be 84bd d701 f23d
00000010: 74dc c53c 86b2 263e da74 b8bd 0f10 1cbe
00000020: e4c0 7dbd f548 32bd b229 393d 83ab 39bd
00000030: 44c6 c9bd 9f65 6f3e 5c63 d9bd 9cf7 5f3d
00000040: 085b ad3d 2578 22be 155a ab3d 5d21 8d3d
00000050: 06ab 333e 6331 8c3e d2bc d63e 85f4 cd3d
00000060: d285 c6bd 8592 71bd f7f0 3b3d 587f 4b3e
00000070: 7a15 1b3d 45a9 c3bd 544d 0d3e cc40 77be
00000080: 1227 053e 7bea 8ebc 95fe 523d fdec b4bd
00000090: 783e 4e3d b5ca 073e 3815 f5bd 8d68 ccbd
000000a0: 1946 babe d772 103e 4fa6 f8bd be7c 4a3e
000000b0: 343e bcbd aeaf 433c 2ea1 92bd 063c 1dbe
000000c0: f66e 083e bdca 36bd 35f6 7e3a 9043 25be
000000d0: 2060 063e 3e8d 9ebd 7eec fdbd bc56 50be
000000e0: c00b 07be c403 83bc 9d94 7d3e 56f8 1fbe
000000f0: 5bbc 9d3d 6519 c8bd 08d5 713e 328c 2bbd
00000100: 9e8b 75bd 8530 d4bd 2b38 063e 3556 86bd
00000110: 7b8a f7bd fdf4 583e 7ad0 d0bc 00d8 5d3c
00000120: 0636 3dbc e054 44be 3ccd 16be 1d61 843d
00000130: 6f2f 2cbe f3f1 f5bc 6e2f aa3d 9c97 5cbe
00000140: 50b9 443e e8cd 8d3e 03db aebc 6729 2e3d
00000150: 763e ef3d 4c21 2fbd c137 653c 6f18 24be
00000160: 5087 54be 98da d2bd 6ff0 e3bd 0fe4 ef3c
00000170: 9245 cf3d cd44 9bbc a240 ec3d 5caf 4d3e
00000180: 966a 363e f065 583e 075c ecbd e049 223d
00000190: 58a4 48bd de0a 7cbd eca8 7e39 bc5b 42be
000001a0: 03b8 86bd df72 563d f665 d93d f396 03be
000001b0: b579 ee3d 1039 323d c3bc dd3b dd84 c4bd
000001c0: 4b18 02be 744f 423c aad6 28bc 28f3 29be
000001d0: aabb 543e b96a 823d 0ba2 b5bd 8415 a5bd
000001e0: 9529 cdbc e582 a0bd a8c0 6fbd ef84 c8bd
000001f0: 3ed4 16be 1d3e 373e 2c80 94bc 5a09 373e
00000200: 507d 053d 73a8 e53d a9e4 923e b197 023e
00000210: cf61 3e3e 8282 653e b06a c5bd 7616 4dbe
00000220: 9b46 853d 65b5 f8bd 5e77 62be 8d85 88bd
00000230: 359f 83bc 6601 3c3e f3be 173d 3697 17be
00000240: 06c1 953c 3acf d03d 8e16 8d3e 2f8b f73d
00000250: e750 7b3d 6450 5f3e 9945 913d bc30 78bd
00000260: 5bb3 16be 1942 ddbc 86d7 01be f2e6 193d
00000270: a4f9 8ebd 85a4 b3bd 560f 443d 5dd8 1c3e
00000280: bbf8 29bd d79b 45bd e915 79be 6c2e e1bb
00000290: 7f0e f13d 492d 833d 639f d43d 9e4c ab3d
000002a0: 29c0 d63d 986a 543d c3ad 00bd c082 18be
000002b0: 0495 9dbd 8488 193e 9371 e13d 276e 8f3d
000002c0: 82bc b73d 40ab 123e f9ef 893e 4171 493e
000002d0: 21d8 aa3d b82f 67bd f383 b7bd 93c1 6dbd
000002e0: 7fac 12be c2c5 24be bc94 0ebe 99c1 11be
000002f0: afda 24be 1881 1abe 63ba d4bd b846 293d
00000300: e1a3 2cbe f84a d1bd 1d87 63be a576 563e
00000310: 5574 0bbc 0808 84bc 0959 103d 9afc 44be
00000320: aaa2 983c 8e12 2fbe 6d1d f1bd c665 8bbd
00000330: 5a23 6d3e e56e eb3d 482e c13d 96bb fb3c
00000340: 7215 f23d 55d7 563c ea1a 8ebd d839 ac3d
00000350: 85d3 b3bc 999e 663e c728 543e cd14 303e
00000360: 3f31 a8bd 0b6c 1fbe ad3a 62be 98dd 12be
00000370: e437 cd3d 3f5a 58bb b82f 2f3e b340 4d3d
00000380: 966d a7bd 71f8 e23d c28a d6bd 301b 83bc
00000390: dfbc 3fbc 67f1 2e3e 1420 b33d 091f 52be
000003a0: 2ced 1e3e 293b 4c3d ba43 923e 8c2d 86bd
000003b0: 41d6 42bd 5af0 e63d 18a1 a33d 3869 60bd
000003c0: 7b1a a0be 65ea e7bc 2804 243d 8c21 d5bc
000003d0: 9389 77be e8a1 01be c442 453e 44d8 92be
000003e0: 41a9 023e 3079 3a3e 2dc4 083e 70f0 463b
000003f0: 13a5 91bd 135c 3c3e 7450 1b3e c1ff 333c

bn1.weight f4 [32]
1.0141487 0.9654093 0.84735787 1.0043595 0.9483554 0.98281586 1.1177169 0.99736154
1.1392014 1.0982224 0.9324368 1.101506 0.9537791 1.0422214 0.93531245 1.0836065
0.95121217 0.99188375 1.0474447 1.0703462 1.0634389 1.0911404 0.88003033 1.1774089
0.9438268 0.8877019 0.9790273 0.9540085 0.91442347 0.79933894 0.9580533 1.016282
00000000: a0cf 813f 1025 773f 72ec 583f da8e 803f
00000010: 6bc7 723f d299 7b3f 5911 8f3f 1653 7f3f
00000020: 5ad1 913f 8d92 8c3f 2eb4 6e3f 26fe 8c3f
00000030: de2a 743f 8367 853f a370 6f3f 9eb3 8a3f
00000040: a482 733f 18ec 7d3f ab12 863f 1b01 893f
00000050: c41e 883f 7daa 8b3f ab49 613f 56b5 963f
00000060: a29e 713f 6f40 633f 88a1 7a3f e739 743f
00000070: a817 6a3f 7aa1 4c3f fb42 753f 8715 823f

bn1.bias f4 [32]
0.08613829 0.053485986 -0.040268958 0.017382624 -0.02279438 0.08401988 -0.0027187217 0.016362436
0.05940989 0.14630137 0.070024036 -0.00896205 0.005070443 0.09315044 -0.024660844 0.049795654
-0.016135685 0.019150028 0.027560305 -0.13501883 -0.12499345 -0.039656434 0.092393756 0.07697619
-0.008791271 -0.0111327935 0.026194213 -0.015121785 -0.014473727 -0.008637841 0.012449808 -0.07607459
00000000: 4669 b03d 1f14 5b3d 10f1 24bd 0166 8e3c
00000010: 48bb babc 9d12 ac3d 952c 32bb 840a 863c
00000020: c957 733d 07d0 153e c368 8f3d 90d5 12bc
00000030: f525 a63b a8c5 be3d 8a05 cabc 87f6 4b3d
00000040: fc2e 84bc 85e0 9c3c 26c6 e13c 6042 0abe
00000050: 91fc ffbd c96e 22bd f038 bd3d b1a5 9d3d
00000060: 4309 10bc 5266 36bc 3f95 d63c 5dc1 77bc
00000070: 3623 6dbc bb85 0dbc 48fa 4b3c ffcc 9bbd

bn1.running_mean f4 [32]
-0.0131528685 0.008551283 0.0067933947 0.0004213976 -0.020805756 -0.0013442044 0.0073823277 -0.022623831
0.0037087044 0.00060676277 -0.0061352374 0.0051834933 -0.0026541406 -0.001160255 -0.016509274 -2.49738e-05
-0.00094702037 -0.0023243865 -0.006064702 -0.0061842767 0.00071337254 -0.0006680491 -0.0006507316 -0.00210309
0.007437582 0.013647579 -0.012298599 0.002016298 0.0146737145 0.022625398 -0.0077805347 0.004100781
00000000: 217f 57bc ae1a 0c3c 209b de3b 07ef dc39
00000010: d570 aabc 0430 b0ba 74e7 f13b 9d55 b9bc
00000020: bc0d 733b 290f 1f3a 1a0a c9bb 4bda a93b
00000030: 17f1 2dbb b313 98ba 753e 87bc d47e d1b7
00000040: 7641 78ba bc54 18bb 68ba c6bb 79a5 cabb
00000050: 9f01 3b3a 0420 2fba dc95 2aba ffd3 09bb
00000060: f6b6 f33b 189a 5f3c 1080 49bc de23 043b
00000070: 056a 703c e658 b93c dbf3 febb d85f 863b

bn1.running_var f4 [32]
0.8623773 0.2820699 0.9614326 0.13586168 0.81506896 0.10790714 0.36508206 0.6079199
0.11479039 0.1006253 0.7040788 0.14116648 0.6104524 0.10986346 1.1347822 0.10505762
0.45228946 0.20531473 0.09024218 0.26061538 0.47097751 0.24440973 0.8184816 0.104301736
0.2548621 1.6592677 0.5408574 0.12334676 0.9579907 2.155568 0.27525425 0.30306342
00000000: c2c4 5c3f 776b 903e 7220 763f 531f 0b3e
00000010: 5ca8 503f 6bfe dc3d 09ec ba3e a3a0 1b3f
00000020: 3917 eb3d a314 ce3d 823e 343f f28d 103e
00000030: 9c46 1c3f 1800 e13d 8b40 913f 7328 d73d
00000040: 7c92 e73e 063e 523e e4d0 b83d 616f 853e
00000050: f723 f13e 8b46 7a3e 0388 513f 269c d53d
00000060: 497d 823e e262 d43f a175 0a3f 3a9d fc3d
00000070: e13e 753f d3f4 0940 20ee 8c3e 212b 9b3e

layers.0.conv1.weight f4 [32, 32, 1, 1]
-0.035458114 0.16649619 0.14274442 0.22167465 -0.102170914 -0.1011631 -0.04163228 0.09730066
0.06187982 -0.2026386 0.16450371 -0.04542811 -0.04194003 -0.015251383 -0.02728667 0.07231518
0.24043536 0.008533721 0.015203064 -0.021259094 0.09369263 0.28519842 0.013098238 -0.27292535
0.11958154 -0.0499637 -0.031490088 -0.0005562919 -0.030134965 -0.064973354 -0.01150114 0.026272085
0.1075863 -0.0565131 -0.06989928 0.211697 -0.1431817 0.060062744 -0.09050447 -0.3236022
0.06829083 -0.0501613 0.022107238 0.17024963 0.17791617 -0.16628388 0.063886255 0.038525507
-0.061375644 -0.063824676 -0.08631911 -0.10707086 0.065014385 0.13456412 -0.0052307714 0.087352365
0.025103072 -0.013890737 0.12782404 -0.03717854 0.033282015 0.05927164 -0.060746945 -0.04383555
-0.105431035 -0.25676423 0.14105414 -0.14973135 -0.0052523976 0.007814604 -0.11968171 0.069176465
-0.1915311 -0.08252958 -0.08680842 -0.14618637 0.02931404 -0.25387046 -0.12390689 -0.19602175
0.116011135 0.06031645 -0.05905393 0.22211894 0.063256495 -0.031432975 -0.0050981576 -0.13882852
-0.04386322 0.034969915 0.07438891 -0.23135594 -0.08599258 -0.16509293 -0.061977886 0.09084718
0.07701413 0.0535834 -0.0029915574 -0.032281473 0.060651623 0.17641416 -0.12909208 0.21252489
-0.13322476 0.065035 -0.16104798 -0.04981099 0.12344008 0.17867067 -0.024655024 -0.16620257
-0.2152563 -0.08609291 0.087613456 -0.1684626 -0.1697897 -0.16112569 -0.17727427 0.03922831
-0.18318689 -0.07114055 0.18430942 -0.035081584 -0.13117139 0.0022655216 0.101273164 0.09618931
0.083849564 0.04480324 0.06133058 -0.06511062 0.07547914 0.09031125 0.0055455673 -0.08815836
-0.10692688 -0.030712262 0.1959153 -0.12800002 -0.10239937 -0.109562 -0.11551643 -0.1360823
0.09729507 -0.16412465 0.07704082 -0.16446432 -0.08077766 -0.13279158 0.03529841 0.3282794
0.14508761 -0.045620855 -0.03775785 -0.22037733 -0.020834358 -0.12584606 0.07286972 -0.021799812
-0.12484451 0.1675808 -0.03587428 -0.21632719 -0.18260072 -0.1450596 -0.13073681 0.011194336
-0.056752402 0.07092049 -0.12851119 -0.06429924 -0.10134608 -0.047097843 -0.13949206 -0.025993323
-0.23147254 0.024870932 0.026533587 -0.24890201 -0.16218291 -0.124070704 0.023019541 -0.0036376328
0.108897924 0.03007156 -0.008111219 -0.100125715 0.098432615 -0.035863545 -0.15785393 0.22524801
0.078416646 0.04981241 0.11768817 -0.06290024 -0.003980751 0.004906821 0.008796507 -0.048544317
-0.10104258 0.07961536 -0.046116628 -0.19615714 -0.18304922 -0.0072839176 0.19182752 -0.18507215
0.054580934 -0.16381782 -0.13380142 -0.1579078 0.031679284 -0.26143932 0.21699505 0.11452545
-0.17433652 0.13509956 -0.061640993 -0.0784901 0.14998725 -0.095090486 0.052529372 -0.010614053
0.12522793 -0.27278945 0.17531022 -0.1491586 -0.090534635 0.11344099 0.19038199 0.16830209
-0.08954429 -0.07663992 -0.14034113 0.21644358 0.050734103 -0.03436997 0.13116647 0.0144414725
0.069214635 -0.086670235 -0.12260131 0.19487089 0.28803465 0.071767695 -0.07700303 0.20094243
-0.06478019 -0.07125029 0.085660845 -0.10822624 0.1663106 0.060341604 0.10041219 0.09844537
00000000: 873c 11bd fa7d 2a3e 982b 123e aefe 623e
00000010: fc3e d1bd 992e cfbd 9c86 2abd 9245 c73d
00000020: b275 7d3d 7e80 4fbe a973 283e d312 3abd
00000030: 4fc9 2bbd f0e0 79bc 4b88 dfbc fb19 943d
00000040: b034 763e 05d1 0b3c 4616 793c 8d27 aebc
00000050: ece1 bf3d 8705 923e fe99 563c dfbc 8bbe
00000060: 2be7 f43d bda6 4cbd c0fb 00bd 1ed4 11ba
00000070: 9add f6bc c010 85bd 476f 3cbc 8e38 d73c
00000080: 3556 dc3d 487a 67bd 5b27 8fbd 19c7 583e
00000090: 399e 12be 5a04 763d 685a b9bd 30af a5be
000000a0: 10dc 8b3d ef75 4dbd 3d1a b53c eb55 2e3e
000000b0: a82f 363e 5246 2abe ccd6 823d eccc 1d3d
000000c0: 0765 7bbd 83b6 82bd 13c8 b0bd f847 dbbd
000000d0: 4326 853d 2dcb 093e e466 abbb cce5 b23d
000000e0: f5a4 cd3c f995 63bc 4ee4 023e 8648 18bd
000000f0: b952 083d d2c6 723d cad1 78bd e88c 33bd
00000100: 3aec d7bd 9a76 83be 7f70 103e 2d53 19be
00000110: 4e1c acbb d308 003c af1b f5bd 64ac 8d3d
00000120: bb20 44be 4505 a9bd 9dc8 b1bd e1b1 15be
00000130: ff23 f03c 4ffb 81be e5c2 fdbd edb9 48be
00000140: 3f97 ed3d 620e 773d 89e2 71bd 2673 633e
00000150: 9f8c 813d ddbf 00bd 720e a7bb 1029 0ebe
00000160: eba9 33bd 9d3c 0f3d 3659 983d 92e8 6cbe
00000170: e11c b0bd 1f0e 29be 86dc 7dbd 160e ba3d
00000180: 96b9 9d3d 447a 5b3d 010e 44bb 9439 04bd
00000190: d66d 783d eaa5 343e b730 04be 20a0 593e
000001a0: 126c 08be 1231 853d c3e9 24be 9c06 4cbd
000001b0: 27ce fc3d 72f5 363e 55f9 c9bc 0231 2abe
000001c0: 266c 5cbe 7b51 b0bd af6e b33d 7681 2cbe
000001d0: 5add 2dbe 22fe 24be 6387 35be ddad 203d
000001e0: 5895 3bbe 23b2 91bd 9cbb 3c3e b5b1 0fbd
000001f0: cb51 06be 2579 143b 4e68 cf3d e7fe c43d
00000200: 52b9 ab3d 9a83 373d c635 7b3d b758 85bd
00000210: cf94 9a3d 1bf5 b83d 97b7 b53b 5f8c b4bd
00000220: 7bfc dabd 4898 fbbc 059e 483e 7012 03be
00000230: c3b6 d1bd 0b62 e0bd e193 ecbd 2959 0bbe
00000240: a342 c73d 4b10 28be 94c7 9d3d 5669 28be
00000250: c26e a5bd 84fa 07be 1195 103d 3d14 a83e
00000260: d991 143e efdc 3abd faa7 1abd 98aa 61be
00000270: d1ac aabc cadd 00be b83c 953d 8595 b2bc
00000280: 7aae ffbd 4d9a 2b3e e9f0 12bd e084 5dbe
00000290: affb 3abe 818a 14be dfdf 05be 7368 373c
000002a0: 3575 68bd c33e 913d 7098 03be 52af 83bd
000002b0: 898e cfbd abe9 40bd 02d7 0ebe f3ef d4bc
000002c0: 2307 6dbe 20be cb3c f75c d93c 2be0 7ebe
000002d0: 4713 26be c818 febd 7a93 bc3c 5a65 6ebb
000002e0: e005 df3d a258 f63c ebe4 04bc b60e cdbd
000002f0: 0a97 c93d a7e5 12bd 76a4 21be 6aa7 663e
00000300: e898 a03d 1908 4c3d 7f06 f13d d7d1 80bd
00000310: f670 82bb 66c9 a03b 391f 103c 68d6 46bd
00000320: 6aef cebd 610d a33d cae4 3cbd 6bdd 48be
00000330: 4171 3bbe eead eebb 6f6e 443e 8e83 3dbe
00000340: 4290 5f3d dcbf 27be 3d03 09be 95b2 21be
00000350: 23c2 013d 60db 85be f333 5e3e 528c ea3d
00000360: 4685 32be 8a57 0a3e 447b 7cbd 6bbf a0bd
00000370: 4296 193e cdbe c2bd 0a29 573d 91e6 2dbc
00000380: c03b 003e 0fab 8bbe 8684 333e 08bd 18be
00000390: 396a b9bd c053 e83d 7ff3 423e 6257 2c3e
000003a0: ff62 b7bd 64f5 9cbd 96b5 0fbe 63a3 5d3e
000003b0: 90ce 4f3d 87c7 0cbd 8150 063e ed9b 6c3c
000003c0: 67c0 8d3d 2a80 b1bd 6516 fbbd 3c8c 473e
000003d0: 4779 933e f1fa 923d c4b3 9dbd dac3 4d3e
000003e0: 7aab 84bd aceb 91bd f46e af3d b8a5 ddbd
000003f0: 534d 2a3e c228 773d e8a4 cd3d ba9d c93d

layers.0.bn1.weight f4 [32]
0.82647425 0.45789567 0.42299044 0.97481275 0.31741965 0.8761583 0.51808524 0.6192358
0.6624782 0.94473857 1.0850253 0.98974067 0.9499947 0.63486487 1.0290802 0.91418993
0.8076192 1.0690963 0.9107688 0.8570595 0.70112765 1.5303946 0.706239 0.59680325
1.1332288 0.3791625 1.0950139 0.93850434 0.42843685 0.5228905 0.5665911 0.59628713
00000000: d193 533f 4d71 ea3e 3492 d83e 548d 793f
00000010: d484 a23e e94b 603f 3ca1 043f 3d86 1e3f
00000020: 2c98 293f 63da 713f 1ce2 8a3f a55f 7d3f
00000030: da32 733f 8186 223f e6b8 833f 5a08 6a3f
00000040: 22c0 4e3f 26d8 883f 2528 693f 4068 5b3f
00000050: 1a7d 333f f8e3 c33f 14cc 343f 19c8 183f
00000060: a40d 913f 9621 c23e 6a29 8c3f d241 703f
00000070: 135c db3e 27dc 053f 1d0c 113f 46a6 183f

layers.0.bn1.bias f4 [32]
-0.12529545 0.4144912 0.47728905 0.14779307 0.49990743 -0.13002239 0.4474441 0.35521692
0.308621 0.06672059 0.07226964 0.13231423 0.099982895 0.31901684 -0.009910011 0.07671143
-0.20684274 0.08480826 0.1427393 -0.15521142 0.27472162 -0.04686198 -0.257008 0.33514544
0.11946181 0.49944404 0.12094071 -0.060419127 0.44173816 0.350651 0.35570303 0.36733365
00000000: 734d 00be 3138 d43e 3b5f f43e 1157 173e
00000010: def3 ff3e 9724 05be 6517 e53e fede b53e
00000020: 9203 9e3e cea4 883d 1b02 943d 627d 073e
00000030: d5c3 cc3d 2d56 a33e 995d 22bc e21a 9d3d
00000040: 95ce 53be f4af ad3d 402a 123e beef 1ebe
00000050: 50a8 8c3e 59f2 3fbd 8d96 83be 2f98 ab3e
00000060: 65a8 f43d 21b7 ff3e c3af f73d 0c7a 77bd
00000070: 812b e23e 8788 b33e b51e b63e 2813 bc3e

layers.0.bn1.running_mean f4 [32]
-0.05835171 0.008640046 -0.1382241 0.07286937 0.06755132 0.028726365 0.040250435 -0.09806543
-0.006525095 0.046590026 -0.058600012 0.06954788 -0.1129601 0.017532216 0.025012594 0.06597056
-0.01463036 -0.018597001 0.037647378 0.09504866 -0.022833506 0.020498214 0.0029707446 -0.022734804
0.055355243 0.092697665 -0.09771311 -0.04227957 0.08431266 -0.061366968 0.12910475 -0.016194506
00000000: 3402 6fbd fb8e 0d3c 9e8a 0dbe 893c 953d
00000010: 5958 8a3d 8e53 eb3c a4dd 243d 87d6 c8bd
00000020: 77d0 d5bb 2fd5 3e3d 9106 70bd 1e6f 8e3d
00000030: a057 e7bd b99f 8f3c 36e7 cc3c 931b 873d
00000040: 2db4 6fbc bd58 98bc 2334 1a3d dfa8 c23d
00000050: 550d bbbc dfeb a73c d3b0 423b 573e babc
00000060: 2ebc 623d 46d8 bd3d d01d c8bd 582d 2dbd
00000070: 1eac ac3d ee5b 7bbd 0934 043e 57aa 84bc

layers.0.bn1.running_var f4 [32]
1.2337726 0.47650853 0.38593364 1.655888 0.54610574 2.715959 0.91389614 1.1592889
1.4240072 0.8965727 0.70451874 1.5516887 1.0654718 0.91247493 1.5419495 1.1121213
1.5169711 0.4027076 1.046285 0.9149348 1.1107541 0.97911847 1.3505262 0.65258616
0.7811458 0.6105261 1.4306964 1.3534617 2.313793 0.79073787 1.8894415 2.262628
00000000: 43ec 9d3f edf8 f33e 1899 c53e 23f4 d33f
00000010: 96cd 0b3f 46d2 2d40 19f5 693f 9463 943f
00000020: de45 b63f ca85 653f 575b 343f bc9d c63f
00000030: 6161 883f f597 693f 9a5e c53f fe59 8e3f
00000040: 1c2c c23f b12f ce3e abec 853f 2b39 6a3f
00000050: 312d 8e3f 82a7 7a3f 0bde ac3f e30f 273f
00000060: 2cf9 473f 704b 1c3f 0f21 b73f 3c3e ad3f
00000070: 2f15 1440 cc6d 4a3f 38d9 f13f e6ce 1040

layers.0.conv2.weight f4 [32, 1, 3, 3]
0.10507842 0.14475289 0.14049649 0.08610877 0.30076045 0.17750314 -0.38181952 -0.05134512
0.31176013 0.12795015 0.39752433 0.26893076 -0.33505946 -0.3033845 -0.16761048 0.017407078
-0.09638527 0.0015744796 0.21134989 -0.34915906 0.17897783 -0.20930576 0.3023001 -0.12801595
-0.039504588 0.1457332 -0.09119005 -0.2639665 -0.30584577 -0.10760462 0.23429804 0.21269402
-0.12498494 0.23258437 -0.325598 -0.14444047 0.06920422 -0.03589418 -0.036638983 0.13797861
-0.32502627 0.09199818 0.43865135 -0.31742674 0.007825966 0.06234551 -0.31415096 -0.21071921
-0.28277266 -0.02710961 0.06448368 0.22974084 0.06414593 0.37971786 -0.13427371 0.1874329
-0.09195177 -0.032126628 0.23822826 -0.25499064 -0.13012306 0.23420897 -0.11105174 -0.22728035
0.19744706 0.058310516 -0.018131852 0.34938878 -0.16531152 0.32749817 -0.008564887 -0.30083787
0.011700203 0.2962797 0.017354665 0.32441887 -0.0678859 -0.18395731 0.0024177064 -0.075660266
-0.3656772 -0.36214265 0.2462093 -0.1611941 -0.10281571 -0.02208085 0.0034502053 -0.07687998
0.16330118 -0.20028567 -0.34243882 0.019864634 0.09046274 -0.06402969 0.11644733 0.2591458
0.11303202 0.25779346 -0.27312934 -0.17006554 -0.07202653 -0.028256837 -0.2427825 -0.06447194
0.18218923 0.23185475 0.25298074 0.017960437 -0.092264816 -0.19676977 0.21205647 -0.28066272
-0.041380648 -0.40836322 -0.34314984 0.2769314 -0.15557459 0.17252877 0.14407143 -0.26828626
0.04654683 -0.08689915 -0.11805162 0.013676402 -0.19527446 0.19923572 0.07568095 0.35587227
0.053965665 -0.37462035 -0.18168564 0.22148876 -0.27127594 -0.075735666 -0.19965297 -0.35827363
-0.48372704 -0.16663486 -0.046708167 -0.14407702 -0.18916199 0.17565677 -0.0375988 0.035707675
0.18384899 -0.17749423 -0.2780111 0.1810773 0.025654405 0.05043639 0.019281685 0.21215913
0.1560667 -0.10275062 -0.14716999 0.26312095 0.032855354 -0.2663748 0.27335402 -0.12091165
-0.23287146 -0.10286092 -0.1835781 -0.005979807 0.2434186 -0.09757057 -0.1465003 -0.018425176
0.18581207 -0.044176344 -0.19069012 -0.13973793 -0.02637209 -0.1371357 -0.46191058 -0.30037954
-0.15493932 -0.01379993 -0.20496078 0.036970306 0.1106592 0.33703235 0.2193742 -0.12607917
-0.004659 -0.33034053 0.065933935 0.008588835 -0.05845954 0.0644682 0.018307129 -0.19458674
0.15309508 0.17685243 -0.086218424 -0.25870654 0.03476003 0.21502814 0.08099111 0.14486313
0.006321044 0.11061846 0.33217862 0.11553868 0.26232395 0.21834265 -0.02314258 -0.1852222
0.23018278 0.30094993 0.18668577 0.23745379 -0.33734414 0.18868543 -0.35017213 -0.1854694
0.15714331 -0.050921507 0.019679075 -0.10936604 0.37817398 -0.026111156 0.26036903 -0.09765877
-0.32514167 -0.13836794 -0.2580648 0.11879768 0.26389936 0.032493938 -0.252958 -0.1425118
0.38216874 0.09614132 0.0013097882 -0.043731514 0.37788215 -0.2003929 0.07947353 -0.18567233
-0.0778274 -0.2690293 0.11528338 0.2582867 0.004775131 0.2974352 0.090583205 0.10701865
-0.34411794 -0.06489182 -0.31072584 -0.0051089246 0.058644406 -0.21208346 0.19998804 0.09807174
00000000: 5b33 d73d 1a3a 143e 50de 0f3e cb59 b03d
00000010: 46fd 993e 62c3 353e d97d c3be 434f 52bd
00000020: 069f 9f3e 5d05 033e 4f88 cb3e 4bb1 893e
00000030: ea8c abbe 3755 9bbe 15a2 2bbe 4a99 8e3c
00000040: a465 c5bd c55e ce3a 1b6c 583e fac4 b2be
00000050: f745 373e 4054 56be 14c7 9a3e 9d16 03be
00000060: 90cf 21bd 153b 153e d9c1 babd 9e26 87be
00000070: d197 9cbe d05f dcbd d3eb 6f3e 76cc 593e
00000080: 1bf8 ffbd 992a 6e3e c8b4 a6be 34e8 13be
00000090: f1ba 8d3d c705 13bd c212 16bd 444a 0d3e
000000a0: d869 a6be 8b69 bc3d e996 e03e c285 a2be
000000b0: 7b38 003c 015e 7f3d 65d8 a0be c7c6 57be
000000c0: 94c7 90be f914 debc 0510 843d 2f41 6b3e
000000d0: f15e 833d 616a c23e 0c7f 09be 69ee 3f3e
000000e0: 3651 bcbd 3697 03bd 1cf2 733e 228e 82be
000000f0: fb3e 05be 7ad4 6f3e 186f e3bd 2ebc 68be
00000100: 902f 4a3e 02d7 6e3d 4089 94bc 16e3 b23e
00000110: 6c47 29be d7ad a73e bd53 0cbc 6c07 9abe
00000120: 35b2 3f3c f9b1 973e 5f2b 8e3c 3b1a a63e
00000130: c307 8bbd 4e5f 3cbe 6272 1e3b c5f3 9abd
00000140: 0b3a bbbe c36a b9be 4a1e 7c3e 1110 25be
00000150: 0b91 d2bd e6e2 b4bc d71c 623b 4073 9dbd
00000160: 6d38 273e b017 4dbe 2454 afbe 28bb a23c
00000170: 8744 b93d 0022 83bd f07b ee3d c2ae 843e
00000180: 557d e73d 81fd 833e 9cd7 8bbe a925 2ebe
00000190: a582 93bd e27a e7bc fa9b 78be dd09 84bd
000001a0: d08f 3a3e 556b 6d3e b186 813e c421 933c
000001b0: 56f5 bcbd 047e 49be 5525 593e 06b3 8fbe
000001c0: c17e 29bd fc14 d1be 56b1 afbe f4c9 8d3e
000001d0: f24e 1fbe 62ab 303e 7687 133e d15c 89be
000001e0: e4a7 3e3d 2ef8 b1bd 0cc5 f1bd fd12 603c
000001f0: 07f6 47be 7304 4c3e 9dfe 9a3d e434 b63e
00000200: 1a0b 5d3d 3dce bfbe cd0b 3abe f3cd 623e
00000210: aee4 8abe 4d1b 9bbd d471 4cbe a46f b7be
00000220: 12ab f7be 54a2 2abe 1051 3fbd ed88 13be
00000230: aeb3 41be 5edf 333e 3301 1abd 3642 123d
00000240: e942 3c3e 0cc1 35be 7957 8ebe 546c 393e
00000250: 3029 d23c 6396 4e3d a0f4 9d3c 3e40 593e
00000260: f3cf 1f3e eb6e d2bd bbb3 16be cab7 863e
00000270: 5693 063d 4762 88be 0ff5 8b3e 87a0 f7bd
00000280: db75 6ebe bfa8 d2bd e6fb 3bbe 42f2 c3bb
00000290: ba42 793e 14d3 c7bd 2d04 16be 65f0 96bc
000002a0: 8545 3e3e 41f2 34bd 4544 43be 7617 0fbe
000002b0: 480a d8bc 4d6d 0cbe 8b7f ecbe 59cb 99be
000002c0: 6aa8 1ebe 1a19 62bc 3de1 51be 2d6e 173d
000002d0: 4aa1 e23d 818f ac3e a1a3 603e e61a 01be
000002e0: 86aa 98bb 6522 a9be 5f08 873d 2fb8 0c3c
000002f0: 4573 6fbd e707 843d d5f8 953c bf41 47be
00000300: f5c4 1c3e ce18 353e 4993 b0bd 2f75 84be
00000310: 8960 0e3d 5630 5c3e abde a53d 0057 143e
00000320: c320 cf3b ee8b e23d 5113 aa3e 8b9f ec3d
00000330: 534f 863e 3795 5f3e 8295 bdbc e3aa 3dbe
00000340: 09b5 6b3e 1c16 9a3e 8e2a 3f3e 1627 733e
00000350: 5fb8 acbe c136 413e c349 b3be b1eb 3dbe
00000360: 2dea 203e 1293 50bd 0336 a13c 4dfb dfbd
00000370: 05a0 c13e 10e7 d5bc 174f 853e 5201 c8bd
00000380: f878 a6be 53b0 0dbe 1221 84be 334c f33d
00000390: d11d 873e 5d18 053d b683 81be 9dee 11be
000003a0: 9fab c33e bee5 c43d 33ad ab3a d11f 33bd
000003b0: c579 c13e cc33 4dbe 05c3 a23d e320 3ebe
000003c0: f963 9fbd 35be 89be b119 ec3d 283e 843e
000003d0: b478 9c3b 6d49 983e b083 b93d 982c db3d
000003e0: 3a30 b0be 01e6 84bd 7517 9fbe c468 a7bb
000003f0: 1e35 703d 682c 59be aac9 4c3e d6d9 c83d

layers.0.bn2.weight f4 [32]
0.8917729 1.1457608 1.0626419 0.95985603 1.1891578 1.007938 1.1773305 1.2159531
1.0916054 0.88100517 1.0587934 1.025699 0.9016826 1.1061138 0.94206285 0.9595852
1.0914521 0.9118678 1.0414329 0.99721396 1.026306 0.9766271 1.0139865 0.8725963
1.0591643 1.0681944 0.98244405 0.9395572 1.0772128 1.2083184 0.884581 1.0916617
00000000: 3b4b 643f 4aa8 923f a604 883f 20b9 753f
00000010: 5336 983f 1d04 813f c4b2 963f 5aa4 9b3f
00000020: bab9 8b3f 8e89 613f 8b86 873f 1b4a 833f
00000030: acd4 663f 2395 8d3f 082b 713f 60a7 753f
00000040: b4b4 8b3f 2b70 693f ac4d 853f 6a49 7f3f
00000050: ff5d 833f 3c04 7a3f 4fca 813f 7962 5f3f
00000060: b292 873f 98ba 883f 7481 7b3f d286 703f
00000070: 1ce2 893f 2daa 9a3f e773 623f 92bb 8b3f

layers.0.bn2.bias f4 [32]
-0.055068906 -0.104204476 -0.045847382 0.011351783 -0.13835458 -0.09116052 -0.0030601076 0.043609828
-0.15020691 0.0396552 0.012604353 0.0893525 -0.022831967 -0.07676227 0.028614165 0.10542545
-0.017795129 0.032280494 -0.037290245 0.22041444 -0.030543039 -0.12784457 0.50369555 -0.15291119
-0.051347982 -0.060770858 0.19442387 -0.2653466 -0.008709583 -0.11214547 0.15298645 -0.2202323
00000000: ef8f 61bd 2869 d5bd 77ca 3bbd d4fc 393c
00000010: d3ac 0dbe 5eb2 babd 168c 48bb 38a0 323d
00000020: d7cf 19be 7e6d 223d 7d82 4e3c 72fe b63d
00000030: 1b0a bbbc 8935 9dbd 4168 ea3c 4ce9 d73d
00000040: 17c7 91bc 8d38 043d a8bd 18bd 53b4 613e
00000050: 6535 fabc b0e9 02be 31f2 003f c094 1cbe
00000060: 4352 52bd ddea 78bd 0d17 473e 82db 87be
00000070: a4b2 0ebc 86ac e5bd 7ba8 1c3e 9384 61be

layers.0.bn2.running_mean f4 [32]
0.18852971 -0.054402657 0.011604366 -0.24751598 -0.0003813108 0.0038795022 -0.04931369 0.09296692
-0.03209131 -0.17399862 0.10467402 0.06174116 -0.3836276 -0.05071025 -0.14872108 -0.427102
0.07319922 -0.18599464 -0.10664454 -0.32109782 0.061687388 0.06950746 0.16354436 0.025474444
0.08467479 0.060098756 -0.091011316 -0.0031851963 -0.04711531 -0.042482164 0.21695136 0.071458876
00000000: ef0d 413e 52d5 5ebd 3d20 3e3c d474 7dbe
00000010: abea c7b9 3f3f 7e3b 27fd 49bd 7165 be3d
00000020: 2d72 03bd b22c 32be 555f d63d 4ce4 7c3d
00000030: d66a c4be 8db5 4fbd 574a 18be 1dad dabe
00000040: 79e9 953d 6175 3ebe 7468 dabd ef66 a4be
00000050: eaab 7c3d ed59 8e3d 2c78 273e c8af d03c
00000060: fa69 ad3d 1d2a 763d 2464 babd babe 50bb
00000070: fcfb 40bd c701 2ebd 7f28 5e3e 0859 923d

layers.0.bn2.running_var f4 [32]
0.17449465 0.099084996 0.026966767 0.14933543 0.05867608 0.036127347 0.071259275 0.058145493
0.05876647 0.05441634 0.14520237 0.03091264 0.29221082 0.030430602 0.108887576 0.40280992
0.05503952 0.19828473 0.068330415 0.27491993 0.09382748 0.12351185 0.10831623 0.042962737
0.052920382 0.037309684 0.052137308 0.032832153 0.015234849 0.1053091 0.060093276 0.07304394
00000000: baae 323e 13ed ca3d 69e9 dc3c 63eb 183e
00000010: 5456 703d 45fa 133d 62f0 913d f829 6e3d
00000020: 1cb5 703d abe3 5e3d eeaf 143e 813c fd3c
00000030: a89c 953e 9949 f93c 7300 df3d 1a3d ce3e
00000040: 1f71 613d 270b 4b3e d1f0 8b3d 4ec2 8c3e
00000050: 9f28 c03d c8f3 fc3d e6d4 dd3d b2f9 2f3d
00000060: 0bc3 583d 0ad2 183d ee8d 553d 027b 063d
00000070: 979b 793c 4cac d73d 5e24 763d 1098 953d

layers.0.conv3.weight f4 [12, 32, 1, 1]
0.021730103 -0.17876554 -0.031537633 0.08686007 -0.2630806 0.1558383 -0.23995106 0.16738766
0.34933692 -0.17391546 0.0036601026 0.03275856 -0.06964055 0.058998615 0.04796997 0.021612223
-0.00079354807 -0.014929297 -0.011242064 -0.05105661 -0.1742773 -0.028496329 0.054565545 0.12412974
-0.08994958 -0.14597645 -0.0073150257 0.021933734 0.08028093 -0.16992033 0.11713813 -0.17928103
0.06251388 0.09871211 0.055997293 -0.25252092 -0.27831015 0.116674334 -0.1665853 0.1300759
0.11247447 0.111319356 0.10998045 -0.09550607 0.05654583 0.19640166 -0.02492399 -0.06812798
-0.123886414 -0.0308349 0.13145576 0.1319688 -0.10452623 0.0806396 0.019362288 0.13841428
0.08427536 -0.14818157 0.0017608966 -0.055306222 -0.053678352 -0.16176172 0.11430143 0.14998864
-0.09805203 0.20972241 -0.122898445 -0.16122204 -0.120919995 0.12051892 -0.04252709 -0.17474577
0.03784763 -0.035217904 0.024479587 -0.05436166 0.13029625 -0.17459233 -0.053894453 0.05556615
-0.0043602856 -0.004550293 -0.119656 -0.12825026 0.15430425 0.14480445 0.19194113 -0.13277479
0.16809107 0.07938844 0.113402866 0.09006195 -0.16288438 -0.24931015 0.09339316 -0.18443947
0.13330646 0.013922766 0.12758668 -0.010572156 -0.16429505 0.055920713 -0.050769083 0.05015725
-0.015391153 -0.05536853 -0.09028138 0.20250492 -0.15148576 -0.03593286 0.14142555 0.027559571
-0.013810525 -0.1987551 0.185507 0.10232409 -0.059588652 0.29689884 0.25329366 -0.0791156
0.038532417 0.3227607 -0.048401896 -0.027543638 0.18042758 -0.20812576 0.05239099 -0.070558794
-0.072173476 0.14873363 -0.13118103 0.10724369 -0.018068831 0.08285493 0.15560274 0.22402069
0.030457066 0.014600049 0.007300123 -0.124394186 0.14873947 0.10472065 0.19636972 0.08408231
0.20534626 -0.10698214 0.20096248 -0.037058856 0.002795662 -0.008564432 -0.168715 0.108120695
0.05971042 0.021674186 -0.092662625 0.24298216 -0.27803358 -0.023024479 0.030751776 -0.05087769
-0.19711892 -0.09273588 0.2499977 -0.027513014 0.21209447 0.019334901 0.1596206 0.14701782
0.050169203 -0.029132558 -0.03318012 -0.10357286 0.16517167 0.16728231 -0.12382842 0.072917655
-0.21026449 -0.032374 0.023917738 -0.111884035 -0.09342778 0.051059723 -0.18535525 -0.041111194
0.061404034 0.16893207 0.056721855 -0.1275376 0.013974583 -0.057523493 -0.029215647 -0.20251931
0.17828035 -0.12527865 -0.0152530195 -0.034066938 0.07139188 -0.14951763 0.14069098 -0.16599412
-0.06188397 0.16973014 0.22882198 -0.17322366 -0.090399146 -0.18025011 0.030550685 -0.18653142
-0.041982204 0.14407496 0.064795874 -0.0009160457 -0.11724185 -0.12497218 -0.02231943 0.057559792
0.24358001 -0.04042474 0.043643806 0.012722428 -0.021657031 0.09086794 0.06368425 -0.22924472
-0.076736294 0.018162789 -0.020614814 -0.2160745 0.15513934 0.046422113 0.1737588 0.1327231
0.14605655 -0.19900057 0.29650941 0.16058134 -0.15052103 -0.012964135 0.12107069 -0.12604937
0.03565183 -0.08584066 -0.072857335 0.106761746 -0.033280775 -0.07453602 0.15951703 0.002578948
-0.002943252 -0.04064554 0.04032421 0.055620186 -0.25952464 0.069416456 0.042302784 0.16003026
00000000: 5403 b23c 500e 37be 9b2d 01bd b1e3 b13d
00000010: 80b2 86be 1394 1f3e bbb5 75be ac67 2b3e
00000020: 4adc b23e e516 32be 55de 6f3b d72d 063d
00000030: b49f 8ebd 88a8 713d 297c 443d 1e0c b13c
00000040: 1c06 50ba 039a 74bc a230 38bc bc20 51bd
00000050: c075 32be 2271 e9bc 1f80 5f3d bc37 fe3d
00000060: 7c37 b8bd da7a 15be e2b2 efbb 60ae b33c
00000070: 546a a43d 98ff 2dbe 1ee6 ef3d 7295 37be
00000080: 4707 803d 9329 ca3d 6b5d 653d 6c4a 81be
00000090: ab7e 8ebe f4f2 ee3d 5695 2abe 9e32 053e
000000a0: 0459 e63d 67fb e33d 6e3d e13d b098 c3bd
000000b0: 9a9c 673d 841d 493e 652d ccbc af86 8bbd
000000c0: 29b8 fdbd 7999 fcbc 579c 063e d422 073e
000000d0: d911 d6bd 6026 a53d a99d 9e3c 79bc 0d3e
000000e0: 8f98 ac3d e9bc 17be e3cd e63a c788 62bd
000000f0: d5dd 5bbd dda4 25be de16 ea3d 9f96 193e
00000100: 81cf c8bd 79c1 563e 2eb2 fbbd 6417 25be
00000110: e7a4 f7bd a0d2 f63d e330 2ebd 8ef0 32be
00000120: 1e06 1b3d a640 10bd 6a89 c83c 55aa 5ebd
00000130: 616c 053e 55c8 32be 6ec0 5cbd 5599 633d
00000140: bae0 8ebb a01a 95bb 340e f5bd 0954 03be
00000150: ef01 1e3e 9e47 143e 378c 443e 1df6 07be
00000160: 1120 2c3e 6896 a23d c33f e83d 6672 b83d
00000170: 2acb 26be 294b 7fbe ea44 bf3d b3dd 3cbe
00000180: 7d81 083e 501c 643c 15a6 023e d636 2dbc
00000190: f63c 28be 1e0d 653d 3ef3 4fbd b071 4d3d
000001a0: 2d2b 7cbc 1dca 62bd 72e5 b8bd 735d 4f3e
000001b0: 151f 1bbe 562e 13bd dcd1 103e 9cc4 e13c
000001c0: 8a45 62bc 7586 4bbe 8cf5 3d3e 4b8f d13d
000001d0: 3b13 74bd 2003 983e b5af 813e 5c07 a2bd
000001e0: 2bd4 1d3d e440 a53e 1141 46bd 32a3 e1bc
000001f0: 02c2 383e eb1e 55be ef97 563d 2181 90bd
00000200: b0cf 93bd a14d 183e 5254 06be 94a2 db3d
00000210: 1605 94bc d8af a93d 5356 1f3e ae65 653e
00000220: 1981 f93c 0b35 6f3c df35 ef3b 61c2 febd
00000230: 294f 183e c877 d63d 2515 493e 5933 ac3d
00000240: 4a46 523e 7419 dbbd 1cc9 4d3e 07cb 17bd
00000250: 6d37 373b d551 0cbc a0c3 2cbe 626e dd3d
00000260: ea92 743d 108e b13c e7c5 bdbd 51d0 783e
00000270: 6b5a 8ebe d59d bcbc 26eb fb3c 2065 50bd
00000280: 8bd9 49be 4fec bdbd 66ff 7f3e f962 e1bc
00000290: 4b2f 593e 3a64 9e3c 9573 233e d78b 163e
000002a0: 397e 4d3d 67a7 eebc e1e7 07bd 021e d4bd
000002b0: c322 293e 0e4c 2b3e c199 fdbd da55 953d
000002c0: 934f 57be 999a 04bd 22ef c33c 7523 e5bd
000002d0: 1057 bfbd 0024 513d c4cd 3dbe 3664 28bd
000002e0: cc82 7b3d 87fc 2c3e 2d55 683d 3799 02be
000002f0: a6f5 643c c19d 6bbd a755 efbc 3961 4fbe
00000300: 208f 363e 0c49 00be cde7 79bc c689 0bbd
00000310: e835 923d 261b 19be 4c11 103e 5dfa 29be
00000320: 0c7a 7dbd bdcd 2d3e 4f50 6a3e 8b61 31be
00000330: 3023 b9bd 7c93 38be 6e45 fa3c 1802 3fbe
00000340: 88f5 2bbd 6388 133e b3b3 843d c922 70ba
00000350: 7f1c f0bd 6af1 ffbd 3dd7 b6bc d1c3 6b3d
00000360: 0a6d 793e 6a94 25bd d9c3 323d bb71 503c
00000370: 166a b1bc f818 ba3d e36c 823d 21bf 6abe
00000380: eb27 9dbd 21ca 943c 66e0 a8bc a242 5dbe
00000390: d9dc 1e3e 1d25 3e3d d4ed 313e 90e8 073e
000003a0: d98f 153e cec6 4bbe 15d0 973e 6f6f 243e
000003b0: 2f22 1abe 8667 54bc e9f3 f73d 1613 01be
000003c0: a707 123d 3acd afbd 3a36 95bd e7a5 da3d
000003d0: 6c51 08bd 57a6 98bd 6f58 233e 9103 293b
000003e0: 93e3 40bb f07b 26bd 002b 253d fed1 633d
000003f0: 6ae0 84be 372a 8e3d af45 2d3d f9de 233e

layers.0.bn3.weight f4 [12]
1.1078228 1.0041914 1.059548 1.1118983 0.97886276 0.9679766 0.95137465 1.0713221
0.85248315 0.9276616 1.0109166 1.0288056
00000000: 23cd 8d3f 5889 803f 459f 873f af52 8e3f
00000010: c096 7a3f 51cd 773f 4a8d 733f 1521 893f
00000020: 563c 5a3f 3b7b 6d3f b765 813f e7af 833f

layers.0.bn3.bias f4 [12]
0.039815694 0.023828233 0.04418624 0.08533921 -0.026072979 -0.051735707 -0.057475585 0.03331535
-0.016755477 0.007476812 0.051008735 0.038513236
00000000: c815 233d 6d33 c33c a1fc 343d 53c6 ae3d
00000010: 0097 d5bc d2e8 53bd 856b 6bbd ad75 083d
00000020: c842 89bc 0c00 f53b 89ee 503d 0ec0 1d3d

layers.0.bn3.running_mean f4 [12]
-0.15603225 0.11745433 -0.13819903 0.3774201 0.29125175 -0.02933537 -0.08598026 0.21848036
0.35654965 -0.043729816 0.3965707 0.12930456
00000000: ebc6 1fbe e58b f03d 0c84 0dbe 353d c13e
00000010: f31e 953e bb50 f0bc 6b16 b0bd 51b9 5f3e
00000020: ad8d b63e 091e 33bd 510b cb3e 6a68 043e

layers.0.bn3.running_var f4 [12]
0.2431238 0.15435371 0.20173611 0.3128269 0.21180229 0.16502649 0.23709798 0.20813042
0.18064627 0.13004903 0.26533738 0.19136798
00000000: 72f5 783e e60e 1e3e e993 4e3e d92a a03e
00000010: b3e2 583e b4fc 283e d0c9 723e 2420 553e
00000020: 56fb 383e 932b 053e 4dda 873e f8f5 433e

layers.1.conv1.weight f4 [48, 12, 1, 1]
-0.22637981 -0.11954448 -0.35247526 -0.16478391 -0.15450735 -0.021985244 0.0145898815 0.09142726
0.22676782 -0.0025951648 0.16504776 0.120912574 0.23131074 0.0962976 -0.13092002 -0.024847386
-0.15712945 -0.21878268 -0.1748055 0.526214 -0.048442263 0.029809812 -0.12172052 0.16661978
-0.044192687 0.15068202 -0.0790803 -0.22179566 0.29739502 -0.055476215 -0.16144691 -0.29222324
-0.27588224 -0.24041814 -0.038704555 0.069804475 -0.22482802 -0.24915865 -0.33204925 -0.009256984
-0.1549795 0.024165751 0.4634335 -0.20828237 0.09215814 -0.15614866 -0.13706417 0.23403674
-0.30692554 0.18022694 -0.004325329 -0.10217513 0.056594063 -0.029686604 0.15123944 0.14827262
0.3498466 -0.101300545 0.16315104 -0.05083231 0.03308933 -0.20491947 -0.12791626 0.067790166
0.2716327 0.080643356 -0.055193286 0.055250045 0.037694324 0.31699085 -0.23011348 0.039888207
0.026158527 0.32897288 -0.052018777 0.1321161 -0.15045229 0.17383982 -0.06743907 0.3620884
-0.14490974 -0.22004041 -0.06592963 0.1325609 0.03199472 -0.23928502 -0.050936237 0.31851175
0.29889548 0.14219876 -0.040979084 -0.08433182 0.121021286 0.079691656 -0.072144575 0.2256645
-0.17750463 -0.13461263 -0.303827 -0.28339982 -0.006887254 0.0480802 -0.24538027 -0.083433405
0.12742403 -0.09755133 -0.04252401 0.16637295 -0.25947076 0.21911784 -0.06446957 0.13402683
0.22675136 0.09388273 -0.06273529 0.3174755 0.20458655 0.08521421 0.357597 -0.244276
0.20994453 -0.36594495 -0.4414322 -0.23476885 -0.060748566 -0.14175977 -0.21894315 0.108660944
-0.015207834 -0.09046109 -0.014125279 0.12766483 -0.0073128133 0.15898946 0.07480627 0.21769863
0.018080913 0.10069461 0.24242437 -0.16746509 -0.035051327 0.30527228 0.36238575 -0.41654983
0.23437019 0.021665856 -0.21979135 0.047169726 0.09936665 0.078439794 -0.01756789 0.2960218
0.30486986 0.031644993 0.025755497 0.33450982 -0.19159776 -0.20187421 0.33361387 -0.31796443
-0.12746133 0.024636084 -0.06905484 -0.124664664 0.12506886 0.016797097 0.16433552 0.037472904
0.048132975 -0.07729814 0.336648 0.07160462 0.08074184 0.12206958 -0.19596909 -0.028953955
0.2388803 -0.060907926 0.29823273 0.03503033 -0.27951133 -0.027227998 -0.060510598 -0.21704406
0.13568015 0.1877884 0.060206063 0.16836944 0.20056593 -0.030792506 -0.100548565 0.18919812
-0.13768366 -0.08031048 0.16676755 0.11848326 -0.2963465 0.07954577 -0.42388996 -0.13189647
-0.08095487 -0.24254793 0.07916279 -0.006315028 0.39174035 0.12663981 -0.12077403 0.17979747
-0.1261321 0.009095967 0.08765257 -0.2896924 0.1461118 -0.13211542 0.011076083 0.07247208
-0.15812899 0.08715106 -0.18825701 0.2516404 -0.14380932 -0.2807092 -0.34483668 0.33153558
0.014865205 -0.020740457 -0.06469457 0.065618575 -0.07018013 -0.16604549 0.0091482885 0.22124037
-0.14652397 0.24040224 0.15297617 -0.0005108529 0.020466179 0.022189088 0.03280595 -0.19054766
0.19384733 -0.09248765 -0.17525351 0.050687365 0.3597906 -0.119451225 0.008487815 -0.115202285
-0.18942094 -0.04105684 -0.36279407 0.13094732 0.1315276 -0.11278493 0.114261925 -0.02517192
00000000: 1cd0 67be bdd3 f4bd a377 b4be 1dbd 28be
00000010: 2d37 1ebe 661a b4bc 660a 6f3c 373e bb3d
00000020: d335 683e a413 2abb 4802 293e 03a1 f73d
00000030: b9dc 6c3e ad37 c53d e60f 06be bf8c cbbc
00000040: 8be6 20be 9108 60be 3700 33be f6b5 063f
00000050: 656b 46bd b533 f43c 9c48 f9bd 609e 2a3e
00000060: 6403 35bd 634c 1a3e daf4 a1bd 671e 63be
00000070: 2944 983e 073b 63bd 5752 25be 499e 95be
00000080: 7040 8dbe 2c30 76be ab88 1ebd a6f5 8e3d
00000090: 5139 66be 7223 7fbe 5c02 aabe 9baa 17bc
000000a0: f2b2 1ebe 41f7 c53c 2847 ed3e f947 55be
000000b0: 68bd bc3d 6fe5 1fbe 8d5a 0cbe 54a7 6f3e
000000c0: 5825 9dbe 698d 383e 7dbb 8dbb 3241 d1bd
000000d0: 2dcf 673d 5231 f3bc 83de 1a3e c7d4 173e
000000e0: 181f b33e a976 cfbd 1111 273e 8a35 50bd
000000f0: ad88 073d 69d6 51be 7bfc 02be 92d5 8a3d
00000100: 7113 8b3e 5828 a53d 5b12 62bd df4d 623d
00000110: 5d65 1a3d a04c a23e dea2 6bbe d161 233d
00000120: 684a d63c 226f a83e a411 55bd 7149 073e
00000130: 2a10 1abe 1103 323e 7f1d 8abd a763 b93e
00000140: 3863 14be 4652 61be 1d06 87bd 0bbe 073e
00000150: e50c 033d 2207 75be 84a2 50bd f913 a33e
00000160: d408 993e 8d9c 113e afd9 27bd 29b6 acbd
00000170: 02da f73d 6135 a33d 89c0 93bd 9814 673e
00000180: c6c3 35be e5d7 09be 368f 9bbe c819 91be
00000190: 79ae e1bb beef 443d f744 7bbe 22df aabd
000001a0: 727b 023e fec8 c7bd a82d 2ebd ac5d 2a3e
000001b0: 5ad9 84be 6d60 603e 9f08 84bd 543e 093e
000001c0: 8231 683e 9745 c03d 5c7b 80bd 268c a23e
000001d0: 237f 513e ca84 ae3d f416 b73e 7d23 7abe
000001e0: b3fb 563e 235d bbbe 6703 e2be 3f67 70be
000001f0: 7dd3 78bd 7929 11be a232 60be a189 de3d
00000200: 472a 79bc aa43 b9bd b76d 67bc 92ba 023e
00000210: 53a0 efbb 22ce 223e 0834 993d 64ec 5e3e
00000220: 6c1e 943c fa38 ce3d 183e 783e f87b 2bbe
00000230: fb91 0fbd a64c 9c3e a08a b93e 0546 d5be
00000240: bdfe 6f3e 987c b13c fc10 61be 0b35 413d
00000250: be80 cb3d 0ba5 a03d 89ea 8fbc 2b90 973e
00000260: e717 9c3e 2e9e 013d 31fd d23c df44 ab3e
00000270: 3432 44be 1db8 4ebe 70cf aa3e 3ccc a2be
00000280: 3985 02be 9dd1 c93c a06c 8dbd 3050 ffbd
00000290: 0d12 003e 119a 893c 9247 283e 307d 193d
000002a0: 1527 453d 7d4e 9ebd 205d ac3e 71a5 923d
000002b0: fa5b a53d 9eff f93d 1fac 48be d830 edbc
000002c0: 0a9d 743e 977a 79bd f6b1 983e f77b 0f3d
000002d0: 1c1c 8fbe 400d dfbc f6d9 77bd cc40 5ebe
000002e0: bdef 0a3e 9a4b 403e a29a 763d 0a69 2c3e
000002f0: 2861 4d3e 9140 fcbc 68ec cdbd 27bd 413e
00000300: f2fc 0cbe d279 a4bd 1dc5 2a3e 5aa7 f23d
00000310: baba 97be e5e8 a23d 1b08 d9be de0f 07be
00000320: abcb a5bd 7c5e 78be 1a20 a23d 4bee cebb
00000330: 3192 c83e dead 013e 6058 f7bd d41c 383e
00000340: c628 01be 4007 153c 3183 b33d 9052 94be
00000350: 559e 153e 4449 07be 7678 353c 3e6c 943d
00000360: 91ec 21be 417c b23d 72c6 40be 03d7 803e
00000370: c042 13be 1eb9 8fbe 6f8e b0be 08bf a93e
00000380: 308d 733c e4e7 a9bc 967e 84bd 0863 863d
00000390: 9aba 8fbd d407 2abe b4e2 153c d68c 623e
000003a0: 610a 16be 012c 763e c9a5 1c3e c2ea 05ba
000003b0: b0a8 a73c e4c5 b53c 885f 063d ed1e 43be
000003c0: ea7f 463e 2a6a bdbd a875 33be 8e9d 4f3d
000003d0: 7936 b83e d8a2 f4bd 7a10 0b3c 2def ebbd
000003e0: 90f7 41be 382b 28bd 25c0 b9be 0e17 063e
000003f0: 2caf 063e c9fb e6bd 2802 ea3d 5835 cebc

layers.1.bn1.weight f4 [48]
1.0509845 0.6612902 1.0466535 0.8056923 0.8105683 0.76945287 1.2729362 0.7183837
0.9600161 1.1457556 1.0603893 0.9931191 0.9989675 0.9445986 1.4629798 0.8392512
0.68515337 1.0105157 1.1146734 1.2116454 1.110375 0.7630741 0.8781027 0.61511374
0.8738939 0.8384678 1.4492875 0.95223457 0.93502855 0.5856056 0.72621554 0.8683449
1.0279833 0.9150177 1.0169085 1.1107371 0.87960243 0.8476274 0.9439295 1.071188
1.0835648 1.1530086 0.988557 0.5702469 1.0333695 0.51875234 0.70014584 0.9649328
00000000: a986 863f 514a 293f bef8 853f da41 4e3f
00000010: 6781 4f3f ddfa 443f 93ef a23f ffe7 373f
00000020: 9dc3 753f 1fa8 923f d6ba 873f 0e3d 7e3f
00000030: 56bc 7f3f 37d1 713f ec42 bb3f 2bd9 563f
00000040: 3666 2f3f 9458 813f 9ead 8e3f 3217 9b3f
00000050: c520 8e3f d358 433f 57cb 603f 1878 1d3f
00000060: 83b7 5f3f d3a5 563f 4182 b93f a5c5 733f
00000070: 085e 6f3f 40ea 153f 43e9 393f da4b 5e3f
00000080: f594 833f 9a3e 6a3f 0f2a 823f a22c 8e3f
00000090: a02d 613f 1cfe 583f 5da5 713f b01c 893f
000000a0: 40b2 8a3f c995 933f 1212 7d3f b3fb 113f
000000b0: 7445 843f f4cc 043f c23c 333f d605 773f

layers.1.bn1.bias f4 [48]
0.28700584 0.2522448 -0.017894363 0.2682654 0.20288879 -0.025469106 -0.047575694 0.38366386
-0.08143917 -0.01690289 -0.008029411 0.096071884 0.1718023 0.051401675 0.26590282 0.2481956
0.25424305 -0.018827973 0.29883042 -0.041787963 -0.032274544 0.25669256 -0.15730236 0.32141134
0.29171985 -0.2166934 -0.048232045 0.09343236 0.16293107 0.37386495 -0.28776094 0.2074904
0.011665018 -0.10451683 0.095986925 -0.08030236 -0.112625785 0.08026343 0.24134625 -0.11028959
0.04894338 0.10333996 -0.13229269 0.35217643 -0.07747862 0.39781284 0.26662588 0.110345885
00000000: 6ef2 923e 3b26 813e 3397 92bc 155a 893e
00000010: 14c2 4f3e 96a4 d0bc bbde 42bd 976f c43e
00000020: 94c9 a6bd ee77 8abc ca8d 03bc 56c1 c43d
00000030: f1ec 2f3e 908a 523d 6a24 883e fd26 7e3e
00000040: 252c 823e 1f3d 9abc 4d00 993e db29 2bbd
00000050: 5032 04bd 356d 833e df13 21be 0790 a43e
00000060: 4e5c 953e e0e4 5dbe f78e 45bd 7759 bf3d
00000070: 67d7 263e 3a6b bf3e 6755 93be 5d78 543e
00000080: a21e 3f3c eb0c d6bd cb94 c43d 9075 a4bd
00000090: 59a8 e6bd 2761 a43d 7923 773e 82df e1bd
000000a0: db78 483d e7a3 d33d bc77 07be 7850 b43e
000000b0: 1cad 9ebd 20ae cb3e 3083 883e 06fd e13d

layers.1.bn1.running_mean f4 [48]
-0.023965172 0.048961446 -0.022300329 -0.061197016 -0.020021677 -0.019462086 0.03148682 0.0073647746
-0.03649117 0.013040041 -0.009402087 0.0053706104 0.016938064 -0.014583113 0.034462687 -0.045556102
0.03770781 0.016716685 0.0571257 -0.010690837 -0.017116334 0.012162642 -0.007415323 -0.020100366
-0.011665373 -0.008637624 -0.01594096 -0.023184894 -0.0534351 0.04169633 -0.0121205645 -0.034324307
-0.017962893 -0.009880472 0.07375507 -0.033777464 0.015422741 0.047198184 0.01511373 0.046542875
0.0036317452 0.035080917 -0.050304294 -0.06041484 0.019524952 -0.027318507 -0.060539123 -0.0093124285
00000000: 9c52 c4bc cc8b 483d 2eaf b6bc b9a9 7abd
00000010: 8004 a4bc f46e 9fbc 53f8 003d 3554 f13b
00000020: c477 15bd e5a5 553c 360b 1abc f2fb af3b
00000030: b2c1 8a3c 02ee 6ebc bf28 0d3d 0999 3abd
00000040: 8173 1a3d 6ef1 883c a3fc 693d 9f28 2fbc
00000050: 8e37 8cbc d145 473c 3dfc f2bb 86a9 a4bc
00000060: 1f20 3fbc d284 0dbc 9e96 82bc 3fee bdbc
00000070: c3de 5abd c5c9 2a3d 5595 46bc a597 0cbd
00000080: eb26 93bc b4e1 21bc e60c 973d 3d5a 0abd
00000090: aaaf 7c3c e252 413d 949f 773c bea3 3e3d
000000a0: 9302 6e3b 02b1 0f3d e00b 4ebd 8d75 77bd
000000b0: cbf2 9f3c 10cb dfbc dff7 77bd 2893 18bc

layers.1.bn1.running_var f4 [48]
0.6435126 0.52204347 0.34354743 0.881537 0.43065378 0.38487852 0.4735132 0.4175839
0.5197172 0.56697327 0.57598907 0.6973344 0.55046475 0.42855617 0.30069438 0.59505355
0.36725417 0.39081162 0.58251643 0.15192518 0.4145721 0.33195007 0.3182016 0.33860472
0.4979531 0.3595783 0.48027983 0.28698683 0.46538952 0.5163768 0.2043049 0.42445594
0.25096977 0.3769226 0.63718826 0.45530108 0.4703324 0.43753895 0.25863782 0.9752896
0.5515387 0.30699182 0.8965671 0.6636421 0.36296752 0.27415523 0.41711807 0.2528374
00000000: 3ebd 243f a4a4 053f 73e5 af3e 69ac 613f
00000010: a77e dc3e cc0e c53e 5270 f23e 8fcd d53e
00000020: 300c 053f 2925 113f 0574 133f 8284 323f
00000030: 42eb 0c3f b76b db3e 9df4 993e 6e55 183f
00000040: bd08 bc3e 7618 c83e cc1f 153f 4692 1b3e
00000050: cb42 d43e 5cf5 a93e 52eb a23e 995d ad3e
00000060: b5f3 fe3e a61a b83e 3de7 f53e f0ef 923e
00000070: 8947 ee3e 4531 043f 4e35 513e 4a52 d93e
00000080: 1c7f 803e 00fc c03e c51e 233f 391d e93e
00000090: 69cf f03e 1b05 e03e 2d6c 843e 94ac 793f
000000a0: a431 0d3f 082e 9d3e 6c85 653f 73e4 293f
000000b0: e1d6 b93e 135e 8c3e 8090 d53e e773 813e
