Project/Project_files/ckpt/mobilenetv2_19_4/mobilenetv2_19_4_71.pt (torch, 49131 bytes, 52 tensors)

conv1.weight f4 [32, 3, 3, 3]
-0.24595185 -0.32473117 -0.12564014 0.16368741 0.06352918 0.077365324 -0.09639048 -0.21361741
-0.063940376 -0.21530972 -0.046205632 0.08213446 -0.14979072 0.36921072 -0.031258766 -0.02563609
0.0860382 -0.14084353 0.017351257 0.043995954 0.31981108 0.26947027 0.7422336 0.15045705
-0.16371046 0.026726546 -0.0101885265 0.1928844 0.036254503 0.016983928 0.15488648 -0.43175614
0.22968008 -0.026961762 0.022688622 -0.14174633 0.112205945 0.20064476 -0.15922709 -0.09132276
-0.58763516 0.20161307 -0.14809884 0.32024625 -0.13208953 -0.09472688 0.007229825 -0.24073656
0.20468448 -0.065767154 0.09772582 -0.14855525 0.25302514 -0.081385255 -0.23973541 -0.3194993
-0.102942444 -0.016162131 0.3680879 -0.09561387 0.04787273 -0.03693605 0.27362567 -0.12707947
-0.31323552 -0.18539043 0.20499884 -0.015410058 -0.09548221 0.33711794 -0.005605289 0.16173938
-0.109670304 -0.19150576 -0.19285257 0.14364313 -0.13413116 -0.091617756 0.114397645 -0.36735022
0.18729708 0.4133287 0.024004668 -0.046835452 0.28632143 -0.046876166 -0.024681278 -0.21516198
-0.34477597 -0.18446879 -0.26987535 0.034065843 0.18849912 -0.18074036 0.09948906 0.33022013
0.19166048 0.29819804 0.042606246 -0.021396989 -0.03943778 -0.08183607 -0.028400147 -0.17386803
-0.1491797 0.18568 0.19449346 -0.114735 0.23849602 0.039253723 0.005640808 -0.10348932
-0.25698596 -0.010600916 0.072955295 -0.25894117 0.32228255 -0.0060806656 -0.082208306 -0.005047942
-0.079480365 -0.0978478 -0.10577758 -0.18484624 -0.301862 0.07009167 -0.17912115 0.13455676
-0.061710525 0.030071361 0.5145796 0.15494025 0.17237934 0.45769733 -0.0659528 -0.30593133
0.09534114 -0.13972846 -0.35688794 -0.114532694 -0.02247742 0.23439045 0.056974325 -0.18908224
0.07556188 0.1922236 0.36964345 0.15611982 0.11726938 0.37125504 0.09933082 -0.12907827
-0.25063667 0.15328869 -0.16969931 -0.15332046 -0.073177814 -0.18656296 0.017686233 0.16737598
-0.11801534 0.007031573 -0.31854722 0.050228115 0.20292026 -0.0039683203 0.16922443 0.11887772
0.020717306 0.16691436 -0.10348596 -0.23529392 -0.17438646 0.07051093 0.1506357 0.15620081
0.2130424 0.20103906 0.407449 0.33593756 0.18762733 -0.067427866 -0.17285404 0.037953038
-0.16812958 -0.18759349 -0.15390411 -0.22277938 -0.23938827 -0.15053917 -0.15431967 -0.024212003
-0.19534677 -0.18063322 -0.3455489 0.34051532 -0.036443383 -0.04253883 0.0061664446 -0.19267227
0.02341589 -0.23883536 -0.1440592 -0.093544506 0.295894 0.11892119 0.051133595 0.008712914
0.14539322 -0.016140835 -0.21603525 0.04415401 -0.0131293805 0.2971284 0.3604071 0.38395607
-0.14167632 -0.31375706 -0.22916572 -0.15196644 0.11306402 -0.10486643 0.2192646 0.1462388
-0.113930985 0.10419173 -0.1559401 -0.015744876 0.044232078 0.28126526 0.13915192 -0.30302095
0.18633878 0.06643664 0.35627705 -0.080990575 -0.041838136 0.16486888 0.15390132 -0.07806666
-0.482211 -0.044254486 -0.005191077 -0.015137619 -0.28906402 -0.20071371 0.25131303 -0.42379156
0.13291876 0.2640908 0.20676637 0.13116226 -0.12054382 0.27602494 0.11742826 0.051444758
00000000: cdda 7bbe 2a43 a6be cfa7 00be ac9d 273e
00000010: 961b 823d b671 9e3d 5f68 c5bd 86be 5abe
00000020: 2cf3 82bd 277a 5cbe 1e42 3dbd 1d36 a83d
00000030: bd62 19be 3009 bd3e 3109 00bd c702 d2bc
00000040: cc34 b03d 4939 10be 3924 8e3c 1a35 343d
00000050: 47be a33e 02f8 893e 0503 3e3f 6a11 1a3e
00000060: b7a3 27be a1f1 da3c c7ed 26bc 7d83 453e
00000070: 9a7f 143d e121 8b3c 909a 1e3e 240f ddbe
00000080: 4131 6b3e eade dcbc 7ddd b93c f325 11be
00000090: 3bcc e53d d275 4d3e 6d0c 23be 6d07 bbbd
000000a0: 426f 16bf a873 4e3e 39a7 17be 51f7 a33e
000000b0: 7a42 07be 2b00 c2bd 2be8 ec3b a583 76be
000000c0: cf98 513e eeb0 86bd 7a24 c83d de1e 18be
000000d0: 838c 813e 50ad a6bd 337d 75be 6a95 a3be
000000e0: 7dd3 d2bd 7266 84bc 0476 bc3e 34d1 c3bd
000000f0: 3216 443d 414a 17bd aa18 8c3e 1f21 02be
00000100: 6860 a0be fdd6 3dbe 37eb 513e 787a 7cbc
00000110: 2d8c c3bd b99a ac3e 92ac b7bb 029f 253e
00000120: d39a e0bd 161a 44be 257b 45be 2f17 133e
00000130: ae59 09be 17a2 bbbd 5049 ea3d 5415 bcbe
00000140: ceca 3f3e d29f d33e 70a5 c43c 88d6 3fbd
00000150: b998 923e 3901 40bd 6430 cabc 6c53 5cbe
00000160: 7a86 b0be 63e5 3cbe 1a2d 8abe a088 0b3d
00000170: ea05 413e 0014 39be ecc0 cb3d 9d12 a93e
00000180: a542 443e 6aad 983e e383 2e3d bd48 afbc
00000190: 8289 21bd ab99 a7bd 6da7 e8bc 760a 32be
000001a0: 90c2 18be e622 3e3e 4b29 473e 2ffa eabd
000001b0: 4d38 743e 83c8 203d 87d6 b83b 35f2 d3bd
000001c0: aa93 83be 77af 2dbc 9669 953d f093 84be
000001d0: 3802 a53e 5240 c7bb d45c a8bd 3569 a5bb
000001e0: 9ac6 a2bd 6d64 c8bd eaa1 d8bd 5548 3dbe
000001f0: a88d 9abe 398c 8f3d 896b 37be 3fc9 093e
00000200: 2dc4 7cbd 3758 f63c 7dbb 033f a8a8 1e3e
00000210: 3684 303e 4e57 ea3e 4312 87bd 08a3 9cbe
00000220: 3742 c33d fa14 0fbe 04ba b6be 1e90 eabd
00000230: 9122 b8bc 0d04 703e e95d 693d c69e 41be
00000240: 30c0 9a3d 43d6 443e e841 bd3e e0dd 1f3e
00000250: ee2a f03d 2415 be3e f56d cb3d 182d 04be
00000260: 7353 80be b6f7 1c3e a8c5 2dbe 0a00 1dbe
00000270: 40de 95bd 5c0a 3fbe b8e2 903c 9c64 2b3e
00000280: 07b2 f1bd 1c69 e63b 9f18 a3be ffbb 4d3d
00000290: 54ca 4f3e af08 82bb 2b49 2d3e 2976 f33d
000002a0: 57b7 a93c 99eb 2a3e 72f0 d3bd e4f0 70be
000002b0: 5d92 32be 0968 903d 3f40 1a3e 1bf3 1f3e
000002c0: c927 5a3e 2fdd 4d3e 289d d03e 0200 ac3e
000002d0: 6121 403e 9f17 8abd a600 31be a574 1b3d
000002e0: 292a 2cbe 8218 40be 0a99 1dbe 4720 64be
000002f0: 3322 75be f126 1abe fa05 1ebe 4058 c6bc
00000300: fc08 48be eaf7 38be c9eb b0be 0658 ae3e
00000310: a845 15bd 323d 2ebd e30f ca3b e14b 45be
00000320: aed2 bf3c 4291 74be 4184 13be 4394 bfbd
00000330: 6b7f 973e f48c f33d 7671 513d 9cc0 0e3c
00000340: f6e1 143e c939 84bc 5838 5dbe d6da 343d
00000350: 9d1c 57bc 3721 983e 4887 b83e e495 c43e
00000360: 9913 11be c4a4 a0be 6baa 6abe 179d 1bbe
00000370: 1c8e e73d 36c4 d6bd e686 603e a0bf 153e
00000380: a654 e9bd 7962 d53d c3ae 1fbe 66fb 80bc
00000390: b22c 353d 0002 903e d77d 0e3e 9025 9bbe
000003a0: 98cf 3e3e ef0f 883d f269 b63e 63de a5bd
000003b0: 775e 2bbd 63d3 283e 4f98 1d3e 6ae1 9fbd
000003c0: 5ce4 f6be 3144 35bd e919 aabb c703 78bc
000003d0: 3300 94be e587 4dbe 1aac 803e 35fb d8be
000003e0: db1b 083e e936 873e 90ba 533e 664f 063e
000003f0: aedf f6bd 2453 8d3e 3a7e f03d bdb7 523d

bn1.weight f4 [32]
1.0015433 1.0388701 0.6065648 1.1388353 0.92316043 1.041328 1.2195821 1.0203285
1.0824395 1.1626935 0.84080654 1.2409276 0.95259583 1.068382 0.7452385 1.1210762
0.8985529 1.0640849 0.98483247 1.1548201 1.1016258 1.1915294 0.7496519 1.257737
1.0933719 0.6546041 0.9305763 0.9715482 0.7544988 0.567669 0.8058842 0.99876845
00000000: 9232 803f b2f9 843f d547 1b3f 5bc5 913f
00000010: 3e54 6c3f 3c4a 853f 441b 9c3f 209a 823f
00000020: 618d 8a3f 24d3 943f 193f 573f b7d6 9e3f
00000030: 52dd 733f bec0 883f f3c7 3e3f 6d7f 8f3f
00000040: 9007 663f ef33 883f fb1d 7c3f 25d1 933f
00000050: 1302 8d3f 0984 983f 30e9 3f3f 87fd a03f
00000060: 9cf3 8b3f 2294 273f 403a 6e3f 62b7 783f
00000070: d526 413f c152 113f 6d4e 4e3f 4aaf 7f3f

bn1.bias f4 [32]
0.12644662 0.09797346 -0.071921416 -0.057741936 -0.0224863 0.09877057 -0.10077103 0.09180852
0.034531966 0.13026918 0.050469548 -0.096883215 -0.10607135 0.154271 0.1614513 0.10130669
-0.038503673 0.10596487 0.10496562 -0.18455201 -0.112256445 -0.10849589 0.14220142 0.0653655
-0.025268834 0.09532912 -0.015645314 -0.034368716 0.091382846 -0.13022839 -0.094833866 -0.007565027
00000000: 397b 013e 4fa6 c83d 894b 93bd cf82 6cbd
00000010: 3035 b8bc 3948 ca3d 0b61 cebd 1b06 bc3d
00000020: 6471 0d3d 4965 053e 28b9 4e3d b56a c6bd
00000030: f03b d9bd 38f9 1d3e 7d53 253e e279 cf3d
00000040: 07b6 1dbd 1c04 d93d 37f8 d63d 34fb 3cbe
00000050: b5e6 e5bd 1833 debd 409d 113e 59de 853d
00000060: 9600 cfbc ea3b c33d 9a2a 80bc 36c6 0cbd
00000070: ee26 bb3d 975a 05be 4238 c2bd 0ce4 f7bb

bn1.running_mean f4 [32]
0.0034602785 0.0046422216 0.0025965478 -0.011147652 -0.0030791769 -0.0022357565 -0.011675752 -0.014465668
0.010145836 -0.0014501829 -0.0039958386 0.010215855 0.00034822177 -0.013495675 -0.0039385366 0.0030961758
-0.007920115 -0.004955633 -0.005988096 -0.006226799 -0.00495326 -0.0050512073 -0.011785332 -0.004430324
0.002255586 0.009854483 -0.0014617306 -0.0013689453 0.010960878 -0.00088167924 -0.004363792 -0.0016569017
00000000: d7c5 623b c71d 983b d82a 2a3b a4a4 36bc
00000010: 04cc 49bb c585 12bb a74b 3fbc 6901 6dbc
00000020: b83a 263c 1014 beba 86ef 82bb 6760 273c
00000030: 8991 b639 f71c 5dbc d70e 81bb 36e9 4a3b
00000040: 5fc3 01bc dd62 a2bb ca37 c4bb 2d0a ccbb
00000050: f54e a2bb 9984 a5bb 4417 41bc 402c 91bb
00000060: 74d2 133b b374 213c 8a97 bfba 2f6e b3ba
00000070: 4195 333c 7e20 67ba 24fe 8ebb 652c d9ba

bn1.running_var f4 [32]
1.7659657 0.22323696 1.7014256 0.2566246 0.5935756 0.20622703 0.75791055 1.2458615
0.2627369 0.39346108 0.65985584 0.375894 0.50634503 0.3730697 0.64429325 0.37479922
1.137575 0.33775413 0.1987541 0.2865032 1.0635254 0.54451287 1.1844138 0.22071186
0.2832711 0.7070062 2.025723 0.34990257 1.3679159 0.47154403 0.62549955 0.49994484
00000000: 2a0b e23f 3b98 643e 50c8 d93f 4d64 833e
00000010: 92f4 173f 2e2d 533e 6d06 423f 6478 9f3f
00000020: 7385 863e bb73 c93e 50ec 283f 2e75 c03e
00000030: d49f 013f fe02 bf3e 67f0 243f afe5 bf3e
00000040: 0f9c 913f 1cee ac3e 3286 4b3e 8cb0 923e
00000050: 9a21 883f 3265 0b3f df9a 973f 4a02 623e
00000060: e908 913e 5cfe 343f 72a5 0140 6e26 b33e
00000070: de17 af3f 386e f13e bd20 203f c5f8 ff3e

layers.0.conv1.weight f4 [32, 32, 1, 1]
-0.015671529 0.17790948 0.08170577 0.33173195 -0.11944741 -0.2508665 -0.14460692 0.004250036
0.068140164 -0.034058765 0.26333606 0.07592254 -0.016535107 -0.13679616 -0.124897934 0.104524314
0.34319326 -0.096513316 0.05474052 0.013282374 0.16736104 0.63804126 -0.11030121 -0.464883
0.30888438 -0.03819996 0.03176189 -0.03914022 -0.09313379 -0.043004006 0.08545424 0.017985146
0.209007 -0.014238278 -0.12445345 0.34160653 -0.22801472 0.015743822 -0.09880074 -0.53118676
0.06247938 -0.049478147 -0.0156247895 0.23989312 0.4234113 -0.23937897 0.052697286 0.09659466
0.021620883 -0.067826584 -0.18624622 -0.15733494 0.1638318 0.07851933 -0.07843818 0.06105897
0.11472435 -0.0688218 0.27958164 -0.12593502 0.031927593 0.094167866 -0.15802036 -0.039251857
-0.067185186 -0.34422413 0.20584567 -0.12385011 -0.041153286 0.06763398 -0.15980162 0.09715634
-0.21942015 -0.00238584 -0.09554855 -0.15500852 0.017325494 -0.44950756 -0.19955294 -0.29641935
0.17175403 0.11933013 -0.1535548 0.35007328 0.14050855 -0.03545647 0.10150849 -0.23874374
-0.17311123 -0.031092202 0.07013045 -0.323206 -0.0851156 -0.28610757 0.04000067 0.046439245
0.16734305 -0.08090774 -0.021017827 -0.09034884 0.15500544 0.14888124 -0.29909655 0.24747477
-0.16285957 0.07834012 -0.26692 -0.13358574 0.064312324 0.23164311 -0.03176802 -0.3348212
-0.34926644 -0.20868659 0.044771314 -0.13073991 -0.2970478 -0.37031847 -0.21975318 0.062300425
-0.33511466 0.032123767 0.2019194 0.019582793 -0.13709487 0.06531928 0.2190099 0.0958662
0.003754804 0.038597327 0.1190254 0.0052792076 0.03854305 0.0670899 0.032161072 -0.1039855
-0.29457954 0.052550416 0.18035257 -0.12143479 -0.20811546 -0.25226766 -0.22652547 -0.19865787
0.17053159 -0.3594992 -0.018291183 -0.1564615 -0.033078656 -0.28627262 0.07472973 0.46680194
0.17353027 0.20414029 0.066361845 -0.2524682 0.15224855 -0.22790846 0.089457914 -0.0103021
-0.29461476 0.2234363 0.046198357 -0.22029655 -0.25477043 -0.2269383 -0.08352047 -0.019898258
-0.0129523715 0.037917625 -0.12486652 -0.20658408 -0.20380972 -0.07331588 -0.23368368 -0.028705489
-0.1671668 -0.0034560536 -0.00019270463 -0.35391077 -0.2502108 -0.35318422 0.056165267 -0.013084674
0.1933608 0.12293539 -0.108124845 -0.17586164 0.17538881 0.071973346 -0.35043365 0.33070612
0.11502519 0.18303706 0.094302684 -0.012696506 0.14626496 -0.10508531 0.022208864 -0.055029444
-0.19107375 0.07059377 -0.039533474 -0.17645104 -0.20231496 -0.057191033 0.39090252 -0.28770748
0.06497714 -0.23529336 -0.12732857 -0.32345805 0.052174505 -0.2686405 0.34438476 0.25065255
-0.271464 -0.044375457 -0.011929562 -0.29926932 0.07273094 -0.1806615 -0.0879904 0.108859085
0.16153368 -0.48254833 0.23884588 -0.21977007 -0.14102782 0.16671644 0.4194821 0.21677388
-0.031863194 -0.16967905 -0.0585838 0.31170833 0.041505966 0.048996504 0.15508084 0.026336571
-0.0032703702 0.007619746 -0.15369292 0.27620232 0.3185114 -0.043462653 0.046865173 0.11784416
-0.19713168 -0.11383099 0.05312241 -0.17525028 0.31944615 0.12219599 0.0239498 0.096686475
00000000: 9461 80bc e72d 363e 5b55 a73d c5d8 a93e
00000010: d8a0 f4bd 9371 80be d613 14be e343 8b3b
00000020: 128d 8b3d 3481 0bbd fcd3 863e 477d 9b3d
00000030: a274 87bc 4b14 0cbe 7dca ffbd d810 d63d
00000040: 07b7 af3e c6a8 c5bd 9837 603d 509e 593c
00000050: b160 2b3e ac56 233f 9ae5 e1bd 2505 eebe
00000060: 1826 9e3e 9077 1cbd c118 023d 7f51 20bd
00000070: eebc bebd f824 30bd a202 af3d 9655 933c
00000080: ee05 563e ab47 69bc 73e1 febd 0de7 ae3e
00000090: b17c 69be 30f9 803c 0b58 cabd dbfb 07bf
000000a0: 61ea 7f3d 99a9 4abd 1eff 7fbc 8ba6 753e
000000b0: 5ec9 d83e c31f 75be 1cd9 573d 6cd3 c53d
000000c0: 471e b13c aae8 8abd 54b7 3ebe 691c 21be
000000d0: 86c3 273e bece a03d 32a4 a0bd f818 7a3d
000000e0: 9af4 ea3d 72f2 8cbd 5325 8f3e 1cf5 00be
000000f0: 82c6 023d 15db c03d 17d0 21be 8ec6 20bd
00000100: 6398 89bd 253e b0be 35c9 523e 20a5 fdbd
00000110: 5990 28bd af83 8a3d 09a3 23be e7f9 c63d
00000120: adaf 60be c15b 1cbb f5ae c3bd 8eba 1ebe
00000130: 32ee 8d3c db25 e6be 9b57 4cbe 47c4 97be
00000140: 4ae0 2f3e 5b63 f43d 783d 1dbe ce3c b33e
00000150: 79e1 0f3e ce3a 11bd afe3 cf3d 3d79 74be
00000160: 1244 31be 13b5 febc 8ea0 8f3d 427b a5be
00000170: 1651 aebd b17c 92be bed7 233d 1437 3e3d
00000180: fa5b 2b3e f5b2 a5bd 942d acbc d008 b9bd
00000190: bfb9 1e3e 5374 183e 2f23 99be 076a 7d3e
000001a0: a9c4 26be c970 a03d bda9 88be b3ca 08be
000001b0: 2eb6 833d da33 6d3e 2f1f 02bd af6d abbe
000001c0: 0dd3 b2be f0b1 55be 2062 373d afe0 05be
000001d0: a616 98be 629a bdbe fa06 61be bb2e 7f3d
000001e0: 2694 abbe 3694 033d f6c3 4e3e 186c a03c
000001f0: 9962 0cbe 1dc6 853d 2244 603e 8055 c43d
00000200: 2813 763b 3b18 1e3d 97c3 f33d 34fd ac3b
00000210: 51df 1d3d 6e66 893d 54bb 033d 5af6 d4bd
00000220: 21d3 96be 1b3f 573d 58ae 383e ceb2 f8bd
00000230: 381c 55be 3a29 81be 4bf6 67be f86c 4bbe
00000240: d59f 2e3e 4710 b8be 64d7 95bc 7237 20be
00000250: 7c7d 07bd 5392 92be e70b 993d aa00 ef3e
00000260: ebb1 313e 270a 513e b8e8 873d 8343 81be
00000270: 0be7 1b3e d660 69be b635 b73d 24ca 28bc
00000280: bfd7 96be 7ccc 643e 7d3a 3d3d 6b95 61be
00000290: 4571 82be 8462 68be c80c abbd ac01 a3bc
000002a0: 2f36 54bc 834f 1b3d 05ba ffbd c78a 53be
000002b0: 7fb3 50be a326 96bd c64a 6fbe c627 ebbc
000002c0: c62d 2bbe f57e 62bb c110 4ab9 cb33 b5be
000002d0: a11b 80be 90d4 b4be 8d0d 663d 1a61 56bc
000002e0: 6000 463e 8dc5 fb3d 8f70 ddbd 1315 34be
000002f0: 2099 333e c366 933d 0a6c b3be 5052 a93e
00000300: 5492 eb3d 116e 3b3e c421 c13d 0205 50bc
00000310: 7bc6 153e f836 d7bd 5def b53c 8e66 61bd
00000320: d6a8 43be 7793 903d daed 21bd 95af 34be
00000330: a72b 4fbe 2541 6abd 6024 c83e 654e 93be
00000340: bc12 853d bef0 70be 6c62 02be 4b9c a5be
00000350: efb4 553d 3f8b 89be 3353 b03e 8855 803e
00000360: 54fd 8abe 0ac3 35bd 3674 43bc d439 99be
00000370: f6f3 943d 54ff 38be 5034 b4bd 83f1 de3d
00000380: 1669 253e 9310 f7be 0494 743e 680b 61be
00000390: 9969 10be b7b7 2a3e 5cc6 d63e f9f9 5d3e
000003a0: fb82 02bd 58c0 2dbe 91f5 6fbd 3c98 9f3e
000003b0: 2902 2a3d 8fb0 483d 83cd 1e3e cbbf d73c
000003c0: b553 56bb 10af f93b ad61 1dbe 646a 8d3e
000003d0: ed13 a33e e505 32bd b2f5 3f3d 4758 f13d
000003e0: e3dc 49be 3920 e9bd e296 593d cf74 33be
000003f0: 728e a33e e441 fa3d 5f32 c43c 8f03 c63d

layers.0.bn1.weight f4 [32]
0.8613388 0.46819222 0.4108126 0.83278674 0.34884152 0.7709431 0.41568074 0.4246137
0.62894225 1.0537719 1.0730006 0.75288117 1.2275728 0.430794 1.026603 1.0313399
0.90623343 1.1027918 0.7527651 1.4966083 0.56115854 2.0989623 0.8002805 0.45697904
1.596816 0.3287751 1.5220408 0.55891556 0.34206542 0.5161561 0.4055588 0.4378563
00000000: b380 5c3f e4b6 ef3e 0756 d23e 8331 553f
00000010: 5b9b b23e 875c 453f 1bd4 d43e f866 d93e
00000020: 5c02 213f ffe1 863f 1558 893f d2bc 403f
00000030: 1b21 9d3f 0891 dc3e ba67 833f f202 843f
00000040: eafe 673f 4828 8d3f 37b5 403f dc90 bf3f
00000050: 16a8 0f3f 6655 0640 2fdf 4c3f 28f9 e93e
00000060: 7764 cc3f 3655 a83e 3cd2 c23f 1715 0f3f
00000070: 3323 af3e ce22 043f 67a5 cf3e b32e e03e

layers.0.bn1.bias f4 [32]
-0.14903899 0.4480836 0.5270611 0.32598263 0.5182795 -0.2900666 0.57963586 0.57573587
0.3815344 -0.087225735 -0.08556141 0.37205118 0.30075997 0.52347815 0.25224566 0.031249203
-0.15346472 0.14724214 0.341582 0.0041450188 0.4381999 0.12399231 -0.21500102 0.500987
0.6094573 0.5921532 0.09312492 0.38420823 0.5624378 0.4015335 0.5473815 0.5604893
00000000: ad9d 18be 376b e53e 7aed 063f 32e7 a63e
00000010: f7ad 043f 9c83 94be 0463 143f 6d63 133f
00000020: 7a58 c33e 68a3 b2bd d23a afbd 7e7d be3e
00000030: 36fd 993e aa02 063f 5826 813e 54fe ff3c
00000040: db25 1dbe a5c6 163e d6e3 ae3e f0d2 873b
00000050: bd5b e03e aeef fd3d 3a29 5cbe af40 003f
00000060: 6505 1c3f 5a97 173f 47b8 be3d f1b6 c43e
00000070: ecfb 0f3f cd95 cd3e 3221 0c3f 3a7c 0f3f

layers.0.bn1.running_mean f4 [32]
-0.21907122 -0.14796081 -0.20008476 0.11071271 0.047508784 0.16687383 0.22565788 -0.13452277
-0.030382644 0.17859548 -0.059696727 0.109148316 -0.04881017 0.028919457 0.102286614 -0.049756974
0.059993792 -0.20796463 0.034579713 0.1882323 -0.06848045 -0.13122804 0.07981993 -0.014910178
0.003042131 0.16776563 -0.0034976534 -0.007785418 0.13610113 -0.22552241 0.18874274 -0.13852336
00000000: 3554 60be 0a83 17be 05e3 4cbe 58bd e23d
00000010: 9298 423d f9e0 2a3e dc12 673e 56c0 09be
00000020: 06e5 f8bc bce1 363e 8e84 74bd 2789 df3d
00000030: 2ced 47bd 7fe8 ec3c a57b d13d f8cd 4bbd
00000040: 0dbc 753d aef4 54be 75a3 0d3d f8bf 403e
00000050: 7a3f 8cbd a560 06be a278 a33d d249 74bc
00000060: 7d5e 473b c1ca 2b3e e338 65bb d21c ffbb
00000070: 185e 0b3e 59ef 66be c745 413e 11d9 0dbe

layers.0.bn1.running_var f4 [32]
3.1588218 1.5521796 0.58544225 4.3276825 1.9585307 7.0273776 2.2657197 2.6688485
4.506098 1.6680764 1.7232311 3.4579139 2.55156 2.22378 4.56387 2.1959393
2.8543496 0.9266625 2.031753 2.5441742 3.3711133 1.8214564 3.7242386 1.5722526
2.206448 1.3449953 3.5661182 3.4092526 4.611708 2.2676358 2.9392564 5.964632
00000000: 232a 4a40 d2ad c63f 8bdf 153f 607c 8a40
00000010: 22b1 fa3f 47e0 e040 8d01 1140 6ace 2a40
00000020: f431 9040 8783 d53f d692 dc3f 764e 5d40
00000030: c24c 2340 6952 0e40 390b 9240 458a 0c40
00000040: aaad 3640 c139 6d3f 3e08 0240 c0d3 2240
00000050: 52c0 5740 7c25 e93f ed59 6e40 933f c93f
00000060: 7236 0d40 ce28 ac3f 483b 6440 3231 5a40
00000070: 1d93 9340 f220 1140 c71c 3c40 44de be40

layers.0.conv2.weight f4 [32, 1, 3, 3]
0.35578272 0.06273166 -0.073153645 -0.10967791 0.24610843 0.24107562 -0.5127131 0.12591712
0.2316706 0.13490967 0.48750037 0.36641198 -0.29952982 -0.35580412 -0.2716481 -0.058485236
-0.034601677 0.06471899 0.16593519 -0.3108316 0.2341589 -0.3691005 0.45888653 -0.16510697
0.068184294 0.038014717 -0.12222723 -0.32062945 -0.3653785 -0.15167244 0.30042753 0.31086898
-0.05163574 0.21942058 -0.40122208 -0.07818378 0.009312184 0.031420942 -0.088269 0.23262689
-0.3312029 0.11664074 0.43580604 -0.49658576 0.14025909 -0.09860334 -0.34888163 -0.245714
-0.32169178 -0.035754558 0.140412 0.31982636 0.12774768 0.42206573 -0.07280876 0.14953876
-0.14930238 -0.1449846 0.44633788 -0.31629178 -0.1037753 0.285464 -0.15153714 -0.31618556
0.18265499 0.17081137 0.14071088 0.37992027 -0.2967942 0.30764052 -0.19145812 -0.27007723
0.15523796 0.37437066 -0.0538391 0.34467176 0.06793679 -0.18442963 -0.06649053 -0.17376089
-0.43972468 -0.2297319 0.047004983 -0.5368722 -0.086350925 -0.013190078 0.06743694 -0.07691974
0.3482087 -0.21776587 -0.50821936 -0.024792619 0.0823932 -0.06680662 0.20295085 0.3121507
0.08052064 0.29002577 -0.28239703 -0.26308188 -0.20920728 -0.08578848 -0.28334212 0.021730594
0.28986296 0.14431785 0.35508135 0.034892354 -0.02997833 -0.25072518 0.22469522 -0.46438625
0.16891064 -0.40360835 -0.42146853 0.28992832 0.16978417 0.14214848 0.22355174 -0.29142067
0.19878636 -0.211873 -0.1929305 0.08403978 -0.26910242 0.23694131 0.13262996 0.4808573
0.0061125834 -0.3527284 -0.109449655 0.31939465 -0.2837743 -0.21607858 -0.17288129 -0.07120038
-0.26611003 -0.10690775 -0.15781239 -0.23750961 0.24199055 -0.3070366 -0.13459891 0.31277108
0.38512358 -0.1161965 -0.3684918 0.22143531 0.15928881 -0.09785064 0.11178221 0.1611061
0.11268383 -0.13583776 0.18047506 0.3764142 -0.21435247 -0.4186752 0.17073569 -0.09401533
-0.2502407 -0.11434013 -0.27619278 0.013425535 0.30056104 0.07657856 -0.273267 -0.059122674
0.28224397 -0.03424629 -0.23067832 -0.1387986 0.0970138 -0.16971178 -0.09766418 -0.7771451
-0.164155 -0.10642065 -0.19028784 0.068730384 0.108808435 0.46693653 0.16135088 -0.029742502
-0.23958851 -0.4032901 0.15531014 -0.035306834 0.07227357 0.18346459 -0.01978188 -0.38842344
0.13022171 0.25251198 -0.0188085 -0.2394409 0.10925716 0.29043943 0.12540926 0.072053246
0.05694817 0.32369658 0.27212265 -0.016523328 0.3287686 0.39929703 -0.14859222 -0.16663562
0.28745636 0.34130824 0.23470135 0.2739337 -0.39383534 0.16388248 -0.43364528 -0.16661999
0.16886303 -0.021687346 -0.0436982 -0.010351971 0.6181622 -0.050567355 0.09924195 -0.05150927
-0.3708436 -0.072117366 -0.36347127 0.098505445 0.21440262 0.25731948 -0.38982165 -0.1582258
0.3904626 0.072940364 -0.1598568 -0.007305768 0.41848418 -0.29664117 0.2045838 -0.098051645
-0.31622407 -0.17461738 0.18064652 0.30252656 0.16404255 0.3593185 0.02872205 0.07107251
-0.39391553 -0.07016337 -0.38603312 -0.10274507 0.0210606 -0.24030158 0.18685323 0.13787544
00000000: 2729 b63e 7579 803d 94d1 95bd d09e e0bd
00000010: d903 7c3e 87dc 763e 2a41 03bf 6bf0 003e
00000020: 0f3b 6d3e c325 0a3e a699 f93e 5a9a bb3e
00000030: f95b 99be f52b b6be 7615 8bbe 378e 6fbd
00000040: 7dba 0dbd 648b 843d eaea 293e 5225 9fbe
00000050: 5ac7 6f3e befa bcbe 2df3 ea3e cd11 29be
00000060: 35a4 8b3d 52b5 1b3d 4552 fabd 8b29 a4be
00000070: e412 bbbe 0550 1bbe a3d1 993e 382a 9f3e
00000080: ff7f 53bd caaf 603e fb6c cdbe d11e a0bd
00000090: 2192 183c 3fb3 003d 61c6 b4bd be35 6e3e
000000a0: 6d93 a9be 57e1 ee3d f821 df3e 7d40 febe
000000b0: 14a0 0f3e 8cf0 c9bd 9da0 b2be 739c 7bbe
000000c0: c9b4 a4be 5f73 12bd 2ac8 0f3e 48c0 a33e
000000d0: 4ad0 023e 0019 d83e c21c 95bd b020 193e
000000e0: b9e2 18be d876 14be 6686 e43e fff0 a1be
000000f0: 2588 d4bd 5628 923e 8d2c 1bbe 13e3 a1be
00000100: e909 3b3e 2de9 2e3e 8316 103e e984 c23e
00000110: 69f5 97be 0f83 9d3e 990d 44be 9047 8abe
00000120: b3f6 1e3e 83ad bf3e 6386 5cbd d178 b03e
00000130: 7222 8b3d 1fdb 3cbe 302c 88bd 60ee 31be
00000140: 9823 e1be d73e 6bbe 4c88 403d 7570 09bf
00000150: c1d8 b0bd 321b 58bc 611c 8a3d 1988 9dbd
00000160: 6948 b23e 04fe 5ebe aa1a 02bf e419 cbbc
00000170: c4bd a83d e9d1 88bd 59d2 4f3e 37d2 9f3e
00000180: 01e8 a43d 427e 943e 5896 90be abb2 86be
00000190: 6f3a 56be dfb1 afbd 3812 91be 5c04 b23c
000001a0: eb68 943e 0fc8 133e 39cd b53e 49eb 0e3d
000001b0: 1d95 f5bc 0d5f 80be 8116 663e 09c4 edbe
000001c0: e9f6 2c3e c1a5 cebe b9ca d7be 7c71 943e
000001d0: e7db 2d3e 5f8f 113e bfea 643e 1735 95be
000001e0: a78e 4b3e 3cf5 58be 938f 45be 0c1d ac3d
000001f0: cbc7 89be bea0 723e 26d0 073e ee32 f63e
00000200: 114c c83b d198 b4be 2427 e0bd b287 a33e
00000210: dd4a 91be b443 5dbe cb07 31be 81d1 91bd
00000220: 933f 88be 73f2 dabd 9299 21be b835 73be
00000230: 5fcc 773e e733 9dbe 4cd4 09be 8823 a03e
00000240: eb2e c53e 6ef8 edbd f5aa bcbe f0bf 623e
00000250: 9b1c 233e eb65 c8bd 12ee e43d fff8 243e
00000260: c8c6 e63d 0e19 0bbe 74ce 383e 5db9 c03e
00000270: 377f 5bbe 995c d6be 56d5 2e3e 1c8b c0bd
00000280: 8d1f 80be 282b eabd 2469 8dbe c6f6 5b3c
00000290: 23e3 993e 38d5 9c3d a7e9 8bbe 9e2a 72bd
000002a0: 4882 903e d645 0cbd f036 6cbe 3821 0ebe
000002b0: 2caf c63d edc8 2dbe 2804 c8bd fbf2 46bf
000002c0: 4018 28be 12f3 d9bd d1da 42be 84c2 8c3d
000002d0: f5d6 de3d 4e12 ef3e 2a39 253e 8ca6 f3bc
000002e0: b156 75be 0a7c cebe 9f09 1f3e e69d 10bd
000002f0: 2a04 943d 24de 3b3e 9c0d a2bc 70df c6be
00000300: d758 053e 4049 813e 4914 9abc ff2f 75be
00000310: 38c2 df3d 7ab4 943e 496b 003e a790 933d
00000320: 7c42 693d 8fbb a53e a953 8b3e ee5b 87bc
00000330: 5c54 a83e a970 cc3e 8f28 18be 87a2 2abe
00000340: 7b2d 933e f4bf ae3e 8d55 703e 0a41 8c3e
00000350: c9a4 c9be cfd0 273e c106 debe 6e9e 2abe
00000360: 6eea 2c3e a9a9 b1bc e2fc 32bd 509b 29bc
00000370: e13f 1e3f b71f 4fbd 5d3f cb3d 62fb 52bd
00000380: 36df bdbe 45b2 93bd e818 babe 39bd c93d
00000390: 5c8c 5b3e 61bf 833e b496 c7be f205 22be
000003a0: b7ea c73e c261 953d 80b1 23be 3965 efbb
000003b0: 8f43 d63e 5ae1 97be 6a7e 513e 4dcf c8bd
000003c0: 1fe8 a1be e6ce 32be 67fb 383e c3e4 9a3e
000003d0: c5fa 273e 98f8 b73e 814a eb3c 778e 913d
000003e0: 4caf c9be d0b1 8fbd 22a6 c5be 026c d2bd
000003f0: 4887 ac3c 9e11 76be 7456 3f3e 382f 0d3e

layers.0.bn2.weight f4 [32]
0.7333596 1.1578573 1.1494946 0.9238768 1.4500548 1.025324 1.45525 1.2807037
1.1395428 0.84825575 0.8847921 0.8800054 0.7879153 1.2260913 0.90294564 0.8386166
0.9833572 0.8217728 1.088961 0.8993229 1.0903044 1.0134157 0.9246332 0.97571594
1.1590697 1.0204735 0.97069407 0.97851 1.2209241 1.2941248 0.8760571 1.1705569
00000000: 74bd 3b3f ab34 943f a422 933f 3183 6c3f
00000010: 659b b93f d13d 833f a245 ba3f 19ee a33f
00000020: 8adc 913f 4a27 593f bc81 623f 0948 613f
00000030: d1b4 493f 8ff0 9c3f 7227 673f 94af 563f
00000040: 4cbd 7b3f b45f 523f 1363 8b3f 073a 663f
00000050: 188f 8b3f 9bb7 813f c3b4 6c3f 85c8 793f
00000060: 655c 943f e09e 823f 687f 783f a27f 7a3f
00000070: 3e47 9c3f e2a5 a53f 4745 603f cfd4 953f

layers.0.bn2.bias f4 [32]
0.14330612 -0.077417806 -0.02957478 -0.02361646 -0.14492899 -0.027953481 0.008252579 0.011310081
-0.10747412 0.022067595 0.0011148318 0.053479094 0.16099375 -0.18826465 0.048872933 0.19469656
-0.009715146 0.04323244 -0.09382853 0.45995268 -0.07670015 -0.41511592 0.86023664 -0.1725081
0.027334107 0.012249918 0.12080539 -0.32510358 -0.108673625 -0.19109409 0.10551193 -0.30080736
00000000: d7be 123e 3a8d 9ebd cf46 f2bc 4e77 c1bc
00000010: 4468 14be b3fe e4bc d335 073c eb4d 393c
00000020: 641b dcbd 1ac7 b43c 8c1f 923a e50c 5b3d
00000030: 8cdb 243e 73c8 40be fc2e 483d 895e 473e
00000040: 472c 1fbc 8014 313d 2c29 c0bd eb7e eb3e
00000050: f814 9dbd 138a d4be 7838 5c3f f7a5 30be
00000060: c7eb df3c e1b3 483c d168 f73d fa73 a6be
00000070: 4790 debd 2bae 43be a416 d83d 6c03 9abe

layers.0.bn2.running_mean f4 [32]
0.12972663 -0.011296122 -0.0056225983 -0.24991311 0.0045783664 -0.0009143548 -0.03057533 0.07194244
-0.014187475 -0.19729225 0.06408489 0.033819824 -0.39920697 -0.06976027 -0.10982617 -0.2691644
0.12388233 -0.23141588 -0.09778509 -0.79550457 0.08213898 0.2531346 0.23089175 0.05056424
0.27862158 0.044907544 -0.12623684 -0.027401373 -0.046569772 -0.03922763 0.5005156 0.0601553
00000000: 0fd7 043e 5f13 39bc c63d b8bb 39e9 7fbe
00000010: 1f06 963b 50b1 6fba 1d79 fabc 8f56 933d
00000020: 9572 68bc fb06 4abe f03e 833d a886 0a3d
00000030: db64 ccbe 79de 8ebd 8bec e0bd ebcf 89be
00000040: 05b6 fd3d 49f8 6cbe 8d43 c8bd 30a6 4bbf
00000050: 7b38 a83d dc9a 813e e36e 6c3e 731c 4f3d
00000060: 7da7 8e3e f9f0 373d 3b44 01be d878 e0bc
00000070: f2bf 3ebd 27ad 20bd ca21 003f 6765 763d

layers.0.bn2.running_var f4 [32]
0.16406326 0.11713253 0.04982894 0.14358546 0.07774247 0.0371179 0.08893448 0.06272059
0.09963271 0.16780038 0.20488194 0.043904953 0.3298835 0.04847575 0.10704452 0.23392037
0.16124514 0.27562684 0.112980925 1.3599795 0.1331115 0.6659819 0.19419187 0.052901704
0.27725393 0.05120716 0.20766686 0.041662022 0.02578867 0.15860462 0.14505467 0.07763339
00000000: 3300 283e 2ee3 ef3d 6e19 4c3d 1108 133e
00000010: 7237 9f3d f008 183d 4823 b63d a773 803d
00000020: 3c0c cc3d ddd3 2b3e 92cc 513e aed5 333d
00000030: 7de6 a83e 828e 463d 283a db3d d288 6f3e
00000040: 721d 253e f61e 8d3e 8b62 e73d cf13 ae3f
00000050: 624e 083e ca7d 2a3f 3cda 463e 75af 583d
00000060: 3af4 8d3e 99be 513d 9fa6 543e cca5 2a3d
00000070: c342 d33c 4069 223e 3689 143e 41fe 9e3d

layers.0.conv3.weight f4 [12, 32, 1, 1]
0.13618787 -0.24340826 -0.07676468 0.20017628 -0.40828055 0.18028463 -0.37833777 0.20613162
0.43807343 -0.28041658 0.020280901 0.0679128 -0.1436094 0.17544176 -0.012564906 -0.00976228
-0.09914925 -0.048289757 -0.16215296 -0.14808904 -0.286288 0.017256621 0.07768111 0.28510723
-0.13234068 -0.11923164 0.03969801 0.14066115 -0.080035165 -0.09255735 0.14272267 -0.28870788
0.08834088 0.08294602 0.010166819 -0.3558329 -0.45764276 0.05574328 -0.2679915 0.22636138
0.19149105 0.24088368 0.085341714 -0.02990491 0.20383447 0.32581818 -0.21217972 0.0034953204
-0.18272442 -0.0021312586 -0.0030554978 0.23933491 -0.12307251 0.11092757 0.07129034 0.1552716
0.109578654 -0.17600177 0.062336482 -0.18000156 -0.082442366 -0.14806694 0.2600223 0.26619723
-0.19806097 0.258863 -0.17070116 -0.23355025 -0.07795927 0.16779709 -0.0948363 -0.21446103
0.125949 0.041769654 0.009571688 -0.0321771 0.17580177 -0.28472358 0.06386954 -0.00047238465
0.039754614 0.12612997 -0.20143816 -0.2621825 0.23355854 0.28085357 0.3302631 -0.31341004
0.22856571 -0.03533563 0.07814004 0.2453422 -0.3115494 -0.2661289 0.043030415 -0.17854622
-0.03727138 -0.015654596 0.13375303 -0.021874886 -0.11725128 0.09371536 -0.18615502 -0.03403886
-0.10853263 0.02822742 -0.06489264 0.26039684 -0.22864522 0.014626549 0.15772189 -0.020177431
-0.004489668 -0.11097897 0.42540735 0.07214667 -0.06694249 0.5229223 0.3204108 -0.029667133
0.08069784 0.6173447 -0.17265664 -0.03791842 0.3543339 -0.29462138 0.1343552 -0.049741033
-0.08684696 0.16620481 -0.18261674 0.21087544 -0.108322494 0.18262158 0.1784108 0.3247272
0.14205547 0.12693541 0.031394966 -0.22041151 0.082585886 0.2547066 0.370383 -0.019076966
0.35482648 -0.11218639 0.2828525 -0.010538008 0.04810231 -0.02614908 -0.37564573 0.22295347
0.0653274 0.07069858 0.010658299 0.19667743 -0.32861176 -0.035127323 -0.10797732 0.076000065
-0.36405182 -0.10333258 0.4165007 0.03349587 0.3633992 0.0007696349 0.2917856 0.13330236
0.07030554 0.0085802125 -0.1586256 -0.09460987 0.17279734 0.32134485 -0.103063606 0.05932544
-0.33881396 -0.23088534 0.094642885 -0.14673133 -0.12865363 0.17815463 -0.19577299 -0.09185231
0.10798006 0.24425584 0.09697684 -0.013844306 0.067905135 -0.010170703 -0.08680444 -0.30087104
0.18301067 -0.21000606 -0.012220507 -0.09748129 0.148176 -0.07167706 0.17792639 -0.17428586
-0.15038277 0.19791938 0.3477812 -0.29077697 -0.1091353 -0.2787242 0.19705202 -0.30779356
-0.15108845 0.15629433 -0.017433312 0.04814437 -0.25639123 -0.08271331 -0.01085086 0.12255567
0.3861431 -0.06353917 0.016773283 0.09194294 -0.052485194 0.17225832 0.01735935 -0.38965672
0.028829677 -0.0116831055 0.027805733 -0.27831367 0.23724104 0.11077944 0.29577565 0.15379697
0.08510617 -0.30266342 0.3773321 0.4118294 -0.14871347 0.07405141 0.11741164 -0.07210476
-0.00813723 -0.18022005 -0.017751435 0.21580657 -0.10955835 -0.18998443 0.22196463 -0.11658243
-0.012335023 -0.11542926 0.063960746 0.11796664 -0.4538035 0.24242474 -0.008761034 0.18020444
00000000: d574 0b3e 0440 79be cd36 9dbd 03fb 4c3e
00000010: 260a d1be 899c 383e 7db5 c1be 2b14 533e
00000020: 294b e03e c392 8fbe 2224 a63c de15 8b3d
00000030: 580e 13be 01a7 333e 09dd 4dbc f8f1 1fbc
00000040: c30e cbbd 7bcb 45bd 6d0b 26be a7a4 17be
00000050: 5794 92be c25d 8d3c 4617 9f3d 93f9 913e
00000060: 5184 07be b82f f4bd 619a 223d 7a09 103e
00000070: 7ae9 a3bd b58e bdbd e425 123e 85d1 93be
00000080: 10ec b43d 9adf a93d bb92 263c bb2f b6be
00000090: 2750 eabe 1153 643d 2f36 89be 47cb 673e
000000a0: 3b16 443e 36aa 763e a3c7 ae3d 24fb f4bc
000000b0: fcb9 503e a4d1 a63e a445 59be bf11 653b
000000c0: 1c1c 3bbe 96ac 0bbb bf3e 48bb 3614 753e
000000d0: 710d fcbd fe2d e33d ab00 923d 85ff 1e3e
000000e0: c66a e03d cf39 34be 8a54 7f3d 5452 38be
000000f0: 8bd7 a8bd dc9e 17be a521 853e 014b 883e
00000100: 7fd0 4abe b189 843e 49cc 2ebe cc27 6fbe
00000110: 1ca9 9fbd 00d3 2b3e 8939 c2bd ac9b 5bbe
00000120: c6f8 003e a816 2b3d 92d2 1c3c 23cc 03bd
00000130: 6105 343e 4ac7 91be 09ce 823d 65aa f7b9
00000140: bcd5 223d 3728 013e ce45 4ebe c93c 86be
00000150: f829 6f3e 0acc 8f3e 3f18 a93e 4877 a0be
00000160: 210d 6a3e 18bc 10bd e307 a03d fc3a 7b3e
00000170: 6783 9fbe 0c42 88be a940 303d d2d4 36be
00000180: e0a9 18bd 113e 80bc 8ef6 083e f632 b3bc
00000190: 7021 f0bd d7ed bf3d 6c9f 3ebe 556c 0bbd
000001a0: 5b46 debd 313d e73c 6fe6 84bd bc52 853e
000001b0: f921 6abe 31a4 6f3c d981 213e 244b a5bc
000001c0: 111e 93bb f148 e3bd fece d93e a2c1 933d
000001d0: 2519 89bd 3cde 053f e20c a43e 7d08 f3bc
000001e0: e944 a53d 4d0a 1e3f e7cc 30be 5850 1bbd
000001f0: 416b b53e 9dd8 96be 6994 093e 41bd 4bbd
00000200: d2dc b1bd 9831 2a3e e2ff 3abe bbef 573e
00000210: 2fd8 ddbd 2701 3b3e 52b1 363e a542 a63e
00000220: fd76 113e 5bfb 013e 0298 003d 8eb3 61be
00000230: ca22 a93d e768 823e d7a2 bd3e 4c47 9cbc
00000240: d1ab b53e fac1 e5bd 0bd2 903e 9ca7 2cbc
00000250: ee06 453d 9836 d6bc a354 c0be ea4d 643e
00000260: 5fca 853d 6bca 903d 25a0 2e3c cf65 493e
00000270: cd3f a8be abe1 0fbd 3723 ddbd eca5 9b3d
00000280: 0065 babe 08a0 d3bd 943f d53e f732 093d
00000290: 760f ba3e 53c1 493a ec64 953e 6a80 083e
000002a0: 5afc 8f3d 0594 0c3c c06e 22be d2c2 c1bd
000002b0: c9f1 303e 5087 a43e 0313 d3bd 3cff 723d
000002c0: 0679 adbe 356d 6cbe 21d4 c13d bd40 16be
000002d0: c7bd 03be 2b6e 363e b778 48be 101d bcbd
000002e0: a624 dd3d 341e 7a3e cb9b c63d 3ad3 62bc
000002f0: d911 8b3d 05a3 26bc 87c6 b1bd c50b 9abe
00000300: 2667 3b3e d40b 57be 8538 48bc 45a4 c7bd
00000310: 73bb 173e 6ccb 92bd 5632 363e fe77 32be
00000320: f1fd 19be 61ab 4a3e 6110 b23e b8e0 94be
00000330: 5482 dfbd f0b4 8ebe 01c8 493e 1e97 9dbe
00000340: eeb6 1abe 9f0b 203e 4ed0 8ebc 0833 453d
00000350: b645 83be 9965 a9bd cec7 31bc 78fe fa3d
00000360: 8cb4 c53e d320 82bd 2068 893c 954c bc3d
00000370: b7fa 56bd 7c64 303e 3235 8e3c 1681 c7be
00000380: 372c ec3c 7f6a 3fbc d9c8 e33c 217f 8ebe
00000390: 51ef 723e 55e0 e23d e86f 973e f47c 1d3e
000003a0: 254c ae3d b3f6 9abe ac31 c13e 4edb d23e
000003b0: 5848 18be 44a8 973d 8475 f03d a9ab 93bd
000003c0: 0452 05bc 9b8b 38be 756b 91bc 66fc 5c3e
000003d0: 2160 e0bd 478b 42be b24a 633e c5c2 eebd
000003e0: d618 4abc 2d66 ecbd dafd 823d 7e98 f13d
000003f0: ef58 e8be 313e 783e 718a 0fbc 8387 383e

layers.0.bn3.weight f4 [12]
1.0955559 0.9974411 1.1123695 1.1003544 0.95643437 1.003188 0.9882492 1.029658
0.8981793 0.9585976 1.0023403 1.0516324
00000000: 2d3b 8c3f 4d58 7f3f 2062 8e3f 6ad8 8c3f
00000010: e2d8 743f 7768 803f e6fd 7c3f d5cb 833f
00000020: 14ef 653f a766 753f b04c 803f e49b 863f

layers.0.bn3.bias f4 [12]
-0.06785163 0.055699125 0.01819215 0.06847835 -0.04565699 -0.12654741 -0.17111793 -0.015447822
0.042960778 -0.09215297 0.18143827 0.11149323
00000000: ccf5 8abd c424 643d b407 953c 613e 8c3d
00000010: d302 3bbd a595 01be 8a39 2fbe dd18 7dbc
00000020: a4f7 2f3d b2ba bcbd f4ca 393e 9056 e43d

layers.0.bn3.running_mean f4 [12]
-0.39691323 0.2907428 -0.11152082 0.6355598 0.37989306 0.09944999 -0.14403485 0.51502454
0.8497186 -0.24789798 0.86164606 0.34391943
00000000: 3638 cbbe 3edc 943e 0765 e4bd 0cb4 223f
00000010: 5881 c23e 70ac cb3d df7d 13be a6d8 033f
00000020: 2887 593f f8d8 7dbe d694 5c3f 3516 b03e

layers.0.bn3.running_var f4 [12]
0.5780544 0.36640313 0.41293967 0.59750724 0.5115381 0.35008007 0.45543864 0.42621467
0.3781238 0.32874787 0.53750694 0.42689574
00000000: 60fb 133f 3199 bb3e d46c d33e 3cf6 183f
00000010: 29f4 023f b23d b33e 412f e93e cf38 da3e
00000020: 7199 c13e a451 a83e 0e9a 093f 1492 da3e

layers.1.conv1.weight f4 [48, 12, 1, 1]
-0.21414119 -0.028886257 -0.42875376 -0.21785785 -0.24256173 -0.17051354 0.055591047 0.06865717
0.3729415 -0.040356006 0.21032372 0.19471332 0.1306442 0.03407544 -0.14648451 0.047156688
-0.07934981 0.008252329 -0.40150028 0.7552261 -0.022361051 -0.050443925 0.08031795 0.2892467
0.063331485 0.0862658 0.05678663 0.022276955 0.3888663 -0.31109396 0.057225652 -0.29872546
-0.4126617 -0.37260514 0.1692462 0.045453425 -0.14757545 -0.24310301 -0.46797752 -0.20188327
-0.22551332 -0.15848917 0.5879672 -0.2919994 0.01819411 -0.09070611 -0.052898303 0.17740509
-0.4281406 0.38606897 0.052922565 -0.05825244 0.027925478 -0.026527885 0.41557828 0.06459214
0.25879526 0.029386906 0.17632937 -0.058052402 -0.00046115974 -0.3310105 -0.19810931 0.121599294
0.56609994 -0.0087521 -0.009231847 0.049556497 -0.12765169 0.30472735 -0.15984115 -0.027037198
0.033826064 0.40402386 -0.026368994 0.2658284 -0.24091144 0.111057624 -0.12579924 0.39388445
-0.21025296 -0.40912095 -0.15302102 0.08559036 0.14062583 -0.21911767 -0.013740756 0.44227105
0.48971835 0.039346386 -0.1247923 -0.033328895 -0.043746583 0.2985848 0.047102727 0.17156337
-0.12754321 -0.27753037 -0.40814212 -0.40535876 -0.10695175 0.03505281 -0.21607465 -0.047711313
0.124097325 -0.03359088 -0.08544751 0.3209497 -0.25815865 0.13103305 -0.3620726 0.20995684
0.2657014 -0.18669742 -0.21691634 0.17661336 0.14958276 0.23491925 0.40004987 -0.24754852
0.2691744 -0.3029976 -0.5870803 -0.33146876 -0.0017927448 -0.23530057 -0.0314576 -0.0022399542
-0.014296605 0.06475976 0.006480122 0.3510474 -0.2854252 0.34681818 0.45604578 0.034055263
-0.0886959 0.1280877 0.40877444 -0.15826325 0.24973844 0.25112686 0.10423036 -0.3485105
-0.11962077 -0.14156698 -0.16835554 0.21752992 0.08943592 0.27350745 -0.14581609 0.2664128
0.60857785 0.021857558 0.25250188 0.26620275 -0.47856194 -0.19567454 0.2813916 -0.16371326
0.24837404 0.26059088 -0.23241372 -0.21515055 -0.005889411 -0.019961985 0.059253234 0.11638939
0.22090447 0.030452682 0.29346496 0.09789583 -0.010342982 0.2279971 -0.33539665 -0.00016353572
0.39918497 0.12234386 0.29703557 0.13876094 -0.19761917 -0.089273825 -0.108556844 -0.31077662
0.18206783 0.19691959 0.18513694 0.35416812 0.22731179 -0.093994945 0.035965335 0.31250566
-0.18922368 -0.20338169 0.3705458 0.1253063 -0.25100672 0.0029267012 -0.5113613 -0.19524257
-0.092836134 -0.2803097 0.19170181 0.05107158 0.6797126 0.22582936 0.00573559 -0.020442966
-0.12430719 -0.030772649 0.008363846 -0.3872181 0.18618412 -0.076577894 0.1568158 -0.027934784
-0.21903504 0.26738155 -0.014075382 0.22970597 -0.07658275 -0.12295217 -0.48294717 0.57438976
0.120668225 0.11376212 0.13096313 -0.049159072 -0.0007387434 -0.28646523 0.025974067 0.2863069
-0.16157165 0.3589175 0.21507229 -0.009006472 -0.008715827 0.06844827 0.115509115 -0.27809548
0.22644396 -0.004958806 -0.07743441 0.11040568 0.19222935 -0.114047095 0.24988732 -0.058601264
-0.3207344 -0.26496175 -0.3469284 0.38824296 0.18694772 -0.21489619 0.13594425 -0.016639225
00000000: d447 5bbe dfa2 ecbc 9d85 dbbe 2116 5fbe
00000010: 1a62 78be 1a9b 2ebe 70b3 633d 219c 8c3d
00000020: 30f2 be3e 574c 25bd 1a5f 573e ee62 473e
00000030: 98c7 053e b092 0b3d 0900 16be 5f27 413d
00000040: 2782 a2bd c734 073c 7291 cdbe 7f56 413f
00000050: 862e b7bc 4a9e 4ebd bd7d a43d 2518 943e
00000060: f0b3 813d 20ac b03d 1999 683d 297e b63c
00000070: 7c19 c73e b547 9fbe 7265 6a3d 8bf2 98be
00000080: 6548 d3be 1ac6 bebe e04e 2d3e 5f2d 3a3d
00000090: 051e 17be ffef 78be c09a efbe 7dba 4ebe
000000a0: f7ec 66be fc4a 22be 0585 163f f280 95be
000000b0: d00b 953c 20c4 b9bd e4ab 58bd aea9 353e
000000c0: 3f35 dbbe d5aa c53e 55c5 583d 1c9a 6ebd
000000d0: f9c3 e43c 0251 d9bc adc6 d43e e248 843d
000000e0: d080 843e cfbc f03c b08f 343e 5bc8 6dbd
000000f0: d0c7 f1b9 357a a9be 2bdd 4abe 0d09 f93d
00000100: edeb 103f f864 0fbc 2c41 17bc c1fb 4a3d
00000110: 20b7 02be 3905 9c3e 66ad 23be 1d7d ddbc
00000120: 338d 0a3d 37dc ce3e ca03 d8bc a91a 883e
00000130: 7db1 76be 2e72 e33d 84d1 00be 39ab c93e
00000140: 8d4c 57be 4d78 d1be 8bb1 1cbe 004a af3d
00000150: 3800 103e 6260 60be e820 61bc 5a71 e23e
00000160: 5dbc fa3e ad29 213d 1b93 ffbd e183 08bd
00000170: 9e2f 33bd 1be0 983e caee 403d 4fae 2f3e
00000180: b09a 02be 7618 8ebe 01f8 d0be 2f8b cfbe
00000190: 8509 dbbd 8993 0f3d ac42 5dbe f06c 43bd
000001a0: bd26 fe3d 9796 09bd 1bff aebd 8553 a43e
000001b0: 5f2d 84be 872d 063e 9461 b9be edfe 563e
000001c0: 040a 883e 9c2d 3fbe 511f 5ebe 22da 343e
000001d0: 392c 193e ac8e 703e 56d3 cc3e 5c7d 7dbe
000001e0: 3ad1 893e 8022 9bbe e54a 16bf 46b6 a9be
000001f0: 89fa eaba a2f2 70be afd9 00bd 32cc 12bb
00000200: 4f3c 6abc c4a0 843d 3457 d43b 7cbc b33e
00000210: 4023 92be 2792 b13e d57e e93e 887d 0b3d
00000220: 32a6 b5bd 6c29 033e e24a d13e c30f 22be
00000230: 6fbb 7f3e b393 803e ba76 d53d f86f b2be
00000240: bcfb f4bd eff6 10be 6565 2cbe 2ac0 5e3e
00000250: 2e2a b73d 2b09 8c3e d050 15be 4267 883e
00000260: c2cb 1b3f 9f0e b33c ed47 813e ba4b 883e
00000270: 1206 f5be e85e 48be 8f12 903e 73a4 27be
00000280: c455 7e3e 2b6c 853e ddfd 6dbe 6d50 5cbe
00000290: f6fb c0bb 5187 a3bc 85b3 723d 8f5d ee3d
000002a0: c834 623e e777 f93c 0a41 963e 9c7d c83d
000002b0: 9c75 29bc 1278 693e 1cb9 abbe c97a 2bb9
000002c0: f961 cc3e 6b8f fa3d 0c15 983e 5917 0e3e
000002d0: ae5c 4abe 32d5 b6bd 0d53 debd 1d1e 9fbe
000002e0: fd6f 3a3e 4aa5 493e 8a94 3d3e 8655 b53e
000002f0: 6cc4 683e 6c80 c0bd 6350 133d be00 a03e
00000300: dac3 41be 4a43 50be 2eb8 bd3e 4b50 003e
00000310: f483 80be e6cd 3f3b 93e8 02bf abed 47be
00000320: df20 bebd c184 8fbe 7b4d 443e 6f30 513d
00000330: a501 2e3f d03f 673e 9ef1 bb3b 0278 a7bc
00000340: c594 febd ec16 fcbc 8308 093c 7341 c6be
00000350: 0da7 3e3e dfd4 9cbd 5294 203e 7dd7 e4bc
00000360: b94a 60be 3ce6 883e 6e9c 66bc 0b38 6b3e
00000370: 6bd7 9cbd 59ce fbbd da44 f7be 350b 133f
00000380: e720 f73d 1dfc e83d 331b 063e 065b 49bd
00000390: 3ba8 41ba 92ab 92be 91c7 d43c d196 923e
000003a0: 0a73 25be 09c4 b73e e93b 5c3e e28f 13bc
000003b0: d4cc 0ebc 9b2e 8c3d 0b90 ec3d 8862 8ebe
000003c0: ede0 673e 7b7d a2bb ef95 9ebd 601c e23d
000003d0: c5d7 443e 8691 e9bd 76e2 7f3e e107 70bd
000003e0: 4d37 a4be 11a9 87be 99a0 b1be c8c7 c63e
000003f0: 396f 3f3e bf0d 5cbe f834 0b3e fc4e 88bc

layers.1.bn1.weight f4 [48]
0.9521869 0.44473585 1.4466558 0.6040756 1.0283462 0.7569348 0.98601264 0.78236234
0.8947769 1.1693554 0.93649596 0.774319 0.59576976 0.91480726 1.9935594 0.6515686
0.80451375 0.8608063 0.95030344 1.6644993 0.9083401 0.58263016 0.81905144 0.69717747
0.7841335 0.9558365 2.0389678 0.86846995 0.7764309 0.3314107 0.70781875 0.6822597
0.90112394 1.2399542 0.9221312 1.8413332 0.74109256 0.53057563 0.9179333 0.6692684
0.8885434 1.5151521 0.87089455 0.605328 0.6641832 0.26820314 0.52715546 0.7856106
00000000: 85c2 733f 6bb4 e33e 042c b93f b3a4 1a3f
00000010: d9a0 833f 7bc6 413f 536b 7c3f e648 483f
00000020: 1910 653f 70ad 953f 33be 6f3f c539 463f
00000030: 5e84 183f cf30 6a3f f42c ff3f 33cd 263f
00000040: 9df4 4d3f cd5d 5c3f 1647 733f 500e d53f
00000050: fa88 683f 4027 153f 5bad 513f 397a 323f
00000060: f9bc 483f b3b1 743f 737e 0240 0c54 5e3f
00000070: 2dc4 463f aaae a93e 9c33 353f 92a8 2e3f
00000080: 0fb0 663f d2b6 9e3f ca10 6c3f ceb0 eb3f
00000090: 3eb8 3d3f ced3 073f adfd 6a3f 2d55 2b3f
000000a0: 9577 633f 81f0 c13f f2f2 5e3f c7f6 1a3f
000000b0: e907 2a3f ec51 893e a9f3 063f c71d 493f

layers.1.bn1.bias f4 [48]
0.424102 0.49168363 -0.043536495 0.5008941 0.072635055 -0.11394421 0.026357943 0.36963716
0.046360344 0.003107793 -0.20304546 0.33653435 0.5869006 0.16502625 0.15042733 0.45435166
0.19811898 -0.3227818 0.56430006 0.07005313 0.11187281 0.46758604 -0.24204023 0.28821334
0.45865932 -0.1498693 -0.39746514 0.23059243 0.3221867 0.6434739 -0.34772617 0.4228464
-0.19345637 0.04108598 0.27929485 -0.03993151 -0.2897243 0.3809557 0.30839017 0.4953818
-0.021510173 0.7899901 0.28388312 0.35862467 -0.4250973 0.6755999 0.47211552 0.33573034
00000000: e623 d93e f5bd fb3e 5353 32bd 993a 003f
00000010: b0c1 943d 955b e9bd 9dec d73c 1541 bd3e
00000020: 58e4 3d3d 1dac 4b3b 26eb 4fbe 3b4e ac3e
00000030: 1e3f 163f a4fc 283e 9f09 1a3e c8a0 e83e
00000040: b4df 4a3e a843 a5be f875 103f 0478 8f3d
00000050: 921d e53d 7067 ef3e 65d9 77be b390 933e
00000060: 65d5 ea3e 5677 19be 8d80 cbbe 6c20 6c3e
00000070: a8f5 a43e b5ba 243f 2a09 b2be 537f d83e
00000080: 6d19 46be c649 283d bcff 8e3e 398f 23bd
00000090: be56 94be a00c c33e 51e5 9d3e afa2 fd3e
000000a0: 1a36 b0bc cb3c 4a3f 2159 913e a79d b73e
000000b0: 5aa6 d9be 1df4 2c3f 20b9 f13e d9e4 ab3e

layers.1.bn1.running_mean f4 [48]
0.09245418 0.10243279 0.07059286 -0.070946515 0.011836598 -0.102326185 0.059682027 0.001644635
0.024439735 0.10962765 0.000781439 -0.06090361 0.094078794 0.03831826 0.102903716 -0.025967577
0.17756534 0.02020432 0.15036678 -0.08681733 -0.054777358 0.10022671 -0.13689013 -0.025845738
-0.09398876 0.03156009 -0.028253125 -0.055219647 -0.097989276 -0.022141851 -0.018051222 -0.036958214
-0.1266246 -0.053190686 0.17742424 -0.13083024 0.042298034 0.1272251 0.06449072 0.09676018
-0.0589234 0.12505788 0.009659907 -0.09968895 0.13231425 -0.08934543 -0.12589085 0.14929569
00000000: 9e58 bd3d 48c8 d13d fd92 903d 684c 91bd
00000010: 4aee 413c 6490 d1bd 2475 743d cb90 d73a
00000020: d735 c83c 7684 e03d 7cd9 4c3a 1076 79bd
00000030: 62ac c03d 9cf3 1c3d 2fbf d23d f5b9 d4bc
00000040: b0d3 353e 8883 a53c c0f9 193e 49cd b1bd
00000050: 395e 60bd a943 cd3d ed2c 0cbe 71ba d3bc
00000060: 2e7d c0bd 2745 013d 1973 e7bc ff2d 62bd
00000070: 9aae c8bd d462 b5bc 28e0 93bc 7f61 17bd
00000080: e1a9 01be 7ade 59bd b3ae 353e 5df8 05be
00000090: b440 2d3d 4c47 023e b613 843d 342a c63d
000000a0: aa59 71bd 2c0f 003e 9644 1e3c b829 ccbd
000000b0: 637d 073e bdfa b6bd 88e9 00be f8e0 183e

layers.1.bn1.running_var f4 [48]
0.97126573 1.0859232 0.63120675 1.0921408 0.60947025 0.64724004 0.68513966 0.80211025
0.94068676 0.6835945 1.0022622 0.96961576 1.4967803 0.63859713 0.494908 1.2233227
0.71586514 0.9852412 0.9046956 0.36686823 0.49313816 0.52829444 0.7883067 0.61724705
0.8997417 0.65493774 0.91663784 0.5900771 0.59034693 0.98530984 0.516804 0.78716457
0.7420053 0.66252816 1.007387 0.81718755 1.3455139 0.55381596 0.61758906 0.9386894
1.1200681 0.7216827 0.76773584 0.9326225 0.5865088 0.6256782 0.8377301 0.5764799
00000000: dfa4 783f 88ff 8a3f c496 213f 45cb 8b3f
00000010: 3e06 1c3f 86b1 253f 5065 2f3f 1957 4d3f
00000020: d9d0 703f 0d00 2f3f 214a 803f bd38 783f
00000030: 7f96 bf3f 1a7b 233f 9564 fd3e d795 9c3f
00000040: f042 373f c438 7c3f 219a 673f 27d6 bb3e
00000050: 9b7c fc3e 4e3e 073f 78ce 493f e703 1e3f
00000060: 7955 663f 00aa 273f c7a8 6a3f 4b0f 173f
00000070: fa20 173f 443d 7c3f 444d 043f 9e83 493f
00000080: 0ff4 3d3f 729b 293f 0ff2 803f 3433 513f
00000090: cd39 ac3f e2c6 0d3f 511a 1e3f f34d 703f
000000a0: 645e 8f3f 33c0 383f 568a 443f 59c0 6e3f
000000b0: 7125 163f 722c 203f 7b75 563f 3094 133f
