HW1_files/simpleCNN_2/model_saves/model_ckpt_3.pth (torch, 204484 bytes, 10 tensors)

conv1.weight f4 [32, 1, 3, 3]
00000000: ce8c 223e 563f 37be 5c9b c0bd 71a0 1d3e
00000010: 5039 aabe 212b 733e cd73 2dbd f7be 083e
00000020: 25ed b83b 7548 b03c d88e 2c3e 6131 893c
00000030: bd6a 123e 1142 f4bd 5701 cbbd 0366 b3bd
00000040: 3b92 74bd 653a 9ebc a7f2 863e 1d9c 873d
00000050: 4839 4ebe c3b1 42be e6a5 27be 6dd1 43be
00000060: 8b18 88bd db37 023d 4f74 6b3e b257 083e
00000070: 26df 76be 9ac6 483e 122a 72ba c8be 973e
00000080: b5a8 443e 48fd b3be f051 c2be aede 64be
00000090: ab8c 823e ae5c 6bbd 9cd4 013e 8d3b 0ebe
000000a0: 844d ab3e 9b5b 37be c152 7c3e db6a ccb9
000000b0: 5e6a 62be 9ba4 0c3e 7a0c 6cbe 2773 f03d
000000c0: a5d9 41be 6dc1 06be a4fa 9cbe 3f3d 2dbe
000000d0: 9807 623e 5a3f 04bb 0316 a33e dbbd 7e3e
000000e0: 9b10 8cbd c7d6 8cbe e814 243e 76ac 8a3d
000000f0: e062 8cbe 3153 3b3e 282a 453e 11fa 8b3e
00000100: 9174 3dbe 2ac6 febd 78a1 153d 7342 593d
00000110: b893 85be 9aa2 81be e5d7 f33d b56e eebd
00000120: 87ed ec3d 587f 7c3d fdee 843d 075a 4dbd
00000130: 4ee5 823d 9c35 0f3e 39c5 c8be 4948 9a3d
00000140: 2e51 7ebe 635b a8be 8a6f 9abd cc93 a6bd
00000150: 7c98 4d3e 3579 2fbe 5e64 91be 9f15 853e
00000160: 3012 6a3c 3752 e53d 365f 2a3e e8c3 5abe
00000170: 7fcb 843d c3e3 2b3e b9fc 43be 552d 12be
00000180: 8a38 0f3e df6d ae3d 89af a0bd a4b3 aabd
00000190: 447d 553e 0240 06be e6fe 053e 674a 1b3e
000001a0: 4d5a 8fbe 46ce adbe c788 9b3e faa0 a13d
000001b0: 6d0b 653e 34e6 9c3d f31e fb3d db81 7a3e
000001c0: 8d55 a53e a637 54be 0d44 2d3d 009c 823e
000001d0: 5c78 713e 53ab e13d ac37 a5be f320 87be
000001e0: 349f 98be 6c75 00bd f431 963e cc29 45be
000001f0: b221 713e 3929 cebd 39fb b1be 5d01 b4bd
00000200: 2707 333e f45e 9d3e b965 35be 4491 943d
00000210: 136e 9a3e c34a 5f3e 474d 3e3e 7ee3 693e
00000220: aaf4 913e 58aa 1a3e 1a0b 71be 78da 57be
00000230: 8a3b 55be 982c 8c3c 9982 2fbe 5ffb 873d
00000240: 13ea c73d d0db 9dbd 3972 0a3e 2f79 d13d
00000250: 5b27 4d3e 2dbb 603e cc79 e5bd 022d a83e
00000260: 0ca9 79bd f972 24bd 8244 9abe a20c 19be
00000270: ff59 67be b175 edbd ac4c 923e 4c08 21be
00000280: 228e 64be f23f 4c3e 7ba6 9e3d 6512 853e
00000290: 4233 f1bd a8c1 7c3d 255c 00bc 5506 27be
000002a0: 2ef7 9fbe bbd1 19be 2948 c2bd 8a8c 163e
000002b0: f0bb 6c3d 068a 963d cf42 aa3e 5dff ab3e
000002c0: 39ed 6b3e 67dd f73b ba39 63be bd5f 873e
000002d0: 131d 01bd e650 ecbd fa96 93be d2bc 97bd
000002e0: 0d5a 8ebe d491 a03e d2bd 91be 4d62 67be
000002f0: 7eb9 5d3d df19 61be 6eb4 c13d d7aa 4ebd
00000300: fbf8 82be 8214 39bd 37b1 3c3e 4673 98be
00000310: 0e86 b03d 6c1a 4d3e 5488 933e 829d 7ebe
00000320: 6172 003d 3f1c 54be 6cb0 863e 0848 69be
00000330: adcc 6e3e 85bd ccbb 00ff f4bd 9720 97ba
00000340: a201 543d e10b 193e 57b5 823d 8e8e c73d
00000350: 2ee6 a6be c569 793e 7520 943e 06d8 7a3e
00000360: 8371 583e d8e9 8fbe 2e25 17be 0b7f 683e
00000370: e53c c5be b49f 5a3e e620 8abe 6867 99be
00000380: c988 d03d 6a55 96be 85f9 0abe 7b0b 503e
00000390: 98cf 823e d637 963e 8f99 c0bd 7fab 81be
000003a0: aa9d 913e e4b6 0abe a745 00be 18c5 d33c
000003b0: fec9 a3be 2482 723e 1079 703e eca5 93be
000003c0: 978a 5cbe 7a5d ce3c 186b 2c3e e5c9 17bd
000003d0: 7390 04be 238a c23c 15c8 84be 40a8 58be
000003e0: dfd6 abbe 9bb7 973e 0f87 923e 0481 6bbe
000003f0: b642 54bb 117c 163e aba8 f53c d4d9 40be
0.15874025 -0.17895254 -0.094046324 0.15393235 -0.3324685 0.23746921 -0.042346764 0.13354097
0.005643504 0.021518925 0.16851366 0.016747179 0.1429853 -0.11926664 -0.09912365 -0.087596916
-0.05970977 -0.019314954 0.26357004 0.06621573 -0.20139039 -0.19013123 -0.16371879 -0.19122858
-0.06645306 0.03179155 0.22993587 0.13314703 -0.24108562 0.1960701 -0.00092378363 0.29637742
0.19204982 -0.35154176 -0.37953138 -0.2235057 0.25497946 -0.057461433 0.1267876 -0.13889904
0.33457577 -0.17906038 0.24640943 -0.00038989526 -0.22110888 0.13734667 -0.23051634 0.117407136
-0.18930681 -0.13159724 -0.30659974 -0.16917895 0.2207321 -0.0020179362 0.3185273 0.24877112
-0.06839105 -0.27507612 0.160236 0.067711756 -0.27419186 0.18293454 0.19254363 0.27339223
-0.18501498 -0.124401405 0.03653094 0.053041887 -0.26089263 -0.25319368 0.11906413 -0.116422094
0.11568742 0.061644882 0.06490896 -0.050134685 0.06391393 0.13985294 -0.3921297 0.075333185
-0.24835655 -0.32882223 -0.07540806 -0.08133659 0.200777 -0.1713608 -0.28396887 0.25993058
0.014286563 0.11197322 0.16637883 -0.21363795 0.06484126 0.16786103 -0.19139375 -0.14275105
0.13986412 0.0851705 -0.07845981 -0.08335045 0.20848566 -0.13110355 0.13085517 0.15165101
-0.27998582 -0.33946437 0.3037779 0.07892032 0.2236764 0.07661095 0.122617625 0.24463598
0.32291833 -0.20724353 0.042301226 0.25509644 0.2358107 0.110190056 -0.32269037 -0.26392326
-0.29808962 -0.031361982 0.29334986 -0.19254225 0.2354801 -0.10066456 -0.3476198 -0.087893225
0.17483197 0.30736506 -0.17714585 0.0725427 0.30162105 0.21805863 0.18584166 0.22840688
0.28506976 0.15104043 -0.23539391 -0.21079433 -0.20823494 0.017111108 -0.17139663 0.06639742
0.09761443 -0.077079415 0.13520135 0.10228192 0.20034544 0.21946402 -0.112048715 0.32846838
-0.06095223 -0.04014871 -0.30130392 -0.14946225 -0.22592925 -0.115947135 0.2857412 -0.15725821
-0.22319844 0.19946268 0.077465974 0.25990596 -0.11777355 0.061708122 -0.007834469 -0.16311009
-0.3124327 -0.15021412 -0.0948642 0.14702049 0.05779642 0.07350545 0.33254096 0.33593264
0.23039712 0.007564235 -0.2218999 0.2644023 -0.031521868 -0.11538868 -0.28826123 -0.074090615
-0.27803078 0.31361258 -0.28465134 -0.22596093 0.054131977 -0.21982525 0.09458242 -0.050455894
-0.25580582 -0.045185573 0.18426977 -0.29775447 0.08619319 0.2002961 0.28814948 -0.24864772
0.03135908 -0.207139 0.26306474 -0.22781384 0.23320265 -0.0062481784 -0.119627 -0.0011530098
0.05175937 0.14945938 0.06382244 0.09743987 -0.32597488 0.24356754 0.28931013 0.24496469
0.21137051 -0.28108096 -0.14760277 0.22704713 -0.3852302 0.21349984 -0.26978225 -0.29961705
0.1018234 -0.2936204 -0.13571747 0.2031688 0.25549006 0.29339474 -0.09404289 -0.25326154
0.284406 -0.1354633 -0.1252657 0.025850818 -0.31990045 0.23682457 0.23483682 -0.28837526
-0.21537243 0.025191057 0.16837728 -0.037057776 -0.12945728 0.02374751 -0.259339 -0.21157932
-0.3356237 0.29632267 0.28618667 -0.22998434 -0.0032388396 0.14695765 0.029987654 -0.18833095

conv1.bias f4 [32]
00000000: f023 1cbe 0a86 9f3d fc4d b83c bd27 82be
00000010: 051b 3c3e 8221 7f3d c5f8 febb c428 54be
00000020: 4ad5 3fbe 28bb 84b9 afde 76be f475 abbe
00000030: e739 75bd 0689 08be 2188 643d b49c d4bd
00000040: bfe9 47bd 778b 24be 99da 92be e995 8f3e
00000050: 8d3a 2c3c 9d32 923e 52a4 9cbd a75d cfbd
00000060: b627 8ebe 63d1 24be 73be 743e aa91 82be
00000070: f486 07be d4a3 4c3e 96ee 5b3e 2910 f23d
-0.15248084 0.07789238 0.022498123 -0.25420943 0.18369682 0.062287815 -0.0077811205 -0.20718676
-0.18733707 -0.00025316444 -0.24108385 -0.3348843 -0.059869673 -0.1333352 0.055793885 -0.10381451
-0.048806902 -0.16068827 -0.28682402 0.2804406 0.0105120065 0.2855424 -0.07648529 -0.10125285
-0.27764672 -0.160955 0.23900776 -0.25501758 -0.13235074 0.1998437 0.21477732 0.118194886

batchnorm2.weight f4 [32]
00000000: df61 853f f583 823f 3b2f 8a3f 9396 8b3f
00000010: e1b6 7e3f a673 843f 4147 7e3f 28e6 843f
00000020: de34 883f baf8 893f dd3d 8a3f 8060 8a3f
00000030: 8f52 7d3f fd9a 923f 0b39 7e3f a3b5 883f
00000040: 3353 7d3f 06e3 8b3f 31a2 8a3f 4093 7a3f
00000050: 2d02 843f 62d9 883f e28a 803f e2a1 793f
00000060: 7dd5 8a3f 4d14 813f e848 893f 18b5 923f
00000070: 9d51 793f 4c96 793f c990 873f 8253 7b3f
1.0420493 1.019652 1.0795664 1.0905327 0.994978 1.0347793 0.99327475 1.0382738
1.0641134 1.077903 1.0800129 1.08107 0.989541 1.1453549 0.9930579 1.0680431
0.98955077 1.0928657 1.0830747 0.97880936 1.0313164 1.069134 1.0042384 0.9751264
1.0846401 1.008432 1.0725374 1.1461515 0.97390157 0.9749496 1.059106 0.981743

batchnorm2.bias f4 [32]
00000000: 8f92 8d3c 3d0e cc3c 8680 dbbc ac6f b63b
00000010: c6b9 b5bc bea0 3e3d f9a5 32bd 1811 213c
00000020: a6fc 2e3c e0c5 51ba 07ce 4b3d 8e7e 04bd
00000030: b6f5 b13b 0675 ce3b a5cb f03b 1b63 b23c
00000040: b904 3d3d 3659 1cbd c8b7 643d 8616 f63b
00000050: 8e5e 38bc c776 cebc 0917 f83c 120e 963c
00000060: 76d6 fe3c 89a3 273c 2110 a1bc b3a5 3abd
00000070: 8f1d 16bd fda1 9b3c dd64 32bc 3f37 58bd
0.017281799 0.024909133 -0.026794683 0.0055675115 -0.02218331 0.046540014 -0.043615315 0.009830736
0.010680353 -0.0008002203 0.04975703 -0.032347254 0.0054309024 0.0063005714 0.007348495 0.021775773
0.046147082 -0.038171016 0.05583933 0.007510009 -0.011253012 -0.025203122 0.030284422 0.018317256
0.031108122 0.010231861 -0.019661011 -0.04556818 -0.036649283 0.01899814 -0.0108883055 -0.05278706

batchnorm2.running_mean f4 [32]
00000000: 7e27 9d3d 427f 2e3e a059 4d3e 6c5b a43d
00000010: e839 b33e 38bd 8e3e db37 a23e 02f9 3e3d
00000020: 02c9 893d 6bb8 683e 4466 913d 83cb 543d
00000030: 651d 143f 8352 0e3e 153f d03e f982 073e
00000040: d9ab c53e ff15 463e ef88 433d b75e 263f
00000050: d91e b73e 62ba 003f 2128 e03d 3178 ba3e
00000060: 5891 8f3d 11f3 133e 2700 c23e ff15 783d
00000070: 4e76 8f3e f623 b43e c7d5 c03e 49dd 763e
0.07673548 0.17040733 0.2005372 0.0802525 0.35005116 0.27878737 0.3168324 0.04662419
0.06727792 0.227266 0.07099584 0.051951896 0.5785735 0.13898663 0.40673128 0.13233556
0.38607672 0.19344328 0.047738012 0.64988273 0.35765722 0.502844 0.10945154 0.36419824
0.07010144 0.14448191 0.3789074 0.060567852 0.28019947 0.35183686 0.376631 0.24107851

batchnorm2.running_var f4 [32]
00000000: 89eb ef3c 6726 253d 9e27 293d fe9e 893d
00000010: e820 9d3e 2dc4 8d3c 6a01 ba3e a368 b53c
00000020: 8b0f 223d 19c6 873d 9884 383d 08ed e13c
00000030: 6853 963f 2317 bc3c 306b 143f 76b1 e03d
00000040: 9cfe 0c3f 942f 4a3d f85e dc3c abf5 a93f
00000050: bb6e 0f3d dbcf 063e 1b3e 743d 3ea7 fc3e
00000060: b380 eb3c 95be d83d 2fad 2d3d 64f1 2d3d
00000070: bb97 a43e 9ccc 1b3e c9d0 083e 5737 603d
0.029287117 0.040319826 0.041297548 0.067197785 0.30689168 0.017305458 0.36329204 0.022144621
0.039565604 0.06629581 0.045048326 0.027578846 1.1744204 0.022960251 0.57976055 0.10971348
0.55076003 0.04936178 0.026900753 1.3278097 0.03501771 0.13165228 0.05962954 0.49346346
0.028747892 0.10583226 0.04240149 0.042466536 0.3214701 0.15214771 0.13360895 0.054740276

conv2.weight f4 [64, 32, 3, 3]
00000000: 33d4 cd3c 65b1 873a 0794 bf3b a5da fdba
00000010: 8357 d63c d165 19bd 3cb5 44bd afb1 31bb
00000020: d0a4 4abd 8053 abbc d031 9e3c cc5d a23c
00000030: 8c67 1f3d 4f87 3bbd 8db2 8a3a 27de 22bd
00000040: 64ac 34bd 25fc c1bc f203 703d 08f6 d53c
00000050: 0294 48bc d967 68bd acca 52bd dea9 2c3d
00000060: 5200 d0bc 9dba b7bc 9b88 58bc 8b84 58bd
00000070: 51ad aabd 5db3 53bd edfa 883d e856 803c
00000080: 8fbe c6ba c0b5 fa3c f6d9 903d 602b 363d
00000090: 29ee 683d e2e1 913c 4559 993c de64 f6bb
000000a0: 1f18 f4bc cbd1 5bbd e82f d23c 94fe a7bb
000000b0: 6fcc 803c 4826 69ba 6ced 77bd 6c97 53bd
000000c0: 8953 813a f59d e1bc cb8f 5dbd 189e 133d
000000d0: 29ab 393c 593d 7e3a 5415 623c d2de 013c
000000e0: 8483 d3bc 1cfb 823d e258 0a3d 5b10 903a
000000f0: 713f a8bb d59d 45bd 14f8 173d 5abd c5bb
00000100: 2114 17bd 9637 773c d13f 103d c694 963c
00000110: cb72 adbc e987 06bd d0ca 4bbb 7d73 803c
00000120: 9f99 adbc 2078 65bd 3cb1 d23c 60f8 bb3b
00000130: fe98 603d 5b5b ab3c 6b0a c53d 259b 4f3d
00000140: ad37 fbbc 88df 8e3d 841c f3bc 201b c2bd
00000150: 2dc3 a23b 9d06 8dbd 9d40 a1bd 444a babc
00000160: f6f8 7c3d c1d4 5bbc b9db 46bc 1a81 d2b7
00000170: e804 9cbc 353a cfbc 8adf bb39 f07e 6fbc
00000180: ae6a 39bd 3fce 3e3d ad40 5cbd d3a7 15bd
00000190: 0314 5ebd deb4 a63c 98ca f13c 5c3d 3a3d
000001a0: 0c04 93bc bb86 1f3d 3b58 aabc f367 9bbd
000001b0: ecf1 0839 5a10 8cbb 0914 7ebb ee01 afbc
000001c0: 4f5a 2d3c f922 953c ed63 963c 17a2 4ebd
000001d0: d588 103c 2e36 5f3d d554 cb3d 8acd c73d
000001e0: 1a05 70bd 8e2d 953d e254 a6bc 9c83 a9bb
000001f0: c335 1dbc 548f 4f3d 8abf 44bc ffb0 533d
00000200: 36eb cbbb 9773 25bd 2875 da3c a23a e73c
00000210: 7e44 533d f805 8abc c7c8 3a3d c6fa 2e3d
00000220: 2937 33bd 0d26 57bd 7df3 893c c2e1 3dbd
00000230: 137d 9b3c 4896 eebc 317b 6b3d d4ff 303d
00000240: 50ce 47bc 8655 e83c 68a3 edbc 885d b4bb
00000250: 8b88 623b c3ed 0ebd 9ddd babc aa2f 19bd
00000260: 931c 133d 7808 c33d b961 833d 83d4 b53d
00000270: 1738 72bd 3e7e 173c 4d0e a43c 2813 9fbd
00000280: 1026 b2bb ef8a 23bd 9961 793b a4e6 c73b
00000290: f3ae 313d ef68 41bd 6699 5bbd 970a 283d
000002a0: 4d05 7c3c 4c51 443c 96f8 af3c fe1b f4bc
000002b0: cd58 ee3c 9783 2fbd d0b9 b93c c18c 053d
000002c0: 16f8 2c3d edee 03bd 6443 37bd cd8d 023c
000002d0: 631f 2fbc 7455 0abd 4af1 24bc 4c81 f0bc
000002e0: 51ed d7bb 46cb d9bc 0197 39bd 651b 86bd
000002f0: 8aeb 2c3d e690 373c 5e00 b2bc bf5a 163c
00000300: 42f0 5fbd 1727 2e3d 662e 683c a5c5 aebd
00000310: 0b03 96bd b523 57bd 86db cbbc 0ca7 98bb
00000320: 8164 a0bd 6d1a 22bd 3616 b43c 1e92 11bd
00000330: 9eaa 02bd 63b4 58bd fe5b cc3b 9f31 df3b
00000340: 02bf 5fbc 1177 01bd b32e 723c 01ca 8f3c
00000350: e4ed c73c 4788 9e3c b7f3 67bc debc 83bd
00000360: 23d7 8b3d b1fe bb3b b7ad 83bc bdc9 a03d
00000370: f064 0e3d 3e4f 6ebd b167 70bd 4e7b 2bbd
00000380: 288c 64bd 73d6 083d 3312 a2bc a993 8b3d
00000390: 3dc2 46bc 84b5 0a3d a934 8ebb 1cd8 3fbd
000003a0: 8028 af3c 2879 98bd 939f d4bc 9ad9 74bc
000003b0: 7f59 5d3c f36b 09bc f287 84bd 7718 adbd
000003c0: 66b5 c7bc 079b e9bb d64f babc 34b5 8cbb
000003d0: 2159 47bb cd91 63bd e1fd b3bc 9e45 27bd
000003e0: e652 d3bc 4159 363d 3a90 993d f086 5fba
000003f0: cb78 52bd a626 3dbd d97c 2cbc efbe bdba
0.025125599 0.001035255 0.0058465037 -0.0019367529 0.026164776 -0.037450615 -0.0480244 -0.0027113964
-0.049473584 -0.02091384 0.019310862 0.019820116 0.03891711 -0.045783337 0.0010581777 -0.039762642
-0.044109717 -0.023679802 0.058597513 0.026118293 -0.012242319 -0.05673966 -0.051462814 0.042154185
-0.025390778 -0.022427851 -0.013216163 -0.052860778 -0.08333839 -0.051684726 0.06688485 0.01566644
-0.0015162992 0.030604243 0.07072823 0.04447496 0.056867752 0.017807905 0.018719325 -0.0075193485
-0.029796658 -0.05366687 0.02565761 -0.0051267836 0.015722482 -0.0008893949 -0.060529158 -0.05165808
0.0009866814 -0.02754114 -0.05409221 0.03603944 0.011332312 0.00096984726 0.01379903 0.00792666
-0.025819547 0.063955516 0.03377617 0.0010991202 -0.005134516 -0.048246223 0.03710182 -0.0060345354
-0.03688443 0.015088936 0.03521711 0.018381488 -0.021172902 -0.032844458 -0.0031096227 0.01568007
-0.021191416 -0.056022763 0.025719278 0.0057363957 0.054833405 0.020917585 0.09621128 0.050685067
-0.030666197 0.06976229 -0.029676683 -0.0947783 0.0049671144 -0.06886027 -0.07873652 -0.02274049
0.061760865 -0.013417424 -0.012137347 -2.5094068e-05 -0.019045308 -0.02529631 0.0003583397 -0.014617667
-0.045267753 0.04658341 -0.053772617 -0.036537003 -0.054218303 0.020349916 0.02951555 0.045468673
-0.017946266 0.03894685 -0.020794025 -0.07588186 0.00013060094 -0.00427441 -0.0038769266 -0.021363225
0.010580613 0.018205153 0.018358195 -0.05044755 0.008821686 0.05449503 0.0992829 0.09756
-0.058598615 0.072840795 -0.020304147 -0.0051731598 -0.009595337 0.050673798 -0.012008557 0.05168247
-0.0062231077 -0.04039344 0.026667193 0.0282262 0.05157899 -0.01684855 0.045601632 0.042719625
-0.043753777 -0.052526522 0.016839737 -0.046357878 0.018980538 -0.029124394 0.05749053 0.043212727
-0.012195185 0.028361093 -0.029008582 -0.005504314 0.003456625 -0.034894716 -0.022810752 -0.03739897
0.035915922 0.095231 0.064151235 0.08878424 -0.059135523 0.009246407 0.02002635 -0.07767326
-0.0054366663 -0.03992742 0.0038052558 0.0061004926 0.043379735 -0.047219213 -0.05361309 0.041025724
0.015382123 0.011982273 0.02148084 -0.029798504 0.029095078 -0.042850103 0.02267161 0.032604937
0.04222878 -0.03221028 -0.044742003 0.007968378 -0.0106886355 -0.0337729 -0.010067293 -0.029358529
-0.0065895696 -0.026586186 -0.045310024 -0.06548194 0.042216815 0.01120398 -0.02172869 0.009176909
-0.054672487 0.042517748 0.0141712185 -0.085337915 -0.07324799 -0.052524287 -0.02488495 -0.0046585854
-0.078316696 -0.039575983 0.021983247 -0.03553974 -0.031900994 -0.052906405 0.0062365523 0.006811335
-0.01365638 -0.03160769 0.014781642 0.017552378 0.024405427 0.019352091 -0.014157227 -0.06432508
0.068281434 0.0057371487 -0.016074045 0.078509785 0.03476423 -0.05818104 -0.058692638 -0.04186564
-0.055797726 0.03340764 -0.019784069 0.06815273 -0.012131271 0.033864513 -0.0043397737 -0.046836957
0.021381617 -0.07444984 -0.025954997 -0.014944458 0.013510107 -0.0083875535 -0.06471242 -0.08451932
-0.02437849 -0.0071290764 -0.022743147 -0.004294062 -0.0030418115 -0.05555897 -0.021971645 -0.040837876
-0.025796365 0.044518713 0.07498212 -0.0008526882 -0.05138473 -0.046179436 -0.010527813 -0.0014476458

conv2.bias f4 [64]
00000000: 5ba0 4cbd 0213 3abc fc8a 4ebd 3fe2 84bd
00000010: b6e7 dabc 9098 7ebd 8347 23bc 75d8 8abd
00000020: 66c4 9b3c d592 65bd 8608 6dbc cefa a13c
00000030: 83b2 983c cad4 7cbd eb02 9d3b d64c ce3c
00000040: 7ac0 b83b 4ebf 3dbd 05cd b1bd c7f8 1fbd
00000050: 0a67 36bd 285d a1bc fe8c 81bd 53f7 31bd
00000060: 8b24 87bb 83ef 953b f981 2dbc 5076 0dbd
00000070: 418b a9bd 6f1e 9abd 8287 853c 7e48 52bd
00000080: f3f5 9b3c 4223 603c b629 a6bb bb63 69bb
00000090: c58b 6bbd 3b61 64bd 5f32 a5bc 457c 25bd
000000a0: d8c5 b33c 7f28 c7bd 2d49 9ebd d3e4 dabc
000000b0: edd0 b0bc 23ae 3bbd ba5e 3fbd f8cf 6dbd
000000c0: e335 38bd c92a 81bd 8fff c8bb b7ec 17bc
000000d0: a3b7 9bbc b989 3ebd e9a5 33bd 36d5 50bd
000000e0: 0935 c2bc eb66 393c 88fc 8f3c 366c 4bbd
000000f0: 5383 913b e020 8d3c 3f6f 89bd a6e7 78bd
-0.049957614 -0.011357071 -0.050425515 -0.064884655 -0.026721817 -0.062157214 -0.00996578 -0.06779567
0.019014549 -0.056048233 -0.014467364 0.019772913 0.018639809 -0.06172637 0.0047916076 0.025183123
0.0056381794 -0.04632502 -0.086816825 -0.039055612 -0.04453186 -0.01969774 -0.0632572 -0.043448757
-0.0041242293 0.004575671 -0.01059007 -0.03453666 -0.08278514 -0.07525336 0.016299967 -0.051338665
0.019038176 0.013680281 -0.0050708903 -0.0035612423 -0.05750634 -0.05575679 -0.02016562 -0.040401716
0.021944925 -0.09724521 -0.07728801 -0.02672044 -0.021583999 -0.045820367 -0.046721198 -0.058059663
-0.044973265 -0.06306989 -0.0061339806 -0.009272746 -0.019008463 -0.04651806 -0.043859396 -0.050984584
-0.02370693 0.011316041 0.017576471 -0.049663745 0.004440704 0.01722759 -0.06710672 -0.060767792

linear1.weight f4 [10, 3136]
00000000: 633a 203c d3cf 713a 7cb9 5cbc d1d4 2cbc
00000010: b591 5c3c 36ca 3bbc a36a 813c 5178 063b
00000020: 05a9 0f3b 7dee ddbc 2ade aebb 0480 9aba
00000030: 7102 03bd 9ff9 9a3b 5edc 5abb 1545 68bc
00000040: 3d30 9dbb 80d8 423b d486 49bc e072 aebc
00000050: 03d9 8c39 4682 89bb afab 7cbc 2647 a8bc
00000060: 64d6 cdbd 5e98 2abd 6d89 743b dd5e 03bc
00000070: 4242 f93c 678c 533c 5119 7fbc 7773 973a
00000080: 7a41 833b df83 533d a3b8 c73b 2e83 c03b
00000090: b1e7 ea3b 5abf 53bb 67a6 933d 958b 013c
000000a0: 6c8f 6e3c c610 e33b ddf6 4b3c 06ad 05bd
000000b0: 034a 36bd f42e d0bc bc83 90bc 2277 1ebc
000000c0: d9d4 72bc a65f f0bb 768b 283b 65ac a63c
000000d0: 0947 52bc 6ffe 2dbb 0a2c 873c 2885 0ebc
000000e0: fcc0 36bc 0b23 99bb 8dae 14bb e27f d93b
000000f0: 1075 5fbb c803 90bc ba73 93bc 3d53 003c
00000100: 56c0 8ebc eb3a cf3c 5624 0b3c 706a ca3c
00000110: 22e4 933c 229b cabc 2ea9 1c3c 8971 73bc
00000120: ddf1 cfbc 864d 21bc 4d22 21bd d4e7 c13b
00000130: 0ae9 f9ba fbb2 b9bb 163b cbbc b3b8 4dbc
00000140: 9e6e 90bd 9bf2 9dbc f7d2 703c 07ac c53c
00000150: 7224 bbbc b47c 37bb a3f7 053d 2fd6 7a3c
00000160: c91e 063c f65d 173d ec89 51bc d136 c13b
00000170: a7be 903c 6460 283c b30a 3e3d 6b5c 113b
00000180: 7726 e0bb f0d0 48bc b898 5fbc 0051 073c
00000190: 7329 d9bb 9ebf 82bc 90db cfbb 4702 29bb
000001a0: 1017 1dbc 626b 94ba d7a1 a7bc ddcb 38bc
000001b0: 19fb 1c3b 5f1e a33a bf9a 9b3a 19bf 793c
000001c0: 7a1c 36ba 0e7c 83bb 0ad2 a2bb c099 0f3c
000001d0: 99be 093c ed6e 1a3b 97ad 4f3c 4260 6ebc
000001e0: 5cd6 07bd c702 9abb 3600 88bc ba86 0ebd
000001f0: 5467 ddbc ea30 57bc 328d 47bc 0a20 cebc
00000200: 2de0 98bc c976 e03b 825c 153c 85ff 89bc
00000210: 8668 80bc 2e01 353c eb00 9a3b eaa6 95bc
00000220: 5106 25bb 330a 513b 1e07 a1bb 26ba 9cb9
00000230: 7d3a 51bb a7ea 783a 18f2 573c 6834 12bc
00000240: 5f9c 72bb 3b54 01bd f832 87bc 9c1b b0bb
00000250: 067a 7c3b 464c ebbb 2e99 de3c 65e7 6ebc
00000260: 6107 bc3b 0303 7d3b d812 173b b55b 57bc
00000270: 9c8f a5bc d714 883c 82a7 813c 4425 793c
00000280: c586 903c c916 643c ea5d f7bb e65a 453c
00000290: 9863 74bb e4b5 b0bc 7224 033d f54c 803c
000002a0: 7d98 a53b 9a63 0a3c 4eed cbbb 27fe d6bc
000002b0: a159 febc 9992 993b 2ba8 573a df55 3ebb
000002c0: 8a1d c5bc 9870 0bbd 076f 433c fa4c 0e3d
000002d0: 9869 a0bc 0227 c3bc f537 3bbc 4d3a aabc
000002e0: 86be d0bc 074b 7f3c d653 2dbc 3723 96bc
000002f0: 217d a7bb 9856 623b 5a45 443c 55a4 25bc
00000300: 5c8a aabb 905a e23b 8b00 fabb 03a9 84bc
00000310: 8b0c 51bc a08f a6bb a82b dfbb f11c 723c
00000320: eee2 473c 3a16 b8bb 06d8 2fbb a72b 9abb
00000330: f9f3 4cbb f6b6 33bd 1190 f7ba 48e5 0a3b
00000340: 793b f5bc 5a67 7abc b324 51bc 2a75 083c
00000350: 372b 54bd da22 2f3a 6725 6fbd 0a52 86bd
00000360: e86d ecbb 0886 a23c 95c2 57bc 72ba 7ebc
00000370: 4a58 1bbc 74a5 073c 6ce8 7abc 8080 953a
00000380: 238a 41bc 65f0 64ba cd4b 443c 47f6 7d3d
00000390: dd2d 453d f6d4 4a3d 0055 db39 2a43 abbc
000003a0: 4f1a 0dbc 5b8a c73b cf07 813d ab48 1c3c
000003b0: e4c9 af3c 351c 353c 79db 8c3c 1d67 a7bc
000003c0: dd5e 20bd 42ac b8bb 5320 4ebd 53be 45bc
000003d0: 8493 febc f005 fc3b 6085 283b bcd9 19bb
000003e0: 90ac d73b 979d 85bc ed1b 673c b389 36bc
000003f0: fe91 13bb 7213 5a3c ff50 db3a 0b03 a33b
0.0097795455 0.00092243886 -0.013471957 -0.010548786 0.013462474 -0.011461785 0.015797919 0.0020518492
0.0021920812 -0.02709126 -0.0053365426 -0.0011787419 -0.03198475 0.004729464 -0.003339551 -0.014176627
-0.00479701 0.0029731095 -0.012300212 -0.021295011 0.00026864567 -0.004196438 -0.015421792 -0.020541739
-0.100506574 -0.041649215 0.0037313357 -0.008018223 0.030427102 0.0129118925 -0.015570001 0.0011554797
0.004005608 0.051639434 0.0060950085 0.005875013 0.007168733 -0.00323101 0.07209473 0.007906814
0.014560562 0.00692949 0.0124489935 -0.03263571 -0.044504177 -0.025413014 -0.01764094 -0.009671958
-0.014821255 -0.007335621 0.002571789 0.020345876 -0.012834319 -0.002654936 0.016500492 -0.008698739
-0.0111544095 -0.004673367 -0.0022687048 0.0066375593 -0.0034096874 -0.017579928 -0.017999519 0.007832346
-0.017425697 0.025296649 0.00849255 0.024708956 0.018053118 -0.024732176 0.00956182 -0.014858612
-0.025383884 -0.009845143 -0.039339352 0.0059175286 -0.0019066643 -0.005667088 -0.024808448 -0.012556243
-0.070523486 -0.019280722 0.014698735 0.02412988 -0.022844527 -0.0027997913 0.032706868 0.015309854
0.008186051 0.036954843 -0.012789231 0.005896427 0.017669035 0.010276888 0.046396922 0.002218033
-0.006840523 -0.012256846 -0.013647251 0.008259058 -0.0066272556 -0.01596051 -0.0063433126 -0.002578871
-0.009588018 -0.0011323506 -0.020462913 -0.011279074 0.0023953377 0.0012444964 0.001187168 0.015243315
-0.00069469924 -0.004012591 -0.0049688863 0.008764684 0.008407258 0.0023564652 0.012675664 -0.014549317
-0.033163413 -0.004700038 -0.016601663 -0.034796454 -0.02702681 -0.013134221 -0.01217966 -0.025161762
-0.018661583 0.006850098 0.009116294 -0.016845474 -0.01567484 0.011047645 0.0046998165 -0.018268067
-0.0025180767 0.0031896948 -0.0049141785 -0.0002989333 -0.003192573 0.0009495415 0.013180278 -0.008923627
-0.0037019474 -0.03157447 -0.016503796 -0.005374385 0.003852488 -0.0071807234 0.027172651 -0.014581536
0.0057381843 0.0038606531 0.0023052003 -0.013144423 -0.02021008 0.0166115 0.015826944 0.015206639
0.017642388 0.013921448 -0.007549037 0.012045598 -0.0037290808 -0.021571107 0.03201718 0.015661696
0.0050535784 0.008446598 -0.0062233573 -0.026244236 -0.031048598 0.0046866653 0.0008226658 -0.0029042882
-0.024061937 -0.034042925 0.011928326 0.03474138 -0.019581601 -0.023822311 -0.011426915 -0.020779753
-0.025481474 0.015581853 -0.01057907 -0.018327339 -0.005111352 0.0034536477 0.011979425 -0.010109981
-0.005204482 0.0069077685 -0.0076294593 -0.016193872 -0.012759338 -0.0050830394 -0.006810624 0.014777408
0.0122001 -0.005617884 -0.002683164 -0.004704911 -0.0031273349 -0.043875657 -0.001888754 0.0021193791
-0.029935585 -0.01528343 -0.012765097 0.008328715 -0.051799025 0.00066809135 -0.05838528 -0.065586165
-0.0072152503 0.019839302 -0.013168951 -0.015547382 -0.009481499 0.008279193 -0.015314203 0.0011406094
-0.0118127195 -0.00087333313 0.011980963 0.062002447 0.04813944 0.0495195 0.00041834265 -0.02090605
-0.0086122295 0.0060894913 0.063003175 0.00953881 0.021458574 0.011054088 0.017194496 -0.02043491
-0.03915297 -0.005635769 -0.050323796 -0.012069303 -0.0310762 0.0076911375 0.0025714263 -0.0023475727
0.0065818503 -0.016310496 0.014105779 -0.0111412285 -0.0022517438 0.0133103 0.0016732513 0.004974728

linear1.bias f4 [10]
00000000: baf2 16bb 1667 343d a7b8 12bb 55c0 29bc
00000010: 8eec c2bc 99f1 a7bb b549 38bc 11b8 8c3c
00000020: 9c8c 8bbb 3e19 a9bb
-0.002303286 0.044043623 -0.0022387893 -0.010360797 -0.023794439 -0.005125236 -0.011248042 0.017177613
-0.0042587053 -0.00516048
